models/original/O/model4.pt (torch, 310479 bytes, 8 tensors)

weight f4 [128, 384]
00000000: a3e3 b63d 9aaa 2b3e 73e2 ed3d 4bde a33d
00000010: f42b 893e f74d 1a3e 6250 e83d fe9d dc3d
00000020: 135c 663e 098c 803e c705 c73d a111 203e
00000030: 648e bc3d adc4 b93d dd53 d73d b8b8 f33d
00000040: 7e0d 963e 05d4 4d3e c414 bb3d 1f3e 363e
00000050: e8c1 4d3e 8d97 473e 430f 073e 5af9 143e
00000060: c00b 733d a465 193e 1605 153e 15fd 283d
00000070: a4a1 dc3b f1de 293e 30f6 513e 2141 493d
00000080: 82ab 6b3d 1040 19bc 1044 d4bc a0f3 8e3d
00000090: 5f6f 653e 0a2c 153e 937f 8f3d 0916 b83d
000000a0: c3c2 c43c 72cb 333e 5e7f 633e 26a6 363e
000000b0: b7f2 d43d d0fa f13d 0ac5 dd3d d360 a63d
000000c0: 343e 023e 628f c43d bf19 303d 99ec 773d
000000d0: 7ca9 adbb c0b5 083e 3f93 1a3c 74b7 1a3e
000000e0: 5f8c 743d 7221 063e 5fed fe3d 5f7c a53d
000000f0: cc16 8fbc ba72 05bc bd67 073e 8c30 b03d
00000100: 7c60 bdbc 2ab9 94bd f0b2 dc3d 317a f13d
00000110: 81ed 4b3d e086 cd3d 4a20 7dbb 92f9 59bd
00000120: 908b 003d e582 e03d e936 c83b c367 83bd
00000130: d646 123e 085b febc c758 783d 6e6f 173d
00000140: ffbf 1e3e 09f9 123b b611 013e 0c5a 093e
00000150: 3bde 483e 17cc bb3c 2c90 243d 8146 ebbb
00000160: cd7d 5e3d dca7 2c3e a2e8 1a3e eca1 213e
00000170: 9f2f 223e a6c4 443e a40c babc dfd0 9e3d
00000180: c165 413e 5d18 0e3d ab63 2a3d a4ed b83c
00000190: b2a7 da3d 33cf 743d 081c a1bd 732c 9a3c
000001a0: 1b1a 0f3e acb5 1d3e e0f2 293e 3906 363e
000001b0: 931b b83d 53b7 ff3d 33f1 20bd 6d17 9f3d
000001c0: 728a f63d 6b69 5a3e c509 8d3e fb33 ff3d
000001d0: 0a02 0f3e 848f 6fbd 1017 b9bd e928 213d
000001e0: 0768 4e3e b023 6b3e f929 243e 1c3b 213e
000001f0: 0e53 fe3d 4a7f 0f3e 0d35 943d 3649 2d3d
00000200: b8b5 af3d a2ae 4f3c 27c1 213e c8cd 4b3d
00000210: 59ff 90bd f4f1 49be 72c6 3dbe ea88 5cbd
00000220: 58a4 b13d 1c1f 823d 3d9e 6c3e 3700 a33c
00000230: 0aec c3bc eee0 b03d 3acf de3d 0820 4fbc
00000240: b90a d13d b79d ba3d b909 923d 60dc 373e
00000250: f91d d43d bb41 14bd 027f a2bd 52f0 a43d
00000260: 9d9e 2c3e f729 4e3b ff2d 403e 77b5 3b3e
00000270: 5967 073e d301 9c3c 64d9 063c 63d4 cc3d
00000280: a7b5 83bd 6198 d33d b130 69bc fd5d 603e
00000290: a777 ed3d aaa3 223e ae4e b53c 2dd1 893d
000002a0: 93dd d9bd 3fd5 dd3d 5546 203e e5d3 cc3c
000002b0: 2f20 2a3d 27ed 973c 60ea 7a3d 248e a83d
000002c0: 8899 da3d e4f4 373e 89c7 f33c 3935 f63b
000002d0: 3f72 5f3d 1156 39bc 3e62 ef3b 7c01 d73c
000002e0: d81a e7bc 7960 173e 7f3c 023e 05e5 cd3d
000002f0: 71b4 a83d 8bf6 7f3d ff9e f83c f003 b23d
00000300: b837 163e 3711 a2bc 510d 0fbe 7f97 23bd
00000310: 9c7d 27bd a4c5 013d f453 133e f3b7 c43d
00000320: c7bd 5b3e 5a52 293e b2cf 3e3d c86f 0cbc
00000330: 3584 92bc f317 aabd 9787 78bc 8667 76bd
00000340: ac23 3d3e 7431 9a3d ffeb ee3d ca6e 063e
00000350: 7cbb 763d 97dd 11bb 4048 ab3d 52c7 81bd
00000360: d925 293e 9137 973d a464 c43d 61d3 b73c
00000370: a85f 953d 3045 f63b 2a7e 2cbd d872 79bc
00000380: e41f 1a3e 5df9 cb3d 30a7 a73d 9525 233d
00000390: 0711 b53b 5fd9 98bb 14b6 9f3a dba5 5639
000003a0: eb05 de3d 70a9 bc3d c00c 2b3e 8626 ae3d
000003b0: b54d e23d daa2 47bb dae8 d4bc 5b53 fd3c
000003c0: 8529 0d3e cefd 373e 2211 183e 4716 0b3c
000003d0: 1fe8 963d d16b a2bd 8fb3 623d dcd1 3d3d
000003e0: 94e2 623d 54ba d63d 21b1 103e fc37 253e
000003f0: 356f 163d 3bfd 8d3d 8a6e 9f3d 0244 99bc
0.08930137 0.16764298 0.116154574 0.080013834 0.26791346 0.15068804 0.11343457 0.10772322
0.22496061 0.25106838 0.09717899 0.15631725 0.09206846 0.09070716 0.105140425 0.11900467
0.2930717 0.2010041 0.0913482 0.17797135 0.200935 0.19491406 0.13189416 0.14548245
0.059337378 0.14980179 0.14552721 0.041256983 0.0067331363 0.16588952 0.2050407 0.049134377
0.05753661 -0.009353653 -0.025911361 0.069800615 0.22405766 0.14567581 0.07006755 0.08988578
0.02401865 0.17558077 0.22216555 0.17836818 0.10397857 0.11815417 0.10828598 0.081239365
0.12719041 0.095976606 0.042993303 0.06052837 -0.005299745 0.13350582 0.00943452 0.15109044
0.05970418 0.13098696 0.12447619 0.080803625 -0.017466925 -0.008145029 0.13223167 0.086030096
-0.023117296 -0.0726188 0.10776317 0.11790884 0.04978705 0.10035491 -0.0038623982 -0.053216524
0.031383097 0.10962466 0.0061100614 -0.06416275 0.14284834 -0.031049266 0.06063154 0.036971502
0.15502928 0.0022426269 0.12604412 0.13413256 0.19616024 0.022924466 0.040176556 -0.0071800356
0.05431919 0.16860908 0.15127805 0.15784425 0.15838479 0.1921564 -0.022711106 0.07754683
0.18886472 0.034691203 0.041598957 0.022574253 0.106765166 0.059767913 -0.07866675 0.018820023
0.13974802 0.15401334 0.16596556 0.17775811 0.08989634 0.12486138 -0.039292526 0.0776814
0.12038125 0.21329276 0.27546516 0.12461086 0.13965622 -0.058486477 -0.09037602 0.039345656
0.20156871 0.22962832 0.16031636 0.15745205 0.12418185 0.140134 0.07236681 0.042306148
0.08579582 0.012675913 0.15796338 0.049756795 -0.07079954 -0.19721204 -0.18532732 -0.05384151
0.08673924 0.0635359 0.23107238 0.019897563 -0.023916263 0.08636652 0.10879369 -0.012641914
0.10207123 0.09112113 0.07130761 0.1795516 0.10357279 -0.036195498 -0.07934381 0.0805365
0.16857381 0.0031458118 0.18767546 0.18330942 0.13223018 0.019043839 0.008230541 0.10001447
-0.06431132 0.10331798 -0.0142328 0.21910854 0.115950875 0.15882745 0.022132244 0.0672935
-0.10637965 0.10831689 0.1565183 0.025003383 0.0415346 0.0185457 0.061258674 0.08230236
0.10673815 0.17964512 0.029758232 0.007513669 0.054552313 -0.011312024 0.0073054126 0.026245825
-0.028211042 0.14782895 0.1271839 0.10053448 0.082375415 0.06249098 0.030349253 0.08692157
0.14669693 -0.0197836 -0.13969924 -0.0399394 -0.040891275 0.031682625 0.14387494 0.09605398
0.21459113 0.16535321 0.046584792 -0.008571573 -0.017885307 -0.08305349 -0.015169046 -0.06015732
0.18470639 0.07528964 0.116661064 0.131282 0.060237393 -0.0022257322 0.0836339 -0.063368455
0.16518344 0.07383645 0.09589508 0.02243966 0.072936356 0.007515572 -0.042112507 -0.015225135
0.15051228 0.09959672 0.08186185 0.039830763 0.0055257115 -0.0046645845 0.0012185001 0.00020470416
0.108409725 0.09212005 0.16704082 0.085034415 0.11049978 -0.0030462057 -0.025989939 0.030923536
0.1378537 0.17967913 0.14850286 0.008489198 0.07368492 -0.079307206 0.05534702 0.046342716
0.055391863 0.10484758 0.1413007 0.16134638 0.03672715 0.069330655 0.077847555 -0.018709186

bias f4 [128]
00000000: 157b 6f3e cdba 1e3e b14b 813e ed3f 793e
00000010: 6659 653e 8c6f 923e 7ed2 313e 2c83 543e
00000020: 64d5 353e f087 2f3e 1174 4a3e c744 913e
00000030: ec57 b63c fcd2 943e 5e3d c13d bd32 913e
00000040: 894f fb3d dc2b 713e 082a 493e 8936 213e
00000050: 2f3b ae3d 428a 673d 8ea1 ed3d 18da 563e
00000060: 1ba4 5d3e e7c3 793e acb2 733e 5e2e 863e
00000070: caf9 4f3e 9f4d 823d 6193 853e 400b 843e
00000080: 6278 ac3d cbdb 5e3e b824 8f3e d6b0 2a3e
00000090: 9c60 f03d fb6e e43d b04d 593e 60eb 5c3e
000000a0: f6f0 c53d f1da 813e 0800 843e 7eae 313e
000000b0: 7910 cd3b 763c 8f3e 5840 8e3e 53e1 493d
000000c0: 90b1 6a3e 75be 6c3e 4c8f 513e e1db 523e
000000d0: 633f 773e ed37 0d3e 4ad6 483e f153 573e
000000e0: 9e09 4f3e fa49 353e 2bbf 6b3e 358b 733e
000000f0: 2101 2e3e ee87 543e 7fe1 993e 975d ec3d
00000100: eb63 963d d7a1 953e 3a3b 553d a1eb 9d3e
00000110: 6444 6b3d 8844 113e 535b 003e 01bb 603e
00000120: 5764 033e 0b74 643e 78d0 2e3e d2d2 763c
00000130: 144d 233e 6589 813e b21f 813e ad73 e73d
00000140: ae2c aaba 1ca4 e73d cf1d 673e aea8 5e3e
00000150: 7fa3 7a3e e1bd 503e d7c4 3f3d baba 453e
00000160: 4b7f 0b3e 180a 2c3e 15ff 453e 9cb9 7b3e
00000170: a26c 0e3c 82b4 5f3e cae8 0d3e 4690 f93d
00000180: 93aa 4d3e 8921 863e e6ef 863e 793a 963e
00000190: 6fef 8c3e 2651 a83e 05c7 013e 4e77 923e
000001a0: 7549 423e 76fe 693e bbc4 d93d 2ec9 c73d
000001b0: 9fa3 313e 5695 003e d9be 483e a827 443c
000001c0: d9fc 9d3e fcf5 333e 451d 003e 03d0 df3d
000001d0: 59dd 083e 9e98 603e f320 6f3e eeaa 943e
000001e0: 90cf 8e3e e4ea ee3d 688f 8e3e eebe 2e3e
000001f0: 63a0 4f3e 86aa 863e f885 223e a979 7f3e
0.23386796 0.15500946 0.2525306 0.24340792 0.22397384 0.2860073 0.17365453 0.20753163
0.17757183 0.171417 0.19770838 0.28372785 0.022258721 0.29067218 0.09435533 0.28359023
0.122710295 0.23551887 0.1964494 0.1574346 0.08507382 0.056528337 0.1160308 0.20981634
0.21644633 0.24391137 0.23798627 0.2620725 0.2031013 0.06362461 0.26089004 0.25789833
0.08421399 0.21763532 0.27957702 0.1666902 0.11737177 0.1115398 0.21221042 0.21574163
0.096651 0.25362352 0.25781274 0.1735172 0.006258067 0.27975816 0.27783465 0.04928715
0.22919297 0.23119529 0.2046482 0.2059169 0.24145274 0.13790865 0.19612995 0.21028115
0.20218512 0.17704001 0.23022144 0.23783572 0.16992618 0.20754978 0.30054852 0.11541288
0.073432766 0.29225037 0.052058436 0.30843833 0.05743827 0.14186299 0.12534837 0.21946336
0.12831245 0.22309892 0.17071712 0.015064912 0.15947372 0.25300136 0.25219494 0.1130136
-0.0012983286 0.11310598 0.22569965 0.21744034 0.24476431 0.20384933 0.04681858 0.19309512
0.13622777 0.16800725 0.19335587 0.24582523 0.008692892 0.21846202 0.13858333 0.12185721
0.200846 0.2619746 0.26354903 0.29341486 0.27526423 0.3287441 0.12673576 0.28606647
0.18973334 0.22850975 0.106332265 0.09755169 0.17347573 0.12556967 0.19604053 0.011972345
0.3085697 0.17574304 0.12511165 0.10928347 0.13365687 0.21933219 0.23352413 0.2903666
0.27892733 0.116658956 0.27843785 0.17065021 0.20276026 0.26301974 0.15871418 0.24948753

weight f4 [128, 128]
00000000: cf4e 073d 8810 593d ab44 b63c 24ff 323e
00000010: 2645 9f3d 66eb 093e dfee be3c 4bb2 2ebc
00000020: 7e1d c2bc cde6 6a3d dd30 d13c 2cde ab3d
00000030: c1ee 253c 6c4f 073e ad6f fa3d 9cb3 093e
00000040: 4d92 4c3c eb3c 0a3e 95b4 ef3c b0d5 773d
00000050: d7bc a2ba c280 763e 0106 d23d 993d 983d
00000060: 5857 bf3d 07d8 083d e882 563d 156f 573c
00000070: cb41 aabc 1b4b eabb 1be6 ab3d 6443 2e3d
00000080: 156f d53c 0294 eb3d 7844 073d e164 d83d
00000090: 060f a23c a902 ffbd b2d1 043e a5ba a13d
000000a0: cf53 753d 9640 623d 0730 b93d 9a89 1f3c
000000b0: 7155 18be eb74 e33b a759 153e 5976 1cbe
000000c0: 9b19 d03d 365b 2bbc 69a2 043e 8b90 dc3d
000000d0: ac40 913c 2b73 a5bc 7bcc e43d bcf1 eb3d
000000e0: 3b84 3b3c ee73 363c 6357 843d 5f91 b6bb
000000f0: ee82 ff3c 66f7 0a3e 0613 263e 8a59 ef3c
00000100: 74d7 c9be 2d63 663d ceac a03c 9a6c 003e
00000110: 470b f23b 857b 853d 84fe 6b3d 3e1f de3d
00000120: c0dd cb3c 8f0c 383d c6fe 923b 8e0d 843e
00000130: f827 1c3c a2c9 073e 787a bb3c 9801 123d
00000140: f006 d53d 7e2f 003e a944 183a 28bd a03d
00000150: 7893 aebc 1567 9d3d db42 82bd 4331 72bc
00000160: 57f7 983d 99d9 be3d dfcd 6cba 0a35 a43d
00000170: 438f 7e3e be06 b33c 5929 5f3d 3bae 73bd
00000180: 94bf 0b3e a2f6 c23d 1b0e 473e c874 3e3e
00000190: 9cd7 1a3d 89c1 3d3e 78f5 d1be b26f 013e
000001a0: 6cd7 413d e2c2 3a3d ee38 793d 5a60 733d
000001b0: d038 0b3e 304f e53d 69f4 0e3d 36da 843c
000001c0: fa95 b73d 3703 8aba b4e9 d73d e320 3a3d
000001d0: 26e6 f03d f2b5 883d 2723 e63d e0c1 623d
000001e0: e3e1 7d3d 1308 443d f454 823c c3d6 c73d
000001f0: a334 a33d f56e 9cbc a89c aa3d 25d6 543e
00000200: d6af e7bd 67c6 59bd a6d5 6fbd 848f 06be
00000210: b670 d4bd 9f0b 09be f38b 47be 4a9c 25bd
00000220: bc80 993c e6dd 41bd 162e 8abd 3144 cbbd
00000230: ad26 9cbd 71bb 96bd cc58 f0ba 6e25 0dbe
00000240: 3cc4 eebb ea84 23bd 1c3b 563c 76d4 12be
00000250: 155b 4cbc 89c3 d3bd e845 993b 44d8 c5bd
00000260: 1afa 5c3c 19a0 24be dbc8 71be 7e13 24be
00000270: 67a9 27be 4402 61bd 72ec 34be cc72 0abe
00000280: 8de2 d5bd a811 ddbd db53 6abd 2fbe 02be
00000290: cfd5 cabc 341a 0bbe 52a2 31bd bb0c b2bc
000002a0: d862 5f3b aa3c 34be 496c bfbd 52d6 eabc
000002b0: e2bd c8bb a6fb 1bbe 0dc9 05be 19d3 5fbc
000002c0: 04da bcbd dcc4 93bd 4d22 0ebc d084 9bbd
000002d0: 5586 febd 806e 14be 914a 0bbe 5013 7f3c
000002e0: 13c3 a2bd aacf 74bd 820f 6abe f31b 8ebd
000002f0: 479c 14be b69a 8dbd 0949 08be f85b d0bc
00000300: a8eb 0cbd 8d48 86bd 5033 743c 766f 3abe
00000310: 9d5f 2b3d e94f efbd c9d3 0ebd da1e f2bd
00000320: 5386 1e3d 902f 2bbe 8873 543c a21a f9bd
00000330: b78d 31be 9f94 10be 82b7 42be 6023 c3bd
00000340: 0ba9 01bd e7fc 0abd 5dc6 5bbd f5b3 57be
00000350: 3816 cfbd 3b93 0fbe 908b 19bd a4ef d3bd
00000360: cb48 ea3c 9ac3 c3bd 8f96 01bd bb49 29be
00000370: cb46 d5bd d477 2bbe 9fd2 a83b 6dd8 ebbd
00000380: af2f bebd fcae 08be c801 61be 75ea 2ebe
00000390: 79eb 4fbe 5bff 87be 726e e53d 1379 e5bd
000003a0: 8b2c 7fbd e75f 24be 88e6 1b3d 1e52 cabc
000003b0: 42dc 0abe e7fa 98bc 6ca8 b6bc ee7e 98bd
000003c0: c5c6 53be 09b2 213c a8ce 3cbe 0bae 423d
000003d0: e824 bd3a 6268 d9bd 7b68 82bd 9e4d 19be
000003e0: b138 d4bd 5a0b e5bd 35a8 48be 43bf c8bd
000003f0: 4854 efbd c02d 2dbe c831 d03a 4d50 73be
0.033034142 0.05299428 0.02224954 0.17480141 0.07776861 0.13468704 0.023307262 -0.010662626
-0.023695704 0.057349015 0.025535995 0.08391985 0.010127724 0.13213891 0.12228332 0.13447422
0.012486053 0.13499801 0.029260913 0.060506523 -0.0012415898 0.24072555 0.102550514 0.07433624
0.093428314 0.033409145 0.052370936 0.013149043 -0.020783326 -0.0071500666 0.083934985 0.042544737
0.026053945 0.115028396 0.03302428 0.10566116 0.019782554 -0.12451679 0.12970617 0.07896928
0.05989438 0.055237375 0.090423636 0.009737397 -0.14876343 0.006941428 0.14584981 -0.15279521
0.10161134 -0.010458758 0.1295258 0.10769757 0.017731033 -0.020196518 0.11171814 0.115207165
0.0114451 0.011136038 0.0646198 -0.005571529 0.031190362 0.13570938 0.16218194 0.0292175
-0.3942219 0.056246925 0.01961365 0.12541428 0.0073865983 0.065177 0.057615772 0.10845803
0.024886012 0.04493385 0.0044859378 0.2579159 0.009531014 0.1326051 0.022885546 0.03564605
0.10401714 0.12518117 0.0005808571 0.07848579 -0.021310553 0.07685677 -0.06360408 -0.014782253
0.07469051 0.09318847 -0.0009033363 0.08017929 0.24859338 0.0218538 0.05448279 -0.05949233
0.136473 0.09519698 0.19438975 0.18599236 0.037803277 0.18530859 -0.4100759 0.12640265
0.047324583 0.04559601 0.060845308 0.05941806 0.13595891 0.111967444 0.034901056 0.016217332
0.08964153 -0.0010529523 0.10542622 0.04544152 0.11762647 0.06675328 0.112371735 0.055360675
0.061983 0.047859263 0.01590965 0.097577594 0.07969024 -0.019095877 0.08330661 0.20784815
-0.11312835 -0.053167727 -0.05855336 -0.13140684 -0.103730604 -0.1338334 -0.1948698 -0.040432252
0.018738143 -0.04733076 -0.067470714 -0.09925116 -0.07624564 -0.0735997 -0.001833701 -0.1378381
-0.0072865766 -0.03992168 0.013075616 -0.1433886 -0.0124728875 -0.1034003 0.004677523 -0.0966039
0.013487363 -0.16076697 -0.23611777 -0.1602306 -0.16373216 -0.0549338 -0.17668322 -0.13520354
-0.10443602 -0.10794383 -0.057208877 -0.12767862 -0.024760155 -0.13584214 -0.04336769 -0.021734586
0.0034086015 -0.17601267 -0.09346826 -0.028666649 -0.0061261514 -0.15232715 -0.13064976 -0.013661169
-0.09221271 -0.07215282 -0.00867517 -0.07593691 -0.124279656 -0.14495277 -0.13602664 0.015568569
-0.07947364 -0.059768356 -0.22857478 -0.06938925 -0.1451274 -0.069142744 -0.1330911 -0.02543448
-0.034404427 -0.06556807 0.014904812 -0.18206581 0.04183923 -0.116851635 -0.034869943 -0.11822291
0.03870232 -0.16717362 0.012966998 -0.12163283 -0.17339216 -0.14119194 -0.19015315 -0.095282316
-0.031655353 -0.033932593 -0.05365597 -0.21064742 -0.1011166 -0.14021008 -0.037486613 -0.10348442
0.028599164 -0.095587924 -0.031637724 -0.16532032 -0.10413893 -0.1674493 0.005152061 -0.11515889
-0.09286439 -0.13348001 -0.21973336 -0.17081626 -0.2030467 -0.26562008 0.112027064 -0.11204734
-0.06229834 -0.16052209 0.03806165 -0.02469736 -0.13560584 -0.018674327 -0.022297107 -0.07446085
-0.20681293 0.009869107 -0.18438208 0.04752926 0.0014430555 -0.106156126 -0.06367584 -0.14971015
-0.103623755 -0.11183806 -0.19595416 -0.09802105 -0.11685997 -0.16911983 0.0015883977 -0.23761101

bias f4 [128]
00000000: 41b9 673d 7ab1 103d d193 933d b235 6fbc
00000010: 1d37 9cbc a3f6 863c ade2 bbbd 5a72 20bd
00000020: 14af 0c3d 20ec fa3d 5646 1cbd e27a 373d
00000030: c897 f4bd b0c9 463e a168 70bc 7057 353c
00000040: 76c1 d63d 73e3 023e 4886 fb3d 5126 c73d
00000050: d970 1c3c ee73 e73d 888a f6bd 6aa7 d83d
00000060: 43fd 223d d325 e3bc b26f a83b f023 ff3c
00000070: a98c 3ebd 71ab 5ebd fc66 65bd eabc 8f3d
00000080: cc7a 11bd c68f 853c a489 8f3c 0da4 573d
00000090: 120f b33d bfb0 11bd 03ca 793d d663 8d3d
000000a0: 9c36 7d3d 80ce 8ebd b053 fb3d 1ee7 86bb
000000b0: 7ace 8ebd 5e03 bd3d d441 bdbc ffc7 11be
000000c0: 4da1 f2bc f22f 373b 31f0 c7bd 42ca 4cbd
000000d0: 04ab f13d eba4 683b 8591 283d cc5c 003e
000000e0: 0db4 033d 0ebd bc3d f7ce d13d 23c3 d83d
000000f0: 7cce 033d 6b21 b1bd e543 da3c ff2d 063d
00000100: 3f72 d63d 6bca d9bc 53d1 d4bc 9bd8 a23c
00000110: da81 ac3d 53c5 553d c7eb 64bd 313f 7fbc
00000120: f5d2 e5bd 2b4b 1e3d e327 293d 576f 4e3c
00000130: 868d c13b 57bf 8dbd 3a23 a6bd beb4 35be
00000140: 350d 1e3b 7151 e1bd e3df aebb 0d54 07be
00000150: 7323 ab3b cbe9 0d3d e8cb d5bc af3c 533a
00000160: 800d 82bc a5cf 34bd 608c 00be cbc1 05be
00000170: a7b7 be3d 5bc1 2fbd fa37 b23b 1281 9fbd
00000180: e15b 78bb bded f93c 80d5 0b3d b796 2ebc
00000190: 66d8 983d 1373 3ebd 7419 05bd 9bda d73d
000001a0: 101f edbb cdfd b0bd 5906 153d 114f b53b
000001b0: c957 6a3d 2852 a63d fff6 963d 3cb5 c7bc
000001c0: ba77 8dbd 5397 cdbd d8c2 84bd 5439 033e
000001d0: 8d61 e7bc f1e2 65bd 7de5 2b3d 6c95 8abd
000001e0: 7892 bbbc 6c26 d93d f80d 2cbd e1cf 973d
000001f0: 3834 aebd 2eba 8fbd d232 eebd 5cce bfbd
0.056573156 0.035325505 0.07205928 -0.014600204 -0.019069249 0.016475027 -0.09174094 -0.039171554
0.034346655 0.122520685 -0.038153015 0.044794925 -0.119430125 0.19412875 -0.014673383 0.01106821
0.104861185 0.12782077 0.122814715 0.09724105 0.009548389 0.11301409 -0.120381415 0.10578807
0.03979231 -0.027727997 0.0051402682 0.031145066 -0.046520863 -0.054362718 -0.056006417 0.070184544
-0.0355175 0.016303908 0.017521687 0.052646685 0.08743109 -0.03556895 0.06098367 0.06903808
0.061819658 -0.069729805 0.122718215 -0.004116907 -0.06972976 0.09229158 -0.023102678 -0.14236449
-0.02961793 0.0027952162 -0.0976261 -0.049997576 0.11800197 0.003549869 0.041154403 0.12535399
0.03215413 0.09215747 0.102445535 0.105840944 0.03217934 -0.08648952 0.026643703 0.03275871
0.104710095 -0.026585778 -0.02597872 0.019878676 0.08423205 0.052190136 -0.055888917 -0.015579031
-0.112218775 0.038645905 0.041297805 0.012599788 0.0059067635 -0.06921261 -0.08112188 -0.17744729
0.0024116759 -0.11001862 -0.005336748 -0.13215657 0.0052227317 0.03464679 -0.026098207 0.0008058054
-0.015875578 -0.044143338 -0.12553549 -0.13062207 0.09312373 -0.042909008 0.005438802 -0.0778829
-0.003789656 0.03050887 0.034139156 -0.01065605 0.0746315 -0.046496462 -0.032494977 0.105397426
-0.007236369 -0.08642159 0.036383007 0.005533107 0.057212625 0.08121139 0.073713295 -0.024378411
-0.06907602 -0.100386284 -0.06482476 0.12814838 -0.028244758 -0.05612463 0.041966904 -0.06766781
-0.02289699 0.106030315 -0.04200551 0.07412697 -0.08506054 -0.07017933 -0.11630787 -0.09365532

weight f4 [64, 146]
00000000: 1825 2cbd c6c3 813b bde0 113c 3510 893c
00000010: f42e c2bc 5522 92bc cde3 f13d 586a 403d
00000020: 3682 a4bc 3df1 19be 39f9 d5bd d43a fc3d
00000030: c129 f0bb ae40 cbbd 3002 0b3e 5e79 933d
00000040: 4a53 a7bd a3ed 01be 6fe6 37bd 3538 31bd
00000050: 09f8 2e3d 6816 e3bd f3c8 cb3d 083f 84bd
00000060: bc62 d4bc 7a4d a73b 3318 8f3d 85e9 e7bd
00000070: 51f9 203e c171 be3d fc57 803d b4e0 57bc
00000080: 48ca 05bd 739e f0bd 47c2 ddbd 0099 3c3d
00000090: cefa 1cbe f1a9 b33d 6499 443d b152 c3bd
000000a0: c8d7 b23d f9bc 6f3d 221e 10bb 67c8 5f3d
000000b0: a5cd 27bd e858 f0bd b22e dbbd b4ad c53d
000000c0: ef84 9b3d 32ed edbd 415e 8e3c 8be9 023c
000000d0: 0481 1abd 731b 9cbd 7fb5 a5bd 3aa0 0dbe
000000e0: 7461 9e3d d304 30bd 9986 9abd 620f 59bd
000000f0: e2cd 89bd 5a06 0f3e e9de f5bb cc8d b63d
00000100: 2a43 0abe 5886 023b 7877 5e3d ca51 963d
00000110: 26ef 56bd a9a7 7abd fd1d 243e 6786 873d
00000120: 796a a83d bbec 9c3c 77df 85bd a7c5 6c3c
00000130: 0b53 113e 9eac 0c3e f197 a939 7a49 203e
00000140: 1e47 e1bd 2dad 0c3d b88f acbc 5683 95bc
00000150: 0b8f 13be 188b 17be f8c5 553d 216c 673b
00000160: 0088 d63c 2eec 5a3d b841 cf3d 2e73 093e
00000170: 0419 29be 1a83 0c3d 6a4f 9cbb 2341 b33c
00000180: 090e 2b3e c420 e4bd fb3a bdbd 582a 113d
00000190: 7705 9bbd 778b 84bc 3628 39bd 4151 38bd
000001a0: 864d 1cbe 27a0 ea3d 5705 0bbe fb53 ebbd
000001b0: 5a72 92bc 1932 80bb a6f1 39bd 8f69 fa3d
000001c0: 569c b23d 97ad 863d 56ce 2b3d 4b2a 19bc
000001d0: d010 61bd cfa0 043e 879a b8bd 4512 e83c
000001e0: 025d 6c3d 76d9 dabd a7e9 be3d 6fe0 bc3c
000001f0: c91b 903d dfe2 d8bb ac24 b43d 4c65 4fb8
00000200: 7fbf 413d ffb4 673d f360 7cbd 5b33 fcbc
00000210: 6865 203d 78ab 463d 00f6 a2bd 1669 003d
00000220: addd 043c 8760 ec3c 0715 3dbd 3897 543d
00000230: 04ab 22bd 6cdc ac3b 3b4c 60bd 9e3b 9abc
00000240: e88a 243d 4a49 04bd e973 5ebd 55bb 6d3d
00000250: 1a8d 22be 00c1 b3bc e802 ae3c 065a f1bd
00000260: 8eef 213e 2afe 0abd c360 a7bd 4c4b eabd
00000270: 15bb 24bd 440f e03d e971 b53d abf8 c0bd
00000280: 640c 863d 4f0a 963d dba5 40bd 59ac 20be
00000290: 1124 95bd 6195 b7bd 2071 1f3e c4f7 6cbd
000002a0: 04e5 f33d 42ba b53b 2554 28be 9bdf b9bc
000002b0: 1ed2 f53d da74 89bc 822e 473d a0aa b33d
000002c0: 04cd ad3c 7a48 1bbe e5b9 073e e2cd 93bd
000002d0: 6b18 1d3d 18f9 f8bd 0549 19be 84ed 00bc
000002e0: 8e58 f53d e305 7cbd cd4e 903d 4180 b03d
000002f0: e47e 063c 37cc 133d b38c babd c448 a7bd
00000300: 591c 1abe 0a66 133e 3e08 1c3e e407 06be
00000310: 129a b93d 8d3b 16bd 173e efbd 6080 d3bd
00000320: d92f 1cbe 78a2 ddbd 2130 ad3d 9ba4 a6bd
00000330: 7577 06be c636 a2bd 861a 51bd 7a8b f83d
00000340: a131 fbbd 48dc 4e3c 7a59 23be 1bf7 17be
00000350: b07a a53c 3a73 4a3d ad7b e8bd 2836 f6bd
00000360: 1188 e23d 62d8 973d ceab c73d 1a53 223d
00000370: e3c1 edbd 2520 fbbd 1cda 153c 8d31 ae3d
00000380: 9a45 f63c 59da 4a3d 48d8 92bc dbc7 433d
00000390: 3ab1 5cbd ddd4 c83d 3e58 e5bd e2af 84bd
000003a0: e2f8 5d3c ab8a cc3d 94db d73d d08c 5f3d
000003b0: c413 223e 2943 2d3e 3b4c 3bbd 6159 c23d
000003c0: 3ec3 df3d 386a e7bc edcd 8c3d 6089 4bbc
000003d0: b04a 06be 7004 bd3d a926 f8bc b0cb 48bc
000003e0: 543a 78bd 906d 09be 0548 d8bd 10aa 763d
000003f0: 66a0 05be c02a c7bd 65d5 e6bd 86b2 a8bd
-0.042027563 0.0039601056 0.008903679 0.01673136 -0.02370403 -0.017838636 0.11811028 0.046976417
-0.02008162 -0.15033431 -0.10447926 0.12315908 -0.007329196 -0.09924446 0.13575053 0.07200883
-0.08170183 -0.12688307 -0.044897493 -0.043266494 0.042717014 -0.11088258 0.099504374 -0.06457335
-0.025925986 0.0051056715 0.069870375 -0.11323837 0.15720107 0.092990406 0.06266782 -0.013176132
-0.032663614 -0.11748972 -0.10828071 0.04604435 -0.1533005 0.08772648 0.047997847 -0.095372565
0.08732563 0.058529828 -0.0021990617 0.054634478 -0.040967602 -0.117357075 -0.10702266 0.09652272
0.075937144 -0.11617507 0.017378928 0.007990251 -0.037720695 -0.07622423 -0.08091258 -0.13830653
0.077334315 -0.04297335 -0.07545204 -0.052993186 -0.06728722 0.13967267 -0.0075033796 0.08913764
-0.13502184 0.00199165 0.054313153 0.07339819 -0.052474163 -0.06119505 0.16027065 0.06617432
0.08223433 0.01915585 -0.06536763 0.014451421 0.14191835 0.13737723 0.00032347397 0.15653029
-0.10999893 0.03434484 -0.021064624 -0.018251102 -0.14410035 -0.14799154 0.05219075 0.0035312253
0.026187897 0.053447895 0.10119957 0.13422844 -0.16513449 0.034304716 -0.004770209 0.021881646
0.16704573 -0.11139062 -0.09239765 0.035440773 -0.07569402 -0.016179783 -0.045204364 -0.044999365
-0.15263948 0.11456328 -0.13576256 -0.114906274 -0.017876793 -0.003912222 -0.04539647 0.12227165
0.08721225 0.065760784 0.041944824 -0.009348462 -0.054947674 0.12951969 -0.09013849 0.028329024
0.057705887 -0.10686009 0.093219094 0.023056237 0.070365496 -0.006618842 0.08796057 -4.9446986e-05
0.047301766 0.056569096 -0.061615895 -0.030786207 0.03915921 0.04850337 -0.07957077 0.031350218
0.008109492 0.028854622 -0.04616263 0.051902026 -0.039713874 0.0052753 -0.0547602 -0.018827256
0.040171534 -0.032296456 -0.05430976 0.058039982 -0.15874138 -0.021942616 0.02124162 -0.11784749
0.15814039 -0.033933796 -0.08172753 -0.11440143 -0.040217478 0.10940412 0.08859617 -0.0942243
0.06545332 0.07326185 -0.047033172 -0.15690745 -0.0728227 -0.08964039 0.15570498 -0.057853475
0.11908916 0.0055458853 -0.16438349 -0.022689631 0.12002967 -0.016779352 0.048628338 0.087727785
0.021215923 -0.15164366 0.13254507 -0.072170034 0.038353365 -0.12156886 -0.14969261 -0.007869128
0.11979781 -0.06152905 0.0704628 0.086182125 0.008208964 0.036083426 -0.091088675 -0.08168176
-0.15049876 0.14394394 0.15237519 -0.13088948 0.0906259 -0.036677886 -0.116817646 -0.1032722
-0.15252627 -0.10822004 0.084564455 -0.08136865 -0.13131507 -0.079206035 -0.051050685 0.12135978
-0.12265325 0.012625761 -0.15952101 -0.14840357 0.020200104 0.049426295 -0.11351714 -0.12022048
0.11061109 0.074143186 0.09749566 0.039630033 -0.116092466 -0.122619905 0.00914624 0.08505545
0.030062485 0.04952464 -0.017925397 0.04779802 -0.053879954 0.098062254 -0.111984715 -0.064788595
0.013548108 0.09987386 0.10539928 0.05457765 0.15827852 0.16920151 -0.045726996 0.09489704
0.10925911 -0.028248891 0.06875215 -0.0124228895 -0.13114429 0.09229362 -0.030291872 -0.012255594
-0.0606025 -0.13420701 -0.10560612 0.060220778 -0.13049468 -0.09724951 -0.112711705 -0.08237176

bias f4 [64]
00000000: 5ab2 d3bd fe7e 59bc 4bec 98bd 6f85 af3c
00000010: 87b1 653c 6881 963d bb0b 903c 8def c8bc
00000020: cbd1 f9bc b43c 98bd 0d15 6bbd 5ea4 4dbd
00000030: f248 473d 7fd1 583d f5f8 4fbd a3e5 60bb
00000040: c884 b0bd 01da 753d 6fe8 67bd defe 9f3d
00000050: 7ec9 aabb a094 f43c bf5a 94bd 8a53 1ebd
00000060: ae64 61bc 753b 8bbd 1227 813d 4a79 72bd
00000070: 9f7d 69bd dabe 6abd 0b96 d93c 0deb 94bc
00000080: 44d4 553d 38a1 b43c cbb7 7e3d d2fb 973d
00000090: 9d75 21bd f751 97bc b78a 33bc 17f2 ec3c
000000a0: 65cc 073d 046d 33bd 7d3b 88bd 34de 2e3d
000000b0: f735 8dbd 8d37 69bd cdcb d83c 5b8a 71bd
000000c0: 0cc5 50bc 0936 e1bc d43f 793d abe4 12bd
000000d0: 906d 5ebd 3f7e 123d e2d3 e33b ca54 9cbc
000000e0: 950a b9bb 4243 123d 219a 33bc 13fd 653d
000000f0: b203 cf3b 4c9b a3bd 6758 66bd 7bd5 03bd
-0.10336752 -0.013274906 -0.07466944 0.02142593 0.014019377 0.07348901 0.017583719 -0.02452829
-0.030495545 -0.07433453 -0.057393122 -0.05020558 0.04865355 0.052934166 -0.050774533 -0.0034316562
-0.08619076 0.060022358 -0.05661815 0.07812284 -0.005212008 0.029856026 -0.07243871 -0.038653888
-0.013756914 -0.0679845 0.0630628 -0.0591977 -0.057004567 -0.057310916 0.026560804 -0.018178487
0.052204385 0.022049531 0.062186997 0.07421078 -0.039418805 -0.018471701 -0.010958365 0.028924031
0.03315391 -0.043805137 -0.066519715 0.04269238 -0.068950586 -0.056937743 0.026464367 -0.058969837
-0.012742292 -0.027491586 0.060851887 -0.035862606 -0.054303706 0.03576493 0.0069527486 -0.0190834
-0.0056470134 0.035708673 -0.01096204 0.056149554 0.006317579 -0.07988605 -0.05623665 -0.032186013

weight f4 [19, 64]
00000000: 1a65 ae3d cb72 bcbd b86f 813c 2bae fb3d
00000010: 07f7 df3d 1dd3 1ebd a65c c8bd 731c 163d
00000020: a0ce 81bd 952e 65bd 553c 393d d807 b93d
00000030: f590 9e3d 5594 973d d497 12bb a0c3 e53c
00000040: f072 a43d 2747 ed3d 47ca f23d deee d43d
00000050: 7ab7 2e3d 072b 773d 6017 97bd 8e60 c8bd
00000060: c3d2 843d 09ac c9bc c6aa 8c3d 4d51 cf3d
00000070: 63a0 2e3d fd1a c63d bd4b f43c 8eac d4bd
00000080: 7a60 b4bd 9cb8 edbc 6714 e5bc a73b 653d
00000090: 5d47 463d 133a 8dbd bcf5 cabd 5f52 83bd
000000a0: f32b acbd a415 c43c 0482 b93d f797 b9bd
000000b0: eb39 64bd 91c3 143d 2fba ca3d ff7f 4c3d
000000c0: 2dc8 c0bd e316 63bc 0967 7a3d fd9a a7bd
000000d0: 3d24 963d a8d7 5dbd 880b 073d f76c c03c
000000e0: 0074 583d 142f 5b3d 4a17 10bd 878c bfbd
000000f0: d152 9ebd 5e5f ccbc ede9 d33d 83f1 89bd
00000100: 2268 e23c e0f4 4f3c 0c90 c4bd 9ff5 a73d
00000110: 7f5a 0cbd 58e4 d4bd a4f5 613c 3c71 c23d
00000120: bcab c2bd 2f84 443d a052 a43d 9c01 dfbd
00000130: 2e90 9fbd 1c2d c13b 6ced e2bc ccde 7a3d
00000140: 2ed1 41bd 86f8 743d 6a89 f03d 4216 10bd
00000150: 9b19 9d3d cd1e c13d e00d 95bd b509 4ebd
00000160: 63a4 813d 81f6 83bd 5e12 713d e081 a9bd
00000170: 6f6a 9bbc c172 9e3b 95de c43c 91a2 de3d
00000180: db9d cbbd 74f0 bc3b 5d97 943d 6782 94bc
00000190: 5222 9f3d b38c 813c a4b2 c3bd 9808 d9bd
000001a0: 3f8d 70bc 3ca7 f9bd bd13 f13d 9af9 4abd
000001b0: c951 da3c ae2b 67bd 3f76 adbd d02e 9bbc
000001c0: ee2b bb3d 0326 dbbd 1f77 c0bd d2ab 5e3d
000001d0: 529b 97bd 4032 1ebd 55b0 573d bcc6 f33c
000001e0: 38fd 193d 1a34 d3bd 6bdd a4bd 5578 eabd
000001f0: 534a dfbd 3a17 933d 80d5 d0bd 5e88 de3d
00000200: 767a 093d f871 e9bd d543 8c3d f02a 853d
00000210: a6d7 80bd ce77 df3c aab1 79bd 4d7e ea3d
00000220: 1d3a f13d 9859 183d 669a 823c a25e 42ba
00000230: bc4c a5bb eaf2 633d de0a 333c dea1 253d
00000240: dcdd 8b3c 4555 b33d fc55 9c3b 78ce d53d
00000250: 06c2 d8bd 87de d6bd aca5 26bd bcde eabb
00000260: 35d2 ee3d 26d1 753d 9ea4 763c 6e34 f1bd
00000270: 42fd 4cbd 8bb5 7dbd 52c7 c4bd 8cd3 403d
00000280: ebff b33c 226b 953d fd9c f0bd 79c8 ea3d
00000290: 325e 853d 0d67 02bd fd64 fd3c 5fb3 533d
000002a0: 7825 4cbd 8008 923d 5f10 11bd 7b9d 8e3d
000002b0: a4a3 d03d 1dfb 573c ffe9 043c 4b88 253b
000002c0: 8ff4 96bc ccb7 3d3d a237 febc 26c6 6fbd
000002d0: a8b4 83bd 29fd 173d 38bf b1bd deda 2abd
000002e0: 6077 75bd 3636 43bc 8265 afbc 94a3 ffbd
000002f0: 0bcd 063d 252d 8c3c 0501 d1bc dca1 c1bc
00000300: 34c3 a23d 3061 c13d 0c72 543d acb5 253d
00000310: 689e dfbd 6f9c 223d 4bf7 5c3d f815 b6bd
00000320: 5e08 8f3d 5906 9fbd 0e0f 47bc a498 883b
00000330: 9f8c c8bd 7866 123d 6882 d63d 36c6 dfbc
00000340: e510 923b a264 573d 99ab 57bd b578 8c3d
00000350: c5b0 96bd aea5 2cbd 4578 613d 2cb9 9c3d
00000360: e160 b73c 1c15 6f3d 52a4 d9bd a85b a53d
00000370: 86e3 e53d 354f 4abd 3a6c 5dbd 838c cd3d
00000380: c282 2cbd 81d1 813d 1d6b 733d ce34 1b3d
00000390: ab90 0a3e ee9d 8ebd 7d26 64bd b804 a73c
000003a0: e423 923d fad2 bb3d 0a54 d93c 9b15 b9bd
000003b0: 759a afbd ba50 6abd 68f3 93bd 2e70 1e3d
000003c0: 42d0 983d 4a95 70bd 6435 a03d c1eb 61bb
000003d0: 6921 cc3d d1af 75bc 9e7e e03d d0c7 52bd
000003e0: 9510 c7bb 667a 503d dda4 c13d 6aaa 0bbd
000003f0: bcc7 9a3d 007c de3d ace8 a2bd 0f54 e9bd
0.08515377 -0.092015825 0.015800342 0.12289079 0.109357886 -0.038775552 -0.09783296 0.036648225
-0.06338239 -0.055952627 0.045223553 0.09034699 0.07742492 0.07401339 -0.0022368329 0.028047383
0.08029735 0.11585837 0.118549876 0.10397123 0.042655446 0.06034377 -0.07377505 -0.09784041
0.06485512 -0.024618166 0.0686851 0.10122929 0.042633425 0.09673116 0.029821271 -0.10384475
-0.08807464 -0.029018693 -0.02796383 0.055965092 0.0484079 -0.068958424 -0.09910151 -0.064121954
-0.0840682 0.0239361 0.09058002 -0.09062188 -0.055719297 0.03631932 0.09898793 0.049926754
-0.094131805 -0.013860437 0.06113342 -0.081838585 0.07331131 -0.054160744 0.03296998 0.023489458
0.052845 0.053511694 -0.03517846 -0.09352975 -0.0773064 -0.024947818 0.10347352 -0.06735518
0.027637545 0.01269266 -0.09597787 0.082011454 -0.03426599 -0.103951156 0.013791475 0.09494254
-0.09505412 0.047977623 0.08023572 -0.10888979 -0.07791172 0.00589527 -0.027701102 0.061247632
-0.04731863 0.059807323 0.1174496 -0.035177477 0.076708995 0.09429703 -0.07278037 -0.050302226
0.063301824 -0.06443501 0.058855407 -0.08276725 -0.01897165 0.004835457 0.024031917 0.10870851
-0.09942218 0.005765969 0.07255433 -0.018128587 0.07770218 0.01581416 -0.09555557 -0.10597342
-0.014682113 -0.121901006 0.11771343 -0.049554445 0.026650326 -0.05643814 -0.08469819 -0.01894322
0.09139238 -0.107006095 -0.093977205 0.05436308 -0.07402672 -0.03862214 0.052658398 0.02975785
0.037595004 -0.10312672 -0.080500446 -0.11448733 -0.10902848 0.071821645 -0.10196972 0.10865854
0.033564053 -0.11398691 0.068488754 0.0650233 -0.06291132 0.027278807 -0.06096045 0.11449871
0.11778662 0.03719482 0.015942764 -0.0007414614 -0.005044548 0.055651583 0.010927884 0.04043757
0.017073564 0.08756498 0.0047709923 0.104397714 -0.10583882 -0.104916625 -0.04068534 -0.0071676653
0.116611876 0.060013913 0.015053896 -0.11777578 -0.050046213 -0.06194071 -0.0960833 0.047076747
0.021972617 0.072958246 -0.11748693 0.114640184 0.06512107 -0.031836558 0.030931944 0.051684733
-0.04984042 0.071305275 -0.035416003 0.06963631 0.10187462 0.013182429 0.00811243 0.002525824
-0.018427161 0.04631786 -0.031032387 -0.05853858 -0.06430942 0.037106667 -0.0867905 -0.041712634
-0.059928298 -0.01191478 -0.021410707 -0.12482372 0.032910388 0.01711137 -0.025513181 -0.02363675
0.07947388 0.09442365 0.051866576 0.04045646 -0.109188855 0.039699968 0.053946774 -0.08890909
0.06984018 -0.077648826 -0.012149585 0.004168587 -0.09792446 0.035742253 0.10474092 -0.027316194
0.0044575804 0.052586205 -0.052653883 0.068589605 -0.07357935 -0.042150192 0.05504634 0.07652506
0.022385063 0.05836974 -0.10627045 0.08074123 0.11225037 -0.049391944 -0.05405829 0.10036566
-0.042116888 0.06338788 0.059428323 0.037892155 0.13531749 -0.069637164 -0.055700768 0.020387992
0.07135752 0.091711 0.02652933 -0.09037324 -0.08574382 -0.057205893 -0.072241604 0.0386812
0.07461597 -0.058736123 0.078226835 -0.0034472796 0.0996731 -0.014995531 0.1096165 -0.051460087
-0.006074975 0.05089798 0.09455273 -0.034098066 0.075576276 0.10863495 -0.07954535 -0.11392986

bias f4 [19]
00000000: bfaf 9c3e 9d6d 70bd 6682 eabc 4696 de3c
00000010: d239 b93e 7430 a0bb 57eb a4bc 00ec 36bc
00000020: 50fc 9f3e d4f8 963e a828 6dbb c2e2 52bb
00000030: 7e7e 303b 9f36 9e3e d041 aebb eb64 b53b
00000040: 2a3c 733b 9904 9d3e 15d6 b03e
0.30602834 -0.058698285 -0.028626632 0.027171265 0.36176926 -0.0048885886 -0.02013175 -0.011164665
0.31247187 0.29486716 -0.0036187563 -0.0032178615 0.0026930864 0.30901048 -0.005317904 0.005535712
0.0037114718 0.3066757 0.34538332
