models/original/O/model3.pt (torch, 310479 bytes, 8 tensors)

weight f4 [128, 384]
0.09778933 0.17892358 0.042036418 0.045796886 0.09228278 0.24662828 0.0934117 0.24543351
0.08307446 0.14096893 0.20019075 0.15383707 0.14840727 0.21112503 0.1069601 0.009684563
0.16460562 0.12050832 0.09615665 0.13043025 0.11798428 0.11583301 0.15274945 0.16715957
0.12601025 0.09687237 0.068754576 0.060745675 0.07898894 0.17567916 0.15420662 0.016381545
0.11546771 0.021991571 0.08183642 0.10701312 0.19616173 0.16804197 0.11930649 0.12586543
0.016933944 0.13290936 0.12036861 -0.019931713 0.08098746 0.04631189 0.096389316 0.12333157
0.13503525 0.08172496 0.13913228 0.14557774 0.07667706 0.11439722 0.083881184 0.06636806
0.14002702 0.03342207 0.03160559 0.09621748 0.18302123 0.024315361 0.015744982 0.034812767
0.025560355 -0.04754223 0.0028229232 0.031538446 0.081521116 0.16163227 -0.06701204 -0.029789701
-0.0036624144 -0.035165705 0.09981082 0.023537317 -0.012066517 -0.031882558 0.08583942 -0.07467395
0.05745316 0.05843979 0.16104598 0.0019309381 0.13311626 0.109989434 0.09660105 0.018179744
0.16906002 0.014182092 0.09647108 0.18982945 0.20537704 0.09737817 0.02542432 0.019425813
0.04688003 0.088401556 0.14654092 0.035028163 0.0039541707 -0.110344194 -0.09286741 -0.06206362
0.11100682 0.21359876 0.16863301 0.18732654 0.10789271 -0.04725741 -0.109942675 -0.12224279
0.042944238 0.118897416 0.2137818 0.025269004 -0.028947689 -0.06070256 -0.0073532783 -0.079766445
0.08810075 0.123546906 0.16575763 0.08643694 0.14162292 -0.012271988 0.07912099 -0.07207349
0.0070993365 0.0751917 0.04165323 0.23883365 0.18412717 0.038946956 -0.0049795825 -0.017178418
0.0004620294 0.039249115 0.09437546 0.054916494 0.14353488 -0.029119706 -0.2078877 -0.12444529
0.17642863 0.1369116 0.029596716 -0.015607423 0.11035019 0.061021507 -0.09057691 0.016548876
0.10221685 0.10827257 0.14207764 -0.034521777 0.08110296 0.05039734 0.06598962 0.0023450311
-0.0067457017 0.06402796 -0.0041841795 -0.019122781 -0.033502672 -0.034113813 0.072138846 -0.028745307
-0.012795744 0.18154056 0.17411895 0.010807189 0.05984071 -0.07056059 -0.044267736 0.0917719
-0.03791691 0.020576702 0.05446233 0.12188032 0.1543785 0.115755 0.108974814 -0.016120015
0.030509591 0.13209961 0.14663588 0.030309051 0.067532375 0.079288825 0.060048353 0.026759923
0.08182933 0.0384598 0.059079565 -0.032023717 -0.017955152 -0.13820866 0.038416386 -0.017110797
0.073946886 0.18240505 0.07179786 0.000973429 -0.17514482 -0.0026527958 -0.060699113 -0.055531543
0.052911654 0.09485245 0.022058845 0.08468251 -0.05371166 0.10180902 -0.009689219 -0.006168807
0.051681533 0.081925325 0.12246917 -0.008930428 -0.014458081 -0.05519118 -0.0007668827 -0.025776312
0.003937064 -0.020438684 0.017244034 0.0061776266 0.00051622407 -0.0008089936 -5.534861e-05 -2.4592362e-05
0.0010021674 -0.019223686 0.0019287681 0.09025811 0.0676601 0.10328441 0.027614215 0.0147603415
0.080504745 0.01999308 0.033158783 0.110386334 0.03192941 -0.035669643 0.007193062 0.020900834
0.06790432 0.15470652 0.15948568 -0.01283932 0.02779523 0.05437512 0.0075676725 -0.0018081837
00000000: c645 c83d be37 373e 612e 2c3d 8495 3b3d
00000010: c1fe bc3d 208c 7c3e a24e bf3d ec52 7b3e
00000020: f122 aa3d 295a 103e cefe 4c3e 7787 1d3e
00000030: 13f8 173e 2931 583e e60d db3d 00ac 1e3c
00000040: 608e 283e 11cd f63d c7ed c43d 828f 053e
00000050: bea1 f13d db39 ed3d 5a6a 1c3e e12b 2b3e
00000060: d508 013e 0565 c63d 33cf 8c3d 75d0 783d
00000070: f4c4 a13d 3de5 333e 57e8 1d3e 9732 863c
00000080: 567a ec3d ab27 b43c da99 a73d b229 db3d
00000090: 9fde 483e 3213 2c3e f656 f43d dee2 003e
000000a0: 0eb9 8a3c 6419 083e d183 f63d d547 a3bc
000000b0: c1dc a53d 89b1 3d3d c367 c53d 4395 fc3d
000000c0: ae46 0a3e 6a5f a73d b178 0e3e 5512 153e
000000d0: dd08 9d3d 1749 ea3d e6c9 ab3d faeb 873d
000000e0: 3e63 0f3e 95e5 083d dd74 013d ac0d c53d
000000f0: eb69 3b3e 0231 c73c 9ffb 803c d597 0e3d
00000100: f363 d13c a4bb 42bd cb00 393b 752e 013d
00000110: 8bf4 a63d ee82 253e 9c3d 89bd 8809 f4bc
00000120: 1e05 70bb ea09 10bd 9d69 cc3d 55d1 c03c
00000130: a4b2 45bc 4997 02bd 94cc af3d a8ee 98bd
00000140: 0154 6b3d 905e 6f3d 3de9 243e 8817 fd3a
00000150: a14f 083e 2442 e13d c5d6 c53d b0ed 943c
00000160: 121e 2d3e 015c 683c a192 c53d a762 423e
00000170: 5c4e 523e 356e c73d aa46 d03c e222 9f3c
00000180: 4605 403d e00b b53d d30e 163e b179 0f3d
00000190: fd91 813b 23fc e1bd 4531 bebd 6c36 7ebd
000001a0: 8b57 e33d a2b9 5a3e 22ae 2c3e 87d2 3f3e
000001b0: daf6 dc3d fc90 41bd a029 e1bd 6e5a fabd
000001c0: 4ce6 2f3d 7d80 f33d 9ee9 5a3e f100 cf3c
000001d0: b423 edbc 3fa3 78bd c5f3 f0bb 975c a3bd
000001e0: 2b6e b43d 2906 fd3d 5ebc 293e da05 b13d
000001f0: 9905 113e 7310 49bc 300a a23d 449b 93bd
00000200: 8da1 e83b 1bfe 993d 949c 2a3d cf90 743e
00000210: d58b 3c3e d886 1f3d c42b a3bb c1b9 8cbc
00000220: 893c f239 aec3 203d ec47 c13d 1ef0 603d
00000230: cffa 123e 738c eebc 83e0 54be 2cdd febd
00000240: b5a9 343e 8e32 0c3e d074 f23c 47b6 7fbc
00000250: 48ff e13d b0f1 793d 6380 b9bd 8291 873c
00000260: 1157 d13d 02be dd3d cd7c 113e b566 0dbd
00000270: 4f19 a63d 716d 4e3d 9125 873d 18af 193b
00000280: 0c0b ddbb 1721 833d 711b 89bb 61a7 9cbc
00000290: 193a 09bd edba 0bbd 88bd 933d 477b ebbc
000002a0: 3ea5 51bc c5e5 393e 3d4c 323e a310 313c
000002b0: 881b 753d 1282 90bd 1652 35bd e8f2 bb3d
000002c0: c34e 1bbd 7990 a83c e413 5f3d 649c f93d
000002d0: 6615 1e3e f510 ed3d 302e df3d 1f0e 84bc
000002e0: 40ef f93c 1f45 073e b727 163e b04a f83c
000002f0: 6a4e 8a3d 2e62 a23d 43f5 753d a037 db3c
00000300: 2396 a73d 0688 1d3d 6afd 713d 4d2b 03bd
00000310: af16 93bc 9286 0dbe 805a 1d3d f12b 8cbc
00000320: 7771 973d 64c8 3a3e c20a 933d b72d 7f3a
00000330: 2a59 33be 87da 2dbb a29f 78bd 0b75 63bd
00000340: e4b9 583d 0042 c23d c0b4 b43c 066e ad3d
00000350: c200 5cbd 3f81 d03d 88bf 1ebc b423 cabb
00000360: 04b0 533d 77c8 a73d 1ed1 fa3d ee50 12bc
00000370: 96e1 6cbc 2610 62bd a008 49ba d828 d3bc
00000380: 7d02 813b 076f a7bc 5c43 8d3c b06d ca3b
00000390: 3653 073a a412 54ba 1e26 68b8 b24b ceb7
000003a0: 285b 833a fe7a 9dbc b8ce fc3a 3ed9 b83d
000003b0: 6191 8a3d c786 d33d 3537 e23c 5cd5 713c
000003c0: acdf a43d 87c8 a33c 81d1 073d 3b12 e23d
000003d0: 6ac8 023d 551a 12bd c7b3 eb3b 3a38 ab3c
000003e0: 6c11 8b3d 636b 1e3e 3750 233e 035c 52bc
000003f0: d2b2 e33c 72b8 5e3d 3dfa f73b 9400 edba

bias f4 [128]
0.21777482 0.17408034 0.23092268 0.07145248 0.13667452 0.2573751 0.23084784 0.243742
0.25767034 0.11311498 0.21341898 0.21294172 0.23487535 0.12511112 0.205809 0.22974487
0.24523397 0.11265642 0.2269604 0.14210618 0.21110092 0.3037494 0.2583652 0.31323633
0.005203655 0.0708518 0.23269367 0.11390202 0.25633776 0.2573808 0.20387356 0.18457097
0.26932427 0.27083614 0.0015286288 0.2339591 0.22859766 0.23796155 0.15870562 0.25339264
0.15430853 0.16555023 0.30081752 0.14922631 0.049847346 0.17839825 0.26086214 0.27729902
0.19629952 0.28138933 0.15219723 0.17198887 0.21493426 0.24268949 0.27400035 0.19937608
0.22436441 0.22209804 0.27960908 0.19428188 0.057686977 0.29836896 0.092359506 0.26499835
0.069345295 0.20011494 0.18840814 0.24368644 0.18944447 -0.017625159 0.16849625 0.17379776
0.16884871 0.24108244 0.21339063 0.26959008 0.00080793136 -0.0068574166 0.17633773 0.1582452
0.1992621 0.20800568 0.25784758 0.23624934 0.1119251 0.13869071 0.16775836 0.19729467
0.2276821 0.21723917 0.26132384 0.23853429 0.24348748 0.17558216 0.22719319 0.088295124
0.22028449 0.2670092 0.19305484 0.11340276 0.30888808 0.26990357 0.269013 0.04735168
0.22800073 0.20478761 0.22698134 0.12755245 0.22953515 0.19059317 0.2371084 0.26013407
0.17712156 0.20653285 0.23712789 0.21354006 0.15736909 0.23693956 0.18143171 0.19403084
0.1701559 0.12394338 0.06594927 0.24538654 0.31942913 0.28000546 0.25937814 0.18570574
00000000: 5d00 5f3e 1e42 323e ff76 6c3e ae55 923d
00000010: 68f4 0b3e abc6 833e 6063 6c3e 8197 793e
00000020: 5eed 833e d4a8 e73d 818a 5a3e 650d 5a3e
00000030: 2a83 703e 211d 003e 98bf 523e 3d42 6b3e
00000040: 9d1e 7b3e 69b8 e63d 4f68 683e 4884 113e
00000050: d72a 583e 0b85 9b3e 7248 843e 8360 a03e
00000060: 6c83 aa3b c01a 913d 4047 6e3e 7645 e93d
00000070: b43e 833e 6bc7 833e 3bc4 503e 2c00 3d3e
00000080: dfe4 893e 09ab 8a3e 455c c83a f992 6f3e
00000090: 8115 6a3e 31ac 733e ba83 223e aebc 813e
000000a0: 0e03 1e3e 0086 293e c104 9a3e c8ce 183e
000000b0: bb2c 4c3d 08ae 363e b98f 853e 23fa 8d3e
000000c0: be02 493e 4312 903e 97d9 1b3e da1d 303e
000000d0: ba17 5c3e 9883 783e c649 8c3e 3e29 4c3e
000000e0: c9bf 653e ab6d 633e ec28 8f3e d4f1 463e
000000f0: 2e49 6c3d d1c3 983e fb26 bd3d ddad 873e
00000100: e804 8e3d eeea 4c3e 10ee 403e f088 793e
00000110: bbfd 413e a362 90bc 488a 2c3e 0af8 313e
00000120: ade6 2c3e 51de 763e 1383 5a3e b607 8a3e
00000130: 5bcb 533a 2eb4 e0bb e191 343e 080b 223e
00000140: 5d0b 4c3e 71ff 543e 9904 843e 59eb 713e
00000150: fd38 e53d f004 0e3e d9c8 2b3e 9d07 4a3e
00000160: 7f25 693e f273 5e3e 3dcc 853e 5542 743e
00000170: c854 793e cfcb 333e 55a5 683e 13d4 b43d
00000180: 4292 613e 6eb5 883e 2bb0 453e b53f e83d
00000190: 9426 9e3e cd30 8a3e 12bc 893e d6f3 413d
000001a0: 0679 693e d8b3 513e cc6d 683e 1c9d 023e
000001b0: 430b 6b3e db2a 433e 8bcc 723e 4b30 853e
000001c0: 5b5f 353e 597d 533e a7d1 723e 3faa 5a3e
000001d0: 5d25 213e 49a0 723e 3cc9 393e 05b0 463e
000001e0: 593d 2e3e 07d6 fd3d 6910 873d 9c46 7b3e
000001f0: 378c a33e e05c 8f3e 36cd 843e a529 3e3e

weight f4 [128, 128]
-0.16157493 -0.15348653 -0.24500687 0.19202721 -0.105506636 -0.21149 -0.036920182 -0.19706757
-0.22210243 -0.17583972 -0.20912835 -0.23392236 -0.22858006 -0.17132089 -0.21549033 -0.20868306
-0.11094809 0.10530142 -0.091013975 -0.17763646 -0.16596015 -0.24762838 -0.13176987 -0.16600686
0.18001863 -0.12575735 -0.1662815 -0.06041127 -0.10710782 -0.2537911 -0.15815353 -0.08802384
-0.15054761 -0.1677344 -0.38191128 -0.2490113 -0.11660629 -0.27493486 -0.062855646 -0.18993013
-0.16236013 -0.096584134 -0.16148928 -0.12270512 -0.10058723 -0.10338529 -0.17803021 -0.22924379
-0.08867619 -0.15271387 -0.14563258 -0.21142747 -0.16788399 -0.2503537 -0.20438163 -0.09627715
-0.22931564 -0.22170028 -0.25773647 -0.22820847 -0.46826637 -0.29115158 -0.16222644 -0.24041243
-0.16679308 -0.17506163 -0.10528842 -0.27194256 -0.082825124 0.1961897 -0.053869955 -0.049452756
-0.20204587 -0.20811298 -0.17448513 -0.27366516 0.29410112 -0.1553433 0.13371538 -0.11747316
-0.2240266 -0.09439759 -0.15922487 -0.12305593 -0.066105254 -0.08973413 -0.07748632 -0.1857337
-0.15692377 -0.1476021 -0.197387 -0.1765817 -0.096169494 -0.21895914 -0.22815359 0.19066261
-0.20098372 -0.15322089 -0.18749431 -0.13357246 -0.22671457 -0.2646548 -0.23196356 -0.23189826
-0.14815857 -0.06888038 -0.22681592 -0.106293336 -0.07201967 -0.15340523 -0.15427546 -0.10533572
-0.14275289 -0.19669737 -0.17204148 -0.2481496 -0.15869156 -0.17499545 -0.085409254 -0.23477364
-0.14731728 -0.1177749 0.1879412 -0.120625995 -0.20704983 -0.2905368 -0.21620077 -0.15543865
0.17346396 0.09465882 0.22964548 0.161324 0.100525886 0.22741327 0.08173622 0.08281719
0.1877126 -0.02064023 0.09924602 0.06543223 0.23366657 0.07524202 0.15246849 0.026299665
0.21367308 0.50461185 0.15747455 0.14565915 0.08090521 0.24140592 0.105564535 0.11070626
0.069533385 0.035069887 0.18726198 0.049748443 0.11450289 0.20864627 0.12120261 0.005385612
0.21188247 0.057518575 -0.15967543 0.12674968 0.096062064 0.05143074 0.18963335 0.20914456
0.16665249 0.11842713 0.11530255 0.05110288 0.087200075 0.040229097 0.08719924 0.13628317
0.12271811 0.2575697 0.020849893 0.09212743 0.114068724 0.15779854 0.13082865 0.13400544
0.17192858 0.23326626 0.16290255 0.042231638 -0.049491744 0.13067287 0.14680047 0.14923407
0.0519422 0.17926057 0.19567512 0.09098419 0.15795341 0.2349221 0.016490886 0.11034627
0.04534637 0.21689416 0.1970092 0.21053065 0.21693726 -0.055899203 0.35187405 0.16215232
0.17686178 0.13824645 0.1766951 0.15551877 0.12610051 0.15109356 0.10002344 0.20372224
0.12428641 0.1427437 0.06789301 0.11047365 0.08445283 0.02269875 0.12858482 0.2895111
0.13326208 0.10201133 0.0561542 0.03625605 0.102289826 0.139358 0.10370729 -0.23156421
0.06600321 0.024497539 0.077108696 0.05416047 0.04355149 0.09611918 0.124910526 0.18562104
0.15457956 0.12829946 0.13821091 0.14952025 0.18024631 0.1585821 0.08132503 0.08340177
0.023391489 0.1575246 0.1205332 0.0946644 0.15663433 0.16559388 0.113185264 0.064960845
00000000: e673 25be 932b 1dbe 15e3 7abe c8a2 443e
00000010: dd13 d8bd d690 58be 9e39 17bd 15cc 49be
00000020: d26e 63be 540f 34be be25 56be 5889 6fbe
00000030: e410 6abe be6e 2fbe 7fa9 5cbe 03b1 55be
00000040: c138 e3bd 45a8 d73d 8965 babd 55e6 35be
00000050: 75f1 29be 4b92 7dbe aeee 06be b4fd 29be
00000060: ce56 383e 89c6 00be b345 2abe cf71 77bd
00000070: 585b dbbd e8f0 81be 00f3 21be d845 b4bd
00000080: 2729 1abe 91c2 2bbe e089 c3be d1fc 7ebe
00000090: 47cf eebd 43c4 8cbe 76ba 80bd 0b7d 42be
000000a0: bc41 26be e7cd c5bd 725d 25be d24c fbbd
000000b0: ad00 cebd abbb d3bd 8d4d 36be e2be 6abe
000000c0: dd9b b5bd 0661 1cbe b520 15be 7180 58be
000000d0: c8e9 2bbe 5c2e 80be 6b49 51be f42c c5bd
000000e0: b8d1 6abe 6605 63be 09f6 83be 7baf 69be
000000f0: 9cc0 efbe d211 95be b01e 26be ad2e 76be
00000100: cecb 2abe 5b43 33be 75a1 d7bd 0e3c 8bbe
00000110: 38a0 a9bd f4e5 483e bea6 5cbd f98e 4abd
00000120: 1de5 4ebe 921b 55be 3bac 32be d71d 8cbe
00000130: 6c94 963e 5012 1fbe afec 083e c595 f0bd
00000140: 3b67 65be 8653 c1bd d80b 23be bf04 fcbd
00000150: 3162 87bd 87c6 b7bd 26b1 9ebd fa30 3ebe
00000160: a0b0 20be 0125 17be d11f 4abe d5d1 34be
00000170: 83f4 c4bd d336 60be 18a1 69be 0f3d 433e
00000180: adce 4dbe f0e5 1cbe 82fe 3fbe 38c7 08be
00000190: dd27 68be d580 87be db87 6dbe bd76 6dbe
000001a0: e1b6 17be 2811 8dbd 6f42 68be 52b0 d9bd
000001b0: 0c7f 93bd 4316 1dbe 63fa 1dbe 41ba d7bd
000001c0: d02d 12be 096b 49be a42b 30be ee1a 7ebe
000001d0: 0a80 22be 0232 33be 0ceb aebd 8068 70be
000001e0: 57da 16be f733 f1bd a873 403e c30a f7bd
000001f0: df04 54be 3dc1 94be bc63 5dbe 4f2b 1fbe
00000200: 89a0 313e 7cdc c13d 2f28 6b3e 1e32 253e
00000210: 84e0 cd3d 06df 683e 5265 a73d 0f9c a93d
00000220: bb37 403e b315 a9bc 7f41 cb3d 5501 863d
00000230: 4a46 6f3e 7d18 9a3d b320 1c3e 6572 d73c
00000240: 1ecd 5a3e 3e2e 013f 0241 213e ac27 153e
00000250: a1b1 a53d 1d33 773e 3832 d83d f7b9 e23d
00000260: 8567 8e3d 71a5 0f3d 9bc1 3f3e 06c5 4b3d
00000270: 7e80 ea3d 5ea7 553e 1339 f83d ca79 b03b
00000280: b8f7 583e 9998 6b3d f581 23be abca 013e
00000290: 30bc c43d 0aa9 523d 3f2f 423e fe29 563e
000002a0: f3a6 2a3e ec89 f23d be23 ec3d 4151 513d
000002b0: f495 b23d 44c7 243d 8495 b23d d18d 0b3e
000002c0: a253 fb3d 2de0 833e 65cd aa3c 4ead bc3d
000002d0: dd9c e93d f195 213e f2f7 053e b938 093e
000002e0: 0c0e 303e 5add 6e3e edcf 263e 15fb 2c3d
000002f0: dbb7 4abd 1ccf 053e dd52 163e d1d0 183e
00000300: 58c1 543d 1590 373e 0f5f 483e eb55 ba3d
00000310: 8abe 213e 6b8f 703e e517 873c 3afd e13d
00000320: 1ebd 393d 8119 5e3e c8bc 493e 5995 573e
00000330: cd24 5e3e 90f6 64bd d628 b43e 420b 263e
00000340: 411b 353e 7a90 0d3e 8fef 343e 5040 1f3e
00000350: 7e20 013e 45b8 1a3e 17d9 cc3d 909c 503e
00000360: e089 fe3d 682b 123e 7e0b 8b3d 0240 e23d
00000370: 9bf5 ac3d bbf2 b93c bdab 033e cd3a 943e
00000380: db75 083e 51eb d03d f201 663d 3981 143d
00000390: 547d d13d ddb3 0e3e 7d64 d43d 2b1f 6dbe
000003a0: b12c 873d 10af c83c 2aeb 9d3d 5ed7 5d3d
000003b0: 0c63 323d 22da c43d 17d1 ff3d 7113 3e3e
000003c0: 1b4a 1e3e ef60 033e 2987 0d3e d61b 193e
000003d0: 7d92 383e 5963 223e bd8d a63d 8cce aa3d
000003e0: 829f bf3c 214e 213e 1cda f63d 69df c13d
000003f0: c064 203e 7191 293e adcd e73d 310a 853d

bias f4 [128]
-0.11431347 0.025522651 0.08699602 0.003378309 -0.014213832 -0.005961543 0.02822902 -0.050434638
0.05855579 0.08664045 -0.07323969 -0.11341452 -0.040715434 0.05432896 0.014761931 0.07066086
-0.09423736 0.098336056 -0.105345525 -0.017318323 -0.09982097 0.03960543 0.028103266 0.003633578
0.15953228 -0.068050295 -0.06908127 0.10708509 -0.027591083 0.120933354 0.11865725 -0.010409564
0.09572911 0.10122951 0.027301606 -0.062371787 -0.1748454 -0.002049155 -0.04763469 -0.09830807
-0.07652653 0.07873339 -0.018044384 -0.094260134 0.04352171 -0.025437895 0.11619315 0.004074852
-0.10049955 -0.0008562954 0.08409454 -0.08882414 -0.11517469 0.1637779 -0.08932588 -0.118843466
-0.051541917 -0.06891211 -0.02494189 0.014173301 0.06823528 -0.09789322 -0.0005146124 0.08796421
-0.09038241 -0.12444138 0.07316839 -0.034200404 0.04842242 -0.031996477 0.077366985 -0.009042324
-0.050523184 -0.062569514 -0.11425921 -0.12447291 0.039023094 -0.0028666735 -0.0025036612 0.07354289
0.0006567816 0.1117396 -0.10663519 0.10377341 -0.13866515 0.01821053 0.054008525 -0.047152538
0.04512003 -0.021433892 -0.14692578 -0.06048668 -0.1095945 0.103022896 -0.08373188 0.110067844
0.019932246 0.023656579 0.05182386 0.11224736 0.16741382 0.09979401 -0.10060675 -0.034418475
-0.0031928886 0.02403758 -0.1893009 -0.09925419 -0.052658558 -0.03622542 0.1229159 0.059234194
0.07120332 -0.064025134 -0.06315744 -0.016237581 0.038941983 0.09878927 -0.15178728 -0.15503763
0.05152272 -0.06361887 -0.11300022 0.101757586 -0.16941684 0.12092964 -0.0035737236 0.084588155
00000000: 2e1d eabd e114 d13c f82a b23d 9f66 5d3b
00000010: 22e1 68bc 0c59 c3bb 8c40 e73c 8d94 4ebd
00000020: 32d8 6f3d 8c70 b13d b1fe 95bd df45 e8bd
00000030: 3ac5 26bd 0b88 5e3d 07dc 713c a4b6 903d
00000040: 84ff c0bd 6a64 c93d 65bf d7bd 28df 8dbc
00000050: f06e ccbd 4e39 223d d238 e63c 5321 6e3b
00000060: 6e5c 233e f45d 8bbd 7b7a 8dbd 6d4f db3d
00000070: b206 e2bc e8ab f73d 9302 f33d e08c 2abc
00000080: a00d c43d 6b51 cf3d 9ea7 df3c 8f79 7fbd
00000090: ac0a 33be 1e4b 06bb 981c 43bd be55 c9bd
000000a0: f1b9 9cbd f93e a13d d1d1 93bc 750b c1bd
000000b0: d243 323d 2263 d0bc adf6 ed3d 5686 853b
000000c0: b5d2 cdbd 0379 60ba c239 ac3d 6ee9 b5bd
000000d0: b5e0 ebbd 65b5 273e 7df0 b6bd 3464 f3bd
000000e0: 9e1d 53bd cb21 8dbd ef52 ccbc 2237 683c
000000f0: f0be 8b3d 3e7c c8bd 0ee7 06ba 9426 b43d
00000100: 6a1a b9bd 1fdb febd 4fd9 953d b915 0cbd
00000110: 9656 463d bd0e 03bd 9572 9e3d 4126 14bc
00000120: 66f1 4ebd 7224 80bd bc00 eabd a7eb febd
00000130: aed6 1f3d cdde 3bbb 7714 24bb a89d 963d
00000140: de2b 2c3a bbd7 e43d 8d63 dabd 2787 d43d
00000150: 3dfe 0dbe 402e 953c 0b38 5d3d 0523 41bd
00000160: c8cf 383d 2196 afbc b673 16be e2c0 77bd
00000170: 1573 e0bd abfd d23d 9f7b abbd 406b e13d
00000180: f348 a33c 71cb c13c 4145 543d f2e1 e53d
00000190: 876e 2b3e cd60 cc3d e90a cebd 63fa 0cbd
000001a0: c83f 51bb 75ea c43c 18d8 41be c845 cbbd
000001b0: 80b0 57bd 1b61 14bd 55bb fb3d 8e9f 723d
000001c0: 0cd3 913d 9c1f 83bd b058 81bd ad04 85bc
000001d0: a181 1f3d 0752 ca3d 206e 1bbe 2fc2 1ebe
000001e0: 7d09 533d 9c4a 82bd a96c e7bd 4866 d03d
000001f0: 9c7b 2dbe f6a9 f73d 2235 6abb 8e3c ad3d

weight f4 [64, 146]
-0.037229937 -0.0027798219 -0.043984123 -0.03241037 0.10406704 -0.054713007 -0.06221737 0.0744765
0.036848735 0.03903821 0.07759144 0.07945837 0.061190553 0.05674533 0.032866243 -0.106079675
0.02061295 -0.024046235 0.049642824 0.022044595 0.058072366 0.10556727 0.09598852 0.024529906
0.011670187 -0.0022339618 -0.03934265 0.00408456 0.042005133 -0.031850014 0.048220865 -0.008639135
-0.11177388 -0.023952244 -0.042798858 -0.0137616005 -0.0041078352 -0.023442367 -0.05458737 0.10858097
0.022927035 -0.08859034 0.10145402 -0.0073825307 0.031557314 -0.012499599 -0.05588285 -0.00962689
-0.0009781697 -0.0006396968 -0.029961774 -0.035541814 -0.016850866 0.011654611 -0.007305095 0.097529516
0.047786262 0.08415447 0.001033084 0.07463152 -0.024273494 0.048691597 -0.046810023 0.03559657
0.011781994 -0.010904654 0.040293027 0.039712176 -0.071177915 -0.05124234 -0.029377216 -0.03287013
0.032367945 -0.09073528 0.049026966 0.029135766 -0.013584995 -0.06385662 0.024330668 -0.009967388
0.10653697 -0.09167875 0.0676933 0.008501357 0.10074577 -0.031698197 0.025873953 -0.03718901
0.005853044 -0.053169895 0.0155159915 -0.02544097 0.017047197 0.007992637 -0.044099838 -0.07996703
0.04118504 -0.041153535 -0.06144078 0.021657554 0.034421973 -0.0545559 -0.017608382 -0.06454591
0.016232984 0.018013028 -0.012167919 -0.05710839 0.110636964 0.07983124 -0.06169085 0.037354145
0.013130333 0.04135908 0.05143021 -0.056145426 -0.06510613 -0.037363715 0.011550536 0.0048112036
0.06560682 -0.036935214 -0.062305473 -0.006161468 0.026609905 -0.016647838 -0.087978095 0.043627463
-0.05081337 0.039907828 -0.03659929 0.04307743 0.02606029 0.04704465 -0.05544047 -0.03385732
-0.064700864 0.064265795 0.0616956 -0.026639609 0.04957201 0.02061165 -0.024346858 -0.009262434
0.024813838 0.009001411 -0.033554558 0.04330236 -0.10115398 0.078517 0.10265116 -0.029607894
0.005199722 0.13294101 0.0018864905 -0.054021984 0.093403675 0.016601257 0.010641762 0.04351133
-0.018978544 -0.037023522 -0.02435826 0.010904473 0.0354637 0.054374952 0.039566003 0.12707318
0.0380699 -0.020501936 -0.014966786 0.020716107 0.11522145 -0.12533806 -0.014286858 0.009331303
0.012953781 -0.059999857 -0.028716508 -0.08660934 -0.13089913 0.019572066 -0.02343866 0.011963156
0.10159948 0.031980753 0.021183817 -0.09780654 0.03869514 0.067685634 -0.0007811029 -0.03619493
0.0100039225 0.11372484 0.023213493 -0.03551633 -0.086769745 -0.0045503518 0.116019644 -0.0058698785
0.11882288 0.097568944 0.034327846 0.064528145 0.06285871 0.0072652446 -0.081608415 -0.01229354
0.11239478 0.019598277 0.13392018 0.09438233 -0.026451496 0.037376855 -0.128995 0.10153293
-0.022493342 0.020768574 -0.01884424 0.0019316677 0.07889227 0.08137627 0.017125418 -0.1127897
0.048401017 0.01772599 0.008165095 -0.07283124 0.06793877 0.028560322 0.023490388 -0.05690363
-0.020169621 -0.007913906 0.0037783587 -0.03757387 0.097420655 0.08192761 -0.000881463 -0.010721085
0.03503709 -0.06827636 -0.018349322 -0.0085514095 0.023859592 -0.08786479 -0.048371788 -0.12215008
-0.015725695 -0.0085152965 0.07969464 -0.09925969 0.029732052 0.102572836 0.0750618 0.07310823
00000000: 6b7e 18bd ac2d 36bb b228 34bd bcc0 04bd
00000010: 1a21 d53d bf1a 60bd a4d7 7ebd 2387 983d
00000020: b3ee 163d 88e6 1f3d 43e8 9e3d 12bb a23d
00000030: f2a2 7a3d cb6d 683d c19e 063d 4d40 d9bd
00000040: 7ddc a83c 9cfc c4bc 4656 4b3d de96 b43c
00000050: 4add 6d3d a733 d83d a195 c43d f1f2 c83c
00000060: 5034 3f3c a967 12bb c225 21bd c6d7 853b
00000070: 930d 2c3d 2975 02bd 3e83 453d 298b 0dbc
00000080: b4e9 e4bd 7f37 c4bc db4d 2fbd 5678 61bc
00000090: 059b 86bb 350a c0bc 0297 5fbd b35f de3d
000000a0: 7ad1 bb3c da6e b5bd 20c7 cf3d 28e9 f1bb
000000b0: 3e42 013d 1ecb 4cbc 6ae5 64bd 1aba 1dbc
000000c0: ee35 80ba 53b1 27ba 6572 f5bc 4b94 11bd
000000d0: d40a 8abc fbf2 3e3c 945f efbb 8ebd c73d
000000e0: 87bb 433d 2e59 ac3d 8c68 873a 69d8 983d
000000f0: 35d9 c6bc d770 473d debb 3fbd b5cd 113d
00000100: 4409 413c 6fa9 32bc 4d0a 253d 3ca9 223d
00000110: bac5 91bd 7de3 51bd 7da8 f0bc d4a2 06bd
00000120: 4094 043d 6bd3 b9bd 80d0 483d 21ae ee3c
00000130: 9993 5ebc 42c7 82bd 1c51 c73c 414e 23bc
00000140: 0e30 da3d 12c2 bbbd c9a2 8a3d 4749 0b3c
00000150: cc53 ce3d f8d5 01bd 9df5 d33c 8153 18bd
00000160: e4ca bf3b adc8 59bd c936 7e3c 9569 d0bc
00000170: 90a6 8b3c 8df3 023c 08a2 34bd c1c5 a3bd
00000180: a5b1 283d 9c90 28bd 54a9 7bbd 2f6b b13c
00000190: 0efe 0c3d 0276 5fbd 743f 90bc a530 84bd
000001a0: 09fb 843c 0f90 933c f45b 47bc 7dea 69bd
000001b0: a295 e23d 907e a33d 8baf 7cbd a900 193d
000001c0: 9c20 573c 2368 293d 7ca8 523d bff8 65bd
000001d0: 5d56 85bd b20a 19bd 763e 3d3c 4da7 9d3b
000001e0: de5c 863d 6149 17bd 0634 7fbd 24e6 c9bb
000001f0: 04fd d93c 0c61 88bc dc2d b4bd b6b2 323d
00000200: ae21 50bd 6476 233d 23e9 15bd f671 303d
00000210: 647c d53c e4b1 403d 8c15 63bd f9ad 0abd
00000220: e381 84bd c99d 833d 87b4 7c3d 4f3b dabc
00000230: 050c 4b3d c3d9 a83c 1073 c7bc 77c1 17bc
00000240: 6446 cb3c a77a 133c 8170 09bd d15d 313d
00000250: d129 cfbd 85cd a03d c53a d23d 418c f2bc
00000260: 6e62 aa3b b021 083e 1e44 f73a 2846 5dbd
00000270: 6d4a bf3d 5cff 873c c95a 2e3c f038 323d
00000280: e478 9bbc faa5 17bd f98a c7bc ada8 323c
00000290: 6242 113d 45b8 5e3d f60f 223d 791f 023e
000002a0: 2fef 1b3d adf3 a7bc 4037 75bc d3b4 a93c
000002b0: 39f9 eb3d 9f58 00be 6d13 6abc 52e2 183c
000002c0: 183c 543c 69c2 75bd e23e ebbc 3d60 b1bd
000002d0: 6c0a 06be 9955 a03c 6f02 c0bc 1d01 443c
000002e0: 6313 d03d 40fe 023d af89 ad3c cc4e c8bd
000002f0: cc7e 1e3d c49e 8a3d eec2 4cba 2341 14bd
00000300: 7ee7 233c 92e8 e83d 392a be3c 9279 11bd
00000310: 56b4 b1bd 1e1b 95bb b59b ed3d 1c58 c0bb
00000320: 6959 f33d 3ad2 c73d 5b9b 0c3d 5527 843d
00000330: 11bc 803d 4a11 ee3b 5022 a7bd d86a 49bc
00000340: 3c2f e63d 918c a03c 5f22 093e 864b c13d
00000350: cfb0 d8bc 7918 193d 4417 04be 7ff0 cf3d
00000360: f543 b8bc db22 aa3c 3c5f 9abc 0330 fd3a
00000370: 4592 a13d 9aa8 a63d 9b4a 8c3c 49fe e6bd
00000380: 2540 463d 1836 913c e4c6 053c 8c28 95bd
00000390: 7b23 8b3d 56f7 e93c ea6e c03c c813 69bd
000003a0: c33a a5bc 54a9 01bc 579e 773b 0fe7 19bd
000003b0: 7b84 c73d aac9 a73d fb11 67ba 7da7 2fbc
000003c0: 0d83 0f3d 7ad4 8bbd 5151 96bc 361b 0cbc
000003d0: 3175 c33c 74f2 b3bd 7f21 46bd d229 fabd
000003e0: 2cd3 80bc be83 0bbc f236 a33d aa48 cbbd
000003f0: a290 f33c b511 d23d 00ba 993d c5b9 953d

bias f4 [64]
-0.029729556 0.07333186 -0.01698296 -0.06274808 -0.004181928 0.02956148 -0.006551951 -0.036485683
0.031792697 -0.018080872 0.024343355 0.008013152 -0.03447767 -0.07848444 -0.071840085 -0.076225996
0.03574858 0.0036314593 0.0005294782 -0.039022584 -0.0064227437 -0.08667832 -0.010168098 -0.0050048125
-0.019541934 0.00029095446 0.02142452 -0.08627562 0.0022424872 -0.09549198 0.043950815 0.018659305
-0.036869243 -0.034349237 -0.008779703 -0.021186333 0.06749029 0.004948535 0.014362824 0.00027205521
0.0483345 0.023994876 -0.09190628 -0.06473547 0.032386705 0.026333617 0.05583043 -0.07090449
-0.08154566 -0.059298806 -0.058424506 0.010601852 -0.032757595 -0.0600447 -0.024883907 0.0048725535
0.028588058 -0.014647686 -0.0025037543 0.057158723 0.04740615 0.03576258 0.0726985 0.009317215
00000000: 668b f3bc 042f 963d d91f 8bbc 1182 80bd
00000010: 8e08 89bb eb2a f23c c0b1 d6bb 0372 15bd
00000020: 0f39 023d 561e 94bc b76b c73c 9849 033c
00000030: 7538 0dbd 73bc a0bd e520 93bd 601c 9cbd
00000040: 1a6d 123d c7fd 6d3b aecc 0a3a 25d6 1fbd
00000050: e175 d2bb 6784 b1bd 1898 26bc 69ff a3bb
00000060: 6816 a0bc 3f8b 9839 7a82 af3c 46b1 b0bd
00000070: b1f6 123b 4d91 c3bd c505 343d 66db 983c
00000080: 3404 17bd c9b1 0cbd bed8 0fbc f68e adbc
00000090: 5938 8a3d 5227 a23b 0d52 6b3c a2a2 8e39
000000a0: 66fa 453d e790 c43c 5c39 bcbd 0894 84bd
000000b0: eca7 043d 99b9 d73c 73ae 643d 6036 91bd
000000c0: 6901 a7bd 4ee3 72bd 894e 6fbd 64b3 2d3c
000000d0: d42c 06bd 6ef1 75bd 56d9 cbbc f1a9 9f3b
000000e0: 8131 ea3c d9fc 6fbc 0716 24bb 441f 6a3d
000000f0: f32c 423d c87b 123d f3e2 943d 3ba7 183c

weight f4 [19, 64]
-0.1010364 -0.06776609 0.105906464 -0.09770563 -0.003045022 -0.05508175 -0.00081289106 -0.020617831
0.11548957 0.0034382362 0.085335724 -0.05665469 -0.07047704 0.06504474 -0.09207195 -0.0988532
-0.014110445 -0.10110517 0.031694464 0.04353381 0.03278779 0.01916103 0.008820043 0.08315957
-0.0037870966 -0.049226698 -0.024526099 -0.0017987632 0.040394597 -0.018533247 -0.084786884 0.11439977
0.04519163 -0.084796056 -0.054057393 0.09596556 -0.08174662 -0.007934017 -0.000794666 -0.062055837
-0.108789034 0.07510669 0.04127149 0.12419728 0.060246117 0.03577002 0.08563246 0.07741382
0.11929948 -0.016524341 -0.10869371 0.006204894 0.043182705 0.0019939435 -0.050235428 -0.06878681
0.0908515 0.040413834 -0.03906716 -0.037303288 -0.040399306 -0.048399385 0.01007859 -0.122191064
0.053995386 -0.05526429 -0.020941796 0.047614217 0.0071623023 -0.036687266 0.01263826 -0.09640623
0.07332495 0.039261263 -0.13279104 -0.056012046 0.07208717 -0.05973444 -0.07334106 0.075020365
0.10914749 0.016720297 0.08834493 0.04511351 -0.07550206 -0.030486805 0.00417118 -0.04240534
0.013257016 0.0880618 0.12372052 0.032127924 0.05245864 -0.018589903 0.048394207 -0.01449626
-0.042634234 -0.030955615 -0.060760863 -0.028724875 0.11787808 -0.011194799 0.0083232755 -0.10226276
0.08122973 -0.047838207 0.017943952 -0.13435087 0.0920616 0.07350032 0.017708039 0.092101276
-0.09380259 -0.107572325 -0.0154762585 -0.040652856 0.08164152 -0.08940784 -0.0055594794 -0.08305067
0.001372045 -0.0876908 -0.11382057 0.08156016 0.048722725 -0.0014669102 -0.0617327 -0.0028525754
0.031793877 0.13149703 -0.02832326 0.05247223 0.015612001 0.038255036 0.0092713265 0.001823868
-0.108007036 0.028189877 0.097492084 0.090501495 -0.047863286 0.042860832 -0.039784748 -0.10811329
0.06829637 -0.022228634 0.034374744 -0.0070366175 -0.044031177 0.09187677 0.015556142 -0.12078485
0.103351265 0.060770493 -0.123218626 -0.008218769 -0.12823033 -0.062432833 -0.05127979 -0.0006724347
0.09975486 0.023137204 -0.034374338 0.09827723 -0.12224835 0.10726571 0.10119453 0.03192599
0.09432928 -0.024459783 0.041935563 0.0919611 -0.05671092 0.09190155 -0.04721664 -0.10849515
-0.1018875 0.032403972 0.09702676 0.106637076 -0.07154829 -0.0017491482 -0.051811535 0.058336064
0.13808739 -0.0049948934 -0.08935065 0.05073557 -0.12618513 0.11092103 -0.050227363 -0.08657828
0.0077853836 -0.054506272 -0.062170837 -0.009280039 0.10062073 -0.05032661 -0.0012767287 0.025872095
0.056966193 -0.009031843 -0.043246794 -0.117498845 0.103481755 0.012341385 -0.054954477 -0.06635787
-0.016603956 0.1069214 -0.093449675 0.0293742 -0.004726422 -0.06420486 0.0007011858 -0.09655763
0.096596524 0.009864806 -0.061933048 -0.02029697 0.02093372 0.07637149 -0.06869708 0.027012153
0.10909093 -0.062382527 -0.08313004 0.119404756 -0.08485066 0.0014221729 0.08717618 0.07313848
-0.09670813 0.02478902 -0.005539688 0.055035383 0.042980175 0.037339166 -0.10764382 -0.05256424
0.023611313 0.10787982 0.043019265 -0.010892159 -0.06662327 0.07914365 0.05340125 -0.06413418
0.075510584 0.0025756157 0.045566317 0.059153575 -0.06761784 -0.025359306 -0.11292222 0.11553402
00000000: 2cec cebd f3c8 8abd 7de5 d83d e419 c8bd
00000010: fe8e 47bb 679d 61bd 3218 55ba bae6 a8bc
00000020: cc85 ec3d 0854 613b 7fc4 ae3d c00e 68bd
00000030: 4456 90bd 2d36 853d 3890 bcbd 8c73 cabd
00000040: 7f2f 67bc 3a10 cfbd 0ed2 013d 8250 323d
00000050: 7d4c 063d 98f7 9c3c f181 103c 914f aa3d
00000060: f030 78bb efa1 49bd f5ea c8bc 7ac4 ebba
00000070: ce74 253d 09d3 97bc bfa4 adbd 6d4a ea3d
00000080: dc1a 393d 8ea9 adbd 496b 5dbd 9789 c43d
00000090: c66a a7bd aefd 01bc 2251 50ba 432e 7ebd
000000a0: c9cc debd 89d1 993d 4b0c 293d 255b fe3d
000000b0: a2c4 763d 9683 123d 1260 af3d 238b 9e3d
000000c0: 4953 f43d 0e5e 87bc cf9a debd 6c52 cb3b
000000d0: 59e0 303d d2ac 023b aac3 4dbd 19e0 8cbd
000000e0: 5a10 ba3d fa88 253d e304 20bd 55cb 18bd
000000f0: be79 25bd 6f3e 46bd ac20 253c 4f3f fabd
00000100: 442a 5d3d cf5c 62bd 218e abbc 2007 433d
00000110: bfb1 ea3b 6345 16bd b410 4f3c a170 c5bd
00000120: 642b 963d 6bd0 203d 60fa 07be e36c 65bd
00000130: 70a2 933d 1aac 74bd d633 96bd 47a4 993d
00000140: b888 df3d 01f9 883c 30ee b43d f2c8 383d
00000150: d3a0 9abd 77bf f9bc 65ae 883b 39b1 2dbd
00000160: f533 593c bf59 b43d 2f61 fd3d 9298 033d
00000170: dfde 563d da49 98bc 0139 463d b981 6dbc
00000180: 3ca1 2ebd a196 fdbc 62e0 78bd 6e50 ebbc
00000190: 106a f13d 646a 37bc 595e 083c 236f d1bd
000001a0: c65b a63d fff1 43bd 32ff 923c 4693 09be
000001b0: cb8a bc3d 5687 963d 7310 913c 989f bc3d
000001c0: 931b c0bd e14e dcbd 2290 7dbc 9c83 26bd
000001d0: ab33 a73d 751b b7bd 4b2c b6bb 7816 aabd
000001e0: 31d6 b33a 3c97 b3bd c21a e9bd 0309 a73d
000001f0: 7b91 473d 5745 c0ba 6ddb 7cbd 46f2 3abb
00000200: 4c3a 023d 28a7 063e 2e06 e8bc 1fed 563d
00000210: 7ac9 7f3c 50b1 1c3d c3e6 173c db0e ef3a
00000220: cb32 ddbd 75ee e63c eea9 c73d d958 b93d
00000230: 4b0c 44bd d78e 2f3d 55f5 22bd 806a ddbd
00000240: f8de 8b3d d318 b6bc 88cc 0c3d 6d93 e6bb
00000250: 095a 34bd e329 bc3d 30df 7e3c 0c5e f7bd
00000260: d4a9 d33d 7bea 783d 0c5a fcbd 04a8 06bc
00000270: d04e 03be 92b9 7fbd c20a 52bd 5446 30ba
00000280: 474c cc3d 3c8a bd3c 1bcc 0cbd 9345 c93d
00000290: 585d fabd 20ae db3d 143f cf3d d4c4 023d
000002a0: b62f c13d e25f c8bc a0c4 2b3d 1a56 bc3d
000002b0: b649 68bd e136 bc3d 3c66 41bd b532 debd
000002c0: 65aa d0bd 07ba 043d f7b5 c63d 8a64 da3d
000002d0: e987 92bd ad43 e5ba 5538 54bd ccf1 6e3d
000002e0: c866 0d3e 34ac a3bb 79fd b6bd 1ad0 4f3d
000002f0: ad36 01be 912a e33d 35bb 4dbd f44f b1bd
00000300: 881c ff3b f841 5fbd d9a6 7ebd 4e0b 18bc
00000310: 3e12 ce3d 4723 4ebd e857 a7ba b7f1 d33c
00000320: 6255 693d 4cfa 13bc 8d23 31bd 3ca3 f0bd
00000330: 3eee d33d 8533 4a3c f217 61bd a3e6 87bd
00000340: 0505 88bc 9bf9 da3d 8b62 bfbd 2aa2 f03c
00000350: 1ae0 9abb d67d 83bd c8cf 373a 02c0 c5bd
00000360: 66d4 c53d ff9f 213c 82ad 7dbd d545 a6bc
00000370: 317d ab3c a868 9c3d 0eb1 8cbd 9748 dd3c
00000380: 116b df3d d284 7fbd 1540 aabd 7b8a f43d
00000390: 2fc6 adbd 3468 ba3a 6d89 b23d a1c9 953d
000003a0: e90e c6bd 5812 cb3c 4586 b5bb c86c 613d
000003b0: fb0b 303d f4f0 183d 5d74 dcbd 9a4d 57bd
000003c0: 836c c13c 18f0 dc3d f834 303d 0775 32bc
000003d0: c871 88bd 1116 a23d 45bb 5a3d c858 83bd
000003e0: 4ba5 9a3d a9cb 283b bfa3 3a3d 054b 723d
000003f0: 397b 8abd 52be cfbc c443 e7bd 1a9d ec3d

bias f4 [19]
0.39720088 -0.10412577 0.06898297 0.05335412 0.17664033 0.040911566 -0.124508105 -0.07785387
0.40558115 0.30584782 0.021360535 0.0007311827 -0.012049494 0.3058437 0.0014955081 -0.0041667493
-0.0058513912 0.31799152 0.23716265
00000000: ea5d cb3e e43f d5bd f246 8d3d da89 5a3d
00000010: 34e1 343e e392 273d 1bfe febd da71 9fbd
00000020: 55a8 cf3e 1698 9c3e 4afc ae3c d7ac 3f3a
00000030: 3e6b 45bc 8c97 9c3e ed04 c43a 3a89 88bb
00000040: 07bd bfbb c9cf a23e c4da 723e
