models/original/O/model0.pt (torch, 310479 bytes, 8 tensors)

weight f4 [128, 384]
00000000: df7a 133e 8735 a43c 3c12 373e 3963 3e3e
00000010: 807d a53d 89e4 f63d 8d0a 7d3d bf18 ee3d
00000020: 7b70 b83d 4669 f43d 6338 163e 1588 2c3d
00000030: a61a 593e 40b0 e73d da5d 323e e4e3 39ba
00000040: 8dfc 323d a71d cd3d 4661 d93d 2454 6abd
00000050: e71f e6bd 48bf 423c 1abb 55bc 616c 833c
00000060: 080c 0f3e f311 143e 76fc 243e 40ff 493d
00000070: 922f d93d 109b ac3e 239d b73e 83e1 5d3c
00000080: 78b3 efbd 47b5 8f3c 207d a73c 7640 003e
00000090: 52f7 e2bd e80c 7cbd f10a 05bd 897f fb3c
000000a0: dc0d 363e 8b0b eb3c 80cb 1b3e f21e 4cbb
000000b0: c7c6 e1bd d55d 20bc b771 b63e d878 973e
000000c0: cf3b a63d 3042 7a3c 09d0 b63c 3fc0 d83d
000000d0: 87ba ac3c 2217 b4bd 8382 2bbc aeca b53d
000000e0: 7997 1b3e eb87 473e 0044 9d3d a256 093e
000000f0: 17b6 dfbd 64a8 373d f26e 3f3e e9a8 233e
00000100: 7eb7 723d fc20 893e 7cd0 203d f225 0d3d
00000110: 4574 33bd 99cc 993d 8440 4fbd ef7b 38be
00000120: 39ed 353d 98ed 1abe 3d26 1c3e 3f02 783d
00000130: 186d 203e 50bf 87bc 8d14 b13d bb5e 06be
00000140: 0d20 43bc 4c83 ee3d a6f4 633d 0789 153d
00000150: 56e7 223e 090d 863c 65c8 a9bd 4739 60be
00000160: 2dcb 0abe 98cb b33c 2f16 b5bb 07a0 803d
00000170: f9b0 cf3d a871 e73c 4577 90be b273 0bbf
00000180: 30bc 633e 41de 013d 3e92 473e 6707 bd3d
00000190: 33d2 223d 330c 263d 3a7a bb3d c540 de3d
000001a0: f6f3 023e 75f3 0b3e d8ea 073e 74fb 593c
000001b0: 1e7c efbd c4fc b93b bc51 95bd 2f72 e3bd
000001c0: d1ab d93d 8725 bc3d 1357 c4bd e3ec 403c
000001d0: 041c b639 8608 5fbe 8f20 903d 763c 083e
000001e0: e2b1 9b3d 8275 253d 3542 123d 1a8e 12be
000001f0: 68fc 68bd ae3a 98be 935a 05be c424 6bbd
00000200: 45bf ed3b c31b 39bd 271d 2abd 06d2 fc3d
00000210: 0dba 2cbe fa24 32be 7d35 8cbd 2d09 30bd
00000220: 5037 f6bc 642a 3ebd f1a8 dfbd 0bcf b6bc
00000230: 9086 4abd a0ed e5bd e348 1c3e b962 363e
00000240: d76b fabd ca35 20be 73b3 eebd 1c40 01bd
00000250: f9ad bfbd 0608 7ebe 94a9 c8bc df7b cc3d
00000260: b98f 55bf 9e57 e43d bdad bf3e 3e9a 02be
00000270: 9ccf 7abe 63c7 f1bd 186d 4c3d a1c1 ef3b
00000280: 096c d03b b635 323d 2886 303e d9ab d73c
00000290: cf19 d83c df00 1d3e 73f5 063d d6fe 55bc
000002a0: b5df 973d d0b0 c83d a38e bf3d 665e db3c
000002b0: 84b7 46bd af00 33bd a853 04be 575a a93d
000002c0: 0e5c fd3d 078b 333e 64e6 103e 5e95 083d
000002d0: ee37 dfbd 225d fc3c aaf2 3dbd f2e6 3d3d
000002e0: 12b2 84be efe8 823d ed77 b03e 3f3e a03d
000002f0: ac52 16be 26e8 b3be 2b1c 7ebe ad20 5abe
00000300: aeea 62bc 8334 933e 94be 8c3f c4f6 693f
00000310: 9c37 b8be 8fde 7dbe 3a7c 73be 6eae 953b
00000320: d9e9 043e 3ad7 1a3c e6c6 9e3e d73e 053d
00000330: f1f1 c4be ab79 89be 7d48 d1bd 5e77 31be
00000340: 3ea5 663d e174 853d a8b9 3f3b 288e e63d
00000350: 39e5 d23c dcad 02be 9de2 e3bd 6e0b 4ebe
00000360: b049 4e3a 5708 0c3e 71e5 4bbd aa58 15be
00000370: 7598 35be 2280 57bd 1c7d 903d dc05 5d3e
00000380: 3737 083e a070 313e ea01 bc3d 753e b23b
00000390: 3270 c53b d212 2d3a 8de3 38ba 208c 08ba
000003a0: 538a be3c ed1a a0be 1913 dabd 58d2 e2bc
000003b0: 7747 e3be d172 dabe 9d68 70be 4749 78bd
000003c0: 1b63 50be ab7e cc3c 54cb 20bc 010e e2bd
000003d0: aa22 bdbe 0c59 28be 1396 e5bc eaee 0cbc
000003e0: a5a2 723e 7ba0 963e d15a 0dbe 03a4 613d
000003f0: a0fe c43e d6a5 a93e 90a1 693e 695b 923d
0.1440234 0.020045055 0.1787805 0.18592538 0.08080578 0.12055308 0.06177764 0.11625814
0.09005829 0.11934142 0.14669947 0.042121965 0.21201572 0.11312914 0.17418614 -0.0007091148
0.043697882 0.10015421 0.106142566 -0.05720915 -0.11236554 0.011886425 -0.013045097 0.01604289
0.13969433 0.14459972 0.16111931 0.04931569 0.106047764 0.33712053 0.35862073 0.013542536
-0.11704153 0.017542494 0.020445406 0.1252459 -0.11082329 -0.061535746 -0.032481138 0.030700462
0.17778724 0.028692028 0.15214348 -0.0031146375 -0.11024242 -0.009787996 0.35633633 0.29584384
0.08116876 0.015274569 0.022315996 0.10583543 0.021085037 -0.08793475 -0.010468128 0.08876549
0.15194501 0.19485442 0.076789856 0.13411954 -0.10923403 0.044838324 0.18694666 0.15982403
0.059257023 0.26782978 0.039261326 0.034460016 -0.043812055 0.07509727 -0.050598636 -0.18016027
0.044415686 -0.15129697 0.15248962 0.060549017 0.15666616 -0.016570717 0.08646498 -0.13122074
-0.011909497 0.11646137 0.055653237 0.036507633 0.1590856 0.016363638 -0.08290175 -0.2189685
-0.13554068 0.021947667 -0.005526326 0.06280523 0.10141177 0.028252438 -0.28215995 -0.5447341
0.22239757 0.0317061 0.1948938 0.092299275 0.039751243 0.040538978 0.09154172 0.108521976
0.12788376 0.1366709 0.1327318 0.01330458 -0.11693595 0.005675884 -0.0729098 -0.11105763
0.106284745 0.09186845 -0.095869206 0.011775228 0.00034734618 -0.21780595 0.0703746 0.13304314
0.07602288 0.040395267 0.03570767 -0.1431202 -0.05688134 -0.2973227 -0.13022833 -0.05740811
0.007255467 -0.04519249 -0.041531708 0.12344746 -0.16867848 -0.17396918 -0.068461396 -0.0429775
-0.030055672 -0.046427146 -0.10920895 -0.022315523 -0.049444735 -0.11226964 0.15262179 0.17811097
-0.122276 -0.15645519 -0.11655321 -0.03155528 -0.093593545 -0.24807748 -0.024494924 0.09984564
-0.8342243 0.11149524 0.3743724 -0.12754151 -0.24493259 -0.11805608 0.049908727 0.0073167835
0.006360535 0.043508254 0.17238677 0.02632706 0.026379494 0.15332364 0.032948922 -0.013061246
0.074157156 0.09799349 0.09353378 0.026778411 -0.048514858 -0.043701824 -0.12922537 0.08269184
0.12371074 0.17533503 0.14150387 0.033345573 -0.108993396 0.030806128 -0.046374 0.046362825
-0.25917107 0.06392085 0.34466496 0.078243725 -0.14679974 -0.35138053 -0.24815433 -0.21301527
-0.013849897 0.28751 1.099566 0.9139216 -0.35979927 -0.2479193 -0.23777857 0.004567913
0.12979831 0.009450728 0.31011122 0.032530632 -0.38465837 -0.26850638 -0.10218904 -0.17330691
0.05630993 0.065164335 0.0029254947 0.11257583 0.025744068 -0.12761635 -0.111272074 -0.20121548
0.00078692567 0.13675056 -0.04977936 -0.14584604 -0.17733939 -0.05261243 0.07055113 0.21584266
0.13302313 0.1732812 0.091800526 0.0054395744 0.0060253376 0.0006602231 -0.00070529507 -0.00052088685
0.023259318 -0.31270543 -0.10648174 -0.02768819 -0.4439046 -0.42665723 -0.23477407 -0.060616758
-0.20350306 0.024962744 -0.009814102 -0.11037827 -0.3694051 -0.16440219 -0.028025663 -0.008601883
0.23694856 0.29419312 -0.13804175 0.055088054 0.38475513 0.33134335 0.22815537 0.07146341

bias f4 [128]
00000000: f543 123e 0b97 633e 6752 843e c1d0 993e
00000010: 8d01 523e 842f 9d3e 0806 863e de53 803e
00000020: 64d4 a83e 9751 8d3e af9c 823e 039d a13e
00000030: 208a 723e 83d1 7e3d f509 8c3e 33d1 7e3e
00000040: 3604 393e 048e 973e 72e3 6c3e f493 643c
00000050: 5b6c 173e 2aae 663e 37e8 8e3e a410 d23d
00000060: c49a 973e 8192 bebc 57c8 633e 3237 333e
00000070: 88dc 873e 2ccd 123e 9066 673d 1f32 763e
00000080: 1cf3 463e f4bb 1a3d 0028 4a3e 1ac1 1d3e
00000090: 1b34 943e b07a 673e 9700 873e 2e24 943e
000000a0: af43 933e 360d 073d 2091 4e3e 984d 2c3e
000000b0: 3fa9 3b3e fa08 c83c d06c 363e 6bf9 2d3e
000000c0: 6254 6a3e f3dc 413e be55 343e b7c7 7d3e
000000d0: eb5b 8c3e 1a42 693e f480 7e3e eab9 2f3e
000000e0: 139b 5e3e 6fd3 a63d db90 8c3e 4682 4d3e
000000f0: 4c7d 5e3e 9e64 9a3e 8c9b 863e a48a 713e
00000100: b600 023e e860 8cbd 0a17 223e a5be bf3d
00000110: 2869 af3d 21ed 983c de84 813e b0d5 393c
00000120: 87c0 70bb d9a8 4c3e 1da8 993e 86be 453e
00000130: 74c4 023e ac24 7e3e b488 5e3e 2681 d5bc
00000140: 134a 8e3e d3b7 433d 9739 a43c baa0 223e
00000150: a15b f23d f6b8 643e 9658 9f3e d76a ca3d
00000160: 0d92 973e 6318 143c 23c1 063e 0615 043d
00000170: 3b91 303e 11b6 823e 6109 893e 5e0d fa3d
00000180: 87e5 eb3d 0598 393e d268 143d f776 8e3e
00000190: 2c63 9f3e 40c6 963e aa30 893d 6c6d 903e
000001a0: 7638 883e 8951 193e 8eda 843e 6803 5f3e
000001b0: a44d 0d3d dfdb 903e 96da 6f3e 37ee 7d3e
000001c0: 3653 5c3e 0abf 2a3d 1148 683e 0d7d 933e
000001d0: ccd6 af3d 5ae2 5e3e 4275 5a3e f741 843e
000001e0: 6daa 953c 7fad 323d 2e58 643e a609 f43d
000001f0: 9896 573e 3c34 b33d 0d3b 123e 49c7 8b3e
0.14283736 0.22225587 0.25844118 0.3004208 0.20508404 0.30700314 0.26176476 0.25063986
0.3297454 0.2760131 0.25510165 0.31565103 0.23685503 0.062211525 0.27351347 0.2488449
0.18068013 0.29600537 0.23133639 0.01395129 0.14787428 0.22527376 0.2791154 0.1025708
0.29610264 -0.023263218 0.22244392 0.17501524 0.2653544 0.1433608 0.056494296 0.24042557
0.19428676 0.037776902 0.19741821 0.15405694 0.28946003 0.22605395 0.26367638 0.28933853
0.28762576 0.032971583 0.20172548 0.16826475 0.18326281 0.024418343 0.17814946 0.16989677
0.22883752 0.18931942 0.17610833 0.24783216 0.27413878 0.22779122 0.24853879 0.17160764
0.21738844 0.081457965 0.27454266 0.20069227 0.21727484 0.3015489 0.26290548 0.23588043
0.12695584 -0.06854421 0.15829101 0.093625344 0.08564979 0.01866776 0.25296682 0.011342451
-0.003673585 0.19986285 0.30011073 0.1931096 0.12770253 0.24818677 0.21731836 -0.02606256
0.2779089 0.04778273 0.020046992 0.15881625 0.11833883 0.22336182 0.31122273 0.09883659
0.29603615 0.009039017 0.13159613 0.032246612 0.17242901 0.2552953 0.26764968 0.12209581
0.11518388 0.18124397 0.036232777 0.27825138 0.3113035 0.29448128 0.06698735 0.28208482
0.26605576 0.1497251 0.25947994 0.21778643 0.034497872 0.28292748 0.23423228 0.24797903
0.21516117 0.041686095 0.22683741 0.28806344 0.08585891 0.21766034 0.21333793 0.25831577
0.018269742 0.04362249 0.22299263 0.11915903 0.2105354 0.08750197 0.14280339 0.2730048

weight f4 [128, 128]
00000000: bd46 b13d e617 9f3d f511 0e3d 7679 063d
00000010: e5b8 993d b64e 463e 5094 0c3d a9c2 013e
00000020: c49d 673d fa4c f23d a24d d23d fd0c 013d
00000030: 111d 413e f2dd 573e 2ae5 c73d 9f4f 393d
00000040: 46e4 aa3d c5b2 293d 0b5f 253e 735a a0be
00000050: e5cb d23d 2368 b03d 6052 363e 1e00 cdbc
00000060: 4962 913d b350 debe ce6f 01bc 042d 0d3e
00000070: 60c5 f13d 8a2c 1c3e 062c ac3d dfd0 0a3e
00000080: 4c75 683c ec67 3c3e 1fc0 c63d 8538 393e
00000090: 9701 8a3e 2337 d53d 1edf 343e a600 3e3e
000000a0: 0ff1 cf3d 6448 a33e 506a 4d3d a39a 313c
000000b0: f882 cebc a607 d5be 643f e43d 0a94 263e
000000c0: 881b 113e f674 bc3d dc2d b63d 54b1 283d
000000d0: 2de9 533d 127b 013d c0d4 233e 239a 923e
000000e0: f189 293e 1d9f 283e 9f7c eb3d ff7e 693d
000000f0: 5124 e63d 8d95 c73d 2bb5 ba3c 18ee 0a3e
00000100: acf6 1a3c 3eae cfbe 8bfb 653e ff13 c63e
00000110: 6201 ff3d cf13 72bd 3026 053e e1bb b3be
00000120: 01c1 7fbe 42bb 103e 4324 3d3e bdaf 033d
00000130: d531 f63b f4a7 d93d f974 5c3d e5bb a3be
00000140: 678c d23d c582 113d bc36 8abe a00d 3cbc
00000150: ce9c 9c3d 731e ae3c 8042 3d3e 264b 893e
00000160: 3a79 153e fcbb eabe 7676 f73d cfe1 18be
00000170: 5ea2 ef3c ff05 103e 7a88 ae3d 52fb 863d
00000180: 42ee 013e 6bc2 da3c 3d91 c83b e229 163e
00000190: 016d af3e 4125 173e 1fe4 2e3e 9662 ca3d
000001a0: 0ec0 c03d c90b 863c dd69 073e e4f5 0d3e
000001b0: a439 da3e ef4e 043e 4d50 273e 3280 0a3d
000001c0: 8abd 483e a755 d13e 3082 283e 631e 763e
000001d0: 4b39 113d cccd d73d 78cf d03d 6bc1 1d3e
000001e0: 727a 663e ee18 e4be dc9f 453d 9259 2d3e
000001f0: 5ba9 0f3e 933a 6a3e 39b1 f93d 2df8 503e
00000200: e32a b1bd a218 10be 6c37 04be 61e8 72be
00000210: c967 c6bd 8fd8 34be 1669 bebc 0cd4 f9bd
00000220: f142 31be 2000 21be 0531 06be 5560 3fbe
00000230: 18e3 c2bd 49bf 21be d719 ebbd 995f 27be
00000240: dbe3 f2bd 0ec6 0abe 4157 bcbd de0c 5f3d
00000250: 0ca8 c4bd b60f 79bd 2d6d 11be 419b b6bd
00000260: 20e2 06be 95b1 983e 45f8 42bd e631 fabc
00000270: 6578 bbbd 1169 fbbd 1a47 eebd 48c6 cfbc
00000280: 0b4a cebd 87c1 21be 97e6 2cbe f688 9f3c
00000290: 3886 f4bd eabc 44bd b3fc 49be 0853 bdbd
000002a0: f04f 47be 41aa cdbe 6f34 20bd 1b91 21be
000002b0: ff28 04be 27a7 a13e 011d 92bc b925 9d3b
000002c0: b900 0cbe f5b5 2ebd eb56 71bd e745 32be
000002d0: 769a fabd 8c06 08be a262 74bd 3123 aebd
000002e0: 2b29 12be 7944 c6bd 8f1b 80bd 27eb 3cbd
000002f0: f847 72bd 9afe 36bd 61c7 05be 6eba bbbc
00000300: dca1 debc 97f0 ac3e e5dc 56bd ea99 99be
00000310: 42d6 c3bd 8e3a 583e 6fac 35be c0b8 8c3e
00000320: cec9 393e 850b 0dbe ae7d 06be 3d68 c1bd
00000330: c8d5 64bd b3ff 4abd 7544 d6bd b298 8a3e
00000340: 7f65 a5bd 97b0 d13d 4a96 973e 83b9 07bd
00000350: ab52 f1bb 1646 92bd cf11 5abe d234 0ebe
00000360: d3c2 cfbd 3c28 933e a458 16bd 3d62 303e
00000370: e25e f3bd c4f3 80be a2a1 fabd e41b bbbb
00000380: 032a 403b 4b03 efbd fbca c23e 082a 73bd
00000390: e87c d4bd 9f1f 38be c4a8 01bd dfbc fabd
000003a0: 0a9f 14be 01fe 91bd f246 53be dc08 0abe
000003b0: 96b3 5fbe 3d5b c6bd 9ebe 12be 6be4 b0bd
000003c0: a3fd 95bd 0816 ecbd ed31 f7bd 1d32 6fbd
000003d0: f7d9 edbd 92a2 01be 0b0b aebd ba0e 13be
000003e0: d764 04be 5e3c b53e 106d 7abd 8742 10be
000003f0: ac68 7fbd 6374 84be a3a4 e3bd ef09 92be
0.086560704 0.0776823 0.034685094 0.032830678 0.07505969 0.19365963 0.03432113 0.12671913
0.05654694 0.11831088 0.102687135 0.031506527 0.18858744 0.21080759 0.097605065 0.04524195
0.08344321 0.041430254 0.16149537 -0.31319007 0.10292796 0.086136125 0.17804861 -0.02502447
0.070988245 -0.43420944 -0.0079001915 0.13786703 0.118052244 0.15251365 0.08406834 0.1355624
0.014188122 0.18399018 0.09704613 0.18087967 0.26954338 0.10410907 0.17663237 0.18554935
0.101534 0.31891167 0.050150216 0.010840091 -0.025208935 -0.41607398 0.11144903 0.1626741
0.14170659 0.09201996 0.08895466 0.04118474 0.051736046 0.03161151 0.15999126 0.28633222
0.16556527 0.16466947 0.11498379 0.05700588 0.112373956 0.097453214 0.022791466 0.13567388
0.009458225 -0.40562624 0.22459237 0.3868713 0.124514356 -0.059100922 0.13002849 -0.35104278
-0.24975969 0.14133933 0.18470864 0.03215002 0.0075132647 0.10627738 0.05382249 -0.3197929
0.10280686 0.035525102 -0.26994884 -0.011477858 0.076470956 0.021254754 0.18482399 0.26815146
0.14597026 -0.45846546 0.120831415 -0.14929889 0.029252227 0.14064787 0.085221246 0.06590904
0.12688544 0.026704034 0.0061208294 0.14664415 0.3426285 0.14760305 0.17079209 0.09882085
0.094116315 0.016363041 0.13223977 0.13863331 0.426221 0.12920736 0.16339226 0.033813663
0.19603553 0.4088566 0.16455913 0.24035029 0.03545503 0.105372995 0.101958215 0.15405814
0.22507647 -0.4455027 0.048248157 0.169287 0.14029448 0.22873907 0.12192006 0.20407172
-0.08650758 -0.14071897 -0.12911767 -0.23721458 -0.09687764 -0.17660736 -0.023243468 -0.12198648
-0.17310692 -0.15722704 -0.13104637 -0.18689092 -0.09515971 -0.15795626 -0.11479538 -0.16345061
-0.11859866 -0.13552114 -0.0919633 0.05445563 -0.09602365 -0.060806 -0.14201804 -0.08916331
-0.13172197 0.29822984 -0.04760005 -0.030541372 -0.09153823 -0.12275899 -0.11634655 -0.025363103
-0.10072716 -0.15796481 -0.16884838 0.019474488 -0.11939663 -0.048031725 -0.19725303 -0.092443526
-0.19464087 -0.40168956 -0.039112505 -0.1577801 -0.12906264 0.3157284 -0.017836096 0.0047957567
-0.1367215 -0.042653996 -0.058920782 -0.17409478 -0.12236492 -0.13283747 -0.059664376 -0.08502806
-0.14273517 -0.09681029 -0.062552564 -0.046122696 -0.059150666 -0.0446764 -0.13064338 -0.022916045
-0.02717679 0.33777305 -0.052456755 -0.3000024 -0.09562351 0.21116087 -0.1774156 0.27484703
0.18143389 -0.13773926 -0.1313388 -0.0944371 -0.05586794 -0.04956026 -0.10462276 0.27069622
-0.080759995 0.1023876 0.2960685 -0.033135902 -0.007364591 -0.07142274 -0.21295856 -0.13887337
-0.10144582 0.28741634 -0.036705628 0.17224975 -0.11883332 -0.25185978 -0.1223786 -0.005710112
0.0029321916 -0.1167055 0.38045487 -0.059366256 -0.103753865 -0.17980812 -0.031655088 -0.122430556
-0.14513794 -0.071285255 -0.20632532 -0.13479942 -0.2184585 -0.09685371 -0.14330527 -0.08637317
-0.07323768 -0.115276396 -0.120700695 -0.0583974 -0.11613839 -0.12659672 -0.084982 -0.14361086
-0.12929092 0.3539762 -0.061139166 -0.14087878 -0.062355682 -0.25870046 -0.11115386 -0.28523204

bias f4 [128]
00000000: f886 54bc 1d0c 1cbd 2fa7 0b3e dc65 683c
00000010: 4a8b e23d 8570 d03d 47b7 76bd c00a 2c3e
00000020: db18 50bd dd4c a63c 8860 2f3e b662 ae3d
00000030: 5d90 17be 2eb0 cbbd 841a 6cbd b54b 6abd
00000040: f50d bc3d 5716 bfbb e4db 26bb eb3e bc3d
00000050: 1f6a 133e 71f1 af3d af24 dbbd c605 ec3d
00000060: 3339 0a3e 784b 083d 5249 0cbe bd65 a23d
00000070: f126 0bbd af36 4fbd 47e9 3e3c 095d 543e
00000080: 6d71 f6bd 361d b43d 2eb5 4f3b 9659 233c
00000090: af24 36bd cb5c 0d3e 9f83 41bd fcf0 953c
000000a0: 5f06 fe3d 4386 9ebd 589b 253c 2b71 573c
000000b0: 2f83 c3bd 94b4 b2bd a199 cc3d 3efe cabd
000000c0: 69b6 c8bc 3ae9 11be c763 fbbb 8cd8 a33d
000000d0: b3ec fa3d d09e 0d3d 5c90 e33d 842a 863c
000000e0: e813 8d3c 565d 863d db35 283d af2f dcbd
000000f0: 2566 8b3c da0f d73b 5e34 b73d e705 fe3d
00000100: 36cd dcbd 6587 b73d ca2b bdbd 57f1 0abe
00000110: adae 8cbd 5ca5 873d eef8 00be 02c5 41bd
00000120: b57d 8a3d ba3a 163e 7f14 0c3e e673 1fbe
00000130: 81b0 913c 810b 16be c231 dfbd b90d 7c3d
00000140: 8981 5dbd 95f5 60bd 20b4 9dbd c9bb 043d
00000150: ed06 b33d ee5b 15be 1cff 8f3d 5a42 8e3d
00000160: 1362 bbbd f372 c73c ae72 503d 5442 e73d
00000170: 4cd6 9cbd cd71 073e 9d8c c43d 1fb4 18be
00000180: 0da0 debd a17f 863d 51f4 9e3d 0e8e da3d
00000190: fd91 d23d ac7a 973c d326 d73d 1115 37be
000001a0: c6bf c23d 49ea c43c efe6 68be 4850 30be
000001b0: c8a1 8d3d 38d5 17bd 987e d63c 6e0b 193d
000001c0: 30f0 d2bd cbc1 00be 535c a63d 176e 2bbd
000001d0: d4f4 81bc ecfd 91bc 16d2 96bc 3743 aa3d
000001e0: 8022 f6bd 7b12 9cbc 869c 0ebe 23f2 d7bc
000001f0: 4a69 cb3d 246b d0bd 755b efbc 7c85 a93c
-0.012971632 -0.03809749 0.13637994 0.014184441 0.110617235 0.101777114 -0.06023338 0.16800976
-0.050804954 0.020300323 0.17126667 0.08514921 -0.14801164 -0.09945713 -0.057642475 -0.057201106
0.091823496 -0.0058315205 -0.0025460655 0.09191688 0.1439595 0.08590973 -0.10700356 0.11524539
0.13498382 0.033275098 -0.13699844 0.07929561 -0.033972684 -0.05058926 0.011652297 0.20738615
-0.12033353 0.08794634 0.0031693685 0.009970089 -0.044468578 0.13804929 -0.047244664 0.018303387
0.12403559 -0.07740452 0.010107838 0.01314954 -0.09546506 -0.08725849 0.0999024 -0.09911774
-0.024501042 -0.14249125 -0.0076718065 0.080002874 0.12252178 0.034575284 0.11111519 0.016377695
0.017221406 0.06560771 0.041066986 -0.107512824 0.01701648 0.006563169 0.08945535 0.124034695
-0.107813284 0.08961371 -0.09236868 -0.13568626 -0.06869254 0.06623337 -0.12594959 -0.047307022
0.06762258 0.1467084 0.13679694 -0.15571555 0.017784359 -0.14652826 -0.108981624 0.061536524
-0.054078612 -0.054921705 -0.07700372 0.03240565 0.08741555 -0.1458585 0.0703108 0.06946249
-0.091495655 0.024346804 0.050890617 0.11291948 -0.076580614 0.13227005 0.09597132 -0.1491246
-0.10870371 0.06567312 0.077614434 0.10671626 0.10281751 0.018491112 0.10505452 -0.1787913
0.09509234 0.024037497 -0.22744344 -0.17218125 0.06915623 -0.037068576 0.026183411 0.037364416
-0.102997184 -0.12573926 0.08123078 -0.041853037 -0.015863813 -0.017821275 -0.018410724 0.083136015
-0.12018299 -0.01905178 -0.13926896 -0.026360577 0.09932192 -0.101766855 -0.029218415 0.020693533

weight f4 [64, 146]
00000000: c3ba 55ba fb23 a63c b0c3 a43b a297 a53a
00000010: db12 d8bc 6f3f 11bc e4da 613b c278 423c
00000020: d597 aaba bf8a a9bc c9e2 333c b847 0e3b
00000030: bd54 81bb 2f88 9f3c 3cc7 023c 2bbd 2c3c
00000040: c2dd 6dbc 8e98 d73c f833 57ba 4a4e 1e3b
00000050: e7df 8cbc b897 1ebb 58d3 433b deb6 3639
00000060: a8ec 16bd 621a 0fbd 3417 4a3c bf39 2dbd
00000070: cd27 243c da8d f13a 4424 453b 260e 4c3c
00000080: c728 353c 756e a0bb da54 0abd 55bd 17bb
00000090: ec79 0dbb cf2a 27bc f8e8 daba 9ca1 803c
000000a0: 659d 87bb 3429 c7bb 0c3c 9fba 00c9 46ba
000000b0: 1521 cebb 613e 883c 832e 44bb baeb 233c
000000c0: 2a58 a339 5fa3 f33b 424a 043c faf2 aabb
000000d0: 8142 dbbb f336 f73a b529 9dba ca9d 1abc
000000e0: b871 7b3c 347a a6ba 3b2d b93a 8390 843b
000000f0: 40d1 a6bc 6a5a f23b 94e6 91ba e4ac 8cba
00000100: c8af 233b 0c65 853c 63b6 773b 0975 31bc
00000110: df24 5e3b 3241 153c 3bac dc3c 60a1 d13a
00000120: 0e23 aaba e974 4abc d6b5 21bc b97f 5dbb
00000130: 726b ffba 24c0 e0ba 73b8 d83c 2e48 9cbb
00000140: ca72 afbb 5609 143c 5252 353a c80a a8ba
00000150: 389c 47ba 8188 9a3c 68f6 f8bb 7c69 3dbd
00000160: 6b90 c93a f883 653c ef49 30bb 8e3b 9d3c
00000170: 03ab 2b3c ff08 b43c 7741 d1b9 3c5f d9bb
00000180: f630 78bb c826 86bc 32ae 8c3b 85f2 22bd
00000190: 6fd5 953b ecbd 82bc 66e3 1d3c e7d9 b33b
000001a0: 1a3f 51bb 1816 9fbc 4551 713d d457 d13c
000001b0: 321e e8bc 626a 96ba 8a3b 6f3a 5405 e5ba
000001c0: 74c0 923a 0adc 1c3b 4300 c2bb 4c6b 2f3a
000001d0: b70c ee3c f4e5 8cbc 3ca9 87bb 7306 57bc
000001e0: 8981 8f3b fd08 e93a 930c afbc ddcf 1dbb
000001f0: 5138 bcbb 5b54 913b 35a4 a0bb ebb2 2ebb
00000200: d0ed b93c 51fa a6bb 7ba3 9f3d 0de9 8cbd
00000210: 7755 81bd 7b67 8c3d 715c 8e3d 4096 17bd
00000220: a598 8d3c 1a13 a83d 6685 adbc 7cf5 25bb
00000230: 7a5c adbc f9fe 973d 367e 9b3b c594 adbc
00000240: 8dff 823d a304 30bd 9d2c 00bd 1390 abbc
00000250: ed24 273c 386c 973a 48e7 0dbd e642 26bd
00000260: 0f0b 563d d483 a6bc d555 a33c 0f6b bdbd
00000270: e4f5 a3bc 2b9b e0bd 417a 163d 2e86 8b3d
00000280: 6c11 d4bc b5dd 79ba 10e3 77bd 1adb 313d
00000290: e874 a03c c27e 0d3c 7505 a3bd a987 cd3b
000002a0: ef8c 0db8 9a47 8cbc a846 59bd f889 c03a
000002b0: 50c6 09bc 7d01 2abc 3073 0d3c 81e0 893d
000002c0: d8ba fb3c 31a5 40bd c31e f1bc c4c1 2bbc
000002d0: e7b1 1bbc 80ab cfbb 2870 933d 31df 09bd
000002e0: 4ed6 853b 48c6 9dbd c360 a43c c2e6 873d
000002f0: 7bfc fdbc 90d8 28bb 26c5 bf3c 1dad c23c
00000300: f7b9 1dbd 4688 683d 1a54 7ebc a313 a33c
00000310: c23e c13d ece4 64bd 5def a43b 7345 213d
00000320: b99d a4bd da38 8abb c0c3 eabc 2335 903c
00000330: f0b5 3e3b 0de4 423d 06b1 adbc 265a 90bd
00000340: a428 88bd 2dd9 37bd f0f9 953d 5db9 9fbd
00000350: 5f05 f4bc 8e16 d13d 00af b3bc 9961 50bd
00000360: 88c8 be3d dd60 c8bb 5c91 ecbc 65d8 bcbd
00000370: 11e5 243a bf43 bc3d ad28 42bd dea0 913d
00000380: f86b 953d bb25 a3bd 4f6a 99bb d129 a63d
00000390: c59d f23c 452d 3dbc c5c4 fb3b 1e2c 673c
000003a0: 6975 46bd 6cec c0bd dfce 863b c512 94bd
000003b0: 49c4 20bd 40be 85bc e3c1 b93d 7387 bdbd
000003c0: 091c 8f3c e55d 4a3d 0903 383d 0bd0 68bc
000003d0: 3a27 d0ba a3cf 8cbd 1910 643c 0395 4ebd
000003e0: a2d9 95bc 0cd2 873c 54b6 29bc 4c98 a6bd
000003f0: 7281 bd3c 20a5 e43d 5cd4 80bd ef0d 203d
-0.0008153135 0.020280829 0.0050282106 0.0012633691 -0.026376178 -0.008865221 0.0034462744 0.011869611
-0.001301522 -0.020696042 0.010979363 0.0021710228 -0.003946869 0.019474117 0.0079820715 0.010543148
-0.014518203 0.02631786 -0.0008209343 0.002415555 -0.017196609 -0.0024199318 0.002988061 0.00017424996
-0.036846787 -0.03493727 0.012334634 -0.0422914 0.010019255 0.0018429116 0.003008143 0.012454545
0.011057085 -0.00489598 -0.033772327 -0.0023153622 -0.0021587564 -0.010203077 -0.001670151 0.015702061
-0.004138636 -0.00607791 -0.0012148633 -0.0007583052 -0.006290565 0.016631307 -0.002993495 0.010004932
0.0003115547 0.007435247 0.008074345 -0.0052169533 -0.0066912775 0.0018860981 -0.0011990579 -0.009437034
0.015346937 -0.0012701214 0.001412786 0.0040455475 -0.02036345 0.007396032 -0.001113134 -0.0010732678
0.00249766 0.016283534 0.003779792 -0.010831126 0.0033896489 0.009109782 0.026937595 0.0015993528
-0.0012980418 -0.012356975 -0.009870013 -0.0033798052 -0.0019486977 -0.0017147106 0.02645514 -0.0047693467
-0.00535426 0.009035429 0.0006916869 -0.0012820596 -0.0007614526 0.018863918 -0.0075977333 -0.046243176
0.0015378123 0.014008515 -0.0026899537 0.019193437 0.010477784 0.021976946 -0.00039912362 -0.0066336673
-0.003787098 -0.016375914 0.0042932266 -0.039782066 0.0045725624 -0.015959702 0.009636736 0.0054886225
-0.003192848 -0.019419715 0.058915395 0.025554575 -0.02833471 -0.0011475796 0.00091259985 -0.0017472901
0.0011196272 0.0023934864 -0.0059204414 0.00066917087 0.029058797 -0.017199494 -0.0041400474 -0.013124096
0.0043794555 0.0017779168 -0.0213683 -0.0024080195 -0.005744018 0.004435105 -0.0049023875 -0.0026656936
0.022696406 -0.005095758 0.07794853 -0.068803884 -0.06315129 0.06855675 0.069512255 -0.037008524
0.0172847 0.08206768 -0.021181773 -0.0025323322 -0.02116226 0.07421679 0.00474527 -0.021189103
0.06396399 -0.042973172 -0.031292547 -0.020942723 0.010201675 0.0011552637 -0.034644395 -0.040591143
0.05225664 -0.020326532 0.019938389 -0.092489354 -0.02001471 -0.10967096 0.036737684 0.06812702
-0.025887214 -0.0009531633 -0.060519278 0.043421842 0.019586995 0.008636178 -0.07960025 0.0062722755
-3.3748274e-05 -0.017123986 -0.0530459 0.0014689555 -0.008409098 -0.010376331 0.00863342 0.06732274
0.030728742 -0.04703254 -0.029433614 -0.010483209 -0.009502864 -0.006337583 0.071991265 -0.033660118
0.004084385 -0.07703835 0.02006567 0.066358104 -0.031004181 -0.0025763847 0.023409437 0.023764187
-0.038507428 0.056770585 -0.015522981 0.019906824 0.09435798 -0.05588238 0.005033417 0.039372873
-0.08037896 -0.004218203 -0.028657794 0.017603463 0.0029100142 0.047580767 -0.021202575 -0.070484444
-0.066483766 -0.04488485 0.073230624 -0.07799027 -0.029787717 0.1020938 -0.021934032 -0.050874326
0.09315592 -0.0061150626 -0.028877907 -0.092209615 0.0006290237 0.09192609 -0.047402073 0.07110761
0.07295984 -0.07966181 -0.0046818624 0.081134446 0.029616246 -0.011546438 0.007683369 0.014109639
-0.048451815 -0.09420094 0.0041140164 -0.072301425 -0.039249692 -0.01632607 0.09070184 -0.092543505
0.017469423 0.04940595 0.04492477 -0.014209758 -0.0015880831 -0.06875541 0.013919854 -0.050435077
-0.018292252 0.01657965 -0.010358412 -0.08134517 0.023133013 0.111643076 -0.06290504 0.039075788

bias f4 [64]
00000000: eabc 71bd 78ad dc3c 1ee5 143d 2e5c 1d3d
00000010: 9294 3f3d 8b16 3b3d 17f0 8dbb 66c1 65bd
00000020: d493 67bd 2e73 81bb 54d9 a0bc fc5c 05bd
00000030: c455 c5b8 6738 a2ba 2fb0 443d b308 aabc
00000040: b28e 8fbd 2ef4 533b 9452 7fbd 8e09 bebc
00000050: 6ddc adbc 6a9f 9e3c 048c abbd edb1 603c
00000060: d42f 19bd b76a 97bc cac6 ae3c 4e34 813b
00000070: 1e3f 1f3c 7238 c5bb 7275 0000 1dbf 76bd
00000080: 3307 69bd dc7c 0dbd 9821 16bd 5abb 4cbd
00000090: bcca 8abd a1a0 d2ba 55a5 ba3c b693 85bd
000000a0: ea83 433d 176f 7e3b 19ca e33c a4b3 7d3c
000000b0: 44ac 36bd 4e8f 6c3d a323 88bd 9174 bcbc
000000c0: de4f fe89 5e00 f2bc 1c8a 74bc 1f87 23bd
000000d0: fc43 95bb fa2a 79bd 376a f6bc ad80 35bd
000000e0: bdfd 22bc bc9b 38bc 085d 38bc 5856 37bd
000000f0: ad3b 45bc 1939 653c 004e 8dbc b07d 273d
-0.059018053 0.026938185 0.036351316 0.038417988 0.046772547 0.045675796 -0.0043315995 -0.056092642
-0.056537464 -0.003950498 -0.01963488 -0.03255938 -9.409667e-05 -0.0012376428 0.048019584 -0.020756101
-0.07009639 0.0032341587 -0.062334612 -0.023197915 -0.021223271 0.019363124 -0.08376315 0.013714296
-0.037399128 -0.018483503 0.021335024 0.003943003 0.009719638 -0.0060186917 4.2131e-41 -0.060240854
-0.05689163 -0.034542903 -0.03665313 -0.04998336 -0.0677695 -0.00160696 0.022783915 -0.06522314
0.047733225 0.003882354 0.027806329 0.015484724 -0.04459788 0.057753853 -0.06647422 -0.023004802
-6.1223382e-33 -0.02954119 -0.014925506 -0.039923783 -0.0045552235 -0.060832 -0.030079944 -0.044312168
-0.009948191 -0.011267599 -0.011252649 -0.04476008 -0.012038154 0.013990664 -0.017249107 0.04089135

weight f4 [19, 64]
00000000: 74c9 5dbc cdc8 d6bd 3c76 47bd 78f7 a5bc
00000010: 9163 433d d8bc 7c3d 3ea1 a4bd 0b2b 7dbd
00000020: 2e09 bb3d 1698 19bd 5e14 ccbd d9ea 1b3c
00000030: 4978 ffbd 0883 48bd b01b fd3d 7b5a b0bd
00000040: d983 0f3e 2fa1 22bd 1379 983b e8e4 ed3d
00000050: 3703 d63d e3b2 f13d 8687 bfbd d7f3 41bd
00000060: b5f0 c7bd b46e a03d d407 7b3d cdd5 5c3d
00000070: f508 c73d cb37 f9bb 1b4e d43b 0a08 f8bd
00000080: 5d1d 203c 8885 59bd 30c9 fdbd 20d2 dbbd
00000090: 1cb7 ad38 416e b23b 26d1 21bd ce49 333d
000000a0: c60e d9bc e206 e5b9 4491 d6bd 2781 9b3d
000000b0: e114 c23d 2cfd dd3c a248 0c3d e292 febc
000000c0: 53ef b93b 1400 553d af5c 16bc 6111 c2bd
000000d0: 8ab5 903d b622 a53d 3dce 5bbd c2f2 bcbd
000000e0: 82d0 ebbc e066 4a3c 8f1f 083d 052a 863d
000000f0: c9f0 ff3c 720f e13d 9b96 983c def3 1bbd
00000100: 2bae 643d 78e5 d3bd 793f 9339 f586 aabb
00000110: 99ed 8c3c 2165 00bd c9a6 39bb 101d dd39
00000120: eb9e 0fb5 ac6f 9d3d 7993 a63c 256a b83c
00000130: 9252 41b8 25d3 a93d fb86 b23b 9aa5 cebd
00000140: ae86 833a dead 76bd f771 c33d b1ca 583d
00000150: 5f07 a5bd 9933 533d d0d5 f8bc 9cb8 923c
00000160: a4a7 e139 8b63 c4bc a5a6 bfbd 821a 083e
00000170: 27e4 e53c dc30 533d 24af 9884 ec21 2dbd
00000180: beaf 013d 526c a83d 5046 e83d 3c44 17bd
00000190: f9bc c4bd 0146 f5bd ab46 55bd 0004 113d
000001a0: 692c af3c 1b34 99bd 8ee2 9a38 7bf6 7e3c
000001b0: cddd 9f3d 6488 a8bd 986a af3d f6e0 f43c
000001c0: 273a ce34 7480 873d 5dd1 4a3d b83f fd3c
000001d0: ece7 6a3d 45f4 a0bd 763c 383d cc38 493b
000001e0: e506 a9bc dddf 36bc 2ecf 923d 09e5 dabc
000001f0: f5bc 9e3c 73b6 8a3d 95d1 11bb 6126 afbc
00000200: 5f15 333d 73ac 3ebd 9c3c 8bbd 0b34 b33c
00000210: db72 a43b f246 8f3c 8e8f 3bbd 299f 2cbd
00000220: 5b21 43ba e8fa 323d c2b5 673a 5699 19bd
00000230: b3c8 ab37 be06 14bd 6f32 8e3d ec5a a0bc
00000240: c227 cd3d 88ee b8bb 60fb 263d 869b ac3d
00000250: dc44 983d 09b0 c63d 060c 983d c96d 7c3d
00000260: 6afc ae3c 6d51 00bd ef5b ab3d dbfc b4bd
00000270: 1275 8d3d 670c 073d 5bc9 0100 f352 acbc
00000280: 21df 51bd 91de 27bc bf17 6fbd 2a00 333c
00000290: 1cbb 883d d216 633d 8b9d d7bd 0c7c d9bc
000002a0: 7753 b43c 612f 5d3d 6752 913d 2193 47bd
000002b0: 8746 883d 32b8 a03d 8a49 3fbd 2541 acbc
000002c0: aea1 8237 037e 08bd 1e51 b83d 7b0f e93c
000002d0: 361c b9bc 22b0 f0bd 8456 0dbd 16a1 893d
000002e0: 369c a23d b3bf bfbd b98b a5bb 5f0b 6f3d
000002f0: 7821 20bd 40e5 b4bd d072 903d 3703 6ebd
00000300: 770a 8e3d 1aca 6dbc 6ad2 873d f840 293c
00000310: e17b 6c3d 564c 083e 4a16 183a 0cba 81bc
00000320: 4f93 b7bd e46c 913d 0b9e 383d eb1a 883d
00000330: 53f5 1abb f6ac 5bbb 5390 2e3d b4f6 cbbd
00000340: 65df c23d 7e9b 82bd 4803 d1bd f786 a9bc
00000350: 244f babd 9600 b5bd 0d80 86bd 846c 9e3d
00000360: 89c2 a0bd 8366 953d e30d 683d 7aeb c03d
00000370: 43be d43c 8873 47bc e598 4395 2e3a 603d
00000380: c568 3b3d 1a4c fb3d 6910 253d abb9 e33d
00000390: 7077 cc3c aeda 023d 080e 93bd e6c3 c6bc
000003a0: 4321 e0ba 6dcb b23d 4e06 b93d a78a 323c
000003b0: b754 f2bb 0eaa 013e e777 9f3d d256 adbc
000003c0: fd06 6eb2 0edb eebd 68bb 123d 49b5 e73d
000003d0: 14bb 0fbc 2517 9ebd c95b ac3d ad35 903d
000003e0: 3fba bd3d a68e cc3d 6edc 1b3d 527d 653d
000003f0: ae8b dcbd 6571 953d 4c07 a7bd 6668 cd3d
-0.0135368 -0.104875185 -0.04869674 -0.020259604 0.047702376 0.061703533 -0.08038567 -0.061808627
0.0913261 -0.037498556 -0.09964822 0.009516441 -0.124741144 -0.048953086 0.123587966 -0.08611008
0.1401514 -0.039704498 0.004653105 0.11615926 0.10449832 0.11801698 -0.09352021 -0.047351684
-0.09762708 0.07833615 0.061286762 0.053914834 0.09718505 -0.007605528 0.0064790375 -0.12110908
0.009772626 -0.05310586 -0.12391889 -0.107334375 8.2833896e-05 0.005445272 -0.0395061 0.043771558
-0.026496302 -0.00043683412 -0.10476926 0.07592993 0.094766386 0.02709826 0.034248956 -0.031075899
0.0056742816 0.052002028 -0.009177371 -0.09475971 0.07065876 0.08063261 -0.05366348 -0.0922599
-0.028785948 0.012353629 0.03323322 0.06550983 0.031242745 0.10989274 0.018626502 -0.038074367
0.055830162 -0.10346502 0.00028085316 -0.0052040764 0.01720314 -0.031346444 -0.0028328171 0.00042174058
-5.350291e-07 0.07687315 0.020333992 0.022511551 -4.6091685e-05 0.08292226 0.00544822 -0.1009018
0.0010034645 -0.060224406 0.095432214 0.052927677 -0.080580465 0.05156288 -0.030375391 0.017910294
0.00043040246 -0.023973247 -0.09357957 0.13291362 0.028062893 0.051560268 -3.589587e-36 -0.04226868
0.03166174 0.082237855 0.11341536 -0.036930308 -0.09606356 -0.11976243 -0.052069347 0.035404205
0.021383481 -0.074806415 7.385491e-05 0.015561695 0.07805977 -0.082291394 0.08565253 0.029892426
3.8412801e-07 0.06616297 0.04951607 0.030914173 0.057350084 -0.07859091 0.044979535 0.003070402
-0.02063317 -0.011161772 0.07168423 -0.02672054 0.019377211 0.06773081 -0.0022250165 -0.021380605
0.043721553 -0.04655118 -0.0679867 0.021875402 0.0050185747 0.017489884 -0.0457912 -0.042143974
-0.000744363 0.043696314 0.00088390347 -0.03749975 2.0478246e-05 -0.036139242 0.06943213 -0.019574605
0.10017349 -0.0056436695 0.040767074 0.08428101 0.07435009 0.09701545 0.07424168 0.061628137
0.021360595 -0.031327654 0.08367144 -0.08837291 0.06907095 0.032970812 1.64068e-40 -0.021035647
-0.051238183 -0.010245935 -0.058372255 0.010925332 0.06676313 0.055441685 -0.10528096 -0.026548408
0.022012455 0.054000262 0.07095795 -0.048724297 0.06654077 0.078476325 -0.04670099 -0.021027157
1.5572496e-05 -0.0333233 0.08999847 0.028449764 -0.02259646 -0.11752345 -0.034506336 0.06720178
0.07939951 -0.093627356 -0.0050520566 0.058360454 -0.03909442 -0.088327885 0.07053149 -0.058108535
0.0693559 -0.014513517 0.0663193 0.010330431 0.057735328 0.1331037 0.0005801661 -0.015835784
-0.08963644 0.07100847 0.045072597 0.06645759 -0.002364476 -0.003351984 0.042618107 -0.09959164
0.095152654 -0.06377314 -0.10205704 -0.020694239 -0.09097126 -0.088380024 -0.065673925 0.077355415
-0.07849605 0.07294943 0.05665387 0.094199136 0.02596963 -0.012173541 -3.950055e-26 0.054742984
0.045754213 0.122703746 0.040298853 0.11119398 0.024959296 0.03194683 -0.071804106 -0.024263334
-0.0017099757 0.08730207 0.09034406 0.010897315 -0.0073953527 0.12662527 0.077865414 -0.021159563
-1.3855012e-08 -0.11662875 0.035823256 0.11313874 -0.00877263 -0.07719258 0.08415944 0.07041488
0.09264039 0.099881455 0.038052015 0.056027718 -0.10768829 0.07297019 -0.08155689 0.10029678

bias f4 [19]
00000000: ca53 b93e 20e4 f2bc 781a 5b3d ee54 1f3d
00000010: 1721 7f3e be56 613d 0637 bfbd daaa cebd
00000020: 9808 bf3e a908 9d3e fd96 cd3c 3cff 3bbb
00000030: d983 59bc af08 9e3e 2864 8cbb 68b8 033b
00000040: 2c3d 3e3b 17a7 a33e 2967 853e
0.36196738 -0.029649794 0.05349204 0.038899355 0.24914967 0.055014364 -0.09336667 -0.10091181
0.37311244 0.3067067 0.02509641 -0.0028686067 -0.013276064 0.30866 -0.0042844005 0.0020098928
0.002902816 0.31963417 0.26055267
