models/TEV/C/model0.pt (torch, 422913 bytes, 12 tensors)

weight f4 [128, 384]
0	0x3dad5572	0.08463563
1	0xbdddf2da	-0.10837336
2	0x3c8fd865	0.01755924
3	0x3d421e99	0.04739246
4	0x3c214c51	0.009844855
5	0x3d2d5f36	0.04232713
6	0xbdbf74e3	-0.09348466
7	0xbd568532	-0.05237312
8	0xbd91957a	-0.071085885
9	0x3dfd3bff	0.12364959
10	0x3e509037	0.20367514
11	0x3d1a9992	0.037744112
12	0x3d86be63	0.06579282
13	0x3d8975b2	0.06711902
14	0x3e5f0ada	0.21781483
15	0x3cdc97ac	0.026927792
16	0x3b4e0d95	0.00314412
17	0xbe6cb382	-0.23115352
18	0xbb20e6d9	-0.0024551658
19	0xbe323a76	-0.17405114
20	0x3d98cfa4	0.07461479
21	0x3e4193c2	0.18904021
22	0x3e2863e2	0.16444352
23	0xbd0c8a03	-0.034311306
24	0x3e7cd830	0.24691844
25	0xbeabb6f3	-0.33538017
26	0x3e28ca51	0.16483428
27	0x3d012755	0.03153165
28	0x3d49c8eb	0.049263876
29	0xbd33a0e0	-0.043854594
30	0xbce82f68	-0.028342918
31	0xbc647330	-0.013943478
32	0x3b798349	0.0038072637
33	0xbdb432a2	-0.0879872
34	0xbe397132	-0.18109587
35	0x3e1bf144	0.15228754
36	0x3de110c8	0.10989529
37	0x3e5769b8	0.21036422
38	0x3c99605f	0.018722711
39	0x3dd376b1	0.10325373
40	0x3e00c58a	0.12575355
41	0x3e157cce	0.1459839
42	0xbd175692	-0.036947794
43	0x3e88761e	0.26652616
44	0x3e1eb88b	0.15500085
45	0xbdb580c4	-0.08862451
46	0xbd10adc0	-0.03532195
47	0x3be5c203	0.0070116534
48	0xbcc554f4	-0.02408836
49	0xbf084f8d	-0.53246385
50	0xbe935142	-0.28772932
51	0x3d593119	0.05302534
52	0x3e9db106	0.3079912
53	0x3e8fb462	0.2806731
54	0x3dc800cf	0.09765779
55	0x3d6b5c5d	0.05746113
56	0x3e2d473e	0.16921708
57	0xbd71d45c	-0.059040412
58	0x3db31207	0.08743673
59	0x3dcc9931	0.099901564
60	0xbdc78e35	-0.09743921
61	0x3d3c3cdc	0.045956478
62	0x3d133bc4	0.03594567
63	0x3bca3270	0.0061705634
64	0x3d006e4e	0.031355195
65	0xbc6a3e85	-0.014297132
66	0xbe032ba8	-0.12809622
67	0x3e25fecc	0.16210479
68	0xbd73275f	-0.05936372
69	0xbc22edd4	-0.009944398
70	0x3e3c1b5f	0.18369816
71	0x3d96ca7b	0.07362839
72	0xbe2f6082	-0.17126659
73	0xbb4437e9	-0.0029940552
74	0xbe1744d4	-0.1477235
75	0x3de228f7	0.1104297
76	0x3d9ea20d	0.077457525
77	0xbd96dd0d	-0.07366381
78	0x3ccb6246	0.024827134
79	0xbe840644	-0.2578603
80	0xbea6dde1	-0.32591155
81	0x3e6485e2	0.22316697
82	0x3df5507a	0.1197824
83	0x3d10fa3d	0.035394896
84	0xbc640973	-0.0139182685
85	0x3d0dbe51	0.034605328
86	0xbda063f8	-0.078315675
87	0xbed6374c	-0.41839063
88	0xbc4e1e4d	-0.012580466
89	0x3e6c280c	0.23062152
90	0x3ed6239b	0.4182404
91	0xb8a00312	-7.6299664e-05
92	0xbeca7b99	-0.39547423
93	0xbe200d8c	-0.15630168
94	0x3cb0a0c5	0.021561036
95	0xbd109b9d	-0.035304654
96	0xbd25b44b	-0.040455144
97	0xbcb110ef	-0.02161452
98	0x3dea24ea	0.11432822
99	0xbd998344	-0.0749574
100	0xbdaa941b	-0.0832903
101	0xbe894139	-0.26807573
102	0xbe3081a6	-0.17236957
103	0x3e6449e2	0.22293809
104	0xbdc15db1	-0.09441698
105	0xbde5e4bb	-0.112252675
106	0xbe92758a	-0.286053
107	0xbd3f3e16	-0.04669007
108	0xbbe1fa3b	-0.006896285
109	0x3d355dae	0.044278793
110	0x3d8facd0	0.07015383
111	0x3d8ff1c8	0.07028538
112	0x3e0d8adf	0.13822506
113	0x3daca008	0.08428961
114	0x3e94dd64	0.29075158
115	0xbd0653be	-0.032794707
116	0xbb9a6cea	-0.0047126906
117	0xbe03e057	-0.12878548
118	0xbf018a1a	-0.5060135
119	0xbe1fd9d2	-0.15610436
120	0x3e99e082	0.30054098
121	0x3e2461d1	0.16052939
122	0x3e793888	0.24337971
123	0xbea4685d	-0.32110873
124	0xbd481b31	-0.048854057
125	0x3b908332	0.004410171
126	0xbc8d89c8	-0.017277613
127	0x3daf75f2	0.08567418
128	0xbad3e871	-0.0016167295
129	0xbb637778	-0.003470866
130	0xbda3803a	-0.07983442
131	0x3d454800	0.048164368
132	0xbe26e2dc	-0.16297477
133	0x3d996530	0.07490003
134	0xbcef2af2	-0.029195283
135	0xbd8d42fe	-0.06897543
136	0x3e955867	0.29169008
137	0xbe0d06e9	-0.13772167
138	0x3e0ca20f	0.13733695
139	0xbd239b72	-0.039943166
140	0xbdde79f2	-0.10863103
141	0xbcef5211	-0.029213937
142	0x3e4e5f3b	0.20153515
143	0xbe03d68e	-0.12874815
144	0xbf1589a0	-0.58413124
145	0xbef1f57a	-0.47257596
146	0x3e8cc0fd	0.27490988
147	0x3e7c4e17	0.24639164
148	0x3dc6887f	0.09694003
149	0xbdb677e5	-0.08909587
150	0xbdec2362	-0.11530186
151	0xbe272f35	-0.16326602
152	0xbdbc6dcf	-0.09200632
153	0xbe90a133	-0.28247985
154	0x3d8e966f	0.06962287
155	0x3ee98f72	0.45617253
156	0x3d82c0bc	0.063844174
157	0xbdecc725	-0.11561421
158	0x3d0a2cbd	0.033734072
159	0x3d741631	0.059591476
160	0x3bbc1bfa	0.0057406398
161	0x3b46f5c1	0.0030358883
162	0xbbfab532	-0.0076509947
163	0xbdc6c180	-0.09704876
164	0xbde201b6	-0.110354826
165	0xbe4d7393	-0.2006362
166	0xbb911a78	-0.004428204
167	0xbcb8648b	-0.02250888
168	0x3e5225cf	0.20522235
169	0x3dadc795	0.08485333
170	0xbe0588c4	-0.13040453
171	0xbe022850	-0.1271069
172	0x3e187e59	0.14891948
173	0x3d040431	0.03223056
174	0x3cfeacb2	0.031088207
175	0xbe174996	-0.14774165
176	0x3e1806f0	0.14846396
177	0x3e2e863e	0.17043397
178	0xbda6b8e3	-0.08140733
179	0xbdf89a6f	-0.12138831
180	0xbe747fca	-0.23876873
181	0x3de53792	0.1119224
182	0x3e6b3a56	0.22971472
183	0xbe82a6f6	-0.25518006
184	0xbec3ac0b	-0.38217196
185	0xbe9bb616	-0.30412358
186	0x3ec7ca4d	0.3902153
187	0x3e035d11	0.12828471
188	0x3e31fe5f	0.17382191
189	0x3dfe5f9b	0.12420579
190	0xbd085049	-0.03327969
191	0xbd3cf06b	-0.046127718
192	0x3b557ba4	0.0032574916
193	0x3c6fb936	0.01463156
194	0x3cd2271f	0.02565342
195	0x394e800b	0.0001969339
196	0xbd13f4d9	-0.036122177
197	0x3bd80051	0.0065918346
198	0x3e2447d9	0.16043033
199	0xbea3631f	-0.3191156
200	0x3e1a95e7	0.15096246
201	0x3e388cb5	0.18022425
202	0xbdec4314	-0.11536232
203	0xbf09066e	-0.53525436
204	0xbd257944	-0.04039885
205	0xbd97b0c5	-0.07406763
206	0x3dade52e	0.08490978
207	0x3dd92ce7	0.106042676
208	0x3e2297b9	0.1587819
209	0x3df80a95	0.12111393
210	0x3e25e4f4	0.1620062
211	0xbe6cab4b	-0.23112218
212	0x3e05cd65	0.13066633
213	0x3e760310	0.24024606
214	0xbe1927df	-0.14956616
215	0x3e91bd14	0.28464568
216	0x3d7dd5e7	0.06197157
217	0x3e0b2a3a	0.13590327
218	0x3e2e613f	0.17029284
219	0x3c3932e2	0.011303635
220	0x3cc9d26c	0.02463647
221	0x3b8c4efe	0.0042818775
222	0xbd827553	-0.06370034
223	0xbd397859	-0.045280788
224	0xbb4b4883	-0.0031018562
225	0xbc8aca36	-0.016942125
226	0xbcb8bbdc	-0.022550516
227	0xbced6094	-0.028976716
228	0xbe2887ea	-0.16458097
229	0xbd94c163	-0.07263448
230	0xbcb16a98	-0.021657273
231	0x39ddc41e	0.00042298523
232	0xbcb389c7	-0.021916283
233	0x3e5914c6	0.2119933
234	0xbe260159	-0.16211452
235	0xbe4b6d87	-0.19866
236	0xbd936ad3	-0.071981095
237	0xbd466e10	-0.048444808
238	0x3ceab015	0.028648416
239	0xbdaa59fe	-0.08317946
240	0xbe70fdd4	-0.23534328
241	0xbc404fa8	-0.0117377415
242	0x3e7edff3	0.24890117
243	0xbe3a80a7	-0.1821314
244	0xbd0bfc0c	-0.034175918
245	0x3e1d516e	0.15363094
246	0x3e32f59d	0.17476507
247	0x3d934de5	0.071925916
248	0x3d122591	0.035680357
249	0x3d96f9bc	0.07371852
250	0xbe8d0395	-0.27541795
251	0xbddb1f96	-0.10699384
252	0x3b62ea81	0.0034624639
253	0x3d5c89fd	0.053842533
254	0x3deaff97	0.11474531
255	0x3c81dfeb	0.015853843

bias f4 [128]
0	0xbcd1c592	-0.025606904
1	0x3cae2088	0.021255746
2	0xbd5d8920	-0.05408585
3	0x3d09f15b	0.03367744
4	0xbe04befa	-0.12963477
5	0xbdde8820	-0.108658075
6	0xbdf8059a	-0.121104434
7	0xbd9576a2	-0.07298018
8	0xbd1f9eab	-0.038969677
9	0xbe18f083	-0.14935498
10	0xbbef0f47	-0.0072955224
11	0xbdeea271	-0.11652077
12	0xbbbc7cdf	-0.0057521905
13	0xbd836503	-0.06415751
14	0xbdafd726	-0.08585958
15	0x3c5a10d7	0.013309679
16	0x3bed3887	0.0072394046
17	0xbd4e50a6	-0.05036988
18	0xbddb2134	-0.10699692
19	0xbd4cf3f6	-0.050037347
20	0xbe0ee16d	-0.1395318
21	0x3daf90d1	0.085725434
22	0xbdfa1fa8	-0.12213069
23	0xbd9cb25e	-0.07651208
24	0x3d995d76	0.074885294
25	0xbca075c1	-0.0195874
26	0xbd82b04c	-0.06381282
27	0xaa23575e	-1.450762e-13
28	0xbdac124a	-0.08401926
29	0xbcabb464	-0.02096004
30	0x3dcd61b2	0.100283995
31	0x3d10f1d7	0.035386886
32	0xbdf13f4f	-0.11779653
33	0xbdbfcf7f	-0.093657486
34	0x3d3ccff0	0.046096742
35	0xbe2a17f4	-0.166107
36	0x3d70193f	0.058617827
37	0xbdd1b1cf	-0.102389924
38	0xbdc983a8	-0.098395646
39	0x3ce8bd08	0.02841045
40	0x3c99deec	0.018783055
41	0xbdd87b1c	-0.10570356
42	0xbda16e43	-0.07882359
43	0x3dc594dc	0.09647533
44	0xbd8ff5c3	-0.07029297
45	0xbe2070ea	-0.15668073
46	0xbc02251f	-0.007943421
47	0xbdd9af01	-0.106290825
48	0xbddf78ba	-0.10911699
49	0xbdcc066d	-0.09962163
50	0xbe3d7a2f	-0.1850364
51	0xbc811fff	-0.015762327
52	0x3b7a77d4	0.0038218396
53	0xbc1eb337	-0.009686283
54	0xbe067d13	-0.1313365
55	0xbe2e7db3	-0.17040138
56	0x9595d31f	-6.051371e-26
57	0xbe13009a	-0.14355698
58	0xbc664550	-0.014054611
59	0xbd38cf13	-0.045119356
60	0x3cddad57	0.027060194
61	0xbc987139	-0.018608676
62	0xbe1966fa	-0.14980689
63	0xbc5a4f8d	-0.01332463
64	0x3c9423d5	0.018083492
65	0x3cd5a703	0.026080614
66	0x3c1dbe26	0.009627854
67	0xbe66141a	-0.22468606
68	0x3d5ab9f4	0.053399995
69	0xbd9b4729	-0.07581932
70	0xbdf7c02d	-0.120972015
71	0xaeae2e95	-7.9208785e-11
72	0xbe082d98	-0.13298643
73	0xbc2d6ee8	-0.010585524
74	0x3d88bc0b	0.06676491
75	0xbd9febc5	-0.07808641
76	0xbdf910c1	-0.12161399
77	0x3d2c72b1	0.042101566
78	0xbb3e8fde	-0.002907745
79	0xbe0f0efc	-0.1397056
80	0xbc0d12f6	-0.008610478
81	0x3cfa6549	0.030565875
82	0x3d84c6c3	0.06483223
83	0x3cfd9a06	0.030957233
84	0xbe59d13f	-0.21271227
85	0xbc84bee7	-0.01620431
86	0x3caa9291	0.020821841
87	0xbd36c567	-0.04462185
88	0xbe2e46a5	-0.17019136
89	0xbe1ebc1c	-0.15501446
90	0xbd301384	-0.04298736
91	0xbe0a273d	-0.1349153
92	0x3c42869c	0.011872914
93	0x3c899ec6	0.016799342
94	0xbe3f06a8	-0.18654883
95	0xbda11385	-0.07865051
96	0xbda2c9d7	-0.07948654
97	0xbdef097a	-0.116717294
98	0xbe1167a1	-0.14199688
99	0xbddcf8d8	-0.10789651
100	0x3d32f877	0.043693986
101	0xba9e45a9	-0.0012075204
102	0xbd7eb096	-0.062180124
103	0xbd702932	-0.058633037
104	0x3d512fc2	0.051070936
105	0xbdc7b1c6	-0.097507045
106	0xb68d484a	-4.210543e-06
107	0x3d47de61	0.04879606
108	0x3c3e89d5	0.011629541
109	0xbdcce9b8	-0.10005516
110	0xbd778a5a	-0.060434677
111	0xbc21439c	-0.0098427795
112	0xbe0b5834	-0.13607866
113	0xb5d860dc	-1.6121444e-06
114	0x3d0e5420	0.034748197
115	0xbdb1949c	-0.08670923
116	0xbcc82667	-0.024432374
117	0xbe15e115	-0.14636643
118	0xbdce4070	-0.10070884
119	0x3cefbf23	0.029265946
120	0xbdd87923	-0.1056998
121	0xbd7e53ab	-0.06209151
122	0xbdc00883	-0.093766235
123	0xbd7024fe	-0.05862903
124	0xbd90e21c	-0.07074377
125	0xbdbab791	-0.09117044
126	0x3d20c4ab	0.039250057
127	0x3da70a2a	0.081562355

weight f4 [128, 128]
0	0x3d849c69	0.06475145
1	0x3de5e41a	0.112251475
2	0x3c9ed5e2	0.019389097
3	0x3b88df9d	0.0041770474
4	0x3cf42217	0.029801412
5	0xbe175ddb	-0.14781897
6	0xbccf2af2	-0.025289033
7	0xbdf8185b	-0.121140204
8	0x3d6498d9	0.05580983
9	0x3c41a690	0.011819497
10	0x3e21b87d	0.15793033
11	0xbd25d98e	-0.04049068
12	0x3de6d19d	0.11270449
13	0xbd0517d6	-0.032493435
14	0xbd4b560a	-0.0496426
15	0xbdb30600	-0.08741379
16	0x3c4fbaa0	0.012678772
17	0x3d05d2a0	0.03267157
18	0x3bb32f3d	0.0054682777
19	0xbdae5ee9	-0.085141964
20	0x3c4bbb2c	0.012434762
21	0x3d2d0168	0.04223767
22	0x3b90a3d9	0.0044140634
23	0xbd263711	-0.04057986
24	0xbc1d4df5	-0.009601106
25	0x3c744d53	0.014911014
26	0xbc88ffd7	-0.016723556
27	0x8001c1b0	-1.61317e-40
28	0x3caeec06	0.02135278
29	0xbd6ca571	-0.057774965
30	0xbddb29a6	-0.10701303
31	0x3ddc35cd	0.10752449
32	0x3ccc67e9	0.024951892
33	0x3df4c830	0.11952245
34	0x3d4f7dd3	0.050657105
35	0xbd8d36c7	-0.068952136
36	0xbce29ea1	-0.02766353
37	0x3ca07ba4	0.019590206
38	0x3d673fc2	0.05645729
39	0x3dc1d362	0.09464146
40	0xbd19d54d	-0.037556935
41	0xbd6be9c7	-0.057595994
42	0xbdd29adf	-0.102834456
43	0x3dcc21f3	0.09967413
44	0x3d63c641	0.05560899
45	0xbda5189d	-0.08061335
46	0xbc3f161a	-0.011662984
47	0x3d3a0f98	0.045425028
48	0x3e00db74	0.12583715
49	0xbdbf7bbf	-0.093497746
50	0x3e4461ba	0.19177905
51	0xbd3260a8	-0.04354921
52	0xbc053488	-0.0081302
53	0x3e34b25f	0.17646168
54	0xbcade1c0	-0.02122581
55	0x3cad50e4	0.021156736
56	0x8001af7f	-1.54792e-40
57	0x3d6da827	0.05802169
58	0x3cac55ee	0.021037068
59	0xbd38729c	-0.045031175
60	0x3ce77a67	0.028256608
61	0x3d64d6f6	0.055869065
62	0x3d06f15d	0.032945026
63	0xbc8847e7	-0.016635848
64	0x3d6a8e28	0.057264477
65	0xbd3436db	-0.043997627
66	0x3ca20388	0.019777074
67	0x3c7c40e3	0.01539633
68	0x3e2b0302	0.16700366
69	0xbdd4f996	-0.10399167
70	0xbd67c6bd	-0.056586016
71	0x0002a146	2.41525e-40
72	0xbe715bd2	-0.23570183
73	0xbbbb85c3	-0.0057227327
74	0x3c2fd3f2	0.010731684
75	0x3ced6299	0.02897768
76	0xbdbadead	-0.09124503
77	0x3d3c1eb7	0.04592773
78	0xba84f50f	-0.0010143834
79	0xbc8fd910	-0.017559558
80	0xbcc04273	-0.023469185
81	0x3d89eb66	0.06734352
82	0x3d89a6cc	0.06721267
83	0x3cbd04b3	0.02307353
84	0xbc8bc720	-0.017062724
85	0xbccde662	-0.02513427
86	0xbdf0b994	-0.11754146
87	0x3bb3bb3e	0.0054849675
88	0x3dd2a9cc	0.102862924
89	0xbd982797	-0.07429426
90	0xbcfcd56e	-0.03086349
91	0xbe7c3469	-0.24629368
92	0x3c5c7694	0.013456006
93	0x3d83a012	0.06427015
94	0x3c228c7b	0.0099211885
95	0xbcb52cfc	-0.022116177
96	0x3cee3b53	0.029081022
97	0x3dc71317	0.09720438
98	0xbd9791de	-0.07400869
99	0x3dc4a116	0.09601037
100	0x3e48611c	0.19568294
101	0xb358e224	-5.0497093e-08
102	0xbd11cad0	-0.035593808
103	0x3deea30e	0.11652194
104	0xbced089b	-0.028934767
105	0x3d098979	0.03357837
106	0x22aa8c20	4.6226955e-18
107	0xbd899e77	-0.06719678
108	0x3e5138a3	0.20431761
109	0x3e086b57	0.13322197
110	0xbc8ad4f2	-0.016947243
111	0xbda193ef	-0.07889544
112	0x3daea87e	0.08528231
113	0x8f2baec3	-8.464609e-30
114	0x3cf0faeb	0.029416522
115	0x3dae7905	0.085191764
116	0x3d3855ef	0.045003828
117	0xbe466e15	-0.1937793
118	0xbd9a8dda	-0.07546587
119	0x3dc1f527	0.09470587
120	0xbc5bb976	-0.013410917
121	0xbd2e9028	-0.042617947
122	0x3e196d85	0.14983185
123	0xbb17fe54	-0.0023192363
124	0xbb18e4c6	-0.002332972
125	0xbdd755c5	-0.10514406
126	0x3d5b47d5	0.0535353
127	0x3dcef6a8	0.1010564
128	0xbe7fad8c	-0.24968547
129	0x3dac0c82	0.08400823
130	0xbdc7ba39	-0.09752316
131	0xbe503a71	-0.20334794
132	0x3e1b352a	0.15156999
133	0xbba181f9	-0.004928824
134	0xbe257c74	-0.16160756
135	0x3aaae2f1	0.0013037605
136	0xbc93754b	-0.018000266
137	0x3d08c2f8	0.03338906
138	0x3d69f98a	0.057122745
139	0xbc390bd8	-0.011294328
140	0xbdbfa1a8	-0.09357005
141	0xbe072d32	-0.13200834
142	0x3d108105	0.035279293
143	0xbd4abe1f	-0.04949772
144	0x3cf46bb8	0.02983652
145	0xbdaadb3d	-0.08342598
146	0xbc732c47	-0.0148420995
147	0xbe0f3d90	-0.13988328
148	0x3e2d9f48	0.16955292
149	0xbdec53c6	-0.11539416
150	0xbdc0bde7	-0.09411221
151	0xbd608d65	-0.054822344
152	0x3c971e23	0.018446987
153	0xbd57f87d	-0.05272721
154	0xbd9a9737	-0.07548373
155	0x8001ecb3	-1.76747e-40
156	0xbd722f66	-0.059127234
157	0xbdaa5c64	-0.08318403
158	0x3dd5574c	0.10417041
159	0xbd8d73d4	-0.06906858
160	0x3e35bc24	0.17747551
161	0xbcbeaafc	-0.023274891
162	0xbd7433ac	-0.05961959
163	0x3d9bdab2	0.07610072
164	0xbda8ddb2	-0.0824541
165	0xbde425d3	-0.11140027
166	0xbd8efd3a	-0.06981893
167	0xbd08cfec	-0.033401415
168	0x3e1d5491	0.15364291
169	0x3dcba0a0	0.09942746
170	0x3d35876b	0.044318598
171	0xbe2e1bcb	-0.1700279
172	0xbc6932eb	-0.014233331
173	0x3e0cf304	0.13764578
174	0xbc53ed59	-0.012935006
175	0x3df569ec	0.119830936
176	0xbb08e343	-0.0020887412
177	0x3ce64970	0.02811119
178	0x3cd4f658	0.025996372
179	0xbe09604c	-0.1341564
180	0xbd60bfda	-0.054870464
181	0x3dc01266	0.09378509
182	0xbd9d2358	-0.07672757
183	0x3e9fee2a	0.31236392
184	0x80032e87	-2.92197e-40
185	0xbe12d579	-0.14339246
186	0x3d5d6807	0.054054286
187	0xbe31ef20	-0.17376375
188	0xbda103e4	-0.0786207
189	0x3e6b2f63	0.22967295
190	0x3d949926	0.07255773
191	0xbe11b10b	-0.14227693
192	0xbdf0c5ed	-0.11756501
193	0xbbd9477b	-0.0066308356
194	0xbe065988	-0.13120091
195	0x3ddf3a61	0.10899807
196	0x3d3d84b3	0.04626913
197	0xbdd7f56a	-0.10544856
198	0x3d091fe4	0.03347768
199	0x80017ed2	-1.3733e-40
200	0xbddbc4ac	-0.107308716
201	0x3b7b1d1e	0.0038316916
202	0x3d8e2da0	0.06942296
203	0x3df0eb1f	0.11763596
204	0xbc87756d	-0.016535485
205	0x3cd17881	0.025570156
206	0x3e027904	0.12741476
207	0xbdaca2af	-0.08429467
208	0x3bea7954	0.0071555767
209	0xbe183175	-0.14862616
210	0xbcc42fd1	-0.023948582
211	0xbe3a4097	-0.18188702
212	0x3e22598a	0.15854469
213	0x3e62954f	0.22127269
214	0x3cb33bcb	0.021879097
215	0x3d58214c	0.05276613
216	0x3e1301ed	0.14356203
217	0x3d727cde	0.059201114
218	0xbe220a2b	-0.15824191
219	0x3c87ce01	0.016577723
220	0x3b7bdfd6	0.0038432977
221	0x3d2f5f4b	0.042815488
222	0x3da7defd	0.081968285
223	0xbd0646b2	-0.032782264
224	0x3b8e9476	0.004351194
225	0x3c889e08	0.016676918
226	0xbcc1734e	-0.023614552
227	0xbc84f906	-0.016232025
228	0x3dc92326	0.09821157
229	0x376d44fa	1.4142361e-05
230	0xbe0705eb	-0.13185851
231	0xbca362cc	-0.019944571
232	0x3c0dfb36	0.00866585
233	0xbd30d106	-0.04316809
234	0xad2ce877	-9.828686e-12
235	0x3da5d87c	0.08097932
236	0xbccc09ba	-0.024906982
237	0x3da484da	0.08033152
238	0x3d6a2c85	0.057171363
239	0xbcade50b	-0.02122738
240	0x3da19dae	0.07891403
241	0x0000059d	2.014e-42
242	0x3cb0389d	0.02151137
243	0x3ddd059c	0.107920855
244	0xbd8ab0da	-0.06772013
245	0xbe35a86a	-0.17740026
246	0x3e4368cd	0.19082947
247	0xbc058efc	-0.008151766
248	0x3dc81c77	0.09771054
249	0x3d251746	0.0403054
250	0x3dab3204	0.08359149
251	0xbcd65e68	-0.026168063
252	0xbdffe366	-0.12494545
253	0xbdfc1de0	-0.12310386
254	0x3b833dca	0.0040051686
255	0x3de0e335	0.10980836

bias f4 [128]
0	0xbce0400a	-0.027374286
1	0xbc869fc0	-0.016433597
2	0x3cacceee	0.021094766
3	0x3c8c98c6	0.017162692
4	0xbd76c92b	-0.060250442
5	0x3ca38bec	0.01996418
6	0x3bbf5ad3	0.0058396845
7	0xbd13cebb	-0.036085825
8	0x3be91aa5	0.007113772
9	0xbbb7ffe5	-0.005615222
10	0x3c38d12c	0.011280339
11	0x3d10e3a7	0.035373356
12	0x3d71919a	0.058976747
13	0x3c8b37d9	0.016994404
14	0x3c0aee5b	0.00847968
15	0xbd789ed3	-0.06069834
16	0xbcc6b186	-0.024254572
17	0x3d37e83f	0.04489922
18	0xbc79bd4b	-0.015242885
19	0xbcb8581a	-0.022502948
20	0x3b417a3e	0.0029522325
21	0xbd073bc3	-0.033015978
22	0x3c6eb5ad	0.014569682
23	0x3c1baace	0.009501172
24	0xbd18c373	-0.03729577
25	0x3da08dc9	0.07839543
26	0xbbbbc758	-0.0057305507
27	0x3cdcb334	0.02694092
28	0x3c6b79da	0.014372313
29	0xbc57dc8b	-0.01317514
30	0x3d3294aa	0.04359881
31	0xbb71de05	-0.0036906016
32	0xbb7900ec	-0.0037994934
33	0xbce84f52	-0.028358135
34	0x3c8e8766	0.017398547
35	0x3b405dc2	0.002935276
36	0xbd780c0a	-0.060558356
37	0xbbdf59cb	-0.006816124
38	0xbc0e272d	-0.008676332
39	0xbc1539f8	-0.009108059
40	0x3c93149a	0.01795416
41	0xbca1f614	-0.01977066
42	0xbc8b9a8d	-0.017041469
43	0xbccb730a	-0.024835128
44	0xbda2449d	-0.07923243
45	0x3c911f76	0.017715197
46	0xbc498d81	-0.012301804
47	0x3d6511a0	0.05592501
48	0xbc9146a0	-0.017733872
49	0xbc586c24	-0.0132093765
50	0xbd1cb7d2	-0.038261242
51	0x3c937826	0.018001627
52	0xbcb657c8	-0.022258654
53	0x3c315c8c	0.010825288
54	0xbbc76391	-0.0060848673
55	0xbcb9ebda	-0.02269547
56	0xbbfed486	-0.0077767996
57	0xbd14069e	-0.036139123
58	0xbb90e9cf	-0.0044224034
59	0xbc5869c9	-0.013208815
60	0xbcbef923	-0.023312157
61	0x3ccf1e2e	0.025282945
62	0x3b8950ac	0.004190525
63	0xbd59d664	-0.053182974
64	0xbbf6f9b5	-0.0075370916
65	0x3bce941a	0.006304276
66	0x3bc570fc	0.0060254317
67	0x3caa6627	0.020800663
68	0x3be9c75b	0.0071343607
69	0x3d550708	0.05200866
70	0xbbadb9e7	-0.0053017023
71	0xbcee3581	-0.029078247
72	0xbd789bcc	-0.060695454
73	0xbcad771f	-0.021174965
74	0x3c2ee6c1	0.010675133
75	0xbbc52413	-0.0060162633
76	0x3d2ef025	0.04270949
77	0xbbfcd6a2	-0.007716016
78	0xbd459e2e	-0.048246555
79	0xbd392d92	-0.045209475
80	0xbcce34d0	-0.025171667
81	0xbd4ff741	-0.05077291
82	0x3d0b25e3	0.03397168
83	0xbb7a7e52	-0.0038222265
84	0x3cbfc6a7	0.023410155
85	0x3bf7bf8f	0.0075606774
86	0xbc87cb03	-0.016576296
87	0xbcff7ee7	-0.031188441
88	0xbb9b6b1d	-0.0047429935
89	0x3cc7df14	0.024398364
90	0x3c4f084b	0.012636255
91	0xbb4fd04e	-0.0031709853
92	0x3d33e9e8	0.043924242
93	0x3c975ec0	0.018477798
94	0x3c8e2943	0.01735366
95	0x3c1bcaca	0.009508798
96	0xbc04c52a	-0.008103648
97	0xbd22b3fd	-0.03972243
98	0xbc5c93d0	-0.013462976
99	0x3c9ef7c1	0.019405248
100	0x3adfe787	0.001708255
101	0xbc9a649c	-0.018846802
102	0xbd29d7bd	-0.04146551
103	0xbb9592e9	-0.004564632
104	0xbcf34277	-0.029694779
105	0x3c7ce3c5	0.015435164
106	0x3ad3e8b4	0.0016167373
107	0xbbae091e	-0.0053111454
108	0x3d0558cc	0.032555386
109	0xbd10ebb5	-0.035381038
110	0xbcb13f33	-0.021636581
111	0x3cf79c8a	0.03022601
112	0x3ca70b5f	0.020391164
113	0x3b09ff77	0.002105681
114	0xbb145585	-0.0022633981
115	0x3ca27966	0.019833278
116	0xbccb8ef0	-0.024848431
117	0x3c6e9d1c	0.014563825
118	0xbc501fdb	-0.012702907
119	0x3bbe348d	0.0058046044
120	0xbd1445e4	-0.036199465
121	0xbb8420e1	-0.00403224
122	0xbae0654a	-0.001712003
123	0xbd0551a5	-0.032548565
124	0x3c96ccfc	0.018408291
125	0x3d15616e	0.03646987
126	0x3ac59696	0.0015074785
127	0xbd1cb161	-0.0382551

weight f4 [128, 224]
0	0xbd8afd81	-0.06786633
1	0xbd15a660	-0.03653562
2	0x3cdb3905	0.026760587
3	0x3d8e2e72	0.069424525
4	0x3e17d162	0.14825967
5	0xbe3a6464	-0.18202358
6	0xbc6163a0	-0.013756663
7	0xbce525a3	-0.027972048
8	0x3d849304	0.064733535
9	0x3e40e389	0.18836798
10	0x3d2153ba	0.03938649
11	0x3daeefab	0.08541807
12	0xbd2fe0af	-0.042938884
13	0xbcb37d95	-0.021910468
14	0xbdbae08f	-0.091248624
15	0xbe1cee1a	-0.15325204
16	0x3e82977b	0.25506195
17	0x3d9f880d	0.077896215
18	0xbbccdeba	-0.006252137
19	0xbdc82a1b	-0.09773656
20	0xbeb76f26	-0.35826987
21	0x3c92d3df	0.017923294
22	0xbdf8731d	-0.12131331
23	0xbd81301f	-0.063080065
24	0x3d3afd17	0.04565152
25	0x3ce3327f	0.02773404
26	0x3d00fd2b	0.03149144
27	0x3df4b5cd	0.11948738
28	0xbc8a2a26	-0.016865801
29	0x3dba1528	0.090860665
30	0xbdaf6513	-0.085642
31	0xbd270a69	-0.040781412
32	0x3c101861	0.008794875
33	0xbca074e4	-0.019586988
34	0xbd20c86e	-0.039253645
35	0x3d247120	0.040146947
36	0x3d66491b	0.056222063
37	0xbb722d35	-0.0036953215
38	0xbe690c18	-0.2275852
39	0x3e5fdfca	0.21862713
40	0x3dfc2541	0.12311793
41	0xbd83ff0f	-0.06445133
42	0x3da557f0	0.08073413
43	0xbd835e51	-0.06414474
44	0x3d2182f7	0.03943154
45	0xbe136cb7	-0.1439694
46	0xbe8c8d7e	-0.274517
47	0x3ebc5cea	0.36789638
48	0x3c7cc6ee	0.015428288
49	0x3e659744	0.22420985
50	0xbe78c89c	-0.24295276
51	0x3dd5d6dc	0.10441372
52	0xbd9de1d2	-0.077090874
53	0xbda6fda0	-0.08153844
54	0x3d24611e	0.04013168
55	0xbe53aa44	-0.2067042
56	0x3dd25496	0.1027004
57	0xbd9d4af5	-0.076803125
58	0xbe7250fb	-0.23663704
59	0x3b2aa3b2	0.0026037511
60	0xbd276805	-0.040870685
61	0x3e3ba32a	0.18323961
62	0xbdcf91d4	-0.101352364
63	0x3d459db6	0.048246108
64	0x3da98d86	0.082789466
65	0xbce3b9cd	-0.027798558
66	0x3da505cf	0.080577485
67	0x3df846dc	0.1212289
68	0x3e88e298	0.26735377
69	0x3d9915b5	0.074748434
70	0xbe3b947a	-0.18318358
71	0xbdc32b70	-0.095297694
72	0x3df3bc1b	0.11901113
73	0xbde0d0b7	-0.10977309
74	0xbe10747a	-0.14106932
75	0x3c31deaf	0.010856315
76	0x3d6f1b08	0.05837539
77	0x3d94a06b	0.0725716
78	0x3d8867c3	0.06660416
79	0x3d56e45d	0.052463878
80	0x3ce26672	0.02763674
81	0x3ca9653e	0.020678159
82	0x3e735d32	0.2376602
83	0xbce239c1	-0.02761543
84	0x3d6d1b4a	0.057887353
85	0x3d7fca6a	0.062448896
86	0xbe13fd7b	-0.14452164
87	0x3e3e551d	0.18587156
88	0xbc763885	-0.015028124
89	0x3e418789	0.18899359
90	0xbc93e7ce	-0.018054869
91	0xbde8165e	-0.11332391
92	0xbcd8888f	-0.026432304
93	0xbd6250b6	-0.055252753
94	0x3d375ac3	0.04476429
95	0x3e396be5	0.18107565
96	0xbbbe279a	-0.0058030607
97	0x3d8ef7ae	0.06980835
98	0xbca18f55	-0.019721666
99	0x3dbb8cef	0.0915774
100	0x3e1c501f	0.15264939
101	0x3c42dcbf	0.01189345
102	0xbdd89228	-0.10574752
103	0xbd77b6d7	-0.060477104
104	0x3c27f5ab	0.010251443
105	0xbdbabaa2	-0.09117629
106	0xbdb9a9d6	-0.09065597
107	0x3d080524	0.033208027
108	0x3e2e59a8	0.17026389
109	0xbc086e32	-0.008327054
110	0x39f65c2b	0.00046989447
111	0x3cbf42c6	0.02334727
112	0x3d3de86a	0.046364225
113	0x3d943190	0.07236016
114	0xbb60b19a	-0.0034285546
115	0x3cc8c1b7	0.024506433
116	0xbdd22797	-0.102614574
117	0x3d4c2aab	0.04984538
118	0x3d46c74c	0.048529908
119	0x3daf534b	0.08560809
120	0xbd619c07	-0.05508044
121	0x3e203348	0.15644562
122	0xbba58647	-0.0050514075
123	0x3d870cbf	0.06594228
124	0xbd989a74	-0.074513346
125	0x3de004bd	0.10938404
126	0xbda3517c	-0.07974526
127	0xbdda831c	-0.106695384
128	0x3ac6afcb	0.0015158592
129	0xba975434	-0.001154548
130	0x3a86ebe5	0.0010293691
131	0x3c09e113	0.008415478
132	0x386196d1	5.378464e-05
133	0x3cf426b5	0.029803613
134	0x3d5a05f4	0.053228334
135	0x3dfe8310	0.12427342
136	0x3ddee6fa	0.10883899
137	0xbd260420	-0.040531278
138	0xbd01cf96	-0.03169211
139	0xba1a81ab	-0.0005893956
140	0xbc9363f1	-0.017991992
141	0xbdc83e85	-0.0977755
142	0xbe1c8881	-0.15286447
143	0x3c93ba87	0.01803328
144	0x3dc8fd22	0.09813906
145	0x3c65dcc2	0.014029684
146	0xbdcdb541	-0.10044337
147	0xbe0dc3b0	-0.1384418
148	0x3d2ef9b7	0.042718615
149	0x3dbda441	0.092598446
150	0x3d2c42da	0.042055942
151	0x3da22672	0.07917489
152	0x3e183ba2	0.14866498
153	0x3deb9113	0.1150228
154	0x3d8d90c4	0.069123775
155	0xbda8f690	-0.08250153
156	0x3dc1f5d7	0.09470718
157	0x3d504c21	0.050853852
158	0x3c38d950	0.01128228
159	0x3b6096dd	0.003426961
160	0xab5a06b2	-7.745845e-13
161	0xb99169bb	-0.0002773533
162	0xbae7c12b	-0.001768147
163	0x3b03b04c	0.0020094095
164	0xbd52c146	-0.05145385
165	0xbe64f7d3	-0.22360162
166	0xbe173252	-0.1476529
167	0x3c945222	0.01810557
168	0xbcf516d3	-0.02991811
169	0xbc90bcb9	-0.017668115
170	0xbd6c4bfa	-0.057689644
171	0xbd2f7298	-0.042833894
172	0xbdd90f92	-0.10598673
173	0xbd669e2c	-0.05630319
174	0x3c000522	0.007813724
175	0x3a1b4cb8	0.0005924213
176	0x3bfe9b34	0.0077699665
177	0xbadcd898	-0.0016849218
178	0xbd4d8353	-0.05017407
179	0x3cbe6fc6	0.023246657
180	0x3b34318e	0.0027495357
181	0xbe3ae439	-0.18251123
182	0xbe08a093	-0.13342504
183	0xbd890aa3	-0.06691482
184	0xbe7768c3	-0.24161057
185	0x3d9995f5	0.07499305
186	0x3e6c8e46	0.23101148
187	0x3d535f09	0.051604304
188	0xbd99e4d2	-0.07514347
189	0x3dcf5ba2	0.101248994
190	0x3d03f508	0.032216102
191	0x39d49ec2	0.00040554075
192	0xbd0fb3ac	-0.035083458
193	0xbc27b2f2	-0.010235535
194	0xbd65e883	-0.056129944
195	0xbd873ac4	-0.066030055
196	0x3d323208	0.043504745
197	0x3a1806d9	0.000579936
198	0x3d2aed75	0.041730363
199	0x3caf9ff3	0.021438574
200	0xbd65f406	-0.056140922
201	0x3d3658e6	0.044518374
202	0x3dc28051	0.09497131
203	0xbd7ce937	-0.06174585
204	0xbcb8d2fd	-0.022561545
205	0x3d2dc565	0.04242458
206	0xbd75c24c	-0.05999975
207	0x3e1d954a	0.1538898
208	0x3d7d4de8	0.061841875
209	0x3d38a690	0.04508072
210	0xbd2388be	-0.03992533
211	0x3d05a690	0.03262955
212	0x3c9cb64e	0.019129898
213	0xbd0d3b8c	-0.034480616
214	0xbd8d36bf	-0.068952076
215	0xbd109ad9	-0.035303924
216	0x3d634c25	0.05549254
217	0xbdafbf00	-0.08581352
218	0x3d7beaea	0.06150333
219	0xbd366073	-0.044525575
220	0xbdecff47	-0.11572128
221	0xbe483e8a	-0.19555107
222	0xbe64ca8a	-0.22342888
223	0x3d4149e1	0.047189597
224	0xbd454cf1	-0.04816908
225	0xbd34771f	-0.044058915
226	0xbcc2a145	-0.02375854
227	0xbda0ca4d	-0.07851086
228	0xbc63a188	-0.0138934925
229	0xbdc6b208	-0.097019255
230	0xbd1dea4e	-0.03855353
231	0xbd5bae40	-0.053632975
232	0x3d5887cd	0.052863885
233	0x3daf7e90	0.08569062
234	0xbde832e0	-0.11337829
235	0x3d791254	0.060808495
236	0xbc9608fc	-0.018314831
237	0xbdc66bd0	-0.09688532
238	0xbd230993	-0.039804053
239	0xbd53e948	-0.051736146
240	0x3c53ee3f	0.01293522
241	0x3d508c67	0.050915148
242	0xbe00d8b0	-0.1258266
243	0xbda1436a	-0.07874186
244	0xbce91450	-0.028452069
245	0x3d717775	0.058951814
246	0xbd49b7b1	-0.049247447
247	0xbc632128	-0.013862886
248	0xbdd1401c	-0.10217306
249	0xbda95750	-0.08268607
250	0xbe4aa707	-0.19790278
251	0x3d58ade7	0.05290022
252	0xbd8e041a	-0.06934376
253	0x3dcc464f	0.09974348
254	0x3d47e6dc	0.04880415
255	0xbde25279	-0.11050887

bias f4 [128]
0	0xbdc23640	-0.094830036
1	0xbdeec770	-0.116591334
2	0xba8e13c0	-0.0010839626
3	0xbda31834	-0.07963601
4	0xb9d40192	-0.0004043696
5	0xbc11d636	-0.0089011695
6	0xbd7ddc04	-0.0619774
7	0xbdaa9845	-0.08329824
8	0xbd5092d1	-0.050921265
9	0xbdd3a918	-0.103349864
10	0xbe16de19	-0.14733161
11	0xbb91dd49	-0.004451428
12	0xbd921ef4	-0.0713481
13	0xbe0cb407	-0.1374055
14	0xbd510f03	-0.051039707
15	0xbda2bf3b	-0.079466306
16	0xbd85284d	-0.065018274
17	0xbb684dae	-0.0035446691
18	0xbd1f4939	-0.03888819
19	0xbc55e4a4	-0.013055
20	0xbe0be539	-0.1366166
21	0xbcdb1306	-0.02674247
22	0xbd3ad6b9	-0.04561493
23	0xbd02fa8c	-0.03197722
24	0xbde01d59	-0.109430976
25	0xbe06b4e2	-0.13154939
26	0xbe435be8	-0.19078028
27	0xbe27597e	-0.16342732
28	0xbd1f2e3e	-0.03886246
29	0xbe1287eb	-0.14309661
30	0xbd3d66a4	-0.046240464
31	0xbddd122c	-0.10794482
32	0xbc9dc490	-0.019258767
33	0xbe0673b5	-0.13130076
34	0xbcce6a3c	-0.02519714
35	0xbd2d021d	-0.042238344
36	0xbd87202a	-0.06597932
37	0xa8a1d401	-1.7966533e-14
38	0xbbab72ca	-0.00523219
39	0xbc8e58da	-0.017376352
40	0x3c7626a7	0.015023864
41	0xbbf6b64a	-0.007529055
42	0xbe2e5e94	-0.17028266
43	0xbd7096b4	-0.05873747
44	0xbd5e6817	-0.054298487
45	0x3ae6b596	0.0017601724
46	0xbc363da5	-0.011123096
47	0xbd4c2cea	-0.04984752
48	0xbc494103	-0.012283566
49	0x3d35e2a9	0.044405613
50	0x3d160cce	0.036633305
51	0xbc33562f	-0.010945841
52	0xbcd425fe	-0.025897022
53	0xbc030666	-0.007997131
54	0xbc879c53	-0.016554033
55	0xbc8c949b	-0.017160704
56	0xbd65febd	-0.05615114
57	0xbe03d0e0	-0.12872648
58	0xbd3fd81b	-0.046836954
59	0xb051d561	-7.6336987e-10
60	0x3c1eecec	0.009700041
61	0xbcfb899b	-0.030705264
62	0x3cafc4c0	0.021456122
63	0xbccde40c	-0.025133155
64	0xbcec421a	-0.028840113
65	0xbcd90500	-0.026491642
66	0xbd9e1d6c	-0.077204555
67	0xbd176bf0	-0.03696817
68	0xbb048cef	-0.0020225605
69	0xbbbbabba	-0.0057272585
70	0xbe3a68bc	-0.18204015
71	0x3db966b7	0.090527944
72	0xbdec4b74	-0.11537829
73	0xbe1274d3	-0.14302377
74	0x3b643809	0.0034823439
75	0xbd2e643d	-0.042576063
76	0xbda920e4	-0.082582265
77	0xbae3bccf	-0.0017374995
78	0xbd40db97	-0.047084417
79	0xbdaacacd	-0.083394624
80	0xbdb12f22	-0.08651568
81	0xbdd093ac	-0.10184416
82	0xbceabe1f	-0.02865511
83	0xbd2b2f13	-0.04179294
84	0xbb7a04aa	-0.0038149753
85	0x3cf9ff7b	0.03051733
86	0xbe012f6d	-0.12615748
87	0xbdcf346f	-0.10117423
88	0xbd230b8c	-0.039805934
89	0xbbca1a33	-0.006167674
90	0xbc6ab990	-0.014326468
91	0xbdd1f9ec	-0.10252747
92	0xbd0aa936	-0.03385278
93	0xbd1cecf7	-0.038311925
94	0xbda2a07a	-0.07940765
95	0x3d0086fb	0.031378727
96	0xbd822f65	-0.06356696
97	0xbdc40e29	-0.09573013
98	0x3d063140	0.032761812
99	0xbd9711c3	-0.07376435
100	0xb8a18b1d	-7.70299e-05
101	0xbab318ae	-0.0013663971
102	0xbe35f55c	-0.17769378
103	0xbd375f32	-0.04476852
104	0xbc56560f	-0.013082041
105	0xbde11e65	-0.109921254
106	0xbda0cbbc	-0.07851359
107	0xbbce8fcc	-0.006303763
108	0xbd9487bb	-0.07252451
109	0xbd60af25	-0.05485453
110	0xbdc9f620	-0.09861398
111	0x3d0e7704	0.03478147
112	0xbe3c5667	-0.18392335
113	0xbd840fc1	-0.06448317
114	0xbc079b4e	-0.008276774
115	0xbe5e6111	-0.21716715
116	0x3d7dabf7	0.061931577
117	0xbd73d715	-0.05953129
118	0x3d36473d	0.044501532
119	0x3d05e7e7	0.032691862
120	0xbd96cd73	-0.07363405
121	0xbde4eafa	-0.11177631
122	0xbd011ade	-0.031519763
123	0xbbcb98a3	-0.006213264
124	0xbd21cb47	-0.0395005
125	0xbc25a0b5	-0.010109116
126	0xbce2cbd0	-0.027685076
127	0x3d149fdd	0.03628527

weight f4 [64, 128]
0	0xbe1d89b0	-0.15384555
1	0x3dd726b7	0.10505431
2	0xbd2a2412	-0.041538306
3	0x3cf85601	0.030314447
4	0xb8f1cd7c	-0.0001153005
5	0x3d1daf90	0.038497508
6	0xbc2cfffc	-0.010559078
7	0xbd921fa5	-0.07134942
8	0x3c4b3ec1	0.012405098
9	0x3d696e77	0.056990113
10	0xbb23bc62	-0.002498411
11	0xbcf64f55	-0.030067125
12	0x3c33749a	0.010953093
13	0xbe08140b	-0.13288896
14	0xbde87d7b	-0.113520585
15	0xbc366d6c	-0.011134487
16	0x3d538a14	0.051645353
17	0xbd612edb	-0.054976325
18	0x3cbd9d0d	0.023146177
19	0x3db2e942	0.08735897
20	0xbc43922b	-0.011936705
21	0x3d67b9d1	0.056573693
22	0x3d166a8e	0.036722712
23	0xbd9cf3b2	-0.07663669
24	0x3dbdc2c5	0.09265665
25	0x3c6c61a8	0.01442758
26	0x3d49df3b	0.049285155
27	0x3de32dc3	0.11092713
28	0x3dcf6600	0.10126877
29	0xbe11933f	-0.14216326
30	0x3c9ea53a	0.019365896
31	0xbdcf9a44	-0.10136846
32	0x3d8c5471	0.068520434
33	0xbe04a960	-0.12955236
34	0x3ca54056	0.02017228
35	0xbc9dd4c6	-0.019266497
36	0x3d1e41b6	0.038636886
37	0x800111a9	-9.8171e-41
38	0x3b53f3b4	0.0032341303
39	0xbe18469a	-0.14870682
40	0x3d3a26e1	0.045447234
41	0x3c4a4810	0.012346283
42	0xbd2f9804	-0.042869583
43	0xbe070e3e	-0.13189027
44	0xbc8c8d9c	-0.017157368
45	0xbd80a2f1	-0.062810786
46	0xbcc2daad	-0.023785913
47	0xbcdbf01d	-0.026847893
48	0x3d54047d	0.051762093
49	0x3ce4c5d8	0.02792637
50	0x3d8a0df4	0.067409426
51	0x3b2be58d	0.0026229352
52	0xbe286ac4	-0.16446978
53	0xbc6bb190	-0.014385596
54	0xbdaaaf11	-0.083341725
55	0x3d3065b3	0.043065738
56	0x3de6859e	0.11255954
57	0x3dcfb699	0.101422496
58	0xbda76272	-0.08173074
59	0x881b1e3f	-4.667917e-34
60	0xbcbb87cf	-0.022891907
61	0xbd20b492	-0.039234705
62	0x3d4b3fd0	0.049621403
63	0xbcac9d8a	-0.021071214
64	0xbda5a470	-0.080880046
65	0x3ca28de6	0.019843053
66	0xbd0b69dd	-0.034036506
67	0x3c9757ba	0.018474448
68	0xb9269cc8	-0.00015889399
69	0x3253b333	1.2322562e-08
70	0x3dce1b44	0.10063794
71	0x3dfe2098	0.124085605
72	0xbd53f531	-0.051747505
73	0x3cf40305	0.029786596
74	0xbde765b2	-0.11298694
75	0x3d7bc481	0.061466698
76	0x3caaa965	0.020832727
77	0xb9907323	-0.00027551604
78	0x3caff297	0.02147798
79	0xbe00fb44	-0.1259585
80	0x3d397923	0.04528154
81	0xbd27b1fc	-0.040941224
82	0x3c54378d	0.012952697
83	0x3a926b7b	0.0011170948
84	0xb959766d	-0.0002073885
85	0x3df954cb	0.12174376
86	0xbde968a2	-0.1139691
87	0x3d85d064	0.06533888
88	0xbe840c49	-0.25790623
89	0xbd0535eb	-0.032522123
90	0x3d023b06	0.03179457
91	0x3d8367e5	0.06416301
92	0x3cd4cfbf	0.025977967
93	0x3d15bee9	0.03655902
94	0xbdb49391	-0.088172086
95	0xbd172ccf	-0.036907967
96	0x3ca8dea1	0.02061397
97	0xbbcf6657	-0.0063293385
98	0x3c2232cc	0.009899806
99	0xbe13f2f1	-0.14448144
100	0xb53140a8	-6.6031726e-07
101	0x3a5775e0	0.0008219164
102	0xbd5ed8bd	-0.054405916
103	0xbe159cf9	-0.14610662
104	0xbb07548f	-0.0020649766
105	0xbe01270c	-0.12612551
106	0xbdcf4c58	-0.10121983
107	0xbac1b8c6	-0.0014779798
108	0xbd609e3c	-0.054838404
109	0x3db966aa	0.09052785
110	0xbd279b2b	-0.040919464
111	0x3cf84594	0.030306615
112	0xbe0ec64d	-0.13942833
113	0x3c685bf0	0.014182076
114	0xbc35902f	-0.011081739
115	0xbce304d9	-0.027712272
116	0x3d8ae3ee	0.067817554
117	0xbbcdc501	-0.006279588
118	0x3db7d9d9	0.08977098
119	0x3e053c44	0.13011271
120	0xbd5d4303	-0.054018985
121	0x3ca48bdb	0.02008622
122	0xbdd842bc	-0.105596036
123	0xbc21ac00	-0.009867668
124	0xbd8a9b7b	-0.06767937
125	0x3e046327	0.12928449
126	0x3d05ca1d	0.032663453
127	0x3d894a2b	0.067035995
128	0x3d343175	0.04399248
129	0xbd4b2f66	-0.04960575
130	0xbe13f9c0	-0.14450741
131	0xbd6021e8	-0.054719836
132	0xba1a299d	-0.00058808347
133	0xbe27a7af	-0.1637256
134	0xbe6a973a	-0.22909251
135	0x3be56236	0.007000233
136	0x3e07cc27	0.13261472
137	0xbd532eb3	-0.051558208
138	0x3d10f447	0.03538921
139	0xbdbf75ce	-0.09348641
140	0xbda12824	-0.07868984
141	0xbd3e4522	-0.04645265
142	0x3d237eb6	0.039915763
143	0xbe79b317	-0.24384724
144	0xbe0f95c2	-0.14021972
145	0xbb9a9aa4	-0.0047181416
146	0xbe9a6bde	-0.3016042
147	0xbd59daf8	-0.05318734
148	0x3b939a6a	0.0045044916
149	0xbd3e51d0	-0.04646474
150	0xbdbbab55	-0.09163538
151	0xbc01cf2f	-0.007922932
152	0xbce50962	-0.027958576
153	0xbdb8dd3a	-0.090265706
154	0xbe40d51a	-0.18831292
155	0xbce74800	-0.028232574
156	0xbd9da464	-0.07697371
157	0xbd9540ac	-0.07287726
158	0xbd6f1e1d	-0.058378328
159	0xbc7dc7f5	-0.015489568
160	0x3dea250a	0.11432846
161	0xbc6d3524	-0.014478002
162	0xbc81a9f9	-0.01582812
163	0x3d85c0a1	0.06530882
164	0xbd8baa90	-0.068196416
165	0x8431bf83	-2.0894188e-36
166	0xba852f7c	-0.0010161246
167	0xbc8012fd	-0.015634054
168	0x3d954e25	0.072902955
169	0xbc0e61c1	-0.008690299
170	0xbdd63547	-0.104593806
171	0xbc937612	-0.018000636
172	0xbcc22f50	-0.023704201
173	0xbda797b1	-0.0818323
174	0xbde5bbee	-0.11217485
175	0x3dfb8864	0.12281874
176	0xbe0958ff	-0.13412856
177	0xbe6e8a80	-0.23295021
178	0xbe4d2214	-0.20032531
179	0xbaff9f49	-0.0019502427
180	0xbe299428	-0.16560423
181	0xbccdf6cd	-0.025142098
182	0xbdb96329	-0.090521164
183	0xbd857ead	-0.06518302
184	0x3e547c9c	0.2075066
185	0x3db29c54	0.087212235
186	0x3dcd2b5d	0.100180365
187	0xa067add7	-1.962398e-19
188	0x3ccdc77c	0.025119536
189	0xbdaf75d6	-0.08567397
190	0xbd335885	-0.04378559
191	0x3d2e05d4	0.042486027
192	0xbe167ec6	-0.14696798
193	0xbd0c4c5a	-0.034252502
194	0xbc944a17	-0.018101735
195	0xbe12fa54	-0.14353305
196	0x3623290d	2.4312787e-06
197	0xb854a34d	-5.0696824e-05
198	0xbdc7a277	-0.097477846
199	0xbe98fa8f	-0.2987866
200	0xbbddf636	-0.0067737354
201	0x35156286	5.5650196e-07
202	0xbd105fd5	-0.035247643
203	0xbd9617f6	-0.07328789
204	0xbd963ac3	-0.07335427
205	0xb8d600a0	-0.000102044316
206	0xbdd6f385	-0.104956664
207	0xbd040d82	-0.032239445
208	0xbcf459fb	-0.029828062
209	0x3e5b812e	0.21435997
210	0xbd54daa0	-0.05196631
211	0xbcb1c3ca	-0.021699805
212	0xb8f0705f	-0.000114650225
213	0xbe1990f9	-0.14996709
214	0xbbe8d472	-0.0071054036
215	0x3d6932d4	0.05693324
216	0xbe0d5ffe	-0.1380615
217	0xbe376444	-0.17909342
218	0xbe3cbddb	-0.18431799
219	0xbd79fffb	-0.061035138
220	0xbe83ac39	-0.25717333
221	0xbd4b1951	-0.04958469
222	0xbe9a0fe7	-0.30090258
223	0xbe14095c	-0.14456695
224	0xba6626b8	-0.0008779573
225	0xbc6606db	-0.01403972
226	0xbe03e1b0	-0.12879062
227	0xbd23da8a	-0.040003337
228	0x36a09607	4.785837e-06
229	0xb9bc4732	-0.000359112
230	0xbe80d931	-0.25165704
231	0xbc456eec	-0.012050372
232	0x3bb68449	0.005569969
233	0x3c601ca9	0.013678708
234	0xbc3dd03c	-0.0115852915
235	0xbb1ec34b	-0.002422529
236	0xbcfd2375	-0.030900696
237	0xbd5cf579	-0.05394504
238	0xbcd977ad	-0.026546324
239	0x3ca10d95	0.019659797
240	0x3c26a92e	0.0101721715
241	0x3da19294	0.07889286
242	0xbda88c0c	-0.08229837
243	0xbd156a66	-0.036478423
244	0x3c93cf60	0.01804322
245	0xbd7c942d	-0.06166475
246	0x3da3b370	0.07993209
247	0xbe2653d1	-0.16242911
248	0xbc822fe8	-0.015891984
249	0xbaba2409	-0.0014201413
250	0xbdb99c39	-0.09063
251	0xbb5333d3	-0.0032226935
252	0xbd8fd1be	-0.07022427
253	0xbdf2eb6f	-0.11861312
254	0xbc7b4703	-0.015336755
255	0xbe985fae	-0.29760498

bias f4 [64]
0	0x3d152415	0.036411364
1	0x3e1297b8	0.14315689
2	0xbc02ee09	-0.007991322
3	0x3d15a98f	0.036538657
4	0xbda85435	-0.08219186
5	0x3d1be74b	0.038062375
6	0x3d3d0e83	0.046156418
7	0x3dd8f675	0.10593883
8	0xbda5309c	-0.08065912
9	0x3c825979	0.015911805
10	0x3d15b88c	0.03655295
11	0xba18f696	-0.0005835084
12	0x3de4a78c	0.111647695
13	0xb91191da	-0.00013882612
14	0x3c5deaf3	0.013544786
15	0x3c76d0ac	0.0150644
16	0xbd60e513	-0.054905962
17	0xbc0ce413	-0.008599299
18	0xbd052434	-0.03250523
19	0x3c80e619	0.01573472
20	0xbd2ba8b5	-0.04190894
21	0xbd66a621	-0.056310777
22	0x3d08fc35	0.03344365
23	0x3dbd02c2	0.09229042
24	0x3e13a635	0.14418872
25	0x3d95ed07	0.073206
26	0x3ccec038	0.025238141
27	0x3dc1641c	0.094429225
28	0x3ceb4a6b	0.028722009
29	0x3d9b5337	0.07584231
30	0xbd827f2b	-0.063719116
31	0x3df9b8ea	0.12193473
32	0x3dbdcd19	0.09267635
33	0x3d5f73c1	0.05455375
34	0xbdab61b5	-0.083682455
35	0x3dffc76b	0.12489208
36	0xbd091c3c	-0.033474192
37	0x3d9a563d	0.0753598
38	0x3d3f3b7d	0.04668759
39	0x3cb2f34e	0.021844532
40	0xbbc44bab	-0.0059904656
41	0x3e1eec0b	0.15519731
42	0xbd7c19b6	-0.061547957
43	0x3e2c6ee2	0.16839173
44	0x3cb62a54	0.02223698
45	0x3c55a9c5	0.0130409645
46	0x3da42676	0.08015148
47	0x3cd7f831	0.026363464
48	0x3cf224b7	0.029558523
49	0x3c8e569e	0.017375287
50	0xbdabba34	-0.08385125
51	0x3b12dcf3	0.0022409528
52	0x3d811d96	0.06304471
53	0x3daa0ba2	0.08303
54	0x3c021c07	0.007941253
55	0x3de9ed47	0.1142221
56	0x3ca7bd82	0.020476107
57	0x3b36a165	0.0027867195
58	0x3e34fc49	0.17674364
59	0x3d4f0fd3	0.0505522
60	0x3d834781	0.06410123
61	0x3daacf4a	0.083403185
62	0xbb0b6423	-0.0021269403
63	0x3d2284fa	0.039677598

weight f4 [16, 64]
0	0x3c7aa06c	0.015297037
1	0xbcf76e9b	-0.030204108
2	0x3c1b11a2	0.009464653
3	0xbbab135b	-0.005220813
4	0x3d80d5e1	0.06290794
5	0x3d354252	0.0442527
6	0x3c1b0796	0.009462258
7	0xbb3ad8e6	-0.002851063
8	0x3cdab7bd	0.026698941
9	0xbb825a80	-0.0039780736
10	0xbec8475c	-0.39116943
11	0x3d4bf5e2	0.04979504
12	0xba803021	-0.0009779969
13	0x30fc7c83	1.8370802e-09
14	0x3d61efc4	0.0551603
15	0x3cb27e6d	0.0217888
16	0x36496f51	3.0016129e-06
17	0x3d81e9b6	0.06343405
18	0xbdf4abc8	-0.11946827
19	0xbef3953a	-0.47574788
20	0x3ce7b864	0.028286166
21	0x3c89ec2b	0.016836246
22	0xbe898368	-0.26858068
23	0xbd04ad2c	-0.032391712
24	0xbc1d91c5	-0.009617274
25	0x3d292c33	0.041301917
26	0xbe13e8bd	-0.14444251
27	0x3d99da85	0.075123824
28	0x3d98800b	0.07446297
29	0xbe28a4d1	-0.16469122
30	0xbdf06316	-0.11737649
31	0xbc5826fc	-0.013192888
32	0x3c9a26f0	0.018817395
33	0xbd162a77	-0.03666159
34	0xbc9ef61b	-0.019404462
35	0xbda5ce29	-0.080959626
36	0xbd27eb93	-0.040996145
37	0xbc92be45	-0.017912993
38	0x3c9e1512	0.019297156
39	0x3d4cfc2a	0.05004517
40	0x3d3337e0	0.04375446
41	0x3aa8124f	0.0012822839
42	0x3d85e69b	0.06538125
43	0xbc22411f	-0.009903221
44	0xbec83f84	-0.3911096
45	0x3c33e58e	0.010980023
46	0xbd6e6e33	-0.058210563
47	0xbf161ddf	-0.5863933
48	0x3d025d9e	0.03182756
49	0xbc4541a7	-0.0120395785
50	0x3c9a13f6	0.018808346
51	0x3bde0d52	0.0067764902
52	0x3d0d5f7b	0.034514885
53	0xbd64a214	-0.055818632
54	0x3d55677a	0.052100636
55	0xbcb47f12	-0.022033248
56	0x3c3e3428	0.011609115
57	0xbe91cdea	-0.28477412
58	0x3bc4e0cc	0.006008243
59	0xbebf6702	-0.37383276
60	0xba5e76cb	-0.00084863295
61	0xbc82178b	-0.015880367
62	0x3d89c766	0.06727485
63	0x3d14ea4a	0.036356248
64	0xbe481428	-0.19538939
65	0xbbc0afd9	-0.0058803377
66	0xbe2ee8e8	-0.17081034
67	0xbde55339	-0.11197514
68	0xbe1391a8	-0.14411032
69	0xbe0a92d2	-0.1353257
70	0x3c97479a	0.01846676
71	0xbcbc5dad	-0.022993887
72	0xbdd57def	-0.104244106
73	0xbc197556	-0.009366354
74	0x3cfebeea	0.031096894
75	0xbe983663	-0.29728994
76	0xbca36179	-0.01994394
77	0x8000b9e2	-6.6682e-41
78	0xbe9b6936	-0.30353707
79	0xbeee2e25	-0.4651958
80	0xbd63fdc1	-0.05566192
81	0xbd530bf4	-0.05152507
82	0x3c73122b	0.014835875
83	0x3cc7ee10	0.02440551
84	0xbdbe4783	-0.092909835
85	0x3cfee090	0.03111294
86	0x3bd7aedc	0.006582124
87	0xbcebc840	-0.02878201
88	0x3b8d28b2	0.00430783
89	0xbdc64c83	-0.09682562
90	0x3c94d1cb	0.018166443
91	0x3c6a4727	0.014299191
92	0xbe6d73fc	-0.23188776
93	0x3c0ceb7d	0.008601067
94	0x3c8e9baf	0.01740822
95	0x3be17b59	0.0068811593
96	0xb9add7da	-0.00033157953
97	0x3c6567cb	0.014001797
98	0x3c91b5e6	0.017786931
99	0xbcc53042	-0.024070863
100	0x3d7ade75	0.061247308
101	0xbbbaf5c5	-0.0057055675
102	0x3e20c802	0.15701297
103	0x3da62745	0.08112959
104	0xbe449f17	-0.19201313
105	0xbc29a8de	-0.0103552025
106	0x3d45a6fd	0.048254956
107	0x3b2be6c1	0.002623007
108	0x3cadfcbe	0.02123868
109	0xbef60846	-0.48053187
110	0xbd4f6d2d	-0.050641228
111	0x3cdb79cd	0.026791478
112	0xbe6e11fc	-0.23249048
113	0xbeb79978	-0.35859275
114	0xbd00c808	-0.031440765
115	0xbe7da413	-0.2476962
116	0x3e2b5553	0.16731767
117	0xbb364c2b	-0.0027816396
118	0xbe5ca3e7	-0.21546899
119	0xbd1a2766	-0.03763523
120	0xbebcb7ba	-0.36858922
121	0x3c494bef	0.01228617
122	0x3b9ed81d	0.00484754
123	0xbbb4d2a4	-0.0055182744
124	0xbd785689	-0.0606294
125	0xbd07c8f2	-0.03315062
126	0xbe57c22e	-0.21070167
127	0x3de1750a	0.110086516
128	0x3cfec676	0.031100493
129	0xbc1098f1	-0.008825527
130	0xbd9646bb	-0.073377095
131	0xbe61ad2f	-0.2203872
132	0xbdc5e870	-0.096634746
133	0xbe4bbba5	-0.198958
134	0x3d5e0b5e	0.05421006
135	0xbd191218	-0.03737077
136	0xbd958e23	-0.07302501
137	0xbe06c0b8	-0.13159454
138	0x3ca18d20	0.019720614
139	0x3c98c91b	0.018650582
140	0xbf196725	-0.5992301
141	0x00020885	1.86727e-40
142	0xbe361357	-0.17780815
143	0xbe1694a7	-0.14705144
144	0xbc9e0cc8	-0.019293204
145	0xbdda126a	-0.106480435
146	0x3d0d6ab0	0.034525573
147	0xbb0cc03a	-0.002147688
148	0xbb15107d	-0.0022745423
149	0x3c84cbcb	0.016210457
150	0xbce6587d	-0.028118366
151	0x3d63b8b0	0.055596054
152	0xbd081c9d	-0.033230413
153	0x3d6b61bb	0.05746625
154	0xba9dae8e	-0.0012030171
155	0x3d031701	0.03200436
156	0xbd87b08a	-0.06625469
157	0x3cd6de30	0.026228994
158	0x3bb47313	0.005506882
159	0xbd95a91b	-0.07307645
160	0x3c589935	0.013220121
161	0x3d2f66b4	0.042822555
162	0x3cc268ca	0.023731608
163	0xbcc7cc2d	-0.02438935
164	0x3c56d142	0.013111414
165	0x3c9308ba	0.017948497
166	0x3da6a3dc	0.081367224
167	0x3db3139d	0.08743975
168	0xbe52257f	-0.20522116
169	0xbc873d51	-0.01650873
170	0x3cac46b7	0.021029813
171	0xbcad4f8c	-0.021156095
172	0xbc8e7ee1	-0.017394485
173	0xbe9d6e5c	-0.3074826
174	0xbe71f2f1	-0.23627831
175	0xbc860ba3	-0.01636297
176	0xbdc7ba67	-0.0975235
177	0xbe1f901e	-0.1558232
178	0xbe05de36	-0.13073048
179	0xbe6ea951	-0.23306777
180	0xbd0f6d56	-0.03501638
181	0xbd4df469	-0.050281916
182	0xbda6358f	-0.08115684
183	0xbc84bd96	-0.016203683
184	0xbe0b6d34	-0.13615876
185	0x3c4038de	0.011732308
186	0xbd6d4c06	-0.05793383
187	0x3d4c248f	0.049839552
188	0xbf036480	-0.51325226
189	0xbe668009	-0.22509779
190	0xbe4abd46	-0.19798765
191	0x3e43fd3d	0.19139571
192	0xbeaf163b	-0.34196648
193	0xbca274e6	-0.019831132
194	0xbe997f55	-0.2997996
195	0xbe442043	-0.19152932
196	0x3dc8db08	0.09807402
197	0x3d15a1d2	0.036531277
198	0xbcd8921c	-0.026436858
199	0xbd40d628	-0.047079235
200	0x3d330e43	0.043714773
201	0xbdf38216	-0.11890046
202	0x3cb1fd4e	0.02172723
203	0xbe6e55af	-0.23274873
204	0xbd59590c	-0.053063437
205	0x00027667	2.26146e-40
206	0x3d6e2c0f	0.058147486
207	0x3da992da	0.08279963
208	0xbcd56572	-0.02604935
209	0xbe7a3951	-0.24435927
210	0xbb193680	-0.0023378432
211	0x3cbcd544	0.023050912
212	0xbdb9bd11	-0.09069265
213	0x3d3383cd	0.043826867
214	0x3e2edce4	0.1707645
215	0xbd1e4d8b	-0.03864817
216	0xbc7f1792	-0.015569584
217	0x3c9fbedc	0.019500189
218	0x3c6d06e7	0.014466978
219	0xbb570b7e	-0.0032813246
220	0xbe4214ba	-0.18953219
221	0xbcdba6ce	-0.026812937
222	0x3cac3c27	0.021024777
223	0xbd7c1bd5	-0.06154998
224	0xbcc922c1	-0.024552705
225	0xbd84c48f	-0.06482803
226	0x3d03fa83	0.03222133
227	0x3d9d2967	0.076739125
228	0x3d4df84f	0.050285634
229	0xbd408907	-0.04700568
230	0x3e1b0ddd	0.15142007
231	0x3d099109	0.033585582
232	0x3bf7c93f	0.007561832
233	0xbcf1ad6f	-0.029501645
234	0x3d8f2da3	0.069911264
235	0xbc47fa0f	-0.012205615
236	0x3d59b38f	0.053149756
237	0x3def3afc	0.11681172
238	0xbe8c7a79	-0.2743719
239	0x3c277239	0.010220104
240	0xbe40676c	-0.18789452
241	0xbea14983	-0.31501397
242	0xbe6d65ab	-0.23183315
243	0xbae7241f	-0.0017634666
244	0x3d9d4700	0.07679558
245	0x3d0ad5e1	0.033895377
246	0xbeaff600	-0.3436737
247	0xbd97210e	-0.073793516
248	0xbeb29f6e	-0.3488726
249	0xbc8b9e5e	-0.017043289
250	0xbcfa9e66	-0.030593108
251	0xbd2868a7	-0.04111543
252	0x3d762419	0.06009302
253	0xbdd985f7	-0.10621255
254	0x3d6fffe5	0.05859365
255	0x3da14ff6	0.078765795

bias f4 [16]
0	0x3d5fefe8	0.05467215
1	0x3d224978	0.039620847
2	0x3d4c2bfe	0.04984664
3	0x3d4b830d	0.049685527
4	0x3d0dc521	0.034611825
5	0x3d42cefa	0.04756067
6	0x3da74d40	0.08169031
7	0x3cbb70fd	0.022881025
8	0x3d248944	0.04016997
9	0x3d85af39	0.06527562
10	0x3d0e23bf	0.03470206
11	0x3e1086d6	0.14113936
12	0x3ceb9db3	0.02876172
13	0x3d3f4f67	0.046706583
14	0x3dba1e23	0.090877794
15	0x3d2a6cf1	0.0416078

weight f4 [3, 16]
0	0x3b6286b1	0.0034565146
1	0xbc699479	-0.01425659
2	0xbd666a01	-0.056253437
3	0x3cc06911	0.0234876
4	0xbd8f4426	-0.0699542
5	0x3aea6058	0.0017881496
6	0xbd7f517b	-0.062333565
7	0xbd7afeb7	-0.06127807
8	0xbcafa3f2	-0.02144048
9	0x3b32764d	0.0027231157
10	0xbc91150d	-0.017710233
11	0x3cc9603f	0.024582027
12	0x3df2567b	0.11832901
13	0x3b1f222b	0.002428184
14	0x3a248b52	0.0006276864
15	0x3ca59833	0.020214176
16	0xbcbfd59c	-0.023417287
17	0x3bd3c9ca	0.006463264
18	0xbd23a380	-0.039950848
19	0x3d929efc	0.0715923
20	0xbd6fa622	-0.058508046
21	0xbd028e01	-0.031873707
22	0xbd3d4dfd	-0.046216954
23	0xbda8cc0f	-0.08242046
24	0xbac12517	-0.0014735785
25	0xbcf39a21	-0.02973658
26	0x3b4fee35	0.0031727676
27	0xbca40470	-0.020021647
28	0x3e1291bd	0.14313407
29	0xbcf58649	-0.029971259
30	0xbd033523	-0.032033097
31	0x3d777711	0.060416285
32	0x3d24e54b	0.040257733
33	0xbda870de	-0.08224653
34	0x3e88a471	0.2668796
35	0x3d0c28ae	0.034218483
36	0x3e597e91	0.21239688
37	0xbe906de6	-0.28208846
38	0x3da28de6	0.07937221
39	0x3cf08911	0.029362233
40	0xbd83877b	-0.06422325
41	0xbd92fbd2	-0.07176937
42	0xbc77e00f	-0.015129103
43	0xbe84ba70	-0.2592349
44	0xbe7da896	-0.24771342
45	0xbd9eee50	-0.07760298
46	0xbc8ee34b	-0.017442366
47	0xbe1da5a2	-0.15395215

bias f4 [3]
0	0x3f800113	1.0000328
1	0x3f76713f	0.9626655
2	0x3f497ede	0.7870921
