models/data_aug/H/model2.pt (torch, 353039 bytes, 8 tensors)

weight f4 [128, 384]
0	0x3c9ab272	0.018883917
1	0xbc801c1c	-0.015638404
2	0xbd30ad8c	-0.043134257
3	0xbb3f30d2	-0.0029173386
4	0xbc69a3c2	-0.014260234
5	0xbbd7152a	-0.0065638022
6	0xbb27bfdd	-0.0025596537
7	0x3c16ed42	0.00921184
8	0xba36727e	-0.00069598097
9	0x3ba7461f	0.0051047946
10	0x39d3d7b2	0.00040405762
11	0x3c37dfa7	0.0112227565
12	0x3bccde9e	0.006252124
13	0x3cc9f953	0.02465502
14	0x3c9a2d96	0.018820565
15	0x3b05e983	0.0020433373
16	0x3d525e28	0.051359326
17	0x3d1646b8	0.036688536
18	0x3d8eac0f	0.06966411
19	0xbcf3f6bf	-0.029780744
20	0x3bb8e7a7	0.0056428495
21	0x3b88f129	0.004179139
22	0x3bba358c	0.005682653
23	0x3c21a522	0.009866031
24	0x3c913951	0.017727526
25	0xbbe1a2be	-0.0068858555
26	0xbc219ed5	-0.009864529
27	0xbc919885	-0.017772922
28	0xbd3c0039	-0.04589865
29	0x3c6b58f1	0.014364467
30	0xbc59ff45	-0.01330549
31	0xbb2e2028	-0.002656946
32	0x3ce227a7	0.027606798
33	0x3d86e3e1	0.06586433
34	0x3cf55f0b	0.029952547
35	0x3c2f4c85	0.010699396
36	0x38edf431	0.00011346525
37	0xbc71df28	-0.014762677
38	0x3c9ec66a	0.01938172
39	0xbcdfb62a	-0.027308542
40	0x3c894dd0	0.016760737
41	0xbc8cc193	-0.017182147
42	0x3c0a68e6	0.008447861
43	0x3c1dcf2e	0.009631915
44	0xbc53db80	-0.012930751
45	0xbc292e14	-0.010325927
46	0x3c53efa1	0.01293555
47	0xba81b6d1	-0.0009896402
48	0x3c0fa9b6	0.00876849
49	0x3d631d66	0.05544796
50	0xbd3c8b13	-0.04603107
51	0xba0b6c3c	-0.00053185574
52	0xbc8c277e	-0.017108675
53	0xbca7f5ce	-0.020502951
54	0x3b89714a	0.0041944133
55	0xbc25640e	-0.010094656
56	0x3c572b4c	0.013132881
57	0x3b2c7661	0.0026315677
58	0xbc51b3f7	-0.012799255
59	0x3b1f7185	0.0024329138
60	0x3ce70eb0	0.028205246
61	0x3d4eab4d	0.050456334
62	0x3cbb46eb	0.022860965
63	0x3c51ab2b	0.012797157
64	0x3a85ae13	0.0010198973
65	0x3bd334ad	0.0064454884
66	0xbc407867	-0.011747456
67	0xbd169683	-0.036764633
68	0xbc32cf68	-0.010913707
69	0xb9aadbec	-0.0003258878
70	0xb80f3769	-3.414546e-05
71	0x383e6b33	4.5399367e-05
72	0x3c2b79f4	0.010466088
73	0x3d35ab36	0.044352733
74	0xbc6ae328	-0.014336385
75	0xbcdd9eae	-0.027053203
76	0x3c0af9bd	0.008482394
77	0xbd4d553f	-0.050130125
78	0xbc94b321	-0.018151822
79	0xbc03a938	-0.00803595
80	0x3b5d8fcc	0.0033807633
81	0x3c4f8cab	0.012667815
82	0x3c0e3544	0.008679692
83	0xbaa933c1	-0.0012909101
84	0xbbfbd480	-0.007685244
85	0xbb3056ab	-0.0026907127
86	0x3cbfc52e	0.023409452
87	0x3b4d8890	0.0031361915
88	0xbc4896fb	-0.012243028
89	0xbd0303fd	-0.031986225
90	0xbd77a5af	-0.060460743
91	0xbadfa2ef	-0.0017062108
92	0xbcfac401	-0.03061104
93	0xbc64880d	-0.013948453
94	0x3c14238e	0.00904168
95	0x3c795844	0.015218798
96	0xbb21a055	-0.0024662216
97	0x3c7557d1	0.01497455
98	0x3c365aa7	0.011130012
99	0x3cfbbc71	0.030729504
100	0xbc2e1739	-0.010625654
101	0xbc7f1b8e	-0.015570534
102	0xba239d92	-0.00062414363
103	0x38f7f6c1	0.00011823839
104	0x3c912df8	0.017722115
105	0xbb0e27a4	-0.0021691108
106	0x3d179f86	0.037017368
107	0x3ba4c14f	0.005027927
108	0x3c993d34	0.018705942
109	0xbc9d5cd7	-0.019209309
110	0x3bb753ad	0.0055946917
111	0x3bae4f72	0.005319529
112	0xbd37aacb	-0.044840615
113	0x3c952244	0.018204816
114	0xbc2ae001	-0.010429383
115	0xbcc8cbc2	-0.024511222
116	0x3c352608	0.011056431
117	0xbd4357ba	-0.047691084
118	0x3b5e361b	0.003390676
119	0x3accd3dc	0.0015627104
120	0xbd2f2ed8	-0.042769283
121	0x3b3d4429	0.0028879738
122	0xbd85d35b	-0.065344535
123	0x3c1d13e6	0.009587264
124	0x3d0622c8	0.032748014
125	0xbb93f146	-0.004514846
126	0x3ca5b79e	0.020229157
127	0x3bbd0680	0.005768597
128	0x386e66f3	5.68395e-05
129	0xb95da8a7	-0.0002113903
130	0x3bc644cb	0.006050681
131	0x3c0586e4	0.008149836
132	0x3b559646	0.003259079
133	0x3be701d0	0.0070497766
134	0x3b9f34b5	0.004858578
135	0x3a0b6be2	0.0005318505
136	0xbc35026b	-0.01104794
137	0x3a60800e	0.00085640035
138	0x3d218688	0.03943494
139	0x3bdceea1	0.006742314
140	0xbd5f867a	-0.054571606
141	0x3cbd82ab	0.023133596
142	0x3d01f6fa	0.031729676
143	0xba3f3b2e	-0.000729489
144	0xbdb33180	-0.08749676
145	0xbd24eda7	-0.040265705
146	0x3cd085f9	0.025454508
147	0x3cbefdb0	0.023314327
148	0x3b3216be	0.00271742
149	0x3c52ea20	0.012873203
150	0x3aca0406	0.0015412576
151	0xbab01b06	-0.0013435788
152	0xbd2214da	-0.039570667
153	0xbc0cbe9d	-0.008590368
154	0x3d2c6eb3	0.04209776
155	0x3d295947	0.041344907
156	0x3c89852e	0.016787138
157	0x3aebe5fc	0.0017997618
158	0x3ae538ad	0.0017488204
159	0x3ae1bd87	0.0017222621
160	0xbb3b9150	-0.0028620549
161	0x3c02e06a	0.007988075
162	0xbc689998	-0.014196776
163	0xbcb91a8b	-0.022595664
164	0x3914ea2d	0.00014201617
165	0x3c8e0e3e	0.017340776
166	0x3c245d20	0.010031968
167	0x3afc2313	0.0019236527
168	0xbc99b4f3	-0.018763041
169	0x3d2e2554	0.042516068
170	0xbbf045e0	-0.0073325485
171	0x3d1f62ff	0.03891277
172	0xbc9ad18a	-0.018898744
173	0xbce2284b	-0.027607104
174	0x3b95215a	0.004551095
175	0x3b012227	0.0019704194
176	0xba33373d	-0.0006836539
177	0xbc3e8bdb	-0.011630024
178	0x3b6fa07f	0.003656417
179	0xbbfc83d6	-0.0077061458
180	0x3d1f31f1	0.038865987
181	0x3be2602f	0.0069084386
182	0x3b4e898d	0.0031515092
183	0x3c25acff	0.010112046
184	0xbca5a94d	-0.02022233
185	0xbd34c7a1	-0.044135693
186	0x3b447eed	0.002998288
187	0x3d04ff6c	0.03247015
188	0x3ae2cbe1	0.0017303192
189	0xbc137962	-0.009001108
190	0x3ba638f1	0.005072706
191	0x3b9fcea1	0.004876927
192	0xbbc8a042	-0.00612262
193	0xbd3c1249	-0.045915876
194	0xbd2189cc	-0.039438054
195	0xbb36d58d	-0.0027898282
196	0xbbdc0125	-0.0067140036
197	0x39fb838c	0.0004797246
198	0x38091916	3.268671e-05
199	0x35e0d568	1.675141e-06
200	0xbc6f9a71	-0.014624224
201	0xbc9a746c	-0.018854342
202	0x3b3433ee	0.0027496773
203	0x3d9bfaba	0.07616182
204	0xbc6ece7c	-0.014575597
205	0xbc48a6c5	-0.012246792
206	0xbb419dcd	-0.002954352
207	0xb91761b8	-0.00014436885
208	0xbd387d05	-0.045041103
209	0xbda34902	-0.079729095
210	0xba6a67a7	-0.0008941837
211	0x3d49bfa1	0.049255017
212	0xbc37bf67	-0.0112150675
213	0xbbf707c9	-0.00753877
214	0xbbacc103	-0.005272032
215	0xba09a705	-0.0005251023
216	0xbd293a71	-0.0413155
217	0xbd86371d	-0.06553481
218	0x3c189957	0.009313903
219	0x3ce78dc3	0.02826584
220	0x3b4d9824	0.00313712
221	0x3b8f2820	0.004368797
222	0xbaa17fc3	-0.0012321401
223	0xb99d3045	-0.00029981337
224	0x3a248914	0.000627653
225	0x3c8aa33b	0.016923537
226	0xbbeb96a7	-0.00718959
227	0x3b3eb6fa	0.0029100762
228	0xbbfb2d27	-0.0076652947
229	0xbb1789de	-0.0023122947
230	0x39f1b81b	0.0004610427
231	0x3849704f	4.802673e-05
232	0x3cc388fe	0.023869034
233	0xbc2c3bc1	-0.010512293
234	0xbd2b5cbe	-0.041836493
235	0xbd864f4c	-0.065580934
236	0xbc92e929	-0.017933445
237	0xbcb44514	-0.022005595
238	0xbb844c49	-0.004037414
239	0x3a104b3d	0.00055043754
240	0xbcb38362	-0.021913234
241	0xbca61823	-0.020275181
242	0x3ca8bd42	0.020598058
243	0x3cf25266	0.029580306
244	0xbd0e6a96	-0.034769617
245	0xbc93bb47	-0.018033637
246	0x39cb93cd	0.00038829297
247	0xb7ce8425	-2.4618648e-05
248	0x3c6e5f6e	0.014549119
249	0x3c8dfc24	0.017332144
250	0x3d0b4bae	0.03400772
251	0xbb387396	-0.0028145066
252	0xbc4275b9	-0.011868888
253	0x3b14cf40	0.0022706538
254	0x3b23d048	0.0024995971
255	0xba37ed30	-0.00070162397

bias f4 [128]
0	0xbd6e60ca	-0.058197774
1	0xbd48beff	-0.049010273
2	0xbcdff54b	-0.027338644
3	0xbd29f0ed	-0.04148953
4	0x3d458dcb	0.048230927
5	0xbd41e774	-0.04733987
6	0x8366f4ef	-6.7872095e-37
7	0xbd65eae8	-0.056132227
8	0xbdb6cb89	-0.0892554
9	0xbd84a7fa	-0.064773515
10	0xbb6d8ade	-0.0036246101
11	0x801a9a60	-2.443102e-39
12	0x859d157c	-1.4772101e-35
13	0xbb54728d	-0.003241691
14	0x838a1d50	-8.117641e-37
15	0xbcb47786	-0.02202965
16	0x3d38682f	0.045021232
17	0xbd510cf4	-0.051037744
18	0x8069cefc	-9.716979e-39
19	0xb99fffeb	-0.00030517517
20	0xbcc36b09	-0.02385475
21	0xbbb4f0f2	-0.005521887
22	0xbd50e387	-0.050998237
23	0x3b64afce	0.0034894827
24	0x800ae3f4	-1.000129e-39
25	0x8071d5a8	-1.0454056e-38
26	0x3ced4887	0.028965248
27	0x8026b904	-3.55612e-39
28	0x3c64b551	0.013959245
29	0xbd28f65c	-0.04125057
30	0xba6373b4	-0.0008676604
31	0x3b275365	0.0025531885
32	0x3b11cb9c	0.0022246605
33	0x8306e7a7	-3.9644985e-37
34	0x3a5bc5da	0.0008383669
35	0xbcd34480	-0.0257895
36	0x80041404	-3.74522e-40
37	0x83acb5d0	-1.01509935e-36
38	0xbccf6a1e	-0.025319155
39	0xbca35a5e	-0.019940551
40	0x3b3e2c68	0.0029018167
41	0x806e0148	-1.0102364e-38
42	0xbcbb3c11	-0.02285579
43	0xbba45b19	-0.0050157425
44	0x830478e1	-3.8930076e-37
45	0xbd07d7aa	-0.033164658
46	0xbcc46644	-0.023974545
47	0x8002aab4	-2.44908e-40
48	0x3b86f54d	0.0041185976
49	0xbcf1ac9a	-0.029501248
50	0x3d32c06f	0.04364055
51	0x8002ffa4	-2.75378e-40
52	0xbd8635ee	-0.06553255
53	0xbc1facea	-0.009745816
54	0xbb1bdbc2	-0.002378211
55	0xbd12fba9	-0.035884533
56	0x3b66a200	0.0035191774
57	0x3d519a77	0.0511727
58	0x3a822853	0.000993023
59	0x840930e8	-1.612673e-36
60	0x82367648	-1.3405193e-37
61	0x801ba690	-2.53931e-39
62	0x8005abe4	-5.2084e-40
63	0x3d1e7163	0.038682353
64	0xbadb93e4	-0.0016752449
65	0xbb498c37	-0.003075374
66	0x3b56d00b	0.0032777812
67	0xbd0dcbc4	-0.034618154
68	0x8002469c	-2.09001e-40
69	0x3a241fc1	0.0006260835
70	0xbcf308a5	-0.029667208
71	0x3d1422ce	0.036166005
72	0xbd8d26e9	-0.06892187
73	0x800a8cc8	-9.68858e-40
74	0xbcdbf652	-0.026850853
75	0x3ac44604	0.001497448
76	0x80f1c334	-2.220238e-38
77	0xbac2e682	-0.0014869722
78	0xbc299927	-0.010351456
79	0xbd6ee00d	-0.05831914
80	0x3b9c0fd5	0.0047626295
81	0xbc287003	-0.010280612
82	0xbd0961c5	-0.033540506
83	0x3bdd7641	0.0067584817
84	0xbb98bd15	-0.004661212
85	0xbaad6798	-0.0013229726
86	0xbc1ff0be	-0.009761987
87	0x3c099509	0.008397349
88	0x800807a4	-7.37425e-40
89	0x39fe6c3f	0.00048527305
90	0x3b88b61f	0.004172101
91	0x3d0b814e	0.03405886
92	0xbcc188f7	-0.02362488
93	0x80306288	-4.44345e-39
94	0xbdb60d1f	-0.088892214
95	0xbce5514f	-0.027992873
96	0x3b402793	0.0029320463
97	0x3cba5fc3	0.02275074
98	0x8009af08	-8.89309e-40
99	0x04002dfd	1.5067444e-36
100	0xbd0bda09	-0.03414348
101	0xbcc1bdba	-0.023650039
102	0x800d4964	-1.220189e-39
103	0xbc6d3536	-0.0144780185
104	0x3b9c777c	0.004774986
105	0xbd12d83b	-0.035850745
106	0x3d06789c	0.032829866
107	0x3d82cb8a	0.06386478
108	0x3a88cbad	0.0010436677
109	0xbc8a25d3	-0.01686374
110	0x3c6aeeeb	0.014339189
111	0x3d799463	0.06093253
112	0x3d31f8c2	0.043450125
113	0xbac43ebc	-0.001497231
114	0xbdd9b54b	-0.10630282
115	0x3db50711	0.088392384
116	0x8001ee0c	-1.7723e-40
117	0xbd98395a	-0.07432814
118	0x861aa5b0	-2.908591e-35
119	0x80021c8c	-1.93912e-40
120	0xbd0286bd	-0.031866778
121	0xbbf18a5c	-0.00737123
122	0x3b02bac3	0.0019947744
123	0xbb2736a9	-0.0025514758
124	0x8009d418	-9.02604e-40
125	0xbce86a1f	-0.028370915
126	0x820390f1	-9.665956e-38
127	0x3d185680	0.037191868

weight f4 [128, 128]
0	0xbcae377d	-0.021266693
1	0xbca0a897	-0.01961164
2	0xbcfa3635	-0.030543426
3	0xbc812c6f	-0.015768258
4	0x3cccdce0	0.025007665
5	0xbc396fc6	-0.011318153
6	0x01244e0a	3.0178033e-38
7	0xbcb5b181	-0.022179367
8	0xbce03eb4	-0.02737365
9	0xbcc421af	-0.023941843
10	0x3b42570f	0.0029653942
11	0x00006ae4	3.8345e-41
12	0x04cb4dc2	4.779648e-36
13	0x3c8a349f	0.016870795
14	0x82e91f86	-3.4254367e-37
15	0xbcddffb8	-0.027099475
16	0x3cf20f4c	0.02954831
17	0xbcc8658a	-0.02446248
18	0x003178dc	4.543295e-39
19	0x3cc53722	0.024074141
20	0xbca8ff8d	-0.020629669
21	0xbc55978e	-0.013036622
22	0xbc5e889f	-0.013582378
23	0x3cb8249b	0.022478392
24	0x00028728	2.32156e-40
25	0x00238f18	3.265575e-39
26	0x3cecbf40	0.028899789
27	0x00003ac4	2.1081e-41
28	0x3cd6432e	0.02615508
29	0xbca253e5	-0.019815395
30	0xbcb83449	-0.022485869
31	0x3c4decc4	0.012568656
32	0x3cf5b628	0.029994085
33	0x8109fda6	-2.534491e-38
34	0x3af3f864	0.0018613455
35	0x3c25b39c	0.010113623
36	0x0000ab74	6.1506e-41
37	0x834034bc	-5.6484265e-37
38	0x3ce0133c	0.027352922
39	0xbc2e78a5	-0.010648881
40	0x3c0a012f	0.008423134
41	0x8004f09c	-4.53656e-40
42	0xbc4b9f14	-0.012428064
43	0x3c554c56	0.013018688
44	0x021a4977	1.1335217e-37
45	0xbc8b009f	-0.01696807
46	0xbc45c55d	-0.012070981
47	0x800003d8	-1.379e-42
48	0xbc9214e7	-0.017832233
49	0xbcb89db3	-0.022536134
50	0x3cae92d5	0.02131025
51	0x00007f40	4.5649e-41
52	0xbc287fa4	-0.010284338
53	0xbc769b39	-0.015051656
54	0x3cd919d5	0.026501575
55	0xbce29953	-0.027661001
56	0x3aaa2022	0.0012979547
57	0x3cce01ac	0.025147282
58	0xbc8eb81d	-0.017421776
59	0x82a6aab9	-2.4489498e-37
60	0x01ca1dc3	7.4245787e-38
61	0x00003f5c	2.2729e-41
62	0x00028ee0	2.34925e-40
63	0x3cf6e50f	0.03013852
64	0x3d01116f	0.031510767
65	0x3bde710a	0.0067883777
66	0xbc911ff8	-0.01771544
67	0x3cf2278f	0.029559879
68	0x80002cbc	-1.6048e-41
69	0x3d1b4068	0.03790322
70	0xbc47a822	-0.012186082
71	0x3cb89c12	0.022535358
72	0xbc08c2f5	-0.008347263
73	0x0001a9c0	1.5273e-40
74	0xbc52868f	-0.012849464
75	0xbc5b2e88	-0.013377793
76	0x0008f270	8.21654e-40
77	0xbc9902ee	-0.018678155
78	0x3cc96478	0.02458404
79	0xbcd47917	-0.025936646
80	0xbc691a92	-0.014227526
81	0x3b9676dd	0.0045918063
82	0xbcc8625c	-0.024460964
83	0xbca669ca	-0.020314116
84	0x3b447d4f	0.0029981916
85	0x3c0618a5	0.008184587
86	0x3c94c24c	0.018159054
87	0x3cc49555	0.023996988
88	0x00008098	4.6131e-41
89	0x3c33a09f	0.010963588
90	0x3d081e5e	0.033232085
91	0x3ce147d6	0.027500074
92	0xbc884333	-0.016633606
93	0x80005dd8	-3.3665e-41
94	0xbcb05711	-0.021525891
95	0xbcb592bf	-0.0221647
96	0xbcb8fb0c	-0.022580646
97	0x3cee2b41	0.02907336
98	0x80006c64	-3.8883e-41
99	0x03201452	4.70431e-37
100	0xbc59f0e6	-0.013302064
101	0xbc2b596a	-0.01045833
102	0x8001b770	-1.5764e-40
103	0xbce43550	-0.027857453
104	0x3b21c635	0.002468479
105	0xbcfee98e	-0.031117227
106	0x3ccf37c9	0.025295155
107	0x3ce6b685	0.028163204
108	0x3d07cd53	0.033154797
109	0xbc38fee4	-0.011291239
110	0xbc4c6bff	-0.01247692
111	0x3ccd373c	0.025050752
112	0x3cca4cbf	0.024694799
113	0x3bc5cb01	0.006036163
114	0xbcaef9ad	-0.021359289
115	0x3cb8e2e6	0.022569131
116	0x00003270	1.8094e-41
117	0xbcea8ba2	-0.028631035
118	0x03248274	4.834502e-37
119	0x8000b274	-6.4017e-41
120	0xbca0a0ae	-0.019607868
121	0xbc892ee0	-0.016745985
122	0xbb933025	-0.0044918233
123	0xbc1f65ee	-0.009728892
124	0x800000f0	-3.36e-43
125	0xbcb5fb2e	-0.022214498
126	0x00ff48bc	2.3444144e-38
127	0x3ce260bc	0.027634017
128	0x3c4c3420	0.012463599
129	0x3c0414f3	0.008061635
130	0x3becfeef	0.007232539
131	0x3be142d8	0.0068744235
132	0x3c326fde	0.010890929
133	0x3cc62549	0.0241877
134	0x80b28708	-1.6395158e-38
135	0x3bfd2ea7	0.0077265087
136	0x3c07a23f	0.008278429
137	0xba51ce44	-0.0008003453
138	0x3c5cb411	0.013470666
139	0x8000212c	-1.19e-41
140	0x034f3913	6.089735e-37
141	0x3c7f752a	0.015591899
142	0x02748bbb	1.796639e-37
143	0x3c13ed83	0.009028795
144	0xba29bbdb	-0.0006474831
145	0x3a7e392f	0.0009697852
146	0x0018039c	2.205347e-39
147	0x3bff085a	0.007782978
148	0x3bf3455c	0.0074240398
149	0x3b47740f	0.0030434167
150	0x3ca445bf	0.020052789
151	0x3c89462d	0.016757095
152	0x80009ea8	-5.6915e-41
153	0x0001164c	9.9834e-41
154	0x3c6056b8	0.01369255
155	0x80007f40	-4.5649e-41
156	0x3b0cbddd	0.0021475472
157	0xba4b475b	-0.0007754468
158	0x3b4b9e25	0.0031069603
159	0x3c5ec626	0.013597047
160	0x3b1a107d	0.0023508363
161	0x0128fbee	3.1037477e-38
162	0x3cabbc38	0.020963773
163	0x3ca9a730	0.020709604
164	0x000035ac	1.9254e-41
165	0x8118cbdc	-2.8064253e-38
166	0x3c1c8ff9	0.00955581
167	0x3c81734c	0.015802048
168	0x3cbba7f4	0.022907235
169	0x8001ad00	-1.53896e-40
170	0x3c401086	0.0117226895
171	0x3c9d82d2	0.019227419
172	0x001a45cc	2.412761e-39
173	0x3c88b0e5	0.016685912
174	0x3c904243	0.017609721
175	0x800032bc	-1.82e-41
176	0x3c7802cd	0.0151373865
177	0x3bf9b6aa	0.007620652
178	0x3c0a7268	0.008450128
179	0x80003780	-1.991e-41
180	0x3c6c0181	0.014404655
181	0x3c529ab2	0.012854265
182	0x3ab2ba57	0.0013635856
183	0xbabc90bb	-0.0014386395
184	0xbc8f6836	-0.017505746
185	0x3c91a64a	0.017779488
186	0x3a203e4b	0.0006112798
187	0x80911e60	-1.3327043e-38
188	0x006939f8	9.663522e-39
189	0x80003158	-1.7701e-41
190	0x80001910	-8.991e-42
191	0xba8f7358	-0.0010944409
192	0x3b3db562	0.0028947224
193	0x3c38645b	0.011254395
194	0x3c58f3a2	0.01324168
195	0xbb9407f8	-0.0045175515
196	0x8000a2c0	-5.8384e-41
197	0xbb138a7d	-0.0022512965
198	0x3c915dd9	0.017744945
199	0xbb945cae	-0.00452765
200	0x3c7c018c	0.015381228
201	0x00005998	3.214e-41
202	0x3c8cad1f	0.017172394
203	0xbc055bbb	-0.008139546
204	0x00120e38	1.65814e-39
205	0x3c84efbb	0.016227594
206	0xba65cd60	-0.000876626
207	0x3c375d93	0.011191743
208	0x3cadc402	0.021211628
209	0x3ca572fe	0.020196434
210	0x3aff9265	0.0019498585
211	0xbaedd69c	-0.0018145624
212	0x3c863cd0	0.01638642
213	0x3c84f28e	0.01622894
214	0x3ca5d898	0.020244882
215	0x3bdce291	0.006740876
216	0x00007278	4.1064e-41
217	0x3c5692b8	0.013096504
218	0x3b3dc366	0.0028955578
219	0x3ba3e48d	0.0050016106
220	0x3c659f11	0.014014975
221	0x0000cd28	7.3596e-41
222	0x3bb35c44	0.0054736454
223	0x3a9ff285	0.0012203014
224	0x3c290203	0.010315421
225	0x3bae1a65	0.005313205
226	0x80002628	-1.3688e-41
227	0x84348c3a	-2.1223287e-36
228	0x3c5636c9	0.013074585
229	0x3c82d7ec	0.0159721
230	0x800067fc	-3.7303e-41
231	0x3b9c107f	0.0047627087
232	0xbc82ec74	-0.01598189
233	0xbab88763	-0.0014078434
234	0x3b90c304	0.004417779
235	0xbc2733cb	-0.0102052195
236	0x3b3b07bc	0.0028538546
237	0x3c5491b2	0.01297419
238	0xbbcfac65	-0.0063376897
239	0x3b021861	0.0019850957
240	0x3c70aa01	0.01468897
241	0x3c1ee66e	0.009698493
242	0x3c6f3122	0.0145991165
243	0x39a82115	0.00032068105
244	0x8000500c	-2.8715e-41
245	0xbb3a9cf9	-0.002847491
246	0x03df3583	1.3119048e-36
247	0x00009fc8	5.7319e-41
248	0x3bdbe97c	0.006711183
249	0x3b84479c	0.004036857
250	0x3cc54d2d	0.024084652
251	0xbc1efb3c	-0.009703454
252	0x8000b2bc	-6.4118e-41
253	0x3bcd3fdd	0.0062637166
254	0x8003d87c	-3.53166e-40
255	0x3b6564b2	0.0035002646

bias f4 [128]
0	0x3be6cb4b	0.0070432774
1	0xbb4ce635	-0.0031265144
2	0xbb378f2a	-0.0028008916
3	0xbbe97f6c	-0.0071257856
4	0xbb2d063c	-0.002640142
5	0x3bc87dc3	0.0061185076
6	0x39b5e4d0	0.0003469349
7	0xbbc0be7a	-0.0058820816
8	0xbb01d800	-0.0019812584
9	0xbb458cbf	-0.0030143706
10	0xbbaa65a8	-0.0052001067
11	0xbb0fb5ff	-0.0021928546
12	0x3be6f59d	0.0070483224
13	0xbb4bd4a6	-0.003110209
14	0x3bda7704	0.00666702
15	0x3b296d70	0.0025852583
16	0x3b46f3ee	0.0030357796
17	0xbbd38536	-0.006455089
18	0xbbd00d1e	-0.00634922
19	0xbb664fe5	-0.0035142836
20	0x3a404bd5	0.00073355186
21	0x3bd40cef	0.0064712684
22	0xbbdeb56c	-0.0067965295
23	0xbbeb7d38	-0.007186558
24	0x3ac01215	0.0014653826
25	0x3b73c7be	0.0037197913
26	0xbbd8d0af	-0.006616674
27	0x3bdad840	0.006678611
28	0x3b544c86	0.0032394244
29	0xbb58c683	-0.0033077307
30	0x3bc232d9	0.0059264717
31	0xbb537da8	-0.0032270942
32	0xbb845e90	-0.004039593
33	0xbb3a6d12	-0.0028446359
34	0xbb3d5383	-0.0028888888
35	0xbafe7848	-0.0019414509
36	0x3b388be3	0.002815955
37	0xbbe51fbd	-0.006992309
38	0xbb72a0c5	-0.0037022096
39	0x3b3d5c17	0.0028894
40	0x3b916982	0.0044376263
41	0x3be0bbf5	0.0068583437
42	0x3b27bd8f	0.0025595163
43	0x3be2f50b	0.006926184
44	0x3be71a0e	0.0070526665
45	0xbb25095e	-0.0025182585
46	0x3be94076	0.00711828
47	0xbb4b6b03	-0.0031039126
48	0x3b85f8e5	0.0040885084
49	0x3b814713	0.0039452403
50	0x3b493dd5	0.003070702
51	0x3b807b54	0.003920952
52	0x3b59c361	0.0033228027
53	0x3bda8bd8	0.0066695027
54	0x3b42eafc	0.0029742112
55	0x3b2c34cb	0.0026276584
56	0x3b448600	0.0029987097
57	0xbb97917b	-0.004625497
58	0x3b1fc2b6	0.0024377531
59	0xbb420113	-0.002960269
60	0x3be04439	0.0068440703
61	0x3a170dd2	0.0005762252
62	0x3a1458bd	0.0005658975
63	0xbbccc2ce	-0.0062488085
64	0xbb1dd1a3	-0.0024081252
65	0x3b2e94ba	0.002663894
66	0x3be28a1a	0.0069134356
67	0x3b947267	0.0045302394
68	0x3b37ce64	0.0028046602
69	0xbb2bd09b	-0.0026216868
70	0xbbe5c53c	-0.0070120376
71	0xbbd4d8b7	-0.006495561
72	0xbb898757	-0.004197042
73	0x3bd4f577	0.0064989883
74	0x3be33a1e	0.0069344183
75	0x3b3d6a5f	0.0028902513
76	0x3b299625	0.0025876847
77	0xbbd62eaa	-0.0065363245
78	0xbb3a6645	-0.0028442305
79	0x3b3b7873	0.002860573
80	0x3be6bacf	0.0070413123
81	0xbb2ae5bd	-0.0026076876
82	0xbb16eb00	-0.0023028255
83	0x3bda0bdd	0.0066542462
84	0xbbe93fec	-0.007118216
85	0x3a547120	0.0008104015
86	0xbb8c3571	-0.0042788316
87	0x3b39339b	0.002825952
88	0xbb3df476	-0.0028984821
89	0xbbac48ac	-0.0052576866
90	0x3b4c981f	0.00312186
91	0x3b4a015d	0.0030823566
92	0xbbe8af65	-0.007100987
93	0xbbaf6365	-0.005352425
94	0x3b2e07ec	0.0026555015
95	0x3b312669	0.002703095
96	0xbbd5e28a	-0.0065272497
97	0x3b8558ff	0.004069447
98	0x3be5593e	0.006999164
99	0xbbe9cf6a	-0.0071353214
100	0xbbea6080	-0.007152617
101	0xbb48c855	-0.0030636985
102	0xbb62b1ff	-0.0034590957
103	0xbb38e6f4	-0.002821383
104	0x3b2d992d	0.0026489005
105	0x3b3d0f88	0.0028848369
106	0xbb318f99	-0.0027093648
107	0xbbe8dcd3	-0.0071064024
108	0xbbdf587f	-0.0068159695
109	0x3b50f83d	0.0031886243
110	0xbbd428a0	-0.0064745694
111	0xbb8b7f44	-0.0042571146
112	0xbb3266ee	-0.0027221995
113	0xbb585fe3	-0.0033016137
114	0xbbe46da9	-0.0069710803
115	0xb96ba2cf	-0.00022471997
116	0xbbe96d37	-0.007123615
117	0xbb4edf04	-0.0031566033
118	0xbbdab5d4	-0.0066745076
119	0x3b45a218	0.003015643
120	0x3be9a97a	0.007130799
121	0xbba822e8	-0.0051311143
122	0x3b3795d9	0.00280129
123	0x3ada96fe	0.0016677079
124	0xbbd50962	-0.0065013627
125	0xbbe9e4c7	-0.007137868
126	0xbb8cb559	-0.0042940793
127	0xbbe972ed	-0.007124296

weight f4 [128, 146]
0	0xbb82135c	-0.003969593
1	0x3a523c87	0.00080198835
2	0x3a5fcfbf	0.00085377315
3	0x3b757e61	0.003745936
4	0x3a616f07	0.0008599613
5	0xbb9c0cdc	-0.004762275
6	0x3a83dab8	0.001005969
7	0x3b1d9ab9	0.002404852
8	0x3a6b5f7d	0.00089787674
9	0x3a5af53a	0.00083525816
10	0x3baf4fee	0.0053501045
11	0xbab90164	-0.0014114794
12	0xbb7bbaa7	-0.0038410814
13	0x3a54ffb4	0.0008125261
14	0xbb39c45e	-0.0028345804
15	0xba6313f2	-0.0008662335
16	0xba5a169a	-0.0008319408
17	0x3b9419c6	0.004519674
18	0x3b2c21f3	0.0026265352
19	0x3a50d162	0.0007965771
20	0xba7c6d1d	-0.0009629296
21	0xbb318863	-0.002708935
22	0x3b8acf05	0.0042361044
23	0x3b6780cf	0.0035324579
24	0xba971fe9	-0.0011529896
25	0xbab10ec5	-0.001350843
26	0x3b38051d	0.002807922
27	0xbb392910	-0.0028253235
28	0xba56201a	-0.00081682357
29	0x3a5548ae	0.00081361353
30	0xbba0312a	-0.0048886733
31	0x3a567b4b	0.0008181824
32	0x3ac2b5ee	0.0014855245
33	0x3a57b4e0	0.00082285516
34	0x3a5d93ed	0.00084525236
35	0x3a9b4ac4	0.0011847843
36	0xba5f9cdf	-0.00085301505
37	0x3b4f5007	0.0031633393
38	0x3a4b0c79	0.0007745694
39	0xba5834ab	-0.0008247594
40	0xbbbd7e6e	-0.005782894
41	0xbb86bbfc	-0.004111765
42	0xba63a3b0	-0.0008683754
43	0xbb490739	-0.003067447
44	0xbb52f705	-0.0032190692
45	0x3a5ecd97	0.0008499263
46	0xbb5f1d1b	-0.0034044448
47	0x3a51e725	0.00080071605
48	0xba41e7c7	-0.0007396903
49	0xba42c8c5	-0.00074304297
50	0xba59e99c	-0.00083127036
51	0xbabb2395	-0.0014277572
52	0xbaa4083f	-0.0012514665
53	0xbb3a0a8b	-0.0028387632
54	0xba56314e	-0.0008170799
55	0xba61b418	-0.0008609905
56	0xbaa09a55	-0.0012253026
57	0x3a382466	0.0007024467
58	0xba64e995	-0.0008732316
59	0x3a55c6b7	0.0008154916
60	0xbb42c62e	-0.0029720175
61	0x3a848a1d	0.0010111962
62	0xba7ee8e8	-0.0009724037
63	0x3b29c0d8	0.0025902297
64	0x3a9f3620	0.0012146868
65	0xba60ebfb	-0.00085800857
66	0xbb85d97d	-0.0040847645
67	0xbae44b29	-0.0017417419
68	0xba59935a	-0.000829985
69	0x3a6220dc	0.0008626112
70	0x3b805049	0.0039158207
71	0x3b92b5d3	0.0044772415
72	0x3a44648d	0.000749179
73	0xbb92ab7d	-0.0044760094
74	0xbb8373eb	-0.0040116212
75	0xba5cc30f	-0.00084214
76	0xba62d079	-0.00086522807
77	0x3b343972	0.002750006
78	0x3a5925d7	0.00082835316
79	0xba5ecb88	-0.00084989564
80	0xbb51a3e8	-0.0031988565
81	0x3a62b51d	0.0008648204
82	0x3a6238d6	0.0008629685
83	0xbb380bb2	-0.0028083143
84	0x3b70f40e	0.0036766562
85	0xba7c26d4	-0.0009618823
86	0x3a3f41e5	0.0007295891
87	0x3b189cfb	0.0023286927
88	0x3aa0d200	0.0012269616
89	0x3b099dfe	0.0020998712
90	0xba584906	-0.00082506274
91	0xba5957e3	-0.0008290989
92	0x3b79712b	0.0038061838
93	0x3bac5adc	0.0052598547
94	0xba6266b8	-0.0008636522
95	0xba60027b	-0.00085452915
96	0x3b91e0a1	0.0044518267
97	0xba427850	-0.00074184407
98	0xbb4dba6f	-0.003139164
99	0x3b670152	0.003524859
100	0x3b5f3533	0.0034058809
101	0x3a598e65	0.00082991115
102	0x3a51d363	0.00080042164
103	0x3a5ad7c3	0.0008348191
104	0xba61309f	-0.0008590314
105	0xba5de4d6	-0.000846458
106	0x3a61c32a	0.00086121506
107	0x3b735dd8	0.0037134793
108	0x3b40b1ba	0.0029402808
109	0xba4ea892	-0.00078833953
110	0x3b935472	0.0044961507
111	0x3ad0c659	0.0015928253
112	0x3a61067f	0.0008584037
113	0x3aa3af89	0.0012488227
114	0x3b81b9e6	0.0039589284
115	0x3a81b2fe	0.0009895263
116	0x3b6f4745	0.0036510986
117	0x3a53b8a4	0.0008076525
118	0x3b38fed1	0.0028228054
119	0xba59280f	-0.0008283862
120	0xbb63dc1c	-0.0034768647
121	0x3b063407	0.0020477788
122	0xba5b1835	-0.0008357794
123	0x3a96a9c9	0.0011494692
124	0x3b929707	0.0044735703
125	0x3b72e4a1	0.0037062543
126	0x3a3bb567	0.0007160515
127	0x3b60badc	0.0034291064
128	0xbb150617	-0.0022739226
129	0xbb785eff	-0.003789842
130	0x3aefcf37	0.0018296008
131	0xbb8fca7e	-0.0043881526
132	0xba24f390	-0.0006292397
133	0x3a8df3fc	0.0010830159
134	0x3b519200	0.0031977892
135	0x3b2440d9	0.0025063066
136	0x3b0d87ad	0.0021595762
137	0xbb8eb5b9	-0.004355159
138	0xbba18900	-0.0049296618
139	0x3b28c30f	0.002575103
140	0xbbc05d0d	-0.0058704675
141	0xbaff04d3	-0.0019456394
142	0x3b1b8653	0.0023731187
143	0x3b79fd66	0.0038145422
144	0x3b39e28f	0.00283638
145	0x3a45d090	0.0007546032
146	0x3d1a99f6	0.037744485
147	0xbc9d572c	-0.019206606
148	0xbc9c70a0	-0.019096673
149	0xbd14e410	-0.03635031
150	0xbc9aa9e8	-0.018879846
151	0x3d303912	0.043023176
152	0xbc797a2f	-0.015226885
153	0xbcebd9fa	-0.028790463
154	0xbc95dd53	-0.018294012
155	0xbc9e0e1e	-0.019293841
156	0xbd411bca	-0.047145642
157	0x3c4a8f58	0.012363277
158	0x3d176148	0.03695801
159	0xbc9dddb6	-0.01927076
160	0x3cfe4fa2	0.031043831
161	0x3c9a669d	0.018847758
162	0x3c9e1ea1	0.019301714
163	0xbd296e4c	-0.041364953
164	0xbcf51b46	-0.029920232
165	0xbca25915	-0.019817868
166	0x3c8b7602	0.017024044
167	0x3cf8caf1	0.030370208
168	0xbd21afaa	-0.039474167
169	0xbd0f82f3	-0.035036992
170	0x3c9c7056	0.019096535
171	0x3cbe8261	0.023255529
172	0xbcfd2bcc	-0.030904673
173	0x3cfdd3c0	0.03098476
174	0x3ca01abf	0.019544004
175	0xbca0bcd7	-0.019621296
176	0x3d33cb4c	0.04389505
177	0xbc9feae4	-0.019521184
178	0xbcc626e2	-0.024188463
179	0xbc9acbb5	-0.018895963
180	0xbc9d1125	-0.019173214
181	0xbca1b1a0	-0.019738019
182	0x3c9c97e0	0.019115388
183	0xbd06b731	-0.03288955
184	0xbca32d66	-0.019919109
185	0x3c9b916d	0.018990243
186	0x3d4dfb1f	0.050288316
187	0x3d1e7456	0.038685165
188	0x3c9a3522	0.018824164
189	0x3d047a48	0.03234318
190	0x3d07ff70	0.03320259
191	0xbc985cf0	-0.018599004
192	0x3d0c775d	0.03429352
193	0xbc9cf68a	-0.019160528
194	0x3ca4e4c6	0.020128619
195	0x3ca3aca7	0.019979788
196	0x3c9eb2e0	0.019372404
197	0x3cc31bab	0.023816904
198	0x3cb5dedf	0.022201
199	0x3cfe8080	0.031067133
200	0x3c9c3ec7	0.019072903
201	0x3c9a91af	0.018868295
202	0x3cb01c19	0.021497773
203	0xbca69591	-0.02033499
204	0x3c98f0d3	0.018669521
205	0xbc9beed1	-0.019034775
206	0x3d0240db	0.031800132
207	0xbc720099	-0.01477065
208	0x3c8996ed	0.0167956
209	0xbcf3aabe	-0.029744502
210	0xbca75c71	-0.020429822
211	0x3c9ad4ba	0.018900264
212	0x3d1dafaf	0.038497623
213	0x3cd1524f	0.025551943
214	0x3c9ac041	0.018890502
215	0xbc9a9a6a	-0.018872458
216	0xbd19502e	-0.03742998
217	0xbd284a05	-0.041086216
218	0xbca6aba3	-0.020345515
219	0x3d284001	0.041076664
220	0x3d1bd54f	0.038045224
221	0x3c9cc11e	0.019135054
222	0x3c9a597a	0.018841494
223	0xbcfa9741	-0.030589702
224	0xbc9b2f35	-0.018943409
225	0x3c9d0061	0.01916522
226	0x3d0783e0	0.03308475
227	0xbc9a98e8	-0.01887174
228	0xbc96c0b9	-0.018402444
229	0x3cfd134f	0.030892996
230	0xbd1332d2	-0.035937138
231	0x3c8c723a	0.017144311
232	0xbca5ea1b	-0.020253232
233	0xbc647d6e	-0.01394592
234	0xbcaec169	-0.02133246
235	0xbcdf5e70	-0.027266711
236	0x3c9f0226	0.019410204
237	0x3c9eb6d7	0.019374294
238	0xbd166e92	-0.03672654
239	0xbd3e7b33	-0.04650421
240	0x3c9b27ca	0.018939871
241	0x3c9b1e2b	0.018935284
242	0xbd2793d1	-0.040912453
243	0x3ca4d8a5	0.020122835
244	0x3d061d44	0.032742754
245	0xbd0f6a59	-0.03501353
246	0xbd0c71bf	-0.034288164
247	0xbc9e64e2	-0.019335214
248	0xbca1e3e5	-0.019761989
249	0xbc9b5476	-0.018961173
250	0x3c9ab687	0.018885864
251	0x3c9d1cac	0.01917871
252	0xbc9bb2a9	-0.01900609
253	0xbd141ebc	-0.036162123
254	0xbd0185fd	-0.03162192
255	0x3c9d4a48	0.01920046

bias f4 [128]
0	0x3ba5ace8	0.0050560124
1	0xb830f6dd	-4.219158e-05
2	0x87d4e876	-3.2034843e-34
3	0x3c866325	0.016404698
4	0x000041f4	2.366e-41
5	0x39811cf9	0.00024626384
6	0x8008b218	-7.98572e-40
7	0x8005fa1c	-5.489e-40
8	0x9ce729e9	-1.5297131e-21
9	0x80017bbc	-1.36223e-40
10	0x3ba56362	0.0050472477
11	0x80002b6c	-1.5577e-41
12	0x3a9a76f9	0.0011784724
13	0x3bafcab9	0.0053647426
14	0x883d15dc	-5.6900814e-34
15	0x3ab97c1b	0.0014151366
16	0xb870ed93	-5.7441717e-05
17	0x0000122c	6.519e-42
18	0x8000fe70	-9.1275e-41
19	0x806eab74	-1.016341e-38
20	0x8002fb14	-2.73741e-40
21	0x00001828	8.666e-42
22	0x00004580	2.4932e-41
23	0xbabafb8d	-0.0014265642
24	0xba871ba6	-0.0010307922
25	0x85fb0368	-2.3605178e-35
26	0x3c67ba71	0.014143572
27	0x3cb0a4ad	0.021562899
28	0x8efef7b0	-6.285435e-30
29	0x00006918	3.77e-41
30	0x89fe7f5d	-6.1268048e-33
31	0x3c1a3a52	0.009413319
32	0x80032f10	-2.9239e-40
33	0x800046bc	-2.5375e-41
34	0x95cc14cc	-8.2427756e-26
35	0x3c13a486	0.009011393
36	0x92866ca3	-8.48337e-28
37	0x39bf05a9	0.00036434576
38	0x85104ae6	-6.784604e-36
39	0x3b10ab4c	0.0022074757
40	0x39886743	0.00026016877
41	0x825e2195	-1.6319622e-37
42	0x8d293826	-5.214473e-31
43	0x3c56b443	0.013104501
44	0x3bdfea4c	0.0068333503
45	0x3cb8b2f8	0.022546276
46	0x000088f4	4.913e-41
47	0x8078b154	-1.1083873e-38
48	0x801dacf0	-2.725268e-39
49	0x8921dd60	-1.948376e-33
50	0x80105ecc	-1.503375e-39
51	0x8b10dd39	-2.789982e-32
52	0x80039174	-3.27685e-40
53	0x806967cc	-9.679962e-39
54	0x3cce705d	0.025200063
55	0x3b61ac04	0.0034434805
56	0x800073d0	-4.1546e-41
57	0x80008dc0	-5.085e-41
58	0x862d6cf1	-3.261772e-35
59	0x84605265	-2.6368907e-36
60	0x8d5c19de	-6.782387e-31
61	0x8188150b	-4.9988705e-38
62	0x96b9406f	-2.9929025e-25
63	0x85d8c3f2	-2.0384521e-35
64	0x80007f20	-4.5604e-41
65	0x800474cc	-4.09241e-40
66	0x80019428	-1.44984e-40
67	0x86551da9	-4.0082638e-35
68	0x3c3214cf	0.010869219
69	0x803e44bc	-5.718458e-39
70	0xb8326047	-4.2528172e-05
71	0x00000894	3.077e-42
72	0x3c56ddcd	0.013114405
73	0x3c3ebfbf	0.0116423955
74	0x8f124d03	-7.213188e-30
75	0x8012a078	-1.710604e-39
76	0xba932627	-0.001122658
77	0x3c1a597b	0.009420748
78	0x80055524	-4.8972e-40
79	0x802e6ed0	-4.264185e-39
80	0xbb4a0c33	-0.0030830025
81	0x000008f4	3.212e-42
82	0xb7caf91e	-2.419628e-05
83	0x0000ab14	6.1371e-41
84	0x3ccd6ccd	0.025076294
85	0x80047700	-4.10031e-40
86	0x80007808	-4.3059e-41
87	0xbaaf61e7	-0.0013380618
88	0x806035fc	-8.835574e-39
89	0x80001114	-6.126e-42
90	0x80002288	-1.2387e-41
91	0xbc0e1f0e	-0.008674396
92	0x3b09d548	0.0021031667
93	0x00000d34	4.736e-42
94	0x8f8787ed	-1.3364384e-29
95	0x3c67bf11	0.014144675
96	0x83207c43	-4.716242e-37
97	0x36df5f28	6.6569955e-06
98	0x824e5a01	-1.516032e-37
99	0x836c0bb9	-6.9367624e-37
100	0x800152c4	-1.21526e-40
101	0x3a06ae1c	0.00051376387
102	0x8026d3a4	-3.565671e-39
103	0x8b37889a	-3.5347286e-32
104	0x87a00b31	-2.4080702e-34
105	0x3b1c29cc	0.0023828624
106	0x8006a558	-6.10327e-40
107	0x804e63fc	-7.199036e-39
108	0x3ba17c5c	0.004928155
109	0xb9d6d959	-0.00040979197
110	0x82da40d6	-3.2069435e-37
111	0x80196234	-2.331116e-39
112	0x86b5f70b	-6.844763e-35
113	0x3b9b8b65	0.0047468417
114	0x3b22773e	0.0024790312
115	0x80008854	-4.8905e-41
116	0x0000acdc	6.201e-41
117	0xb68eccbe	-4.255765e-06
118	0x8072d3ec	-1.054527e-38
119	0x854fd959	-9.773014e-36
120	0x3bcd6784	0.0062684435
121	0x3884f4be	6.339837e-05
122	0xb9229f56	-0.00015508881
123	0x00007758	4.2812e-41
124	0x3abfaee0	0.001462426
125	0x8079f1dc	-1.1198858e-38
126	0x3c0aff6e	0.008483751
127	0x3c309e73	0.010779965

weight f4 [19, 128]
0	0x3afbf19e	0.0019221788
1	0x3cf7b5f1	0.030238124
2	0x8c409148	-1.4834861e-31
3	0xbd8cec43	-0.06881001
4	0x80339250	-4.736097e-39
5	0xb9e70aa2	-0.00044067675
6	0x80145514	-1.86723e-39
7	0x80001f6c	-1.1272e-41
8	0x9d123199	-1.934858e-21
9	0x00004f04	2.8345e-41
10	0x3b6feb7a	0.003660886
11	0x0257402b	1.5814121e-37
12	0xbb7f363c	-0.0038942238
13	0x395d8e57	0.00021129228
14	0x0714f262	1.1205512e-34
15	0xbb585530	-0.003300976
16	0x3ce36e57	0.027762575
17	0x80004eec	-2.8312e-41
18	0x8132f2ac	-3.2867545e-38
19	0x05925357	1.3760388e-35
20	0x0120b1da	2.951496e-38
21	0x00000d2c	4.725e-42
22	0x8000b248	-6.3955e-41
23	0x3828851c	4.017829e-05
24	0xb946eaab	-0.00018970172
25	0x07162dd8	1.1298218e-34
26	0xbd8a86b3	-0.06763973
27	0x3ceb4b7f	0.028722523
28	0x8f7706d0	-1.2179352e-29
29	0x80008df4	-5.0923e-41
30	0x090b4cb2	1.6767578e-33
31	0xbd188483	-0.037235748
32	0x00008958	4.927e-41
33	0x00019d58	1.4828e-40
34	0x9b12c287	-1.2139692e-22
35	0xbbeedb13	-0.0072892993
36	0x93e2a826	-5.7216228e-27
37	0x3d25ef04	0.040511146
38	0x05899829	1.2939313e-35
39	0xbac32b05	-0.001489014
40	0xb9368641	-0.00017406886
41	0x01b52db8	6.65545e-38
42	0x8e168331	-1.8552094e-30
43	0xbd590a88	-0.05298856
44	0xbd0ca26b	-0.03433458
45	0x3d36be6e	0.0446152
46	0x00014c5c	1.19228e-40
47	0x80f82eb4	-2.2791957e-38
48	0x00006b4c	3.8491e-41
49	0x8dc681be	-1.2233926e-30
50	0x8004b6f0	-4.32968e-40
51	0x0b19c499	2.9614632e-32
52	0x0011be33	1.629434e-39
53	0x8513cf86	-6.950023e-36
54	0xbd1677f4	-0.03673549
55	0x3aa20a82	0.0012362751
56	0x80025fa4	-2.1798e-40
57	0x0006eb0c	6.35332e-40
58	0x060012f2	2.4088043e-35
59	0x07cbca98	3.066312e-34
60	0x0e520536	2.5887007e-30
61	0x016906c2	4.280019e-38
62	0x1b47644d	1.6493303e-22
63	0x0a9020a1	1.3878969e-32
64	0x1079efc4	4.92913e-29
65	0x82b8d62f	-2.7159305e-37
66	0x00079494	6.96148e-40
67	0x0a212413	7.758653e-33
68	0xbb864c4a	-0.00409845
69	0x85b34857	-1.6859653e-35
70	0x38365de3	4.347962e-05
71	0x800440f0	-3.90637e-40
72	0xbd4e9d0f	-0.05044275
73	0xbd1d252d	-0.03836553
74	0x8f109c6c	-7.129874e-30
75	0x800f9c18	-1.433528e-39
76	0x3d08549f	0.033283826
77	0xbd106524	-0.035252705
78	0x03942b92	8.7086614e-37
79	0x815c7f96	-4.0499157e-38
80	0x3d24f49b	0.040272336
81	0x80a38e30	-1.5020193e-38
82	0x3803f549	3.1461273e-05
83	0x00008ad8	4.9808e-41
84	0xbd0ee133	-0.034882735
85	0x000233a4	2.02196e-40
86	0x0000aa64	6.1125e-41
87	0x3a420675	0.0007401475
88	0x0012edb8	1.738316e-39
89	0x8000813c	-4.636e-41
90	0x00916bbc	1.3354795e-38
91	0xba308524	-0.00067337067
92	0xbb82fd8b	-0.00399751
93	0x800077e0	-4.3003e-41
94	0x108880cb	5.384098e-29
95	0xbd24e812	-0.040260382
96	0x8351edc2	-6.1692512e-37
97	0x3cfb20ee	0.03065535
98	0x01ec6562	8.6838186e-38
99	0x8711a02d	-1.0955659e-34
100	0x803b8674	-5.466527e-39
101	0x3d014298	0.03155765
102	0x8215c7ca	-1.1004128e-37
103	0x907bdf2e	-4.9672953e-29
104	0x0b1e50e4	3.0490548e-32
105	0x3cc6efe0	0.024284303
106	0x00007a98	4.3978e-41
107	0x841da59e	-1.8531309e-36
108	0x3a8fa48d	0.0010959074
109	0xba57708f	-0.00082183717
110	0x035cac4a	6.4849967e-37
111	0x00032608	2.8915e-40
112	0x860ec265	-2.685005e-35
113	0xba7d355a	-0.0009659134
114	0x3b80ff69	0.0039366973
115	0x00006608	3.6602e-41
116	0x0000a71c	5.9948e-41
117	0x3ac5969d	0.0015074793
118	0x02bf2bdc	2.8090102e-37
119	0x0371535e	7.0919235e-37
120	0xbd17a509	-0.037022624
121	0xbb303478	-0.0026886743
122	0x3cfc13fb	0.030771246
123	0x000063b0	3.5761e-41
124	0x3b4edc4f	0.003156442
125	0x800464e0	-4.03529e-40
126	0xbd1adcd4	-0.037808254
127	0xbb83482a	-0.0040064054
128	0x3bf97fd8	0.007614117
129	0xba243aa4	-0.00062648416
130	0x8b301bbc	-3.3917232e-32
131	0x3a284bb3	0.00064199715
132	0x0057a658	8.049361e-39
133	0x39fbcd13	0.00048027243
134	0x0001d594	1.68453e-40
135	0x00001a2c	9.389e-42
136	0x1b1d4280	1.3008223e-22
137	0x8000b18c	-6.3692e-41
138	0xbbd9eb75	-0.006650383
139	0x803f9520	-5.839132e-39
140	0xba2f3d8f	-0.0006684893
141	0xbc24e916	-0.010065338
142	0x86479026	-3.7533644e-35
143	0x3b4d0d64	0.00312885
144	0xbad4329e	-0.0016189402
145	0x00004714	2.5498e-41
146	0x8065d5a4	-9.352025e-39
147	0x84b04b34	-4.1446464e-36
148	0x0027a740	3.641582e-39
149	0x000064f8	3.6221e-41
150	0x80003eb4	-2.2494e-41
151	0x39d6d626	0.00040976814
152	0x3a132072	0.00056124397
153	0x85a20e81	-1.5239735e-35
154	0xba7cc23a	-0.0009641979
155	0x3a332e51	0.000683521
156	0x0d4c3ac5	6.2933095e-31
157	0x800052c0	-2.9685e-41
158	0x06eb119e	8.842306e-35
159	0x399479d6	0.00028319535
160	0x80000668	-2.298e-42
161	0x80007c48	-4.4584e-41
162	0x1add9acc	9.1653546e-23
163	0xbae94825	-0.001779799
164	0x9299b677	-9.700639e-28
165	0xbb0d196d	-0.0021530048
166	0x03b20945	1.0464028e-36
167	0x3803575a	3.1314186e-05
168	0x39b0df08	0.00033735507
169	0x8013266c	-1.758658e-39
170	0x8a9b08d7	-1.4929282e-32
171	0xba762a2d	-0.000939044
172	0xb91d248e	-0.00014986304
173	0x3aa172a7	0.0012317494
174	0x80000a20	-3.632e-42
175	0x80247ad4	-3.35014e-39
176	0x00001d38	1.0482e-41
177	0x0ccf7b40	3.1967578e-31
178	0x80011154	-9.8052e-41
179	0x8a8d926d	-1.3632885e-32
180	0x8004d62c	-4.44172e-40
181	0x0334c7ca	5.3126592e-37
182	0x39b88273	0.00035192407
183	0x3a2be559	0.0006557308
184	0x00001f84	1.1306e-41
185	0x80013b3c	-1.13085e-40
186	0x8392d25c	-8.629405e-37
187	0x8390bb5c	-8.506575e-37
188	0x8ccce7c6	-3.157067e-31
189	0x0002d33c	2.59448e-40
190	0x18eebe18	6.1713504e-24
191	0x09dc8750	5.309032e-33
192	0x00003358	1.8419e-41
193	0x011f5478	2.926429e-38
194	0x80017d14	-1.36705e-40
195	0x08aa6983	1.02563085e-33
196	0x3b94cb5c	0.004540844
197	0x042a35b0	2.0008056e-36
198	0xb70b5192	-8.304038e-06
199	0x80012c84	-1.07805e-40
200	0x3a218ae2	0.0006162358
201	0xba22284f	-0.0006185816
202	0x0d4994a3	6.211682e-31
203	0x000323dc	2.8837e-40
204	0x3b1a33c8	0.00235294
205	0x3a2a849b	0.0006504745
206	0x02b0f07b	2.5998905e-37
207	0x00529b84	7.586299e-39
208	0xb7cdd319	-2.4536204e-05
209	0x00040584	3.6932e-40
210	0xb7807914	-1.531517e-05
211	0x000089d4	4.9443e-41
212	0x3a2a4d58	0.00064965105
213	0x800074c4	-4.1888e-41
214	0x80000468	-1.58e-42
215	0xba8595ac	-0.00101917
216	0x800a2cd0	-9.3443e-40
217	0x80002d4c	-1.625e-41
218	0x80049e58	-4.24145e-40
219	0x3baaacd0	0.005208589
220	0xbb3fb515	-0.002925222
221	0x00001954	9.086e-42
222	0x0f0211ec	6.4129465e-30
223	0x37aa0e57	2.0272257e-05
224	0x02bd87a9	2.784892e-37
225	0x3a26dd4f	0.0006365375
226	0x80753288	-1.076288e-38
227	0x060865d6	2.5653574e-35
228	0x803f2118	-5.797508e-39
229	0xb9079399	-0.00012929588
230	0x805243f0	-7.554882e-39
231	0x8bba0da7	-7.1665136e-32
232	0x8b5ec4dd	-4.2903748e-32
233	0x3a3ac722	0.000712501
234	0x80008850	-4.89e-41
235	0x83487cf4	-5.8918157e-37
236	0x3af18550	0.0018426571
237	0xba6cfaa0	-0.00090400316
238	0x019c6c72	5.746096e-38
239	0x80001a84	-9.512e-42
240	0x055820d1	1.01622986e-35
241	0xbae42dba	-0.0017408647
242	0xbb29a7e7	-0.002588743
243	0x8000a45c	-5.8961e-41
244	0x800036f4	-1.9713e-41
245	0xbace76f1	-0.0015752
246	0x011e1afc	2.9039377e-38
247	0x03a1d4f1	9.5116185e-37
248	0x3a43ed59	0.0007474027
249	0x3b102382	0.002199382
250	0x3a893098	0.0010466753
251	0x80007bb0	-4.4371e-41
252	0x3b84af0e	0.0040491885
253	0x0000c88c	7.1943e-41
254	0x3a5b4f4c	0.0008366003
255	0xb9c4f39b	-0.00037565533

bias f4 [19]
0	0x3ea9f99b	0.33198246
1	0x37e2ad69	2.702205e-05
2	0xb646da25	-2.9631276e-06
3	0xb8c58373	-9.418176e-05
4	0x3ea9646a	0.33084422
5	0xb919626a	-0.00014627879
6	0x378d01c0	1.6809325e-05
7	0x38969d17	7.181818e-05
8	0x3ea967f0	0.3308711
9	0x3eab9b52	0.33516937
10	0xb881a45b	-6.181813e-05
11	0xb870cd84	-5.741186e-05
12	0xb8633ba9	-5.417658e-05
13	0x3eaa9d2a	0.33323032
14	0xb9501c33	-0.00019846931
15	0x39068780	0.00012829714
16	0xb8ada86c	-8.280654e-05
17	0x3eaabe2e	0.3334822
18	0xbdf3a537	-0.118967466
