models/data_aug/H/model3.pt (torch, 353039 bytes, 8 tensors)

weight f4 [128, 384]
000000 91 c6 a3 ba 1e fc 9d bb 44 d3 1f bb e9 78 16 ba
       -0.001249509 -0.0048213145 -0.0024387399 -0.0005740063
000010 4a ba b4 3a fe 92 a8 3a 3a c3 35 bb 12 3a bc 3a
       0.0013788429 0.001286119 -0.0027734772 0.0014360568
000020 86 8a d0 3a ca ab 02 3a 0b 5c 48 3a aa cb 35 bc
       0.0015910424 0.0004984705 0.000764311 -0.011095921
000030 6a b9 a2 ba 11 71 b5 bb cf 6f 9a bc 8c 68 fc bc
       -0.0012414877 -0.00553716 -0.018852143 -0.03081157
000040 2f f5 8a bb 51 e4 9d bb 48 d3 ce bb 57 68 01 bc
       -0.004240654 -0.004818477 -0.006311808 -0.007898412
000050 b8 8c 79 ba f9 5f 92 3b 14 5f b3 3a 06 32 3d 3b
       -0.0009519565 0.0044670072 0.0013684952 0.0028868928
000060 6b 28 5b bb 51 0b f2 3b de 4b 61 3c 4a 6b 07 bc
       -0.003344084 0.007386603 0.013750998 -0.008265326
000070 de 24 db bc 49 0a e9 3a 0f 25 ae bc 97 aa 4a bc
       -0.026750978 0.0017779554 -0.021257905 -0.012369773
000080 14 1a 58 3b 13 2f 37 3b f1 d4 8e 3b 87 08 99 ba
       0.0032974528 0.0027951642 0.0043588807 -0.0011675515
000090 69 3f 24 3b 99 b7 7d 3a 35 1a fc bb 6c 01 26 bb
       0.002506221 0.0009678542 -0.007693554 -0.0025330437
0000a0 93 7c 89 3a 90 1d 74 3a 55 38 89 3b 0e 85 66 ba
       0.0010489397 0.00093122665 0.0041876235 -0.00087936304
0000b0 92 99 42 bc ae f7 7c 3c 05 38 84 3c 98 27 ac 3a
       -0.011877434 0.015439911 0.016139993 0.0013134358
0000c0 4a 1a da ba 02 51 f7 3a d6 68 1a ba ea 1b 82 3b
       -0.0016639915 0.0018868747 -0.00058902556 0.003970613
0000d0 cf fa 08 ba 8c 81 0d bb d6 fa 05 bb 1c b6 31 3b
       -0.00052253617 -0.0021592109 -0.00204437 0.0027116602
0000e0 51 81 6a 3a af 48 3a 3c 30 58 82 ba 48 bf a7 bb
       0.0008945661 0.011369868 -0.0009944495 -0.005119238
0000f0 5d f6 c1 ba 72 bd 14 3c dd d0 14 bc f1 d2 52 bc
       -0.0014798153 0.00907837 -0.009083 -0.012867675
000100 9e 74 25 39 7f 0b 5c 3b 53 98 00 3c 8e f8 43 3a
       0.0001577907 0.0033576188 0.007848817 0.0007475697
000110 73 05 f2 b9 57 c0 24 ba 66 03 ac b8 3c 4a 9f b8
       -0.00046161897 -0.00062847644 -8.202232e-05 -7.595538e-05
000120 a7 07 eb 3b 7d 8a 58 3c 97 42 2d bb 25 b7 8e bb
       0.007172543 0.013216612 -0.0026437396 -0.0043553286
000130 cb 85 0a 3b b4 0c 55 bc 57 50 1c 3b 1c 58 ec b9
       0.0021136876 -0.013003517 0.0023851597 -0.00045079074
000140 0b 06 a3 3b 0c b2 70 bb 0b 79 47 3b 61 de c0 3a
       0.0049750856 -0.0036727218 0.0030437137 0.0014714712
000150 e8 83 99 3b 97 d4 64 3b 27 36 0d 3c 7c e6 83 bb
       0.004684914 0.0034916752 0.008618868 -0.0040252786
000160 1c a9 b5 3b 65 cf 8a bb 49 9d 4a bc f5 25 37 3c
       0.005543841 -0.004236149 -0.012366601 0.011178483
000170 f5 12 c7 3b 6a b8 ac 3b ca d6 93 3b 79 8b 01 3c
       0.006075258 0.0052710073 0.004511689 0.007906788
000180 d5 4b 56 3b 73 14 5d 3b fe 3c 84 b9 82 a9 89 3b
       0.0032699008 0.0033734113 -0.00025222445 0.004201115
000190 ce 1a 1a 3a 78 c7 33 bb db 83 ed 36 d1 0f cf b8
       0.0005878628 -0.0027432125 7.0785004e-06 -9.873475e-05
0001a0 02 4a 8d bb e4 39 c4 3a 95 48 fe ba 48 1e 42 bb
       -0.004311801 0.0014970866 -0.0019400293 -0.00296201
0001b0 6b 34 9d bb 7e 2a 04 3b d4 61 22 bb 86 25 d1 3b
       -0.0047975085 0.002016693 -0.0024777548 0.006382647
0001c0 fb 6b 02 bc 5e 44 06 ba 39 d6 98 3b 2f 0a de 3b
       -0.007960315 -0.0005121882 0.004664209 0.0067761163
0001d0 a4 f9 96 3b 80 4b f8 3b d4 1e 68 b9 2c ee a3 3b
       0.004607396 0.0075773597 -0.00022136729 0.0050027575
0001e0 99 d0 fc bc 45 6a 37 bb 24 5e ee b9 a0 0b b6 3a
       -0.030861186 -0.0027986926 -0.00045465038 0.0013888963
0001f0 02 0f 7c 3c eb dc 7d 3c 45 d5 b9 3c e2 0a 36 3c
       0.0153844375 0.0154945655 0.022684703 0.011110993
000200 bb c5 34 3b cc c2 b6 bb 00 44 fe bb 93 0e 22 3a
       0.0027583677 -0.005577421 -0.007759571 0.00061819813
000210 59 68 15 3b 4c 2c 0d 3c c3 d6 d3 3b 5c 73 63 3a
       0.0022797792 0.008616518 0.0064648106 0.00086765527
000220 c4 be 8d bb 5b 70 34 3b e3 93 f7 3b d0 a1 b4 3b
       -0.0043257196 0.002753279 0.0075554713 0.0055124536
000230 98 02 0b b9 65 da 81 3a 8e 6e 1b bb bb ef ae bb
       -0.00013257039 0.0009907006 -0.0023717019 -0.0053386367
000240 b1 0d 91 bb 05 5f 5a 3b b4 a9 5c b9 70 22 b9 b9
       -0.004426681 0.0033320796 -0.00021044054 -0.00035311608
000250 2e bc 7b 3b ff 00 c5 bb b3 50 7f 3b 37 4d 92 3b
       0.0038411724 -0.0060120816 0.0038958013 0.004464771
000260 13 30 a2 bb 05 81 39 bc 88 9d 51 3b 48 e9 09 bb
       -0.0049495785 -0.011322265 0.0031984765 -0.0021043587
000270 a7 5b d0 3b 5a cf 95 3b d8 51 d3 3a d5 de 60 39
       0.006358582 0.0045718374 0.0016122414 0.00021445316
000280 4f 75 30 3c 47 ab 1e 3b 4b ec 0c bc 07 25 56 bb
       0.010770156 0.0024210976 -0.0086012585 -0.0032675879
000290 44 d8 8c 3b 11 8c c2 3b 90 cf 93 3b ad 59 6c 3a
       0.004298242 0.0059371074 0.0045108274 0.0009016048
0002a0 87 51 9d 3b 59 8a 8d ba 13 9e a4 3a 7a f0 9b 3b
       0.0048009786 -0.0010798677 0.0012559317 0.0047588916
0002b0 71 31 1a 3b 4f b2 2c b8 2a 28 95 3b 2f 1f 76 bb
       0.0023528005 -4.117406e-05 0.004551907 -0.0037555208
0002c0 25 2f 93 bb 38 2b c0 bb 14 c8 06 39 2b ef 01 3c
       -0.004491704 -0.005864527 0.00012853771 0.007930557
0002d0 26 02 9a bb c6 1e 07 3c 55 e4 9b 3a 1a d0 1b bc
       -0.004699963 0.008247083 0.001189361 -0.0095100645
0002e0 15 e2 c8 3b eb 23 83 3a e4 b3 cf 3a 6e e2 1c 3c
       0.0061304667 0.0010005211 0.0015846458 0.009575469
0002f0 56 60 4a bc 8e d4 f2 bb 52 86 aa 3b 43 f2 a3 3b
       -0.01235207 -0.0074105924 0.0052040005 0.005003245
000300 a4 1e 50 bb 08 71 46 bc 6e e1 55 bc c5 85 d9 b9
       -0.0031756544 -0.01211191 -0.013054235 -0.0004148913
000310 f7 ad d2 b9 fa d2 65 b8 29 6a 3b b8 78 48 1e b7
       -0.00040183935 -5.4794342e-05 -4.4683144e-05 -9.434407e-06
000320 d5 93 8c bb 63 02 e3 39 7c ad bb ba bc 24 30 ba
       -0.004290084 0.00043298592 -0.001431867 -0.0006719341
000330 ad c6 b4 39 95 5e 11 bc e9 34 83 ba 04 7d 1f b9
       0.000344803 -0.008872648 -0.0010010275 -0.00015209994
000340 41 1c 3b bc 3b b1 a5 bb 51 4d 78 3c 9e 6b 9b bb
       -0.0114203105 -0.005056528 0.015155152 -0.0047430536
000350 6e f9 31 ba 08 dd ed 3a 56 32 f5 3b 96 5a 2c 3b
       -0.0006789182 0.0018147537 0.007482807 0.002629911
000360 52 f8 a8 bc f7 47 c5 bc c8 bd 83 bc 2a e2 99 3c
       -0.02062622 -0.024082167 -0.016081706 0.018784601
000370 7d df a1 3c e1 76 ae 3b a0 57 41 3b 4d a7 ae 3a
       0.019759888 0.00532423 0.0029501691 0.0013325006
000380 6d 78 d4 39 a7 cb 37 bc 52 be 70 ba 27 53 ab 3b
       0.00040525515 -0.011217988 -0.00091836334 0.0052284184
000390 67 72 8d ba 81 42 01 3b 4c e5 90 3a f7 1a f1 38
       -0.0010791541 0.0019723477 0.0011054664 0.00011496798
0003a0 1d 95 b7 ba 14 9e 3c bb f8 25 93 3b 5c 71 84 bb
       -0.0014006231 -0.0028780745 0.00449061 -0.004041834
0003b0 34 1c 73 b9 7e ce 87 3b 15 02 cd 3b e6 a6 a8 39
       -0.00023184792 0.004144489 0.0062563517 0.00032167806
0003c0 d4 fb f4 3a 60 92 b8 38 58 96 33 3c fa da 9a 3a
       0.0018690773 8.801068e-05 0.010961138 0.0011814528
0003d0 51 80 26 bc dd 98 7c bb 10 23 bc bb b8 6e 0b bb
       -0.010162429 -0.0038543262 -0.0057414845 -0.002127571
0003e0 19 e0 65 3c 3c a9 0d 3c b6 93 08 ba a9 56 98 bb
       0.01403048 0.008646306 -0.0005209999 -0.0046490026
0003f0 d4 83 97 bb a9 23 fd 39 10 e4 90 bb 1b 7d 84 ba
       -0.0046238694 0.0004828249 -0.0044217184 -0.0010108085

bias f4 [128]
000000 b2 51 7c b9 c1 e2 ae 3c 10 dc 0f 80 64 28 17 80
       -0.00024063027 0.021348359 -1.456476e-39 -2.126706e-39
000010 9d 83 bb 88 04 47 02 80 19 f8 3c 3c d4 d3 e8 bd
       -1.1285595e-33 -2.09147e-40 0.0115337605 -0.11368528
000020 64 01 13 80 e7 c2 50 bd 28 df 08 80 f2 49 7e 3b
       -1.745373e-39 -0.050967123 -8.14737e-40 0.00388014
000030 f2 de e7 83 7b 05 e0 bc cf b8 51 bd 4c 98 1b 80
       -1.36281455e-36 -0.027346363 -0.051201638 -2.534192e-39
000040 28 95 9a 3c 8f 11 1b bd 2e bb 65 84 9d 71 2e bd
       0.018869951 -0.037858542 -2.700477e-36 -0.04258882
000050 1b 44 1b bd ee f1 61 3c fc f4 97 3a ef e7 a2 bd
       -0.037906747 0.013790591 0.0011593397 -0.07954394
000060 02 b8 67 bc e8 c3 01 80 aa b2 30 3c 85 c2 dc 3c
       -0.014142992 -1.62113e-40 0.010784784 0.026948223
000070 4e 1c 08 ba 60 9e 47 3b 3c 83 85 3b 8e e2 9a 3a
       -0.0005192206 0.003045939 0.0040744822 0.0011816786
000080 b6 aa 04 3d 18 36 3c 80 77 80 7e 3b c4 59 32 bd
       0.032389365 -5.529535e-39 0.0038833895 -0.04354264
000090 39 a2 55 3d db 38 d0 bc d4 79 54 bd 42 25 50 3c
       0.05215666 -0.025417736 -0.051873997 0.012704195
0000a0 2d 13 ba bd eb 6c e9 3a 82 39 0a 81 87 bd 61 3b
       -0.09085689 0.0017808949 -2.5387857e-38 0.0034445242
0000b0 04 a8 94 b9 ac 53 64 3c 52 59 04 bd c2 a3 47 85
       -0.0002835394 0.013935965 -0.032311745 -9.3870126e-36
0000c0 06 30 a0 3b ed b9 36 3d 09 05 94 bd d0 20 88 3a
       0.0048885373 0.044610906 -0.07227523 0.0010385755
0000d0 65 b9 0b bd f9 b9 11 3d 7e 54 ff bc 03 ed 02 3d
       -0.034112353 0.035577748 -0.031168219 0.031964313
0000e0 11 ee 82 3d 08 76 59 bc f4 63 08 80 7e dd a4 bd
       0.06393064 -0.01327277 -7.7054e-40 -0.08050059
0000f0 73 83 12 82 2c 15 b6 81 b6 79 6f 3c 18 d3 26 3b
       -1.076411e-37 -6.688662e-38 0.0146164205 0.0025455412
000100 88 ea 78 80 90 83 c2 3c 44 c6 1c 80 ae 75 0c bd
       -1.1104393e-38 0.023744375 -2.642518e-39 -0.034291916
000110 31 f5 e7 3c 12 46 8b 83 aa 4d 5c bd 1c 67 02 80
       0.028315159 -8.185773e-37 -0.053785004 -2.2066e-40
000120 c9 58 ad bd 84 c5 03 80 7f 6d 95 3c f6 55 c3 ba
       -0.084642 -3.46362e-40 0.018240688 -0.0014902938
000130 8f d7 58 bc 78 69 75 bd 40 35 03 80 ce d3 83 81
       -0.013234987 -0.059915036 -2.94609e-40 -4.8425725e-38
000140 d0 71 99 bd 6d 0b 84 3c da 81 d7 3b 64 39 22 bd
       -0.07492411 0.01611873 0.006576759 -0.039605513
000150 1c 0c 0a bb 71 85 59 93 5c 48 6a bd 7f 14 02 3c
       -0.0021064347 -2.7455042e-27 -0.057197914 0.007939457
000160 c1 a1 68 bd d6 e3 2b 3d 8e ac 0d 3d 68 2e 02 80
       -0.056794886 0.04196533 0.03458839 -2.00318e-40
000170 d8 a0 1a 3a 38 65 80 3c 50 e0 27 80 fa 91 e9 88
       0.00058986014 0.015673265 -3.662053e-39 -1.4057496e-33
000180 18 9f 16 80 76 73 2a 3b d8 ea 97 80 2c 98 20 80
       -2.077453e-39 0.0026008761 -1.3951406e-38 -2.993325e-39
000190 d3 92 02 3b ae f3 87 ba 5b d3 73 3b e8 ac fd 3a
       0.001992394 -0.0010372305 0.0037204835 0.0019353898
0001a0 64 cc 33 81 90 81 7d bd ac f1 b3 80 f6 28 23 3b
       -3.302375e-38 -0.06189114 -1.652525e-38 0.002489624
0001b0 f1 19 7f 3b 18 cf 57 3d 59 1b 1c bc 3d 45 6e bd
       0.0038925374 0.052687734 -0.009528005 -0.0581715
0001c0 d0 bf 02 80 8d 7c b2 3c 73 4f d1 bc 53 9a 01 3d
       -2.5248e-40 0.021787906 -0.02555058 0.031641316
0001d0 60 b2 1b 80 d2 01 42 3b 8f 17 75 bd e2 dd 8b bd
       -2.543547e-39 0.0029603136 -0.05983692 -0.0682943
0001e0 c3 57 e1 bb 62 d3 0e 3c 84 30 2f 3c 36 76 c9 ba
       -0.006876917 0.00871739 0.010692719 -0.0015370313
0001f0 04 34 c0 3c dd 64 af 3c 16 64 58 bd 99 01 a9 3d
       0.023462303 0.0214104 -0.052829824 0.08252258

weight f4 [128, 128]
000000 3f 31 c7 ba 2f ff 53 39 08 16 00 80 70 42 00 00
       -0.0015197172 0.00020217591 -7.903e-42 2.3833e-41
000010 57 7d fb 04 04 30 00 00 94 25 0a bb 77 5e 0a bb
       5.9124923e-36 1.7225e-41 -0.0021079527 -0.0021113434
000020 00 3e 00 00 a5 3b 43 39 40 88 00 00 4e 16 ef 39
       2.2241e-41 0.00018618868 4.8877e-41 0.0004560225
000030 08 de 5f 80 a8 6e 81 3a 70 b9 30 3a 10 47 00 80
       -8.804022e-39 0.0009874897 0.00067414995 -2.5492e-41
000040 df 51 a8 ba 65 71 5f b9 81 47 3e 82 e2 d0 5e 3a
       -0.0012841782 -0.0002130918 -1.3979516e-37 0.0008499754
000050 66 48 f2 ba cb 99 a9 ba 88 5c 8f 3a bb f6 08 bb
       -0.0018484711 -0.0012939511 0.0010937611 -0.0020899016
000060 e4 b3 b9 ba 68 5a 00 00 a1 0b cc ba c2 f1 82 3a
       -0.0014167991 3.2432e-41 -0.001556743 0.0009990262
000070 89 d1 4f b9 aa 31 04 b9 b3 92 31 3b 28 3d a6 b9
       -0.00019819116 -0.00012607002 0.0027095496 -0.00031707552
000080 1e 4d be 3b 40 57 00 80 f5 d8 42 bb 25 c9 52 ba
       0.005807533 -3.13e-41 -0.0029731367 -0.0008040837
000090 ea c3 82 bb d4 05 77 3a 3e 96 d6 ba 27 c3 90 3a
       -0.00399064 0.00094231707 -0.001637168 0.0011044488
0000a0 72 92 60 bb 58 38 0d b9 d0 5b 00 80 f2 45 a6 b9
       -0.0034266976 -0.00013467798 -3.2936e-41 -0.000317141
0000b0 8d f8 d1 ba 8c 38 2c bb cf 0d 99 3a 7e 2e 78 81
       -0.0016019508 -0.0026278822 0.0011677089 -4.5583763e-38
0000c0 11 e5 fc 3b 76 44 65 bb ac af 9a 3a 4a f6 a4 ba
       0.0077177365 -0.0034983433 0.0011801622 -0.0012585607
0000d0 9f 72 f4 ba 75 9b 8b ba 3f c6 1f ba de 45 4d 39
       -0.0018649882 -0.0010651188 -0.00060949096 0.00019576351
0000e0 d1 c7 08 3b c2 eb 04 bb c0 76 00 80 0a a3 bf ba
       0.0020871053 -0.0020282124 -4.26e-41 -0.0014620733
0000f0 10 3c 09 00 80 79 09 00 d8 b2 f7 ba 21 1e e1 ba
       8.48066e-40 8.70105e-40 -0.0018897904 -0.0017175117
000100 68 85 01 80 16 f0 de 3a 18 58 00 80 4a 68 8a 37
       -1.39693e-40 0.0017008807 -3.1602e-41 1.6499445e-05
000110 ea d7 ce 39 38 dc 09 00 49 db bb ba 68 51 00 80
       0.0003945225 9.05519e-40 -0.001433232 -2.9203e-41
000120 93 2c 42 bb 54 1d 00 00 ce cf 04 ba d5 35 66 ba
       -0.002962862 1.0521e-41 -0.00050663657 -0.00087818253
000130 bc 72 e4 ba 96 f7 2d bb e4 16 00 00 e8 23 05 00
       -0.0017429213 -0.0026545278 8.212e-42 4.72058e-40
000140 2c 57 36 ba a6 bb b0 ba 9e bb 5c bb 7b c6 33 bb
       -0.00069557386 -0.0013483658 -0.0033681164 -0.0027431536
000150 65 23 0d bb dd 72 5e 91 b4 19 fe 38 ab 2b 88 bb
       -0.002153599 -1.7548107e-28 0.000121164514 -0.0041555963
000160 7b 7d 99 b9 07 fd 4d 3a 91 cf eb 39 b4 47 00 80
       -0.00029275924 0.00078578334 0.00044977342 -2.5722e-41
000170 20 65 72 ba 19 f3 f3 b9 0c a8 00 00 4d 64 13 86
       -0.0009246636 -0.00046529694 6.0284e-41 -2.7721317e-35
000180 7c 91 00 80 b8 aa 43 ba d8 be 00 00 1c 94 00 80
       -5.219e-41 -0.0007464099 6.8462e-41 -5.3132e-41
000190 e3 66 a3 b8 d0 39 28 bb cb e5 c5 ba 52 0f c2 39
       -7.79161e-05 -0.0025669225 -0.0015098391 0.00037013978
0001a0 58 fe 00 80 04 e8 a3 b9 b0 c6 00 80 24 35 4d 3a
       -9.1241e-41 -0.00031262648 -7.1276e-41 0.0007828048
0001b0 1f ee 72 ba b8 f0 87 39 95 b0 32 3a 60 ef 47 ba
       -0.000926705 0.00025928556 0.0006816474 -0.0007626917
0001c0 e8 a9 00 00 c5 3c 15 3a f0 11 98 3a e6 95 da ba
       6.0951e-41 0.00056929543 0.0011602025 -0.0016676753
0001d0 dc 13 00 80 37 f4 7a b9 66 ec 74 bb 77 f1 38 3a
       -7.124e-42 -0.00023932835 -0.003737235 0.0007055024
0001e0 1a 42 30 3a 4e 71 e1 ba 5b 04 8e ba 2e 75 eb ba
       0.0006723717 -0.0017199905 -0.0010835038 -0.0017963999
0001f0 db 6c f3 ba 74 47 f8 b9 c8 df 68 ba 19 95 e3 b9
       -0.001857187 -0.00047355483 -0.00088834437 -0.000434079
000200 fc 30 a6 3a 7e 06 48 b9 14 51 00 80 40 41 00 80
       0.0012679393 -0.00019075905 -2.9085e-41 -2.3407e-41
000210 49 0f f1 84 f4 40 00 80 6c 84 17 3b 51 40 ee 3a
       -5.6672865e-36 -2.3301e-41 0.00231197 0.0018177127
000220 dc b2 00 80 9f fc 5f b9 5c 8f 00 80 40 4d ab b9
       -6.4163e-41 -0.00021361046 -5.1428e-41 -0.00032673217
000230 7c 01 4a 00 61 d4 0e ba 10 64 3e ba 5c 42 00 00
       6.796359e-39 -0.0005448517 -0.0007262835 2.3805e-41
000240 7a d2 ca 3a 33 f6 17 39 d2 f5 29 02 38 41 62 ba
       0.0015474104 0.00014492199 1.2486706e-37 -0.0008630934
000250 f4 bc c1 3a 3d b5 c6 3a 30 7d 9b ba f6 9e ec 3a
       0.0014781044 0.0015160214 -0.001186287 0.0018052745
000260 9c d6 ca 3a 44 3b 00 80 4e c7 a9 3a 02 02 2b ba
       0.0015475336 -2.126e-41 0.0012953074 -0.00065234315
000270 d6 85 b5 38 8b 72 84 38 a9 ca 28 bb 64 c0 60 39
       8.6556814e-05 6.315586e-05 -0.002575556 0.00021433976
000280 8a be ae bb a0 6a 00 00 17 d1 33 3b b5 e7 2c 3a
       -0.0053327726 3.825e-41 0.002743786 0.00065958063
000290 16 05 82 3b 5d d0 18 ba 39 91 ea 3a d0 63 1c ba
       0.0039678914 -0.00058293884 0.0017896063 -0.0005965801
0002a0 89 a7 43 3b fd bf 0c b8 f4 7d 00 80 16 80 4f 3a
       0.0029854497 -3.3557404e-05 -4.5183e-41 0.00079155096
0002b0 2a 12 e3 3a 07 4c 22 3b 1d e1 8b ba 1e 59 5a 01
       0.0017324139 0.0024764554 -0.0010671947 4.0104215e-38
0002c0 82 87 e9 bb e9 a4 64 3b 54 0c 9d ba 2b a7 bf 3a
       -0.0071267495 0.0034888333 -0.0011981823 0.0014621963
0002d0 4e 82 e4 3a b5 bd a5 3a b7 d1 88 3a 8d c2 15 38
       0.0017433853 0.0012645038 0.0010438476 3.5705558e-05
0002e0 6a f3 de ba 66 3d fd 3a 88 a4 00 00 9e b3 a9 3a
       -0.0017009799 0.0019320666 5.9023e-41 0.0012947207
0002f0 54 04 0b 80 3c e5 09 80 8b a3 f8 3a 84 2c 08 3b
       -1.011743e-39 -9.08753e-40 0.0018969638 0.0020778487
000300 54 95 01 00 4e 25 a4 ba e8 56 00 00 c9 b3 61 b9
       1.45404e-40 -0.0012523325 3.1176e-41 -0.00021524647
000310 6d b0 e5 b8 b8 24 09 80 3c 31 91 3a c8 5f 00 00
       -0.00010952433 -8.39692e-40 0.0011077295 3.436e-41
000320 1e c6 33 3b d4 0c 00 80 a2 43 5e 3a c0 b6 80 3a
       0.002743132 -4.602e-42 0.0008478706 0.0009820089
000330 9f 9b 05 3b a1 ae 19 3b 60 08 00 80 1c b9 04 80
       0.0020386947 0.0023450034 -3.004e-42 -4.33747e-40
000340 04 db 0c 3a 1a 48 be 3a da 10 5a 3b a2 8c 2b 3b
       0.0005373212 0.0014517338 0.0033274204 0.0026176353
000350 7c 49 18 3b 33 e0 49 11 87 4b 13 b9 36 6d 82 3b
       0.002323716 1.5925191e-28 -0.00014047149 0.003980304
000360 22 64 33 39 f1 a7 22 b9 24 5d 1d b8 04 5c 00 00
       0.00017108073 -0.00015512087 -3.751846e-05 3.3009e-41
000370 75 4b 1a 3a 42 f2 11 3a 18 0e 00 80 66 fa 09 06
       0.0005885878 0.000556741 -5.056e-42 2.59508e-35
000380 7c a0 00 00 10 be 8c 3a 84 f4 00 80 5c a2 00 00
       5.7571e-41 0.0010737795 -8.7716e-41 5.8244e-41
000390 69 47 f7 39 76 b3 20 3b f7 f4 94 3a 5b bb 85 b9
       0.00047164716 0.002452103 0.0011364509 -0.00025507328
0003a0 38 54 01 00 e4 4b a0 39 04 9d 00 00 97 fd 7c ba
       1.22047e-40 0.0003057412 5.6327e-41 -0.0009650825
0003b0 17 11 6a 3a 9a dd 5e 39 46 e2 80 ba 62 12 36 3a
       0.0008928938 0.00021254123 -0.000983306 0.0006945488
0003c0 64 a3 00 80 07 c5 d1 b9 37 a3 88 ba 71 05 ac 3a
       -5.8614e-41 -0.00040010383 -0.0010424618 0.001312418
0003d0 04 01 00 00 6a 63 77 39 5c 81 53 3b 2a 17 38 ba
       3.64e-43 0.0002359279 0.003227315 -0.00070224947
0003e0 a1 30 33 b9 ea f5 fb 3a 77 77 a5 3a de 3a d1 3a
       -0.00017088886 0.0019223068 0.0012624104 0.0015962978
0003f0 f3 fd 0f 3b 17 45 1c 3a 22 d5 26 3a 76 a9 0c 3a
       0.0021971434 0.0005961223 0.0006364157 0.0005365828

bias f4 [128]
000000 a5 e0 62 3a fe e4 e6 b8 e8 e9 27 3b 67 31 4a ba
       0.00086546905 -0.00011009908 0.0025621597 -0.000771305
000010 77 55 a3 3a 07 b4 ed 3b 93 17 4b ba ed f0 02 39
       0.0012461384 0.007254127 -0.0007747348 0.00012487518
000020 b6 2b da b9 c7 14 6b ba 96 b8 5d bc 83 4f d5 38
       -0.00041612767 -0.00089676346 -0.013532778 0.00010171442
000030 2a 36 28 b9 d9 98 47 39 16 0d 2f 39 a0 60 22 38
       -0.00016041906 0.00019035059 0.00016694175 3.87138e-05
000040 02 fb f2 3a 58 81 50 bc 27 04 13 b9 82 fd 54 3c
       0.0018537941 -0.01272615 -0.0001402056 0.012999894
000050 5a a0 3f b9 eb 2c b9 38 d3 15 82 bb a6 60 ed 3a
       -0.00018274915 8.829854e-05 -0.003969887 0.0018110469
000060 b6 b7 8c 3a 1a 5d 9f bb 10 4f 6a 3c 8a 91 81 bc
       0.0010735902 -0.0048633935 0.0143010765 -0.015816469
000070 92 d5 67 bc eb 64 4f 3c d2 f6 a4 39 7a 36 f8 ba
       -0.01415004 0.012658338 0.00031464413 -0.0018937134
000080 dc b8 10 b9 d9 42 87 3a 72 1a ac 38 73 79 8c bc
       -0.00013801776 0.0010319605 8.206525e-05 -0.017147755
000090 39 38 ce 3a 24 39 3c bc cd 26 13 3c 4f 92 04 bb
       0.0015733308 -0.011488233 0.008981419 -0.0020228808
0000a0 8d ab a4 b9 a7 b2 f9 b9 78 d9 f9 3b 56 41 63 bc
       -0.00031408333 -0.00047626087 0.0076248012 -0.013870558
0000b0 33 c4 15 38 6c 32 c7 b8 d2 7e 69 bc 6f a8 29 3c
       3.5707093e-05 -9.498451e-05 -0.014251428 0.010355099
0000c0 4a 38 45 3a 27 7c 3f 3b 29 13 8f 3b a6 d4 65 3a
       0.00075233413 0.0029218288 0.0043662977 0.0008767344
0000d0 f5 6f c2 bb 2f 46 b1 b8 28 a9 a5 38 77 ba cb b8
       -0.0059337565 -8.4530904e-05 7.899321e-05 -9.714526e-05
0000e0 3b c8 97 ba 55 f1 c8 bb d6 61 be bb 77 1a 65 bc
       -0.0011580059 -0.0061322846 -0.005810003 -0.0139833605
0000f0 3b 30 2f 3c 6c 32 48 3c 16 87 9f 38 d7 64 5e bc
       0.010692651 0.012219053 7.6068725e-05 -0.013573847
000100 01 71 50 3a 36 ed ed 3b 02 ef 8c 3c 46 14 18 b9
       0.0007951409 0.0072609438 0.017203812 -0.00014503402
000110 a1 fd 9c 3b 8b ec 7b bb 1f 08 79 ba 48 61 de b9
       0.004790977 -0.003844055 -0.00094998063 -0.0004241562
000120 ab ab 38 3a 0f 11 db 3b 99 ee 9b b7 c2 3d ad 38
       0.00070446235 0.006685383 -1.8588546e-05 8.260786e-05
000130 da 3d eb 39 8f 40 64 3c a4 77 9c ba b0 54 c1 bb
       0.00044868776 0.013931408 -0.0011937511 -0.005899988
000140 f0 c9 3d 39 21 52 59 bc e7 9e 56 39 49 52 6e 38
       0.00018099672 -0.01326421 0.00020467826 5.6820256e-05
000150 46 a6 13 37 98 c2 9a b9 b8 ba ac b8 55 b8 46 bb
       8.800596e-06 -0.00029518153 -8.236378e-05 -0.0030322273
000160 eb b9 42 bc a5 2f 42 ba a9 61 6f 3c be da 13 bc
       -0.011885147 -0.0007407612 0.014610686 -0.00902432
000170 3c dd 61 3c fc 27 6e bc 70 32 d4 3a d5 cc ca b9
       0.013785657 -0.0145359 0.0016189348 -0.00038681054
000180 6d ff 30 37 c5 e2 66 3c 50 8a 04 bc a8 c1 46 39
       1.0549888e-05 0.014092152 -0.008089617 0.00018954894
000190 d1 88 28 3a 06 db 54 bc 5e aa 3b bc d3 95 d3 bb
       0.00064290786 -0.012991672 -0.011454193 -0.0064570694
0001a0 b4 4d 08 39 09 36 54 3c 97 b2 9d ba 55 1f 47 3a
       0.00012998917 0.012952336 -0.0012031373 0.00075959164
0001b0 32 6d fb 37 ac 81 f0 39 a4 b3 26 bc e1 5e 97 3c
       2.997238e-05 0.0004587298 -0.010174666 0.018477859
0001c0 08 f8 67 bc 33 a4 24 ba 95 cd ed b7 59 99 1b b8
       -0.014158256 -0.0006280571 -2.8348333e-05 -3.7097696e-05
0001d0 3c dd 8d 3b 90 90 09 bc 40 c6 6a bc 4d 34 b8 b9
       0.0043293517 -0.008396283 -0.014329493 -0.00035134182
0001e0 d3 06 92 ba bb 01 6f 3c 72 57 f6 b9 ef d7 6f 3c
       -0.001114095 0.014587815 -0.00046985928 0.014638885
0001f0 6a 37 41 bc d1 07 e5 b9 87 17 b3 3b 47 a0 e0 38
       -0.011792997 -0.00043684107 0.005465451 0.00010711006

weight f4 [128, 146]
000000 7e 8d 7e 82 3b e9 c5 81 29 7a 01 82 96 f3 c3 03
       -1.8701579e-37 -7.270104e-38 -9.512481e-38 1.15169945e-36
000010 d6 9f 0b 03 ed 8b 19 84 af 03 11 03 d2 20 d4 02
       4.103191e-37 -1.8049314e-36 4.26159e-37 3.1169438e-37
000020 57 fb be 02 c4 35 86 02 27 44 b6 04 22 c7 43 03
       2.8062253e-37 1.972039e-37 4.2850582e-36 5.7533943e-37
000030 18 fe 4a 83 7a 35 6c 01 04 ee 8d 01 d5 13 32 82
       -5.965415e-37 4.3384722e-38 5.2136756e-38 -1.3083066e-37
000040 10 d8 b3 02 4e 0a a8 04 68 84 66 02 51 62 ad 84
       2.64257e-37 3.9506074e-36 1.693573e-37 -4.0762394e-36
000050 e6 20 43 03 21 72 4c 82 eb 5f 41 03 5f fa d0 02
       5.7343115e-37 -1.5020306e-37 5.682771e-37 3.070656e-37
000060 08 8e 25 03 b0 aa 1e 02 8b e3 c1 84 6e 0f 7a 04
       4.8652186e-37 1.1656992e-37 -4.5583047e-36 2.9394444e-36
000070 5c d5 bf 04 7f 3f a7 84 18 3f a3 82 50 61 b3 82
       4.5099824e-36 -3.9319823e-36 -2.3986911e-37 -2.635754e-37
000080 cc a0 ab 81 90 ac 28 03 a5 3c 49 82 e9 b3 8c 04
       -6.304621e-38 4.9568855e-37 -1.4784552e-37 3.3079063e-36
000090 a9 54 86 83 10 cc 92 04 8a 8d 54 84 7b 08 8d 82
       -7.895249e-37 3.4511837e-36 -2.4985472e-36 -2.0722955e-37
0000a0 34 ec 0d 00 75 43 cf 02 02 db 27 84 97 08 be 04
       1.278595e-39 3.0454635e-37 -1.973132e-36 4.4676674e-36
0000b0 28 28 06 02 8c db cd 81 da f6 c0 04 9d 7d 86 84
       9.85629e-38 -7.562014e-38 4.536568e-36 -3.1618606e-36
0000c0 bd 99 4a 82 2c fe f2 02 0a cf 17 84 f5 1d 1f 83
       -1.4884737e-37 3.5704592e-37 -1.7845032e-36 -4.676029e-37
0000d0 a0 e1 d3 03 76 65 45 02 06 90 47 82 84 49 51 02
       1.2453266e-36 1.4502392e-37 -1.4661544e-37 1.5375993e-37
0000e0 a3 fe 1d 83 b0 7d e9 03 59 b2 da 03 b9 55 bd 04
       -4.643046e-37 1.3723366e-36 1.2853835e-36 4.451241e-36
0000f0 2c dc 04 84 83 20 a0 84 2a e7 e0 01 1c fc b4 04
       -1.5617623e-36 -3.7645677e-36 8.261631e-38 4.2549323e-36
000100 16 83 5e 82 b0 ff 1c 84 81 4c 8d 84 41 a3 48 03
       -1.6347604e-37 -1.8455118e-36 -3.32192e-36 5.8962124e-37
000110 ed 8b 90 83 9b c2 0d 04 7b e5 91 02 cd 21 99 83
       -8.495685e-37 1.6663829e-36 2.143755e-37 -9.000292e-37
000120 f0 0d 3a 03 88 cf 02 84 a1 36 11 82 83 70 49 82
       5.4676487e-37 -1.537672e-36 -1.0668595e-37 -1.4799437e-37
000130 7c 50 c9 82 53 40 bc 84 e9 bd 10 83 d6 48 d6 03
       -2.9580491e-37 -4.425766e-36 -4.2535803e-37 1.2594512e-36
000140 59 25 7e 82 1f ee 3e 04 62 7d 4f 01 9e be fb 01
       -1.8671691e-37 2.2443733e-36 3.8109853e-38 9.247636e-38
000150 c7 1d 22 82 04 fe 9d 02 ed 48 49 02 ad 94 03 04
       -1.1910426e-37 2.3214874e-37 1.4788076e-37 1.5467245e-36
000160 6e 81 99 04 4d 51 0c 03 7c 13 cb 84 e8 04 54 04
       3.608899e-36 4.123563e-37 -4.7742964e-36 2.4922733e-36
000170 b8 e5 bd 84 27 e1 c5 04 4f 70 5e 03 b2 81 b5 02
       -4.464465e-36 4.6521247e-36 6.536886e-37 2.6670001e-37
000180 9b 72 17 02 2b 58 be 84 5f 92 98 03 b6 50 81 82
       1.1126618e-37 -4.4749755e-36 8.967362e-37 -1.9001172e-37
000190 f8 a0 19 82 80 6c ad 04 a0 2e 16 04 dc 6b 03 04
       -1.128686e-37 4.0771746e-36 1.7653824e-36 1.5448503e-36
0001a0 3c d8 62 82 05 8f ac 84 ad 5e cf 03 ed 32 35 03
       -1.6665914e-37 -4.056835e-36 1.2188103e-36 5.324958e-37
0001b0 87 08 0e 02 1b 50 ca 82 94 a3 7b 04 41 ce 9b 84
       1.043496e-37 -2.972721e-37 2.958002e-36 -3.662974e-36
0001c0 d9 43 c1 04 71 9b f9 02 4c 9e 0e 82 80 77 07 82
       4.543639e-36 3.667648e-37 -1.0477941e-37 -9.952528e-38
0001d0 64 df 11 01 e5 83 45 04 41 bd c4 04 a2 24 ad 02
       2.679257e-38 2.3217802e-36 4.625318e-36 2.5441092e-37
0001e0 5d 6e b6 02 82 d4 c7 84 a2 e9 94 01 80 9c ca 84
       2.6805842e-37 -4.6979833e-36 5.470186e-38 -4.7633694e-36
0001f0 51 a8 97 04 0e fc c6 02 af 76 bb 83 42 b2 ca 01
       3.5654504e-36 2.9238157e-37 -1.1018121e-36 7.445887e-38
000200 02 f5 75 8a 23 91 a8 08 a6 aa 58 08 d8 70 af 08
       -1.1842402e-32 1.0145254e-33 6.520073e-34 1.0558959e-33
000210 af 83 57 8a e6 10 91 88 7e 2f 9f 08 21 74 89 88
       -1.03766404e-32 -8.730843e-34 9.58063e-34 -8.272689e-34
000220 e4 c6 3b 8a 2f 5c 03 09 44 a1 ea 88 2a 57 e6 87
       -9.04113e-33 1.5811896e-33 -1.4121276e-33 -3.4657784e-34
000230 c8 f4 ea 87 47 be 86 88 73 46 b1 86 7c 88 84 85
       -3.5352276e-34 -8.109566e-34 -6.6683516e-35 -1.2463357e-35
000240 04 92 97 87 6c d9 e5 88 d4 58 2d 3b 30 22 da ba
       -2.2805775e-34 -1.3833552e-33 0.002645065 -0.0016642269
000250 e0 85 03 3d 9c f9 f6 bc c2 0f 06 3d f2 40 f0 3c
       0.032110095 -0.03014832 0.03272987 0.029327843
000260 c3 06 00 3b 6b f6 bc 3c fa 22 e9 3a 54 cb 30 bb
       0.001953528 0.02306672 0.0017786913 -0.0026976662
000270 10 e0 d2 bc fe d2 d6 3c e7 cd de bc e1 88 e0 3a
       -0.025741607 0.026223656 -0.027197791 0.0017130637
000280 dd 13 e0 3a bd 33 dd ba 93 eb 0b 3d b2 d6 d4 bc
       0.0017095763 -0.0016876381 0.034160208 -0.025981281
000290 e0 68 d8 3a 52 36 d4 3c df a3 c4 3c 79 ca dd ba
       0.0016510747 0.025904808 0.024003921 -0.0016921303
0002a0 91 2e 04 bd 30 c0 0d 3d 3b 02 06 3d d9 ed 0c 3d
       -0.03227097 0.034607112 0.03271697 0.034406517
0002b0 a4 b8 d0 3c cc dd cf 3c f6 3c d1 bc 63 13 d5 3c
       0.025478669 0.025374316 -0.025541764 0.02601022
0002c0 56 f4 e3 ba 7d c6 0c bd ef 50 df ba 15 5d 05 3d
       -0.0017391543 -0.03436898 -0.001703767 0.032559473
0002d0 37 29 de ba bc e8 c4 3c cb bb 38 bc 75 06 d9 bc
       -0.0016949539 0.024036758 -0.011275242 -0.026492337
0002e0 34 70 e4 3c 42 ef 0b bd c6 6e e5 ba 3a 31 ea 3a
       0.027885534 -0.03416372 -0.0017504327 0.0017867454
0002f0 25 ad ec 3c 5c c5 d2 bc 63 1a cc 3a c9 15 cc ba
       0.028891155 -0.025728874 0.0015571829 -0.0015570457
000300 0d cc d0 bc f0 8a dc 3c 6b f4 22 3b fa ae 0c bd
       -0.025487924 0.02692172 0.0024864923 -0.03434656
000310 b3 9d b8 bb 9f 94 03 bb 5a de fd bc 8c ee c9 3a
       -0.0056340336 -0.0020077599 -0.030989815 0.0015406176
000320 a5 b9 dd ba 01 fd dd 3a 70 09 07 bd 44 fd f8 bc
       -0.0016916288 0.0016936363 -0.032967985 -0.030394204
000330 23 51 f9 bc 42 b3 d1 bc 6c 6a 04 bd 47 78 d6 3c
       -0.030434197 -0.025598172 -0.032328054 0.0261804
000340 94 43 ca 3a 0e 3a d2 bc 00 8c 26 3b ec 9a ee 3c
       0.0015431517 -0.025662448 0.0025413036 0.029126607
000350 f0 70 cb bc b9 0c c9 3c 32 7a 02 3d 93 0c b6 bc
       -0.024834126 0.0245422 0.031854816 -0.022222793
000360 c7 eb 36 bb 6a e5 01 3d 44 03 fd 3c 3f fe f6 3c
       -0.002791153 0.031712927 0.030885346 0.03015053
000370 d6 7b d3 ba 1f 71 dd ba 43 1f bf bc d9 bf d1 3c
       -0.0016134928 -0.0016894675 -0.023330336 0.025604175
000380 4a 8d 05 bd b2 5a fc bc 5f 84 df ba 98 32 e7 3c
       -0.032605447 -0.030804966 -0.0017053 0.028222367
000390 49 cf e0 3a 13 f8 d6 3a 4a bc dc ba fb 30 e3 3a
       0.001715162 0.0016400836 -0.0016840782 0.0017333323
0003a0 b0 74 dd 3a a6 d7 cb bc b2 8a d7 bc 0f 0a fe 3a
       0.0016895737 -0.024883103 -0.026311252 0.001938166
0003b0 08 c8 d1 3c 4d b8 e4 bc ff 65 d3 3c 36 4d d0 bc
       0.025608078 -0.027919913 0.025805471 -0.025427442
0003c0 3f ee 08 bd 4c b3 da 3a c6 f1 da 3a be 2d d1 3c
       -0.033430334 0.0016685515 0.0016704134 0.025534507
0003d0 c4 db 0c 3d 08 31 df ba 3a 61 15 3b 52 44 d4 bc
       0.034389272 -0.0017028162 0.0022793547 -0.025911484
0003e0 16 84 f6 3c 36 cf f3 bc 27 7a de ba fb 57 d4 3c
       0.03009228 -0.029761892 -0.001697366 0.025920859
0003f0 94 63 ed bc 4a bc fe 3c 92 3b de 3a 5e 67 e7 ba
       -0.028978147 0.031095643 0.0016955009 -0.0017654707

bias f4 [128]
000000 a8 85 e7 87 7c d9 95 3a f4 55 c7 3b ac 04 a7 3b
       -3.4835573e-34 0.0011432613 0.0060832445 0.0050969925
000010 a0 ef 78 81 4a c1 58 3a ae d6 8d 3b fe 7a 6c 81
       -4.572233e-38 0.00082685484 0.0043285703 -4.3434597e-38
000020 20 a6 00 00 f4 0e 5e 80 fa 15 57 3b 1a c0 01 8b
       5.9594e-41 -8.637901e-39 0.0032819496 -2.4989017e-32
000030 84 51 94 3b f4 ab 06 80 81 63 49 3a 88 0e dc 3a
       0.004526319 -6.12698e-40 0.0007682369 0.0016788999
000040 b3 76 3c 3b 3b 4f 28 84 c3 43 f9 3b 75 bf e3 3a
       0.0028757274 -1.9784686e-36 0.007606955 0.0017375784
000050 68 7a 00 80 4a cf cb 3b a6 29 38 81 d5 8c f0 3b
       -4.3911e-41 0.006219779 -3.3825344e-38 0.0073410072
000060 cb 5b 66 3c e5 ad 00 80 87 36 f6 3a 3c 08 ad 98
       0.014059971 -6.2382e-41 0.0018784561 -4.4727766e-24
000070 d2 cf a3 3b 5f 69 69 3c 25 e2 82 90 d8 32 00 80
       0.0049991393 0.014246314 -5.162439e-29 -1.824e-41
000080 61 ee 40 bb 38 c0 3f 80 48 a2 43 3b f2 9a c0 3a
       -0.002943896 -5.854591e-39 0.0029851366 0.0014694615
000090 14 2f 03 80 a1 d5 d0 91 d0 59 8f 3b 0f 58 63 88
       -2.92395e-40 -3.2948273e-28 0.00437472 -6.841384e-34
0000a0 f7 12 b1 83 f9 d5 77 3b 6f d9 33 3d bb c0 8c 8e
       -1.0407479e-36 0.0037816747 0.043908533 -3.4698257e-30
0000b0 e0 f2 f9 80 49 30 6a 82 fc d3 a0 83 3a 10 38 92
       -2.2954166e-38 -1.7205462e-37 -9.452624e-37 -5.8080163e-28
0000c0 a2 e2 18 84 20 1e e9 b7 98 5d 00 80 0d 75 13 92
       -1.7971579e-36 -2.7789793e-05 -3.3575e-41 -4.6529297e-28
0000d0 67 19 31 96 a4 c8 04 80 68 db b5 97 ff 3d ba 3a
       -1.4305962e-25 -4.39318e-40 -1.1752237e-24 0.001420915
0000e0 c8 df aa 81 74 0a 0d 80 39 65 90 3b 00 19 4f 81
       -6.276925e-38 -1.197611e-39 0.004406598 -3.8037832e-38
0000f0 f8 a3 e8 8a eb 7a 05 3b e5 a0 1e 3a f0 65 2d bb
       -2.2402466e-32 0.0020367454 0.0006051197 -0.0026458465
000100 9c 55 a6 bc 10 47 00 00 e0 9f 00 00 38 a6 5f 3b
       -0.020304494 2.5492e-41 5.7352e-41 0.0034126174
000110 b7 28 4b ba 83 90 21 87 ae 5a 00 00 c0 4e 54 80
       -0.00077499024 -1.2154762e-34 3.253e-41 -7.742432e-39
000120 e5 18 85 8a 8c 4d 49 8e fa 0b 8b 90 3c 58 f1 b9
       -1.2816798e-32 -2.48125e-30 -5.4844286e-29 -0.00046032842
000130 97 cd c2 81 b4 84 0a 80 f9 6d be 81 88 da 5c 80
       -7.155935e-38 -9.6596e-40 -6.995278e-38 -8.52726e-39
000140 4b d1 f9 ba aa 28 8a ba fc 87 00 00 3a d5 a6 85
       -0.0019059567 -0.0010540683 4.8782e-41 -1.5688892e-35
000150 a4 9d ec 81 34 c2 01 80 8c 17 bc 3b 02 89 fd 82
       -8.691891e-38 -1.61502e-40 0.0057401117 -3.7253647e-37
000160 50 a3 02 bb af a3 2a 82 18 6a 27 80 34 ad 06 80
       -0.0019933768 -1.2536602e-37 -3.619644e-39 -6.13147e-40
000170 7f da 7a 94 35 c0 ea 3a 8e b5 65 ba 2c 69 01 80
       -1.2664865e-26 0.0017910065 -0.00087627105 -1.29564e-40
000180 ac 91 01 80 b4 44 00 00 c8 d1 01 80 dc b2 1b 80
       -1.44093e-40 2.4646e-41 -1.67091e-40 -2.543721e-39
000190 09 5b 0a 3b f0 00 00 00 59 09 18 a1 dc c2 2d 80
       0.002111139 3.36e-43 -5.1511975e-19 -4.2025e-39
0001a0 ec 08 00 80 c5 84 c3 b7 40 16 00 00 15 83 17 96
       -3.2e-42 -2.3307637e-05 7.982e-42 -1.2239045e-25
0001b0 96 db 02 82 b1 19 8a 81 28 1a 00 00 0b 24 2b 3c
       -9.61391e-38 -5.073006e-38 9.383e-42 0.010445605
0001c0 24 b0 8c 3c 09 6e 8b 84 28 3c 01 80 42 b1 9d 3b
       0.017173834 -3.2779794e-36 -1.13415e-40 0.0048123905
0001d0 d0 a9 1b 82 7c ec 84 80 9c 7c 24 80 9e e5 a9 81
       -1.1436335e-37 -1.220712e-38 -3.350779e-39 -6.241028e-38
0001e0 ef 42 14 89 d6 79 77 bb ab 50 a3 86 3a d1 55 85
       -1.7846324e-33 -0.003776183 -6.1432316e-35 -1.0053641e-35
0001f0 48 82 09 80 28 34 00 80 10 b3 06 80 4c a8 0b 37
       -8.73256e-40 -1.871e-41 -6.15248e-40 8.32423e-06

weight f4 [19, 128]
000000 54 b6 13 88 84 d4 dc 3c 0d c3 0f bd 44 08 3a bb
       -4.445053e-34 0.026956804 -0.035098124 -0.0028386274
000010 44 54 19 00 94 75 00 3d f1 2b 0b bd f9 84 d4 82
       2.326116e-39 0.03136213 -0.033977453 -3.1226923e-37
000020 90 a4 00 00 14 85 2f 80 52 56 b7 bc c0 eb 1e 90
       5.9034e-41 -4.364008e-39 -0.022380028 -3.134162e-29
000030 f3 b8 38 3d 7c c9 01 80 6a 6e 30 bb 20 6e ee 3c
       0.045098256 -1.64114e-40 -0.002692128 0.029105246
000040 ff 64 11 bd 57 22 c9 85 7b 06 1a bd 1a e9 eb 3c
       -0.035496708 -1.8914564e-35 -0.037603837 0.028797675
000050 64 5a f5 00 bd d5 75 ba 2f 5f 6d 02 fe 72 f4 bc
       2.2532123e-38 -0.0009377858 1.7439326e-37 -0.029839989
000060 9a 29 4f bd 1a 99 fe 9e 79 05 7a bb 9b ba af 9b
       -0.050576784 -2.6956617e-20 -0.0038150235 -2.9071912e-22
000070 fa 16 0d bd b2 0d 78 bd a6 73 9a 11 cc 3c 16 00
       -0.03444574 -0.060559936 2.436819e-28 2.042191e-39
000080 f4 f3 42 ba f4 6b 09 80 2b 4c 10 bd d2 5b ea 3c
       -0.00074368645 -8.65246e-40 -0.03522889 0.028608236
000090 58 e7 08 00 63 41 f0 11 bd 9f d8 3c e8 c5 80 8d
       8.17674e-40 3.790562e-28 0.026443357 -7.936253e-31
0000a0 e6 3b 81 84 66 72 39 bd da 8f e0 3c 84 ef e1 12
       -3.0382762e-36 -0.045275114 0.027412344 1.4258541e-27
0000b0 15 6d 44 06 a9 1f 78 03 5a 51 3f 89 63 6d 31 93
       3.6943644e-35 7.2916994e-37 -2.302904e-33 -2.2394473e-27
0000c0 76 47 d6 03 40 be 59 39 ce 38 3c 81 74 68 54 95
       1.2594196e-36 0.00020765606 -3.4570902e-38 -4.2895458e-26
0000d0 7b 58 57 19 8d ec 46 04 0a c2 6c 9a 94 08 fb 3c
       1.1133108e-23 2.3383407e-36 -4.89604e-23 0.030643739
0000e0 f4 13 52 87 d4 e6 16 80 10 9d 0d bd 1d 4a a0 83
       -1.5804508e-34 -2.103186e-39 -0.034573615 -9.42097e-37
0000f0 dc 36 86 8e c4 d8 5d bb ff aa 0b 3d 26 77 48 3a
       -3.3086378e-30 -0.0033851126 0.03409862 0.0007647149
000100 57 71 13 bc 34 8a 00 80 cc 6c 00 80 2a 08 e6 3a
       -0.00899919 -4.9578e-41 -3.9029e-41 0.001755004
000110 72 23 0f 3d cb be 49 08 ca cb 22 18 c4 60 16 80
       0.034945913 6.0710513e-34 2.1040896e-24 -2.055094e-39
000120 88 00 7a 0d b3 0f 94 8f 1e a5 41 90 fa 36 a5 3b
       7.7037837e-31 -1.4599974e-29 -3.818974e-29 0.005041954
000130 d6 92 8a 83 84 4b 00 00 4d 1b 1d 87 1c 7c 09 00
       -8.144623e-37 2.709e-41 -1.181939e-34 8.71042e-40
000140 6a 8e 8e 3a d5 68 1b 3b 88 23 00 80 9c fe 5c 0b
       0.0010876183 0.0023713608 -1.2746e-41 4.2562006e-32
000150 c7 cb 2f 05 f8 80 00 00 4c ba a4 bb d8 d4 f1 82
       8.2658884e-36 4.6265e-41 -0.005027091 -3.5533934e-37
000160 32 8a 64 3a 5a 6c 88 84 86 59 10 01 08 59 00 80
       0.00087181025 -3.207295e-36 2.6512853e-38 -3.1938e-41
000170 6d 77 52 95 7b 91 11 39 1c 57 83 3b a8 e8 02 00
       -4.2503373e-26 0.00013882473 0.004008187 2.67132e-40
000180 d4 50 00 80 d0 04 00 80 e8 64 c8 00 ff 6c 74 82
       -2.8996e-41 -1.726e-42 1.8403298e-38 -1.7957569e-37
000190 35 e8 09 bb 54 7d 00 00 b1 a1 bb a2 43 4c 0f 84
       -0.0021042947 4.4959e-41 -5.085765e-18 -1.6844587e-36
0001a0 ac b3 00 80 13 93 b6 37 14 07 00 80 07 35 8d 16
       -6.4454e-41 2.1764577e-05 -2.539e-42 2.2813244e-25
0001b0 29 40 19 07 41 a1 d1 04 a8 08 00 80 ee c7 2b bd
       1.1529296e-34 4.9283752e-36 -3.105e-42 -0.041938715
0001c0 4b 7d 02 bd 46 6b 76 83 98 4d 03 00 20 27 01 ba
       -0.03185777 -7.2416046e-37 3.03342e-40 -0.00049267896
0001d0 b1 bf 1f 08 d5 c3 24 85 60 2a 5c 80 d9 94 fd 05
       4.8072654e-34 -7.7472116e-36 -8.464067e-39 2.3846684e-35
0001e0 af b3 3c 8a fb 66 ff b6 28 3d 18 07 2d 1e c5 89
       -9.0856655e-33 -7.6115807e-06 1.1453181e-34 -4.7454402e-33
0001f0 94 d7 00 80 e0 83 06 80 60 12 00 00 71 e4 ee b7
       -7.7335e-41 -5.98321e-40 6.592e-42 -2.8478187e-05
000200 4b 04 05 06 ec bd bf b6 91 eb 3f 39 3c 18 93 3b
       2.5017674e-35 -5.7143534e-06 0.00018302935 0.004488973
000210 74 86 10 80 90 b6 6f 3a 4b 86 14 ba e1 db 8c 81
       -1.5176e-39 0.00091443304 -0.0005665763 -5.174339e-38
000220 e0 84 00 80 9c db 09 00 87 af cb b9 90 e4 a5 8d
       -4.7667e-41 9.053e-40 -0.00038849955 -1.02239345e-30
000230 4b e3 d3 3a 30 6f 01 80 e8 e3 02 ba fd 27 0b 39
       0.0016165761 -1.31722e-40 -0.0004993067 0.0001327097
000240 f5 15 19 3b ae 8f a7 04 ef 81 0d 3a e1 20 e1 39
       0.0023359035 3.939346e-36 0.0005398085 0.0004293984
000250 58 bc 04 00 82 6d c8 3b 38 ca 8e 01 1a 0d cb ba
       4.34907e-40 0.00611657 5.245273e-38 -0.0015491575
000260 2a 04 61 3a 0e cc 0f 07 68 e8 fe 3a 43 2a 83 18
       0.00085836893 1.0818091e-34 0.0019447925 3.390538e-24
000270 4d 43 33 38 f9 25 12 ba 58 e3 64 91 9c 54 03 00
       4.2739604e-05 -0.00055751164 -1.8056084e-28 3.05859e-40
000280 cc 5b 39 ba 68 af 01 00 a3 f1 cc ba b2 78 46 3a
       -0.0007070869 1.5476e-40 -0.0015635978 0.00075710856
000290 0c 2c 00 00 c3 73 6e 90 d3 fe 5e bb bb fb 4c 0b
       1.5801e-41 -4.7026403e-29 -0.0034026399 3.9478352e-32
0002a0 9f cf 27 03 af a9 0a 39 39 37 bf ba 79 a0 c0 11
       4.9315226e-37 0.00013223918 -0.0014588601 3.0391158e-28
0002b0 8d 6d db 84 7d 5c ee 01 e5 5d b3 86 64 89 d3 11
       -5.158726e-36 8.7560107e-38 -6.747028e-35 3.3374604e-28
0002c0 5e a8 bb 02 b7 e0 91 b8 b0 14 bf 80 e5 8f 93 13
       2.7573818e-37 -6.955995e-05 -1.7548001e-38 3.7249908e-27
0002d0 3d 15 2c 18 4c f5 12 03 4b 44 af 9a c8 9a 97 b9
       2.2241202e-24 4.318713e-37 -7.2488637e-23 -0.00028916285
0002e0 dc f2 36 85 04 e0 02 00 d4 f6 96 ba 38 92 10 82
       -8.602205e-36 2.64033e-40 -0.0011517652 -1.0621412e-37
0002f0 5f b9 1c 0d 0d e5 b8 bb 11 7f 67 39 60 6d 2e b7
       4.8294344e-31 -0.0056425394 0.00022077213 -1.0396674e-05
000300 0c ff d4 ba 18 33 00 00 00 76 00 00 63 1f 78 3b
       -0.0016250326 1.8329e-41 4.233e-41 0.0037860505
000310 40 48 8f 3a 16 ad e9 06 3f 1f 1d 80 cc cb 00 00
       0.0010931566 8.7899186e-35 -2.674438e-39 7.3109e-41
000320 b1 f3 4a 0c 9f 23 89 0e 1d b8 bf 8e 19 89 01 b9
       1.5634847e-31 3.380741e-30 -4.726243e-30 -0.00012353472
000330 0b 84 0b 81 88 7e 00 00 c2 ab 43 86 a0 76 00 00
       -2.5625004e-38 4.5391e-41 -3.6801611e-35 4.2555e-41
000340 5c 26 98 3a 94 b0 3a ba 44 0f 00 80 f7 8d 82 0a
       0.0011608112 -0.0007121649 -5.476e-42 1.2571946e-32
000350 ce ca f3 83 04 8e 00 80 79 91 97 3a 1e b7 d0 82
       -1.4328818e-36 -5.0946e-41 0.001156374 -3.0667957e-37
000360 e0 40 90 38 3a c9 50 81 98 36 3d 00 40 98 00 80
       6.878539e-05 -3.834794e-38 5.62155e-39 -5.4617e-41
000370 e3 3b 1d 93 8c 87 45 3b c7 e8 a9 bb 14 ef 00 00
       -1.9845712e-27 0.0030140607 -0.00518522 8.5765e-41
000380 a4 9a 00 00 9c 1e 00 80 08 b3 11 00 bc ab 2b 00
       5.5475e-41 -1.098e-41 1.625428e-39 4.010533e-39
000390 fd 54 50 3a 98 06 00 80 5a a4 f3 a1 a0 f5 ad 82
       0.00079472346 -2.365e-42 -1.6509824e-18 -2.5561047e-37
0003a0 8c 29 00 80 05 24 8d b6 48 72 00 00 28 b9 8d 14
       -1.4904e-41 -4.2063207e-06 4.0996e-41 1.4310393e-26
0003b0 71 19 ea 83 90 11 19 81 9c 7f 00 00 8f a3 be 38
       -1.3759125e-36 -2.8114262e-38 4.5778e-41 9.090371e-05
0003c0 92 3a 17 3b 6e 77 42 81 3c 4e 00 00 2f da 07 bc
       0.0023075682 -3.571786e-38 2.8065e-41 -0.008291765
0003d0 37 3a 1d 85 80 ef 8c 03 b8 1f 08 80 1e 18 cf 05
       -7.392797e-36 8.283447e-37 -7.46063e-40 1.9475046e-35
0003e0 11 45 05 8a 70 75 a0 ba 78 23 52 85 ca 3e d5 07
       -6.416707e-33 -0.001224203 -9.880667e-36 3.2085582e-34
0003f0 1c 73 00 80 fc 01 02 00 b4 46 00 00 a1 c3 27 39
       -4.1293e-41 1.84383e-40 2.5364e-41 0.00015999239

bias f4 [19]
000000 11 e5 a9 3e f6 ed 58 b7 a1 7d 99 b8 91 99 b3 b8
       0.33182576 -1.2930008e-05 -7.319009e-05 -8.563989e-05
000010 08 6b a9 3e d7 86 b2 38 b7 71 55 39 3f cd 08 38
       0.3308947 8.512817e-05 0.00020355625 3.2616077e-05
000020 ec 71 a9 3e ff 28 ab 3e f3 2b f4 b8 e4 26 79 37
       0.33094728 0.33429715 -0.00011643013 1.48506115e-05
000030 c7 e4 86 b8 df 70 aa 3e c5 f1 25 39 35 01 87 39
       -6.432231e-05 0.3328924 0.00015825692 0.00025750106
000040 f7 71 06 39 18 75 aa 3e e2 cb e2 bd
       0.00012821691 0.3329246 -0.11074044
