models/data_aug/H/model4.pt (torch, 353039 bytes, 8 tensors)

weight f4 [128, 384]
00000000: 9b83 a53c bdc7 b93c a838 6f3c 2049 763c
00000010: 5c93 223c 83e6 963c a497 a13c 176a 823c
00000020: fa94 a63c a713 a93b 70ae 853c b76a fe3b
00000030: a37b 86bc eb38 81bc 5007 51bc 349e 3dbb
00000040: 9ccf 08bc 04b8 6b3b b199 b93a b85d fa3c
00000050: 738e 793c 54f6 8ebc 8d8b 72bc 57d2 bebc
00000060: e031 cabc 52b7 22bc 93cf 9cbc 9f8f b93c
00000070: 0f47 ca3c c921 ad3b 2ea2 bbbc 35e7 8fbb
00000080: 2445 7bbc f430 c63c bdd9 46b9 964a 463c
00000090: a4f4 54bb ccb2 c6bb b9e5 4e3c 82a9 973c
000000a0: 9de5 cc3b 9ba3 cb3c ffa3 7b3d 4247 34bd
000000b0: 3269 27bd 4a18 f3bc df10 4fbc 91e1 f9bb
000000c0: 48a8 64bb 7c70 cf3b 195e 913b 1b35 21ba
000000d0: d000 14bc 37f9 98ba 59cd 2b3b 38ea 3e3b
000000e0: d274 983c d100 893c 4486 3c3d 31e5 87bc
000000f0: dc21 733a 9a6c f7bb 8e7c 583b 9602 a23b
00000100: 9827 2236 102f 8eb9 7963 0fbb 983f 53ba
00000110: fd13 9dba 9043 bf3a 0e9d fb3a f070 4d3a
00000120: 6a07 b6bb 7115 73bc a5ee dc39 48c5 fbbb
00000130: e8c4 9bbc b5ad 3abc a735 8f3b ce15 c13c
00000140: 29e6 67bc 56ee d3bc af57 373b 10f3 bfbc
00000150: b680 28bc c8b2 6a3a cae1 263c 360e 6aba
00000160: b283 08bc 8fac 44bd 5557 09bd ab84 d13c
00000170: 778e ff3b bdc6 a33b 77c1 9d3a 71cc 79bb
00000180: f028 86bc 8103 4abd 0f33 2a3c 4a91 2ebc
00000190: 2d17 2c3d 2745 993c b44f 663c 48ce 153b
000001a0: 6d20 343c f2f5 45bc 7558 603c a676 153c
000001b0: 0cff fc3b 6e26 f53b 784b d03c 10ad 333c
000001c0: db0b c4bd 7321 20bd 1f95 173d 7746 253c
000001d0: fc59 09bc 5de7 d43b a80b 9ebc c326 e0bb
000001e0: d9a6 17be 8b24 74bd ddbd 823d 6cac bc3b
000001f0: 479a 043c a5eb a53c c9f2 103c 63c9 d639
00000200: c5e5 103b 7ae1 823b e9bc 93ba dc3b ba3b
00000210: 7dbb 4f3b 34d1 c63b 5e2a c6b8 a6c7 83b9
00000220: b3b4 d5bc b5b3 f33c 1c5e 78bc 734f 933c
00000230: c50c 003c 794a 323d 8903 c4bb 370d 83ba
00000240: 57bd 743c c474 003d 3b0a 5cbd 4b77 173d
00000250: 341d d0bc 79a6 983c 3c87 2c3d 907a 913c
00000260: 8bff c83c 6691 033c 3511 b8bc e3ff 06bc
00000270: 5a01 a2bc a38f 24bc e057 173b a07a 95b9
00000280: b05b a0bc 6404 80bc a230 56bc ea28 51bc
00000290: 32e7 263c aaa2 ba3b ef2f 863b 1309 a337
000002a0: ea63 c23c d5b6 7cbc 6293 853c c233 063c
000002b0: 6edd f43c dcab 8c3b bca4 6d3c d2dc 12bb
000002c0: 2fcb 053d ab38 6c3c e616 c63c 4914 633b
000002d0: 21d1 753a ef53 e1bc 8bf9 10bc dc63 7eba
000002e0: d8ed 273d bf21 af3c 42c9 c4bc 5f44 763c
000002f0: 86af 153c 8b82 0fbc f941 d1bb c85e 533a
00000300: b4e5 5ebc 9032 e7bc cb06 88bc e797 8939
00000310: 8536 fc39 b2ea 37b9 3eb8 f6b9 b4c3 beb8
00000320: 50af d0bb 183c fb3c 02b2 7dbd 292c 44bc
00000330: 22ed a5bc cb68 f5bb f757 42bc be08 09bb
00000340: b872 113c 7a58 26bd 5a9b 7f3c 5eac 5fbc
00000350: fbee fb3a dcfd dd3b e6ab 34ba 32fa dcb8
00000360: ccd7 b33b b5e2 b53b 307f 4fbc 60c7 4fba
00000370: 2748 443b e0a5 e23a c850 cb39 a3cd 3838
00000380: 6377 fd39 1924 0f3a 0bd2 4d3c ac31 a53c
00000390: f952 333b 61ff b43a 3888 623a bbde 7038
000003a0: d78e 523c 36ff cc3b 0242 56bd 483f cebc
000003b0: d894 90ba 2fcf 9fba 9c94 583c 4b6b 863a
000003c0: 32ae 543a 22e3 433c e6be 3fbd b7b0 803a
000003d0: 201c 923c af46 0bbc e8b5 7bbb 06db fab9
000003e0: 7207 873c 3cf2 43bc 58f0 e6bb 2098 693b
000003f0: 6f6b bbbb 6ee7 52bb 4813 96ba e8a1 02b9
0.020204356 0.02267825 0.01460091 0.015032083 0.0099228285 0.018420463 0.019725628 0.015919728
0.02033471 0.0051598134 0.01631853 0.0077641862 -0.016416376 -0.01577421 -0.012758091 -0.0028933408
-0.008350279 0.0035967836 0.0014160183 0.030562267 0.015231716 -0.017451443 -0.014803779 -0.023293657
-0.024681985 -0.009931402 -0.019141948 0.022651492 0.024692087 0.0052835685 -0.022904482 -0.0043915757
-0.015336309 0.024193265 -0.00018963865 0.012102744 -0.003249445 -0.0060637947 0.012628012 0.018513445
0.006252958 0.024858287 0.061435696 -0.04401327 -0.040871806 -0.029674668 -0.0126383 -0.0076257666
-0.0034890343 0.006330548 0.004436266 -0.0006149576 -0.009033397 -0.0011670951 0.0026214926 0.0029131304
0.018610392 0.016724022 0.046026483 -0.01658878 0.000927476 -0.007550788 0.0033033225 0.004944156
2.4162928e-06 -0.00027119415 -0.0021879359 -0.00080584874 -0.0011984106 0.0014592279 0.0019196586 0.00078369584
-0.005555083 -0.014836655 0.00042139474 -0.00768343 -0.01901479 -0.011393954 0.0043704095 0.023569968
-0.014153996 -0.025870483 0.0027975847 -0.02343133 -0.010284593 0.0008953032 0.010185668 -0.0008928509
-0.00833218 -0.048016127 -0.033530552 0.025575956 0.0077989656 0.0049980567 0.0012035806 -0.0038116241
-0.016376942 -0.049319748 0.01038815 -0.010654757 0.04201429 0.018709732 0.014057089 0.002285855
0.010994059 -0.012082564 0.013692965 0.009122526 0.0077208336 0.007481388 0.025426611 0.010966554
-0.09572574 -0.0390944 0.037007447 0.010087601 -0.00838327 0.006497307 -0.019292668 -0.0068405583
-0.14809741 -0.059605163 0.0638387 0.005757859 0.008093423 0.020253966 0.008846947 0.00040967306
0.002210961 0.003994164 -0.001127151 0.0056834053 0.0031697445 0.0060674194 -9.449267e-05 -0.00025135017
-0.02608714 0.029748777 -0.015159156 0.01798222 0.0078155445 0.043528054 -0.0059818667 -0.0009998445
0.01493772 0.031361356 -0.053720694 0.036979 -0.02540455 0.018634068 0.042121157 0.017758638
0.024535915 0.008030271 -0.022469142 -0.008239719 -0.019776035 -0.010044011 0.002309315 -0.00028510857
-0.01957497 -0.015627094 -0.013073118 -0.012766102 0.010186957 0.0056956606 0.0040950696 1.943534e-05
0.023729283 -0.01542445 0.01630563 0.008191051 0.029890742 0.004292948 0.014504608 -0.0022409451
0.032664474 0.014417808 0.02418084 0.0034649542 0.0009377171 -0.027505843 -0.008848558 -0.0009704211
0.04099831 0.021378396 -0.024021748 0.015030949 0.009136086 -0.008759151 -0.0063860384 0.0008063135
-0.01360457 -0.028222352 -0.016604802 0.00026243852 0.00048105806 -0.00017539671 -0.00047058047 -9.0963586e-05
-0.006368555 0.030668303 -0.06193734 -0.011973419 -0.020254675 -0.007489299 -0.011861793 -0.0020909752
0.008877449 -0.04061172 0.015601004 -0.013651935 0.0019221002 0.006774647 -0.000689207 -0.0001053702
0.0054883715 0.005550707 -0.012664601 -0.00079261325 0.0029950233 0.0017291866 0.00038779364 4.4060533e-05
0.0004834487 0.0005460396 0.012562285 0.020165287 0.0027362688 0.0013809019 0.0008641514 5.7427893e-05
0.0128514385 0.0062560095 -0.052309044 -0.02517666 -0.0011030687 -0.0012192483 0.013219025 0.0010255364
0.00081131153 0.011956008 -0.046812914 0.000981829 0.017835677 -0.008500739 -0.0038407985 -0.000478469
0.016483042 -0.011959609 -0.007047694 0.0035643652 -0.005719594 -0.00321814 -0.0011449838 -0.00012458081

bias f4 [128]
00000000: 4be3 03bd fdcf 263d 29db 483d 415a d53c
00000010: 88c3 2b80 15f6 f7bc d215 56bd cf27 42bd
00000020: e832 8b3c 9416 b03b 6457 0580 c827 0680
00000030: 5038 0280 6023 a8bd 5862 2380 a243 4d3b
00000040: 5981 023c a40b 1dbd a855 0c3c 4a1b efbc
00000050: 85b2 c3bc f76a a23a 2ce4 4780 bd5f 8abd
00000060: ea5d 983a 50d5 a0bc b73f b082 9fa6 0fbd
00000070: 8c5a 13bd 3100 b1bc 9137 c33a 6037 c7bc
00000080: 4875 3a83 289b 6abd acd6 0380 9b79 ea3b
00000090: 0d00 823a d267 fa3b 8d32 9fba dd3d 23bd
000000a0: 6768 91bb da88 b383 520c 413d f743 0abb
000000b0: 0341 9181 8a2b edbb 6d12 9d3c 4e60 653d
000000c0: 6104 0cbd 8561 263d c55e 1b3c a62c 08bd
000000d0: 6cc1 0080 ce10 b53c 483d ce3c a7ee fb3c
000000e0: ce30 babb 06a3 123b c4ff 1b80 513c 213d
000000f0: 32c0 4cbd 053d 2ebd c086 1480 0f19 69bd
00000100: 76ee b53b 1769 303d 73f8 d084 7883 683d
00000110: a052 36bd f98c af3b 5693 4abd 0afa 98bd
00000120: 8dc9 7fbc 3411 0880 24d7 0980 f57c 09bd
00000130: fdee 3482 7853 9182 c67e 93b9 7de8 ee3a
00000140: d822 5980 9d8c d286 abb4 16bd 2e8a 48bd
00000150: 3f68 363c b57c 40bd f8b8 83bd e48c d380
00000160: 63c1 3abd 947c 9e3b be4a d7bd ba55 ef3c
00000170: 842e 6f80 f309 983b e7a2 203a 17f6 8dbc
00000180: a4ad 0b39 8a1a 143d 3613 0685 6a0a 7a39
00000190: 607b 143c 0824 db3c 9e23 ecbc 103e 9c80
000001a0: 8e71 5aba 2537 b9bc 89ac 9639 100d 0480
000001b0: 13c9 3ebb 46c5 6982 c76f fc3c 1fb9 b8bc
000001c0: 5111 813d ea75 6e3a fa90 7cbd 611d 05bd
000001d0: f190 e5bd 1815 9b3c d010 0980 6d15 6d3c
000001e0: 0690 46bd 0cbb 0580 3900 8481 945f a7bd
000001f0: 4c1d 67bd f992 a58e 36b0 f3ba ee4a e9b9
-0.032199185 0.040725697 0.049037132 0.026044013 -4.01907e-39 -0.030268708 -0.052266903 -0.047401246
0.016992047 0.0053737853 -4.90527e-40 -5.65284e-40 -2.03872e-40 -0.08209872 -3.249521e-39 0.003132083
0.007965409 -0.03834118 0.008565344 -0.029187817 -0.023888836 0.0012391497 -6.602173e-39 -0.06756542
0.0011624668 -0.019632965 -2.5897446e-37 -0.03507101 -0.035975024 -0.021606537 0.0014893879 -0.024318397
-5.479512e-37 -0.057276875 -3.52516e-40 0.00715561 0.0009918228 0.007641771 -0.0012145803 -0.03985392
-0.0044374946 -1.0552094e-36 0.04713089 -0.002109764 -5.3357875e-38 -0.0072378563 0.019173825 0.056000046
-0.034183864 0.040620346 0.009483044 -0.033245705 -6.9387e-41 0.02210274 0.025175706 0.030753447
-0.0056820875 0.0022375002 -2.57131e-39 0.039364163 -0.04998798 -0.04253866 -1.885049e-39 -0.056908663
0.0055521084 0.04306897 -4.912873e-36 0.056766003 -0.04451239 0.0053573814 -0.049456917 -0.07469566
-0.015612018 -7.40855e-40 -9.03697e-40 -0.033566434 -1.3292898e-37 -2.1353744e-37 -0.00028132478 0.0018227246
-8.185859e-39 -7.9199833e-35 -0.036793392 -0.048959903 0.011133253 -0.04699393 -0.06431764 -1.9427832e-38
-0.045594584 0.004836628 -0.10512303 0.029215682 -1.0210427e-38 0.004639858 0.000612779 -0.017329259
0.00013320759 0.036158122 -6.304178e-36 0.00023845737 0.009062618 0.02675058 -0.028825577 -1.4348601e-38
-0.0008332961 -0.022609303 0.00028738778 -3.72028e-40 -0.0029111549 -1.7174751e-37 0.030815018 -0.02254921
0.06302131 0.000909655 -0.061661698 -0.03249872 -0.11209286 0.018930957 -8.3255e-40 0.01447044
-0.048477195 -5.26277e-40 -4.848946e-38 -0.08172527 -0.056424424 -4.081717e-30 -0.0018591944 -0.0004449705

weight f4 [128, 128]
00000000: 066d a43b e6b1 cbbb d177 8dbb 3b65 ecbb
00000010: ec5d 0000 2a35 b03b e0e7 943b 5070 ef3b
00000020: a91e 4dbc 611f 363c 7c37 0080 b036 0000
00000030: 406a 0080 b820 c93b 3480 0300 de3e 503c
00000040: 2fa3 2f3c 6e61 fe3b 2703 3abc 6b1c a93b
00000050: 0d91 e83b ef6d 1dbc 0019 0400 5c88 1b3c
00000060: 4fab 223c aabd f3bb 2425 4880 c26c 34bc
00000070: 571b bf3b bf3c 1d3b 378b c53b a8f1 75b9
00000080: ec61 2901 21be cd3b 7038 0080 ff93 483c
00000090: fb36 33bc 51aa 18bc d316 3e3c 41f5 093c
000000a0: c9f3 5a3c 0933 fa81 96ff e6bb 6ac6 c73b
000000b0: cc72 3d00 7ba7 173c ee95 93bb 7ddf ccbb
000000c0: 478d bf3b 34af 64bc f979 f6bb a9f2 123c
000000d0: 30b1 0000 66c1 eabb 44e1 a1bb 3a52 bdbb
000000e0: b710 3c3c 39dc bbbb ec11 0080 4ad5 02bc
000000f0: 53ec d43b e645 3ebb f0e3 0080 477c c2b6
00000100: 7f22 243c ecb4 9ebb 440c eb80 8b4c 99bb
00000110: fac3 0c3c c1e5 babb 0943 df3b 7111 db3a
00000120: b06c ab3b 402c 0080 48db 0100 6b15 6f3b
00000130: f0a3 ef00 c443 a380 64ef cabb 7cd0 4dbc
00000140: e4ed 0000 bb55 fe84 b996 c1bb 32c7 7c3b
00000150: 348e 8bbb eafd d13b 2d21 cd3b 7063 0980
00000160: 2166 0dba b4a9 17bc f5ae a03b 95b1 e4bb
00000170: 5c58 0000 2c42 e5bb e275 e03b 5b11 4bbc
00000180: e5bf 6dbb 2dad 19bc a48b f502 d6a4 373c
00000190: ed48 f4bb bdbd 2a3c 18c7 df3b 3c27 0180
000001a0: 2a5e 453c 4bba 143c eccd 22bc a8ac 0000
000001b0: 13cd 303c c691 a081 7e3a aebb 620c f53b
000001c0: 29a6 76bb 27b9 40bc 514f f83b 02b2 443b
000001d0: e616 cb3b 7b8d cebb 9c64 0000 c582 4f3c
000001e0: 3ea5 ca3a e8a2 0000 b491 2900 5ec2 a0ba
000001f0: 8973 4d3b d597 e48b 4fb6 2e3c 0382 2dbc
00000200: 39d8 71bc 923b e43b 2931 653c 73d5 d53a
00000210: f023 0080 fbbf 9cbc 01e9 15bc bac8 11bc
00000220: 410a 133a 1e62 0dbc a8a8 0080 540e 0080
00000230: 1cb1 0080 3a3b 55bc 70fc 0480 bd88 bcbb
00000240: a2aa 4c3c 2ce6 d1bb 50ac 473b 0135 94bc
00000250: 8a64 49bc 2f2c 10bc 40ac 0380 7ccc 97bb
00000260: 3f5b 76bc d1f4 76bc 30fc 3400 e2cc 503b
00000270: d38e 34bc b9bd 70bc 5b4e 96bc 99d8 38bc
00000280: 244b 3c80 a40e 67bc f87f 0000 074d 6e3c
00000290: 8328 b73b 7ee7 d1ba 17a9 0dbc a254 13bc
000002a0: 40ac 57bc fcec 7d00 4888 893b bb1d 24bc
000002b0: 2878 2780 0643 92bb 429c ac3b c18b 213c
000002c0: 8b87 5abc 235d 9dba 9f81 d33a a8d4 fdbb
000002d0: 5879 0000 4ed4 9e3b 2e4c bdbb 7c5e 383a
000002e0: 9cda 96bb 7ea0 debb 5cd4 0180 9d94 bc3b
000002f0: 2fd4 81bc 7b51 97bc 2443 0080 054f 8cbc
00000300: d337 fcbb f079 36bc 9c00 6280 9a23 163c
00000310: f20e 40bb 7b60 d43a 16af 27bc 6e33 8abc
00000320: d9cb 80bc 489f 0080 d0eb 0180 fe9f 5fbc
00000330: 0cd5 4e00 1c5c 0580 6cab c83a ffe6 f63a
00000340: 582b 0080 d2ac 2d84 a6a5 60bc 4c92 52bc
00000350: 9155 0bbc 3517 0ebc b85b 42bc 308d 1600
00000360: ef4f 83bc a376 9cbb a915 7cbc b596 4abb
00000370: ac1e 0880 68b3 1abb 0f38 3bbc 75ac 493c
00000380: 46d4 3abc 2615 9bb9 7a2f 2982 c0da 913c
00000390: 6f97 c03b f75a 5e3c c599 40bc 5457 0000
000003a0: 5d3d 22bc 8d46 d8bb b812 803b f400 0000
000003b0: 2689 7239 bc60 5e01 a3d0 37b9 43ab 12bc
000003c0: 60fa 003c a50f 5db9 3970 53bc b66a 78bc
000003d0: 38be f9bb 30f4 0a3c 601b 0080 115f 8ebb
000003e0: e975 94bc 3ca9 0080 7ca5 1c00 2bbd 85bc
000003f0: ebaf 8bbc 2a79 b98a a30b 2dbc c4a6 ec3b
0.0050178794 -0.0062162755 -0.0043172617 -0.007214216 3.3693e-41 0.0053774314 0.004544243 0.00730709
-0.012519517 0.01111588 -1.9904e-41 1.9618e-41 -3.8115e-41 0.0061379336 3.21497e-40 0.012710301
0.010720058 0.0077630794 -0.011353291 0.0051608584 0.0070973695 -0.00960873 3.7631e-40 0.00949296
0.009928538 -0.007438381 -6.625479e-39 -0.011012258 0.0058321166 0.0023992506 0.0060285586 -0.00023455045
3.1110653e-38 0.0062787686 -2.0246e-41 0.012242316 -0.010938401 -0.00931795 0.011602121 0.0084202895
0.013363787 -9.190873e-38 -0.007049511 0.006096651 5.643147e-39 0.009256239 -0.004503957 -0.006252228
0.005845699 -0.013957787 -0.0075218645 0.0089689875 6.3563e-41 -0.007164168 -0.004940184 -0.0057776244
0.0114785945 -0.0057330397 -6.429e-42 -0.007985422 0.0064978986 -0.0029033362 -8.1769e-41 -5.7961183e-06
0.01001799 -0.004843345 -2.1585742e-38 -0.004678314 0.008591646 -0.0057036583 0.006813411 0.0016713572
0.0052314624 -1.5874e-41 1.70499e-40 0.0036481272 2.2007493e-38 -1.4993496e-38 -0.0061930884 -0.012561914
8.5339e-41 -5.9793844e-36 -0.00590786 0.0038570878 -0.0042588953 0.0064084427 0.0062600584 -8.62191e-40
-0.00053939415 -0.009256769 0.004903669 -0.0069791772 3.1697e-41 -0.0069964137 0.00684999 -0.012394275
-0.0036277708 -0.009379667 3.6079664e-37 0.011208734 -0.0074549825 0.010421214 0.0068291537 -1.0591e-40
0.012046376 0.009077619 -0.009936791 6.1937e-41 0.010791081 -5.898389e-38 -0.0053170314 0.007478283
-0.003763566 -0.011762894 0.0075778146 0.0030013327 0.006197798 -0.006303487 3.6092e-41 0.012665455
0.0015460623 5.844e-41 3.817524e-39 -0.0012264957 0.0031349382 -8.8050857e-32 0.010663583 -0.010590079
-0.014761024 0.006965109 0.0139887715 0.0016314223 -1.2892e-41 -0.019134512 -0.009149791 -0.008897955
0.0005609133 -0.00862935 -6.0502e-41 -5.14e-42 -6.3535e-41 -0.013014609 -4.579e-40 -0.005753605
0.012491854 -0.0064056125 0.0030467696 -0.01809168 -0.012292037 -0.008799597 -3.37298e-40 -0.0046325307
-0.015036403 -0.015073017 4.865914e-39 0.00318604 -0.01102038 -0.014693671 -0.01834791 -0.01128211
-5.537085e-39 -0.014102612 4.5907e-41 0.014544732 0.005589546 -0.0016014425 -0.008646271 -0.008992346
-0.013163626 1.1564451e-38 0.004197154 -0.010016854 -3.624688e-39 -0.004463556 0.005267651 0.00985998
-0.01333798 -0.0012005906 0.0016136653 -0.007746298 4.353e-41 0.004847086 -0.0057769036 0.0007033122
-0.004603697 -0.0067940345 -1.68016e-40 0.005755021 -0.015848247 -0.01847147 -2.4086e-41 -0.017127523
-0.0076970845 -0.011137471 -9.000097e-39 0.0091637615 -0.0029305783 0.001620307 -0.010234615 -0.016870227
-0.015722202 -5.714e-41 -1.76429e-40 -0.013648985 7.239596e-39 -4.9222e-40 0.0015309877 0.0018837153
-1.5549e-41 -2.0415407e-36 -0.013711369 -0.012852263 -0.008504287 -0.008672525 -0.011862688 2.07103e-39
-0.016029326 -0.004774885 -0.015386024 -0.0030912582 -7.45687e-40 -0.002360547 -0.01142694 0.012309183
-0.011403149 -0.0002957966 -1.2429784e-37 0.017804503 0.0058774273 0.013571492 -0.0117554115 3.1327e-41
-0.009902325 -0.006600207 0.0039084814 3.42e-43 0.0002313001 4.0844364e-38 -0.00017529963 -0.008951965
0.007872194 -0.0002108203 -0.012905174 -0.015162161 -0.007621553 0.00848107 -9.82e-42 -0.004344829
-0.01812263 -6.071e-41 2.630759e-39 -0.016325554 -0.017051658 -1.7860429e-32 -0.010561856 0.0072220284

bias f4 [128]
00000000: 6b8d 8a3b a21b 673b 80e7 8fbb d641 14bb
00000010: 5576 c93b 655c 24bb 1e43 24b8 60d8 a4bb
00000020: b017 953b c4fc f2bb 2224 b6bb a211 adbb
00000030: 8168 6b3b 6357 633b 5300 293c 1580 883b
00000040: 90e1 6d3b 1ecd 2c3b 05df a63b d332 cd3b
00000050: 9ebf 963b 6fa4 803b 8713 39bb 5958 ab3b
00000060: aa70 88b9 da30 e239 0e64 b8bb f30e 99ba
00000070: b411 63bb c46c 2b3b bdea 8a3b fe5d 7fbb
00000080: 55d6 a03a 19d4 7c3a 0d64 893b dd1b eebb
00000090: c7db 14bb 199f e8bb a3e5 0bbc 513f af3b
000000a0: 72bc 01bc 6067 b1bb dea7 abbb d08f b33b
000000b0: a590 53bb 3711 fdb8 a4d7 c93b 47cf da3b
000000c0: 7b59 b73b 44d3 393b b898 ba3b 14a9 443b
000000d0: d75a 9fbb fc27 893b 7433 28bb bcdf f2bb
000000e0: 3303 3f3a 820b ccbb a41e f9bb e4c5 80bb
000000f0: 3831 1cbb 5bb6 b63b b665 d4bb 0bd6 abbb
00000100: 0033 43bb 1817 293c 2bc0 4dbb 3502 223b
00000110: 79ef b13b 79ae 103c 0895 0e3c 8cb1 82bb
00000120: bba0 1cbb b97f 6dbb 451b 8ebb 0eae 143b
00000130: 1fe7 ac3b a2e3 aa3b f23f adbb 2546 283c
00000140: 18d0 983b 6047 28bc 4795 92bb b2f0 65bb
00000150: ac64 1a3c 76ca 02bc 3b3c 413c 236f 01bc
00000160: 5e6d 093b 21ef 45bb a9e7 da3b 7ca7 a1bb
00000170: 0736 a53b f29e 20bb e7cf 06bc 2996 183c
00000180: de8f 123b 415f 1539 c0b1 0dbb 0c1e e33b
00000190: 5be5 e53b eda5 f0bb 2fb2 deb9 367d 5fbb
000001a0: 77d0 843b 6e29 37bc 1733 193c 5162 d9ba
000001b0: e05e 413b 0e94 b8bb e492 aa3b 9acd 16bb
000001c0: ea00 ac3b d0cc aa3b a69c 0f3b 23a4 2c3a
000001d0: fe7d 7b3b f3e7 18bb 9660 9f3b ca45 abbb
000001e0: 1fbb 833b 471c d83b 061d c8b9 f4fb f8bb
000001f0: db6e 44bb d490 acbb 90b8 2c3b 486c b93b
0.004228284 0.0035264273 -0.0043916106 -0.002262225 0.0061481395 -0.0025079485 -3.9163155e-05 -0.0050306767
0.004549943 -0.007415386 -0.0055585066 -0.005281643 0.0035920443 0.0034689538 0.010315019 0.004165659
0.0036297776 0.0026367377 0.005092504 0.0062621622 0.0046004793 0.003925852 -0.00282404 0.0052290377
-0.00026023883 0.00043142476 -0.005627162 -0.0011677429 -0.0034648003 0.0026157359 0.0042394088 -0.0038965936
0.0012270907 0.0009644642 0.004192835 -0.007266505 -0.0022714005 -0.007099044 -0.008538636 0.005348124
-0.007918464 -0.0054139346 -0.005238517 0.0054797903 -0.003228226 -0.000120671866 0.0061597396 0.0066775414
0.0055953837 0.0028354684 0.005694475 0.0030008005 -0.004863124 0.0041856747 -0.0025665434 -0.007411925
0.00072865485 -0.006226958 -0.0076025296 -0.0039298404 -0.0023833048 0.0055759377 -0.0064818515 -0.005244022
-0.0029785037 0.010320447 -0.0031395059 0.0024720554 0.0054301587 0.00883066 0.008702524 -0.0039884504
-0.0023899514 -0.0036239459 -0.004336747 0.0022686752 0.005276575 0.005215124 -0.005287164 0.01027063
0.0046634786 -0.010270923 -0.0044733617 -0.0035086093 0.009423416 -0.007982841 0.011794145 -0.007900032
0.002096973 -0.0030202346 0.006680448 -0.004933296 0.005041841 -0.0024508801 -0.008228279 0.009313145
0.0022363584 0.00014245232 -0.002162084 0.006931072 0.0070158667 -0.0073439986 -0.00042475897 -0.003410173
0.0040531713 -0.011179311 0.00935056 -0.0016585087 0.0029506013 -0.005632884 0.005205499 -0.0023010732
0.0052491324 0.005212404 0.0021913438 0.00065857376 0.0038374658 -0.0023331612 0.004863809 -0.0052268254
0.0040201093 0.006595168 -0.00038168597 -0.0075983945 -0.0029973302 -0.0052662883 0.0026355125 0.00565866

weight f4 [128, 146]
00000000: 6be3 5983 d07a f000 44aa b801 4f46 f402
00000010: 6121 c681 c4b5 3d03 ff3e df82 bdb1 3702
00000020: e09a e381 ac9b 0203 29ef 8202 2a30 2702
00000030: da2a 5583 6ef0 1601 7109 8183 2e1f 5b83
00000040: cdd6 5583 58f3 4083 476f 4082 3b62 8683
00000050: 2e46 f181 885a d180 4073 4503 242d 5582
00000060: 0093 d182 c19d fd82 6a02 7e03 5adf 1603
00000070: 84ee 1981 3f7f 6602 698f 5483 d09f b100
00000080: 24c2 1883 db56 1083 b0cb 7f81 7640 f202
00000090: 54bb f402 6a31 9003 6360 a203 43b1 3f82
000000a0: fc3d 9b03 babe 4a02 3987 3902 cd6a 6782
000000b0: c04a 4e03 075e e902 6613 8483 3665 8c83
000000c0: 78de 6382 4ab2 4583 fd93 8b82 226f 4502
000000d0: dcd0 1e02 f274 7a81 aed0 b481 3672 9303
000000e0: 1b7c 0883 1a7a 9f02 536c 9703 38c8 d500
000000f0: 3e5a 3782 207d 7d82 56ed 1102 6dc6 5602
00000100: c6c7 d281 947d a183 1f7b 4c03 124d 2c02
00000110: 1d28 5e82 f427 4683 00fb 3f83 e8f0 0a01
00000120: bd4d f902 e4be 5503 0af3 a081 9c91 f482
00000130: 3a18 3d82 c0cd 5282 337b 5d02 9ebb a583
00000140: 24ed c680 6b31 aa03 0cc5 ce01 2fb0 eb81
00000150: 2b99 9f83 3f50 9c03 e7e2 b282 79c0 9703
00000160: 3dcc 3283 5cde 4903 ab4a 8983 f31f 1202
00000170: 2fcc fa81 37ed 2e82 6f28 2303 7f76 a783
00000180: b8d1 8302 aac8 d802 7edf 8582 7c10 d882
00000190: 9fba e782 b8c3 9203 d632 fd02 5233 3981
000001a0: 6e34 2e81 2d20 b202 8b20 8b83 1809 2603
000001b0: 7754 4883 9888 8702 713c 2e82 f694 f502
000001c0: ead1 5782 6bf3 5182 b037 4e02 e695 ba02
000001d0: db98 9101 c7ce f602 199d 1f82 8c5f 3a02
000001e0: 408a 1d81 687f 8983 4219 ce82 13cc 9603
000001f0: d583 3282 3bd2 3f02 cfce 6402 2e8a 8282
00000200: 7c3c 9b89 6679 3088 47dd 4a08 d394 3b88
00000210: 3d02 9289 26b4 7c87 aba5 1b08 4bbf 4787
00000220: f321 8e89 d876 6108 3ee4 e507 de25 3d88
00000230: 224e 1d08 559c 1a08 af17 3106 828f 0187
00000240: d8ae a385 aea6 d007 1c2f 7e87 dea7 0e87
00000250: a048 4907 2c3a d306 d762 7b87 8f02 3b07
00000260: 216f 7486 691e 7507 d1ad 5387 9262 c807
00000270: 870e 8d07 9e69 6e07 9b35 6987 c7f9 0a87
00000280: 85ca 1988 ddac 7d87 ffd9 6a87 689a 4087
00000290: ae6c 7987 a4b4 0288 78db 5687 a35c 2987
000002a0: 6bea 4807 d9a7 8187 870a 4586 d1ec ab86
000002b0: fdb8 f407 4214 f706 46b1 0a07 7570 8986
000002c0: 7d94 7987 ea69 2707 d211 fd86 2fd8 e286
000002d0: f260 3b87 2076 c007 b060 d406 56d5 0d08
000002e0: 517b 2108 3abb 7887 3e8b 1908 debe 7d07
000002f0: ec8c 7507 c1da 8587 4e3f 5a07 865a 8b06
00000300: edb7 0088 2604 0988 62d3 8487 1f5b 4987
00000310: c414 9187 1f36 b186 e659 6907 54e5 3a87
00000320: 154a ec06 dbc0 1108 a77e cb86 dc4b 9a07
00000330: 744c 1508 b7a3 2907 5e85 8c06 281c 8b87
00000340: a866 8707 fe08 8207 c09e d606 5dc4 2b88
00000350: da7d 5607 cb2e 9786 e6a2 8387 e03d 0088
00000360: fa39 fb87 d27e 2d07 e016 e106 e5a7 6a07
00000370: a4d5 1c07 86ec d386 320c 7787 7a0c 8187
00000380: 4089 8307 67da 2d88 d21c 3b87 df65 3008
00000390: f099 4e07 0977 f106 4260 2588 0d98 1a08
000003a0: 72bb fe87 ae38 1708 fdd4 2887 ab62 5107
000003b0: c842 0788 63c4 6207 48e6 5c87 18cb 9406
000003c0: cedb e407 1628 2988 7c95 4386 9e82 5e06
000003d0: b84e 3506 1b6e b487 ed2b bb87 91e5 1008
000003e0: 4a5d ab06 a818 0707 a7cc 3187 163a f207
000003f0: 246c 1988 c365 1407 457b 4e87 c91d 8f07
-6.403163e-37 2.2084576e-38 6.7835244e-38 3.5892933e-37 -7.278161e-38 5.5750765e-37 -3.2803063e-37 1.3495725e-37
-8.3608865e-38 3.838227e-37 1.9239054e-37 1.2283045e-37 -6.2644265e-37 2.772315e-38 -7.584106e-37 -6.439411e-37
-6.2841653e-37 -5.6703074e-37 -1.4137867e-37 -7.898365e-37 -8.863012e-38 -1.9226095e-38 5.8025397e-37 -1.5661723e-37
-3.0794164e-37 -3.7265555e-37 7.4646662e-37 4.4337433e-37 -2.8272788e-38 1.6934249e-37 -6.2465827e-37 1.6312213e-38
-4.489165e-37 -4.24175e-37 -4.6982242e-38 3.5595703e-37 3.5960099e-37 8.474904e-37 9.5436335e-37 -1.4083335e-37
9.124312e-37 1.4895352e-37 1.363046e-37 -1.700185e-37 6.062377e-37 3.4290242e-37 -7.762716e-37 -8.251697e-37
-1.6741172e-37 -5.8097763e-37 -2.0509155e-37 1.4505168e-37 1.1667946e-37 -4.6001652e-38 -6.6421e-38 8.666105e-37
-4.0109274e-37 2.3433033e-37 8.899852e-37 1.9632786e-38 -1.3470615e-37 -1.8623414e-37 1.072103e-37 1.5779182e-37
-7.742848e-38 -9.491561e-37 6.009155e-37 1.2658682e-37 -1.6321496e-37 -5.8232834e-37 -5.641799e-37 2.551944e-38
3.6631881e-37 6.2814206e-37 -5.912346e-38 -3.5936153e-37 -1.389248e-37 -1.5487411e-37 1.6271872e-37 -9.740903e-37
-1.8268498e-38 1.0003048e-36 7.59552e-38 -8.657818e-38 -9.380346e-37 9.1872795e-37 -2.6284985e-37 8.919172e-37
-5.2543953e-37 5.9323847e-37 -8.069279e-37 1.0735555e-37 -9.2128485e-38 -1.2851578e-37 4.794781e-37 -9.842583e-37
1.9369093e-37 3.1853523e-37 -1.9670872e-37 -3.174781e-37 -3.4049515e-37 8.626044e-37 3.7204187e-37 -3.4015954e-38
-3.199637e-38 2.6173217e-37 -8.177157e-37 4.8793455e-37 -5.887168e-37 1.9914868e-37 -1.2800847e-37 3.6085014e-37
-1.5855948e-37 -1.5424752e-37 1.5150471e-37 2.7416281e-37 5.3483925e-38 3.6265136e-37 -1.172656e-37 1.3692542e-37
-2.8935535e-38 -8.081387e-37 -3.0283477e-37 8.863061e-37 -1.3115209e-37 1.4092797e-37 1.6810146e-37 -1.9181094e-37
-3.7371772e-33 -5.3105777e-34 6.1047274e-34 -5.6448208e-34 -3.5150326e-33 -1.9011314e-34 4.6838358e-34 -1.5027312e-34
-3.4217182e-33 6.7848175e-34 3.459024e-34 -5.691963e-34 4.7337314e-34 4.6526457e-34 3.33074e-35 -9.747055e-35
-1.5392674e-35 3.1394327e-34 -1.912268e-34 -1.0732224e-34 1.5142902e-34 7.9454854e-35 -1.8912188e-34 1.4069068e-34
-4.5972944e-35 1.8440688e-34 -1.5924956e-34 3.015059e-34 2.122386e-34 1.7936168e-34 -1.7544725e-34 -1.0455369e-34
-4.6279823e-34 -1.9084404e-34 -1.7668267e-34 -1.448985e-34 -1.8764616e-34 -3.9332794e-34 -1.6164067e-34 -1.274137e-34
1.5115217e-34 -1.9508415e-34 -3.7059316e-35 -6.467102e-35 3.6821766e-34 9.294084e-35 1.0434062e-34 -5.1698913e-35
-1.8776315e-34 1.2594809e-34 -9.519421e-35 -8.5329405e-35 -1.4096806e-34 2.8958377e-34 7.9887606e-35 4.268142e-34
4.8594133e-34 -1.8712467e-34 4.620544e-34 1.9089695e-34 1.8473165e-34 -2.0140188e-34 1.6419101e-34 5.2419e-35
-3.8734803e-34 -4.1231814e-34 -1.9985392e-34 -1.5148337e-34 -2.182938e-34 -6.6659524e-35 1.755539e-34 -1.4060478e-34
8.888219e-35 4.386105e-34 -7.654621e-35 2.321593e-34 4.4927927e-34 1.2762258e-34 5.285811e-35 -2.0930944e-34
2.0372878e-34 1.956551e-34 8.0731115e-35 -5.1689265e-34 1.6136555e-34 -5.6868643e-35 -1.9806432e-34 -3.8591333e-34
-3.7800358e-34 1.3052343e-34 8.4669205e-35 1.7653543e-34 1.1798919e-34 -7.971692e-35 -1.8585799e-34 -1.9417096e-34
1.9791358e-34 -5.2317025e-34 -1.4076786e-34 5.3082822e-34 1.5542956e-34 9.082903e-35 -4.976603e-34 4.6521424e-34
-3.8327843e-34 4.5506536e-34 -1.2701507e-34 1.5752408e-34 -4.0703586e-34 1.7060063e-34 -1.6618634e-34 5.596983e-35
3.4434817e-34 -5.090371e-34 -3.6785248e-35 4.1849522e-35 3.410015e-35 -2.7148104e-34 -2.816245e-34 4.360328e-34
6.4460127e-35 1.0163517e-34 -1.3376142e-34 3.6446253e-34 -4.616888e-34 1.1164188e-34 -1.5533943e-34 2.1533755e-34

bias f4 [128]
00000000: c92a 1b87 2a08 718b c8e9 413c 4be0 b939
00000010: 3a5b 9e3b c9de bcba 004a 0480 e88b 0f82
00000020: 50f8 1e80 904a 0080 41e8 36ba f49f 0000
00000030: 7998 1c82 8ce9 acba 1c8f 0480 e349 873b
00000040: 4b3a bdba d44a 0000 a26f 323a 751e 8dba
00000050: 11df 2d86 5807 0080 786c 0080 e378 dab9
00000060: 962e ee3c 2c03 0000 1477 0580 c023 0080
00000070: d0d1 5aba a04f 0080 4201 378f a7b4 0b85
00000080: 04e0 0a80 aee6 153c 212d 8e84 6cff d687
00000090: 1f24 1582 c8c5 853a b4ae 0000 5e50 b282
000000a0: 052c 203a 4961 c188 c940 0000 6412 0000
000000b0: 1c09 0000 42fa 49b9 38bb cc3b 5711 bbb8
000000c0: a089 6f3b 9c78 0180 ec16 0000 9526 b185
000000d0: 3130 953b 5833 3181 0ebf 203a ac78 0b80
000000e0: 275e 25ba f4d2 0180 4eb2 a084 5c77 0000
000000f0: 545c 7d84 ea7f 013d 041e 0380 226b 2182
00000100: a8ca 4180 da4f 9c3b 263f a23b 38d1 0180
00000110: b85d 3e80 225a c78a fa74 0000 60ae 1180
00000120: b7d6 11bb 68e9 0b80 5c9f 0000 d803 0080
00000130: 2073 0080 503a 9b39 e431 0e80 3c19 1481
00000140: 1e9b 3b81 e8d5 0380 1677 a63b 0c3e 0000
00000150: 1cfa afb9 b335 3c3b 36ee 543b 39ee c6ba
00000160: a82b 2f3d 4a0a 3d3c c4bb dc3b 24a1 893b
00000170: 3cd0 a638 4bdb 6189 14c0 7c80 546b 0280
00000180: 7c5e 0780 3a0c 1b81 c1d2 063c 36ce bc82
00000190: fe83 0281 4b84 3684 1072 0080 6495 da80
000001a0: c4e4 983b 78df a8b8 4edb 9d89 dd92 618e
000001b0: fffd 15bb 0145 6082 9d48 5e88 ac14 6fb8
000001c0: 6e54 c73c b1a9 9b3c 9d1c bfba 5399 5d3b
000001d0: 8c58 59ba b913 fb8b ca32 583a a8dc c682
000001e0: ae88 7f3b d434 5894 b6d6 3c84 14fb d4bb
000001f0: 18a3 4f80 9869 0000 95d0 82ac fef7 263b
-1.1673477e-34 -4.6421054e-32 0.011835523 0.0003545306 0.0048326524 -0.0014409657 -3.93888e-40 -1.0546132e-37
-2.844143e-39 -2.6748e-41 -0.00069773576 5.738e-41 -1.1504827e-37 -0.0013192161 -4.1868e-40 0.004128681
-0.0014436928 2.6843e-41 0.0006806796 -0.0010766523 -3.2701567e-35 -2.634e-42 -3.8911e-41 -0.00041670268
0.029074948 1.138e-42 -5.01895e-40 -1.2825e-41 -0.00083473045 -2.8564e-41 -9.022839e-30 -6.568929e-36
-9.98717e-40 0.009149237 -3.3425484e-36 -3.2349265e-34 -1.0957157e-37 0.0010206038 6.2672e-41 -2.6200878e-37
0.0006110075 -1.1638637e-33 2.324e-41 6.597e-42 3.268e-42 -0.00019262082 0.006247904 -8.920085e-05
0.0036550537 -1.35102e-40 8.223e-42 -1.6659173e-35 0.004552864 -3.2546603e-38 0.0006131985 -1.05348e-39
-0.000630828 -1.67511e-40 -3.7779566e-36 4.2818e-41 -2.9782402e-36 0.03161613 -2.86274e-40 -1.1859158e-37
-6.042007e-39 0.0047702612 0.0049513755 -1.66889e-40 -5.727421e-39 -1.9196907e-32 4.1963e-41 -1.623757e-39
-0.0022253224 -1.093921e-39 5.7167e-41 -1.379e-42 -4.1299e-41 0.0002960735 -1.303594e-39 -2.7201412e-38
-3.4457767e-38 -3.52242e-40 0.005080114 2.2258e-41 -0.00033564947 0.002871853 0.0032490618 -0.0015177197
0.042766243 0.011538098 0.0067362506 0.0042001177 7.9542835e-05 -2.71865e-33 -1.1456506e-38 -2.22173e-40
-6.76743e-40 -2.8477776e-38 0.008228959 -2.7742477e-37 -2.397193e-38 -2.1454743e-36 -4.0918e-41 -2.007373e-38
0.004665943 -8.0524886e-05 -3.800261e-33 -2.7804103e-30 -0.002288699 -1.6476724e-37 -6.689105e-34 -5.7001293e-05
0.024332251 0.019001814 -0.0014580671 0.0033813312 -0.00082910876 -9.671136e-32 0.0008247314 -2.9220136e-37
0.003899138 -1.0915632e-26 -2.2197884e-36 -0.0064996574 -7.313511e-39 3.788e-41 -3.7179795e-12 0.0025477405

weight f4 [19, 128]
00000000: ccc2 0907 5b63 368a af2b 7ebb 1977 d63c
00000010: 1db9 06bd 45a7 163b dc26 0080 bf92 3903
00000020: fd7e 9585 8468 0000 a2da d63c ac2c 0080
00000030: 020b 6506 dd93 fe3a 4408 5b00 a55f 0cbd
00000040: 6e47 0f3b 18b3 0000 ef6b c73c c1e1 6b3a
00000050: 9629 9c05 60b8 0100 e85c 0000 71a0 743a
00000060: 8461 343d 5c91 0400 7057 0480 e03c 0000
00000070: 4e03 ed3a b835 0980 5134 b68e 2c6f 5d0a
00000080: ea05 1a02 f0e0 1cbd edd4 0985 208f c888
00000090: 62d8 ae86 c230 c83c 7403 0080 82b2 7f08
000000a0: 9344 a5b9 044a f689 3b55 ba01 24b3 0000
000000b0: e403 0800 8bc3 d13c 8249 25bd 7a25 7e3c
000000c0: 9918 0dba 9a89 2a01 80a6 0080 cdab 3909
000000d0: 5024 06bd c801 8902 5cf9 6b3b 7c98 0a00
000000e0: e463 a03b 40a0 0000 83d2 2784 8494 8081
000000f0: accf d188 17b5 29bd 382e 0100 0709 c486
00000100: b022 1b00 04a8 17bd 5041 fbbc e47c 1380
00000110: d11f 0980 102e b78f 7070 dd0e 284c 2a80
00000120: b6a5 053d 9092 0580 84e9 1b80 847d 0000
00000130: 8838 0080 12cb dc3c a09a 5780 7ca5 3a05
00000140: 7c20 1500 c37f 8482 118c da3c 4099 0080
00000150: 9edf 583b 5ff8 a83a 30f6 34bc 23e1 283b
00000160: 96b9 ae3c 6bc5 82bd 8ccf 0f3d e4ae 0bbd
00000170: 47f4 d93c 417c 4e0d 6236 4c04 b47d 0000
00000180: dc99 0800 b0dc 8901 c902 44bd 47b5 6f86
00000190: 9af8 2284 fc1c 3b04 2c11 0080 2e5a 3c04
000001a0: ef51 07bd 7187 bd38 8592 4789 46c2 8a0e
000001b0: 555f 793a dc42 8302 c39c b50c 3499 0038
000001c0: cb57 68bd 2561 82bd 8324 95ba d940 7a3a
000001d0: aad7 183b 4b85 830d 9dc8 c63c ae4a 7381
000001e0: 712e 013d 442b 5919 d879 ae05 4ee5 c3bc
000001f0: 3c31 c880 3893 0000 9dd2 4db7 3678 c0ba
00000200: 3602 3b05 6713 df89 3361 6e3b 6d6b 80b9
00000210: 95be 0abb 4889 123a 1caa 0000 7414 1302
00000220: 0413 5784 0835 0000 9c4f 0bba e405 0000
00000230: 5e3a 1005 5f8f 8bbb 54ad 0d80 8585 673a
00000240: cd67 8839 f052 0000 a6ac a1ba c34f c3ba
00000250: 3c7d 8586 3412 0000 60e3 0000 dc04 69ba
00000260: 0d9d f6ba d06d 0080 6837 0080 3883 0000
00000270: 79ac 053b 64c1 0800 5fad 938d 5b94 ca87
00000280: 366f 0b01 f072 f0ba 39a3 1e03 0e54 1488
00000290: 0c14 9005 a630 d5ba 4874 0080 ae5e ec06
000002a0: 3c59 bfbb 8a76 e686 1316 1580 483e 0080
000002b0: f007 0280 feb9 f9b9 7164 ec39 7201 18b9
000002c0: e237 0cbc 8879 3100 d48c 0000 ea06 b207
000002d0: 189c 0c38 b836 7c82 95f1 9639 34a9 0000
000002e0: f3d6 503b a843 0000 a4ed a902 a4bc 4500
000002f0: 028b ad06 5199 22b9 880b 0000 74bd 6b85
00000300: 94a6 0180 54da 803a 259c d4ba 9cd5 0400
00000310: 8ba4 1500 6cbf 830e 80c2 f790 1c34 0100
00000320: 3bcb 523a 9457 0180 f0eb 0380 d055 0080
00000330: c855 0000 7ee4 3139 282f 0380 3a2f 3884
00000340: 5c4f 0000 d6d0 2401 0b6e 643a 7858 0080
00000350: 2d8c 78bb a34c 59ba 7174 80b9 4e0b 1e3b
00000360: e6f4 3639 fcc8 f839 2dda 0abb 2b13 0ab9
00000370: 5c4e 06b9 8c4a 638a 229d bc02 6c23 0080
00000380: 0c7e 0480 2026 4581 f147 41b8 8f1a 3f04
00000390: 30fa a481 25e2 9803 c83e 0080 b7a6 9982
000003a0: ff1e fdb9 de80 0638 7e18 4589 1079 aa0c
000003b0: 7f68 0d3c f853 be80 9088 c68b f3f3 f0b7
000003c0: 9970 503a 6848 79ba 6283 d6ba fdfb f93a
000003d0: cfda d4ba cc5a 448b 09d9 3a3a a889 4100
000003e0: 8be0 0bba 417c 0d17 afe4 1003 b37e f5ba
000003f0: 5c43 0800 10ab 0000 7412 2134 6e96 ac3b
1.036398e-34 -8.781668e-33 -0.0038783362 0.026179837 -0.03289138 0.0022987884 -1.394e-41 5.453507e-37
-1.4058541e-35 3.7493e-41 0.0262273 -1.6025e-41 4.30782e-35 0.0019422729 8.359995e-39 -0.0342709
0.0021862644 6.4247e-41 0.024343459 0.00089981785 1.4685446e-35 1.57977e-40 3.3328e-41 0.0009331769
0.04403831 4.19487e-40 -3.98709e-40 2.1838e-41 0.001808265 -8.4579e-40 -4.4916843e-30 1.0661672e-32
1.131583e-37 -0.038300455 -6.480817e-36 -1.2070711e-33 -6.576947e-35 0.024437312 -1.239e-42 7.6946106e-34
-0.00031522344 -5.929195e-33 6.844791e-38 6.4264e-41 7.3608e-40 0.025605937 -0.040353306 0.015511865
-0.00053823885 3.1322793e-38 -5.9729e-41 2.2349345e-33 -0.032749474 2.0131363e-37 0.0036006784 9.73056e-40
0.0048947204 5.7487e-41 -1.9727418e-36 -4.7232884e-38 -1.2627553e-33 -0.041432466 1.08416e-40 -7.374027e-35
2.492002e-39 -0.037025467 -0.030670792 -1.789677e-39 -8.37933e-40 -1.8062936e-29 5.458898e-30 -3.88441e-39
0.032628737 -5.11754e-40 -2.563328e-39 4.5027e-41 -2.028e-41 0.0269523 -8.045157e-39 8.776073e-36
1.940199e-39 -1.9468988e-37 0.026678117 -5.4976e-41 0.003309227 0.0012891403 -0.011045024 0.0025768958
0.021328729 -0.06385311 0.03511004 -0.034102336 0.026605738 6.3628216e-31 2.4005056e-36 4.5094e-41
7.89878e-40 5.0642523e-38 -0.04785422 -4.5084086e-35 -1.915716e-36 2.1995053e-36 -6.16e-42 2.2140702e-36
-0.033037122 9.03745e-05 -2.4022647e-33 3.4206705e-30 0.0009512802 1.9287095e-37 2.7981813e-31 3.066026e-05
-0.05672435 -0.06366185 -0.0011378679 0.0009546406 0.0023321905 8.105587e-31 0.024265582 -4.468563e-38
0.03153843 1.12273745e-23 1.640764e-35 -0.023913052 -1.8384761e-38 5.2812e-41 -1.2267989e-05 -0.0014684263
8.793104e-36 -5.3703543e-33 0.0036373853 -0.000244941 -0.0021170725 0.00055899145 6.1024e-41 1.0805724e-37
-2.528186e-36 1.9024e-41 -0.0005314292 2.113e-42 6.781568e-36 -0.0042590345 -1.25604e-39 0.00088318466
0.0002601728 2.9752e-41 -0.0012334778 -0.001490109 -5.0213055e-35 6.53e-42 8.1567e-41 -0.0008888969
-0.0018815115 -3.9393e-41 -1.9876e-41 4.7072e-41 0.0020396991 8.0406e-40 -9.101312e-31 -3.0480777e-34
2.5610058e-38 -0.0018344801 4.6619397e-37 -4.4635936e-34 1.3549059e-35 -0.0016265109 -4.1714e-41 8.891245e-35
-0.005839495 -8.669056e-35 -1.936464e-39 -2.2342e-41 -1.86518e-40 -0.00047631556 0.00045088262 -0.00014496388
-0.008558245 4.543537e-39 5.052e-41 2.6786527e-34 3.3523975e-05 -1.852974e-37 0.00028790222 6.0699e-41
0.00318664 2.427e-41 2.4968717e-37 6.404321e-39 6.527962e-35 -0.00015506639 4.137e-42 -1.1084444e-35
-1.51592e-40 0.0009830692 -0.0016220851 4.4397e-40 1.987572e-39 3.2478326e-30 -9.7723996e-29 1.10529e-40
0.0008041148 -1.23253e-40 -3.60145e-40 -3.0784e-41 3.0773e-41 0.00016965155 -2.92423e-40 -2.1650781e-36
2.8469e-41 3.0271875e-38 0.00087139074 -3.1737e-41 -0.0037925348 -0.0008289313 -0.00024500818 0.0024115625
0.00017448104 0.0004745199 -0.0021187172 -0.00013167846 -0.00012808427 -1.0943673e-32 2.7714307e-37 -1.2707e-41
-4.12559e-40 -3.621054e-38 -4.6081786e-05 2.2464137e-36 -6.0603087e-38 8.985677e-37 -2.2522e-41 -2.257702e-37
-0.00048279014 3.2068107e-05 -2.3724529e-33 2.626551e-31 0.008630871 -1.7478867e-38 -7.64723e-32 -2.8723827e-05
0.00079513487 -0.00095093856 -0.001636606 0.0019072291 -0.0016239526 -3.7816535e-32 0.00071276777 6.018689e-39
-0.00053358887 4.571639e-25 4.2580313e-37 -0.0018729776 7.58848e-40 6.1366e-41 1.5001007e-07 0.005266956

bias f4 [19]
00000000: 5d33 aa3e 4fa5 f6b8 29e2 b4b7 515c c3b8
00000010: 2fb7 a93e 455d d0b7 1f41 d338 e2d9 09b8
00000020: 4cb6 a93e fe2f ac3e 3101 4db8 e849 03b8
00000030: 3817 38b9 6362 ab3e 1c18 c737 9380 fb37
00000040: 3898 0b39 cc6b ab3e 1cb8 3ebe
0.33242312 -0.00011760985 -2.1562986e-05 -9.31552e-05 0.3314757 -2.4838964e-05 0.00010073394 -3.2866265e-05
0.33146894 0.33630365 -4.887692e-05 -3.1301664e-05 -0.00017556257 0.334735 2.3733875e-05 2.9981404e-05
0.00013312779 0.3348068 -0.1862492
