models/data_aug/H/model1.pt (torch, 353039 bytes, 8 tensors)

weight f4 [128, 384]
0	0xbc3ce0c5	-0.011528199
1	0xbaeb6a55	-0.0017960767
2	0x3c1ed3ad	0.009694022
3	0x3ac6b0d7	0.0015158904
4	0x3bf97265	0.007612514
5	0x3c26b908	0.010175951
6	0xbba0a80a	-0.0049028443
7	0xba784a92	-0.0009471561
8	0xba4fca82	-0.00079265994
9	0xbb041851	-0.0020156095
10	0xbacad9e5	-0.0015476315
11	0xbafe5f73	-0.0019407108
12	0x3ccad51e	0.024759825
13	0xbbe20c50	-0.0068984404
14	0x3ce3ff07	0.027831567
15	0xba93f3e6	-0.0011287897
16	0xbc9725e7	-0.01845069
17	0x3cf6aa6c	0.03011056
18	0xbc0e701b	-0.00869372
19	0x3c61d240	0.013783038
20	0x3b8af8c2	0.00424108
21	0x3c513b6a	0.012770513
22	0x3c47f491	0.012204305
23	0xbcb0047e	-0.021486517
24	0xbcff8053	-0.03118912
25	0x3cde2b59	0.02712028
26	0x3d1e7894	0.03868921
27	0xbd0a399a	-0.03374634
28	0xbd0b724f	-0.03404456
29	0x3c671a8e	0.014105452
30	0xbbd59922	-0.006518499
31	0xbbbb7c57	-0.0057216096
32	0xbcb5c830	-0.022190183
33	0x3d0e9f0c	0.034819648
34	0x3b6c441c	0.0036051339
35	0x3c9a6952	0.018849049
36	0x3d1656ac	0.03670375
37	0xbb8219af	-0.003970347
38	0x3be5dd32	0.007014894
39	0xbbc34b94	-0.0059599373
40	0x3a543484	0.00080949836
41	0xbca417bc	-0.020030849
42	0xbcd2f871	-0.025753232
43	0x39a45300	0.00031342357
44	0xbc8ce23d	-0.017197723
45	0xbd23794d	-0.039910603
46	0xbc1129d6	-0.008860072
47	0xbb9b7515	-0.004744182
48	0x3cf0cf7a	0.029395808
49	0x3bada1cc	0.0052988287
50	0x3d395860	0.045250297
51	0x3a386d22	0.0007035305
52	0x3cec429a	0.028840352
53	0xbc23b135	-0.00999098
54	0xbc4655ff	-0.012105464
55	0xbab094e0	-0.0013472103
56	0x3bf41655	0.0074489512
57	0xbcc8f209	-0.024529474
58	0xbc97d839	-0.01853572
59	0xbb5ee67d	-0.0034011893
60	0xbd064480	-0.03278017
61	0xbb3ca30f	-0.0028783714
62	0xbb0b08ed	-0.0021215037
63	0x3aacaba0	0.0013173707
64	0xb6d81a16	-6.4403384e-06
65	0xba08b4d2	-0.00052149326
66	0xbaeca817	-0.0018055466
67	0xba26cf75	-0.0006363311
68	0x3a3a9812	0.0007117997
69	0xba4eb6de	-0.00078855257
70	0xb8e3ac4c	-0.00010856296
71	0x391f8735	0.0001521379
72	0x39afdbbc	0.00033542316
73	0xbc2d435f	-0.010575145
74	0x3b382368	0.0028097276
75	0x3c06467f	0.0081955185
76	0x3c69f5fb	0.014279838
77	0x3a2454a5	0.00062687165
78	0x3c489d7c	0.012244578
79	0x3c3dfb75	0.011595597
80	0xbadb22c9	-0.0016718741
81	0x3bdd2ef6	0.006749983
82	0x3c3a242f	0.011361166
83	0x3cd7204b	0.026260516
84	0x3bfbe118	0.0076867454
85	0xbcc5625f	-0.024094759
86	0x3ba55f68	0.0050467737
87	0xbc3c0bf1	-0.011477456
88	0xbb3591a4	-0.0027705217
89	0x3c0ee8d1	0.0087225
90	0x3b6746b9	0.0035289957
91	0xbb034b1c	-0.0020033782
92	0xbcbbf7e5	-0.022945354
93	0xbc90662d	-0.017626846
94	0xbc5c1ebe	-0.013435064
95	0xbb9df5b5	-0.0048205503
96	0x3c3b843b	0.0114451
97	0x3c5ab114	0.013347883
98	0xbbd4c66d	-0.0064933808
99	0x3c322719	0.010873579
100	0xbb71a66d	-0.003687288
101	0xbadadaf7	-0.0016697337
102	0x3b335f81	0.0027370157
103	0x3a064fb6	0.0005123572
104	0xbc541740	-0.012944996
105	0xbc5a89d2	-0.013338523
106	0xbc50ee01	-0.012752057
107	0xbbd6680a	-0.006543164
108	0xbaff2ef2	-0.0019468947
109	0x3aa7ae92	0.0012793115
110	0xbb9f6913	-0.0048648207
111	0x3b4f7ef9	0.0031661375
112	0xbd16a727	-0.036780503
113	0xbca15075	-0.019691685
114	0x3ba9b048	0.005178485
115	0x3c555e35	0.013022949
116	0xbaf439bd	-0.001863293
117	0xbcf7bb11	-0.030240567
118	0xbcb8166b	-0.022471627
119	0xbb22a75f	-0.0024819
120	0x3d142622	0.03616918
121	0x3cf62204	0.030045517
122	0xbd26db69	-0.04073659
123	0xbd2cc700	-0.04218197
124	0xbbb49fe9	-0.005512227
125	0xbc242656	-0.010018906
126	0xbb0d6833	-0.0021577
127	0xba068802	-0.0005131961
128	0x3910a06f	0.00013792676
129	0x3bd87918	0.0066062324
130	0x3c35da2c	0.0110993795
131	0x3b206ec8	0.0024480093
132	0x3b814804	0.0039453525
133	0x3afe3c4f	0.0019396635
134	0xba2b3bd9	-0.00065320503
135	0xb924fbc7	-0.00015734053
136	0xbc6c99df	-0.014440983
137	0x3c91e249	0.017808096
138	0x3c03e77c	0.008050796
139	0x3c4f90fa	0.012668842
140	0xbc3252bc	-0.010883983
141	0x3b87d5f9	0.0041453806
142	0x3b53a588	0.003229471
143	0xbbc94b3e	-0.006143003
144	0xbd46f17d	-0.048570145
145	0xbc1dcada	-0.009630883
146	0xbba176ee	-0.0049275076
147	0xbb97cbad	-0.0046324343
148	0x3c9d28f2	0.019184563
149	0x3c3c4d62	0.011493059
150	0x3b7db084	0.0038709948
151	0x393a1bbf	0.00017748679
152	0xbcbd6178	-0.023117766
153	0xbcef54fb	-0.029215327
154	0xbc4c3853	-0.012464601
155	0x3c84f9e3	0.016232437
156	0x3c060e44	0.008182112
157	0x3bfb7537	0.007673885
158	0x3baa8a7b	0.0052044964
159	0x396a5775	0.0002234856
160	0x3caa3fd1	0.020782383
161	0x3c36c25c	0.011154737
162	0xbc92820d	-0.017884279
163	0x399d93c3	0.00030055465
164	0x3c64e824	0.013971362
165	0x3be79392	0.0070671523
166	0x3b4423f2	0.0029928652
167	0xb9a3addd	-0.0003121932
168	0x3cc776d7	0.02434866
169	0x3afbdded	0.0019215919
170	0xbcaac101	-0.020843985
171	0x3c22a786	0.009927636
172	0xbccebf8a	-0.025237817
173	0xbbed3f80	-0.007240236
174	0x3aafb37f	0.0013404934
175	0xbb3c8827	-0.0028767677
176	0xbb33cab7	-0.002743406
177	0xbc2edc0b	-0.0106725795
178	0xbc5165c9	-0.012780615
179	0x3c767308	0.015042074
180	0x3d20fe95	0.03930529
181	0xbc2fc580	-0.01072824
182	0x3c57e54e	0.013177229
183	0x3c0823ea	0.008309344
184	0xbbfd7d67	-0.0077358964
185	0xbca65508	-0.020304218
186	0xbc557e52	-0.013030605
187	0x39ad9c53	0.00033113602
188	0x3b66327d	0.0035125308
189	0xbbc51cad	-0.0060153813
190	0xba083466	-0.0005195796
191	0x3b20e463	0.0024550192
192	0x39241add	0.00015650266
193	0x39719909	0.00023040561
194	0xbafd056d	-0.0019303985
195	0xbaa31b92	-0.001244413
196	0xb90540e7	-0.00012708046
197	0x3986c204	0.00025703025
198	0xb88a4174	-6.5925444e-05
199	0xb7fb7440	-2.9975665e-05
200	0x3caab32a	0.020837385
201	0x3b2e5183	0.0026598878
202	0xbbf92bd0	-0.0076041
203	0xbac972da	-0.0015369311
204	0xbc10ccb3	-0.008837867
205	0x3be6cd54	0.00704352
206	0x3b32b001	0.002726555
207	0x397df604	0.00024219608
208	0x3a8da55c	0.0010806727
209	0xbc4a121a	-0.012333417
210	0xbc194562	-0.009354921
211	0xbc19fd04	-0.0093987025
212	0x3b8b4dc7	0.004251215
213	0x3ba029d2	0.004887798
214	0xba20e785	-0.0006138015
215	0x3a518ceb	0.00079937157
216	0xbb1d29b9	-0.0023981167
217	0xbbb32eb7	-0.0054682153
218	0xbb2db821	-0.0026507454
219	0x3ba59cf3	0.00505411
220	0x3aac452d	0.0013143175
221	0xb828fa51	-4.0287447e-05
222	0xb94bc7ce	-0.00019434022
223	0xb6fe6816	-7.581907e-06
224	0xb73c0d70	-1.1208802e-05
225	0xbc2f0f5e	-0.010684816
226	0xbc22e3a2	-0.009941967
227	0x3c12d061	0.008960814
228	0x3b683880	0.0035434067
229	0xb8866bcd	-6.4096974e-05
230	0xb9744086	-0.0002329369
231	0xb6daa9fb	-6.5166946e-06
232	0x3d251cae	0.040310554
233	0xbb5a60e3	-0.003332191
234	0xbca51ae2	-0.02015442
235	0x3c6e6ca9	0.014552274
236	0x3c759283	0.014988544
237	0x39ea917b	0.0004474035
238	0xbbabdccc	-0.005244827
239	0x398008de	0.0002442067
240	0xbbc23032	-0.0059261555
241	0xbd643d88	-0.055722743
242	0xbd11c9fa	-0.03559301
243	0x3d3b60f3	0.045746755
244	0x3c3de2a1	0.011589677
245	0x3c2a0d1d	0.010379103
246	0x3b9bf3d2	0.0047592903
247	0xb99277f2	-0.00027936656
248	0xbaa4238d	-0.0012522802
249	0xbc9c2ed0	-0.01906529
250	0xbba34c4e	-0.0049834615
251	0xbb262d06	-0.0025356426
252	0xba82efa5	-0.0009989633
253	0xba905b0b	-0.0011013461
254	0xbaee0d4d	-0.0018161923
255	0xba44db61	-0.00075094966

bias f4 [128]
0	0xbd1a6e8d	-0.037703086
1	0x3b8c59e5	0.004283177
2	0x3c4a2fda	0.01234051
3	0xbc164cfd	-0.009173629
4	0xbd2cb74b	-0.04216699
5	0x81df1f42	-8.1962115e-38
6	0xbd66cda0	-0.056348443
7	0x812fa23a	-3.2258816e-38
8	0xbc6243d4	-0.013810117
9	0xbd04b7de	-0.032401912
10	0x80db9280	-2.0164528e-38
11	0x3aa097bf	0.0012252255
12	0xbcaf30ef	-0.021385638
13	0x3c845b05	0.016156683
14	0x3cbe6de9	0.023245769
15	0xbb3d697c	-0.0028901985
16	0x3c977614	0.018488921
17	0xbd8ef7a7	-0.0698083
18	0x3c8dc5b5	0.017306188
19	0x3b65f68d	0.0035089583
20	0xbcd902e3	-0.026490634
21	0x8004191c	-3.7635e-40
22	0xbd968a9f	-0.073506586
23	0xbbd264e3	-0.006420718
24	0xbcb06991	-0.021534713
25	0x3ab116c6	0.0013510815
26	0x827a79e7	-1.8402083e-37
27	0x3c90ee6a	0.01769181
28	0x3c824793	0.01590327
29	0xbd824b72	-0.06362046
30	0x816cf56a	-4.352243e-38
31	0x3aa9132b	0.0012899389
32	0x3ce4e811	0.02794269
33	0x1464b600	1.15469515e-26
34	0x3c345f44	0.011009041
35	0xbd311527	-0.043233063
36	0x80112b78	-1.576797e-39
37	0xbd77672f	-0.060401138
38	0xbd9b17cf	-0.075729005
39	0xbcd6b648	-0.026209965
40	0xbd436989	-0.047708068
41	0xbd455d83	-0.048184883
42	0xbb3955c1	-0.0028279873
43	0x3c631798	0.013860606
44	0x89f08224	-5.7900282e-33
45	0x3b09bcda	0.0021017105
46	0x3d1aa2ac	0.037752792
47	0x3c09fd8f	0.0084222695
48	0x3d76fdff	0.060300823
49	0x802d8330	-4.179659e-39
50	0xbd64421c	-0.05572711
51	0x3cc200d7	0.023682041
52	0x3d139341	0.036029104
53	0x800a3fec	-9.41286e-40
54	0xba0bcb0a	-0.00053326844
55	0xbc972679	-0.018450962
56	0x800b5670	-1.041198e-39
57	0x3aa307d9	0.0012438252
58	0x800325bc	-2.89043e-40
59	0x3d68f35f	0.05687272
60	0xbcf9755e	-0.030451473
61	0x8004a584	-4.26718e-40
62	0x3ce170a6	0.027519535
63	0x3613055c	2.1907827e-06
64	0xbd4f52d1	-0.05061609
65	0xbc42a6cb	-0.011880587
66	0xba0c769c	-0.00053582503
67	0xb952f915	-0.00020119951
68	0x3c0518f8	0.008123629
69	0xbca6f2a2	-0.020379368
70	0x3d4867a6	0.04892697
71	0x800cd028	-1.176698e-39
72	0x810ddf12	-2.6057655e-38
73	0x83d6c74e	-1.2623548e-36
74	0x8016c218	-2.090009e-39
75	0x3ce066ea	0.027392823
76	0xbd22a77b	-0.039710503
77	0xb90be719	-0.00013342164
78	0xbd2a86a8	-0.041632324
79	0x3ca869d7	0.02055828
80	0x3d75f544	0.060048357
81	0x8004827c	-4.14151e-40
82	0x3c899cf9	0.016798483
83	0xbc508c4f	-0.012728765
84	0xbd835cdb	-0.06414195
85	0x806367d8	-9.128966e-39
86	0xbceeb30e	-0.029138114
87	0x3c87a970	0.016560286
88	0xbc929870	-0.017894953
89	0xbd56d02c	-0.052444622
90	0x3d7326d4	0.0593632
91	0xbc4097f3	-0.0117549775
92	0xb98090b1	-0.00024521866
93	0xb998a474	-0.00029114226
94	0xbd8edb23	-0.06975391
95	0x802204c4	-3.124116e-39
96	0x3cd043e1	0.025422992
97	0x801bd740	-2.556776e-39
98	0x800d5ae4	-1.226467e-39
99	0x80057e64	-5.04518e-40
100	0xbb8bda39	-0.0042679575
101	0xbd3335e3	-0.043752562
102	0xb7ed26c1	-2.8270648e-05
103	0x3c3d0de5	0.011538957
104	0x80179790	-2.166587e-39
105	0x8004a4d0	-4.26466e-40
106	0x80047548	-4.09415e-40
107	0x3a9f2bfb	0.0012143845
108	0x3b8795de	0.0041377386
109	0xbd25c484	-0.040470615
110	0x3c4670f6	0.012111893
111	0x84e9321b	-5.482405e-36
112	0x3d1a194f	0.037621792
113	0x3a3cf9b3	0.0007208839
114	0xbcef2f04	-0.029197223
115	0xbc6e9006	-0.014560705
116	0xbdacabae	-0.08431183
117	0x3c0990b3	0.008396315
118	0xbd9548a3	-0.07289245
119	0xbd40fae4	-0.047114268
120	0x3c70ca60	0.014696687
121	0x8004d584	-4.43937e-40
122	0x3c2db109	0.0106012905
123	0xbc6f479c	-0.014604475
124	0x3c9c7fa0	0.019103825
125	0xbbb62621	-0.0055587445
126	0xbb26cd7e	-0.0025452073
127	0xb9e4d643	-0.00043647186

weight f4 [128, 128]
0	0x3c5b3e2d	0.013381523
1	0x3c27e518	0.010247491
2	0xbb9e46f8	-0.0048302375
3	0x3be47db3	0.0069729923
4	0x3c4a18f4	0.012335051
5	0x011a4e6e	2.8341603e-38
6	0x3b14d459	0.0022709577
7	0x0011c4e8	1.63184e-39
8	0x3bfc2215	0.0076944926
9	0x3c78d60e	0.015187753
10	0x00045ac4	3.99903e-40
11	0x3b883503	0.00415671
12	0x3949890f	0.00019219912
13	0x3bba1a83	0.00567943
14	0xbc544ec6	-0.012958234
15	0xb83cea31	-4.50408e-05
16	0x3c236efd	0.009975192
17	0x3b35882c	0.0027699573
18	0x3a187c22	0.0005816837
19	0xba7ffb60	-0.0009764936
20	0x3bddcdad	0.006768903
21	0x00007078	4.0346e-41
22	0x3b5b10a5	0.003342667
23	0x3b18197c	0.002320855
24	0x3c6029f7	0.01368188
25	0x3c87e142	0.016586903
26	0x0012c2f8	1.72298e-39
27	0xbc604058	-0.013687216
28	0x3aa55b0e	0.0012615637
29	0x3bc68122	0.0060578743
30	0x800a9f40	-9.75483e-40
31	0xbbfc6cc8	-0.0077033974
32	0xbb599daa	-0.0033205547
33	0x130e82f9	1.7987494e-27
34	0x3995d181	0.00028575587
35	0x3b7b86a8	0.0038379822
36	0x80022018	-1.95184e-40
37	0x3c5849dd	0.013201204
38	0x3c477b06	0.012175327
39	0x3c673142	0.014110865
40	0x3b56e146	0.0032788082
41	0x3c6435bc	0.013928827
42	0x3beb240b	0.0071759275
43	0xbc847fa4	-0.016174145
44	0x88680e07	-6.983145e-34
45	0x3c5d1502	0.013493778
46	0x3bb2c9ae	0.005456171
47	0xbc207518	-0.009793542
48	0xba2c5200	-0.0006573498
49	0x8004d2e0	-4.4299e-40
50	0x3c4daac6	0.012552923
51	0xba93b222	-0.0011268298
52	0x3c1ef330	0.009701535
53	0x00002f50	1.6973e-41
54	0x3bf515d0	0.007479407
55	0x3c296658	0.010339342
56	0x00001cf0	1.0381e-41
57	0x3c1eac75	0.009684672
58	0x0000a660	5.9684e-41
59	0xbb863331	-0.004095458
60	0x3c79b2e7	0.015240408
61	0x000006b4	2.405e-42
62	0x3c137692	0.009000437
63	0xbb8ab578	-0.0042330585
64	0x3c94eaf9	0.01817845
65	0x3c6769b6	0.014124325
66	0x3c490eeb	0.012271623
67	0x3cb86121	0.022507252
68	0x3aec67ad	0.0018036269
69	0x3cb252ed	0.021768058
70	0x3b8ba596	0.0042616827
71	0x000076e4	4.265e-41
72	0x801039ac	-1.490057e-39
73	0x8235ae5e	-1.3347821e-37
74	0x80007b54	-4.4242e-41
75	0xbbd8ec90	-0.0066199973
76	0x3c660cbd	0.014041123
77	0x3c2ded7c	0.010615703
78	0x3c7c38be	0.015394388
79	0x3bc6ef5e	0.0060710153
80	0xbb5386c9	-0.0032276383
81	0x0000a424	5.8883e-41
82	0x3c7556bd	0.014974293
83	0xbbe78842	-0.0070658037
84	0x3c7b2253	0.015328008
85	0x8004e74c	-4.50316e-40
86	0x3c76063c	0.015016135
87	0x3b709b00	0.003671348
88	0x3bb4c69c	0.00551684
89	0x3c796e77	0.015224091
90	0xbbccd494	-0.006250927
91	0x3c271788	0.010198481
92	0xbc3ed5c9	-0.01164765
93	0x3aa0a731	0.0012256858
94	0x3c6b7982	0.014372231
95	0x00000834	2.943e-42
96	0xbb62d2aa	-0.003461043
97	0x8001ae70	-1.54412e-40
98	0x80003a80	-2.0986e-41
99	0x800094e0	-5.3406e-41
100	0x3cab7d31	0.02093372
101	0x3c74b35b	0.01493534
102	0x3baefb45	0.0053400123
103	0x3c21c73f	0.009874164
104	0x00010324	9.2962e-41
105	0x8005c3a4	-5.2936e-40
106	0x80005c14	-3.3031e-41
107	0x3c5e13a2	0.0135544855
108	0x3a33cb74	0.0006858625
109	0x3c1341a5	0.008987819
110	0x3ba5db3c	0.005061535
111	0x038a9f8b	8.14754e-37
112	0x3c50b9eb	0.012739639
113	0x3c3e6358	0.011620365
114	0x3ca9f4b1	0.02074656
115	0x3c8ac7d6	0.016940992
116	0x3c21f394	0.009884734
117	0x3ad0d62b	0.0015932968
118	0x3c58d977	0.013235441
119	0x3c79e55f	0.01525244
120	0x3c29841a	0.010346437
121	0x00003288	1.8127e-41
122	0xbb0c967a	-0.0021451996
123	0xba1484ae	-0.0005665523
124	0x3b992143	0.0046731546
125	0x3ca5e8e2	0.020252649
126	0xbac69ab0	-0.0015152302
127	0x3c3ec81b	0.011644389
128	0x3c632657	0.013864121
129	0x3c3b0280	0.01141417
130	0xbb89690c	-0.0041934308
131	0x3be21200	0.0068991184
132	0x3c50aa80	0.012735963
133	0x011e42ea	2.9068025e-38
134	0x3acd8728	0.0015680538
135	0x00121580	1.660752e-39
136	0x3c030b89	0.007998356
137	0x3c83cd31	0.016089054
138	0x0004c7c4	4.39004e-40
139	0x3ba9755f	0.0051714624
140	0xb9930b41	-0.0002804641
141	0x3be04e4e	0.006845272
142	0xbc69e448	-0.014275618
143	0x3a9752c7	0.0011545055
144	0x3c3a4a04	0.011370186
145	0x3b26558f	0.0025380587
146	0x3ac25b82	0.0014828297
147	0xb89067fc	-6.885824e-05
148	0x3c055484	0.008137826
149	0x0000990c	5.4903e-41
150	0x3b6e5149	0.0036364368
151	0x3acdc71f	0.0015699601
152	0x3c687f6e	0.014190538
153	0x3c937371	0.017999383
154	0x0001ee18	1.77247e-40
155	0xbc722b3c	-0.014780816
156	0x3b13e9ba	0.0022569732
157	0x3bc18262	0.0059054354
158	0x800c0260	-1.102878e-39
159	0xbbf6edf4	-0.0075356904
160	0xbb453e70	-0.003009703
161	0x12f1dd49	1.5263789e-27
162	0xb9ad69b1	-0.00033075878
163	0x3b74b8ba	0.003734155
164	0x80021c2c	-1.93777e-40
165	0x3c5d3620	0.013501674
166	0x3c55546e	0.013020618
167	0x3c709cd4	0.014685828
168	0x3b3d082e	0.0028843987
169	0x3c6e8b66	0.014559602
170	0x3c080769	0.008302548
171	0xbc8e350e	-0.017359283
172	0x88674ca9	-6.9604148e-34
173	0x3c709623	0.014684233
174	0x3bda66ee	0.006665102
175	0xbc2e7c2d	-0.010649723
176	0x3965b1b3	0.0002190534
177	0x8004eb14	-4.51672e-40
178	0x3c56a48a	0.013100753
179	0xb990aaa3	-0.00027592955
180	0x3c344d29	0.011004725
181	0x8000326c	-1.8088e-41
182	0x3be73ddd	0.007056935
183	0x3c40b364	0.01176152
184	0x000006e4	2.472e-42
185	0x3c314cca	0.010821531
186	0x0000b2e8	6.418e-41
187	0xbb69ac03	-0.0035655505
188	0x3c855d93	0.016279971
189	0x80000f94	-5.588e-42
190	0x3c2be7d1	0.010492281
191	0xbb811e08	-0.0039403476
192	0x3c9e6be0	0.019338548
193	0x3c75c550	0.015000656
194	0x3c66152c	0.014043134
195	0x3cc552dd	0.024087364
196	0x3b371d41	0.002794102
197	0x3cc10843	0.02356351
198	0x3bab963d	0.0052364157
199	0x000050bc	2.8962e-41
200	0x800df4c0	-1.281661e-39
201	0x82396d82	-1.3623081e-37
202	0x8000783c	-4.3132e-41
203	0xbbce0b5c	-0.0062879752
204	0x3c7866d6	0.015161237
205	0x3c25af3e	0.010112582
206	0x3c87eaf9	0.016591536
207	0x3bf01356	0.007326524
208	0xbb259681	-0.002526671
209	0x000077f0	4.3025e-41
210	0x3c87bff9	0.016571032
211	0xbbd07915	-0.0063620904
212	0x3c8369a7	0.01604159
213	0x80049ad8	-4.2289e-40
214	0x3c84d348	0.016214028
215	0x3ba39578	0.0049921833
216	0x3bad6694	0.0052917693
217	0x3c833f8a	0.016021509
218	0xbbb984e9	-0.005661596
219	0x3c2ac749	0.01042349
220	0xbc5716ed	-0.0131280245
221	0x38f4c39a	0.0001167126
222	0x3c7d3415	0.015454312
223	0x0000143c	7.259e-42
224	0xbb40bc5e	-0.002940915
225	0x8001cde8	-1.65701e-40
226	0x80002fd0	-1.7152e-41
227	0x80009a14	-5.5273e-41
228	0x3cb97693	0.022639548
229	0x3c82c274	0.015961863
230	0x3bd9a9c6	0.006642553
231	0x3c3b80a1	0.011444242
232	0x00010240	9.2643e-41
233	0x8006fe38	-6.4221e-40
234	0x80005b14	-3.2673e-41
235	0x3c59d521	0.013295443
236	0x3ac8e9cf	0.001532847
237	0x3c143bfb	0.009047504
238	0x3bc96466	0.0061460016
239	0x038ead2d	8.385769e-37
240	0x3c690ade	0.014223782
241	0x3c48e48d	0.012261522
242	0x3cb4e1b3	0.022080278
243	0x3c97478c	0.018466733
244	0x3c26bd44	0.01017696
245	0x3b2f1f21	0.0026721435
246	0x3c713850	0.014722899
247	0x3c871fd7	0.016494675
248	0x3c3ed23a	0.011646802
249	0x00003174	1.774e-41
250	0xbb4bd967	-0.0031104924
251	0xbac82edd	-0.0015272755
252	0x3bc7d115	0.0060979226
253	0x3cb23146	0.021752011
254	0xba078ae9	-0.00051705405
255	0x3c521c14	0.012824077

bias f4 [128]
0	0xbaec013c	-0.0018005739
1	0xbae69f63	-0.0017595108
2	0xbab61cfb	-0.0013894135
3	0x3ab2dc3e	0.001364596
4	0xbbb300c8	-0.0054627396
5	0x3a65c3b6	0.000876482
6	0x3b7fdf4f	0.0039043014
7	0xbba79cee	-0.005115143
8	0xbafc4ba4	-0.0019248617
9	0xbbb61131	-0.0055562486
10	0x3bb0b58c	0.005392736
11	0xbb89f8d9	-0.004210573
12	0x3ba1b3e0	0.004934773
13	0xbb9b8820	-0.004746452
14	0x3b8630d1	0.004095175
15	0xbb4ee34c	-0.0031568585
16	0xbb94d734	-0.004542256
17	0xbbb7e7f5	-0.005612368
18	0xbac68ee6	-0.0015148788
19	0xbae6d7d9	-0.0017611935
20	0x3bd2b0cc	0.0064297672
21	0xbaf61263	-0.001877379
22	0x3ae020e0	0.0017099641
23	0x3ae757f2	0.0017650111
24	0x3bb155da	0.0054118456
25	0xba8bac5c	-0.0010656225
26	0x3b9fb2d2	0.004873612
27	0x3af4145e	0.0018621793
28	0xba475ef4	-0.00076053967
29	0xba3c9aa2	-0.0007194673
30	0xbbf51ab3	-0.0074799894
31	0x3b84c1aa	0.004051407
32	0x3bb232ce	0.0054381853
33	0xbb3030b8	-0.0026884507
34	0x3ba0535d	0.00489275
35	0x3b70c92a	0.0036740997
36	0x3bb72870	0.0055895373
37	0x3b7370b0	0.0037146024
38	0xba9fecf5	-0.0012201356
39	0xbb85ffe5	-0.004089343
40	0xbb31ca41	-0.002712861
41	0xbb1c0d1b	-0.0023811522
42	0xbaa4ee58	-0.0012583239
43	0x391cd1f1	0.00014955529
44	0xbbb7ac52	-0.005605259
45	0x3b88b7a7	0.0041722837
46	0xbbd0fc37	-0.0063777226
47	0x3bab181b	0.0052213795
48	0x3bb3abe7	0.005483139
49	0x3b5cfe13	0.0033720776
50	0x3afd95f1	0.0019347054
51	0xbb9584f5	-0.004562969
52	0x3a326c67	0.00068063143
53	0x3a475ef4	0.00076053967
54	0xb9ff452b	-0.00048688924
55	0x3baa591c	0.005198611
56	0x3b079fd6	0.0020694635
57	0xbb33e5b7	-0.0027450153
58	0xba36d447	-0.0006974381
59	0x3ba54be2	0.0050444463
60	0xbbbd78e3	-0.005782233
61	0x3aa4deda	0.0012578622
62	0xba6e3e2d	-0.00090882444
63	0x3b8a5400	0.0042214394
64	0x3b472e8d	0.0030392737
65	0x3b79cc33	0.0038116097
66	0xbbb45792	-0.0055036033
67	0x3bb10107	0.005401734
68	0xbaa27eef	-0.0012397448
69	0xbaf963d6	-0.0019026946
70	0xbaac8079	-0.0013160846
71	0xbb000719	-0.001953548
72	0xbb9b1ab1	-0.0047334065
73	0xbb82c5c0	-0.003990859
74	0x3bcf0986	0.006318274
75	0x3bb24737	0.0054406184
76	0x3b8820ff	0.004154324
77	0xba93847c	-0.0011254693
78	0x3bad6ed9	0.005292755
79	0x3bc88e88	0.0061205067
80	0x3b8a372f	0.004218004
81	0xbb3cd534	-0.0028813602
82	0xbaf919f3	-0.0019004926
83	0xb895329c	-7.1143004e-05
84	0xb9cbc25e	-0.00038863992
85	0x3bbb06e3	0.005707608
86	0xbbcfa5a9	-0.006336887
87	0xba114f59	-0.0005543135
88	0x3bafa107	0.005359772
89	0xbc2159e4	-0.009848092
90	0xbabed932	-0.0014560579
91	0x3a677145	0.0008828829
92	0x3b7db73c	0.0038713953
93	0x3be088c2	0.0068522403
94	0xbb83c7f7	-0.0040216404
95	0xbbb08b41	-0.005387694
96	0xbabfbdb3	-0.0014628678
97	0x3b345274	0.0027514966
98	0x3a222983	0.00061859953
99	0x3b435452	0.0029804897
100	0xbb9abaa1	-0.004721955
101	0x3a2c43f4	0.0006571405
102	0x3b243353	0.0025055006
103	0xbbcf203e	-0.0063209822
104	0xbb84eb75	-0.004056389
105	0xba36cded	-0.00069734344
106	0x3ae668ea	0.0017578874
107	0xbb952734	-0.0045517925
108	0x3b8c89f8	0.004288908
109	0xbb957aaa	-0.004561742
110	0xbb4bcfcd	-0.00310992
111	0xba4430fc	-0.0007484106
112	0x3b953307	0.004553202
113	0x3b5a2550	0.00332864
114	0xba3d4004	-0.0007219317
115	0x3bb57867	0.0055380347
116	0x3b8d7763	0.0043172105
117	0x3b90f81a	0.0044241073
118	0x3b94fb77	0.0045465785
119	0xbb5e5bee	-0.0033929306
120	0xbb012f1d	-0.001971192
121	0x3b164316	0.002292817
122	0x3b8fdc31	0.0043902625
123	0x3bd1a2a0	0.0063975602
124	0x3b272b8c	0.0025508134
125	0xba89dfb0	-0.0010518935
126	0x3a25387a	0.0006302666
127	0x3b957c05	0.0045619034

weight f4 [128, 146]
0	0x8b3b3977	-3.6058122e-32
1	0x8b636eb9	-4.3801908e-32
2	0x8b2685b6	-3.207103e-32
3	0x0b75a34a	4.730813e-32
4	0x0c241b65	1.2642344e-31
5	0x0b988cb1	5.875996e-32
6	0x8c161558	-1.1562003e-31
7	0x0bdd58fb	8.5259986e-32
8	0x0becac32	9.1162984e-32
9	0x0c1986d1	1.1827261e-31
10	0x8c191961	-1.1794328e-31
11	0x0c1e21d9	1.2182063e-31
12	0x8c24e78c	-1.2703779e-31
13	0x0c2391c3	1.2600927e-31
14	0x09d6174b	5.154053e-33
15	0x8a9bb763	-1.499494e-32
16	0x099d461c	3.7862306e-33
17	0x0c1a04b0	1.1865139e-31
18	0x8b6ca5c1	-4.5576646e-32
19	0x8b481fc6	-3.8542503e-32
20	0x8c5ab326	-1.684802e-31
21	0x8b2da392	-3.3441645e-32
22	0x0b482e4c	3.855343e-32
23	0x0b3f9c3c	3.69028e-32
24	0x8c2b5f48	-1.3202033e-31
25	0x8b1a1bea	-2.968032e-32
26	0x8a309011	-8.501188e-33
27	0x0b5a1254	4.199906e-32
28	0x8b86e396	-5.1957356e-32
29	0x8b98d98f	-5.8875616e-32
30	0x0c542416	1.6342745e-31
31	0x8c1b3d4e	-1.1959214e-31
32	0x8c29a9bd	-1.3070365e-31
33	0x0c0590f2	1.0289565e-31
34	0x8a532565	-1.01663136e-32
35	0x08b97b68	1.1163295e-33
36	0x8c18f82f	-1.1784339e-31
37	0x0a6d25a3	1.14182136e-32
38	0x8b467a00	-3.8225195e-32
39	0x0c1d4a44	1.2117189e-31
40	0x0c0b3ed1	1.0727074e-31
41	0x0c01f178	1.0010463e-31
42	0x8b80e516	-4.9648497e-32
43	0x0bae0bbd	6.7040024e-32
44	0x0add8ed5	2.1335253e-32
45	0x8b96e8b7	-5.812805e-32
46	0x0c55c597	1.6468383e-31
47	0x8c092882	-1.0566286e-31
48	0x8acafd59	-1.9547191e-32
49	0x0ab4c1b4	1.7406233e-32
50	0x0b2d0000	3.3318588e-32
51	0x0c25d6df	1.2775798e-31
52	0x0ba0ee42	6.198825e-32
53	0x0b86e396	5.1957356e-32
54	0x8ba8e8c1	-6.5061455e-32
55	0x8bf4b48c	-9.425704e-32
56	0x8bf0698d	-9.260345e-32
57	0x8b0d0d77	-2.7165742e-32
58	0x8b9f9970	-6.147544e-32
59	0x8a67c05c	-1.1158424e-32
60	0x0c1b2f94	1.1955083e-31
61	0x0b8109c4	4.9703686e-32
62	0x8b9758f2	-5.8296914e-32
63	0x8c1d3320	-1.2110225e-31
64	0x89f5a917	-5.9140616e-33
65	0x08aee137	1.0525192e-33
66	0x0c0fc502	1.1075604e-31
67	0x8c033f12	-1.0110852e-31
68	0x8b8818f3	-5.2422834e-32
69	0x8b2a4120	-3.2789804e-32
70	0x8b7ebacc	-4.905915e-32
71	0x0c0ca3e8	1.0834531e-31
72	0x0c3e1f72	1.464653e-31
73	0x0c1bc40b	1.199976e-31
74	0x8c525cb5	-1.620571e-31
75	0x8c044780	-1.0190426e-31
76	0x8c1d784b	-1.2131039e-31
77	0x8b8cdf92	-5.426243e-32
78	0x8c0f6827	-1.1047661e-31
79	0x8c3495d1	-1.3911779e-31
80	0x8c1e5812	-1.219838e-31
81	0x09f42fe0	5.8785885e-33
82	0x8a9bb913	-1.4995574e-32
83	0x0bb9c19c	7.155072e-32
84	0x8badb15c	-6.6904037e-32
85	0x8c173b22	-1.1650411e-31
86	0x0c5849f6	1.6662292e-31
87	0x8ba57308	-6.372877e-32
88	0x8c252a57	-1.2723879e-31
89	0x0ca3820e	2.51924e-31
90	0x8b6c6651	-4.552892e-32
91	0x0b968e07	5.79916e-32
92	0x8b577f00	-4.1503038e-32
93	0x8c42706c	-1.4979047e-31
94	0x0c1d5ef0	1.2123409e-31
95	0x0c02db74	1.0080875e-31
96	0x8b6b2dd7	-4.529384e-32
97	0x0b0c6eb6	2.704631e-32
98	0x0b9cf8f9	6.0463627e-32
99	0x8acb4582	-1.9574335e-32
100	0x0bb54cd2	6.983425e-32
101	0x0b9941c2	5.90324e-32
102	0x0accc1ba	1.9717357e-32
103	0x0c5343a9	1.627521e-31
104	0x89db6590	-5.281784e-33
105	0x8b9f1a2e	-6.1283963e-32
106	0x0b644b1b	4.3967706e-32
107	0x0c3045ef	1.3579592e-31
108	0x8c1f5ca3	-1.2276791e-31
109	0x0ba0e2e2	6.1971134e-32
110	0x8ae20f71	-2.1768817e-32
111	0x8b9d1a9d	-6.0514243e-32
112	0x8c2415cc	-1.264066e-31
113	0x8aaed70e	-1.6836485e-32
114	0x8b98059c	-5.855671e-32
115	0x8c1247ee	-1.1269076e-31
116	0x8b8a58e0	-5.328939e-32
117	0x8835e8ac	-5.474121e-34
118	0x8c216f9c	-1.2436575e-31
119	0x0bac0ad8	6.6268306e-32
120	0x0c0ced74	1.0856664e-31
121	0x8bff94c8	-9.844629e-32
122	0x8c1f38c9	-1.2266003e-31
123	0x8c5a2cab	-1.6807551e-31
124	0x8c032ae8	-1.0104785e-31
125	0x8b8fe6c6	-5.5428826e-32
126	0x0ba38ef7	6.3000426e-32
127	0x8c2f8a44	-1.3523117e-31
128	0x9260178e	-7.071097e-28
129	0x10d602b6	8.4412294e-29
130	0x8fb9480e	-1.8270163e-29
131	0x10827798	5.146022e-29
132	0x926b97db	-7.43401e-28
133	0x8f02c2c9	-6.447009e-30
134	0x900a6e29	-2.7300566e-29
135	0x0fad8b64	1.7112808e-29
136	0x926be0f9	-7.4430225e-28
137	0x10f115d8	9.5091395e-29
138	0x9107a433	-1.070022e-28
139	0x0f4d139b	1.0111056e-29
140	0x90978bee	-5.9774594e-29
141	0x10006b2c	2.532611e-29
142	0x100588ab	2.633491e-29
143	0x105ef92c	4.3973735e-29
144	0x101a65d3	3.0449587e-29
145	0x10997065	6.052103e-29
146	0x80005f00	-3.408e-41
147	0x80005738	-3.1288e-41
148	0x80007f94	-4.5766e-41
149	0x00006a98	3.8239e-41
150	0x8000554c	-3.0599e-41
151	0x00007bc0	4.4393e-41
152	0x0000a324	5.8524e-41
153	0x800043ec	-2.4366e-41
154	0x0000740c	4.163e-41
155	0x80004b38	-2.6983e-41
156	0x00005320	2.982e-41
157	0x80009520	-5.3496e-41
158	0x00006de8	3.9427e-41
159	0x80007a24	-4.3816e-41
160	0x00001648	7.993e-42
161	0x800034f0	-1.899e-41
162	0x800010c4	-6.014e-42
163	0x80004b60	-2.704e-41
164	0x80006414	-3.5901e-41
165	0x80005cb8	-3.3261e-41
166	0x00004728	2.5526e-41
167	0x80005d6c	-3.3513e-41
168	0x00005f44	3.4175e-41
169	0x00005f60	3.4214e-41
170	0x00005bfc	3.2998e-41
171	0x80009a20	-5.529e-41
172	0x00000a5c	3.716e-42
173	0x0000538c	2.9971e-41
174	0x80008c8c	-5.0419e-41
175	0x80008708	-4.844e-41
176	0x8000243c	-1.2998e-41
177	0x00009ba4	5.5833e-41
178	0x00005904	3.1933e-41
179	0x800055b0	-3.0739e-41
180	0x00000858	2.993e-42
181	0x00002a1c	1.5106e-41
182	0x00004a8c	2.6742e-41
183	0x000021a8	1.2074e-41
184	0x80007fa4	-4.5789e-41
185	0x80009cb8	-5.622e-41
186	0x80005c28	-3.306e-41
187	0x80002670	-1.3789e-41
188	0x80006d94	-3.9309e-41
189	0x0000a8b8	6.0525e-41
190	0x00000598	2.007e-42
191	0x000055c8	3.0773e-41
192	0x800046a8	-2.5347e-41
193	0x00005194	2.9265e-41
194	0x800002b8	-9.75e-43
195	0x00002644	1.3727e-41
196	0x00005914	3.1955e-41
197	0x800084c8	-4.7633e-41
198	0x0000844c	4.7459e-41
199	0x00008c8c	5.0419e-41
200	0x80008bb4	-5.0116e-41
201	0x00004828	2.5885e-41
202	0x80002c44	-1.588e-41
203	0x80003a08	-2.0818e-41
204	0x80008378	-4.7162e-41
205	0x0000038c	1.272e-42
206	0x800044f0	-2.473e-41
207	0x00006cc4	3.9018e-41
208	0x800077a4	-4.2919e-41
209	0x000091d4	5.2313e-41
210	0x0000502c	2.876e-41
211	0x00002738	1.4069e-41
212	0x800048f0	-2.6165e-41
213	0x000044c0	2.4663e-41
214	0x80006ac4	-3.83e-41
215	0x80005e2c	-3.3783e-41
216	0x80006b9c	-3.8603e-41
217	0x80004ff8	-2.8687e-41
218	0x800081ac	-4.6518e-41
219	0x8000a30c	-5.849e-41
220	0x00004780	2.565e-41
221	0x00004478	2.4562e-41
222	0x00009a24	5.5295e-41
223	0x80006fe4	-4.0139e-41
224	0x000053bc	3.0038e-41
225	0x00004344	2.413e-41
226	0x00009618	5.3843e-41
227	0x800057e4	-3.1529e-41
228	0x800077e4	-4.3009e-41
229	0x0000b20c	6.3871e-41
230	0x80009238	-5.2453e-41
231	0x00004678	2.528e-41
232	0x8000499c	-2.6406e-41
233	0x800089a0	-4.937e-41
234	0x00005c80	3.3183e-41
235	0x800008f8	-3.217e-42
236	0x80006558	-3.6355e-41
237	0x000079e4	4.3726e-41
238	0x000053d0	3.0066e-41
239	0x0000318c	1.7774e-41
240	0x8000a0c0	-5.7666e-41
241	0x80004394	-2.4242e-41
242	0x800065ec	-3.6563e-41
243	0x00003a28	2.0863e-41
244	0x00008a9c	4.9724e-41
245	0x00006640	3.668e-41
246	0x80004884	-2.6014e-41
247	0x00008aa4	4.9735e-41
248	0x00004c58	2.7387e-41
249	0x8000488c	-2.6025e-41
250	0x800019c4	-9.243e-42
251	0x800082d0	-4.6927e-41
252	0x0000573c	3.1294e-41
253	0x80008748	-4.853e-41
254	0x000091ec	5.2347e-41
255	0x80004748	-2.5571e-41

bias f4 [128]
0	0x9003f690	-2.602514e-29
1	0x8028f588	-3.7615e-39
2	0x3c025b51	0.007956342
3	0x8378464e	-7.2961356e-37
4	0x0000a45c	5.8961e-41
5	0x3bffe10a	0.007808809
6	0xbad2a715	-0.0016071523
7	0x0000011c	3.98e-43
8	0x3d51f92a	0.051263012
9	0x8187e4d4	-4.991952e-38
10	0x800032c4	-1.8211e-41
11	0x8066c380	-9.437353e-39
12	0xbb6cb35a	-0.0036117644
13	0x0000a106	5.7764e-41
14	0x3d04e06a	0.03244058
15	0x8001eb8c	-1.76334e-40
16	0x876c2c9c	-1.7767776e-34
17	0x3b277143	0.0025549687
18	0x3b1b8ec2	0.0023736213
19	0x3b177002	0.0023107533
20	0x3cc4b8db	0.024013927
21	0x8d7f95d9	-7.8758314e-31
22	0x8007ebb0	-7.27397e-40
23	0x8439ec35	-2.1855106e-36
24	0x867db3c7	-4.771609e-35
25	0x8817fe7a	-4.5739045e-34
26	0x98a81802	-4.3451224e-24
27	0x00002018	1.1513e-41
28	0xbb66ed18	-0.0035236534
29	0x8aacb6d8	-1.6631776e-32
30	0xb9b516b4	-0.00034539925
31	0x3bb9c6dd	0.0056694583
32	0x80004d0c	-2.7639e-41
33	0x3ae944e8	0.0017797025
34	0x3bbfe727	0.005856413
35	0x84ab0a96	-4.021163e-36
36	0x801c1630	-2.579353e-39
37	0x00009e8c	5.6876e-41
38	0x8778e790	-1.8725496e-34
39	0x82a4542d	-2.4145949e-37
40	0x857cf569	-1.1894058e-35
41	0x810048d4	-2.356214e-38
42	0xbb1e5656	-0.0024160347
43	0x81480292	-3.6736043e-38
44	0x850c1edd	-6.588437e-36
45	0x8e6862c4	-2.8643762e-30
46	0x87b213a2	-2.6794002e-34
47	0x8001dc2c	-1.70818e-40
48	0x800434ac	-3.86237e-40
49	0x00006310	3.5537e-41
50	0x3c0e6f27	0.008693493
51	0x800343a0	-2.99766e-40
52	0x80f40264	-2.2408719e-38
53	0x3aba459e	0.0014211421
54	0x84a7add2	-3.942114e-36
55	0xbb97fb2e	-0.0046380972
56	0xbb06fbc4	-0.0020596841
57	0x8531e65c	-8.36481e-36
58	0x8afbadec	-2.4235843e-32
59	0x87925ca4	-2.2022088e-34
60	0x830f7f43	-4.2170012e-37
61	0x84014434	-1.5195194e-36
62	0x3a541643	0.00080904755
63	0xb9c00928	-0.00036627916
64	0x806e6fe4	-1.0142043e-38
65	0x80006e13	-3.9487e-41
66	0x3c301b66	0.01074872
67	0x8006703c	-5.91275e-40
68	0x801a2fa0	-2.404808e-39
69	0x89514a22	-2.5192317e-33
70	0x9728d1c2	-5.454848e-25
71	0x800008e0	-3.184e-42
72	0x931ebe06	-2.0036092e-27
73	0x3c0bded1	0.00853701
74	0x3c128e41	0.008945049
75	0x873088f0	-1.3281011e-34
76	0xbae20f97	-0.0017247078
77	0x000011f0	6.435e-42
78	0x8000c12c	-6.9297e-41
79	0x801a10a8	-2.393698e-39
80	0x83c829b7	-1.1764521e-36
81	0x3c8c350c	0.017115138
82	0x80024274	-2.0751e-40
83	0x00005d3c	3.3446e-41
84	0xb8accf0e	-8.240166e-05
85	0x3bf21e97	0.0073889005
86	0x800136b4	-1.11459e-40
87	0x80028620	-2.31786e-40
88	0x3bc3c355	0.005974213
89	0x3b170e77	0.0023049393
90	0x80021734	-1.91995e-40
91	0x3c4d0e2e	0.012515588
92	0x3b3c3f52	0.0028724265
93	0x80008678	-4.8238e-41
94	0xbab5e8b8	-0.001387856
95	0x8214d0f5	-1.093329e-37
96	0x3d013c47	0.031551626
97	0x000080a4	4.6148e-41
98	0x819c3cd4	-5.7392634e-38
99	0x85b02efb	-1.6568218e-35
100	0xbb0eb05b	-0.0021772597
101	0xbb096369	-0.0020963794
102	0x82b64257	-2.6780574e-37
103	0x800ae9b0	-1.002186e-39
104	0x80015af0	-1.24458e-40
105	0x800d2f08	-1.210733e-39
106	0x8004c5a0	-4.38236e-40
107	0x801c5634	-2.602318e-39
108	0x800e58b8	-1.317523e-39
109	0x94120265	-7.3715885e-27
110	0x8458adac	-2.5470424e-36
111	0x80043430	-3.86063e-40
112	0xbb3b69c3	-0.0028596974
113	0x3ac0c95c	0.0014708447
114	0x92580de5	-6.817471e-28
115	0x00005f58	3.4203e-41
116	0x3c874fef	0.016517607
117	0x8000b720	-6.5693e-41
118	0x837b6cb7	-7.388707e-37
119	0x000053cc	3.006e-41
120	0x0000970c	5.4185e-41
121	0x804d586c	-7.103053e-39
122	0xba5c8b10	-0.0008413056
123	0x3af5c5db	0.0018750982
124	0x9adbaac3	-9.085216e-23
125	0x00007c70	4.464e-41
126	0x88166dd4	-4.5268085e-34
127	0x84059130	-1.5700742e-36

weight f4 [19, 128]
0	0x94395abd	-9.358008e-27
1	0x851933da	-7.203549e-36
2	0xbb312006	-0.0027027144
3	0x040fa4ef	1.6885303e-36
4	0x00002b78	1.5594e-41
5	0xbd2b90a5	-0.04188599
6	0x3aa643aa	0.001268496
7	0x00001cc4	1.0319e-41
8	0x3ccb1605	0.024790773
9	0x8593374d	-1.3844128e-35
10	0x0002e684	2.66364e-40
11	0x031e5f54	4.654146e-37
12	0xba45c6e2	-0.00075445895
13	0x1193c6da	2.3315062e-28
14	0xbd0915ec	-0.033468172
15	0x0001aa0c	1.52837e-40
16	0x081e5708	4.76487e-34
17	0x3cfc5e32	0.030806635
18	0x3d031eb8	0.032011718
19	0x3d03af79	0.032149766
20	0x3cc353ee	0.023843732
21	0x099d3dae	3.785438e-33
22	0x8005daf4	-5.37723e-40
23	0x89fc68d3	-6.076537e-33
24	0x07ae4360	2.622021e-34
25	0x07a6059d	2.4980203e-34
26	0x9a14e821	-3.0793195e-23
27	0x80008e68	-5.1086e-41
28	0x397f2a84	0.00024334533
29	0x8aff8aa5	-2.4607759e-32
30	0x3b2e7f66	0.0026626228
31	0xbd20dece	-0.039274983
32	0x000067e8	3.7275e-41
33	0xbaec4f38	-0.001802898
34	0xbd239e10	-0.039945662
35	0x042633c3	1.9536974e-36
36	0x0001e354	1.73385e-40
37	0x80971750	-1.3875523e-38
38	0x076b929f	1.7722523e-34
39	0x0599bb7a	1.4456919e-35
40	0x07ebcb6f	3.5478438e-34
41	0x81569834	-3.9414793e-38
42	0xbb1512c2	-0.0022746776
43	0x81b45ab5	-6.6251715e-38
44	0x85d6348d	-2.0143767e-35
45	0x1378328b	3.132692e-27
46	0x8c4e1392	-1.5875552e-31
47	0x8002052c	-1.85526e-40
48	0x80f1e48c	-2.2214342e-38
49	0x0000574c	3.1316e-41
50	0x3d0c2245	0.03421237
51	0x0001be2b	1.60055e-40
52	0x846b803d	-2.7683001e-36
53	0x3d06b527	0.032887604
54	0x85e43587	-2.146068e-35
55	0xbac9580b	-0.0015361322
56	0x3b4480ba	0.0029983954
57	0x04bc4d36	4.4269495e-36
58	0x0d6d3a6a	7.3101577e-31
59	0x8b212bd0	-3.1040433e-32
60	0x87104c8c	-1.0855851e-34
61	0x82b15e0e	-2.6061797e-37
62	0x3d1a648f	0.037693556
63	0x397523d6	0.0002337837
64	0x0123f3be	3.0113248e-38
65	0x8000ae36	-6.2495e-41
66	0xbd805558	-0.06266278
67	0x01f777c6	9.0905337e-38
68	0x0155a076	3.9237046e-38
69	0x09bafc07	4.5014877e-33
70	0x98045412	-1.7103045e-24
71	0x03861dab	7.882624e-37
72	0x16870954	2.1816313e-25
73	0xbd2e9282	-0.04262019
74	0x3d54e17d	0.051972855
75	0x86af742e	-6.5998394e-35
76	0x3b765011	0.0037584344
77	0x000ac1a4	9.8782e-40
78	0x8000de30	-7.9706e-41
79	0x80132354	-1.757548e-39
80	0x87ab3940	-2.576287e-34
81	0xbd9ae537	-0.075632505
82	0x00001b0c	9.703e-42
83	0x800aaaf8	-9.79687e-40
84	0x390233ea	0.00012417106
85	0x3b7e4400	0.0038797855
86	0x80018dd8	-1.4272e-40
87	0x00000f90	5.583e-42
88	0xbd278abd	-0.040903796
89	0x3d05907e	0.0326085
90	0x80053614	-4.78577e-40
91	0xbd4751e9	-0.0486621
92	0x398855dd	0.00026003915
93	0x001fbd84	2.914886e-39
94	0xb9465862	-0.00018915677
95	0x83d91cf0	-1.2760757e-36
96	0xbd262b57	-0.040568676
97	0x803c32fc	-5.52842e-39
98	0x0001e0c4	1.72466e-40
99	0x862e7c04	-3.2816875e-35
100	0x3af05577	0.0018336017
101	0x3a6a25c0	0.0008932017
102	0x0734a484	1.3590042e-34
103	0x80007e30	-4.5268e-41
104	0x82803186	-1.8836335e-37
105	0x002d96cc	4.186693e-39
106	0x80256f64	-3.437873e-39
107	0x801ef940	-2.844479e-39
108	0x02fee7e5	3.7455047e-37
109	0x1834d3a4	2.3371306e-24
110	0x0674efb6	4.606741e-35
111	0x8000683c	-3.7392e-41
112	0xbbd4a04a	-0.0064888345
113	0x3cc202cc	0.023682974
114	0x96baf77b	-3.0206103e-25
115	0x80001a4c	-9.434e-42
116	0xbd90800b	-0.07055672
117	0x818b5512	-5.1182606e-38
118	0x0282a8be	1.9198636e-37
119	0x8000ae58	-6.2543e-41
120	0x80099cdc	-8.8279e-40
121	0x809ac544	-1.4213432e-38
122	0x3c8b9e28	0.017043188
123	0x3a04f34c	0.00050716545
124	0x34a9f716	3.1658482e-07
125	0x800032bc	-1.82e-41
126	0x86f23d52	-9.1120385e-35
127	0x04402e13	2.2590648e-36
128	0x12ac65ac	1.087979e-27
129	0x04718474	2.8390233e-36
130	0xbadce82c	-0.001685386
131	0x82907d62	-2.1230865e-37
132	0x80003bf0	-2.1502e-41
133	0x3af3aabb	0.001859031
134	0x3a80d8f8	0.0009830287
135	0x000072a4	4.1125e-41
136	0x3a55dde3	0.0008158369
137	0x83869135	-7.90915e-37
138	0x0000ad70	6.2218e-41
139	0x0125de52	3.046522e-38
140	0x3b36b489	0.0027878603
141	0x80c332c0	-1.7926127e-38
142	0x3a4e5a87	0.0007871766
143	0x00001658	8.015e-42
144	0x877ae375	-1.8874753e-34
145	0x3981a584	0.00024728116
146	0x38a2096a	7.7265155e-05
147	0x3a201cd5	0.0006107812
148	0xb98230c4	-0.00024831865
149	0x0c190959	1.1789504e-31
150	0x000177b8	1.34782e-40
151	0x0657e92a	4.0608308e-35
152	0x852606a2	-7.806501e-36
153	0x842b526e	-2.0138803e-36
154	0x18e8871f	6.010703e-24
155	0x8000a434	-5.8905e-41
156	0x3a942ee6	0.0011305481
157	0x0b3a27ae	3.585215e-32
158	0xbb702c1d	-0.0036647387
159	0x3b44bbe2	0.0030019213
160	0x8000a9d4	-6.0923e-41
161	0xbbc3369c	-0.0059574377
162	0xba858a67	-0.0010188342
163	0x0312f174	4.318272e-37
164	0x000027f8	1.4338e-41
165	0x801df3c0	-2.75067e-39
166	0x05df4081	2.0994514e-35
167	0x04abe119	4.0408626e-36
168	0x058c0d5e	1.3170447e-35
169	0x804b3a40	-6.908558e-39
170	0xb9411d2a	-0.00018416779
171	0x001d135c	2.670174e-39
172	0x84a1a00f	-3.799791e-36
173	0x9119f663	-1.2145496e-28
174	0x0c8af321	2.1408594e-31
175	0x00003900	2.0448e-41
176	0x80164024	-2.04339e-39
177	0x800088dc	-4.9096e-41
178	0x3a8be22a	0.001067226
179	0x80000396	-1.286e-42
180	0x8461c634	-2.6539633e-36
181	0x39c919e5	0.00038357
182	0x03b98b51	1.0905308e-36
183	0xbb27e11e	-0.0025616358
184	0x3b37c81e	0.0028042863
185	0x02264aac	1.2217184e-37
186	0x0cbeae50	2.9379046e-31
187	0x09e033ab	5.3974627e-33
188	0x04c20e35	4.5622228e-36
189	0x01443944	3.60406e-38
190	0x39f1e640	0.00046138652
191	0xb71e7da1	-9.446784e-06
192	0x8030fca8	-4.49874e-39
193	0x80003600	-1.9372e-41
194	0xb882e790	-6.242015e-05
195	0x00fa1d30	2.2969345e-38
196	0x009f4938	1.462811e-38
197	0x89c00c87	-4.62341e-33
198	0x96d1071e	-3.3770263e-25
199	0x82a202fd	-2.3805476e-37
200	0x95a9b790	-6.854817e-26
201	0x3a8a75d0	0.0010563675
202	0x39935ccd	0.00028107167
203	0x83837108	-7.725439e-37
204	0xbb030cbb	-0.0019996602
205	0x0000ea8c	8.414e-41
206	0x80019cac	-1.48039e-40
207	0x0002bb6c	2.50905e-40
208	0x06a33f07	6.1406396e-35
209	0xba85ece2	-0.0010217691
210	0x80006d2c	-3.9163e-41
211	0x00010b70	9.5938e-41
212	0xb9753cd4	-0.00023387681
213	0x3b792f4b	0.0038022574
214	0x800036ac	-1.9613e-41
215	0x8000891c	-4.9186e-41
216	0xb9c60432	-0.0003776863
217	0xb900d605	-0.0001228676
218	0x000042ac	2.3917e-41
219	0x3a02794a	0.000497718
220	0xbc1f506e	-0.009723766
221	0x80052210	-4.71397e-40
222	0xba6be019	-0.0008997932
223	0x03bd5cb3	1.1129704e-36
224	0x3a186a60	0.0005814191
225	0x0000e85c	8.3355e-41
226	0x80010608	-9.3999e-41
227	0x84666a56	-2.7085197e-36
228	0xba992b69	-0.0011685911
229	0x3a10cf4d	0.0005524054
230	0x85c5f967	-1.8617407e-35
231	0x00008be0	5.0178e-41
232	0x820751da	-9.941724e-38
233	0x800c9850	-1.156665e-39
234	0x8003a344	-3.34075e-40
235	0x8002c664	-2.5484e-40
236	0x815f19a8	-4.097704e-38
237	0x964978ea	-1.6274804e-25
238	0x056b352d	1.1059414e-35
239	0x8000acb0	-6.1949e-41
240	0x3bb9696b	0.0056583188
241	0xba854e44	-0.001017042
242	0x14dbcb00	2.2193418e-26
243	0x00003d64	2.2023e-41
244	0x3ac4e6f8	0.0015022447
245	0x80321370	-4.598748e-39
246	0x80166e40	-2.059931e-39
247	0x80004ce8	-2.7589e-41
248	0x000051e8	2.9382e-41
249	0x80100880	-1.472417e-39
250	0xbb7511ea	-0.003739471
251	0x3be0d9ab	0.0068618855
252	0x2d688aae	1.3218466e-11
253	0x80001c00	-1.0045e-41
254	0x06d9ee9f	8.197695e-35
255	0x020e2fca	1.0446227e-37

bias f4 [19]
0	0x3eaa04df	0.3320684
1	0xb824b9ac	-3.9273567e-05
2	0xb8cb8a9f	-9.7056145e-05
3	0x368e61bc	4.2433076e-06
4	0x3ea97824	0.33099473
5	0xb85bc4ca	-5.2396943e-05
6	0x381bd05e	3.7148937e-05
7	0xb90866f0	-0.00013008318
8	0x3ea9874e	0.33111042
9	0x3eaba267	0.3352234
10	0xb70e6872	-8.488178e-06
11	0xb8fb4814	-0.00011982038
12	0xb8e999ac	-0.000111389294
13	0x3eaacbb7	0.33358547
14	0xb9234913	-0.00015572114
15	0xb7c015ac	-2.2898275e-05
16	0xb944474e	-0.0001871858
17	0x3eaaf6ee	0.33391517
18	0xbe162420	-0.14662218
