models/C/model1.pt (torch, 310479 bytes, 8 tensors)

weight f4 [128, 384]
00000000: bfba f13c a79f 4fbb 0bb9 1fbc 1ff5 443d
00000010: 6ffe 2e3d d40d 933b bd3a 173e 2132 8f3b
00000020: 71c8 8a3d 15ec 0d3d 2be4 efbc 0f94 ebbc
00000030: 50b6 c6bc 45aa 33bd 3f3f afba b2ef 863d
00000040: 6702 713e 77b2 243e c0bf 283d 6334 883d
00000050: badc 0f3e bab5 5c3d a9fa 0c3d 4402 63bc
00000060: 737d 353c 3705 c7bc 6b00 1fbc 1b38 d6bc
00000070: 59b0 253d df50 753d 3c8e 8d3c bbe0 383c
00000080: 89a9 733e 6c31 df3d 7cb5 95bb 8b35 c33d
00000090: 326a e9ba 6900 46bd 8e5d 9e3b 8702 543d
000000a0: 8172 c13c 859c e73c 8613 9ebd 03e2 a33b
000000b0: 29d1 313d 06ff 7f3c 1bc5 b9bc d54e 19bd
000000c0: b56b 523e 35d3 5dbc 3b20 103e 314c 2d3e
000000d0: 552c f93c 05a3 e43b db2d c1bb ae94 c2bc
000000e0: 2ed8 fdbc e6c3 6bbc 9bca 4f3c 9e15 803d
000000f0: 9f78 573b 6f3c d93c 17bf 2e3d ee49 013c
00000100: 527e cbbb 5dd7 a1bb b76f babc 4fdb 8cbd
00000110: dbb4 94bd cec0 9fbd fc51 b13c d61e bfbb
00000120: b289 003d 988b a23d d1d4 21bd 3d3d 21bd
00000130: 811a 91bd 715a f0bb eaf0 e9bc 934d b13a
00000140: e7b8 32be 3592 bdbd f123 56bd 5d0d 5cbd
00000150: d4e7 1c3c fa85 3b3c 0f60 2abb 742b 9e3a
00000160: e507 48bd 3b98 1abd e651 ed3c c354 c43b
00000170: bacc a2bc d90a 4e3d 6cb8 5f3d 2868 c1bc
00000180: 1851 f73d 6879 413e cf01 273e 1f4c df3b
00000190: 96b7 be3a b6e7 0b3d 737a b13c 077c 2fbd
000001a0: 27a8 0cbd b154 683d 1e82 953d fa75 acbc
000001b0: 8802 92bd 4da6 8dbd 0c06 b63c 9337 b83c
000001c0: cd46 ebbc 927f 013d fe95 3abc 1a16 8d3d
000001d0: 9fc9 e8bc 8353 c1bd e053 12bd 2c3c f5bc
000001e0: c43f 9ebd 8274 85bd e3e8 19bd 0094 1abc
000001f0: a6aa 63bd 10bd 1e3b 8cb1 093c fe4c 3abd
00000200: 19d5 0c3d 423b ea3d 89ea c43d c6eb f63d
00000210: 12da 4f3c 96b4 0fbd 6295 393d f543 0d3d
00000220: a741 2bbc 874e 15bd 60c4 eebc f510 c43d
00000230: b60a ac3d 86c0 b73d 8a34 3a3c f07f 05bc
00000240: 4be8 11bc 693a 203d a6a1 af3d 01c3 bb3d
00000250: a529 1a3d e43b 35bc a8f0 8cbc 8087 a7bb
00000260: 2d16 9b3d 6fd5 ae3d f64b aa3d 799b 093d
00000270: 38b0 87bd 35f0 3ebd 634b cdbc e99c 053d
00000280: b31e 003d 115b 8f3d 6cb7 d33d 6bc5 563d
00000290: 613b 4f3d 1290 973b 4da7 cebc 41d1 c23b
000002a0: 92f6 993b c985 c33c 0b2c 3c3c cb79 a63d
000002b0: 27a6 8a3d cf14 c2bc 35fd 8b3d 966a 8b3c
000002c0: 940a 66bd e6f6 4cbb 2990 263d c5fc d03c
000002d0: ff1e 603d 4f04 8b3b d147 b8bc f845 f3bc
000002e0: bb78 373e 2378 943d 7743 a6bd 512e bfbd
000002f0: fb9c b8bd 6421 2fbc 00e1 a63c f6b7 093d
00000300: 4850 c23b d5ba c4bd 87e5 86be ddfe d63c
00000310: 2cea 303e 9735 3e3d 9549 1b3d b571 253e
00000320: 4d0f d7bc 2893 c8bc 16b2 89bd b310 b43d
00000330: 2457 e23d 1e75 4539 40ed 8b3c 60f6 c03d
00000340: 8deb b7bd 8950 f9bc dcfc ba3d 4aa4 c63d
00000350: 310a ab3c 6c5d 333b f7e8 d83a bbaa 4bbd
00000360: 7840 f6bc 8b67 1fbd eaf4 2ebd 93d4 0abd
00000370: 46e0 c5bb f32d 75bd a309 ffbd a9fb 77bd
00000380: 8625 5bbb 493f 77bd c5d7 1dbc 905a b13d
00000390: 58d1 f0bc 090f a4bc a9cf 39bd ba02 d3bc
000003a0: f73b a93d 770f 793c 6321 f13c 3ba1 833d
000003b0: 697e b53d 1e07 1c3c e13b 32bc 1a26 d83c
000003c0: a3ac 6f3e a7db a53d f95f c738 f8db 23bd
000003d0: 138f 08bd d62e 563c 1825 6d3d 36c3 be3c
000003e0: 9088 fbbd 5971 31be 2622 21bd 8a97 5dbd
000003f0: 2760 3abd 5fca 6ebc 156f fbbb 1ef6 df3b
0.029507993 -0.0031680854 -0.0097487075 0.04808533 0.042723116 0.0044877324 0.147685 0.0043699895
0.067765124 0.034648973 -0.029283604 -0.028757123 -0.024256855 -0.043863554 -0.0013370289 0.06588687
0.23536073 0.16083704 0.041198492 0.06650617 0.14049044 0.053884245 0.034418736 -0.013855521
0.011077273 -0.024294479 -0.0097046895 -0.0261498 0.04045138 0.059891578 0.017279737 0.011284049
0.23795141 0.10898098 -0.0045687538 0.09531697 -0.0017808138 -0.048340235 0.00483293 0.051760223
0.02361417 0.028272877 -0.077185676 0.005001308 0.04341236 0.015624767 -0.022676995 -0.037428696
0.205489 -0.013539125 0.14074795 0.16923596 0.030416647 0.0069774413 -0.005895359 -0.023752537
-0.030986872 -0.014389968 0.012682582 0.06254123 0.0032878292 0.026518075 0.042662706 0.007891161
-0.006210127 -0.0049390034 -0.022758348 -0.06877767 -0.07261058 -0.078004465 0.021645539 -0.0058325334
0.031381316 0.07936782 -0.0395096 -0.039365042 -0.07085133 -0.007335 -0.02855726 0.0013527147
-0.17453347 -0.092564024 -0.05228037 -0.05372368 0.0095767565 0.011445517 -0.0025997197 0.0012067393
-0.048835654 -0.037742835 0.028969716 0.0059915497 -0.019873012 0.050303314 0.054619238 -0.023609236
0.12076014 0.18893969 0.16309284 0.0068144943 0.0014550562 0.034156524 0.021664834 -0.04284289
-0.03434005 0.056721393 0.073002085 -0.02105235 -0.07129389 -0.06916485 0.02221968 0.022487437
-0.028720284 0.0316158 -0.0113883 0.06888981 -0.028416453 -0.09439757 -0.03572452 -0.029935919
-0.07727006 -0.06516363 -0.037575614 -0.0094347 -0.055582665 0.0024221577 0.008404147 -0.04548358
0.034382913 0.11437084 0.096150465 0.12056689 0.012686269 -0.03508433 0.04530848 0.034488637
-0.010452664 -0.036451843 -0.029146373 0.09573547 0.084004804 0.08972268 0.011365065 -0.008148178
-0.008905481 0.039118204 0.08575754 0.091680534 0.03763737 -0.011061642 -0.017204598 -0.0051125884
0.07572589 0.08536803 0.0831527 0.033595536 -0.06625408 -0.046615798 -0.025060361 0.032620344
0.031279277 0.069997914 0.10337719 0.052434366 0.050593738 0.004625329 -0.02522626 0.005945355
0.004698583 0.023867505 0.01148511 0.08128699 0.06769972 -0.023691563 0.06835405 0.017018598
-0.05616243 -0.0031275093 0.040664826 0.025511155 0.05471706 0.004242457 -0.022495182 -0.02969645
0.17917149 0.07249477 -0.08118337 -0.09335006 -0.09014317 -0.010689113 0.02037096 0.033622704
0.0059299804 -0.09605948 -0.2634699 0.026244575 0.1727683 0.046437826 0.03791197 0.16156657
-0.026252413 -0.024484232 -0.0672342 0.087922476 0.11051777 0.00018831014 0.017080903 0.09421992
-0.089804746 -0.03043391 0.0913026 0.096993044 0.020878883 0.0027368916 0.0016548921 -0.04972337
-0.030060038 -0.038917106 -0.042714037 -0.033894133 -0.0060386984 -0.059858274 -0.1245301 -0.060542736
-0.0033439114 -0.060363088 -0.009633963 0.086598516 -0.029396698 -0.0200267 -0.045364056 -0.025758136
0.082633905 0.015201441 0.029434865 0.06427237 0.088620014 0.009523181 -0.010878534 0.026385356
0.234057 0.08098536 9.506936e-05 -0.0400047 -0.03333957 0.01307269 0.057896703 0.023286443
-0.122819066 -0.17328395 -0.039339207 -0.054099597 -0.045501854 -0.014574616 -0.007673154 0.0068347594

bias f4 [128]
00000000: df97 263e 9047 0e3e 77f1 813e d891 743e
00000010: 5b6d 823e 07e9 553e 0612 8c3e c852 0e3d
00000020: a086 733e e730 803e fd29 183e 4d6f 6e3e
00000030: b127 383e 1758 4b3d 3930 b53d 2916 1c3e
00000040: 4caa 473d b310 6a3e 9bf3 443e fb0a 3a3e
00000050: 5de6 5e3e e6cf 0f3e 66c4 bc3e fd34 8a3e
00000060: aa28 5b3e f1f8 f03c be6c 6c3c 91e5 d03d
00000070: 328b 263e 76db 873e e23f 493e 4074 2a3d
00000080: 5436 113d b4f3 5a3e 5e0e 783e ce8e 533e
00000090: b44c 823e d655 323e 203a 783e 91df 803e
000000a0: 44c4 743d 3f02 933e 4992 173e 1b6e c23d
000000b0: 3223 cc3d f919 463e 41e5 8c3e 8f31 7d3e
000000c0: 9b3f 2e3e ec69 533e 6fad 6c3e d144 4b3e
000000d0: e794 9d3e 8778 393e 8dd8 f43d 9149 533e
000000e0: db46 703e a8a5 fc3d 0f63 183e 01b8 543e
000000f0: 5926 223c d49d 5b3e b1d5 823e 51f6 7d3e
00000100: fd28 a63e 19cc 9a3e ce34 7e3e bbfc 953e
00000110: 2cdb 393d b52f 8c3e fabe 763d 0faa d33d
00000120: 88cf 563e d378 2c3e e627 203e c94d 533e
00000130: 6649 093d 5e64 963d cbd1 853e 466d db3c
00000140: 9aea 893e 1042 6e3e c787 533e 6bc8 c03e
00000150: a7b4 cf3d 46af 883e f0ac 353e 669f 563e
00000160: 8545 273e aed2 1c3d f801 903e f937 143e
00000170: 75c4 903e 205f 553e 4cb7 d73e 48eb 023e
00000180: 63e4 483e 0c5f 1b3e ab86 a63e cac9 eb3e
00000190: 99f2 7d3e c771 953e d9d7 8c3e 3019 0e3e
000001a0: c703 6a3e 6e66 4f3e 5b1f b43e fc3c bb3d
000001b0: 20f9 403e d418 b23e 3091 b83d 6acc 833e
000001c0: 1225 613e ff53 913e 0ec5 3d3e e7a7 953e
000001d0: 5f14 cd3d e3de 803e 139b 623e ccfc 633e
000001e0: 861d 713d b65f 4a3e a654 1a3e 8ff8 3a3e
000001f0: a78e 4e3e ad4b 3f3e e715 1e3e a32d b83e
0.16268872 0.13894486 0.25379536 0.2388376 0.25474057 0.20889674 0.273575 0.034746915
0.23781824 0.2503731 0.14859767 0.23284645 0.17983891 0.049644556 0.08847088 0.15242828
0.048746392 0.22857933 0.19233553 0.18168251 0.21767564 0.1404415 0.3686859 0.26993552
0.21402231 0.02941558 0.014430223 0.10200036 0.16264036 0.26534623 0.19653276 0.04161477
0.035452202 0.21382028 0.2422423 0.20659944 0.25449145 0.17415556 0.24240923 0.25170568
0.059757486 0.2871265 0.14801897 0.09493657 0.099676505 0.19345845 0.27518657 0.24725936
0.17016451 0.20645875 0.23113035 0.1985047 0.30777666 0.18112384 0.11955366 0.20633532
0.23464529 0.12336284 0.14881538 0.20773317 0.009896838 0.21446925 0.2555366 0.24800994
0.32453147 0.3023384 0.24824831 0.2929438 0.045375034 0.27380148 0.060240723 0.103351705
0.20977604 0.16842966 0.1564022 0.20635141 0.033517264 0.07343362 0.26136622 0.026785504
0.269368 0.23267388 0.20657264 0.37652907 0.101418786 0.26696223 0.17741752 0.20959243
0.16335113 0.038286857 0.28126502 0.14474477 0.28274885 0.20837069 0.42132032 0.12785065
0.19618373 0.15172976 0.32524619 0.4605239 0.24799575 0.29188368 0.2750843 0.13876796
0.22853003 0.20253918 0.35180172 0.09142491 0.18845034 0.34784567 0.09012067 0.25741893
0.21986797 0.28384396 0.18532202 0.29229662 0.10013651 0.2517005 0.22129469 0.22264403
0.058866046 0.19763073 0.15071353 0.1825888 0.20171605 0.18681212 0.15438043 0.35972318

weight f4 [128, 128]
00000000: 2a70 1fbe 12bb 8fbd 415e 77be 2b54 61be
00000010: 9d2d 12be 3dcf 41be 93f5 febd e62b fb3c
00000020: bb36 59be 7616 3ebe b1cc 09be ce83 47be
00000030: 76cf bdbd 6cce fdbd a9ba 233d 9240 81bd
00000040: 8ecb c63c 448a d1bd 6358 3cbe e201 04be
00000050: 6048 68be 3de3 0fbe 96eb a2be f47a 4fbe
00000060: 0f7b 73be dfde 95bc 7852 5e3c 37ee 13be
00000070: 0999 1bbe 37eb 78be bfdd f8bd 3f9b b13c
00000080: 40b6 113d 9151 19be e41a 30be 93aa 3dbe
00000090: b413 7bbe 8e07 d3bd d370 d4bd 2354 6cbe
000000a0: efab 0d3c 5cb2 2dbe e8e3 6ebd a0c4 acbd
000000b0: 5a31 1abd f1dc b5bd 7279 fcbd 658f 00be
000000c0: 905a 18bd 1bf7 35be 9ec6 42be 5362 fabd
000000d0: e4fa 23be 3be6 12be ede3 72bd c3b5 45be
000000e0: 8ef2 45be 0455 39bd 25d9 74bd fbcc 17be
000000f0: 5bc1 303d a805 05be 13cb 16be 926b 54be
00000100: 32dd 47be 5363 24be 8ccb 05be e331 2fbe
00000110: cd99 46bd 2e44 36be 3933 85bd 36e4 cdbd
00000120: 78b5 bdbd f99b b0bd 085a 2dbe c5b5 9cbd
00000130: 2f85 fabb bfe3 e539 0be3 6cbe 110e 473c
00000140: bc24 77be 50b4 bebd 0ff4 23be 549c abbe
00000150: 793b 99bd 816b 44be c638 c0bd fd17 d8bd
00000160: ea22 08bd cea2 eb3c 79ed 59be bd61 01be
00000170: 885f 4dbe 024f bdbd bf76 e2be 2e5b 3cbd
00000180: 584a c0bd ee43 0cbe 0bb4 66be 12f6 d0be
00000190: b4a3 debd 70d3 83be a22a 2dbe b48f 35bc
000001a0: 027c 12be 87e1 4cbe 05a6 94be 29a1 26bd
000001b0: fe1e 29be ce56 58be 4d30 23bd cf3a 36be
000001c0: 8013 0cbe a8b3 0bbe 2c59 49be dd58 42be
000001d0: eda6 26be 2857 26be 90e8 27be 7bb9 87be
000001e0: 3f13 5dbc dc12 49be 29d2 60bd 1502 5abe
000001f0: c1db 44be c4cb e6bd 713c 0bbe 1e04 b0be
00000200: 4dec c5bd 2d5a c6bd 1895 90be 64aa 3dbe
00000210: 19c2 76be f103 2fbe e19a 71be 9cf5 18be
00000220: 0c0c 1dbe f643 31be c7e2 e6bd e95f 25be
00000230: e4dc 40be c347 243e 6c70 6abe 38ec 25be
00000240: 7c6c 38be 371a 13be b90a 88be 28d0 31be
00000250: 3bde 81be 955d debd e796 4dbe d63f 76be
00000260: b369 4bbe ac81 fc3d 679d 74be 0b0e 5abe
00000270: b256 f9bd b53b 29be befa fcbd 790a 48be
00000280: 3c1b 19be 6be3 7fbe feb9 6abe b3aa 2abe
00000290: 6a7b 5abe 04a5 14be 4dea ecbd 92b3 7abe
000002a0: fece 2ebe 2b50 16be ed90 99be dd2f 6dbe
000002b0: c58b c5bd 398b 51be 1a15 6fbe ec96 02be
000002c0: 432a 21be b06f 65be 5577 67be 1e7c 5dbe
000002d0: 5bfa a4be bd48 03be ee22 2bbe 5515 00be
000002e0: 36d2 70be ca9d 3ebe 02c9 04be f634 60be
000002f0: 6b1f 5dbe a968 2bbe f907 48be 06fb 84be
00000300: 9ff8 c5be 9d29 66be 1adc 9ebe be19 24be
00000310: f959 003e 5f6c 7fbe 1925 09be aa74 27be
00000320: 6f0a f4bd 54d3 28be 2d9f 38be 5322 2ebe
00000330: 5b51 093e 6e35 1ebe 3676 0abe a6b2 39be
00000340: 2190 64be b67d 58be 2080 74be 3ffe c2be
00000350: 3711 67be 829a 9cbe e21f c5bd 035e 15be
00000360: 542b 3bbe 5db2 08be 352c 9abe 5c29 37be
00000370: e1e4 0bbe 3c04 6bbe 6c58 b1be c2ac cfbd
00000380: 10a7 71be 886d 26be 48f3 81be 2905 b3be
00000390: c39a 1abe 28e6 8cbe f955 66be cc97 0bbe
000003a0: af68 50be 7973 7ebe fccd 72be 77bd 6ebe
000003b0: 09e8 29be 7c40 fbbe 6242 efbd 7610 88be
000003c0: 258a 71be fc4f 22be e27f 42be 3cd4 82be
000003d0: f3fb 3fbe 759f 53be 2173 dbbd 3c88 bcbe
000003e0: dd56 19be 840e 20be 5860 4cbe 78c7 5cbe
000003f0: 3c06 34be 1212 38be a40d 84be a9bb 92be
-0.15570131 -0.07018103 -0.24157049 -0.22004764 -0.14275213 -0.18926711 -0.12449183 0.03066058
-0.21212284 -0.18563256 -0.1345699 -0.19483873 -0.09268086 -0.123928875 0.039972935 -0.06311144
0.024266984 -0.1023145 -0.18393092 -0.12891343 -0.22683859 -0.14051528 -0.31820363 -0.20261747
-0.23777412 -0.01829475 0.013569467 -0.1444634 -0.15195097 -0.24308477 -0.1215167 0.021680472
0.035574198 -0.14972521 -0.17197758 -0.185221 -0.24519235 -0.10304175 -0.10373082 -0.2307897
0.008646949 -0.1696257 -0.058322817 -0.08435941 -0.03764472 -0.08880032 -0.12327851 -0.125547
-0.037195742 -0.17770045 -0.19021079 -0.12225785 -0.16013676 -0.14345638 -0.0592994 -0.19307618
-0.19330809 -0.045247093 -0.059777398 -0.14824288 0.04315315 -0.12990439 -0.14725904 -0.2074416
-0.19517973 -0.16053514 -0.13065928 -0.17108874 -0.04848652 -0.17799446 -0.065039106 -0.100532934
-0.09263128 -0.086234994 -0.16928875 -0.07651857 -0.0076452713 0.00043847968 -0.23133485 0.01214935
-0.24135107 -0.09311736 -0.1601107 -0.33517706 -0.07482047 -0.19181634 -0.09385829 -0.105514504
-0.03323642 0.028764155 -0.21281995 -0.1263494 -0.20055974 -0.09243585 -0.4423122 -0.045985393
-0.0938918 -0.13697788 -0.22529618 -0.40812737 -0.10871068 -0.25747252 -0.16910794 -0.011081625
-0.14305118 -0.20007907 -0.29032913 -0.040681038 -0.16515729 -0.21126863 -0.039840985 -0.17795871
-0.13679314 -0.13642752 -0.19662923 -0.18979211 -0.16274615 -0.16244185 -0.1639731 -0.26508698
-0.013493358 -0.196361 -0.054887924 -0.21289857 -0.19224454 -0.11269334 -0.13597275 -0.3437814
-0.096642114 -0.096851684 -0.2823875 -0.1852203 -0.2409748 -0.17091347 -0.23594238 -0.14937443
-0.15336627 -0.17311081 -0.11273723 -0.16149868 -0.18834263 0.16043 -0.22894448 -0.16203392
-0.18010134 -0.14365469 -0.2657068 -0.17364562 -0.2536486 -0.10857693 -0.20077096 -0.24047789
-0.1986454 0.123294204 -0.23888169 -0.2129442 -0.12174739 -0.16526683 -0.12352513 -0.19535245
-0.14951795 -0.24989097 -0.22922513 -0.16666679 -0.21336141 -0.14516073 -0.11568127 -0.24482563
-0.17071149 -0.14679019 -0.29993382 -0.2316279 -0.096457995 -0.20463265 -0.23347893 -0.12752885
-0.15738778 -0.22405887 -0.22604115 -0.21629378 -0.32222256 -0.12820716 -0.16712543 -0.12508138
-0.23517689 -0.18614879 -0.12967303 -0.21895203 -0.21594016 -0.16739143 -0.19534291 -0.25972766
-0.38666245 -0.22476812 -0.310273 -0.16025445 0.12534322 -0.24943684 -0.13393058 -0.16353098
-0.119160526 -0.16486865 -0.1802947 -0.17005281 0.13409941 -0.1545007 -0.13521656 -0.18134555
-0.22320606 -0.21141705 -0.23877001 -0.380846 -0.2256516 -0.3058663 -0.09625222 -0.14586644
-0.18278247 -0.1334929 -0.30111852 -0.17886871 -0.13661529 -0.22950834 -0.34637773 -0.10140373
-0.23598886 -0.1625272 -0.2538092 -0.34964874 -0.150981 -0.27519345 -0.22493733 -0.13632125
-0.20352434 -0.24848737 -0.2371139 -0.23314463 -0.1659242 -0.49072635 -0.116825834 -0.2657506
-0.23587854 -0.15850824 -0.18994096 -0.25552547 -0.18748455 -0.20666297 -0.107153185 -0.3682269
-0.14974542 -0.15630537 -0.19958627 -0.21560466 -0.17580503 -0.17975643 -0.25791657 -0.28658798

bias f4 [128]
00000000: 4ee4 04bd 5fe9 14be b4f5 f33b f0a4 4fbd
00000010: 84c0 853d 5b14 c8bb 23d5 9abd a60e debd
00000020: ebea fe3d 9e44 733e 68cd 163c a126 923d
00000030: b624 da3b c59a 873d 7f66 c13d 0d28 2fbb
00000040: 3840 163e 65a0 1dbe 8e86 c8bd 6816 98ba
00000050: 8a3e 14bd e3de aebd 4d6a 9f3c 11da 7b3a
00000060: 992f 04be b509 9bbc 42c2 573c e516 1d3e
00000070: 4312 64bd 7644 523c 16d6 08be 6003 cc3d
00000080: 77df 6a3e e9e6 ac3c 7734 643d 1499 70bb
00000090: 00a5 5b3d 1ca9 7ebd 588d 0d3e 2992 0cbc
000000a0: 3065 eabd 2576 d43c d605 593b 0d37 bc3d
000000b0: 06df 9d3c 219b 8cbd 4600 81bc c688 f43c
000000c0: 325c b8bd 46f8 2a3e 2017 bdbb 8570 b33d
000000d0: 3582 b23d cfa5 09bd 6323 213e c592 07bd
000000e0: 4a9c 0ebe 6fd6 c5bd c68e 633d db56 61bc
000000f0: a4f6 3a3c 0ae3 cd3d 9cac 5dbc cdcb d1bc
00000100: 8521 c0bd 8414 90bd 48b1 fa3b 1af1 6fbd
00000110: ba5f b7bc b799 e83c 3dfb e0bd 112a 7ebb
00000120: babf 663d cb87 0e3e 343c f23c d358 27be
00000130: 6641 87bc dfb8 8abc f267 3f3c 6ec6 413e
00000140: b9f6 c3bc 20b3 93bd bdb3 933d 54b7 48be
00000150: 2536 27bc b000 67bd 07e2 253d 2c06 aabb
00000160: 18c1 b9bd 7ce0 a13d 1d79 a1bd 5aa5 393e
00000170: 84cd c8bb 5000 a3bd b820 3c3d e60f 073e
00000180: 2a96 e13c b313 53be 0d9e cfbd 9ab6 e9bd
00000190: fc6f e63d b78c bd3c e929 6abd 6d50 033e
000001a0: 90b9 993a 3043 283d 173b 69bc 020c 303e
000001b0: f954 f93d ac71 22be 4d93 413e 4746 0dbd
000001c0: 4b71 a2bd 5d2f 043e 9178 e7bd 583b 15bd
000001d0: 1435 3b3d 9c1e d6ba 3eae 833d 27b3 d43d
000001e0: 6c91 ff3b 018b 2d3d cbd9 95bb df4e 1ebe
000001f0: 1479 783c b09b b73d e834 9f3c a40e a53d
-0.03244429 -0.14542149 0.0074450616 -0.050694406 0.0653086 -0.006105942 -0.07560184 -0.10842638
0.12447151 0.23756644 0.009204246 0.07136274 0.0066572083 0.06621317 0.09443378 -0.0026726753
0.14672935 -0.15393217 -0.09791289 -0.0011603357 -0.036192454 -0.08538606 0.019459868 0.00096073846
-0.12908782 -0.018925527 0.013168873 0.15340765 -0.05568148 0.012833705 -0.13362917 0.09961581
0.22936808 0.0211062 0.055714097 -0.0036712335 0.053624153 -0.062172994 0.1382345 -0.008579769
-0.11445081 0.025935242 0.003311505 0.091901876 0.019271385 -0.06865526 -0.0157472 0.029850375
-0.0900196 0.16696271 -0.005770579 0.08761696 0.08716241 -0.033605393 0.15736155 -0.033098955
-0.13926807 -0.096600406 0.05555608 -0.013753618 0.011411343 0.1005307 -0.013529923 -0.025609875
-0.09381393 -0.07035163 0.007650528 -0.05857954 -0.022384513 0.02839361 -0.1098542 -0.0038782398
0.05633519 0.13918988 0.029569723 -0.16342478 -0.016510677 -0.016933857 0.011682497 0.18923351
-0.023921357 -0.072119 0.07212017 -0.19601184 -0.01020578 -0.05639714 0.04049876 -0.005188724
-0.09070033 0.07904145 -0.07884429 0.18129483 -0.006128015 -0.07959044 0.04592964 0.13189659
0.027537424 -0.20612983 -0.10137568 -0.114117816 0.11251828 0.023138387 -0.057168875 0.12823649
0.0011728276 0.0410797 -0.0142352795 0.1719208 0.121744104 -0.15863675 0.18903847 -0.03449085
-0.07931765 0.12908693 -0.11302293 -0.036433548 0.045704916 -0.0016336027 0.064297184 0.10385733
0.007799318 0.042368893 -0.004573082 -0.15459774 0.015165586 0.08965242 0.019434407 0.08059433

weight f4 [64, 146]
00000000: 6a5b 993b 7fe5 813c 0d46 bc3c fd71 ec3a
00000010: 0c6a 77bb a0ae 873b 487f 8c3b 55c3 893b
00000020: 6f63 13bc 1cb9 fabb 1c0f 7f3c 0a63 b3bb
00000030: 673e 313b f793 71bb 3265 1cbc 60af 95bc
00000040: 2a1d bdba 0017 a33b 30e2 f13b 238e 96ba
00000050: 9eb3 c03a 2594 f13b f302 92bb efe0 c23b
00000060: 2e60 ac3b 1889 383b 777e 31bb f7ad dabb
00000070: b9cc bcbb 82bd 893c 0c61 943b 0fcd 87bb
00000080: 9787 9ebc 9831 d9bc 1c4e bebb 018c ecb8
00000090: 3eb2 f5bb 584f 993b b894 cdba cd1f 02bd
000000a0: 253f 7b3b 8976 47bb 6bd3 34bd 6a74 babb
000000b0: c540 dc3a d98d 693c 49cd b53b e042 a83c
000000c0: 61c0 2c3b 0c48 8ebb f712 db3b 2094 c0ba
000000d0: 1806 b0bb e0c8 e9b8 43f2 a5bb 5813 27bc
000000e0: e76a 833b f573 d63b c13e 81bb c084 773a
000000f0: 3cb0 083b 42b1 e9bb a36e a23a 5118 813b
00000100: a2b5 fd3a 21d3 243c 2c05 933b bfa3 c13b
00000110: f732 6d3b 55be 8dbb a0af 8b3b 472e b0bc
00000120: 4a14 88bb fd16 29bc 203b beba b66c 873c
00000130: cad5 d5bb 7fc9 98bb be38 cabc 6289 69bb
00000140: 888a bcbc d328 983b 2193 9bbb 7549 bb3b
00000150: f98f 72bb ae80 843a 7075 a6bb 28e2 0ebb
00000160: 985d a83a 2eaf e6ba ba21 013c 25ce a6bb
00000170: 7da4 5bbb e047 8c3b 9259 83bb 2987 05bc
00000180: 85d1 d33c 71ae da3c 32f4 583b 6611 c63b
00000190: 5842 0cbb 87ea 1a39 8f00 e737 3506 94bb
000001a0: 3fb1 8a3a ba05 7cbc 6293 393c acb7 62bc
000001b0: 3d11 2dbc 978f a53c 99de ab3a c13b 363a
000001c0: 52a7 6d3b dad6 23bc 32e7 1a3c 7056 eb3a
000001d0: 6147 2b3b e6c1 443c e42b c23a 16c4 99bb
000001e0: d64b 353d df3d 95bb 7c71 a63c eed7 8fba
000001f0: 0932 3c3a 8910 3cbc 5c93 bebc 48d2 0dbc
00000200: b415 59bd c926 88bc a42c a13b e605 b7bb
00000210: f0a3 6c3d cae5 b83b b964 e0ba 285a 173c
00000220: d7ff 3b3d 6175 193c ed63 223b 4db3 b73c
00000230: 73f1 06bc 399b 6e3b a32b c5ba d3e3 093b
00000240: 7285 003c 1728 303c 7330 353d 1434 a13d
00000250: a1b7 263a bdd3 853c a1d2 45bc fa16 ddba
00000260: 8f97 b43b 1309 b13c b7d9 59bc e1a8 99bd
00000270: c17b 273b d4d7 9cbb 9edd 9fba 1fc9 bfbc
00000280: 7b8d 3fbc c324 e3b9 a42a 4bbc c553 5d3d
00000290: 736d 193d 8001 06bc b163 44bb 13bb 7f3c
000002a0: f9df 98bb df1c 11bb f7d5 cb3c cc3d 573c
000002b0: 77e4 edbb 5914 19bd 95c0 053b ace6 6b3a
000002c0: 2041 fe3c 225f 46bc 374e 23bd 93a4 64ba
000002d0: 71cb 0fbc cf92 5b3c 9e88 09bc cf48 7f3b
000002e0: 26f7 38bc 4a9e 67ba c9f7 e23c 4fd9 69bb
000002f0: b412 54ba fba9 9dbc 4f68 7a3b 856b 453d
00000300: 1580 d33c 845f 683a be09 2c3c 75ab 16bd
00000310: dc82 e93c aa70 58bc 9ab9 8fbb afbd d23b
00000320: 5162 d8bc 94d5 1fba 9dd4 6d3c 540d 3e3c
00000330: 655a 7cbb 0837 0d3a 94e3 04bb f565 20bc
00000340: 9636 d1ba a356 d8ba 6193 013c c5b3 233d
00000350: f8c5 033b dec1 b53c 1bdd 383c 424d 89bb
00000360: 42a9 473c f5f8 743a 1650 c8bc 2dd0 94bc
00000370: b69e bd3a 676d e93c 5f6c 6aba cd67 22ba
00000380: aade 813a 3b97 75bd 2f9e 51ba 6d28 273d
00000390: 96db 47bc 9a2c 3b3d 7441 cabb 0934 fb3b
000003a0: 5c76 66bc 0216 25bb 8594 9f3c 9046 f0bc
000003b0: ab6f 023c b270 26bd 351a a8bc 62c1 803c
000003c0: e3f3 f8bc 8f9c 38bc 90db 5d3a 1702 9f3d
000003d0: c461 813d d22e b03c 0f9f 23bd 7a66 11bc
000003e0: f895 043c 7997 49bc f43e 3dbb 12a0 42bd
000003f0: af6d 033d 8545 a3bc 3b11 10bd 128c 6c3d
0.004680087 0.015856503 0.022982622 0.0018039342 -0.0037752418 0.00414069 0.004287634 0.0042041936
-0.008995875 -0.0076514613 0.015567567 -0.005474453 0.0027045251 -0.0036861876 -0.009545611 -0.018272102
-0.0014428247 0.004977107 0.0073817 -0.0011486452 0.0014701968 0.0073723965 -0.004455918 0.0059472243
0.005260489 0.0028157886 -0.0027083436 -0.0066735703 -0.0057617095 0.016813997 0.0045281705 -0.004144318
-0.019351764 -0.026512906 -0.005807651 -0.00011279435 -0.0074980548 0.004678648 -0.001568458 -0.03176861
0.0038337198 -0.0030435643 -0.044146936 -0.005690147 0.0016803971 0.0142550105 0.0055481535 0.020539701
0.0026359784 -0.0043420848 0.0066856104 -0.0014692582 -0.00537182 -0.00011147722 -0.0050642802 -0.010197483
0.0040105465 0.006544585 -0.0039442484 0.00094420835 0.0020856997 -0.0071317265 0.0012392591 0.0039396663
0.0019356499 0.010060103 0.0044867005 0.0059094126 0.0036193707 -0.004325668 0.0042628795 -0.021506442
-0.0041528093 -0.010320422 -0.001451347 0.01653133 -0.00652573 -0.004662692 -0.02468526 -0.0035634865
-0.023015276 0.0046435385 -0.0047477637 0.005715544 -0.0037012084 0.001010915 -0.0050799176 -0.002180228
0.0012845276 -0.0017599815 0.007881576 -0.0050904923 -0.003351479 0.004281029 -0.0040084803 -0.0081499005
0.025856743 0.026694508 0.0033104536 0.0060445545 -0.0021401849 0.00014773953 2.7537606e-05 -0.0045173415
0.0010581388 -0.015382225 0.011326643 -0.013837736 -0.010563192 0.02021007 0.0013112604 0.0006951653
0.003626306 -0.009999955 0.009454535 0.0017954838 0.0026135074 0.01200912 0.0014814106 -0.0046925647
0.044261776 -0.0045544947 0.020317785 -0.0010974386 0.00071790867 -0.011478552 -0.023263626 -0.008656092
-0.052999213 -0.016620057 0.0049186517 -0.00558542 0.05777353 0.0056426274 -0.0017119861 0.0092378035
0.045898285 0.009366364 0.0024778799 0.022424364 -0.008236277 0.0036408438 -0.0015042912 0.0021040335
0.007844316 0.010751746 0.044235658 0.07871261 0.00063597603 0.016336316 -0.012074144 -0.001686781
0.0055112313 0.021610772 -0.013296536 -0.07502914 0.002555594 -0.004786471 -0.0012196784 -0.023411332
-0.011691446 -0.00043324204 -0.012400303 0.054034967 0.037457895 -0.008179069 -0.0029966647 0.015608567
-0.0046653715 -0.0022142453 0.0248823 0.013137292 -0.007259901 -0.03737292 0.0020408977 0.00089989114
0.031036913 -0.012107642 -0.039869513 -0.0008722033 -0.008776532 0.013401701 -0.0083943885 0.003895331
-0.0112893935 -0.00088355376 0.027706044 -0.0035682505 -0.0008089945 -0.019246092 0.0038209145 0.04819824
0.02581791 0.00088643306 0.01050037 -0.036784608 0.028504781 -0.013210455 -0.004386139 0.0064313035
-0.026414068 -0.0006097194 0.014516023 0.011599857 -0.0038506028 0.00053869234 -0.0020277249 -0.009789933
-0.0015961702 -0.0016505312 0.007908673 0.039966363 0.0020107012 0.02218717 0.011283184 -0.004190118
0.01218635 0.0009344959 -0.02445225 -0.018165672 0.0014466855 0.02849455 -0.000894254 -0.0006195277
0.0009908278 -0.059958678 -0.00079962885 0.040810037 -0.012198349 0.045696832 -0.0061723534 0.007666115
-0.014066305 -0.002519012 0.01948 -0.029330522 0.007961194 -0.04063482 -0.020520309 0.015717212
-0.030389732 -0.011267795 0.00084631983 0.077640705 0.063174754 0.0215067 -0.039946612 -0.00887453
0.008092396 -0.01230418 -0.0028876634 -0.047515936 0.032087024 -0.01993061 -0.035172682 0.05775077

bias f4 [64]
00000000: e0ab 3a3c 6eaf f9ba 67e2 31b9 7da7 0000
00000010: b8ca bc39 d461 71ba 2a76 b9ba 6cc3 6ab8
00000020: ce14 a53b a258 8cbb bbf2 d3b9 71f8 6fb7
00000030: caa9 0280 c535 193b 3b7b 3eb9 c2b0 66a2
00000040: 4dab 80ba 2264 caba d642 e2b6 b142 feba
00000050: 7a45 98ba 7468 e039 f1b2 3b3c 6959 80b9
00000060: 2164 98b8 d844 a1b9 b704 039e 0132 0280
00000070: 73be 9fba 7f0e adba 613d 513c fbd4 a4a8
00000080: 78cc 44bb 4ce4 3db4 7788 e6b8 e74c 87ba
00000090: 9d87 84a7 2806 90ac 7bde 0cba 7752 0180
000000a0: 2f6e 0200 d3e8 5ab8 77ea 443b 659f 45b8
000000b0: 1b8e 0280 c28b 82ba dd4d 85b8 664b 0000
000000c0: 13e8 31ba 6ea5 2aba 0f4c 343b 0fd0 82b7
000000d0: d27c c5ba be30 033a 048d 9eba d16b 9ca3
000000e0: 1735 d3b9 4354 0100 182c 2eb5 314a 55ba
000000f0: de22 0280 2b31 92b7 ac6b 53ba 4d73 e5b9
0.011393517 -0.0019049475 -0.00016964377 6.0083e-41 0.00036009192 -0.0009207998 -0.0014149596 -5.597195e-05
0.0050378805 -0.004283027 -0.00040425904 -1.4303355e-05 -2.4458e-40 0.0023377996 -0.00018165719 -3.1264387e-18
-0.0009816677 -0.0015441219 -6.7431056e-06 -0.0019398538 -0.0011617385 0.00042802433 0.011456237 -0.00024480678
-7.266575e-05 -0.00030759606 -6.936057e-21 -2.01609e-40 -0.0012187496 -0.0013203173 0.0127709815 -1.8300023e-14
-0.00300291 -1.768505e-07 -0.00010992673 -0.0010322601 -3.678439e-15 -4.0934096e-12 -0.00053737283 -1.21418e-40
2.23197e-40 -5.2192085e-05 0.0030046978 -4.7116908e-05 -2.34649e-40 -0.0009959864 -6.3564374e-05 2.7048e-41
-0.0006786596 -0.00065096363 0.0027511155 -1.5594092e-05 -0.0015067107 0.00050045166 -0.0012096469 -1.6959216e-17
-0.0004028461 1.22063e-40 -6.4884216e-07 -0.00081363606 -1.96179e-40 -1.7427452e-05 -0.00080650556 -0.0004376419

weight f4 [19, 64]
00000000: b488 2e3b 7e73 d5bc 5622 c039 cbb2 8b38
00000010: 130a b23a ce8a 72ba 6f04 04bd ad02 0c3a
00000020: 3bf9 3ebc 31d2 163a 7fdb 543a 8657 4039
00000030: c053 ec19 cee6 ad39 9f2b cc38 b839 14ba
00000040: 3b9b 18ba 86c0 34bd 6dfc 0080 2a6f 99bc
00000050: 7a31 06bc cfda 21ba d676 72ba 2de3 5c39
00000060: 6387 7bbd b3ce 7bbc fba7 0000 8287 22b7
00000070: cbb0 d93a 710b 6eba e08b daba 8ffc bf39
00000080: 7549 543d cfb1 13ba 13ca d4b9 8563 82ba
00000090: cd84 93b6 c0d0 60ba e3bb fd3b 4c39 ce39
000000a0: f8fd b237 81c0 993c 779e 2abb e50b 96b9
000000b0: ea9b 0080 85e9 703c 9cc2 dcbb d32e 32ba
000000c0: d9c0 9c3b 2680 0f3b c900 6aba b958 623a
000000d0: 82a6 e53c 4096 d839 5e17 823b b027 47ba
000000e0: 95c3 feb5 6b92 0180 ad79 ab39 242c 57ba
000000f0: 899c c217 77a4 d1b8 7421 77bc 7ddb 4b3c
00000100: 371f 023b d533 673a e6e7 8bba 84aa 0000
00000110: 6929 e6bb d2ca 2a3a f32a 6c3a 3efc f4b9
00000120: 841f feb9 2ec8 163b a9a1 403a 2c33 29bc
00000130: 2142 0280 c18c 76bb 1df4 b5ba 5176 3a33
00000140: 3255 693a 30ad a3b9 9d17 0280 85bf dcb9
00000150: fa89 4bb9 b9a2 9fbb 7bd8 76bc 00b5 e2bb
00000160: a300 1b38 ff65 da10 ea19 0180 3502 0200
00000170: c15e 923a 1e78 213a 518f b5ba ba05 66b8
00000180: fae7 59b6 9353 a1b7 1779 bf3a fe23 17ba
00000190: 4515 4222 b397 8db8 c892 cb3a c165 d6a2
000001a0: 4e35 1b0a f45b 9937 b765 993b ec46 a0b9
000001b0: fcfc 0100 f810 603a 04df 3ebb 16c6 fd0b
000001c0: cf46 4eba 2944 a5b8 aea5 803b efbd bb39
000001d0: ca53 203a 2244 443a ac76 683a 8129 e839
000001e0: c276 3f3a 1b01 0180 1b69 1a39 73d9 20ba
000001f0: 1716 0200 a7f0 2ab8 aa46 593a 70a7 753a
00000200: 7662 a7bb 2d97 18ba 1b6e 6ab9 4f48 0180
00000210: d251 0dbb 3ec5 2eba 4576 8c3a 405b a8b9
00000220: b2e9 a638 68fb 1cbb 14a8 3c3a 6bfd b03c
00000230: 3b37 0080 686b f43b 1724 ce3a e29a 14b3
00000240: 2a43 693a 9d11 f6b9 a6a3 0080 b136 73ba
00000250: 1fc2 92ba 788e 07bb ba85 233c 9143 073c
00000260: ae2c 5db9 fb89 0100 760d 0080 08ce 0080
00000270: 489d 83ba 45bd 0e3a b73e a23a 7b74 27b8
00000280: c978 bfba 0989 74b9 3c2f 50bb 4eb5 623a
00000290: b217 0200 ed41 fab0 470f 16b9 5d07 5f8b
000002a0: 2d42 5f00 d12c f13a 23a7 91bc 2b43 a5ba
000002b0: 3e4a 0200 2e89 603a a9e6 c2bb 8912 dfad
000002c0: 81a4 d4bb 33ca 9f39 3634 44bb bb41 483a
000002d0: cc24 6b3a c94a 16bb d6b1 69ba d789 b9b9
000002e0: a083 8fb9 b433 0180 0da8 b539 a5aa a7ba
000002f0: f463 0200 d00b 88ba 2ec9 49ba 8d76 8c3a
00000300: fde9 273b cd3b 693a 3443 fbb9 4415 0100
00000310: 4aea 46bc 3d77 143a 72d9 7c3a a27c a738
00000320: f2a6 8ebb ee2a adba 934d 153a 00c8 79bc
00000330: 2766 0280 e52a c8bb fdb3 57ba e5b2 0e28
00000340: 51a5 67ba c299 0cba 749d 0200 78f6 eab9
00000350: 607f 71b9 aa74 d5ba 3d78 8f3a 777e 913b
00000360: 247d 6c38 9769 de12 eca4 0100 4c53 0080
00000370: 4b05 2aba 06be 58ba a533 703a 8266 e1b7
00000380: 3966 c83a 852c feb6 24da 503b 843b 01ba
00000390: a63b cc12 73d9 c4b7 6979 c63a 2d36 1daa
000003a0: 8bd8 5315 838b 5839 6677 593b c78e 9739
000003b0: b668 0200 3483 5eba a2e0 d0bb ea79 3d29
000003c0: 1c65 8638 a1f3 9238 9ffd b5ba 9cf0 fc39
000003d0: 1316 873a bc44 af38 ddb9 5cba 3f84 2c3a
000003e0: ca99 483a e38b 0080 50fe 4739 839e 1eba
000003f0: 8d54 0080 f654 a8b9 cbd0 653a fe52 693a
0.0026631774 -0.026056048 0.00036646676 6.661339e-05 0.0013583325 -0.0009252251 -0.03223079 0.0005340975
-0.011656101 0.0005753367 0.00081198657 0.00018343152 2.4435654e-23 0.00033169094 9.735603e-05 -0.0005654353
-0.0005821471 -0.044128917 -9.0553e-41 -0.018729765 -0.008190507 -0.00061742676 -0.00092492753 0.00021065465
-0.06140841 -0.015369105 6.026e-41 -9.687503e-06 0.0016608475 -0.00090806844 -0.0016673766 0.0003661853
0.051827867 -0.00056341005 -0.00040586348 -0.0009947872 -4.3964014e-06 -0.0008576028 0.007743345 0.0003933407
2.1337517e-05 0.01876855 -0.0026034394 -0.00028619092 -5.5931e-41 0.014704113 -0.0067370664 -0.00067971385
0.0047837314 0.002189645 -0.00089265086 0.00086344365 0.028033499 0.00041310675 0.0039700707 -0.00075971615
-1.8981397e-06 -1.4436e-40 0.00032706317 -0.00082081766 1.2576471e-24 -9.9965306e-05 -0.015083659 0.012442467
0.0019855031 0.0008819674 -0.001067397 6.117e-41 -0.0070239794 0.0006515208 0.00090090855 -0.00046727242
-0.00048470136 0.00230075 0.0007348308 -0.010327142 -2.07394e-40 -0.0037620517 -0.0013881956 4.3414108e-08
0.000890094 -0.00031218817 -1.92142e-40 -0.00042104363 -0.00019410989 -0.004871693 -0.015066261 -0.0069185495
3.6955473e-05 8.614299e-29 -1.01132e-40 1.84463e-40 0.0011167155 0.00061595615 -0.0013851916 -5.4841606e-05
-3.2470548e-06 -1.9231613e-05 0.0014608231 -0.0005765556 2.6303163e-18 -6.75166e-05 0.0015531415 -5.8112552e-18
7.473004e-33 1.828184e-05 0.004681315 -0.0003057042 1.82589e-40 0.00085474504 -0.0029124627 9.77501e-32
-0.00078688277 -7.880509e-05 0.0039260006 0.0003580893 0.0006116001 0.0007486959 0.0008867781 0.0004428141
0.0007303768 -9.2232e-41 0.0001472574 -0.0006135918 1.91595e-40 -4.0755283e-05 0.0008288423 0.00093709584
-0.005108173 -0.0005820867 -0.00022356996 -1.17775e-40 -0.0021563661 -0.00066669646 0.0010716399 -0.00032111444
7.959026e-05 -0.002395356 0.00071966765 0.021605214 -1.9813e-41 0.007459093 0.0015727308 -3.45998e-08
0.0008898253 -0.000469339 -5.8706e-41 -0.0009277864 -0.0011196769 -0.0020684283 0.009980613 0.008255855
-0.00021092847 1.41334e-40 -4.829e-42 -7.391e-41 -0.001004138 0.00054450735 0.001237831 -3.9924384e-05
-0.001460814 -0.00023320703 -0.0031766435 0.00086482323 1.92171e-40 -1.8208631e-09 -0.00014310806 -4.2953777e-32
8.748112e-39 0.0018400197 -0.017779892 -0.0012608519 2.10304e-40 0.0008565363 -0.005947907 -2.5360396e-11
-0.006489337 0.00030477493 -0.0029938347 0.0007639189 0.0008970022 -0.002293276 -0.0008914744 -0.00035388648
-0.00027373154 -1.10383e-40 0.00034648218 -0.0012791945 2.19527e-40 -0.0010379497 -0.00076975196 0.0010716483
0.0025621646 0.00088971556 -0.0004792452 9.9464e-41 -0.01214082 0.000566352 0.0009645439 7.986395e-05
-0.0043533975 -0.0013211647 0.00056954584 -0.015245438 -2.20316e-40 -0.006108629 -0.00082284195 7.921375e-15
-0.0008836585 -0.0005363488 2.40155e-40 -0.00044815592 -0.00023031002 -0.0016285379 0.0010945868 0.0044401246
5.638333e-05 1.40362e-27 1.50998e-40 -2.9881e-41 -0.0006485774 -0.0008268062 0.0009162969 -2.6869824e-05
0.0015289254 -7.5749726e-06 0.0031868303 -0.0004929828 1.2888914e-27 -2.3466278e-05 0.0015142384 -1.3963197e-13
4.2781933e-26 0.00020651337 0.003318274 0.00028907342 2.21234e-40 -0.0008488179 -0.0063744346 4.2072174e-14
6.408451e-05 7.007202e-05 -0.0013884789 0.00048244454 0.0010306261 8.357453e-05 -0.000842003 0.00065809855
0.0007652311 -5.0182e-41 0.00019072858 -0.0006050842 -3.0331e-41 -0.00032106758 0.00087667693 0.00089006114

bias f4 [19]
00000000: 8931 ae3e ae57 983b 02ee 6d3b f5b1 12bb
00000010: 003d a13e 0d19 1f3c 6adc b33a 83d5 603a
00000020: 0ed8 b13e 99c5 a63e f0dc 3dba ab46 d5ba
00000030: 9b0d 843a f17c a03e 68cc 00bb f212 b83a
00000040: 0909 003b f92e a63e 6b7b 63be
0.34022167 0.004649124 0.0036305194 -0.0022383903 0.31491852 0.009710562 0.0013722305 0.00085767376
0.3473515 0.3257263 -0.00072427 -0.0016271671 0.0010074856 0.31345323 -0.0019653086 0.0014043732
0.0019536635 0.32457712 -0.22215049
