models/C/model4.pt (torch, 310479 bytes, 8 tensors)

weight f4 [128, 384]
0	0xbd44fd4a	-0.048093118
1	0x3c85bc0d	0.016325021
2	0x3cc908b4	0.024540283
3	0xbc1a71d8	-0.0094265565
4	0xbc7ca729	-0.015420713
5	0xbb1bb625	-0.002375969
6	0x3cc2c481	0.023775341
7	0xbbb4344b	-0.005499398
8	0xbbd2fb34	-0.006438637
9	0xbb004297	-0.001957094
10	0xbd8c0fca	-0.06838949
11	0xbab27727	-0.0013615832
12	0xbbe191e7	-0.006883848
13	0xbd496ff3	-0.04917903
14	0xbc8f12f7	-0.017465098
15	0x3dc4bbb3	0.09606113
16	0x3e8d0933	0.2754608
17	0x3d6f9520	0.058491826
18	0x3baf9d89	0.005359356
19	0x3db0de1a	0.086361125
20	0x3d958c51	0.07302154
21	0xbcad72c4	-0.021172889
22	0xbc2e1f7f	-0.010627626
23	0x3c3657e6	0.011129355
24	0xbce1a948	-0.02754654
25	0xbd233780	-0.03984785
26	0x3b226ba5	0.00247834
27	0xbd82fb3a	-0.06395574
28	0x3b879122	0.004137174
29	0x3d68b9c3	0.05681778
30	0x3d23b5d3	0.039968323
31	0xbc44c847	-0.01201064
32	0x3eb42585	0.35184875
33	0x3e318236	0.17334828
34	0xbbbccafd	-0.005761503
35	0x3df88ae0	0.12135863
36	0xbcd7a4a9	-0.026323633
37	0xbb0bea77	-0.0021349469
38	0x3c838f66	0.016059589
39	0xbd8fafb8	-0.070159376
40	0xbd041485	-0.03224613
41	0xbba8ac9f	-0.005147531
42	0xbd063115	-0.032761652
43	0x3be1aba3	0.006886916
44	0xbc7e4199	-0.015518569
45	0xbdb5bc8c	-0.08873853
46	0xbddc14bf	-0.107461445
47	0xbdeeeadb	-0.11665889
48	0x3e9edfb4	0.31030047
49	0x3ccd1659	0.02503507
50	0x3b838ef4	0.004014844
51	0x3dcb4e06	0.09926991
52	0x3d4205ca	0.047368802
53	0xbca8a6fc	-0.020587437
54	0xbbea3349	-0.007147227
55	0x3cbb5992	0.022869859
56	0xbd9c60ad	-0.07635627
57	0xbc8247b1	-0.015903326
58	0xbdb557c3	-0.0885463
59	0xbca35587	-0.019938244
60	0xbce16d58	-0.02751796
61	0xbd8fc199	-0.07019348
62	0xbd85a07e	-0.06524752
63	0xbd0cd3ee	-0.0343818
64	0xbd1ea8e9	-0.038735304
65	0xbc076b00	-0.008265257
66	0x3d7fd746	0.06246116
67	0xbc986c69	-0.018606381
68	0x3b3e4d4f	0.0029037779
69	0xbc12cde8	-0.008960225
70	0xbca473dc	-0.020074777
71	0xbd10453b	-0.035222273
72	0x3d5e9806	0.0543442
73	0x3db22c7b	0.0869989
74	0x3cddcafe	0.027074333
75	0x3bcd1552	0.006258645
76	0x3bff60a4	0.007793503
77	0xbd44cd13	-0.048047137
78	0xbc6a4dc5	-0.014300768
79	0xbc97a644	-0.018511899
80	0xbda165b8	-0.078807294
81	0xbde1c839	-0.110245176
82	0xbd3c027e	-0.045900814
83	0xbd0e66bc	-0.034765944
84	0xbd289974	-0.04116197
85	0xbccbcd2f	-0.024878113
86	0xbd10550c	-0.035237357
87	0x3b1f8f8c	0.0024347035
88	0xbd64d30c	-0.055865332
89	0xbd556422	-0.052097447
90	0x3d30e0f0	0.043183267
91	0x3cae7792	0.02129725
92	0xbcee2718	-0.029071376
93	0x3e0044de	0.12526271
94	0x3e23eb9c	0.16007847
95	0x3d8497c4	0.064742595
96	0x3e315e87	0.17321216
97	0x3e879198	0.26478267
98	0x3e8f07fe	0.27935785
99	0x3d2974c7	0.041371133
100	0x3bf09cdf	0.0073429192
101	0x3cfc2989	0.030781524
102	0xbd34078b	-0.043952506
103	0xbea36360	-0.31911755
104	0xbd534fec	-0.05158989
105	0x3d095735	0.033530433
106	0x3db33a65	0.08751372
107	0x3d44448f	0.047916945
108	0x3d5d9d71	0.054105226
109	0xbd04f960	-0.032464385
110	0xbc7cccaa	-0.015429655
111	0xbd3cbb58	-0.046077102
112	0xbde44e06	-0.11147694
113	0x3cd581a7	0.0260628
114	0x3d169298	0.036760896
115	0x3bd3ef88	0.0064677633
116	0x3c741a01	0.014898778
117	0xbdaded1f	-0.08492493
118	0x3c84b6d8	0.016200468
119	0x3d95743d	0.07297561
120	0xbdf40e53	-0.11916795
121	0xbdd18730	-0.10230863
122	0xbd433cfe	-0.04766559
123	0xbc2e9595	-0.01065578
124	0xbdc05f4a	-0.09393175
125	0x3bb3d8df	0.0054884995
126	0x3da6e826	0.081497476
127	0x3bb7e989	0.0056125564
128	0x3d743124	0.059617177
129	0x3d8fc324	0.07019642
130	0x3d166d77	0.036725488
131	0x3d8c7d98	0.068598926
132	0xbcf76984	-0.030201681
133	0xbcc5e39e	-0.024156388
134	0x3b9d8f41	0.004808337
135	0xbb12d975	-0.0022407447
136	0x3be3d878	0.0069532953
137	0xbbc92959	-0.006138962
138	0xbda93d1c	-0.08263609
139	0x3d2a748f	0.041615065
140	0x3d91b1a3	0.0711396
141	0x3d84010f	0.064455144
142	0x3c9694e6	0.018381547
143	0x394e7031	0.00019687485
144	0x3c5243d8	0.012833558
145	0x3d322a23	0.043497216
146	0x3d294b1b	0.04133139
147	0x3c17a0f7	0.009254686
148	0xbc834632	-0.016024683
149	0xbd927e90	-0.07153046
150	0xbd63b17d	-0.055589188
151	0xbcf94b00	-0.03043127
152	0x3deaf21f	0.11471962
153	0x3dcb772f	0.09934842
154	0x3d6bfeb1	0.05761594
155	0xbd4d48f3	-0.050118398
156	0xbe1b7a9a	-0.15183488
157	0xbda4240b	-0.08014687
158	0xbbc13644	-0.0058963615
159	0x3d98441c	0.07434866
160	0x3e21aaed	0.1578786
161	0x3e82b59f	0.2552919
162	0x3e152d71	0.14568116
163	0x3c80c269	0.015717702
164	0x3d5688e1	0.05237663
165	0x3cc215ee	0.023692098
166	0xbb038775	-0.0020069752
167	0xbd2f1e45	-0.042753477
168	0xbc83f4ca	-0.016107935
169	0x3d120a5f	0.035654422
170	0x3cbf9711	0.023387464
171	0x3cc442ba	0.023957599
172	0x3d5610c4	0.052262083
173	0xbc02fc33	-0.007994699
174	0x3d395353	0.04524548
175	0xbb81a35f	-0.003956243
176	0xbdc45e1b	-0.09588262
177	0xbc892541	-0.016741397
178	0x3d614318	0.054995626
179	0xbc00f35f	-0.007870524
180	0x3cda13ec	0.026620828
181	0xbcf12d83	-0.029440647
182	0xbd0b2bc6	-0.033977292
183	0xbd524958	-0.051339477
184	0x3ed3a4b1	0.41336587
185	0x3e4f010e	0.20215246
186	0xbdbd1e7d	-0.09234331
187	0xbe17131a	-0.1475338
188	0xbe1eb327	-0.15498029
189	0xbcab6f2d	-0.020927036
190	0x3d6bddfd	0.05758475
191	0x3dc73606	0.09727101
192	0xbccec9cc	-0.025242709
193	0xbe2e4796	-0.17019495
194	0xbecc2f44	-0.3987981
195	0xbcbff7ff	-0.023433683
196	0x3ea07612	0.3134008
197	0x3df409cb	0.1191593
198	0x3d8acde5	0.067775525
199	0x3e52e91f	0.20596741
200	0xbc830629	-0.015994148
201	0xbc447d56	-0.011992773
202	0xbe0c76ac	-0.13717145
203	0x3d5c01c4	0.05371262
204	0x3df673bc	0.12033793
205	0x3c818717	0.015811486
206	0xbbe176b8	-0.0068806075
207	0x3dad1b82	0.08452512
208	0xbd681669	-0.056661997
209	0xbd374b4d	-0.044749547
210	0x3d8b2ac7	0.067952685
211	0x3c0a45ae	0.0084394645
212	0xbc745923	-0.01491383
213	0x3d3931d8	0.04521355
214	0x3dc269f2	0.09492864
215	0xbd5ab4ad	-0.053394962
216	0xbdb12f2a	-0.08651574
217	0xbcfddd3b	-0.03098928
218	0xbcb0b901	-0.021572592
219	0xbdb6952d	-0.08915172
220	0xbd919e27	-0.07110243
221	0xbdfe84ce	-0.12427674
222	0xbe95889e	-0.29205793
223	0xbe2cb406	-0.16865548
224	0xbc5f153f	-0.013615905
225	0xbca66e18	-0.020316169
226	0x3dd26e20	0.10274911
227	0x3d826e54	0.063687
228	0xbd785226	-0.060625218
229	0xbcd719d0	-0.026257426
230	0xbe08b750	-0.13351178
231	0xbdbd98c4	-0.09257653
232	0x3d77cd28	0.060498387
233	0xbd64a5ad	-0.055822063
234	0x3daa0099	0.08300895
235	0x3d57174c	0.052512452
236	0x3dc7c7d2	0.097549096
237	0x3ac0abad	0.0014699601
238	0xbd015acc	-0.03158073
239	0x3d891e96	0.06695287
240	0x3e1e9e8d	0.1549017
241	0x3cb8bd87	0.022551311
242	0xbd489bf1	-0.048976842
243	0xbd1d05fa	-0.038335778
244	0xbc6248a2	-0.013811262
245	0x3cc725f4	0.02431009
246	0x3deaa7e7	0.11457806
247	0x3d86cd22	0.06582095
248	0xbe895c11	-0.26828054
249	0xbe921065	-0.28528133
250	0xbd48806f	-0.04895061
251	0xbe1de6db	-0.15420096
252	0xbddcf55f	-0.10788988
253	0xbd43f445	-0.047840375
254	0xbd3380b6	-0.04382392
255	0xbc8da3cf	-0.017290024

bias f4 [128]
0	0x3d92b214	0.07162872
1	0x3da6935f	0.081335776
2	0x3e7cbafd	0.24680705
3	0x3e6d3333	0.23164062
4	0x3d18eb75	0.037333924
5	0x3eb2c065	0.3491241
6	0x3e84b373	0.2591816
7	0x3d28efab	0.04124419
8	0x3e253f6c	0.16137475
9	0x3e640f5c	0.22271484
10	0x3ebfe1c0	0.3747692
11	0x3da78c6e	0.08181082
12	0x3d857526	0.06516485
13	0x3d01d2b7	0.031695094
14	0x3dce5f5b	0.10076781
15	0x3eb9b3df	0.36270043
16	0x3e867a51	0.26265195
17	0x3e8ff4b3	0.28116378
18	0x3db3d28a	0.087803915
19	0x3e78867a	0.24270049
20	0x3e12955e	0.14314792
21	0x3e887e1f	0.26658723
22	0x3e570851	0.20999266
23	0x3e9c5284	0.30531704
24	0x3e3e3f0c	0.18578738
25	0x3e937773	0.2880207
26	0xbca522e2	-0.020158235
27	0x3e3e142c	0.18562382
28	0x3e7678be	0.24069497
29	0x3e4bbac1	0.1989546
30	0x3eafa545	0.34305778
31	0x3e948490	0.29007387
32	0x3e8493c4	0.25893986
33	0x3e851e81	0.25999835
34	0x3dad1fce	0.08453332
35	0x3ccb11c7	0.02478875
36	0x3e1d6abd	0.15372749
37	0x3e1cd850	0.15316892
38	0x3e0ff057	0.14056526
39	0x3e9212ec	0.2853006
40	0x3e7b3ad1	0.24534155
41	0x3e092357	0.13392387
42	0x3e176260	0.14783621
43	0x3e59b8f9	0.21261968
44	0x3e3bc7a9	0.18337883
45	0x3e8f96aa	0.28044635
46	0x3ebe5e25	0.37181202
47	0x3e391a87	0.18076526
48	0x3d01d219	0.031694505
49	0x3e03189c	0.12802356
50	0x3da7f6ba	0.08201356
51	0x3e166482	0.14686778
52	0x3e8ab801	0.2709351
53	0x3e49795d	0.19675203
54	0x3ea8462f	0.32866046
55	0x3e9d5aed	0.30733433
56	0x3dd444bb	0.10364672
57	0x3ea562aa	0.32301837
58	0x3e34f35b	0.17670958
59	0x3e7fb7a2	0.24972394
60	0x3c5788ce	0.013155175
61	0x3e8d2f93	0.2757536
62	0x3e8bd6b9	0.27312258
63	0x3e4b8916	0.19876513
64	0x3e81b2a8	0.25331616
65	0x3e50d7bb	0.20394795
66	0x3e86afb3	0.26305923
67	0x3e871f0e	0.2639088
68	0x3dcb3c3e	0.099236
69	0x3eac6903	0.33673868
70	0x3ddbb359	0.10727567
71	0x3e3de2f4	0.18543607
72	0x3d52e92a	0.051491894
73	0x3e160ee1	0.14654113
74	0x3e9a1f69	0.3010209
75	0x3e34adb5	0.17644389
76	0x3e842cb0	0.25815344
77	0x3d49b05d	0.04924046
78	0x3da5b307	0.080907874
79	0x3e8a5100	0.27014923
80	0x3e32a284	0.17444807
81	0x3db18196	0.08667295
82	0x3e64bc76	0.22337517
83	0x3e24e3b3	0.16102485
84	0x3eca614d	0.3952736
85	0x3ea6dc5b	0.32589993
86	0x3e23ebc9	0.16007914
87	0x3eb187b1	0.34673837
88	0x3e02bb43	0.12766747
89	0x3ee1bc01	0.44088748
90	0x3e86e23b	0.26344475
91	0x3ed1d0a1	0.40979484
92	0x3e429fae	0.19006225
93	0x3e854fad	0.2603735
94	0x3e3bba54	0.18332797
95	0x3d6563fb	0.056003552
96	0x3e30b1d7	0.1725534
97	0x3e20fe44	0.15721995
98	0x3e1b6a27	0.15177213
99	0x3e3907c8	0.18069375
100	0x3e9ffc2b	0.31247076
101	0x3e9cf850	0.30658197
102	0x3da7b8c9	0.08189542
103	0x3e5e4bd7	0.21708618
104	0x3e67f0f3	0.22650509
105	0x3e9ac34b	0.30227122
106	0x3e07e2e0	0.1327014
107	0x3e6c202d	0.23059149
108	0x3dec1533	0.11527481
109	0x3e070abc	0.13187689
110	0x3e95bf13	0.2924734
111	0x3e9243b0	0.28567266
112	0x3ddf0fae	0.108916625
113	0x3e83a162	0.25709063
114	0x3eae16d7	0.340018
115	0x3e52d8e4	0.2059055
116	0x3e956fab	0.29186758
117	0x3ed14819	0.4087532
118	0x3e8c35ff	0.27384946
119	0x3e366b86	0.17814454
120	0x3cce2ff7	0.025169356
121	0x3ebea1d1	0.3723283
122	0x3db94f2a	0.090483025
123	0x3e057fec	0.1303708
124	0x3e958351	0.2920175
125	0x3e7fa84c	0.24966544
126	0x3e31b60d	0.17354603
127	0x3deb53f8	0.11490625

weight f4 [128, 128]
0	0xbdab7bdc	-0.08373234
1	0x3ded21fe	0.11578749
2	0xbd5cbbeb	-0.05389015
3	0xbe0e141c	-0.13874859
4	0xbe13e33d	-0.14442153
5	0xbe43896f	-0.19095396
6	0xbdfd0a58	-0.123554885
7	0xbe13caf1	-0.14432885
8	0xbdcc6a55	-0.09981219
9	0xbc9412e7	-0.01807542
10	0xbe56d27c	-0.20978731
11	0x3dc6c7a4	0.09706047
12	0xbda6ab40	-0.08138132
13	0xbe040dda	-0.12895909
14	0xbe2abadc	-0.16672844
15	0xbe13bc6a	-0.14427343
16	0xbdf68fee	-0.12039171
17	0xbe1568ae	-0.14590713
18	0x3de4d74e	0.111738786
19	0xbde8d8b6	-0.11369459
20	0xbdb28aec	-0.087179035
21	0xbd707cd4	-0.058712795
22	0xbc8cc4d4	-0.017183699
23	0xbd578270	-0.05261463
24	0xbcaebb7b	-0.021329632
25	0xbd4b6d10	-0.049664557
26	0xbe914c41	-0.2837849
27	0xbddd16e5	-0.107953824
28	0xbd4e8e9b	-0.050428968
29	0xbbab27fe	-0.0052232733
30	0xbe0690eb	-0.1314122
31	0xbca17994	-0.019711293
32	0xbdf400d1	-0.11914218
33	0xbdbeb376	-0.09311573
34	0x3dd8dbb2	0.105887786
35	0xbdfe76e8	-0.12425023
36	0xbdd1d603	-0.102458976
37	0xbcc33c5e	-0.023832496
38	0xbdb10717	-0.086439304
39	0xbe08c562	-0.13356546
40	0xbdcfd72f	-0.10148465
41	0xbc95deb8	-0.018294677
42	0xbd3ad62f	-0.045614418
43	0xbe0b28c7	-0.13589774
44	0xbdf169cf	-0.117877595
45	0xbdd35142	-0.10318233
46	0xbe233c8d	-0.15941067
47	0xbb46ccc1	-0.0030334445
48	0xbde71d3f	-0.11284875
49	0xbda4dc2a	-0.080498055
50	0x3dcf44c6	0.10120539
51	0xbd400f13	-0.046889376
52	0xbb8d4460	-0.0043111295
53	0xbddf0db6	-0.10891287
54	0xbd1cb722	-0.038260587
55	0xbdc206cd	-0.094739534
56	0xbb533b3d	-0.0032231354
57	0xbe10e7be	-0.14150903
58	0xbde3e0da	-0.111268714
59	0xbcf20608	-0.029543892
60	0xbe94003d	-0.28906432
61	0xbd56fb40	-0.052485704
62	0xbd90568c	-0.070477575
63	0xbd3944f3	-0.04523177
64	0xbdaa66a8	-0.083203614
65	0xbcf078c7	-0.029354466
66	0xbc3c2f0d	-0.011485827
67	0xbe1a4934	-0.15066987
68	0xbd8b3a47	-0.06798225
69	0xbdd058ab	-0.10173162
70	0xbd26084c	-0.040535256
71	0xbdc57f6c	-0.096434444
72	0x3e4d483d	0.20047088
73	0xbdd4988b	-0.10380658
74	0xbe0689af	-0.1313846
75	0xbc7d90d6	-0.015476426
76	0xbdc830e2	-0.09774949
77	0xbdcb4c5b	-0.09926673
78	0x3dc08523	0.09400394
79	0xbe0e2aea	-0.13883558
80	0xbba78aec	-0.0051129963
81	0xbdcf6aec	-0.101278156
82	0xbded5ed3	-0.11590352
83	0xbc95e0e1	-0.018295707
84	0xbe221eb2	-0.15832022
85	0xbdbb5c8a	-0.0914851
86	0xbc754f46	-0.014972514
87	0xbe1f2435	-0.15541156
88	0xbd917bd1	-0.07103694
89	0xbda862b1	-0.08221949
90	0xbe09ce41	-0.13457586
91	0xbe4b1342	-0.19831565
92	0xbdcad4b4	-0.09903851
93	0xbe0a0330	-0.13477778
94	0xbd497088	-0.049179584
95	0xbe08bfce	-0.13354418
96	0xbb4b1517	-0.0030987912
97	0xbd32b9b2	-0.043634124
98	0xbbffb5c7	-0.007803652
99	0xbb227d55	-0.0024793942
100	0xbdb9cb86	-0.09072022
101	0xbde74397	-0.112921886
102	0x3da86ef3	0.08224287
103	0xbde1c1a4	-0.11023262
104	0xbd555a00	-0.052087784
105	0xbd9efc9f	-0.077630274
106	0xbcd33b1c	-0.025785021
107	0xbd92c07e	-0.07165621
108	0xbd946f23	-0.0724776
109	0xbc03b7fb	-0.00803947
110	0x3c3b5aa1	0.011435182
111	0xbdd127cf	-0.10212671
112	0xbcae117f	-0.021248577
113	0xbd650db3	-0.055921268
114	0xbdef9653	-0.11698594
115	0xbd469887	-0.048485305
116	0xbd65888f	-0.056038436
117	0xbdfaa09f	-0.12237667
118	0xbde1cab5	-0.110249914
119	0xbc7211e9	-0.014774778
120	0xbe35fe1e	-0.1777272
121	0xbd6e812c	-0.058228657
122	0xbd46b398	-0.048511118
123	0xbc1ec104	-0.009689573
124	0xbd75125e	-0.05983197
125	0xbd5adb3e	-0.053431742
126	0xbce55296	-0.027993482
127	0xbdea937e	-0.11453913
128	0x3da5d7c9	0.080977984
129	0xbe6180cc	-0.22021788
130	0xbcb75cee	-0.02238318
131	0xbd94a002	-0.072570816
132	0x3e0a9f0e	0.13537237
133	0x3cb0a25c	0.021561794
134	0x3d03419c	0.03204499
135	0x3e12f8e3	0.14352755
136	0x3cc4e2c5	0.024033913
137	0x3bf4032c	0.007446667
138	0xbd6a43ca	-0.057193555
139	0xbe531721	-0.20614292
140	0x3d9fd273	0.07803812
141	0x3e0ba87b	0.13638489
142	0x3e2a4f07	0.16631709
143	0xbc8e776c	-0.01739093
144	0x3d4d0242	0.05005098
145	0xbd34a082	-0.044098385
146	0xbe58cbb5	-0.21171458
147	0xbd95dcaf	-0.07317483
148	0xbca0cbe7	-0.019628478
149	0x3d6605f8	0.056158036
150	0xbd81685a	-0.063187316
151	0xbacacc6e	-0.0015472302
152	0xbd819d9b	-0.06328889
153	0x3d0c6062	0.034271605
154	0x3ea259d8	0.3170917
155	0x3d88eb4d	0.06685505
156	0x3c12af6a	0.008952955
157	0x3cc51edc	0.024062566
158	0x3d9735c2	0.073833
159	0xbcfce026	-0.030868601
160	0xbcd91ca1	-0.02650291
161	0x3cf3f4b5	0.029779771
162	0xbe5a928c	-0.21344966
163	0x3dff4a51	0.124653466
164	0xbd5ae3d4	-0.05343993
165	0x3ca77d6a	0.020445544
166	0xbd75b7b6	-0.059989654
167	0xbccaa7c3	-0.024738198
168	0xbd3d7e29	-0.046262894
169	0xb93629d6	-0.00017372458
170	0xbc73122e	-0.014835877
171	0x3d03030e	0.031985335
172	0xbd1bf337	-0.038073745
173	0x3d32821f	0.043581124
174	0x3b8d9585	0.0043208026
175	0xbd9a512e	-0.07535015
176	0x3e031555	0.12801106
177	0xbd79fa19	-0.061029527
178	0xbe57ae0d	-0.21062489
179	0x3d4d7772	0.05016274
180	0x3d979678	0.074017465
181	0xbd3104b0	-0.04321736
182	0x3d4cedf8	0.050031632
183	0xbc86e82d	-0.016468132
184	0x3be2ac36	0.006917502
185	0x3d644082	0.055725582
186	0xbbc8ed7a	-0.006131825
187	0xbd40e098	-0.04708919
188	0x3ea928bb	0.33038887
189	0xbc7c8aef	-0.015413984
190	0xbcd8b37e	-0.026452776
191	0xbd2b3cc6	-0.041806005
192	0xbd4eba1e	-0.050470464
193	0xbcc12e43	-0.02358163
194	0x3dacfa2b	0.08446153
195	0x3d554157	0.052064266
196	0x3d634c07	0.055492427
197	0x3c292cd2	0.010325627
198	0xbb2df2ae	-0.0026542353
199	0x3d128615	0.0357724
200	0xbe89a440	-0.26883125
201	0x3c4a76cd	0.012357426
202	0xbc06f023	-0.008235964
203	0xbcfbc44a	-0.030733246
204	0x3c8703fc	0.016481392
205	0x3df1c4de	0.118051276
206	0xbe4bab12	-0.19889477
207	0x3d37c9f5	0.044870336
208	0x3add50c4	0.0016885032
209	0x3d36ce69	0.04463044
210	0x3d7d76ea	0.061880983
211	0xbb4caa6a	-0.0031229504
212	0x3bcbea4e	0.0062229997
213	0x3d1d14a3	0.03834976
214	0xbdeca960	-0.11555743
215	0xbd0b3121	-0.0339824
216	0x3cea5570	0.028605193
217	0xbb89f2eb	-0.0042098663
218	0x3d50fb4c	0.051020905
219	0x3dd041e8	0.101688206
220	0xbcf045f7	-0.029330237
221	0xbc215c3e	-0.009848652
222	0xbaf1692d	-0.0018418186
223	0x3e139f9f	0.1441636
224	0x3d3034f9	0.04301927
225	0xbce40b66	-0.027837466
226	0x3c01af88	0.007915385
227	0x3cdc4ce6	0.026892137
228	0x3d9849f8	0.074359834
229	0xbd1729ea	-0.036905207
230	0xbe48eb1a	-0.19620934
231	0xbd8511a7	-0.064975075
232	0x3d6da765	0.058020968
233	0x3c90a714	0.017657794
234	0x3d85204e	0.06500302
235	0xbcad07c5	-0.021121869
236	0x3d8651d4	0.06558576
237	0x3cca5d9c	0.02470284
238	0x3da11ce7	0.07866841
239	0x3d8841f4	0.066532046
240	0xbc379748	-0.011205502
241	0xbced7387	-0.028985752
242	0x3cd44d26	0.025915693
243	0x3bc80672	0.006104284
244	0x3c1691ef	0.009190067
245	0xbcd57158	-0.026055023
246	0xbceddc51	-0.02903572
247	0x3d1319b8	0.0359132
248	0x3e29f6f3	0.1659811
249	0x3d7827ce	0.060584836
250	0x3dd729b8	0.10506004
251	0xbc82259f	-0.01588708
252	0x3d4582ce	0.04822045
253	0xbcbdbab7	-0.023160322
254	0x3d4ca6a1	0.049963597
255	0x3d95da11	0.073169835

bias f4 [128]
0	0xbdaf008b	-0.085450254
1	0x3b4121e3	0.002946966
2	0xbdd83fa0	-0.105590105
3	0x3e3bd08b	0.18341272
4	0xbd136b4f	-0.03599101
5	0xbca94fc9	-0.020667927
6	0xbd34b07d	-0.044113625
7	0xbc125c2d	-0.008933109
8	0xbd29577c	-0.041343197
9	0x3e50088e	0.20315763
10	0xbd611599	-0.054952238
11	0x3e386dee	0.18010685
12	0xbc8cffad	-0.01721176
13	0x3d8990e2	0.06717087
14	0x3d103980	0.035211086
15	0x3c874c2b	0.016515812
16	0xbe05e4e0	-0.1307559
17	0xbd226707	-0.039649036
18	0x3e3b5ec3	0.18297867
19	0x3a91fb0b	0.0011137439
20	0xbce6c0f2	-0.028168175
21	0x3b9bce06	0.0047547845
22	0x3de836d5	0.113385834
23	0x3d0f0c7b	0.03492401
24	0x3d13f004	0.03611757
25	0x3d4f43a6	0.050601624
26	0xbe064b74	-0.1311472
27	0xbd94b7ce	-0.072616205
28	0x3e458810	0.19290185
29	0xbd1c0dbf	-0.038099047
30	0x3c91473f	0.017734168
31	0xbcb76dda	-0.022391248
32	0xbda72146	-0.08160643
33	0xbe0536b6	-0.13009152
34	0x3a892e6f	0.0010466109
35	0xbc6d5ec8	-0.01448793
36	0x3e0c9c7e	0.13731572
37	0x3c9128a6	0.017719578
38	0x3dce697b	0.100787126
39	0xbda8429c	-0.0821583
40	0x3e34e037	0.17663656
41	0x3d85dccf	0.065362565
42	0xbd573131	-0.052537147
43	0xbdcff391	-0.101538785
44	0xbcd2ad04	-0.025717266
45	0x3dc5d41c	0.09659597
46	0x3e00ebbc	0.12589926
47	0x3d3ed021	0.046585206
48	0xbcde34b5	-0.027124742
49	0x3c9cdb6d	0.0191476
50	0xbddff163	-0.10934713
51	0x3e0ad70c	0.13558596
52	0xbb5378f6	-0.0032268143
53	0xbd11f32e	-0.035632305
54	0xbcd4ef5d	-0.025993044
55	0x3dc0fe21	0.09423471
56	0xbe21170c	-0.15731448
57	0x3bfa8ee4	0.0076464284
58	0xbdac2f47	-0.08407455
59	0x3d39c5cd	0.045354653
60	0x3cef2cf8	0.029196247
61	0xbcc4775d	-0.023982698
62	0x3db60bcf	0.08888971
63	0x3d8839ef	0.06651675
64	0x3cc1cad3	0.023656284
65	0xbd050605	-0.032476444
66	0xbcb886e8	-0.022525266
67	0xbdcd13ea	-0.10013564
68	0x3e1bfd05	0.15233238
69	0xbe12b732	-0.14327696
70	0xbda9f763	-0.082991384
71	0x3d71d1df	0.05903804
72	0xbe20a803	-0.15689091
73	0xbe17251c	-0.1476025
74	0xbe091005	-0.13385017
75	0xbd52378c	-0.051322505
76	0xbe0edcb2	-0.13951376
77	0xbdb17d3d	-0.086664654
78	0x3da67aac	0.081288666
79	0x3de39d32	0.11113967
80	0xbe4a60bc	-0.19763464
81	0xbd92fa9c	-0.07176706
82	0xbd560882	-0.052254207
83	0x3e1bd2a0	0.15217066
84	0x3d92bdc9	0.07165105
85	0xbd4caea7	-0.04997125
86	0x3d5b5019	0.053543184
87	0x3e156625	0.14589746
88	0xbdd38f1e	-0.10330032
89	0x3d99f679	0.07517714
90	0xbe07b537	-0.13252722
91	0xbddb34a0	-0.10703397
92	0xbd7c1ac9	-0.06154898
93	0xbd49fbf5	-0.04931255
94	0xbd821f2c	-0.06353602
95	0xbe364a03	-0.1780167
96	0xbdb81271	-0.089878924
97	0xbc650639	-0.013978534
98	0x3d759334	0.059954837
99	0xbcc15308	-0.023599163
100	0xbe22d9f6	-0.15903458
101	0xbdc78d27	-0.097437195
102	0x3c217544	0.009854618
103	0xbd63f6ea	-0.055655397
104	0xbce311d2	-0.027718458
105	0x3cb8c8d1	0.022556694
106	0x3e422783	0.18960385
107	0x3d261ec5	0.040556688
108	0x3db39174	0.08767977
109	0xbdd58f61	-0.10427738
110	0xbd714b4b	-0.058909696
111	0x3d60a273	0.054842424
112	0x3e1fe22b	0.1561362
113	0x3dadb58e	0.084818944
114	0x3d9aa330	0.07550657
115	0x3d318519	0.043339822
116	0xbd4dc2ac	-0.05023448
117	0xbe069f70	-0.13146758
118	0xbe19d6de	-0.15023372
119	0x3d44802a	0.04797379
120	0xbdadb22f	-0.084812514
121	0xbcc75052	-0.024330292
122	0xbd33ec65	-0.043926615
123	0xbcbc9f50	-0.023025185
124	0x3d87fe7f	0.06640338
125	0x3d3fd73d	0.046836127
126	0x3dad29cd	0.084552385
127	0x3d8ce0ab	0.068787895

weight f4 [64, 146]
0	0x3a5fbd75	0.0008535006
1	0xba79550d	-0.000951127
2	0x3a5cc8a2	0.00084222306
3	0xba5e22f5	-0.0008473837
4	0xba5d6be6	-0.0008446559
5	0xba82eb4b	-0.0009988336
6	0x3a5c132d	0.00083951914
7	0x3a3a1a7c	0.00070992834
8	0xba4b00cf	-0.0007743956
9	0xba5c7d69	-0.00084110216
10	0x3a5a912d	0.0008337673
11	0xba5b600b	-0.00083684985
12	0x3a5e2078	0.0008473466
13	0xba5c12a7	-0.00083951134
14	0x3a001dfe	0.00048872817
15	0x3a34ff88	0.0006904532
16	0x3a5eafa6	0.00084948016
17	0x3a6033ef	0.00085526606
18	0xba5e75cf	-0.0008486183
19	0xba4ee0c6	-0.000789177
20	0x3a5fdeb1	0.00085399585
21	0x3a59f7a3	0.0008314794
22	0xba61a523	-0.0008607676
23	0xba5d08f1	-0.00084318133
24	0xba54e1f7	-0.00081208296
25	0x3a33b974	0.0006855943
26	0x3a5ebf53	0.00084971375
27	0x3a5d5bca	0.00084441586
28	0xba5e1ab4	-0.0008472607
29	0x3a5fe39c	0.00085406913
30	0x3a3656b9	0.00069556717
31	0x3a5b3649	0.0008362276
32	0x3a5cf398	0.0008428632
33	0x3a607ac5	0.0008563216
34	0xba5b2079	-0.0008359026
35	0x3a23c255	0.0006246914
36	0xba5e1214	-0.0008471322
37	0x3a5f9d51	0.0008530217
38	0xba61ba5a	-0.00086108374
39	0x3a5da10c	0.0008454479
40	0xba5f4b91	-0.0008518035
41	0xba58cfc4	-0.00082707056
42	0x3a5f5434	0.0008519322
43	0x3a5afe5c	0.00083539425
44	0x3a59795f	0.0008295979
45	0xba5fe17d	-0.0008540375
46	0xba5defbd	-0.0008466205
47	0xba5bb2d8	-0.0008380837
48	0x3a562e6d	0.000817037
49	0x3a63af1f	0.0008685458
50	0x3a4bcd57	0.00077744335
51	0xba5ecdec	-0.00084993127
52	0x3a59b3d5	0.000830469
53	0xba602ebc	-0.0008551886
54	0xba5f9fe1	-0.0008530599
55	0xba5ca297	-0.0008416562
56	0x3a5e2ad2	0.00084750087
57	0xba5fb891	-0.00085342774
58	0x3a587cfb	0.00082583696
59	0xba5d987a	-0.0008453202
60	0x3a4edc73	0.0007891126
61	0x3a520c03	0.0008012654
62	0xba595275	-0.000829018
63	0xba5e094b	-0.00084700127
64	0x3a54c4c8	0.0008116481
65	0x3a5dfce0	0.0008468162
66	0xba5a9cd0	-0.0008339407
67	0x3a5f4834	0.0008517534
68	0xba5cd116	-0.000842349
69	0x3a5a6b74	0.0008332052
70	0x3a5fd4f7	0.0008538509
71	0xba5fbfe8	-0.0008535371
72	0x3a5eb83f	0.0008496083
73	0x3a601041	0.0008547344
74	0x3a5f9197	0.00085284695
75	0x3a601024	0.0008547327
76	0x3a5e30be	0.0008475891
77	0x3a6754fa	0.0008824613
78	0xba5b319b	-0.0008361579
79	0xba5f8f8f	-0.0008528167
80	0x3a5b8b66	0.0008374959
81	0x3a5de41f	0.00084644736
82	0x3a5a5d45	0.0008329938
83	0xba5d1c28	-0.00084346766
84	0xba5a5f18	-0.000833021
85	0x3a5a1b54	0.0008320112
86	0xba55d764	-0.0008157401
87	0xba5d22f2	-0.0008435688
88	0x3a5cac70	0.0008418029
89	0xba5f58ae	-0.0008519989
90	0x3a5e19b3	0.00084724574
91	0x3a5daff3	0.00084566994
92	0x3a5b0b0f	0.0008355835
93	0x3a596431	0.0008292823
94	0x3a5c116e	0.0008394931
95	0x3a5b16bd	0.0008357575
96	0x3a5d850a	0.00084503053
97	0x3a5bcecc	0.0008385002
98	0xba3df1a1	-0.00072457833
99	0x3a4da317	0.00078444317
100	0x3a5f85ee	0.0008526732
101	0x3a5efc8c	0.00085062603
102	0xba53373f	-0.00080572435
103	0x3a5fde62	0.00085399125
104	0x3a5b3695	0.00083623204
105	0xba585055	-0.00082517165
106	0xba5d76af	-0.0008448166
107	0xba61ec21	-0.0008618255
108	0xba5eff7d	-0.00085066987
109	0x3a5f5a44	0.00085202255
110	0xba869bd1	-0.0010269826
111	0xba5912bc	-0.00082806847
112	0xba6054e1	-0.000855757
113	0xba5f8f0c	-0.00085280905
114	0xba5e258c	-0.0008474223
115	0x3a59b872	0.00083053776
116	0xba51f94a	-0.0008009864
117	0x3a5aefc9	0.0008351771
118	0x3a5c5665	0.0008405208
119	0x3a5075f9	0.00079521496
120	0x3a5c868a	0.0008412382
121	0x3a451d7a	0.0007519346
122	0x3a3ae61e	0.0007129627
123	0x3a57d1b0	0.0008232845
124	0x3a3f3093	0.000729331
125	0xba5ef86f	-0.00085056474
126	0xba5d8dee	-0.000845163
127	0xba611c3b	-0.00085872755
128	0xb9bd25e6	-0.00036077126
129	0x3931ba17	0.00016949359
130	0x3a1c19c4	0.0005954767
131	0x3911a5a8	0.0001388999
132	0xb99bc637	-0.00029711585
133	0x3a612edd	0.0008590052
134	0x398f7f0c	0.00027369743
135	0xb767e39e	-1.3821669e-05
136	0xb9cb810b	-0.00038815322
137	0xb9cb267f	-0.0003874786
138	0x3a9a138d	0.0011755094
139	0x39eafe5b	0.00044821468
140	0x3aa31b65	0.0012444077
141	0x3a12f0fa	0.00056053663
142	0x39304499	0.00016810223
143	0xbaa3f753	-0.0012509621
144	0x397970e7	0.0002378855
145	0xbab16ce5	-0.0013536481
146	0x3a5306eb	0.0008050042
147	0xba515749	-0.0007985724
148	0x3a531e02	0.0008053483
149	0xba533047	-0.0008056205
150	0xba52a7d9	-0.00080358755
151	0xba7ddbcd	-0.0009683937
152	0x3a52e8dc	0.0008045563
153	0xb958bf8c	-0.00020670722
154	0xba7b2640	-0.000958059
155	0xba532f1f	-0.0008056033
156	0x3a53129d	0.0008051785
157	0xba532a3b	-0.0008055304
158	0x3a531037	0.00080514274
159	0xba532a55	-0.0008055319
160	0xba4ca268	-0.0007806183
161	0x3a3a8f9f	0.0007116738
162	0x3a532981	0.0008055196
163	0x3a7827fd	0.0009466408
164	0xba53328c	-0.00080565433
165	0xba5227f9	-0.00080168206
166	0x3a530c69	0.00080508605
167	0x3a4fc3da	0.00079256075
168	0xba532ee1	-0.0008055997
169	0xba531ee0	-0.0008053612
170	0xba733688	-0.000927784
171	0xba48a8ae	-0.000765453
172	0x3a531e59	0.00080535334
173	0x3a531b49	0.0008053077
174	0xba533012	-0.0008056174
175	0x3a52b83f	0.0008038319
176	0xba48f709	-0.00076662056
177	0x3a5292b0	0.00080327224
178	0x3a53121c	0.000805171
179	0x3a532701	0.0008054823
180	0xba51487a	-0.0007983517
181	0x36eaf716	7.002508e-06
182	0xba532142	-0.0008053967
183	0x3a7a150b	0.0009539879
184	0xba52fa52	-0.0008048165
185	0x3a53126e	0.00080517575
186	0xba5327dd	-0.00080549513
187	0xba53163f	-0.0008052326
188	0x3a52f4d3	0.0008047346
189	0x3a531bb9	0.0008053142
190	0x3a52d558	0.0008042655
191	0xba532b90	-0.00080555025
192	0xba530b00	-0.00080506504
193	0xba52c972	-0.0008040882
194	0x3a52f12e	0.0008046803
195	0x3a5246ac	0.0008021395
196	0x3a52c36b	0.0008039984
197	0xba53016b	-0.00080492225
198	0x3a52cc67	0.00080413226
199	0xba79ba09	-0.00095263176
200	0xba6b68c1	-0.0008980148
201	0xba531397	-0.00080519303
202	0x3a5326f5	0.0008054816
203	0xba52e5bf	-0.0008045099
204	0x3a52ce78	0.00080416305
205	0xba52f7c7	-0.0008047786
206	0x3a738e35	0.0009290905
207	0x3a73ad88	0.00092955725
208	0xba530b35	-0.0008050681
209	0xba533353	-0.0008056659
210	0x3a523f38	0.00080202846
211	0x3a5311f1	0.00080516847
212	0xba7eb72a	-0.00097166246
213	0x3a532c0f	0.00080555765
214	0xba531b66	-0.0008053094
215	0x3a5324d2	0.0008054498
216	0x3a52d981	0.0008043275
217	0xba531e81	-0.00080535567
218	0x3a532bbb	0.00080555276
219	0x3a5320b4	0.00080538844
220	0x3a5324bf	0.0008054487
221	0x3a530dfd	0.00080510956
222	0x3a531658	0.00080523407
223	0x3a52bdaf	0.00080391293
224	0xba52f43d	-0.00080472586
225	0xba532575	-0.0008054593
226	0x3a53303a	0.00080561975
227	0x3a52d8da	0.00080431777
228	0x3a5316a2	0.0008052384
229	0xba5329b7	-0.0008055227
230	0xba53012b	-0.0008049185
231	0x3a52bfcf	0.0008039446
232	0xba52e290	-0.00080446247
233	0xba531404	-0.0008051994
234	0x3a530e36	0.0008051129
235	0xba5316fb	-0.00080524356
236	0x3a531aae	0.0008052987
237	0x3a52fce5	0.00080485485
238	0x3a52e491	0.00080449233
239	0x3a52a9e2	0.0008036179
240	0x3a5317f6	0.00080525817
241	0x3a531808	0.0008052592
242	0x3a533351	0.0008056658
243	0x3a52e168	0.00080444524
244	0xba7a0fd7	-0.00095391035
245	0x3a7a8a38	0.00095573394
246	0x3a532ec7	0.00080559816
247	0x3a5320d7	0.0008053905
248	0xba7bb183	-0.00096013414
249	0x3a5323a5	0.00080543227
250	0x3a52c9b9	0.0008040923
251	0xba5300af	-0.0008049113
252	0xba533324	-0.0008056632
253	0xba52b99e	-0.00080385234
254	0xba532193	-0.0008054014
255	0x3a52f8fc	0.0008047966

bias f4 [64]
0	0xb98912a3	-0.00026144562
1	0xba4d8656	-0.0007840147
2	0xba211e3e	-0.0006146169
3	0xba5af616	-0.00083527097
4	0xaa95f7bd	-2.663962e-13
5	0x800179bd	-1.35507e-40
6	0xba522b4a	-0.0008017315
7	0xba441b8e	-0.00074809126
8	0xba0733b5	-0.0005157546
9	0xba0427f3	-0.0005041353
10	0xba620155	-0.00086214143
11	0xbaaa6d98	-0.0013002632
12	0xba670c17	-0.0008813752
13	0x3cbed73b	0.02329599
14	0xb9e3da51	-0.00043459472
15	0x8aedea1d	-2.2910333e-32
16	0xba20b4b9	-0.00061304454
17	0xba510450	-0.000797336
18	0x00012785	1.06012e-40
19	0xb9a63a83	-0.00031705582
20	0x00021d35	1.94149e-40
21	0xa421e305	-3.5103603e-17
22	0xba69647d	-0.00089032185
23	0xba89b746	-0.001050689
24	0xb8196fef	-3.658229e-05
25	0xba6dc7cc	-0.00090706046
26	0x3b892e30	0.004186414
27	0x3935f589	0.00017352974
28	0xba431fb2	-0.00074433826
29	0x39b2aafa	0.00034078193
30	0xba6ab402	-0.0008953215
31	0x80016b5a	-1.30346e-40
32	0xb9b31ec3	-0.0003416446
33	0xba94b82d	-0.0011346393
34	0xb7a9adb0	-2.022725e-05
35	0xb711dc51	-8.69397e-06
36	0xba1b465a	-0.0005923264
37	0x38eefd21	0.00011395873
38	0xba1139ed	-0.00055399426
39	0x3affe85f	0.0019524208
40	0xbb00d564	-0.001965844
41	0xba43e71c	-0.00074730976
42	0xba5d191d	-0.0008434223
43	0xba1fc15f	-0.0006094183
44	0x8cfb011e	-3.8673346e-31
45	0xbac3f678	-0.0014950773
46	0xb9d2fd00	-0.0004024282
47	0xbb7df1fa	-0.0038748966
48	0x0002150d	1.91223e-40
49	0xba70a9e0	-0.0009180587
50	0x80009abc	-5.5508e-41
51	0xb7ed160a	-2.8262864e-05
52	0xba61f422	-0.00086194475
53	0x000043ce	2.4324e-41
54	0xb7a7e3b4	-2.0013984e-05
55	0xba67bbd5	-0.000883994
56	0xba333125	-0.0006835631
57	0x3a048348	0.0005054963
58	0xb77eff2a	-1.519899e-05
59	0xba72f22c	-0.0009267654
60	0xba2ea294	-0.0006661799
61	0xbc36f08a	-0.011165747
62	0xba153106	-0.0005691204
63	0xb9ce5ae2	-0.00039359095

weight f4 [19, 64]
0	0xba5466a4	-0.0008102453
1	0xb62cefca	-2.5769573e-06
2	0xbb8e8feb	-0.0043506525
3	0x3c5dd139	0.013538652
4	0xba0bdd6e	-0.0005335425
5	0xb9225601	-0.00015481563
6	0xb9f827dc	-0.00047331944
7	0xba3eeee9	-0.0007283525
8	0xbcaed892	-0.021343503
9	0xba5e78b6	-0.0008486615
10	0xba41f7b2	-0.0007399275
11	0xb9c441ab	-0.0003743296
12	0x3a1ceaee	0.0005985935
13	0xbb65cd88	-0.0035065133
14	0x395ac8ef	0.00020864954
15	0xba2baeee	-0.0006549199
16	0xb9c24214	-0.00037051796
17	0xbc4e0947	-0.012575454
18	0xb0a8b24f	-1.2274287e-09
19	0x387b5af3	5.9927766e-05
20	0xba6a1313	-0.0008929234
21	0x3a20f153	0.0006139476
22	0x30301977	6.4064615e-10
23	0xba977af2	-0.0011557026
24	0xbca29ea3	-0.019851035
25	0x3cba9e1d	0.022780472
26	0xb89b143a	-7.3947434e-05
27	0xbb0eb7ee	-0.002177711
28	0xb172de7a	-3.5342098e-09
29	0x3b43095d	0.002976022
30	0x39c2d213	0.0003715908
31	0x3891b926	6.9486254e-05
32	0x3a8005e4	0.000976738
33	0xbca0f8be	-0.01964986
34	0xb993d967	-0.00028200002
35	0xb93edefc	-0.0001820288
36	0x397a46e8	0.00023868273
37	0x3c5467f0	0.012964234
38	0x3adc423d	0.0016804409
39	0x3bdee2bd	0.0068019317
40	0x3d5d66df	0.054053184
41	0xb9f948b5	-0.00047547152
42	0x3a2997d8	0.0006469465
43	0xbbc66763	-0.006054805
44	0xbb1932d5	-0.0023376246
45	0xbdc708fe	-0.09718512
46	0x3cd09ba2	0.025464837
47	0x38b3d230	8.5745356e-05
48	0x86b8f9e8	-6.958031e-35
49	0x3bae18ee	0.0053130304
50	0x800112ce	-9.8581e-41
51	0x3c578205	0.013153558
52	0x3a78b751	0.00094877655
53	0xa645f157	-6.867518e-16
54	0x36ce9b37	6.157348e-06
55	0xb5d690e1	-1.5986408e-06
56	0x3ab5cba6	0.0013869896
57	0x3a6023d7	0.00085502624
58	0xb9f2bc3f	-0.0004629809
59	0xbc3bd953	-0.011465388
60	0xba606f40	-0.00085614994
61	0x39897b23	0.0002622242
62	0x3a1aece9	0.0005909936
63	0x3a54c4ae	0.0008116466
64	0x398dc62a	0.0002704126
65	0x34abd3c8	3.2005323e-07
66	0x38769893	5.8793066e-05
67	0xbb6f988b	-0.0036559429
68	0x9b3a0dc4	-1.5390007e-22
69	0x800285ba	-2.31643e-40
70	0x3a001b02	0.0004886837
71	0xb870e44c	-5.7433077e-05
72	0xbb1a80d9	-0.0023575334
73	0xb9e0c938	-0.0004287453
74	0xba68b6b0	-0.000887732
75	0xbaabe083	-0.0013113174
76	0xba7aa1ec	-0.00095608714
77	0x39615285	0.00021488413
78	0xb4531f74	-1.9662349e-07
79	0xb2c7d425	-2.3263121e-08
80	0xba07dbdf	-0.00051826047
81	0xbae029c3	-0.001710229
82	0x0001bd51	1.5975e-40
83	0xb9d50f6f	-0.00040638025
84	0x37f85cfa	2.96072e-05
85	0x334a43c0	4.709341e-08
86	0x80028dcd	-2.3454e-40
87	0xbb6cc8a6	-0.0036130338
88	0xba0df675	-0.0005415448
89	0xba723e74	-0.00092408736
90	0xbc8df79a	-0.01732998
91	0x3934f00e	0.00017255565
92	0x0000042f	1.501e-42
93	0x393cb233	0.00017995462
94	0xba69ed2c	-0.0008923586
95	0x00014f31	1.20244e-40
96	0xba6ba266	-0.0008988738
97	0x3a6ab70c	0.0008953668
98	0x380810a3	3.244042e-05
99	0xb655b630	-3.184552e-06
100	0xba7588ea	-0.000936641
101	0x399a0938	0.00029380037
102	0xbaa1ba25	-0.0012338801
103	0xbd60f900	-0.054924965
104	0x3a90a7fa	0.0011036389
105	0x3a2f481a	0.0006686464
106	0x39832514	0.00025013892
107	0x3b19c43c	0.0023462912
108	0x2ec7d1de	9.086752e-11
109	0x3cafd764	0.021465011
110	0xba657ad0	-0.0008753957
111	0xbaf0e9d0	-0.0018380228
112	0x80010e0a	-9.6872e-41
113	0xbaabf91b	-0.0013120504
114	0x00028260	2.30441e-40
115	0xb280c0ee	-1.4988895e-08
116	0xba377104	-0.00069977366
117	0x80001248	-6.558e-42
118	0x8000d02c	-7.4678e-41
119	0x3700d064	7.677914e-06
120	0x3a5d1e3b	0.00084349856
121	0x3afe98ba	0.0019424178
122	0x143aa35c	9.422817e-27
123	0xba11bd18	-0.0005559488
124	0x37edd461	2.8351498e-05
125	0x3a67f049	0.0008847756
126	0xba16264a	-0.00057277514
127	0x39a8cf50	0.00032197917
128	0xb9712038	-0.00022995553
129	0xba3f1d5b	-0.0007290446
130	0xba33fade	-0.000686569
131	0x38976878	7.2197e-05
132	0x81b89958	-6.781096e-38
133	0x80017e60	-1.3717e-40
134	0xba671d1d	-0.0008816289
135	0xb976c5e6	-0.00023534111
136	0x3ab411cd	0.0013738215
137	0x3a7f63a0	0.00097423233
138	0xba68cbee	-0.00088804855
139	0xb96e25a1	-0.00022711467
140	0xb96f62b2	-0.00022829583
141	0x3c1a6eba	0.009425813
142	0x37a1beec	1.92816e-05
143	0xb8a0282f	-7.636879e-05
144	0x39e09850	0.0004283809
145	0xba873179	-0.0010314427
146	0x80019a0f	-1.47101e-40
147	0x3aa10d0e	0.0012287216
148	0xb5d26791	-1.5676361e-06
149	0x34058fc4	1.2438892e-07
150	0x8000aaef	-6.132e-41
151	0xb883f741	-6.2926214e-05
152	0xba0259df	-0.0004972498
153	0xba614f8d	-0.0008594923
154	0xbb2da72a	-0.0026497343
155	0xb937c139	-0.00017524221
156	0x800295f1	-2.3746e-40
157	0x3b5b1dcb	0.0033434506
158	0x3a62a58f	0.0008645886
159	0x80016c54	-1.30696e-40
160	0x3a0df224	0.0005414805
161	0xba6aff82	-0.0008964465
162	0xb04011d8	-6.987455e-10
163	0x39a69c42	0.00031778408
164	0xba6d664b	-0.00090560754
165	0x3b4b7b9f	0.0031049026
166	0xba87120c	-0.0010305061
167	0xbc141865	-0.009039019
168	0xbbae8be0	-0.005326733
169	0x39c83ec7	0.00038193745
170	0x3a3c3b56	0.00071804726
171	0x3b30be81	0.0026969018
172	0x80001998	-9.181e-42
173	0xbb2bfa13	-0.0026241585
174	0x3a097691	0.0005243803
175	0x3bff8cc5	0.0077987635
176	0x000267fa	2.20971e-40
177	0xba7319f3	-0.0009273581
178	0x000232c5	2.01884e-40
179	0x38977d65	7.223598e-05
180	0x39d8c53c	0.00041345682
181	0x80010daf	-9.6744e-41
182	0x800004d8	-1.738e-42
183	0xb67bc121	-3.751433e-06
184	0xb9e9a2ca	-0.0004456251
185	0xba7ad1d2	-0.0009568009
186	0x8001bbca	-1.59202e-40
187	0x3a74b082	0.0009334163
188	0xb97c6654	-0.00024070713
189	0xba0ae304	-0.000529811
190	0x3a189f53	0.0005822081
191	0x3a071ab8	0.0005153823
192	0x39ad0798	0.0003300279
193	0x3a80b728	0.000982021
194	0x3a37df93	0.0007014211
195	0xbb3df768	-0.0028986577
196	0xac13548a	-2.0936885e-12
197	0x000147fe	1.17661e-40
198	0x3a5884fb	0.0008259562
199	0x3395cd2a	6.975672e-08
200	0xbaf5e714	-0.0018760883
201	0xba2eb197	-0.0006664036
202	0x3a6770ba	0.0008828748
203	0xba9c245e	-0.0011912694
204	0x39d97ebf	0.00041483899
205	0xbb89be2b	-0.004203578
206	0x383ef3a0	4.5526423e-05
207	0x31e3856a	6.621737e-09
208	0xba1e30db	-0.0006034502
209	0xbae62189	-0.0017557602
210	0x8001eba7	-1.76372e-40
211	0x3a1edc59	0.0006060056
212	0x381d187c	3.745452e-05
213	0x32b8eb42	2.1527402e-08
214	0x00007526	4.2025e-41
215	0xbafc5f64	-0.0019254503
216	0xbab5e160	-0.0013876371
217	0xba81597a	-0.0009868585
218	0xbbd12b43	-0.006383331
219	0x3932ce5e	0.0001705228
220	0x0002a8df	2.4425e-40
221	0x3993dd3d	0.0002820286
222	0xba698ff6	-0.00089096965
223	0x80007ea1	-4.5426e-41
224	0xb99aa6a0	-0.00029497314
225	0xba6ab0c5	-0.00089527323
226	0x398e3556	0.0002712409
227	0x39015016	0.00012332233
228	0xbb06164d	-0.002046007
229	0xba51f837	-0.0008009704
230	0xba8efc93	-0.0010909013
231	0xbcc6f8ba	-0.024288524
232	0x3a567321	0.00081806077
233	0x3a513b84	0.0007981586
234	0x39c66c01	0.00037845972
235	0x3b042a6b	0.0020166885
236	0x2f842ed1	2.4043925e-10
237	0x3c3301fa	0.010925764
238	0xbc3acdb2	-0.011401581
239	0x3bbcfe6a	0.005767633
240	0x8000387f	-2.0267e-41
241	0xbad3a620	-0.0016147532
242	0x80026159	-2.18593e-40
243	0x34be84cc	3.548688e-07
244	0xb8e43f20	-0.00010883645
245	0x80026a4a	-2.218e-40
246	0xa8419073	-1.0744975e-14
247	0x36109d16	2.1549108e-06
248	0xba107309	-0.00055103056
249	0xbb95eb62	-0.004575179
250	0xade4ac0c	-2.5997003e-11
251	0xb99cd9c5	-0.0002991689
252	0xb9510075	-0.00019931963
253	0x3a59e599	0.0008312106
254	0xba1a1075	-0.0005877086
255	0x38e892fd	0.00011090001

bias f4 [19]
0	0x3ead2290	0.33815432
1	0x3b7e7059	0.0038824289
2	0xba1dd290	-0.0006020451
3	0x3bbe7041	0.0058117216
4	0x3ea1d360	0.3160658
5	0x3c13bd83	0.009017351
6	0x3c0b2ed2	0.00849505
7	0x3a9c6ae1	0.0011933708
8	0x3eb4d170	0.35316038
9	0x3ea75f49	0.32689884
10	0x3a2c5ef6	0.00065754296
11	0xb858fac2	-5.173195e-05
12	0x3ab7b2a1	0.0014015028
13	0x3ea26797	0.31719658
14	0xbbdcdb9d	-0.006740047
15	0xba2402f2	-0.00062565424
16	0x3bc1b296	0.0059111817
17	0x3ea72cf9	0.326515
18	0xbee81406	-0.45327777
