models/data_aug/O/model0.pt (torch, 353039 bytes, 8 tensors)

weight f4 [128, 384]
00000000: 2378 723d 8afa 90bb 4e8c 18be b3f6 a43d
00000010: 9554 0e3d 4d95 cd3c 942e 2438 5d47 cbba
00000020: 4026 91bd dbe1 62bc a70e 843c 72ea 36bc
00000030: bbd0 b23c fd76 ac3c b74a 143e 6b6e c0bc
00000040: c28b fe3d 2121 923c 9b89 1abc 32cb 983d
00000050: 08fd 4f3b b2b4 08bc 92aa 863c 6c69 dc3c
00000060: fba7 853d 5b2b 643d bb7f 9bbd a339 51be
00000070: 26e4 c3bc 527f 413d e8d3 98bd 1566 b3be
00000080: 45bc 93bd 55d2 acbd 2007 e3bc 2d30 7abc
00000090: 53d4 0dbe 3f29 cebd b289 06be 5d1e 97bd
000000a0: 921b eabd 3c2b 75bc 77e0 f8bd 4630 7c3b
000000b0: 82be 24bd 0d70 44bd 2875 e3bd 4e03 d7be
000000c0: e7e8 593d b382 653d 000e 713d dd6d 9d3c
000000d0: 45f9 383c 81ce 00bd db98 b5bc 6212 ba3d
000000e0: b3a7 763c b369 493d 8a8f 9bbd ca31 aa3c
000000f0: 6ca6 f23d c54a 1e3e f844 503d 63f3 dabd
00000100: 294b c8bc 5a11 ea3b 74ba 5fbd a8ed 81bd
00000110: f228 b3bd ee77 10be 55c7 d7bd 11df f3bd
00000120: c136 303d c817 593d 101f 073d afd1 03bd
00000130: f0a4 24bd 7d30 4abd 6803 03bd 4172 f63c
00000140: 7296 ea3d 36b4 24bd 8430 50bd 1565 b0bc
00000150: 2701 8abc c7a6 4ebc ed39 97bc 8e5f 0f3c
00000160: a3cc 863e 0a27 9bbd 77b5 17be 6763 9abc
00000170: 5ff1 8e3d 9b62 91bd 56e8 f63c b296 633d
00000180: d5a1 093e 9e76 70bd 64e6 45be 885a da3b
00000190: 79d1 8b3c aca3 9b3d c8c9 b03d 5956 c13c
000001a0: a4fc bb3d 4fa4 2fbb bd9e 0dbe 7e2e 65bd
000001b0: 6bc9 10bd ef0c fb3b 7aa9 123d fedc e13c
000001c0: 798e e63c 94c5 4cbc 2665 95bc c2e7 e1bc
000001d0: 7fc7 44bd 3ef1 57bd 8431 a7bb 03bf 273d
000001e0: 8b64 eebd a205 e7bd 4915 1c3d e17a a83d
000001f0: ef98 f5bd 4eed 89bd d72d ae3b 6bb5 933d
00000200: c507 3e3d 7043 2e3d e2a3 1bbc bc58 bbbd
00000210: 2b4b 1cbd aa40 313d 2d7d 0a3d 8dd9 883c
00000220: a105 78bc 6677 21bb 3782 ffbc 8d0c 73bd
00000230: 8412 5bbc d644 a73c cac4 b13d fcfd f03d
00000240: c1f7 42bd d95d d6bc 29a4 23be b18c f3bd
00000250: b187 78bd 24fa d1bd 9df3 5ebb 60d8 943d
00000260: 6f63 46be 0c13 9fbe 87d2 83be 0e78 1fbe
00000270: 181b e4bd dc55 f8bd 88df 71bd 443f 0b3b
00000280: f471 dc3d 76ad d83d 206d 9cbd eccb cebe
00000290: c721 e3be 7586 91be 3d9d 16bd e23a b43d
000002a0: 9048 693d 7e2a 823d 52ad 333c 0833 d2bd
000002b0: bc66 f5bd 8861 0ebe 7c37 d2bd 1ad1 60bd
000002c0: 10d4 abbd 6e5e b0bc 7c45 97bd f4b1 6fbc
000002d0: 9f2c 3e3b d995 ebbd a5cd 72bd 570e 8d3c
000002e0: 5bdc 9fbc 628e bc3d 1222 8f3c 3208 cdbd
000002f0: dc85 33be be33 02ba 507b 053e d7f4 963d
00000300: 3b73 efbd 0dcf d5bd d7f7 923c 9074 87bd
00000310: 9554 4cbe df35 02be 7298 bd3c 88d1 f33c
00000320: 3bb1 be3b d111 c4bd a9bc 77bd f688 11bd
00000330: 6dd4 1cbe f147 bdbd e207 29bc dc52 bb3c
00000340: f05a ad3b 40fa 57bc 90d2 7cbd b033 37be
00000350: 6ce7 6cbe 1de7 19be ca2f a23c a08f d33d
00000360: 1f3b b1bd a0fc 09be c225 793d 3d66 3e3d
00000370: 38aa c03c c567 b4bd 5631 633b 005c 8c3c
00000380: e7e7 913b 36d0 59bb 9f4d c73b a5e7 f13b
00000390: f5c1 bb39 53f8 9c36 c1d0 a8b0 724e 28b1
000003a0: 5ec6 84be 0d75 6dbe e574 a8bd 3990 e0bd
000003b0: 32ad 023d e583 e53c 8d9a 8538 f4b4 b7b3
000003c0: 4471 97bd 92bd 9bbd 6569 86bd bfe2 a2bd
000003d0: d817 483d 0947 433d 0253 7539 f2e6 a231
000003e0: 4cc8 e73c d7ad 8dbd 0ab0 b3bd 57a2 0a3c
000003f0: ae5c dabc acf2 64bd 08ea 32bb 1291 50b6
0.059196603 -0.004424398 -0.14897272 0.08054867 0.034748632 0.025095606 3.9144026e-05 -0.0015508939
-0.07087374 -0.013847793 0.016120268 -0.011164295 0.021828046 0.021052832 0.14481626 -0.023490151
0.124290004 0.017838063 -0.009432222 0.074606314 0.0031736512 -0.008343862 0.016438756 0.026905738
0.0652618 0.05570541 -0.07592722 -0.20432143 -0.0239125 0.047240563 -0.07462293 -0.3503882
-0.07213644 -0.08438555 -0.027713358 -0.015270275 -0.13850527 -0.10066461 -0.13138464 -0.07378838
-0.1143104 -0.014963921 -0.12152188 0.0038480922 -0.040220745 -0.047958422 -0.1110633 -0.4199471
0.05320063 0.056032848 0.058851242 0.019217426 0.011289899 -0.031446937 -0.022167614 0.090855375
0.015054631 0.04917307 -0.07595737 0.020775694 0.11848149 0.1545821 0.050847024 -0.106909536
-0.024449902 0.0071431817 -0.054621175 -0.063441575 -0.08748044 -0.1410825 -0.105360664 -0.11907781
0.043020967 0.053001195 0.032988608 -0.03218239 -0.04019636 -0.04936265 -0.03198567 0.030083777
0.114544764 -0.040210925 -0.050827518 -0.021532575 -0.016846253 -0.012613005 -0.018460238 0.008750809
0.26328 -0.075758055 -0.14815317 -0.018846227 0.06979632 -0.070988856 0.030140083 0.055563636
0.1344064 -0.058706872 -0.19326168 0.006663624 0.017067658 0.07599577 0.08632237 0.023600744
0.09179047 -0.0026800816 -0.13830085 -0.05595254 -0.035348337 0.007661454 0.035806157 0.027571198
0.028144108 -0.012498278 -0.018236708 -0.027576331 -0.048041817 -0.0527203 -0.0051023383 0.040953647
-0.11640271 -0.11280371 0.038106237 0.08226562 -0.119920604 -0.067347154 0.005315523 0.07212337
0.04639413 0.042544782 -0.009499522 -0.09147784 -0.038157623 0.04327456 0.033810783 0.016705299
-0.015138061 -0.0024637817 -0.031190021 -0.05933814 -0.013371114 0.020418566 0.08680113 0.11767194
-0.047599558 -0.026167797 -0.15980591 -0.11892069 -0.06067628 -0.10252789 -0.0034019717 0.07267833
-0.19373868 -0.3106922 -0.25746557 -0.15573141 -0.1113798 -0.121257514 -0.059051067 0.0021247426
0.10763922 0.1057996 -0.076380014 -0.40389955 -0.44361708 -0.28422895 -0.036771048 0.088002935
0.056953967 0.06355761 0.010966616 -0.1026364 -0.11982486 -0.13904393 -0.10264489 -0.054886915
-0.08390057 -0.021529403 -0.073863 -0.01462983 0.0029018295 -0.115031905 -0.05927815 0.017218752
-0.019514253 0.09206845 0.0174723 -0.10011329 -0.17531532 -0.00049668166 0.13035321 0.07370918
-0.116919 -0.104398824 0.017940445 -0.066140294 -0.1995414 -0.12715863 0.02314398 0.029762998
0.0058194674 -0.09573711 -0.060482655 -0.035531007 -0.15315409 -0.09242237 -0.010316821 0.022866659
0.0052903816 -0.013182223 -0.061724246 -0.17890811 -0.23135155 -0.15029569 0.019798178 0.10330129
-0.086538546 -0.13475275 0.060827024 0.04648422 0.023518667 -0.08808855 0.0034666858 0.017133713
0.0044526937 -0.0033235676 0.006082251 0.0073823505 0.0003581193 4.678071e-06 -1.228294e-09 -2.4491809e-09
-0.25932592 -0.23189183 -0.08225421 -0.10965008 0.031903453 0.028016994 6.3707215e-05 -8.554517e-08
-0.073946506 -0.07604517 -0.06563071 -0.07953405 0.048850864 0.047675166 0.00023395944 4.741076e-09
0.028293751 -0.06917923 -0.08773811 0.008461556 -0.026655521 -0.055895492 -0.0027300138 -3.1078857e-06

bias f4 [128]
00000000: a31d b53d da5d 813d 6ea5 3f3f e2ec ba3e
00000010: ae9a 483c 7485 453f 1ad8 3e3c 1bff 373d
00000020: 8ad8 243d 9dd9 593c 3e44 a23c 6172 293c
00000030: 4721 993c 5a2f 083d f79b 643c 3a1f 5c3d
00000040: 2ce4 233c 17cf d03c a512 873d f4f6 123c
00000050: 70f5 4e3f 08d6 383b f652 903c 07c4 fd3b
00000060: 2bf1 043d 0b41 9c3c 9403 933c ea3c 0a3d
00000070: 2d4e 9c3d 7d41 783d d27a af3c 2756 853c
00000080: 3504 2d3d 16ff 1d3b 014e 943f 1d0d 3e3d
00000090: 7967 a03d 41c4 073c 5920 893c ab82 903c
000000a0: 1804 a73c 5ff8 ea3b e9f2 753c 5f36 973c
000000b0: e008 823d 5391 8e3c 73b5 283f 47fd 5d3d
000000c0: ea32 b03c 6cd7 dd3b a99e fc3b ae2c 713f
000000d0: 96b2 f23b 5a3b 1d3c a30c 323c 4ff7 a83c
000000e0: a4da 0e3d 6d24 0f3e af2c 853c fd83 d8bb
000000f0: 0d38 de39 8e00 653c a9fb 4b3c 32b6 8e3c
00000100: 632d 153a ed22 293c 571e acbb 12f4 a53c
00000110: c3de 653c 9f7b 4f3b 0c46 963f d368 80bb
00000120: 1d17 2b3c 84a5 a63d 6257 883f c3d2 e63c
00000130: c37d 503c 4d45 b03b 4967 913d 3001 c03c
00000140: f299 143d 7f28 5e3f 3257 64bc 765c d73e
00000150: 0157 9e3d cbb2 ff3e afac 8b3c 776a 993c
00000160: 9fe3 133d 83b6 5f3b 3a71 073d 554d b13d
00000170: 3afb 893c 234f 1f3e c7b5 c33c 3c03 823c
00000180: 5d46 103d b1db 2f3d 662c 243f f225 2eba
00000190: af84 603c 48b7 8a3c 13a2 883a 81c0 cf3c
000001a0: a272 a53c 9259 c13c 3aaf 86bb 2dd9 aa3c
000001b0: dc78 67bc 4348 97bb c075 543b 690a 3d3c
000001c0: cbdc 273e 1fcb 7c3c b252 1b3d 2831 983c
000001d0: 0395 9a3d a67a 983b 7715 a93b 135e 613c
000001e0: a403 5c3c e97b 3e3c 4c43 7c3b e566 113c
000001f0: 9d01 8a3c d7cb a53d 1270 b03a 5541 683c
0.088435434 0.06316729 0.748618 0.36508852 0.01224391 0.7715676 0.011648202 0.044921022
0.04024557 0.013296512 0.019807931 0.010342211 0.018692626 0.033248283 0.013953201 0.053740717
0.010003131 0.025489373 0.06595353 0.008970011 0.8084326 0.0028203744 0.017617684 0.0077443155
0.03245656 0.019073984 0.017946042 0.0337495 0.07632098 0.06060933 0.02142087 0.016276432
0.04224034 0.0024108342 1.1586305 0.046399225 0.07832236 0.008286537 0.016739057 0.017640432
0.020387694 0.0071707214 0.015011528 0.018458543 0.06349349 0.01740328 0.6590187 0.054196622
0.021508653 0.006770065 0.0077093435 0.942088 0.007406543 0.00959667 0.010867271 0.020625738
0.03487648 0.13978739 0.016256658 -0.006607531 0.000423849 0.013977183 0.012450137 0.017420862
0.0005690662 0.010323268 -0.00525264 0.020257983 0.014030161 0.0031659377 1.1740127 -0.003918746
0.010442522 0.08137038 1.0651667 0.02817667 0.012725296 0.005379355 0.07099778 0.023438066
0.036279626 0.8678054 -0.013936805 0.4206273 0.077314384 0.49941096 0.017050115 0.018727524
0.03610575 0.0034135885 0.033066966 0.08657328 0.016843427 0.15557532 0.02389039 0.015870683
0.035223354 0.042934123 0.64130247 -0.00066432275 0.013703509 0.016933098 0.0010424278 0.025360348
0.020196263 0.02360228 -0.004110244 0.02085551 -0.014127936 -0.0046167686 0.0032418817 0.0115381265
0.1639282 0.015429287 0.03792066 0.018578127 0.07547953 0.0046532927 0.0051600295 0.013755339
0.013428602 0.011626222 0.003849226 0.00887463 0.016846472 0.0809552 0.0013461134 0.014175733

weight f4 [128, 128]
00000000: c23c b0be 5b9d 67be b278 a3be 8bb2 af3e
00000010: dfa4 dcbd 9ec1 14be cd96 b2bd ce37 0d3f
00000020: ff56 4f3e 2be6 29be cc8d 02be 7405 a9bd
00000030: c970 1ebe f6d3 b2be a7be 9fbd fdfa c8be
00000040: bb7d b6bd 85d7 13be 0e5c c0be 75dc a4bd
00000050: e9e5 47be cece c6bd 2be6 b1bd 15c3 5b3e
00000060: a570 f23e 5925 e2bd ee57 d5bd 59fa b43e
00000070: 2f89 9bbe 7ced bfbe b91a 0ebe 95af b4bd
00000080: ecce 0c3f 3625 8e3c 6779 f23d c986 cabe
00000090: f152 7cbe 3dfb a4bd 5efa 13be e280 c4bd
000000a0: 4156 e6bd 2718 37be 198f c0bd 35c8 bebd
000000b0: c1b9 85be 0012 a7bd 665a 763e 2a92 95be
000000c0: 46e1 b3bd 6304 cdbe 985a dabd 0e04 6e3e
000000d0: 2db7 dcbe f09f babd fd26 a6bd 7069 003f
000000e0: 774c a8be aea2 aabe 50aa 04be 58a1 023f
000000f0: c6e4 94bd 2ed3 b1bd 978c 873e 09f1 9d3e
00000100: 8177 b0bd b312 1dbe 048c d5be eafe 13be
00000110: f535 e43e 9b8b a9bd 950a efbd 2cd9 0bbe
00000120: 7615 abbd 3709 acbe 2d47 553d 717d b9be
00000130: f645 c9bd 9a38 abbd cd42 1c3f 9b35 22be
00000140: 69e6 a53e 4e2b 4fbe eea6 bc3e e6ab 8e3e
00000150: e320 53be aec9 923e 136b babd c371 c8bd
00000160: 696f afbe 477d 9ebd c0f4 833e a726 31be
00000170: 7d06 b3bd d591 f2be 0a99 ff3e a516 babd
00000180: 4eb4 eebe 5520 883e 66f6 073e be6e 0cbe
00000190: ade6 c13e 84a1 c2bd 278b a4bd 8dbb 08be
000001a0: 8e39 9c3e 8517 53be aa68 ea3e b61e bcbd
000001b0: fed7 f63e 9e79 17be d67a d53e 75ec adbd
000001c0: a67b 3fbe 7779 b6bd 3a26 7c3e a5bc 523e
000001d0: 0e39 83be 2e75 d93e 69b7 95be 1dc7 bebd
000001e0: 446c 7f3e 483b aabd 957c bfbd 4215 bfbd
000001f0: 94ad a7bd 173a 94be 0065 9a3e 4be2 06be
00000200: 5f7e 8a3e 71de 973d 599e 9f3e 684d 1a3f
00000210: ad2a 6dbe ca13 c63e 68b7 90be a541 0e3e
00000220: 9610 f03e f537 1cbe d512 7bbe 38bf 8cbe
00000230: 9423 36be 3c71 85bc 862e 8fbe f88b cc3e
00000240: f293 9bbe dcd2 0c3e dc26 bb3e f19a 92be
00000250: 17c3 593e 6721 8fbe c4cb 97be 5ebf 7c3d
00000260: 9a54 143e d95f 76be 1ba3 96be b0ae b93e
00000270: 4c25 1b3e da32 893e e86c 3fbe 275f a2be
00000280: 25f3 5bbd aa8d 00be 90d9 f73e b8a1 5f3d
00000290: c923 2a3e cbd4 9bbe dd89 32be 0966 93be
000002a0: dd02 70be 2ff9 07be cc0e a5be e52c 86be
000002b0: a359 133e 26f2 a6be d3f5 153f f6e0 8e3e
000002c0: e574 9bbe cfbd d03e d410 b63d 114b fb3e
000002d0: 3d79 b73e d2c4 9bbe 5eef 97be ab8b 353e
000002e0: f700 30bd 25b6 e73d 2b8c 50be 830e 063e
000002f0: f782 8dbe b876 9bbe 2586 e23b 710c 083e
00000300: 99da 97be c347 27be 07b1 0a3f 64ab 4fbe
00000310: 719d b2bd 12e1 8bbe 889a 2f3e d7a8 693d
00000320: 55e8 93be e40e 133e 8919 f23e b4ee 02bc
00000330: 68f2 8bbe a3da 94be b56d 7f3d cf4a 2bbe
00000340: 9f81 6dbe 75d2 2f3e e660 a7bd 20c9 153f
00000350: 6235 b4be 9c6d 263f ae23 8cbe 46d0 88be
00000360: bd9e 883d 2803 8abe a909 f03e 3a5c 7f3e
00000370: c435 8dbe 3359 7f3e 9d89 11bd c0a9 afbe
00000380: 9eb3 ac3e 89e0 f93e 8016 003f 6f4b f8bd
00000390: b1b1 0a3e fa9f 98be ea9d 93be e58c 65be
000003a0: 7f26 de3e 5b9d f5bd 9542 013e e83b 8ebe
000003b0: f165 67be 95da bc3d 60dc b8bd ddba 92be
000003c0: 62fc aabe 40b2 9cbe 2786 ef3e f803 023e
000003d0: ce59 fc3d c906 e53c 6f0b 6c3e e1a4 85be
000003e0: 75f1 7e3c d230 91be 06ec 88be 30b1 9ebe
000003f0: 68e4 91be 3d2a 453e 6aa4 1bbd 4baa 41be
-0.34421355 -0.2261862 -0.3192802 0.34315905 -0.10773634 -0.14526984 -0.08720169 0.55163276
0.2024803 -0.16591708 -0.12749404 -0.08252993 -0.15472712 -0.34927338 -0.07800036 -0.3925399
-0.089107 -0.14437683 -0.37570232 -0.08049861 -0.19521298 -0.097074136 -0.08686479 0.21461137
0.47351566 -0.1104228 -0.10417162 0.3534725 -0.303781 -0.37485874 -0.13877381 -0.08822552
0.5500324 0.017351728 0.11839562 -0.39555958 -0.24641015 -0.080557324 -0.14450976 -0.09594895
-0.112469204 -0.17880307 -0.09402294 -0.0931553 -0.2611828 -0.0815773 0.24057922 -0.29213077
-0.08783202 -0.4004241 -0.10661811 0.23243734 -0.43108502 -0.09112537 -0.08112905 0.50160885
-0.32870838 -0.3332724 -0.12955594 0.5102744 -0.072701976 -0.086828575 0.2647445 0.30847958
-0.086165436 -0.15339164 -0.41708386 -0.14452711 0.44572416 -0.08278581 -0.1167194 -0.13657063
-0.08353703 -0.3360078 0.05206983 -0.36228517 -0.09827797 -0.08360405 0.6103943 -0.15840761
0.32402351 -0.20231363 0.36846107 0.27865523 -0.20618014 0.28669494 -0.09102454 -0.09787323
-0.34264687 -0.077387385 0.25772667 -0.17299901 -0.08741472 -0.47376886 0.49921447 -0.0908635
-0.46621937 0.26587167 0.13277587 -0.1371412 0.37871304 -0.09503463 -0.08034354 -0.13352795
0.3051266 -0.2061444 0.45782977 -0.09185545 0.48211664 -0.14792487 0.4169528 -0.08492366
-0.18699512 -0.08909886 0.24623957 0.20579775 -0.25629467 0.42472214 -0.29241493 -0.093153216
0.24943644 -0.08312088 -0.09349934 -0.093302265 -0.08187404 -0.2895057 0.30155182 -0.13172261
0.27049538 0.07415474 0.31175497 0.6027436 -0.23160811 0.38686973 -0.28264928 0.13892229
0.46887654 -0.15255721 -0.24518903 -0.27489638 -0.1778701 -0.016289346 -0.27965182 0.39950538
-0.3038631 0.13752311 0.36553085 -0.28633836 0.21265827 -0.2795517 -0.29647648 0.06170594
0.14485398 -0.2406 -0.29421315 0.36266088 0.15150946 0.2679661 -0.18693888 -0.3171322
-0.053698678 -0.1255404 0.48408175 0.054597586 0.16615213 -0.30435786 -0.17435403 -0.28788784
-0.23438592 -0.1327865 -0.32237852 -0.26206127 0.14389662 -0.3260662 0.58578223 0.27906007
-0.3036262 0.40769812 0.088899285 0.4908071 0.35834685 -0.304236 -0.2967481 0.1772906
-0.04296967 0.11314038 -0.2036597 0.13091473 -0.2763898 -0.30364013 0.006912964 0.13285996
-0.29658964 -0.16335969 0.5417637 -0.20280224 -0.08721436 -0.27320153 0.17148793 0.057045784
-0.28888193 0.14361149 0.47285107 -0.007991482 -0.2733338 -0.29073057 0.062360484 -0.16727756
-0.23193978 0.17170127 -0.08172779 0.5851002 -0.35196978 0.65011 -0.2737097 -0.267214
0.06670902 -0.26955533 0.4688237 0.24937525 -0.27580082 0.2493637 -0.03553163 -0.34309196
0.33730787 0.4880412 0.5003433 -0.12123763 0.13544346 -0.29809552 -0.28831416 -0.22417028
0.43388745 -0.11992904 0.12623055 -0.2778008 -0.22597481 0.09221379 -0.09026408 -0.2865819
-0.33395678 -0.30604744 0.46782038 0.12696826 0.123218164 0.027957337 0.23051237 -0.26102355
0.0155604975 -0.2835756 -0.26742572 -0.30994558 -0.28494573 0.19254394 -0.037998594 -0.18912618

bias f4 [128]
00000000: 6eb4 cebd 58d8 f83d b68f c9bd 94de 9fbe
00000010: e26f 77bc 0ed3 b93e 26f2 913e 0834 9abc
00000020: 019f 433d 863b bdbe e6df 403e fd9d 4bbd
00000030: c9c6 c93e 2268 303e 983e 173f 1cfa 70be
00000040: 3c28 01be 3c4a d03e 1714 223b 94d9 993e
00000050: 15c4 80bd ee2d 99bc 8d59 63be fb7c 21be
00000060: 8b33 983d 7cd0 fc3e 9940 d23e f535 b8be
00000070: 6309 edbd ad15 9abe 5f68 a3bc e383 e73d
00000080: 6058 52be 8d09 d03d 68fc 00bd 7312 12be
00000090: 5099 34be e27b b53d 516a 80be 4d1e 40be
000000a0: c46c 543d 412e 9f3e 7792 40be 14af 50bd
000000b0: 74a0 613d 879a a03e 2765 b93d 699f 8e3e
000000c0: 37b1 963d d7ac b33d 11c6 2c3d 8820 413e
000000d0: 404d 5bbe f7ad 3a3e bd60 47be 8981 50be
000000e0: c78a 42be dd4b 8d3c 6c25 15be 102a b3be
000000f0: 3a07 4a3e 2fe1 123e c104 3bbe 03cf db3c
00000100: bc88 38be 7f58 0abe c9b4 fe3d 781d f13d
00000110: 9b3d 583c b881 29be 0780 71be 8d7a 8dbe
00000120: 4989 68bd d257 98be 905d 7b3d 9fbd 87be
00000130: 9dd0 203e 5b76 173e 2de8 2fbd dd46 21be
00000140: 5b2c f63d 6554 133e 6059 43be 7879 e0bd
00000150: 31b5 5bbc 01eb 88be 7079 f1bd ff75 2abf
00000160: 20b5 6abd 10a6 9e3d 80f9 2cbe e0c4 663a
00000170: 2482 673e a60b 1bbe 787c b9be bf77 2d3d
00000180: a240 00bd 5a79 53be 9215 04be aced 6abe
00000190: b556 293d a300 03bb a033 fd3d 3f77 163e
000001a0: f612 413c 0918 883d 6427 a3bd ac86 03be
000001b0: 3ff4 8cbe 1d1a 08be 5576 08bd 73df ae3c
000001c0: 2af9 583e b2f2 c13e c37f f33d 9ea5 083e
000001d0: a7c7 ebbd 8cfb c9bd 5eb0 0bbe 42fa 88bd
000001e0: a5b5 90bd ea2d 423d c890 20be bb6c fe3c
000001f0: 0b55 0c3f 34a1 72be f191 8bba e128 cc3d
-0.10093008 0.12150639 -0.09841864 -0.312245 -0.015102359 0.36293834 0.28505057 -0.018823639
0.04775906 -0.36959475 0.1883541 -0.049711216 0.39409474 0.17227224 0.59079885 -0.23532909
-0.12613004 0.40681636 0.0024731213 0.3004881 -0.062874 -0.018698659 -0.2220213 -0.15770333
0.07431706 0.4937781 0.4106491 -0.35978666 -0.11574056 -0.30094662 -0.019947229 0.11304452
-0.20541525 0.10158072 -0.031490713 -0.1426485 -0.17636609 0.088615194 -0.25081113 -0.18761559
0.05186154 0.31089976 -0.18805872 -0.050948218 0.05508466 0.31367895 0.090524964 0.27855995
0.0735802 0.08773201 0.04218108 0.18860066 -0.21416187 0.18230425 -0.19470496 -0.20361914
-0.18998252 0.017248088 -0.14565057 -0.3499303 0.19729319 0.14343713 -0.18263532 0.02683211
-0.1802091 -0.13510321 0.12436826 0.11773199 0.013198282 -0.1655339 -0.23583995 -0.2763256
-0.05677155 -0.29754502 0.061368525 -0.26511857 0.1570458 0.14791243 -0.04294603 -0.15749688
0.12020179 0.14387663 -0.19077063 -0.10960668 -0.013409899 -0.26741794 -0.117907405 -0.665863
-0.05730164 0.07746518 -0.16892052 0.00088031404 0.22608238 -0.15141162 -0.36227775 0.042350527
-0.03131164 -0.2065176 -0.12898853 -0.22942227 0.041342456 -0.0019989393 0.12363362 0.14693926
0.011784306 0.06645209 -0.079664975 -0.12844342 -0.27530095 -0.13291211 -0.033315975 0.021346783
0.21188799 0.37880474 0.11889603 0.13344428 -0.1151269 -0.09862432 -0.13641497 -0.06688358
-0.07065896 0.04740707 -0.1568023 0.031057706 0.54817265 -0.23694307 -0.0010648352 0.099687345

weight f4 [128, 146]
00000000: 659a 00bd 6f14 1abc 9977 003c fffe 1fbd
00000010: dffe 84bc e8d3 5d3c 2f0d a03c 1bea d5bb
00000020: 1139 91ba b6fc b2ba dc47 ec38 b360 2abc
00000030: 8469 123b 23c7 13bb 70bc 6c3a e914 323d
00000040: 8d72 1c3d 2c2c 5f3a d90b e23b 977c 8cbb
00000050: 1cee 0c3c afae 98bc a941 a3bb 49f0 5aba
00000060: 3d68 db3c 1b8d a13a a937 443c bf3e 98ba
00000070: fee5 1c3c 9a81 5aba 8b2e 51ba 8e37 4dbb
00000080: d3f4 fabc 29d4 acbc ea25 ae3c 002d aabc
00000090: 8bf8 9d3c 2a50 f939 9a3f 0ebb 568a 01bc
000000a0: e3b5 1aba b999 1f38 ec8b 253a 00a7 c7ba
000000b0: 072d 9938 32af b93b ab52 913b 2db9 043b
000000c0: 8d7a 9b3c 4041 3e3c c914 12bb 2021 8a3b
000000d0: 0931 373d 39e6 633c 6fdf 043d 2408 6a3d
000000e0: 87bf 2ebd 9273 eb3a 37e7 b63c 5404 00b9
000000f0: fe9c 263b 46d7 f13c d887 3cbc 3258 ee3c
00000100: 3919 0dbb 4077 6f3a ecff 5a3a 9d13 39bb
00000110: 0056 3f3c f876 213b 90e0 fdba 2993 eabb
00000120: dbf0 3c3d 9593 b0ba a75f aeba f6af dcba
00000130: 7fd9 003d 13f7 30bd 5025 03bb ae28 2bbd
00000140: ece3 373d d628 9ebb 54c0 19bb a991 ef3a
00000150: 7385 f9ba 398b c6ba 7526 593d 75d9 88ba
00000160: 5964 72bc ffdd ce3c 805b 7cbc e4cf ddb9
00000170: 03e1 bc3c b608 37bd e6aa 7dba 1ee8 07bb
00000180: dfc9 863c 515f 573c 8cdd 1b3d 2b3f 07bc
00000190: 6657 893c efea f93c a3dc 8b3b 15bf 283d
000001a0: 1ed7 45bc 8ba4 11bb 466f bb3b 4a6c b33a
000001b0: b400 4cba c7ac b83c ec0c 93bb a71f 49bc
000001c0: bf61 d43c 517d 153b 0984 5dbb 0c47 063b
000001d0: 49bd a43c 0c38 7539 c272 8bbb b450 ab3b
000001e0: d864 cf3c 8f92 883a 1e14 4c3d 2391 cf3a
000001f0: c923 fe3a c6ff 90bc 90e6 dbb9 add6 16bc
00000200: 7f4a 9abb 803b 0ebb 7803 103a 8e3d 193a
00000210: ba42 99bb 199b 3739 8b7d 873a 28f5 bdb9
00000220: b1cc 91bb 49b5 07bb 95bd 7837 8860 3739
00000230: 669c 50b9 281b 07bb 1ffb 8138 1422 73b9
00000240: 23f7 58b8 aa2d 01bb 7d2b f63b 5ed5 7b3a
00000250: 0671 90b9 d593 ff3a a50a db39 807f 80bb
00000260: e2b5 c2ba f524 803a ed55 c339 7bcb 7238
00000270: d041 c538 bb55 cc38 cc3f 13b9 3f64 a8b7
00000280: 92be 09b9 21b5 e4bb 6215 50bb 30f1 bcb8
00000290: d4ce cfb9 211b 8e39 b70f 3039 2254 6eb8
000002a0: 5f28 3f3a d602 f438 fbe4 cabb 29f9 0ab9
000002b0: 4906 5bb8 16a8 c838 8cd5 cdb9 926b 0639
000002c0: 9820 5cb9 b3e5 8d39 23f9 c53a bfd0 223a
000002d0: 7698 b139 2c04 73b9 e16a 3fba 6f62 97b9
000002e0: 8ab8 6839 9a35 073a 873a 4cb9 af0e 0939
000002f0: aad1 b439 a57c 9ab8 5ac4 94b9 4bac afb9
00000300: 80ea 72b9 034f 23b9 671c 5cbb d37e 8339
00000310: 05cb 8c38 dc52 abb9 2d85 58bb c834 76ba
00000320: 0365 12bb 9587 27bb 1a48 e73a 0176 9db8
00000330: 1e44 5c3a 51a0 b5b8 ea74 69b9 040e 01bb
00000340: 9bd1 9039 0b46 95b9 58af 5b39 18ef 043a
00000350: ddbd 6537 ac88 92b7 cc1d 10ba fa5e d2b9
00000360: a0a3 6f39 8f09 6339 b11a e1ba e687 f438
00000370: 0284 9839 3b3e 2439 24f0 3dbb 3045 ef3a
00000380: 444c d1b9 17a3 d93a 0a85 38bb 0e30 383a
00000390: deb5 4839 8c8e b5b9 0142 2139 3e65 1539
000003a0: 50f3 c8ba 421b 0839 74ef ea3a 5183 a9bb
000003b0: 2aec c537 9efe 39b9 1249 8db9 1bf1 263b
000003c0: 9231 0b39 ad75 db38 0e3b feba ce0b 0aba
000003d0: ffef b8ba a861 38ba d2f0 1e3b 8851 e239
000003e0: e40a b238 20a2 0bbb 9c6f 103a 274f a439
000003f0: c4ae 38ba 7415 fe39 da31 0a38 a0ef 02bb
-0.031397242 -0.009404286 0.007841014 -0.039061543 -0.016234813 0.013539292 0.019537536 -0.0065281517
-0.0011079629 -0.0013655636 0.00011266742 -0.010399031 0.0022340724 -0.0022549115 0.0009030765 0.043476973
0.03819518 0.0008513357 0.006898385 -0.004287313 0.008601692 -0.018637983 -0.0049821925 -0.00083518453
0.026783103 0.0012325378 0.011976161 -0.001161538 0.009576319 -0.0008335352 -0.0007979653 -0.003131363
-0.03063432 -0.02109726 0.021258313 -0.02077341 0.019283554 0.00047552708 -0.002170539 -0.007906517
-0.0005901737 3.805172e-05 0.00063151005 -0.0015232265 7.3039955e-05 0.005666637 0.0044349036 0.0020251975
0.018979335 0.0116122365 -0.002229022 0.0042153746 0.044724498 0.01390987 0.032439645 0.05713667
-0.042663123 0.001796352 0.022327049 -0.00012208644 0.0025423164 0.029521596 -0.011506997 0.02909479
-0.0021529926 0.0009134896 0.00083541754 -0.002824045 0.011678219 0.0024637561 -0.0019369293 -0.007158656
0.046128135 -0.0013471717 -0.0013303653 -0.0016837108 0.03145742 -0.04320438 -0.0020011254 -0.041786842
0.044895098 -0.0048266454 -0.0023460584 0.0018277663 -0.0019036963 -0.0015147693 0.05301519 -0.0010440784
-0.014794433 0.02525234 -0.015402675 -0.00042307295 0.023056513 -0.04468604 -0.000967665 -0.0020737718
0.016453682 0.013145284 0.03805308 -0.0082548065 0.016765308 0.030507533 0.0042682453 0.041197855
-0.012075214 -0.002222332 0.005720052 0.0013688889 -0.0007782087 0.022543324 -0.0044876244 -0.012275613
0.025925515 0.002281029 -0.0033800623 0.0020489125 0.02010979 0.000233859 -0.0042556236 0.0052281264
0.02531664 0.0010419654 0.049823873 0.0015836101 0.0019389327 -0.017700087 -0.00041942718 -0.009206456
-0.0047085877 -0.0021702945 0.0005493681 0.0005845659 -0.004677144 0.00017510018 0.0010337097 -0.00036231545
-0.00444945 -0.002070742 1.4826092e-05 0.000174882 -0.00019894689 -0.0020615552 6.197974e-05 -0.00023186981
-5.1728577e-05 -0.0019711056 0.0075125084 0.00096066843 -0.0002755003 0.0019499013 0.00041778866 -0.003921449
-0.0014855231 0.0009776639 0.00037257318 5.7886802e-05 9.4059505e-05 9.7434466e-05 -0.00014042779 -2.0073841e-05
-0.00013136331 -0.0069796 -0.0031751026 -9.009463e-05 -0.00039636216 0.00027104563 0.00016790522 -5.6821977e-05
0.00072920875 0.00011635355 -0.0061918474 -0.00013253525 -5.2219522e-05 9.5680516e-05 -0.00039259752 0.00012819309
-0.00020992977 0.00027064755 0.0015104156 0.0006210915 0.00033873663 -0.0002317584 -0.0007301998 -0.00028874303
0.0002219399 0.00051578286 -0.00019476759 0.00013070808 0.00034488487 -7.366509e-05 -0.00028375053 -0.0003350697
-0.00023166277 -0.00015574326 -0.0033586265 0.00025080758 6.7135355e-05 -0.00032677397 -0.0033038363 -0.00093920203
-0.002233804 -0.002556299 0.0017645389 -7.508323e-05 0.0008402484 -8.660614e-05 -0.00022264165 -0.0019692192
0.0002762199 -0.0002847168 0.00020950788 0.0005071028 1.369367e-05 -1.7468199e-05 -0.0005497604 -0.00040125084
0.00022853771 0.00021651968 -0.0017174092 0.0001166014 0.00029090053 0.00015663441 -0.0028982246 0.0018254872
-0.0003992041 0.0016604391 -0.002815547 0.00070262037 0.00019141237 -0.00034629216 0.00015378745 0.00014247463
-0.0015331302 0.00012980125 0.0017924146 -0.005173125 2.3594203e-05 -0.00017737827 -0.00026948057 0.00254733
0.0001327454 0.000104646526 -0.0019396262 -0.0005266041 -0.001410961 -0.0007033595 0.0024252427 0.00043166825
8.48973e-05 -0.002130635 0.0005509795 0.0003133949 -0.0007045085 0.0004846264 3.294819e-05 -0.0019979253

bias f4 [128]
00000000: 98c0 69bb 9999 033a 0fc5 2bb9 4944 1e39
00000010: b1d6 8bb7 c053 b0b8 1565 9738 d889 0080
00000020: 5d3b 4bb9 a552 e693 de96 2aab f432 95b8
00000030: 95bf a6b5 39ee 36b8 1408 01b8 3172 b89c
00000040: addc 9db5 35a6 133a f759 c5b7 8105 5a82
00000050: 1a34 1cb9 ff72 603a 7aba 45b8 98ca 7b39
00000060: 2e13 84b8 fbe8 8539 1c0b 9ab7 c455 1c84
00000070: 28ab 05b9 7691 7239 923e cb39 5912 4634
00000080: 6c1e f090 937a 04b7 4949 cfba 5193 8e8c
00000090: a73e 84a4 5d69 52b7 1cf9 143b ff48 11b8
000000a0: 4477 0ab9 0777 5baa 5613 a739 c0b8 f839
000000b0: 2d54 d8b8 768c c1b8 c974 1db8 8585 88b2
000000c0: 80b0 03b8 9b8a 9c83 57cd b5b8 eff5 0cb8
000000d0: c301 adb7 bd99 a1b8 fc11 50b1 2788 e2b7
000000e0: 8b04 10bb 4300 4b3a e5dd ebb7 6c3f 12bb
000000f0: 0d5d cbb7 e406 0139 ee0c 42b8 6d65 0000
00000100: 07c0 97b4 1272 d4b9 b032 8039 4625 5db9
00000110: 68b6 c639 0149 fcb1 d0d8 c338 fb0c 263b
00000120: 35ee 2493 1d53 309b 509a b1b9 e8e4 aeb9
00000130: ed4b 6d3a 7a7d 39b6 b369 5ab9 6411 0ea4
00000140: 0377 93b6 f1b9 3a8b 7859 f1b9 2c6b eab8
00000150: 3e1b 7db4 df61 a788 188b d2b9 c58d 223a
00000160: 345c 77b9 33b1 76b9 8edd 9eb9 2dcb d339
00000170: c15f 0080 0d1b 7339 8880 0ab4 3497 a3ba
00000180: dc52 0080 e9e5 ad37 8442 f1b7 fefc 7881
00000190: 0a5f 9aa8 c3e2 05b8 2fe7 ccb7 e9b6 12b9
000001a0: c224 0080 9fea 36b8 1971 17b8 d843 0080
000001b0: c900 0000 3e37 4ab8 95e7 f1b7 3a6d 29b8
000001c0: 29ee 13b8 329a 8182 4b13 09b8 0fee edb6
000001d0: dfb3 99b7 e00d 13b8 2c99 6eb5 3249 53b8
000001e0: 8043 50b9 dfb7 b4b7 6b2f 6d39 c0e0 a7b8
000001f0: a176 5639 7be5 c7a3 b18f bab8 fd78 5538
-0.0035667773 0.0005020141 -0.00016381241 0.00015093492 -1.6670065e-05 -8.407934e-05 7.219069e-05 -4.9449e-41
-0.00019381703 -5.8141656e-27 -6.0605503e-13 -7.1143644e-05 -1.2423722e-06 -4.3614044e-05 -3.076352e-05 -1.2205616e-21
-1.1761637e-06 0.0005632372 -2.3526123e-05 -1.601769e-37 -0.00014896729 0.00085620576 -4.714213e-05 0.00024012697
-6.297823e-05 0.0002554132 -1.8363404e-05 -1.8377094e-36 -0.00012747629 0.00023133107 0.00038765796 1.8446862e-07
-9.471018e-29 -7.896352e-06 -0.0015814687 -2.1967227e-31 -5.735201e-17 -1.2541507e-05 0.0022731489 -3.4638677e-05
-0.00013205135 -1.9492403e-13 0.0003186713 0.00047439896 -0.000103153616 -9.22912e-05 -3.754048e-05 -1.5893201e-08
-3.1397212e-05 -9.200678e-37 -8.669e-05 -3.3607645e-05 -2.0624027e-05 -7.705714e-05 -3.0278207e-09 -2.70047e-05
-0.0021975364 0.00077438744 -2.811751e-05 -0.0022315634 -2.4242816e-05 0.00012304966 -4.6265246e-05 3.6385e-41
-2.826566e-07 -0.0004052078 0.00024451828 -0.00021090088 0.00037901406 -7.342465e-09 9.338709e-05 0.0025337327
-2.0817155e-27 -1.4585234e-22 -0.00033875043 -0.00033358415 0.00090521463 -2.7640185e-06 -0.00020829476 -3.0806072e-17
-4.394796e-06 -3.5962184e-32 -0.00046033761 -0.00011177952 -2.3572372e-07 -1.0073956e-33 -0.00040157954 0.0006200935
-0.00023590104 -0.000235264 -0.0003030118 0.00040396434 -3.435e-41 0.00023184363 -1.2899011e-07 -0.0012480975
-2.9724e-41 2.0730267e-05 -2.8760413e-05 -4.573192e-38 -1.7138651e-14 -3.192086e-05 -2.4426348e-05 -0.00013991784
-1.3186e-41 -4.361069e-05 -3.6106536e-05 -2.4338e-41 2.82e-43 -4.8212e-05 -2.8837278e-05 -4.0394465e-05
-3.5269335e-05 -1.904335e-37 -3.2681313e-05 -7.090864e-06 -1.832278e-05 -3.5060453e-05 -8.8884804e-07 -5.037449e-05
-0.00019861571 -2.1543294e-05 0.00022619746 -8.0050435e-05 0.00020452823 -2.1672812e-17 -8.895936e-05 5.0895836e-05

weight f4 [19, 128]
00000000: 135f bb3a cf02 ae3a 054a 98ba c527 08b6
00000010: 7bca 7db8 4fd7 f338 aa79 0d3b e05f 6613
00000020: 3b81 7038 3f49 20b7 b866 d9b6 e50b dcb5
00000030: fd01 2e38 6f9b 6c38 7ab5 e7b6 333b 7923
00000040: 6f12 e4b7 6800 0d3b 7898 04ba 85d0 0f05
00000050: 5ea6 513b 6160 bcbb 5d98 e2b6 938f 43ba
00000060: 7bfb 85b8 391b 27b9 ccea bfba d5d8 1a87
00000070: 933c 19b8 5b86 89ba b98a b83a 885d 8f39
00000080: 3b87 47b4 0ef2 b3b7 d641 a83a fa78 7510
00000090: 583b 0735 2304 a537 b943 e739 3b9b a4ba
000000a0: 3df3 5e3a 0591 e137 8dc3 09ba dbe7 a3ba
000000b0: 47c3 60b8 03e5 b6ba 5912 d537 0569 d936
000000c0: d09b 00b7 9267 1002 96f2 92b9 145a e637
000000d0: add9 99b7 6e5a bfba a47f e2b7 43d4 c5b7
000000e0: 043b 2ebc b01c 2fbb c597 3cb8 5e11 bbba
000000f0: e9fa cb37 98dd 89ba 344c 7c3b f10a c72d
00000100: 6dad 1ab8 442f 813a b42a c9ba 54b3 143a
00000110: 62eb 83ba 1c21 05b8 e28d 8e39 b1bc 2e3c
00000120: 5823 96b1 a177 5334 92d2 efb9 3f43 26bb
00000130: b218 11bb d0ad 13b8 b93f e938 49cb 8935
00000140: 0d99 4cba e9ac 0438 d915 3839 acf5 1839
00000150: e3ba 1738 4047 0d0d 7df0 44b9 9e0e 073b
00000160: 459d cbb7 e6b8 2139 5930 6c38 bcda 8f3a
00000170: ec23 0000 ac9e 28ba 2338 05b8 6d42 e7ba
00000180: 646f 5901 1115 d0ba a409 1d38 0d0b b582
00000190: 7fad 0e35 267c 1c38 6da8 8c35 9816 023a
000001a0: a30d ca31 cbdd 23ba 7818 ac36 f332 0480
000001b0: 010e de85 fb90 6ab7 189e 0a3a 63a7 04bb
000001c0: 4b42 d0b7 0cf5 5f03 3614 9d3a b5a7 7b37
000001d0: 3b09 76ba d745 3bb8 36bf c936 2836 e137
000001e0: 3bb4 1435 5696 c6b7 1b96 cfba b76b b63a
000001f0: bf9a ebb9 5cbf 84b4 26bd 9039 4dc5 1cba
00000200: 7c16 f03a 7947 1f3a f8f3 d237 8338 92b9
00000210: b8e2 03b8 1197 4d39 aa30 79ba 1ea8 0000
00000220: 7967 46b7 47bb 1e16 713c 20a8 4cf6 77b8
00000230: dfb4 87b7 abaf 5d38 f74f 3238 7cfe 3d9d
00000240: ca2c b0b7 23d2 a239 f4d7 32ba 0379 8c82
00000250: e28b 8db8 d53c 37b9 d2f1 91b8 f803 ddb9
00000260: d03c 8438 c904 a6b9 9852 f5ba decd 1c84
00000270: 3c11 c339 e498 053b 5cbb 7838 daaa 88b9
00000280: ad3c ca0b 09c5 3a38 8b70 8bb9 d52b 140d
00000290: b75f ad30 2f19 fc37 6d00 2dba b582 5d3a
000002a0: 0376 99b9 40a6 99b7 ff84 8bb9 6736 42ba
000002b0: edbb 1db9 5988 8fb9 46b1 33b7 0e4a fe36
000002c0: a62a bd37 b835 0280 4449 043a a542 28b7
000002d0: 7d94 1a38 6d1b ab39 35d5 d537 ab94 b1b8
000002e0: 08aa 03bb 86d5 cfb9 a900 1338 9fb1 dab9
000002f0: 9d10 8f37 6378 1cba 7432 653a a315 0080
00000300: e886 0714 64bb 3fb9 8ed1 383a 92d0 6ab8
00000310: 3f8f 14ba 4bab d337 fad1 033b 7fb8 c73b
00000320: e0fd 5405 1bf1 b7a2 f4f2 6137 36bd 3e3b
00000330: a129 42ba b31c e535 610d 03b9 6634 9dac
00000340: f0cc f739 2f09 d637 0af1 3d3a 840a 9fb7
00000350: 853d d5b6 3c3a 1f0b dc24 ad3a 84e6 413a
00000360: e056 cc39 00c0 b538 5f97 f439 5e8c 1739
00000370: 4645 0000 8092 03b9 ce6f 0438 2ac1 433a
00000380: 044f 0280 2158 323a ce60 d837 481f 1780
00000390: d73f 1890 c0c5 07b8 9964 2fb8 ddc0 7cba
000003a0: 2c1e 0c07 c337 e239 38e9 44b8 18af 0080
000003b0: 106e 0080 e72b 84b7 7024 543a 5218 3738
000003c0: 130e 0f38 8c98 0300 f09f 5cb9 8f7b 7637
000003d0: feb9 a43a 6100 8db7 f048 e3b7 4f0d c037
000003e0: dfc4 6538 61ac feb7 5cf9 973a e176 6e3a
000003f0: 15a6 25b9 b0c2 bc0c c78b 36b9 b04d 4538
0.0014295302 0.0013275984 -0.0011618739 -2.0288728e-06 -6.0508475e-05 0.00011627247 0.002158741 2.9077351e-27
5.7340814e-05 -9.553797e-06 -6.479062e-06 -1.6394739e-06 4.1486684e-05 5.6411543e-05 -6.905463e-06 1.3510853e-17
-2.7188302e-05 0.0021515135 -0.000505812 6.762127e-36 0.0031990032 -0.005748794 -6.7530623e-06 -0.0007460054
-6.388776e-05 -0.00015936502 -0.0014642118 -1.1649394e-34 -3.6534457e-05 -0.0010492312 0.0014079429 0.00027344772
-1.8582516e-07 -2.1451178e-05 0.0012837003 4.8410927e-29 5.0377776e-07 1.9671459e-05 0.0004411021 -0.0012558469
0.0008504873 2.688962e-05 -0.00052552746 -0.0012505011 -5.3587628e-05 -0.0013953749 2.5400122e-05 6.47933e-06
-7.6656725e-06 1.0609172e-37 -0.0002802803 2.7460082e-05 -1.8340384e-05 -0.0014599094 -2.7000737e-05 -2.3583072e-05
-0.010634188 -0.002671998 -4.496404e-05 -0.0014272144 2.4316325e-05 -0.0010518311 0.003849757 2.262854e-11
-3.6877977e-05 0.0009856005 -0.001534781 0.0005672474 -0.0010064656 -3.1740507e-05 0.00027190062 0.010665105
-4.3695927e-09 1.9694427e-07 -0.0004574252 -0.0025369672 -0.0022139964 -3.5209407e-05 0.00011122175 1.0266459e-06
-0.0007804789 3.1632288e-05 0.00017555746 0.0001458737 3.6175257e-05 4.3534744e-31 -0.00018781605 0.0020608078
-2.427272e-05 0.00015423037 5.6311812e-05 0.0010975222 1.2886e-41 -0.00064323354 -3.1761952e-05 -0.0017643698
3.9936524e-38 -0.0015875419 3.7440695e-05 -2.6601903e-37 5.315159e-07 3.730892e-05 1.0479831e-06 0.0004962473
5.880524e-09 -0.0006251006 5.128848e-06 -3.85619e-40 -2.0881924e-35 -1.3981243e-05 0.000528784 -0.0020241372
-2.4826402e-05 6.581511e-37 0.0011984173 1.4999813e-05 -0.0009385531 -4.4649318e-05 6.0125267e-06 2.6847309e-05
5.5396566e-07 -2.3673445e-05 -0.0015837582 0.00139176 -0.00044937988 -2.4726148e-07 0.00027606747 -0.0005980328
0.0018317248 0.0006076019 2.5147558e-05 -0.00027889395 -3.1443982e-05 0.000196066 -0.00095058477 6.0309e-41
-1.1825811e-05 1.2822233e-25 -8.89489e-15 -5.911877e-05 -1.6177479e-05 5.285411e-05 4.251298e-05 -2.5145507e-21
-2.1001691e-05 0.00031055612 -0.00068223407 -2.0640608e-37 -6.749459e-05 -0.00017474902 -6.959181e-05 -0.00042155362
6.305578e-05 -0.00031665553 -0.0018716631 -1.8432241e-36 0.0003720614 0.002038532 5.93023e-05 -0.00026067236
7.7898865e-32 4.452936e-05 -0.00026595997 4.565878e-31 1.261461e-09 3.0052468e-05 -0.000659949 0.0008449958
-0.0002927036 -1.8316437e-05 -0.00026611236 -0.0007408619 -0.00015042695 -0.00027376672 -1.0710506e-05 7.578411e-06
2.2550415e-05 -2.02942e-40 0.0005046318 -1.0029097e-05 3.685475e-05 0.00032636095 2.5490861e-05 -8.467709e-05
-0.002009036 -0.00039641204 3.5048146e-05 -0.00041712538 1.7054665e-05 -0.0005968867 0.0008743175 -7.762e-42
6.842364e-27 -0.00018284988 0.0007050269 -5.5984194e-05 -0.0005667097 2.5232925e-05 0.002011417 0.0060949917
1.00148216e-35 -4.985753e-18 1.3467612e-05 0.0029104478 -0.0007406716 1.7070182e-06 -0.00012498118 -4.4680258e-12
0.00047264202 2.5515064e-05 0.00072456955 -1.8959174e-05 -6.3550565e-06 3.0666097e-32 0.0013209837 0.0007396715
0.0003897464 8.666515e-05 0.00046652087 0.00014452773 2.485e-41 -0.00012547709 3.157538e-05 0.00074674434
-2.12016e-40 0.00068032934 2.5794285e-05 -2.123438e-39 -3.0025895e-29 -3.2370677e-05 -4.181694e-05 -0.0009641776
1.0541296e-34 0.00043147625 -4.6947243e-05 -6.2812e-41 -3.9483e-41 -1.575607e-05 0.0008092588 4.365325e-05
3.4106964e-05 3.3023e-40 -0.00021040416 1.4691511e-05 0.0012567637 -1.6808686e-05 -2.7094473e-05 2.289438e-05
5.4781205e-05 -3.035943e-05 0.0011594701 0.0009096694 -0.00015797497 2.908316e-31 -0.00017408944 4.7040812e-05

bias f4 [19]
00000000: 31b0 ad3e 7703 5abb 41a2 a5ba 26ab 5b3b
00000010: 216c a73e cf47 9b3b dd5b 193b b330 1abb
00000020: c7fe a63e 9044 9c3e b353 6f3a cb59 57ba
00000030: b912 82ba d38b 9c3e a358 23b9 403b 2a3a
00000040: cea5 8239 318f 9c3e c64b 053e
0.33923486 -0.0033266225 -0.0012636856 0.003351876 0.32699683 0.004738785 0.0023400702 -0.0023527562
0.32616255 0.3052106 0.00091295986 -0.00082149793 -0.0009923793 0.30575427 -0.00015577911 0.0006493814
0.00024919066 0.30577996 0.13017187
