models/data_aug/O/model4.pt (torch, 353039 bytes, 8 tensors)

weight f4 [128, 384]
000000 12 ae 3e 3e bb fb c8 3d 57 2d 09 3d aa 51 95 3c
       0.1862109 0.09813639 0.033490505 0.018227417
000010 7b 26 a8 3c 67 e1 b4 3b 38 65 ed 3b dc 79 94 3c
       0.020526161 0.005520034 0.007244732 0.018124513
000020 e6 e4 8f 3c f0 84 40 3d ac 68 48 3d 25 41 47 3b
       0.017565202 0.04700178 0.048927948 0.003040382
000030 9d fa 1a 3d 0a f0 df 3c 7f 24 d8 3c 84 81 f5 3c
       0.03783666 0.02733614 0.02638459 0.029968984
000040 8b 4c c6 bc 5f c6 f2 3c 9c 49 89 3b 8e 05 08 3d
       -0.02420642 0.029635606 0.004189683 0.033208422
000050 e3 78 94 3c 5a 2a c0 bb 5d a2 d3 bb 48 cb 74 bc
       0.01812405 -0.0058644237 -0.006458564 -0.014941044
000060 3d ab e5 bc 8e 07 89 3c 26 b6 b3 3a 2d 6a d3 3c
       -0.028035754 0.016727235 0.0013710901 0.025807464
000070 b2 b9 8f bb 43 d2 b1 3d 16 4c 53 3e f3 b4 27 3d
       -0.0043861503 0.08682682 0.20634493 0.04094405
000080 cd 93 d3 bb 6a 5f 77 bc d2 b9 01 bd d1 69 87 3c
       -0.006456828 -0.015098432 -0.031671353 0.01652995
000090 11 c4 b8 bd f0 b6 e6 bd a2 cd ee ba 37 bb 7d 3b
       -0.09021772 -0.11265361 -0.0018219242 0.0038716325
0000a0 7f e0 82 3d ec 38 ef ba 1b 6b c0 3d 0d 17 fc bc
       0.063904755 -0.0018251217 0.09395429 -0.03077271
0000b0 95 70 b5 bd 2d c2 4f bd cd c1 0a bd cb ae 9a 3d
       -0.08859364 -0.05072229 -0.03387623 0.0755287
0000c0 3d 64 dd bd 6e 16 d3 bd 9f a4 e4 bd 41 50 88 bc
       -0.108101346 -0.103070125 -0.111642115 -0.01663983
0000d0 13 f5 8a 3d 26 56 11 bc e2 bd ae 3d 90 97 f3 3d
       0.067850254 -0.008870637 0.08532311 0.11894143
0000e0 9c 12 c0 3c 39 d6 f7 3c a6 e6 b7 3d 75 ec 17 3e
       0.023446374 0.030253517 0.089795396 0.14836295
0000f0 40 08 d1 3d eb f7 19 3d b5 36 43 3d b9 12 fc bc
       0.10206652 0.03758995 0.047659595 -0.030770646
000100 63 39 61 bc af 91 9e bd 52 83 49 bc e0 ab b6 3d
       -0.013746592 -0.07742631 -0.012299376 0.08919501
000110 ef 88 58 3e a3 62 0d 3f 5c 97 64 3e 4e 3d a4 bd
       0.21145986 0.5522863 0.22323364 -0.080195054
000120 d9 2c 53 3c 61 4e c7 3a 26 16 0f 3c b9 6a 6a 3c
       0.0128891105 0.0015205854 0.008733308 0.014307671
000130 b2 a2 58 3d 7b ea 11 3e 23 94 ea 3d 97 c9 22 bd
       0.052889533 0.14249603 0.11454036 -0.039743032
000140 23 be bf 3b 20 2a a7 bc af 7d 9e bd ff a0 2b bb
       0.0058515235 -0.020405829 -0.07738816 -0.002618849
000150 ba 67 53 3d a7 9f d7 3c fe 35 35 bd 3c e8 be bc
       0.051612593 0.026321245 -0.044240944 -0.023304097
000160 35 ec 4e bd 9a f7 84 3c bc 7a 1e 3b 83 5e 84 3c
       -0.050518233 0.016231347 0.0024182042 0.016158348
000170 cd a0 37 3d 1c 89 51 3b e6 7a ee bd d7 73 83 be
       0.044831086 0.0031972593 -0.11644535 -0.25674316
000180 72 0a 94 3c ff 5c 95 bd c2 62 f0 bc c9 38 06 3c
       0.018071387 -0.07293128 -0.029343966 0.00819225
000190 4c 09 13 bd 32 91 4c 3d 14 c4 8b bc 09 da ce bc
       -0.035897538 0.049943157 -0.01706127 -0.025250452
0001a0 1a 6c a3 3d ed 64 27 3d 57 96 18 3d bd 68 79 bb
       0.07979603 0.040867735 0.03725275 -0.0038056814
0001b0 ad 27 2c bd 32 1b 5f 3d 90 dd df 3a 68 68 2d 3e
       -0.042030025 0.054469295 0.001707958 0.16934359
0001c0 19 cd 02 3d b6 03 1f 3d c4 7e 1f 3d fe cf 2a 3d
       0.031933878 0.0388219 0.038939252 0.041702263
0001d0 b7 75 0d 3e a2 74 58 3d 4d a4 68 bd 6e 6c 15 3e
       0.13814436 0.052845605 -0.056797314 0.14592144
0001e0 c0 a2 0a 3d e6 17 7b 3c 68 5d d8 bc 35 d9 17 bd
       0.033846617 0.015325522 -0.026411727 -0.03707238
0001f0 84 b2 01 bc 8a 2e 0d be 29 c9 a1 bd 04 e3 f3 3d
       -0.007916097 -0.13787284 -0.078996964 0.11908534
000200 c0 ce e3 bd 61 d6 ef bd 9e 2d 1d 3c e6 15 cf 3d
       -0.11123419 -0.117108114 0.0095933955 0.10111599
000210 df 87 85 bc 6a 76 a6 bc cb 40 5e 3d 7a b6 c1 3c
       -0.01630014 -0.020320136 0.05426101 0.023646582
000220 3d 0f 1a 3e ca 6b 35 3e 2b 1a 98 bd 7e 76 ae bd
       0.15044875 0.177169 -0.07426866 -0.08518694
000230 47 6d 2a bd 06 7e cb 3d 13 df 96 bc d3 83 c0 be
       -0.04160812 0.099361464 -0.018416917 -0.37600574
000240 41 f2 b3 bd d7 92 92 3d 99 4c ac 3d 5a 1e 91 3d
       -0.08786441 0.07156914 0.08413047 0.07085867
000250 98 1c f5 39 b4 28 11 3d 47 bb b7 3d 90 c3 a5 bd
       0.00046751346 0.03543921 0.08971267 -0.08093941
000260 01 63 c5 be a0 ea 23 be 8f eb 1d 3e 3a 29 98 3d
       -0.38552096 -0.16007471 0.1542189 0.07429738
000270 87 2f e9 bd 0e 6a 5d 3d 7f 4a 4f 3e 45 0e af 3d
       -0.11386018 0.05405622 0.20243262 0.085476436
000280 5d f4 1e bd 0b 46 02 be ca aa 44 3c cb 93 0d 3c
       -0.03880726 -0.12722032 0.01200361 0.008641194
000290 0d 2b 02 3e fd 04 85 3c 15 0d 6e bc 38 3b 34 3b
       0.12711735 0.01623773 -0.014529486 0.0027501117
0002a0 ce dd 93 bd 06 66 aa bd 84 54 bb 3d 6f fc 15 3e
       -0.0722004 -0.08320241 0.091469795 0.14647077
0002b0 c6 7f 06 3e be 01 fe bb ea 4d 84 bc 48 f2 c3 bc
       0.13134679 -0.0077516725 -0.016150434 -0.02391924
0002c0 10 30 c3 3d c1 31 33 3e d4 aa 76 3e c0 9a 61 bd
       0.095306516 0.17499448 0.24088603 -0.05507922
0002d0 e5 e0 d1 bd cc 5e 85 3b 3c e5 9a bd 8c bb 14 be
       -0.10247973 0.0040701386 -0.07563254 -0.14524668
0002e0 0c 70 a1 bd 51 b1 07 3d 6e 60 d3 3d 7e ad 8e 3c
       -0.07882699 0.033128086 0.10321127 0.017416712
0002f0 c0 36 b5 bb 9d 3d 37 bd cb ff 84 bd a3 26 ae bd
       -0.0055302083 -0.044736493 -0.06494101 -0.08503463
000300 9d 0f 9a 3c 15 fc 92 bd 57 d5 4c be bd 63 da bd
       0.018806273 -0.07176987 -0.20003258 -0.10663555
000310 49 59 8b bd b6 e5 43 be f9 7f a8 bd 3e a1 bf 3c
       -0.06804139 -0.19130597 -0.08227534 0.023392316
000320 80 9b 34 bd 35 17 1e bc 21 27 d1 bd a8 7b ac bd
       -0.04409361 -0.009649088 -0.10212541 -0.08422023
000330 87 3f a3 bc fa 59 52 bc 47 1b 9c 3c 36 e4 bb 3d
       -0.019927753 -0.012838835 0.019055976 0.09174387
000340 9e cf 51 3b d2 5d 4f 3c 75 72 84 3d b6 4e bc bd
       0.0032014619 0.012656646 0.064671434 -0.091947004
000350 d9 0b de 3d ca be 67 bd 1d 27 69 3d 76 ee 1a 3d
       0.108421035 -0.056578435 0.056922067 0.03782507
000360 82 76 f0 bd 7e 70 f5 bd 2c 79 af bd d3 22 14 bd
       -0.117413536 -0.11984347 -0.085680336 -0.036166023
000370 61 d6 e9 3d dc 46 21 3e d0 39 39 3e c5 60 97 3d
       0.11417843 0.15749687 0.1808846 0.07391504
000380 b1 c9 14 bd 1e 69 5a 3d c0 2e be 3d 22 0d 4d 3d
       -0.03632516 0.053322904 0.092862606 0.050061353
000390 cc ff 45 3b 1b ec ad bb 49 5e 91 bb 47 d3 4c ba
       0.0030212281 -0.005307687 -0.0044362885 -0.0007813465
0003a0 0c 54 ec 3c 4a f0 22 3e 01 ae af bb b8 b5 33 be
       0.02884867 0.15911976 -0.005361319 -0.17549789
0003b0 f5 e3 1d be c0 cd 11 bb 3b 00 72 bd 4c 30 09 be
       -0.1541899 -0.002224788 -0.05908225 -0.1339733
0003c0 07 7b 34 3d 20 db 2c 3d 87 05 8b bd 3f 5a cd bd
       0.04406264 0.04220116 -0.06788164 -0.10026979
0003d0 40 d8 42 3b 11 9d 07 3e e9 f1 22 3d 74 ef 11 3d
       0.0029730946 0.1324351 0.039781485 0.03562875
0003e0 dd 32 35 3e a2 f3 97 3d 00 bc ef bd 95 93 fd bc
       0.17695184 0.07419516 -0.1170578 -0.030954162
0003f0 78 b6 5f 3e 9e 71 4d 3e 80 ea c2 bc 26 10 d4 3d
       0.2184695 0.20062873 -0.023793459 0.103546426

bias f4 [128]
000000 eb 0c 76 3c 3a ce cb 3d ff be fc 3c 57 17 ff 3d
       0.015017728 0.09951444 0.030852793 0.124556236
000010 9a 89 8c 3c 8a fd 72 3c a6 24 91 3c 31 34 85 3c
       0.017155457 0.014830956 0.01771767 0.016260238
000020 53 68 84 3c 4d 61 6f 3c 69 5d 13 3d 30 5a a7 3c
       0.016163027 0.014610601 0.035977755 0.020428747
000030 f5 a9 ba 3d ce c6 92 3c d1 8a 26 3d 3b e7 09 3d
       0.09114448 0.017917063 0.04065973 0.033667784
000040 68 74 2b 3e 94 ff 66 3c 77 01 8d 3c ab 6e 8d bb
       0.16743624 0.0140990205 0.017212613 -0.004316171
000050 c7 c4 6a 3f 38 12 75 3f 4b 24 05 3f 6c 8a ab 3c
       0.9170651 0.95730925 0.52008504 0.020940028
000060 ed 02 7d 3c 30 6a 8e 3c a8 50 cc 3e a7 21 92 3c
       0.015442592 0.017384619 0.39905286 0.017838312
000070 c1 a7 8b 3c 9a 57 83 3c 7d 67 c2 3c 08 45 40 3f
       0.017047765 0.016032983 0.023730988 0.75105333
000080 51 9c 88 3c 45 db 41 3d b3 08 c9 3c 99 2b 4a 3c
       0.0166761 0.047328252 0.02454028 0.012339496
000090 bb e6 12 bc 75 4c 9e 3c 23 f4 7a 3c b4 5c 99 3c
       -0.008966143 0.019323567 0.015316996 0.018720962
0000a0 65 33 95 3c ac fd f8 3c e9 92 fd 3c f5 63 59 ba
       0.018212983 0.030394398 0.030953841 -0.0008292788
0000b0 60 2c 72 3c 7f 33 19 3d 3c 12 2f 3e fa d0 99 3c
       0.014781088 0.037402626 0.170968 0.018776406
0000c0 c6 3f fb ba f2 72 b2 3c 16 10 38 3d 66 74 1e 3d
       -0.0019168786 0.021783326 0.044937216 0.038685225
0000d0 c3 87 95 3c 6e 45 48 3d 6e 2d 35 3d ae 54 1c 3d
       0.018253213 0.04889434 0.04423278 0.038166694
0000e0 df 46 75 3e 17 0d c7 bc 77 cb bd 3c 1f 68 b9 3c
       0.23952816 -0.024298234 0.023168309 0.022632657
0000f0 12 9d 53 bc 14 ac 85 3c e0 20 0d 3d 23 fe c8 3c
       -0.012915866 0.016317405 0.03445518 0.024535244
000100 51 a2 b1 3c 20 cd 87 3c 1b b2 35 3d bb 56 8f 3f
       0.021683844 0.016577303 0.044359308 1.1198343
000110 1f 9f 0e 3c 89 86 a0 3c 12 23 47 3e 33 d0 8f 3b
       0.00870493 0.019595401 0.19446972 0.004388833
000120 39 25 a2 3c 38 8b 71 3c 40 dc 1b 3d d6 bf a7 3c
       0.01979314 0.014742665 0.038051844 0.020477217
000130 d5 69 22 3d 6b 73 87 3c 06 ea 4e 3d 0e 29 0e 3f
       0.03965171 0.016534528 0.05051615 0.55531394
000140 50 e5 06 3e 22 42 25 3d e5 0f 5e 3c 12 06 80 3c
       0.13173413 0.040346272 0.013553594 0.015627895
000150 7e 5a c7 3f 14 14 94 3c 7e 72 59 bb 2d dc 86 3c
       1.5574491 0.01807598 -0.0033179815 0.01646241
000160 b0 02 b7 3c 02 c4 a8 3c c4 0e 85 3c c4 a0 37 3d
       0.022340149 0.020601276 0.016242392 0.044831052
000170 ce c0 9a 3c 50 c6 67 3d 26 21 c2 3c d4 b5 89 3d
       0.018890765 0.05658561 0.023697447 0.06724134
000180 3a da b9 3c 71 58 a3 3c d2 b2 37 3f d7 40 6c 3c
       0.022687066 0.019939633 0.71757233 0.014419756
000190 de d2 99 3c 00 e5 06 3d 65 dd 69 3c 88 34 e9 ba
       0.018777307 0.032933235 0.014273976 -0.0017792145
0001a0 19 8f 9e 3c 3f 4f 94 3c f3 12 09 3d 15 49 92 3c
       0.019355344 0.018104194 0.033465337 0.017857114
0001b0 43 30 44 3d 94 ec 3b 3d d7 2f 5f 3c b3 f6 8b 3c
       0.04789759 0.045879915 0.013622246 0.017085409
0001c0 0a 47 de 3f 68 90 6d 3c b4 60 61 3c 73 30 22 bc
       1.7365429 0.014499761 0.013755966 -0.0098992465
0001d0 eb b7 e2 3c 01 4b 66 3d 3c 83 a2 3c 18 de 56 3c
       0.02767559 0.056223873 0.019837968 0.013114475
0001e0 9c 22 6d 3c d4 b1 8e 3a b5 6d 73 3c bd df 8c 3c
       0.014473584 0.0010886737 0.014857699 0.01719653
0001f0 86 ff cb 3e dc 2d c9 3c ec da 6c 3c d4 f7 66 3d
       0.39843386 0.024558 0.014456492 0.05638869

weight f4 [128, 128]
000000 f0 0e 0a bd 0a cd 92 bb 9a 7d 77 bc e6 7d 2a bc
       -0.03370565 -0.004480009 -0.015105629 -0.010405993
000010 67 eb 0e bd b3 43 05 bd d7 78 1d bd 0f d2 10 bd
       -0.034892466 -0.032535266 -0.03844532 -0.035356577
000020 54 6a 1b bd 1a 0b 17 bd b7 a8 99 bd cc 75 11 bd
       -0.0379432 -0.03687582 -0.07502883 -0.03551273
000030 e9 b9 f4 bd 37 bf 10 bd df 9a 4d bd d9 95 78 3e
       -0.11949522 -0.035338607 -0.050196525 0.24275912
000040 e8 53 01 be 6d 0d 14 bd 5a e2 02 bd a5 6a c9 bd
       -0.12629664 -0.036145616 -0.031954147 -0.09834794
000050 25 46 16 bf b5 96 0c bf 1b 58 ed be 3f 5a 14 bd
       -0.5870078 -0.5491746 -0.46356282 -0.036218878
000060 5f 18 15 bd ac 94 23 bd 7b 57 b6 be ab 3f 85 bc
       -0.036400195 -0.039936706 -0.35613617 -0.01626571
000070 23 00 15 bd b6 cf 13 bd ce b8 d1 bc b7 e5 7c be
       -0.036377084 -0.03608676 -0.025600817 -0.24697004
000080 22 b0 00 bd 94 d9 e4 bc 33 42 1b bd 39 2f 0b bd
       -0.031417973 -0.02793578 -0.03790493 -0.033980582
000090 57 1e fc bd c3 04 20 bd 37 d9 12 bd 7f 51 1a bd
       -0.12310474 -0.03906704 -0.035851683 -0.037675377
0000a0 7f 28 0c bd a3 e8 a8 bd 28 37 a6 bd b8 7f ea 3d
       -0.034218308 -0.08247497 -0.08115989 0.11450142
0000b0 74 56 0f bd c3 f4 a0 bd 09 6d 0f be 73 01 09 bd
       -0.034994557 -0.078591846 -0.14006437 -0.033448648
0000c0 d5 5d 21 bd 08 00 1b bd e7 de 0d bb eb 31 51 bc
       -0.039396126 -0.037841827 -0.0021647753 -0.012768249
0000d0 4d 35 15 bd 71 16 cf 3c b3 27 a2 3e e0 53 56 bd
       -0.036427785 0.025279256 0.31670913 -0.052326083
0000e0 21 93 2f be e9 a8 37 be 33 e9 0c bd cf d7 00 bd
       -0.17145969 -0.17935528 -0.034402084 -0.03145581
0000f0 40 6b 21 be ac ee 0c bd e3 58 99 bc 56 cd 07 bd
       -0.15763569 -0.034407303 -0.018719142 -0.033154808
000100 e4 e3 07 bd 41 f9 14 bd 51 c7 a6 3e 6c 64 a0 bf
       -0.033176318 -0.03637052 0.3257394 -1.2530646
000110 03 2f 0a bd d8 76 10 bd 83 2c ce bd 2d f6 d3 bc
       -0.03373624 -0.03526959 -0.10067084 -0.025874222
000120 a5 73 10 bd c1 9d 33 bd e4 57 36 bd 12 b7 e3 bc
       -0.035266537 -0.043851618 -0.044517413 -0.027797256
000130 f6 78 f2 bc 62 e0 06 bd a5 f5 44 3c 1c 1c 22 bf
       -0.029598694 -0.032928832 0.012021457 -0.6332414
000140 39 5a 06 bd 60 c8 36 bc ec 29 05 bd 90 32 08 bd
       -0.032800887 -0.011156172 -0.032510683 -0.033251345
000150 cd a7 1f bf e2 3d 05 bd 2a a3 e0 bd 81 3c 11 bd
       -0.6236542 -0.03252972 -0.10968621 -0.03545809
000160 62 9f 05 bd 4e e0 e0 bc dd b2 00 bd 0b 2c 83 bd
       -0.032622702 -0.027450707 -0.031420577 -0.06404885
000170 10 93 18 bd 13 31 ca bc 00 0f 1e bd fc 16 69 bd
       -0.037249625 -0.024681604 -0.038588524 -0.056906685
000180 90 75 24 bd cd 5d 18 bd ec 0b 16 bf 4c 53 09 bd
       -0.04015118 -0.03719883 -0.5861194 -0.033526704
000190 00 ab 08 bd e7 8e 71 3d c5 64 01 bd 89 5a 1d bd
       -0.033366203 0.058974173 -0.031590242 -0.03841642
0001a0 b4 73 1a bd 0f 37 05 bd df 97 70 bd da 73 13 bd
       -0.037708 -0.03252321 -0.058738586 -0.035999157
0001b0 05 81 14 bd 84 04 b7 3e f4 e2 5b bd 03 72 0d bd
       -0.036255855 0.35745633 -0.053683236 -0.03453256
0001c0 31 d5 80 bf c4 94 10 bd 04 47 fd bc 8b f1 04 be
       -1.0065061 -0.035298124 -0.030917652 -0.12982766
0001d0 08 0c 2a bd 31 d8 09 bd ce 59 0d bd 56 2b 18 bd
       -0.04151538 -0.03365344 -0.034509473 -0.037150703
0001e0 c2 80 07 bd 49 cb 13 bd 58 42 14 bd 2b 77 0d bd
       -0.033081777 -0.03608254 -0.036196083 -0.034537476
0001f0 aa fe 02 be 3c 16 0f bd 76 18 16 bd ee 14 bc 3e
       -0.12792459 -0.034933314 -0.03664442 0.36734718
000200 c6 39 d0 3c 0a ff c8 bd 55 4a d5 3d 08 63 99 bd
       0.025418174 -0.0981427 0.10414568 -0.07489592
000210 35 8c c7 3c c9 29 a0 3c 40 08 e3 3c d8 bc 91 3b
       0.024358848 0.019551175 0.027713895 0.0044475608
000220 19 c3 c2 3c 1e 34 76 3c ee 89 84 bd 08 cd b0 3c
       0.02377467 0.015027074 -0.064716205 0.021582142
000230 f0 2a c0 3d f2 05 bf 3c ff bb f5 3d 95 03 8b 3e
       0.0938319 0.023318265 0.11998748 0.2715117
000240 09 f7 1a bd 0c e2 a8 3c 80 cc d1 3c fe 42 f8 bd
       -0.037833247 0.0206156 0.025610209 -0.12122153
000250 0e 9c 8a 3e d7 7b 89 3e 55 dd ec 3d f8 ab 4e 3c
       0.27072185 0.26852295 0.11565653 0.012614243
000260 fe aa 94 3c 91 b2 2e 3b 9a f1 b1 3d b1 47 e0 3d
       0.018147942 0.0026656727 0.0868866 0.10951174
000270 50 94 b0 3c 28 42 87 3c 12 c2 97 3d 12 05 14 3e
       0.021555096 0.016511038 0.07410063 0.14455059
000280 da a1 bb 3c 3b 27 af 3c bf f7 16 3c 00 f0 9f 3c
       0.022904325 0.021381011 0.009214341 0.01952362
000290 18 ef 19 be 2e 21 ab 3c 7c 56 5d 3c f1 f0 be 3c
       -0.15032613 0.020889845 0.013509389 0.02330825
0002a0 f8 d5 99 3c 77 63 ab bc 2e ea 2e bd e1 f0 53 3e
       0.018778786 -0.020921452 -0.0427038 0.20697357
0002b0 b5 68 a1 3c a0 2b 2d bd d4 dd 8e 3d d9 c7 b4 3c
       0.019703249 -0.042277932 0.06975904 0.022067951
0002c0 01 eb ce bc dd 0b 9d 3c 51 32 93 3b a9 8a b1 3d
       -0.025258543 0.019170696 0.004492082 0.086690255
0002d0 50 97 c5 3c c2 1b 01 3e 90 ac ab 3e 6a 08 a5 3d
       0.024120003 0.12608245 0.33530092 0.080582455
0002e0 cd 15 01 3d 30 e3 42 be ba 3d dc 3c 02 f3 b1 3c
       0.03151493 -0.19031978 0.026884902 0.02172232
0002f0 a4 a3 4c be 56 77 c3 3c b6 0f 9a 3d 3c 32 a4 3c
       -0.19984299 0.023860615 0.07522528 0.020043485
000300 f6 51 ec 3c a4 99 a4 3c 60 ef a6 3e f7 13 d1 3d
       0.028847676 0.020092793 0.32604504 0.10208886
000310 05 1c 7c 3c 34 de 83 3c bf e8 f6 3c 12 cf 52 bb
       0.01538754 0.016097166 0.030140279 -0.003216688
000320 5e 92 a8 3c b3 77 df 3b 37 dd bb 3d bf c6 71 3c
       0.020577606 0.006819689 0.09173053 0.014756857
000330 22 52 00 3d db cf c2 3c a8 88 9e 3d 6b 72 31 3d
       0.031328328 0.023780754 0.07740909 0.043322008
000340 03 19 5f bd 8f aa c5 3d ba 4a 78 3c b3 fc b4 3c
       -0.054467212 0.09651672 0.015154535 0.022093153
000350 c6 dc 81 bd 5c 69 e5 3c 06 7a 1d be d1 1b cf 3c
       -0.06340937 0.02800434 -0.1537858 0.025281819
000360 32 6e 8e 3c c0 d2 88 3d 6b f5 d2 3b e3 d0 19 3c
       0.01738653 0.06680822 0.0064379475 0.009388181
000370 bd ae a6 3c 6f 6b 09 3d e1 b6 9d 3c 51 9d f7 3c
       0.020346994 0.033549722 0.019252243 0.030226381
000380 f2 cb 7d 3d 79 a4 7a 3c 76 16 ca 3e e1 22 b4 3c
       0.061962076 0.015298002 0.3947026 0.021989288
000390 69 2e 95 3c d2 cf 41 3e 72 3a ba 3c 2d ba a6 bc
       0.018210607 0.18926933 0.022732947 -0.020352447
0003a0 5a 74 98 3c 2c 5a 00 3d 5a 0f cb bc 48 1a a8 3c
       0.018610168 0.031335995 -0.024787594 0.020520344
0003b0 2f 3b 0b 3d da cb b2 3e ff 14 8f bc c9 36 98 3c
       0.03399199 0.3492115 -0.017466066 0.018580811
0003c0 aa 94 20 3f 6b fe ac 3c f4 0b 2e 3c dc db 2d be
       0.62726843 0.02111741 0.010622967 -0.16978401
0003d0 fa de ae 3d 7e a6 27 3d 3e 1d 7d 3d 98 3d 42 3c
       0.08538623 0.040930264 0.061795466 0.011855505
0003e0 82 52 ea 3c eb 1b 55 bd e0 e9 84 3c 7d 47 f6 3c
       0.028603796 -0.052028578 0.016224802 0.030063385
0003f0 f3 90 52 3d 00 54 80 3c 6c 4d 7f 3c f0 81 b2 3e
       0.051407766 0.015665054 0.015582424 0.3486476

bias f4 [128]
000000 4d 94 9d be 46 8b b2 3d 57 b3 64 be a1 68 2b bd
       -0.30777207 0.087179706 -0.22334038 -0.04184783
000010 f3 17 5b 3e 1a e8 82 3e 24 fc 87 be 98 3c 1d be
       0.21395855 0.25567704 -0.26559556 -0.15355146
000020 39 47 d2 bb 27 9c 51 be b8 21 52 3d 4a 76 31 3b
       -0.006417182 -0.20469724 0.051301688 0.0027078562
000030 e3 31 7f be 2d e0 a2 3e 73 62 eb 3e c0 84 1e bf
       -0.24921374 0.31811658 0.45973548 -0.6192131
000040 d0 a5 57 bc a1 7c 2c 3f f5 36 87 bd c3 96 0d be
       -0.013162091 0.6737767 -0.06602279 -0.13827042
000050 39 85 b7 3d 4e fe 56 3e 9e fc 36 be d9 71 4a be
       0.08960957 0.20995447 -0.17869803 -0.19769992
000060 be 47 06 be 28 4a e7 3e 7b 87 20 3e 2e 72 85 be
       -0.13113305 0.45173764 0.15676682 -0.26063675
000070 27 32 8b 3e cf 9a c1 be ec 44 8e 3e bf 5f 05 bf
       0.271867 -0.37813422 0.27786958 -0.5209922
000080 63 94 a7 be 71 f3 8b bd d8 23 86 bc fc 5f b2 3d
       -0.32730398 -0.06833542 -0.016374514 0.08709714
000090 d6 af fd bd e8 6f 93 bd 9b 36 51 be 00 ea 34 be
       -0.12387054 -0.07199079 -0.20430987 -0.17667389
0000a0 6a 7a 00 bd 90 36 93 3e 40 29 68 bd e6 26 f8 3d
       -0.031366743 0.28752565 -0.056679964 0.12116794
0000b0 13 33 22 be fc 06 ee 3d 42 98 5b be 7b 9e 16 3f
       -0.15839796 0.11622426 -0.214448 0.5883557
0000c0 86 43 c8 3d 44 f0 11 be b8 90 8f 3e f1 f9 25 be
       0.09778504 -0.1425181 0.280401 -0.16208626
0000d0 4c fb f0 3d 77 05 81 bd e2 a5 24 3d b1 b3 a2 bd
       0.11766681 -0.062998705 0.04019726 -0.0794443
0000e0 ea 7a 69 3c 6a f2 0e 3f 9a 08 41 3d 7a 7b b8 be
       0.014250496 0.55838645 0.047127344 -0.36031705
0000f0 f0 b9 74 3e 64 a3 0b 3e e8 f4 7b 3d 1a d6 10 3d
       0.23899055 0.13636547 0.061512858 0.035360433
000100 a0 f1 90 be da 71 a2 3e c6 f4 e4 3d 0e 07 f9 3c
       -0.28309345 0.31727487 0.11179499 0.030398872
000110 2a b2 95 bd 8a 75 31 ba 7c 04 5d bf 66 1c 14 be
       -0.07309373 -0.0006769529 -0.8633497 -0.14463958
000120 ef 62 74 bd b8 21 c1 be 0b 61 a8 3e 85 16 44 be
       -0.059664663 -0.37721038 0.32886538 -0.19149216
000130 e2 47 16 be 95 92 22 3e 60 95 61 3c c2 39 73 3e
       -0.14675859 0.15876229 0.013768524 0.23752502
000140 45 1e 4c be 0a 09 f7 3d ea 7f 2b be 87 ac ab bd
       -0.19933422 0.12062271 -0.16748014 -0.08382516
000150 1b 37 23 be bd bf 9a be 2e 5b 7f be a3 1c 07 bf
       -0.1593899 -0.3022441 -0.24937126 -0.5277807
000160 e1 e9 c0 bd 4a ea a0 bd e0 da f8 bc 58 77 b6 3e
       -0.09419609 -0.07857187 -0.030377805 0.35637927
000170 8b 65 71 bd d0 39 77 bb c9 43 b2 be 4d 0c 3c 3c
       -0.05893473 -0.0037723668 -0.3481734 0.011477542
000180 6e 2b a8 3d 30 86 cd 3d e9 bd 96 3d 99 d5 9c 3c
       0.082114086 0.1003536 0.07360441 0.01914482
000190 17 39 a3 3c d8 a0 b7 bd 01 32 06 be 70 ef 1a 3e
       0.019924683 -0.089662254 -0.13105012 0.151304
0001a0 4d ed 29 bd e7 7d 1c 3d d0 8b 15 bf a5 b1 6c 3e
       -0.041486073 0.038206007 -0.5841646 0.23114641
0001b0 db 36 39 3d 21 ab 81 3e f1 8b 10 be aa 47 15 3d
       0.04521833 0.25325873 -0.14115883 0.036445297
0001c0 49 c2 9e bc db 33 ef 3e d8 9d a4 3e 94 ec c4 bd
       -0.019379752 0.4671925 0.32151675 -0.09615436
0001d0 6f d7 e4 3d cf f9 a4 3e 08 c4 a1 bd 3b f7 b3 3e
       0.11173903 0.3222184 -0.07898718 0.3514956
0001e0 b5 89 af bd 7e c6 34 3f ea 49 96 bd ee 56 90 bd
       -0.085711874 0.70615375 -0.07338317 -0.070478305
0001f0 27 c7 0c 3f 0b f6 a2 bd 14 e3 8a be 19 e5 17 3e
       0.5499138 -0.07957085 -0.27126372 0.14833488

weight f4 [128, 146]
000000 db 93 00 00 84 88 00 80 7f 94 00 80 26 14 00 80
       5.304e-41 -4.8973e-41 -5.327e-41 -7.228e-42
000010 39 19 00 00 0d 26 00 80 12 b3 00 00 b0 31 00 80
       9.048e-42 -1.365e-41 6.4238e-41 -1.7825e-41
000020 22 11 00 00 0d a9 00 00 b1 49 00 00 f8 90 00 80
       6.146e-42 6.0644e-41 2.6435e-41 -5.2005e-41
000030 07 40 00 00 1b a6 00 00 f8 42 00 00 59 e1 03 00
       2.2969e-41 5.9587e-41 2.4024e-41 3.56346e-40
000040 5a 40 00 80 47 0e 00 80 e1 af 00 00 2a 5e 00 00
       -2.3085e-41 -5.122e-42 6.3093e-41 3.378e-41
000050 c4 a1 00 00 a6 5a 00 00 8f b0 00 00 8c 2b 00 80
       5.803e-41 3.2519e-41 6.3337e-41 -1.5622e-41
000060 1a 93 00 80 5a 71 00 80 74 31 00 00 df 06 00 80
       -5.277e-41 -4.0663e-41 1.774e-41 -2.465e-42
000070 e3 ae 00 80 c3 39 00 80 e9 b0 00 80 cb 58 00 00
       -6.2738e-41 -2.0721e-41 -6.3463e-41 3.1853e-41
000080 90 5f 00 80 17 20 00 80 6f 19 00 80 0a 1a 00 80
       -3.4281e-41 -1.1512e-41 -9.124e-42 -9.341e-42
000090 2d 9f 00 80 e8 9f 00 00 f3 1a 00 00 09 ac 00 00
       -5.7102e-41 5.7364e-41 9.668e-42 6.1715e-41
0000a0 77 80 00 80 83 68 00 80 a5 69 00 00 82 59 00 80
       -4.6085e-41 -3.7492e-41 3.7898e-41 -3.211e-41
0000b0 bd 9b 00 00 da 06 00 00 90 39 00 80 29 ab 00 80
       5.5868e-41 2.458e-42 -2.065e-41 -6.14e-41
0000c0 20 33 00 00 cc 61 00 80 c3 0e 00 00 14 ac 00 80
       1.834e-41 -3.5083e-41 5.296e-42 -6.173e-41
0000d0 71 10 00 00 2c 0b 00 80 ee a2 00 00 c6 21 00 00
       5.898e-42 -4.008e-42 5.8448e-41 1.2116e-41
0000e0 39 61 00 00 d8 b7 03 80 9c 8b 00 00 f4 a6 00 00
       3.4877e-41 -3.41457e-40 5.0082e-41 5.9891e-41
0000f0 61 67 00 00 5f 31 00 00 72 51 00 00 6b b1 00 80
       3.7085e-41 1.7711e-41 2.9217e-41 -6.3646e-41
000100 12 3f 00 00 5a 8f 00 00 fd 28 00 80 3d 75 00 00
       2.2625e-41 5.1425e-41 -1.4704e-41 4.2057e-41
000110 2a a5 00 80 cf 29 00 00 18 cf 55 01 e1 5c 00 00
       -5.925e-41 1.4998e-41 3.9270504e-38 3.3319e-41
000120 4e b1 00 80 82 1c 00 80 4b 9c 00 00 e3 28 00 00
       -6.3605e-41 -1.0227e-41 5.6067e-41 1.4667e-41
000130 a0 0e 00 00 95 99 00 80 54 4b 00 80 f6 88 00 80
       5.246e-42 -5.5095e-41 -2.7023e-41 -4.9132e-41
000140 f3 4e 00 00 6c 57 00 00 b9 1b 00 00 89 67 00 80
       2.8322e-41 3.1361e-41 9.945e-42 -3.7141e-41
000150 92 2d 00 00 e3 26 00 80 fb a8 00 00 a1 6b 00 80
       1.6348e-41 -1.395e-41 6.0619e-41 -3.861e-41
000160 a9 7a 00 80 7c b2 00 00 c5 6f 00 00 47 0c 00 80
       -4.4002e-41 6.4028e-41 4.0095e-41 -4.404e-42
000170 52 89 00 00 d5 10 00 00 f7 42 00 00 59 97 00 00
       4.9261e-41 6.038e-42 2.4022e-41 5.4293e-41
000180 05 27 00 80 8e 93 00 80 a3 97 00 80 0e 95 00 80
       -1.3998e-41 -5.2933e-41 -5.4397e-41 -5.3471e-41
000190 a3 4f 00 00 0c 5e 00 80 7e 06 00 00 4f 95 00 80
       2.8568e-41 -3.3738e-41 2.329e-42 -5.3562e-41
0001a0 70 7c 00 80 c8 5f 00 00 89 25 00 00 b0 ab 00 00
       -4.464e-41 3.436e-41 1.3465e-41 6.159e-41
0001b0 e8 7b 00 00 99 29 00 00 54 80 00 00 7f 7c 00 80
       4.4449e-41 1.4922e-41 4.6035e-41 -4.4661e-41
0001c0 35 20 00 80 22 55 00 00 fa 36 00 00 26 4b 00 80
       -1.1554e-41 3.054e-41 1.9722e-41 -2.6958e-41
0001d0 72 0b 00 00 72 78 00 80 a8 2d 00 80 ba 30 00 00
       4.106e-42 -4.3208e-41 -1.6378e-41 1.748e-41
0001e0 bc 05 00 80 09 5c 00 00 d2 14 00 00 21 13 00 80
       -2.057e-42 3.3016e-41 7.469e-42 -6.862e-42
0001f0 83 68 00 80 07 72 00 00 06 49 00 80 1d 54 00 80
       -3.7492e-41 4.0905e-41 -2.6196e-41 -3.0174e-41
000200 b4 58 3b 83 92 66 00 80 64 67 00 80 21 66 00 80
       -5.5056187e-37 -3.6795e-41 -3.709e-41 -3.6637e-41
000210 cc e9 94 83 54 11 00 80 2a 5a 00 00 4b 9c 00 00
       -8.752335e-37 -6.216e-42 3.2345e-41 5.6067e-41
000220 4f 71 1f 83 4b 41 00 80 f5 6d 00 00 f1 9e 00 80
       -4.6855972e-37 -2.3423e-41 3.9445e-41 -5.7017e-41
000230 21 8b 00 00 a1 82 00 80 2b 3a 00 80 4b 03 00 00
       4.991e-41 -4.6861e-41 -2.0867e-41 1.181e-42
000240 11 60 00 80 7f 97 00 80 d1 d5 52 3a 71 d7 a1 b8
       -3.4462e-41 -5.4347e-41 0.00080427254 -7.717207e-05
000250 0b 3c 2e 3a ea 42 dc 39 5c 6a 61 ba a2 f6 28 ba
       0.00066465203 0.00042011525 -0.00085989176 -0.00064454426
000260 be 5d 25 3a f5 0c 9b 3a 8f 5c b9 39 eb cf 89 3a
       0.0006308219 0.0011829423 0.0003535491 0.0010514235
000270 0f 47 56 bb bc 33 ac ba 6f 37 bf 39 c3 77 69 ba
       -0.0032696163 -0.0013137977 0.0003647166 -0.00089060905
000280 cf f5 69 ba fb 79 37 3a 20 39 eb 39 17 77 21 ba
       -0.0008924873 0.00069990725 0.00044865254 -0.00061594084
000290 75 c6 0c 3b 85 bc 5e 3a 85 1b 8c ba 07 d7 38 ba
       0.0021480594 0.00084967195 -0.0010689354 -0.00070510845
0002a0 64 2b fe 39 5c 7d b4 3a b5 c0 a0 3a 85 4f 37 ba
       0.00048478984 0.001377027 0.0012264462 -0.00069927453
0002b0 cf a1 de b9 a4 5d 25 3a dc 3f 2e ba 1b ec 08 3a
       -0.00042463696 0.0006308204 -0.0006647089 0.0005223171
0002c0 f8 d6 1f ba 0f 10 9f 3a 54 1a 6c 3a fa ff b4 3a
       -0.00060974015 0.0012135523 0.0009006609 0.0013809197
0002d0 0e d2 0e ba e4 2f b4 39 d2 58 14 3a 1d 9b 59 3a
       -0.00054481707 0.00034367957 0.0005658987 0.0008301007
0002e0 fb 15 44 39 9c 08 81 3a bc 38 27 bb d5 47 86 ba
       0.00018700205 0.0009844485 -0.0025515994 -0.0010244796
0002f0 8e ea 86 39 76 1e 83 ba 8b 50 1b 3a 89 51 51 3a
       0.00025733229 -0.0010003585 0.00059247826 0.0007984867
000300 34 55 c5 3a 40 7c 5b ba 8a 20 64 ba 09 ea d3 ba
       0.00150553 -0.00083727017 -0.00087023585 -0.001616777
000310 a1 e8 51 ba a8 e4 3b 3a d2 6a b8 b9 d1 41 24 3a
       -0.00080073817 0.00071675563 -0.00035174802 0.0006265911
000320 2a 69 16 3a 0f e5 8d 3a 66 b8 94 3b 48 39 49 ba
       0.00057377166 0.0010825711 0.0045385836 -0.0007676077
000330 1d d0 a0 3a 23 9a 93 3a 56 69 ae ba c4 07 ad ba
       0.0012269054 0.0011261146 -0.0013306539 -0.0013201167
000340 f4 d6 a1 3a 48 f2 5e 3a 9b 1a 93 3a dd 82 1f ba
       0.0012347386 0.00085047306 0.0011223139 -0.0006084869
000350 03 52 08 ba 7f 75 2c ba bb f1 37 3a 7b 4b 67 bb
       -0.0005200209 -0.00065787876 0.00070169166 -0.0035292793
000360 eb 80 1d 3a 17 3a 03 3a dd 48 31 3a 9a b8 60 3a
       0.0006008285 0.00050059095 0.00067628716 0.00085724297
000370 e2 c5 7a ba 40 f5 85 3a bc d0 14 3a 90 94 28 bb
       -0.000956623 0.0010220185 0.0005676856 -0.0025723316
000380 05 0d 01 ba fa 35 3f ba 41 c5 62 3a de 52 ca 39
       -0.00049228995 -0.0007294115 0.0008650609 0.00038590183
000390 c2 ce b8 3a 11 dc a6 b8 40 d7 ba 3a 12 6c 46 3a
       0.0014099705 -7.9564874e-05 0.0014254823 0.00075692043
0003a0 f6 75 8b 3a 5a 08 45 3a 9d 24 09 3a c8 3b c7 3a
       0.0010640013 0.0007516198 0.0005231591 0.0015200311
0003b0 2f 8a 92 b9 f6 26 8c ba 8c 46 d0 3a 81 c7 ff b9
       -0.00027950245 -0.0010692764 0.0015890165 -0.00048786032
0003c0 bc dd 69 3a a5 2e 0d 3a a7 eb 65 bb cd 49 1d ba
       0.00089212856 0.0005385674 -0.0035083087 -0.0006000072
0003d0 59 2b 0c ba e0 05 8e ba 99 56 ad ba 80 dd b3 3b
       -0.00053470355 -0.0010835491 -0.0013224661 0.0054890513
0003e0 02 29 82 3a 1f 35 5a ba 07 34 a0 3a e7 2f e5 ba
       0.0009930434 -0.00083239557 0.0012222537 -0.001748559
0003f0 20 be 2c 3a d5 41 82 ba 37 f9 f9 b9 a0 42 a2 ba
       0.000658961 -0.0009937832 -0.0004767866 -0.0012379475

bias f4 [128]
000000 77 9a 00 80 27 1a 51 ba e9 3b f7 38 b7 b4 a6 b9
       -5.5412e-41 -0.0007976614 0.00011789037 -0.0003179663
000010 a0 18 00 00 4c cc 98 b9 18 d0 80 39 8c fd 61 b7
       8.834e-42 -0.00029143912 0.00024569104 -1.3470079e-05
000020 71 75 30 b8 3c 0a 01 bb 49 ee 6c b7 f9 5c a2 ba
       -4.2071046e-05 -0.0019689938 -1.4122176e-05 -0.0012387327
000030 e2 9f 65 b6 c2 7c 58 3a 3d 2d 2d ba 17 34 2b b9
       -3.4216723e-06 0.00082583365 -0.00066061673 -0.00016327236
000040 76 62 48 bb 21 85 1d bb 72 ea e7 39 88 77 4e ba
       -0.0030576265 -0.002403565 0.0004423443 -0.0007876088
000050 a5 4d 02 bb 47 2c 8a b9 3d e3 93 b9 c9 8b fd ba
       -0.0019882706 -0.000263544 -0.0002820733 -0.0019344027
000060 32 71 0e bb 23 97 b1 ba 5e 68 1a ba fb 0d c4 99
       -0.002173495 -0.001354907 -0.0005890186 -2.0271572e-23
000070 7a 3d 42 39 d6 26 b1 b7 77 72 74 99 47 ed 23 b8
       0.00018524184 -2.1118129e-05 -1.263762e-23 -3.908321e-05
000080 f1 ad 30 ba 61 e3 bc b9 57 1c 98 98 a9 b6 14 bb
       -0.00067397865 -0.00036027565 -3.9319695e-24 -0.0022691882
000090 fe ef 0f 3b d1 05 82 b8 14 90 ea b9 87 07 1b b9
       0.0021963115 -6.1999664e-05 -0.00044739305 -0.00014784756
0000a0 67 7c a0 39 dd 1e 04 bb 3d 83 82 3a 14 33 c6 38
       0.00030610265 -0.0020159998 0.0009957325 9.45089e-05
0000b0 85 11 73 ba 8d 17 07 b9 33 f1 ec b6 16 9d ac b8
       -0.0009272325 -0.00012883377 -7.0614274e-06 -8.230859e-05
0000c0 8f 90 89 38 03 42 11 ba f4 52 28 ba 81 71 19 b9
       6.559595e-05 -0.00055411475 -0.00064210524 -0.000146335
0000d0 6c 6d 36 38 2c 72 3c 39 1b 96 19 bb b1 d0 9c b8
       4.349409e-05 0.0001797161 -0.0023435417 -7.4775315e-05
0000e0 4c 16 5c 3a 47 27 1d 38 a7 fa 6c ba 13 96 b2 b9
       0.00083956565 3.7468297e-05 -0.00090400357 -0.0003406262
0000f0 93 20 00 00 52 1a f8 38 a7 ec c9 38 2a 68 62 ba
       1.1685e-41 0.00011830464 9.628507e-05 -0.00086367375
000100 d4 e8 d3 b8 70 2b 6c 39 52 0b c0 ba 49 ff a4 39
       -0.00010104632 0.00022522896 -0.0014651811 0.0003147072
000110 24 b6 b8 b9 f1 6c d4 b3 8f 28 3e 3a 71 2c 44 ba
       -0.0003523092 -9.8918356e-08 0.00072539685 -0.0007483429
000120 05 36 05 b8 ec c0 89 3b be 61 b7 b8 2d fd a9 b9
       -3.175998e-05 0.0042039063 -8.744326e-05 -0.00032422823
000130 a5 fc e6 a6 81 7c 6b b8 22 84 4e 37 5c 0e 82 b8
       -1.6027935e-15 -5.614432e-05 1.2309321e-05 -6.201558e-05
000140 b4 83 62 b8 6b 61 8d b9 f6 6d 8c ba 28 aa d8 38
       -5.4005257e-05 -0.00026966198 -0.0010713923 0.00010331377
000150 14 58 ba ba 67 74 9c b8 a7 fe 16 ba 34 af 8d b8
       -0.0014216923 -7.460341e-05 -0.0005759992 -6.756038e-05
000160 dd 10 07 b8 42 eb 98 b8 10 d2 f2 80 30 16 6b b9
       -3.2202213e-05 -7.291745e-05 -2.2299546e-38 -0.00022419612
000170 e5 79 8a b8 98 0a 46 b8 38 65 ce ba 0b c7 74 90
       -6.6030574e-05 -4.7216745e-05 -0.0015746718 -4.8273852e-29
000180 cb 79 40 b9 a2 66 72 ba da 31 a7 39 aa 55 65 b8
       -0.00018355918 -0.0009246861 0.00031889864 -5.4677635e-05
000190 fe f6 42 38 50 ed ef ae 47 08 26 bb a2 88 7d ba
       4.6483234e-05 -1.0910617e-10 -0.0025334524 -0.0009671544
0001a0 68 99 e2 b9 5d bd e5 39 4d e1 3f b9 ba 8f 43 b7
       -0.00043220376 0.0004381937 -0.0001829911 -1.165637e-05
0001b0 c8 40 8f 39 8d a0 9a 38 63 30 4b b8 9e e4 9d 38
       0.0002732335 7.373197e-05 -4.8444035e-05 7.528927e-05
0001c0 e5 e5 bd b9 c7 bb 0d b8 01 c7 de 39 fb a1 3d b8
       -0.00036220174 -3.37919e-05 0.0004249141 -4.5211968e-05
0001d0 91 6c b0 ba 0f ad 93 b8 ee 3f 05 b8 23 78 24 bb
       -0.001346009 -7.041741e-05 -3.176921e-05 -0.002509602
0001e0 9d 59 3f b9 36 5b f0 ba 0d 02 00 80 14 58 77 aa
       -0.00018248563 -0.001833773 -7.36e-43 -2.1968565e-13
0001f0 8a a1 f9 ab c6 21 19 38 7e 75 ca b8 00 e0 ba b9
       -1.773735e-12 3.6509497e-05 -9.653995e-05 -0.00035643578

weight f4 [19, 128]
000000 ee aa 00 80 19 4a 1e bb cd 04 63 b8 6c 2b fb b9
       -6.1318e-41 -0.0024153052 -5.412549e-05 -0.00047906803
000010 4c 30 09 80 8c 9e 99 3a c5 ba 1c 39 d5 fd 33 ba
       -8.43845e-40 0.0011720224 0.00014946896 -0.0006866132
000020 12 9f 86 b8 98 be 31 3d 92 34 d1 ba fa 69 98 b9
       -6.419247e-05 0.043394655 -0.0015961102 -0.00029070658
000030 5e d1 8b b8 e1 69 31 3b 5b bb e0 b9 29 b3 84 ba
       -6.667034e-05 0.0027071165 -0.000428642 -0.0010124195
000040 ce e3 b8 bb e2 57 92 b9 87 cc 8f ba ab 9a e9 b9
       -0.005642391 -0.00027912768 -0.0010970988 -0.0004455646
000050 53 69 50 bc 9a 0b 49 b9 b2 c6 d4 ba 21 41 5f 39
       -0.012720424 -0.00019173176 -0.0016233532 0.000212912
000060 fc 8b 55 bb f6 55 b0 b8 09 f2 e2 3c 43 2a 05 a7
       -0.0032584658 -8.4083455e-05 0.027703302 -1.8480368e-15
000070 fc 8f 53 ba f6 2c 05 b8 8f e1 0c 1e ea 04 a9 37
       -0.00080704666 -3.1751544e-05 7.458183e-21 2.0148658e-05
000080 a6 36 3a bb e1 c1 b7 b8 20 e6 c1 b7 e9 86 ab 39
       -0.002841392 -8.762233e-05 -2.3114553e-05 0.00032716178
000090 a3 58 17 3b 8e 19 ea ba 97 c6 8e 3c b6 8c b7 bb
       0.0023093603 -0.0017860399 0.01742868 -0.005601491
0000a0 25 d9 c0 ba 3a 87 62 3a db f5 45 37 5f 0d 4c ba
       -0.0014713152 0.0008641366 1.1799358e-05 -0.0007783975
0000b0 3a d8 ec bc 3d 8d 92 ba 25 a5 63 b7 dc f7 8d b9
       -0.028911699 -0.0011181008 -1.3568705e-05 -0.00027078285
0000c0 8a 4b d4 b9 7b 83 0b 3b 4d 35 ef b8 18 20 35 39
       -0.00040492072 0.0021288085 -0.00011406336 0.00017273461
0000d0 0d 83 e0 38 c8 8f 06 3a c0 7f e1 ba 93 a4 97 b5
       0.000107055625 0.00051331194 -0.001720421 -1.1298274e-06
0000e0 d5 b2 ce 3a d3 84 81 b9 05 d4 3d ba c8 7f 92 ba
       0.0015769849 -0.0002470376 -0.0007241371 -0.0011176998
0000f0 6e 32 47 2e f1 6c e0 b8 f0 39 6b b8 6e d0 61 ba
       4.5292152e-11 -0.00010701444 -5.6082325e-05 -0.00086141273
000100 d4 1a 24 3a e3 27 1a b9 a1 56 9c ba 83 72 5f 39
       0.0006260101 -0.00014701443 -0.0011927673 0.00021309596
000110 9d 20 d8 ba 77 7c 99 b7 15 ec 8a b9 1b da bc b9
       -0.0016489212 -1.829698e-05 -0.00026497306 -0.00036020656
000120 75 ca d3 b7 8a 42 d5 3b 25 76 04 3a 68 f0 33 39
       -2.5247436e-05 0.006508176 0.00050530053 0.00017160329
000130 a6 eb ce b6 2f b1 60 37 f6 1c 8f 39 7e 71 e5 ba
       -6.1667115e-06 1.3392694e-05 0.00027296663 -0.0017505137
000140 44 9b 4b 39 d0 18 a8 ba d7 94 fc 39 f4 1e 60 b9
       0.0001941743 -0.0012824778 0.0004817608 -0.00021373836
000150 fd d7 7f ba c8 59 e5 b8 b2 3e 46 ba ba b6 0e bb
       -0.0009759663 -0.00010936294 -0.0007562443 -0.0021776394
000160 8d 21 42 38 ca 5a 4e b8 c7 cb a4 06 ad d0 72 39
       4.628445e-05 -4.919878e-05 6.198937e-35 0.00023156656
000170 2d 76 09 b9 b7 56 90 ba e0 36 d9 ba 68 8c e1 12
       -0.00013109362 -0.0011012171 -0.001657214 1.4234109e-27
000180 75 69 01 39 11 90 9e ba 79 7d 86 ba a6 b7 46 b8
       0.00012341684 -0.0012097378 -0.0010260782 -4.7377915e-05
000190 8b a3 c5 38 12 32 ea b7 2b b7 e1 3a 59 12 54 39
       9.424154e-05 -2.791829e-05 0.0017220726 0.0002022473
0001a0 bd 9e 6d b9 74 ae 6e 38 c4 4c 83 38 bf 19 fa b6
       -0.00022661216 5.6906094e-05 6.2608655e-05 -7.453578e-06
0001b0 89 41 16 3a df 97 b4 b8 fc c4 98 ba 9a 1f 17 39
       0.00057318114 -8.611357e-05 -0.0011655386 0.00014412255
0001c0 d6 4f 47 ba d9 5a 36 3a 85 c8 d0 39 06 bb 74 b8
       -0.0007603144 0.00069562864 0.0003982225 -5.8348312e-05
0001d0 18 37 1e bc 66 64 74 b9 b4 f7 be 39 fb ce c2 ba
       -0.00965669 -0.00023307055 0.00036424177 -0.001486271
0001e0 b6 cb 94 38 e4 68 12 3c 6c 54 bb 97 c4 b3 e1 b6
       7.095134e-05 0.008936141 -1.2105903e-24 -6.72645e-06
0001f0 6a 47 6c 37 a2 e7 70 b9 6b 0f 95 39 c9 92 1c bc
       1.4083324e-05 -0.00022974474 0.00028430982 -0.009556481
000200 ee 98 00 00 ef 13 46 3c f7 ff 1b b9 a4 9d da 38
       5.4861e-41 0.0120897135 -0.00014877306 0.00010424413
000210 e0 83 00 00 db 08 23 3a 26 e6 ca b8 13 f2 ba b8
       4.7308e-41 0.0006219276 -9.674979e-05 -8.914261e-05
000220 40 c3 69 b7 84 4e 8a ba de 9e 5f 37 fa bb 09 3c
       -1.3933342e-05 -0.0010551964 1.3328825e-05 0.0084066335
000230 12 c5 5c 38 9f e3 9e b8 6a 5b 37 ba 57 6b 0c 3a
       5.2635623e-05 -7.576425e-05 -0.0006994518 0.0005356571
000240 2d ad 60 39 87 dc 9a b9 85 fc 3e b9 02 dd 6d 3a
       0.00021426818 -0.00029537475 -0.00018213883 0.0009073765
000250 af 09 a7 b9 2f c3 cb ba c0 15 7f 39 f4 55 66 3b
       -0.00031859937 -0.001554584 0.00024326798 0.0035146447
000260 76 89 44 3a 0b 6a a3 bb 3d aa 63 39 06 02 00 00
       0.000749729 -0.0049870065 0.00021711826 7.26e-43
000270 12 80 d0 39 35 43 11 b7 c3 34 94 1b b9 d3 8f b8
       0.0003976827 -8.658321e-06 2.4518643e-22 -6.858208e-05
000280 44 60 83 b9 8e a8 82 39 ce 72 23 b1 6d 04 b0 ba
       -0.0002505799 0.00024921115 -2.378488e-09 -0.0013429053
000290 aa 7c 32 39 00 6d cb 37 48 46 ce 37 a1 bf 2a 3a
       0.00017021844 2.4250243e-05 2.458984e-05 0.000651354
0002a0 03 b3 2b 39 16 73 ff b9 21 a5 c0 ba 53 7a 64 ba
       0.00016374518 -0.00048723136 -0.001469765 -0.00087157375
0002b0 02 17 84 b9 c1 ea 7a ba 26 14 b5 b7 f5 df b3 39
       -0.00025194144 -0.0009571724 -2.1586264e-05 0.00034308402
0002c0 28 3d a4 b9 ba 8c fb 39 10 f1 93 ba 0b ac 00 39
       -0.00031326083 0.000479793 -0.0011287052 0.00012271122
0002d0 10 b9 8c 38 30 c4 71 3a dc 2a 06 ba 44 ef 56 3a
       6.710191e-05 0.00092226546 -0.0005118081 0.00081991055
0002e0 8d 2d 00 39 54 fb 3a 3a 93 d0 60 39 fc 22 6d 38
       0.00012224 0.0007132788 0.00021440005 5.6537785e-05
0002f0 72 64 6f 8f e9 fb f4 b9 6d bc 65 b9 31 ae f2 b8
       -1.1802955e-29 -0.00046726994 -0.00021909336 -0.00011571905
000300 e9 36 8f 39 78 cc df ba 29 ac 9b b9 80 72 5f 3a
       0.00027315997 -0.0017074486 -0.00029692173 0.0008523837
000310 63 a5 24 b8 95 4d 12 2f db 80 df 38 17 b2 1c b9
       -3.9254675e-05 1.3306185e-10 0.0001065747 -0.00014943663
000320 93 0b 05 38 22 89 cc ba 6e d0 f6 39 f4 eb f7 b9
       3.172045e-05 -0.0015604834 0.0004707607 -0.0004728731
000330 02 ed 83 2c 47 f2 ba b8 39 85 91 3a 04 a9 00 3a
       3.749557e-12 -8.914299e-05 0.0011102326 0.0004907998
000340 ba d6 32 b9 9a e4 01 b9 67 38 c0 ba 29 f3 8b b8
       -0.00017055395 -0.0001238756 -0.0014665247 -6.6733286e-05
000350 91 1b a2 bb a5 13 95 39 42 0b de 39 33 b4 32 ba
       -0.004947134 0.0002843413 0.00042351527 -0.0006817013
000360 3b 49 44 b8 19 6c 92 37 34 b7 03 84 b4 c4 9b b7
       -4.6798243e-05 1.7454893e-05 -1.5483099e-36 -1.8569037e-05
000370 89 27 66 b8 ac cf 5d 39 9a 6c b6 3a fa 06 2c 8f
       -5.4873093e-05 0.00021153566 0.0013917864 -8.481598e-30
000380 85 49 63 39 02 bc 08 ba f9 3b 96 39 71 1b 96 37
       0.00021675795 -0.00052160036 0.00028654913 1.7894172e-05
000390 fa 40 8e 3a 91 87 ba 37 43 d5 ba 3a 08 19 17 3b
       0.0010853105 2.2236056e-05 0.0014254231 0.0023055691
0003a0 e1 d3 5f 3b 33 1a 8f b8 b4 ee 25 3a b2 3b 3e b8
       0.003415339 -6.823651e-05 0.000632982 -4.5355126e-05
0003b0 47 d3 84 3a 2c d5 2c 39 da af d7 38 43 68 a2 ba
       0.0010133766 0.00016482611 0.00010284754 -0.0012390692
0003c0 6a cc 38 3a d8 4d 1a b7 d5 f2 86 39 d7 e2 ec b2
       0.0007049503 -9.19724e-06 0.00025739396 -2.757717e-08
0003d0 85 61 b0 ba 44 59 7c 39 df 94 02 39 fc 02 3a 3a
       -0.0013456797 0.00024065847 0.00012453225 0.00070957816
0003e0 88 fc 34 3a 5e 15 ea 39 ed 4b 00 00 f8 72 95 2a
       0.0006904085 0.00044647878 2.7237e-41 2.6547493e-13
0003f0 60 1f 6d 24 a8 71 8a b7 49 38 17 3a be af ae 39
       5.141776e-17 -1.6503807e-05 0.000576858 0.00033318804

bias f4 [19]
000000 01 de ac 3e a4 14 f3 3b 95 8f bf bb b6 70 bc bb
       0.33763126 0.007418232 -0.0058459737 -0.005750741
000010 d1 06 a6 3e ab 12 5e bb c3 23 db 3b 4b 8b c5 3b
       0.32427076 -0.0033885639 0.0066876127 0.006028568
000020 a6 e9 a5 3e 2a c8 9a 3e e8 d0 29 bb 94 76 35 b8
       0.32404822 0.30230838 -0.0025911871 -4.3264197e-05
000030 ad e6 44 3b ce 06 9a 3e 99 e2 a4 3b b2 48 51 b7
       0.003004472 0.30083317 0.0050318954 -1.2474296e-05
000040 cc 9c b3 bb 19 57 9a 3e 27 06 3e 3e
       -0.005481338 0.30144575 0.18557034
