models/TEV/H/model0.pt (torch, 422913 bytes, 12 tensors)

weight f4 [128, 384]
-0.013540845 -0.05289831 -0.00086994004 0.015372225 -0.038977224 -0.025863389 -0.019221388 -0.0028281328
-0.020768847 -0.0006830988 0.0022131791 0.0012728992 0.039345652 -0.017879918 -0.023798889 -0.0024631412
0.021481726 0.053040873 0.005162705 0.042374957 0.047565117 -0.0937034 -0.013158367 0.020493759
-0.046564676 0.021329632 -0.019383073 -0.0077512986 0.015576802 -0.011618967 -0.01079473 -0.0018415332
0.03309976 -0.06204401 0.011310186 0.026214415 -0.020603862 -0.0090989815 0.018327257 0.023345804
-0.0067439764 0.056953743 0.06824707 0.054832507 0.04371404 0.021165606 0.0015809092 0.002709155
-0.03707666 0.04657878 0.01578879 -0.03519714 -0.028516525 0.0054463516 0.03912629 0.0022679816
0.034950458 0.037797548 -0.0049413703 0.032160636 0.004740718 0.0089867385 0.008703513 -0.00069764245
2.7669168e-05 0.00044430053 0.001184213 0.0016179112 -0.0008754938 -0.001467572 -0.00019232863 -6.5769826e-05
-0.0061387657 -0.029441154 -0.03586619 0.0023362685 0.0015072691 -0.002230833 0.013697628 -0.005255452
-0.00896809 -0.024294352 -0.012222186 0.014202173 0.066335596 0.032531198 0.011226966 0.01116688
0.004248129 0.017306626 0.009653632 -0.012954085 -0.006156166 -0.0015200127 0.0018881111 0.00348656
-0.006905528 -0.007849069 -0.0027033694 -0.022254877 -0.017836621 -0.009702981 -0.00713588 -0.0007319698
0.020742077 0.04171404 -0.04582893 -0.0038387992 0.0064650513 -0.02110633 -0.027831702 -0.0011109551
0.026263066 -0.004362396 -0.02690527 -0.02244942 -0.070803374 -0.026236786 0.002560805 0.00014186207
0.004307162 0.0019524392 -0.00091969484 0.014737656 0.025249397 0.011256195 0.006659668 0.002575275
-0.0023721638 0.012780056 0.022860087 0.002078039 -0.0022043777 -0.006966782 -0.0024289265 -1.5440495e-05
0.040432736 0.0077040633 0.019719357 0.008974794 0.00873759 0.0017641162 -0.002266626 -0.0005368649
0.03990077 0.016322177 0.0011235832 0.03219379 -0.023111396 -0.028112108 -0.011070865 0.00086633116
0.0068682795 0.0006840968 -0.0065226634 -0.0011195785 -0.0050991923 0.0005689371 -0.001921919 -0.000119752
-0.009907159 -0.017337095 -0.0077710203 -0.008332503 -0.007809017 0.0017905841 -0.00159167 -0.003184466
-0.0075038844 -0.046351165 -0.0399211 -0.025699325 0.025702817 0.025349552 -0.007836864 0.00050860626
-0.003793374 -0.043984197 0.007360831 0.06350695 -0.011140045 0.03537949 0.006786959 -0.0012358701
0.011364943 0.017947892 0.007774978 0.003016877 -0.0076523675 -0.0059343874 -0.0020034597 -0.0004397631
0.002182479 0.0025281513 -0.0051150406 -0.009794483 -0.00045201438 -0.00066107314 -0.00055440824 -1.32615705e-08
0.024011487 0.0152700925 0.011820327 -0.029360993 0.006490121 -0.00059916824 -0.0008977801 -0.00016338356
0.005726379 -0.025820637 -0.031952303 -0.0022774902 0.043917473 0.020666495 0.002534806 8.391458e-05
0.009887749 0.008979186 -0.010090109 -0.0048024626 0.0076672877 0.0049795 0.0019376773 0.00047336126
0.0024239284 -0.00082227506 -0.0058411243 0.0028005028 0.0047311224 0.0008990073 -0.0002631499 -6.659046e-05
-0.008116934 -0.00470094 0.017221546 -0.028614663 -0.017823558 0.00033408846 0.000112344824 -0.00067090895
0.006781186 0.024484681 0.012697368 -0.029170224 -0.02801183 -0.017367078 -0.0042717485 -0.00029977146
-0.0071721966 -0.0037642296 -0.00573182 -0.0039545433 0.0013112553 -0.0008708376 -0.0005711392 -0.00011731586
00000000: 6cda 5dbc e6ab 58bd b00c 64ba c9db 7b3c
00000010: 95a6 1fbd 75df d3bc 2c76 9dbc 3258 39bb
00000020: 6e23 aabc fc11 33ba fc0a 113b 69d7 a63a
00000030: e828 213d e878 92bc e3f5 c2bc a76c 21bb
00000040: 72fa af3c 6341 593d e92b a93b 5d91 2d3d
00000050: a4d3 423d 91e7 bfbd 3196 57bc 87e2 a73c
00000060: 9aba 3ebd 7bbb ae3c 40c9 9ebc 9bfe fdbb
00000070: d835 7f3c 7b5d 3ebc 61dc 30bc 9a5f f1ba
00000080: 9d93 073d dc21 7ebd 5c4e 393c 9dbf d63c
00000090: 6ec9 a8bc e513 15bc 0b23 963c b33f bf3c
000000a0: 93fc dcbb 5448 693d 1fc5 8b3d 0d98 603d
000000b0: 7e0d 333d 7e63 ad3c 8336 cf3a 148c 313b
000000c0: b2dd 17bd 64c9 3e3d 7e57 813c e02a 10bd
000000d0: 7d9b e9bc 4f77 b23b e342 203d 6ba2 143b
000000e0: 3628 0f3d 9ad1 1a3d 38eb a1bb dfba 033d
000000f0: 0658 9b3b 1d3d 133c 2e99 0e3c fee1 36ba
00000100: 161b e837 02f1 e839 9837 9b3a 1710 d43a
00000110: 6581 65ba 8b5b c0ba d3ab 49b9 e8ed 89b8
00000120: b327 c9bb 932e f1bc 6de8 12bd 151c 193b
00000130: 8f8f c53a 2b33 12bb 046c 603c ed35 acbb
00000140: e5ee 12bc f304 c7bc 903f 48bc 3bb0 683c
00000150: f5da 873d 6f3f 053d 4ff1 373c 4af5 363c
00000160: e433 8b3b a0c6 8d3c 442a 1e3c 5f3d 54bc
00000170: aab9 c9bb 2a3b c7ba 7f7a f73a c57e 643b
00000180: c447 e2bb 6299 00bc 032b 31bb dc4f b6bc
00000190: 1b1e 92bc 41f9 1ebc 1ad4 e9bb a9e1 3fba
000001a0: 4aeb a93c 57dc 2a3d 1eb7 3bbd 5d94 7bbb
000001b0: c8d8 d33b 2fe7 acbc 4fff e3bc 789d 91ba
000001c0: a425 d73c 6ef2 8ebb 7168 dcbc d9e7 b7bc
000001d0: 5c01 91bd 87ee d6bc 2ed3 273b cfc0 1439
000001e0: 1823 8d3b fde8 ff3a ad17 71ba 3676 713c
000001f0: d3d7 ce3c e76b 383c 5839 da3b f2c5 283b
00000200: 4e76 1bbb 7163 513c 1445 bb3c b62f 083b
00000210: 5277 10bb 9a49 e4bb a02e 1fbb 3686 81b7
00000220: cc9c 253d 5e72 fc3b 7d8a a13c 040b 133c
00000230: 1c28 0f3c eb39 e73a ad8b 14bb 65bc 0cba
00000240: fd6e 233d 16b6 853c 3245 933a a3dd 033d
00000250: 1c54 bdbc 5d4b e6bc 9362 35bc 801a 633a
00000260: 4e0f e13b f654 333a 11bc d5bb d2be 92ba
00000270: 2017 a7bb b924 153a e7e8 fbba 5e23 fbb8
00000280: a351 22bc 8606 8ebc 0ba4 febb 0d85 08bc
00000290: c8e2 ffbb 08b2 ea3a 959f d0ba 79b2 50bb
000002a0: 25e3 f5bb b8da 3dbd 4f84 23bd 6487 d2bc
000002b0: b78e d23c dda9 cf3c 3166 00bc fd53 053a
000002c0: 419a 78bb c628 34bd 2033 f13b ef0f 823d
000002d0: bc84 36bc 16ea 103d 2365 de3b ebfc a1ba
000002e0: 0734 3a3c 7507 933c 3ec5 fe3b ccb6 453b
000002f0: b6c0 fabb 4075 c2bb 7a4c 03bb 0190 e6b9
00000300: ec07 0f3b 57af 253b 129c a7bb 0a79 20bc
00000310: 58fc ecb9 de4b 2dba b555 11ba 01d5 63b2
00000320: bdb3 c43c 692f 7a3c 0baa 413c 7786 f0bc
00000330: 15ab d43b 8011 1dba 0159 6bba f151 2bb9
00000340: 59a4 bb3b cd85 d3bc 6be0 02bd f241 15bb
00000350: cfe2 333d c84c a93c fd1e 263b 4cfb af38
00000360: 3a00 223c 701d 133c fc50 25bc fa5d 9dbb
00000370: df3d fb3b 132b a33b a9f9 fd3a 792d f839
00000380: c5da 1e3b f28d 57ba e766 bfbb a488 373b
00000390: 8807 9b3b 5cab 6b3a 62f7 89b9 7ba6 8bb8
000003a0: e4fc 04bc 580a 9abb 3314 8d3c 4c69 eabc
000003b0: b602 92bc 9828 af39 ab9a eb38 f0df 2fba
000003c0: b634 de3b 1994 c83c 9f08 503c 65f6 eebc
000003d0: 1179 e5bc 6745 8ebc 06fa 8bbb a52a 9db9
000003e0: bf04 ebbb 4bb1 76bb fed1 bbbb 1d95 81bb
000003f0: 6dde ab3a ec48 64ba 81b8 15ba 7907 f6b8

bias f4 [128]
-0.02521708 -0.025639188 0.0012753895 -0.046435885 -2.8536265e-06 -1.319875e-07 -0.050297696 -0.083368
-2.2000658e-34 -0.07582791 -0.027558744 -0.0006850547 0.008528304 -0.028762734 -0.052196804 -0.0628585
0.043889474 -0.09157439 -0.07245163 0.064664684 -0.05239671 0.030103328 -0.00040641465 0.028185584
-0.004112339 -0.12210868 -0.00023272562 0.03963373 0.016879413 -5.617693e-05 0.0032112633 -3.0839372e-05
-0.10588387 0.020288657 0.037548356 0.005671194 0.033365536 0.049191914 -0.04883943 -1.1719845e-22
0.032485187 0.025931338 -0.056078993 0.049385708 -1.0178383e-14 -0.012009212 0.00184442 0.041642852
-0.09006413 -3.629697e-07 -0.08441027 -0.05630495 -0.001458154 -0.023625309 -2.5537146e-09 0.004756725
0.018225988 -0.0006217701 -0.093442544 -0.04635289 -0.042472515 -0.026960136 -0.022103755 0.057850443
-0.09193993 -0.07085071 -0.08379324 -0.07904723 0.04896991 -0.021229753 -4.1815787e-07 -0.08191392
-0.02880097 -3.9601784e-09 0.040507156 -0.103184275 -7.399463e-13 0.04403322 -0.08222909 0.019627282
-0.035707068 -2.6710512e-10 -4.4899436e-19 -0.049347844 0.022000331 -0.05963465 -2.3497848e-09 -0.113112174
-0.0626983 0.03531028 -0.10319665 -0.038893305 -0.064297706 -0.03428716 -0.03789002 -0.06757126
-0.057772912 0.0023815716 -1.9464126e-12 -0.0884603 0.00082377804 -0.01406411 -0.13375741 -0.004971797
-0.001150227 0.040682986 -2.7052152e-05 0.015217195 -1.6205158e-22 -0.074879415 0.025569974 -0.068344824
-5.161139e-35 -0.09161361 -1.6023499e-18 -0.02755636 -0.14680363 -6.024304e-25 -6.2523895e-29 -0.05621927
-0.06612261 -1.9627087e-19 -0.02457706 -0.090059645 -0.077968545 0.045680776 -0.013027498 -0.0824332
00000000: 0d94 cebc 4609 d2bc f82a a73a 8e33 3ebd
00000010: ee80 3fb6 73b8 0db4 f504 4ebd d8bc aabd
00000020: 2e38 9287 aa4b 9bbd e0c2 e1bc 3e95 33ba
00000030: 4dba 0b3c d39f ebbc 51cc 55bd f5bb 80bd
00000040: 73c5 333d 5b8b bbbd 8561 94bd eb6e 843d
00000050: ef9d 56bd 419b f63c 0d14 d5b9 74e5 e63c
00000060: cdc0 86bb 1e14 fabd cf07 74b9 fa56 223d
00000070: b246 8a3c 859f 6bb8 0f74 523b 8659 01b8
00000080: a4d9 d8bd 6634 a63c 4ecc 193d 6cd5 b93b
00000090: 4daa 083d 767d 493d db0b 48bd 2aaf 0d9b
000000a0: 300f 053d f56d d43c 16b3 65bd ab48 4a3d
000000b0: 825b 37a8 49c2 44bc 77c0 f13a b291 2a3d
000000c0: 8b73 b8bd 2dde c2b4 4bdf acbd 05a0 66bd
000000d0: 871f bfba dd89 c1bc 6c7d 2fb1 4dde 9b3b
000000e0: ab4e 953c 49fe 22ba ce5e bfbd 87dc 3dbd
000000f0: a9f7 2dbd 81db dcbc ef12 b5bc 96f4 6c3d
00000100: 014b bcbd 2d1a 91bd ca9b abbd 84e3 a1bd
00000110: ac94 483d 05ea adbc 2e7f e0b4 7cc2 a7bd
00000120: 03f0 ebbc 1912 88b1 d5ea 253d 4752 d3bd
00000130: c046 50ab 2d5c 343d ba67 a8bd 65c9 a03c
00000140: 9341 12bd b4d7 92af 0e85 04a1 f720 4abd
00000150: 0a3a b43c 7643 74bd da79 21b1 5ba7 e7bd
00000160: f767 80bd 83a1 103d c458 d3bd 964e 1fbd
00000170: 84ae 83bd b170 0cbd 9132 1bbd cd62 8abd
00000180: 4aa3 6cbd 2414 1c3b 74f7 08ac ac2a b5bd
00000190: cff2 573a 276d 66bc b4f7 08be 75ea a2bb
000001a0: 37c3 96ba 34a3 263d 0eee e2b7 8b51 793c
000001b0: 89e8 439b 615a 99bd 1f78 d13c 5ff8 8bbd
000001c0: e434 8986 eb9f bbbd 1177 eca1 e0bd e1bc
000001d0: b153 16be 7471 3a97 5484 9e90 2d46 66bd
000001e0: 4a6b 87bd 3bb7 67a0 d555 c9bc 3171 b8bd
000001f0: f9ad 9fbd c41b 3b3d 4971 55bc bdd2 a8bd

weight f4 [128, 128]
-5.0884388e-05 -5.4648e-06 -1.8415294e-05 -0.00013391854 8.7099e-41 2.14735e-40 3.0204948e-05 4.0017298e-05
-1.3863e-41 -3.2636664e-05 0.000108359214 1.7428765e-05 -2.6720416e-05 1.7727558e-05 6.579892e-05 -1.379627e-05
2.724663e-06 2.1855989e-05 -8.472775e-05 -1.3674464e-05 -8.000995e-05 -4.382777e-05 1.11262e-40 -0.00016355148
0.00010904658 -3.4189536e-05 -2.10185e-40 5.6721994e-05 -2.2323044e-05 -1.377e-41 8.984855e-06 5.3566e-41
4.809931e-07 -8.287978e-05 -2.789363e-05 -3.004561e-05 -8.375899e-05 6.7432804e-05 0.00012515843 -5.6866145e-29
-5.643056e-05 2.6335369e-05 -5.7616922e-05 3.3547072e-05 -1.8460637e-20 8.496369e-05 0.00010284728 -5.4118984e-05
8.4175765e-05 -4.6491e-41 4.432586e-05 -4.42159e-05 -8.882129e-05 2.6863372e-05 -5.4984e-41 2.7968357e-05
-1.1662762e-06 5.9859926e-06 -3.4443434e-05 6.0130133e-06 -6.3762214e-05 -5.817057e-05 -4.587609e-05 0.00010698224
-6.78443e-05 -8.448392e-05 -3.104763e-05 2.3625926e-05 -0.00012514881 0.000102318954 -1.6716652e-11 2.034834e-06
5.71643e-05 -2.1410072e-13 2.7270447e-05 1.8865254e-05 -1.26974e-40 -9.8573655e-05 4.1409545e-05 4.450781e-05
-6.2218087e-06 -4.096e-42 9.405759e-24 0.0001347755 4.8989856e-05 -3.622682e-05 1.96178e-40 -2.964806e-06
0.00015453718 -7.0977653e-06 4.6927074e-05 3.1145817e-05 -5.421582e-05 0.00022849793 4.884849e-05 8.911073e-05
2.8744025e-06 7.723624e-05 2.9737e-41 7.107701e-06 5.1939638e-05 4.1169856e-06 2.2082435e-05 3.324844e-06
8.8525085e-05 -1.10188e-05 -1.4447e-41 2.3953278e-05 -8.104987e-27 5.486716e-05 6.7198715e-05 9.653741e-05
-1.63201e-40 -5.667635e-05 -1.76753e-40 2.4342435e-05 4.848681e-05 1.09279e-40 -3.4423707e-36 -0.00014950434
2.1074562e-05 -1.32546e-40 1.0946659e-05 3.0911904e-06 2.728744e-05 1.5385862e-05 2.1290338e-05 5.217806e-05
-5.745405e-05 -4.5084496e-07 -1.7259814e-05 -9.9608966e-05 -1.0756e-40 -1.83274e-40 2.8809845e-05 2.6314256e-05
3.88011e-40 -1.6584905e-05 0.00010682372 3.2714063e-06 -2.9575458e-05 2.4127827e-05 7.657135e-05 -1.4286334e-05
-3.3402905e-06 3.545377e-05 -6.157078e-05 -2.8274948e-05 -4.9889943e-05 -4.3157288e-05 -1.10663e-40 -8.794125e-05
0.00011721827 -3.5181085e-05 -8.5317e-41 4.6787118e-05 -4.283983e-06 -1.3977e-40 -1.5226594e-05 -5.98e-42
-1.4165673e-05 -9.240648e-05 -2.863828e-05 -2.2108874e-05 -7.202096e-05 4.872233e-05 0.00012353102 3.0453436e-29
-4.876493e-05 1.9417306e-05 -5.3558662e-05 3.413422e-05 -4.0348905e-21 6.475087e-05 0.000103626386 -5.736983e-05
0.00012770647 -2.25243e-40 4.028267e-05 -4.8284073e-05 -8.670091e-05 2.8764027e-05 -1.59777e-40 2.3070745e-05
1.2065526e-06 1.8909234e-06 -3.957946e-05 5.8084765e-06 -5.756643e-05 -4.0311923e-05 -4.146759e-05 6.804948e-05
-4.3907905e-05 -7.198344e-05 -4.1664764e-05 3.980283e-05 -9.5144205e-05 0.00013959475 -1.329547e-11 2.8204275e-05
4.174141e-05 -1.6405681e-13 2.3565792e-05 2.1698297e-05 2.21524e-40 -8.4354244e-05 5.109585e-05 3.120413e-05
-2.9079692e-06 -3.2975e-41 9.1119075e-24 0.00011358878 4.3574062e-05 -4.506173e-05 -7.2154e-41 1.0664613e-05
0.00017441869 -3.7192844e-05 4.549304e-05 2.5413343e-05 -5.791968e-05 0.00023509895 6.664438e-05 6.326781e-05
-1.0630575e-05 7.809181e-05 -5.7138e-41 1.8887982e-05 3.078768e-05 2.3648894e-05 3.2024025e-05 1.2399529e-05
9.328724e-05 -2.6412019e-05 1.07596e-40 5.3328085e-06 -4.204762e-27 5.770206e-05 6.4759755e-05 9.336928e-05
-9.5416e-41 -3.5776935e-05 -2.00585e-40 2.512042e-05 7.496009e-05 -1.83656e-40 -5.2034584e-36 -0.00014048172
1.8852308e-05 -1.98535e-40 1.8479514e-05 2.4867713e-05 4.7035588e-05 -1.5299394e-05 5.5334185e-06 6.31681e-05
00000000: b26c 55b8 465e b7b6 8b7a 9ab7 7c6c 0cb9
00000010: ccf2 0000 9856 0200 a260 fd37 3fd8 2738
00000020: a526 0080 5ae3 08b8 e93e e338 fd33 9237
00000030: a825 e0b7 a4b5 9437 87fd 8938 8776 67b7
00000040: 5bd9 3636 6157 b737 ddaf b1b8 606b 65b7
00000050: 04cb a7b8 b6d3 37b8 2736 0100 047f 2bb9
00000060: f0af e438 bc66 0fb8 e949 0280 c7e8 6d38
00000070: 5f42 bbb7 6326 0080 a9bd 1637 5295 0000
00000080: 981d 0135 becf adb8 1dfd e9b7 750a fcb7
00000090: c4a7 afb8 b66a 8d38 f63c 0339 3d2c 9090
000000a0: daaf 6cb8 c6ea dc37 b3a9 71b8 e5b4 0c38
000000b0: 155b ae9e 892e b238 b7af d738 d1fd 62b8
000000c0: 8587 b038 9981 0080 88ea 3938 7674 39b8
000000d0: 9145 bab8 a758 e137 4699 0080 979d ea37
000000e0: f288 9cb5 49db c836 5b77 10b8 64c3 c936
000000f0: 14b8 85b8 2dfc 73b8 146b 40b8 a75b e038
00000100: a247 8eb8 f62c b1b8 2439 02b8 4a30 c637
00000110: 613a 03b9 1294 d638 8e0a 93ad 2f8e 0836
00000120: b3c3 6f38 550e 71aa d7c2 e437 d340 9e37
00000130: f461 0180 54b9 ceb8 29af 2d38 e6ad 3a38
00000140: eec4 d0b6 6b0b 0080 10ef 3519 8652 0d39
00000150: 757a 4d38 40f2 17b8 dd22 0200 fbf6 46b6
00000160: 420b 2239 5729 eeb6 90d3 4438 91a2 0238
00000170: cb65 63b8 f298 6f39 abe2 4c38 f5e0 ba38
00000180: dce5 4036 e4f9 a138 e552 0000 b07e ee36
00000190: c3d9 5938 a324 8a36 ab3d b937 6320 5f36
000001a0: 8ba6 b938 63dd 38b7 4628 0080 46ef c837
000001b0: 2b89 2094 2a21 6638 09ed 8c38 2174 ca38
000001c0: f0c6 0180 c4b7 6db8 b7ec 0180 fb32 cc37
000001d0: 515e 4b38 a030 0100 196c 9284 44c4 1cb9
000001e0: 47c9 b037 7c71 0180 8ba7 3737 3f72 4f36
000001f0: 55e7 e437 e310 8137 a798 b237 c4d9 5a38
00000200: d1fa 70b8 a90b f2b4 2bc9 90b7 28e5 d0b8
00000210: d52b 0180 e5fe 0180 acac f137 6fbd dc37
00000220: 9e39 0400 d01f 8bb7 8c06 e038 558a 5b36
00000230: d018 f8b7 1d66 ca37 ee94 a038 56af 6fb7
00000240: c129 60b6 32b4 1438 901f 81b8 fd2f edb7
00000250: eb40 51b8 c903 35b8 7c34 0180 196d b8b8
00000260: 14d3 f538 678f 13b8 d4ed 0080 493d 4438
00000270: 22bf 8fb6 9f85 0180 b975 7fb7 ab10 0080
00000280: 1aa9 6db7 5aca c1b8 3d3c f0b7 7276 b9b7
00000290: f509 97b8 345b 4c38 1b88 0139 d26a 1a10
000002a0: f288 4cb8 59e2 a237 2da4 60b8 572b 0f38
000002b0: 116f 989d dcca 8738 fe51 d938 63a0 70b8
000002c0: f2e8 0539 e373 0280 30f5 2838 a184 4ab8
000002d0: 32d3 b5b8 474a f137 65bd 0180 0c88 c137
000002e0: d5f0 a135 a2cb fd35 1f02 26b8 6fe6 c236
000002f0: 7c73 71b8 9914 29b8 7ced 2db8 c9b5 8e38
00000300: c129 38b8 d1f5 96b8 33c1 2eb8 f7f1 2638
00000310: 2888 c7b8 2e60 1239 79e5 69ad 3898 ec37
00000320: 7f13 2f38 28b6 38aa 27af c537 bd04 b637
00000330: 8569 0200 57e7 b0b8 c04f 5638 2ee1 0238
00000340: 8826 43b6 ec5b 0080 fb3f 3019 8336 ee38
00000350: 4bc3 3638 aa00 3db8 23c9 0080 2aec 3237
00000360: 29e4 3639 83ff 1bb8 c8cf 3e38 bd2e d537
00000370: c8ee 72b8 e584 7639 6ec3 8b38 a6ae 8438
00000380: f959 32b7 39c5 a338 479f 0080 a271 9e37
00000390: 0522 0138 9d61 c637 8951 0638 9207 5037
000003a0: 35a3 c338 618f ddb7 ef2b 0100 7af0 b236
000003b0: 5a91 a693 1d05 7238 a1cf 8738 40cf c338
000003c0: fb09 0180 310f 16b8 262f 0280 b1b9 d237
000003d0: e433 9d38 f5ff 0180 a554 dd84 464e 13b9
000003e0: 0625 9e37 6f29 0280 7404 9b37 029b d037
000003f0: 1448 4538 3357 80b7 b4ab b936 1e79 8438

bias f4 [128]
1.2783499e-06 3.251118e-06 -2.6112602e-06 -2.112196e-07 3.7769632e-06 9.894297e-06 3.308106e-05 1.3285162e-06
5.8283604e-06 2.8297218e-06 -4.2169763e-06 2.8277336e-06 4.585314e-06 1.5468655e-07 -3.5112982e-06 2.1935657e-06
-3.439104e-06 0.019999284 0.025681913 -6.5838045e-05 -3.1627165e-05 -0.0013803644 2.9942246e-06 3.2793505e-06
3.3041033e-05 -2.6406465e-06 3.0197516e-06 4.7499875e-06 -2.460253e-06 2.3017042e-06 6.6620546e-06 -3.847951e-06
-9.952002e-06 1.6660151e-05 0.03309594 6.4292494e-06 -1.2918592e-06 -1.0313194e-06 0.032849688 4.0050845e-06
-9.3158366e-07 -2.8621209e-05 3.5012624e-06 1.2904923e-05 0.00856146 3.8976577e-06 -1.8492483e-05 7.34142e-06
-4.3045106e-06 1.0733645e-06 4.379173e-06 3.3631156e-06 -1.807093e-07 -0.0062195687 4.1481126e-06 -0.006233696
4.223582e-06 3.9205165e-06 -2.2157174e-06 -3.8188314e-06 -4.3142234e-05 1.425941e-07 -3.85586e-07 5.4808377e-05
-4.525208e-05 -6.0006703e-05 -0.0010073306 3.405317e-06 6.580645e-07 -3.78397e-07 7.5172748e-06 4.557083e-06
3.8184885e-06 9.226089e-06 -4.2638258e-06 5.89643e-07 3.847997e-06 4.8650254e-06 1.7908478e-05 3.444523e-07
-4.693116e-05 -7.782324e-06 -1.7918132e-05 -4.8004867e-06 -1.837636e-06 1.2150433e-06 -5.1444846e-07 -7.691882e-07
2.296414e-05 -7.802798e-06 -2.1601845e-06 -0.015715815 1.6387426e-06 -3.1146774e-06 2.838462e-06 -7.378245e-07
-2.631626e-06 -1.0175886e-06 9.97801e-07 -1.4159514e-06 -7.572612e-07 2.6102468e-06 -5.120415e-05 -1.0211309e-06
-4.5718134e-06 3.0688009e-06 1.4455155e-05 6.730066e-07 3.0541182e-06 -1.3042754e-06 1.0520099e-06 -2.82592e-06
-1.3124653e-06 -4.5653715e-06 -6.080136e-06 2.4111418e-06 -1.5622645e-05 -0.02821083 -4.814504e-06 -9.7279e-07
8.62361e-07 3.824186e-06 1.7893585e-06 -2.8550407e-06 -1.5346679e-05 1.9922766e-06 -3.1216896e-07 2.1559395e-06
00000000: c593 ab35 c82d 5a36 1c3d 2fb6 9acb 62b4
00000010: bc77 7d36 afff 2537 85c0 0a38 784f b235
00000020: 3c91 c336 40e6 3d36 8d7f 8db6 18c4 3d36
00000030: 8cdb 9936 ea17 2634 a5a3 6bb6 2c35 1336
00000040: 5bcb 66b6 8ad5 a33c e062 d23c 8812 8ab8
00000050: 69a7 04b8 58ed b4ba 63f0 4836 d012 5c36
00000060: 8a95 0a38 f635 31b6 f0a6 4a36 1562 9f36
00000070: d31a 25b6 fa76 1a36 9d8a df36 a61d 81b6
00000080: 86f7 26b7 67c1 8b37 9c8f 073d d5ba d736
00000090: f263 adb5 dd6b 8ab5 658d 063d 6a63 8636
000000a0: f111 7ab5 9417 f0b7 3bf7 6a36 3982 5837
000000b0: 5e45 0c3c a0c8 8236 4e20 9bb7 5156 f636
000000c0: 776f 90b6 8610 9035 cff0 9236 e3b1 6136
000000d0: ff08 42b4 86cd cbbb 0430 8b36 0844 ccbb
000000e0: 4bb8 8d36 fb8c 8336 bcb1 14b6 8323 80b6
000000f0: 9ff3 34b8 f81b 1934 8902 cfb4 0ce2 6538
00000100: 0dcd 3db8 b5af 7bb8 6808 84ba e786 6436
00000110: d9a5 3035 7d26 cbb4 e63c fc36 0be9 9836
00000120: 9120 8036 c0c9 1a37 fc11 8fb6 f547 1e35
00000130: 0b1e 8136 403e a336 2a3a 9637 2aed b834
00000140: f3d7 44b8 d490 02b7 e54e 96b7 de13 a1b6
00000150: b1a4 f6b5 9214 a335 a118 0ab5 367a 4eb5
00000160: 1da3 c037 c3e8 02b7 b0f7 10b6 74be 80bc
00000170: c4f2 db35 c005 51b6 687c 3e36 ea0e 46b5
00000180: fe9a 30b6 1494 88b5 2eec 8535 b80b beb5
00000190: 9846 4bb5 b32b 2f36 0ac4 56b8 ca0d 89b5
000001a0: 9467 99b6 99f1 4d36 6b84 7237 a9a8 3435
000001b0: 5af5 4c36 900e afb5 c932 8d35 f0a4 3db6
000001c0: f727 b0b5 3e30 99b6 f803 ccb6 1acf 2136
000001d0: 600d 83b7 661a e7bc 468c a1b6 cf90 82b5
000001e0: ff7c 6735 8251 8036 e429 f035 3a99 3fb6
000001f0: bebc 80b7 0db3 0536 2d98 a7b4 c2ae 1036

weight f4 [128, 224]
-7.04886e-05 -0.00010335997 9.60112e-05 -6.555058e-05 -5.443042e-05 -6.51422e-05 -0.0001716741 -7.726228e-05
7.111035e-05 -6.0292805e-05 6.0338807e-05 -6.030559e-05 -0.0001302003 -9.594406e-05 5.288259e-05 0.000103707105
5.5752796e-05 0.08613344 0.08458668 -0.00011248683 0.00020503435 0.004437319 7.7317614e-05 -0.00010780714
-0.00023614397 6.462823e-05 -6.419512e-05 -6.1225604e-05 0.000118159616 -9.036421e-05 -5.6575464e-05 5.793627e-05
6.839558e-05 0.00014982355 0.069737785 -4.993265e-05 0.00015813287 0.00010380832 0.17011788 -0.000102707614
6.9955124e-05 -0.00010210376 -5.0904684e-05 0.00013602468 -0.011649913 -6.257909e-05 0.00021908728 -6.552188e-05
5.0550232e-05 -7.2386116e-05 -6.0415274e-05 -5.7561647e-05 -5.1544623e-05 -0.022598967 -5.4887187e-05 0.023756288
-6.073098e-05 -6.122069e-05 -0.000107648295 5.902245e-05 0.00014519125 9.1010465e-05 -6.780503e-05 -0.00019077746
-5.1079827e-05 0.00015453454 -0.06671967 -0.00011965728 7.81957e-05 7.1948176e-05 -5.359775e-05 -0.00011703429
-0.00013728195 -6.435684e-05 -5.959629e-05 -6.50908e-05 -5.090998e-05 -4.7901754e-05 0.00014645698 -8.195294e-05
0.00025479676 5.8440128e-05 -0.00011082883 4.861473e-05 5.8644946e-05 -6.600615e-05 -6.50817e-05 4.9675575e-05
-0.00022713948 6.139554e-05 8.935376e-05 0.016312974 -8.035835e-05 -0.00015059575 -9.8447854e-05 5.309745e-05
5.4958527e-05 7.2264455e-05 -6.7075656e-05 6.734472e-05 0.000105683146 -6.0868442e-05 0.0001437105 7.073051e-05
4.718664e-05 -0.00010069342 -0.00021487843 -0.00010440353 -5.9482954e-05 7.640649e-05 -7.101064e-05 5.619631e-05
7.6929035e-05 6.19242e-05 7.9431586e-05 -6.271482e-05 0.00021373897 -0.06477587 6.1800856e-05 6.745376e-05
-6.7676374e-05 -5.476878e-05 -8.4945226e-05 6.010083e-05 -0.0001494719 -8.8789e-05 7.826514e-05 -8.689626e-05
0.0032982063 0.0044034775 -0.0026098082 0.026150977 0.004096465 -0.016696097 0.03004612 -0.011262549
-0.0023923202 -0.04275243 -0.043228723 -0.0240743 -0.033084493 -0.00613821 -0.0054451413 -0.018617714
0.01615129 0.0030968103 0.029203666 0.014372237 0.013943508 0.035295572 0.03383831 0.007416233
0.0106418915 0.0024321119 0.0051549072 -0.00034194594 -0.0061270413 -0.0030384953 -0.011742826 -0.010417576
-0.0017297444 -0.015558598 0.056684855 0.016294653 0.017722791 -0.011539399 0.003592409 -0.0473701
-0.008258432 -0.032507975 -0.012670146 -0.032791052 -0.0048207757 0.0012692536 -0.016442603 -0.0012667918
-0.0046970933 -0.0034446656 0.013429799 0.008376546 -0.007273438 -0.0154609 -0.04448754 -0.06387505
0.047728542 -0.042931188 0.034237355 0.008447223 -0.008763235 -0.0011082568 -2.2509932e-05 -6.673414e-08
-0.053908024 0.024908632 0.010633612 -0.017176388 0.017368134 0.016245794 0.0010332328 -0.05206292
-0.004139881 -0.0026390122 0.005342873 -0.003925317 -0.02971981 -0.06983875 0.0008508508 0.03669431
-0.070131026 0.11926068 0.037344266 -0.06325562 -0.0212259 -0.015570114 -0.00986859 -0.015737377
-0.023572361 -0.04162136 0.000107746775 -0.0025153933 -0.075086884 -0.055187095 -0.0033223678 0.03601441
2.1472359e-05 2.5906598e-05 -2.532038e-05 2.145589e-05 2.1260625e-05 6.6213993e-06 -5.6633967e-06 2.315922e-05
2.2045184e-05 1.9930436e-05 -1.2526431e-05 1.9999514e-05 2.8638931e-05 2.1880853e-05 -2.2234233e-05 -5.8446867e-06
-2.0333382e-05 0.0010523539 0.0007019662 -7.439941e-05 -4.9855777e-07 -0.00010614863 -1.9232268e-05 2.7302003e-05
1.8223527e-05 -1.6015832e-05 1.5136824e-05 7.1631102e-06 -3.3366712e-05 2.463922e-05 1.7769462e-05 -2.0486428e-05
00000000: 47d3 93b8 f6c2 d8b8 9f59 c938 3378 89b8
00000010: 384c 64b8 f49c 88b8 6a03 34b9 df07 a2b8
00000020: 1421 9538 e8e2 7cb8 4d14 7d38 a2f0 7cb8
00000030: 6086 08b9 9335 c9b8 40ce 5d38 547d d938
00000040: 1cd8 6938 bb66 b03d c83b ad3d e8e6 ebb8
00000050: 7dfe 5639 ee66 913b 9425 a238 8416 e2b8
00000060: 6a9d 77b9 0489 8738 7ea0 86b8 3f66 80b8
00000070: 76cc f738 ea81 bdb8 714b 6db8 9900 7338
00000080: 996f 8f38 f419 1d39 afd2 8e3d c66e 51b8
00000090: 78d0 2539 abb3 d938 6233 2e3e bb64 d7b8
000000a0: dfb4 9238 8a20 d6b8 7d82 55b8 d9a1 0e39
000000b0: 47df 3ebc e53c 83b8 cbba 6539 cb68 89b8
000000c0: e605 5438 00ce 97b8 6866 7db8 596e 71b8
000000d0: 9e31 58b8 7821 b9bc ab36 66b8 8c9c c23c
000000e0: 65b9 7eb8 9c63 80b8 3dc1 e1b8 e08e 7738
000000f0: 7b3e 1839 dfdc be38 8c32 8eb8 6f0b 48b9
00000100: 8c3e 56b8 8d0a 2239 53a4 88bd 83f0 fab8
00000110: fffc a338 e2e2 9638 25ce 60b8 4e70 f5b8
00000120: 58f3 0fb9 51f7 86b8 07f7 79b8 5b81 88b8
00000130: 2d88 55b8 1eea 48b8 3f92 1939 26de abb8
00000140: 3e96 8539 9c1d 7538 c66c e8b8 abe7 4b38
00000150: 88f9 7538 c86c 8ab8 797c 88b8 be5a 5038
00000160: 4a2c 6eb9 7bc1 8038 6f63 bb38 c9a2 853c
00000170: 1086 a8b8 3de9 1db9 ca75 ceb8 f4b4 5e38
00000180: 4583 6638 af8c 9738 f8aa 8cb8 6c3b 8d38
00000190: 35a2 dd38 fe4c 7fb8 feb0 1639 2755 9438
000001a0: 45ea 4538 5e2b d3b8 fd50 61b9 38f3 dab8
000001b0: 567d 79b8 6c3c a038 8ceb 94b8 54b4 6b38
000001c0: f654 a138 4ddd 8138 8294 a638 c385 83b8
000001d0: 1e1f 6039 36a9 84bd 159b 8138 f675 8d38
000001e0: 7aed 8db8 88b7 65b8 9f24 b2b8 c614 7c38
000001f0: 8fbb 1cb9 3b34 bab8 4722 a438 133c b6b8
00000200: b826 583b 0c4b 903b 5109 2bbb 933a d63c
00000210: a43b 863b 41c6 88bc 4823 f63c 8e86 38bc
00000220: 79c8 1cbb 2c1d 2fbd 9a10 31bd 7737 c5bc
00000230: 9b83 07bd 0a23 c9bb 286d b2bb 2d84 98bc
00000240: b64f 843c dbf3 4a3b 873c ef3c 8879 6b3c
00000250: 5073 643c 1792 103d 0a9a 0a3d df03 f33b
00000260: 545b 2e3c 1164 1f3b 7fea a83b 3547 b3b9
00000270: 59c5 c8bb 7e21 47bb fb64 40bc 7bae 2abc
00000280: 97b8 e2ba 7de9 7ebc 612e 683d 5d7c 853c
00000290: 632f 913c bf0f 3dbc 9f6e 6b3b 2607 42bd
000002a0: 604e 07bc 1527 05bd 7296 4fbc e94f 06bd
000002b0: 99f7 9dbb 155d a63a a3b2 86bc 7b0a a6ba
000002c0: 13ea 99bb e6bf 61bb a908 5c3c c83d 093c
000002d0: 0556 eebb b74f 7dbc 9138 36bd ecd0 82bd
000002e0: 017f 433d 9dd8 2fbd 783c 0c3d 3966 0a3c
000002f0: ac93 0fbc ed42 91ba b6d3 bcb7 7b4f 8fb3
00000300: a9ce 5cbd 300d cc3c 9a38 2e3c 7fb5 8cbc
00000310: 9e47 8e3c e615 853c 8a6d 873a ee3f 55bd
00000320: d7a7 87bb 47f3 2cbb 4413 af3b f29f 80bb
00000330: f576 f3bc 9e07 8fbd a10b 5f3a c64c 163d
00000340: dba0 8fbd f23e f43d 4df6 183d 2a8c 81bd
00000350: f0e1 adbc cb19 7fbc deaf 21bc aceb 80bc
00000360: d31a c1bc 297b 2abd 1cf6 e138 4cd9 24bb
00000370: 27c7 99bd dd0b 62bd 15bc 59bb d983 133d
00000380: 8a1f b437 ff51 d937 1a67 d4b7 2cfc b337
00000390: d858 b237 632d de36 3508 beb6 0c46 c237
000003a0: aced b837 4930 a737 9d28 52b7 a1c4 a737
000003b0: a33d f037 c68c b737 a783 bab7 7a1d c4b6
000003c0: 9b91 aab7 23ef 893a 2704 383a e106 9cb8
000003d0: a1d4 05b5 1d9c deb8 fb54 a1b7 9b06 e537
000003e0: bade 9837 bd59 86b7 2af4 7d37 a65a f036
000003f0: 3cf3 0bb8 52b0 ce37 a10f 9537 45da abb7

bias f4 [128]
-0.0459045 0.0021734415 -0.0006312808 -0.013901546 0.0058433446 -0.0012325863 -0.0006283353 -0.000119517295
-0.0003520807 -4.189026e-09 -0.103537284 -0.038633905 8.397827e-05 -0.03603845 0.0012553603 -0.04547453
-0.09918721 -0.020877954 -0.009593131 -0.12286842 -0.05466332 0.0072968113 -6.873763e-17 -7.979162e-05
-0.073742956 0.03243869 -3.0464561e-10 0.015578037 -0.011915917 -0.00011008241 0.06536013 -1.3945584e-25
-0.053254936 -0.011412236 -0.07830859 0.0069231507 -0.03501175 -0.010481214 -0.0026798204 -0.0022711905
-3.308175e-10 0.060299978 -8.4349915e-18 0.100285366 -0.02507718 -0.0004393996 0.056423314 -6.5927634e-05
-0.0256369 -0.0003906425 -0.00024095128 -0.0054458934 -4.713604e-07 0.0069232825 -0.081089236 -0.07362051
-0.0010514228 0.018418718 -0.002156573 -0.002734518 -3.251822e-27 -4.01248e-34 -2.795742e-19 -3.5253652e-37
-0.04434711 -0.051907264 0.06083494 -3.26106e-40 0.024170548 -0.008937469 -3.5640478e-05 -0.00028423258
-5.5382654e-10 -0.000531141 0.0063713165 -0.06333053 0.0030985314 0.051105745 -0.04173822 -3.7310027e-18
-0.13376875 -1.2351998e-07 -0.011141055 0.0043972204 -0.0015923138 -3.466821e-39 0.029505253 -0.0006685325
0.01927443 0.00475465 -0.019523922 -6.480825e-06 -7.0461025e-27 -0.037794206 -0.0007007806 -0.0013697711
-0.013442078 -0.0052790614 -0.057109877 0.007693936 -0.101550035 -2.3842988e-05 0.036247108 -1.2316264e-17
-0.0009611401 -1.849535e-15 -0.0003290135 -0.07328419 0.0033680678 -0.009086166 -2.6542528e-14 -8.037742e-06
-0.061456643 -0.00054245774 -0.00039108223 -8.49415e-09 0.026386302 -7.365023e-08 -0.0067153624 -0.016636241
-0.010819199 -5.7136414e-24 -0.0006861266 0.0447293 -2.5759013e-09 -0.0007417742 0.0024097136 -5.0946792e-14
00000000: 5b06 3cbd 4c70 0e3b 8a7c 25ba 4fc3 63bc
00000010: 8779 bf3b bc8e a1ba deb6 24ba 5ca5 fab8
00000020: 7997 b8b9 10ef 8fb1 5b0b d4bd 963e 1ebd
00000030: 7e1d b038 0e9d 13bd e78a a43a 8043 3abd
00000040: aa22 cbbd 3e08 abbc 822c 1dbc 70a2 fbbd
00000050: a5e6 5fbd 171a ef3b 897f 9ea4 cd55 a7b8
00000060: 8c06 97bd 6fde 043d 0f7b a7af 063b 7f3c
00000070: fa3a 43bc 0bdc e6b8 88db 853d 52a3 2c96
00000080: d921 5abd 63fa 3abc 4160 a0bd 99db e23b
00000090: 7b68 0fbd 66b9 2bbc ed9f 2fbb 41d8 14bb
000000a0: 6dde b5af 1cfd 763d 1f99 1ba3 6a62 cd3d
000000b0: a86e cdbc 375f e6b9 221c 673d a142 8ab8
000000c0: 7a04 d2bc 26cf ccb9 dea7 7cb9 7773 b2bb
000000d0: 480f fdb4 b4dc e23b 1d12 a6bd 5ac6 96bd
000000e0: e5cf 89ba dae2 963c 4b55 0dbb 9935 33bb
000000f0: 65d1 8093 6856 0588 0f08 a5a0 86ec ef82
00000100: 51a5 35bd b69c 54bd 0f2e 793d 0d8d 0380
00000110: 5001 c63c 766e 12bc ac7c 15b8 0d05 95b9
00000120: 143c 18b0 453c 0bba 7ac6 d03b 70b3 81bd
00000130: bb10 4b3b 4254 513d b2f5 2abd 53a6 89a2
00000140: adfa 08be eaa0 04b4 f988 36bc 8f16 903b
00000150: 2fb5 d0ba 16c0 2580 00b5 f13c 7540 2fba
00000160: 69e5 9d3c e5cc 9b3b a2f0 9fbc dd75 d9b6
00000170: fc8f 0b94 19ce 1abd 97b4 37ba e489 b3ba
00000180: 293c 5cbc fafb acbb 0cec 69bd 6a1d fc3b
00000190: 77f9 cfbd 6d02 c8b7 d977 143d ea31 63a3
000001a0: 05f5 7bba e645 05a7 727f acb9 0516 96bd
000001b0: cdba 5c3b 24de 14bc e712 efa8 d7d9 06b7
000001c0: f6b9 7bbd b933 0eba 2b0a cdb9 abed 11b2
000001d0: 1628 d83c a429 9eb3 8b0c dcbb ba48 88bc
000001e0: 0243 31bc 2a09 dd98 2ddd 33ba 1236 373d
000001f0: bc03 31b1 a073 42ba 49ec 1d3b a771 65a9

weight f4 [64, 128]
0.026261529 -0.0022575755 0.00029174317 0.015795777 -0.01477048 -0.00012449818 -0.00013300864 0.00020297577
0.0002624734 -3.0546961e-37 0.024621611 -0.013499084 0.00079802534 -0.023104256 -0.016514128 -0.0007124702
-0.020975651 -0.037061967 -0.004081107 0.015871258 -0.03155351 0.0075541195 -3.009252e-37 -0.00068813574
0.0061930832 0.0054808236 -4.4496384e-21 -0.029629746 -0.0024420337 -1.8667115e-06 -0.0082030445 8.184126e-28
-0.009175093 -0.008729158 -0.01790871 -0.027433561 -0.058867704 -0.0093520675 -5.523918e-06 0.024002833
-8.5797654e-38 -0.013156173 2.0961e-40 0.010008133 0.040788673 0.00090864924 -0.0037552202 7.469985e-09
0.04321395 -0.0004277239 -9.819925e-05 0.03040028 -1.552862e-08 -0.04421459 -0.011917428 -0.03181622
-0.00058526394 -0.025406212 0.0019456436 -0.001526765 2.13718e-40 1.6183891e-35 -4.6655526e-20 -2.22613e-40
-0.010688681 -0.000571273 -0.014539676 -1.948e-41 -0.0100977775 -0.005135945 -7.033762e-10 -0.00038181458
-1.1053067e-08 -0.0004327268 -0.034048058 -0.0070695356 0.010754362 0.0054634186 -0.011852278 9.9097146e-27
0.033613086 -6.7710556e-15 -0.0007242325 -0.020347942 0.016832938 -6.58e-41 0.0002836466 -0.0002027031
-0.03562275 0.005423682 -0.020589055 -1.3536899e-14 3.4417692e-28 -0.0015862989 -0.00014638058 5.8100126e-05
-0.023439363 -0.027900727 0.011601493 0.0024136917 -0.013287209 -7.110425e-05 0.010190158 -3.442777e-21
-7.157504e-05 1.69633e-40 0.0007747773 0.038362663 -0.00023003074 -0.021124419 4.9082605e-17 -8.046494e-07
-0.059302226 -3.866975e-05 5.59942e-05 -1.1001676e-08 -0.00032969489 -1.1196292e-13 0.0020795665 0.0081232665
-0.019869277 -3.739e-42 -0.0018509052 -0.01692181 -1.65517e-40 0.0004185719 0.010451008 -6.803097e-15
-0.042942807 -0.00028837993 0.00082961953 -0.00087776466 -0.018367242 3.2379936e-05 -0.0008345826 0.00026670797
0.00022212465 -1.2117007e-27 -0.015966862 -0.034173705 -0.021546574 0.02626498 0.008242846 0.01965989
-0.046445034 -0.02305854 0.007558411 0.014081943 -0.039635066 -0.0027314296 8.8009e-41 -0.0013895447
-0.007839882 0.009544584 -8.881416e-18 -0.043826774 -0.025743423 -5.425607e-07 -0.0024023063 -1.8329138e-29
-0.062786624 -0.030945202 -0.041008983 -0.0379862 -0.07457939 -0.01677785 0.0018289638 0.02389368
-6.7285e-41 -0.0032529093 -1.17856e-40 -0.0116424775 0.007352733 0.00021170311 -0.0012684775 8.806642e-09
0.0055604703 -0.0010162016 -4.0346877e-05 -0.0048181084 -4.3888143e-08 -0.03660804 -0.0028218294 -0.030000089
-0.0006190136 -0.033324223 -0.0055424627 0.00014920504 3.8695e-41 -1.0722375e-36 -2.880916e-20 -1.95368e-40
0.014858131 -0.039154567 -0.049798794 1.46273e-40 -0.0007324563 0.005128627 -4.326795e-11 -2.9110191e-05
-4.3253326e-10 0.0003232937 -0.022704454 -0.0080288015 0.0121497065 -0.02280837 -0.00028314407 2.3371162e-27
-0.0035446114 -6.927456e-08 0.009972461 -0.018532911 0.002302565 1.9962e-40 0.002080942 -0.00017393293
-0.027163574 -0.020524872 -0.038619358 3.0859203e-14 4.643767e-28 -0.009480412 -0.0004512733 -0.0011537644
0.004728022 0.0012198505 -0.0036745323 -0.03051775 -0.032155514 -0.00043831492 0.017689541 2.0300473e-17
0.00045268922 -3.0262989e-37 0.0003126744 0.004054862 -0.0049368995 -0.010739663 3.8993777e-17 -3.3393667e-07
-0.037274074 -0.00046498407 0.00044131602 -1.8294047e-08 -0.0051410883 -2.237873e-19 -0.012200767 0.0030127827
-0.075751394 -1.95017e-40 -0.00415385 -0.006402855 -1.43014e-40 5.725486e-05 -0.012783843 3.475629e-16
00000000: 6b22 d73c d5f3 13bb 1bf5 9839 2566 813c
00000010: e2ff 71bc ba8b 02b9 3c78 0bb9 e5d5 5439
00000020: 959c 8939 50e4 cf82 43b3 c93c 432b 5dbc
00000030: 9332 513a 2345 bdbc a348 87bc 11c5 3aba
00000040: 21d5 abbc 4ace 17bd cfba 85bb 7104 823c
00000050: 413e 01bd 8c88 f73b 90cc cc82 0264 34ba
00000060: 59ef ca3b 7b98 b33b 431a a89d 15ba f2bc
00000070: 870a 20bb b88b fab5 1066 06bc c2ae 8112
00000080: 2153 16bc be04 0fbc 49b5 92bc 59bc e0bc
00000090: 431f 71bd 6a39 19bc 185a b9b6 97a1 c43c
000000a0: 3d90 e981 fd8c 57bc 4f48 0200 27f9 233c
000000b0: 0612 273d 6b32 6e3a 241a 76bb 5755 0032
000000c0: 1c01 313d 2140 e0b9 52f0 cdb8 020a f93c
000000d0: cc63 85b2 5c1a 35bd 5141 43bc ba51 02bd
000000e0: 666c 19ba b020 d0bc f704 ff3a bb1d c8ba
000000f0: c253 0200 be18 ac05 1253 5c9f 8e6c 0280
00000100: 941f 2fbc 7bc1 15ba d237 6ebc 4d36 0080
00000110: 2671 25bc 6e4b a8bb b357 41b0 492e c8b9
00000120: e7e3 3db2 9cdf e2b9 fa75 0bbd 90a7 e7bb
00000130: 1033 303c 7a06 b33b 0f30 42bc 3948 4414
00000140: e0ad 093d f7f3 f3a7 6cda 3dba bab0 a6bc
00000150: 3be5 893c 6cb7 0080 67b6 9439 b38c 54b9
00000160: 29e9 11bd 24b9 b13b 61aa a8bc eedb 73a8
00000170: e625 da11 5ceb cfba bd7d 19b9 89b0 7338
00000180: e803 c0bc 1190 e4bc 3014 3e3c 072f 1e3b
00000190: 98b2 59bc ce1d 95b8 9ff4 263c 7f10 829d
000001a0: 8f1a 96b8 ded8 0100 6d1a 4b3a 2b22 1d3d
000001b0: 6834 71b9 1e0d adbc 835a 6224 16ff 57b5
000001c0: e4e6 72bd 5431 22b8 50db 6a38 e201 3db2
000001d0: e6da acb9 3b1e fca9 5649 083b 7317 053c
000001e0: e5c4 a2bc 6c0a 0080 139a f2ba 9c9f 8abc
000001f0: 65cd 0180 c573 db39 b43a 2b3c 7f1b f5a7
00000200: cce4 2fbd b331 97b9 d37a 593a ca19 66ba
00000210: e676 96bc b1cf 0738 e4c7 5aba f0d4 8b39
00000220: 22ea 6839 6b00 c092 f0cc 82bc baf9 0bbd
00000230: 7182 b0bc a829 d73c 000d 073c c70d a13c
00000240: 263d 3ebd 43e5 bcbc 8cac f73b f3b7 663c
00000250: 6158 22bd c901 33bb 55f5 0000 6221 b6ba
00000260: d972 00bc e360 1c3c 4dd5 23a3 b483 33bd
00000270: dfe3 d2bc 7da4 11b5 0370 1dbb 2ae1 b98f
00000280: 4696 80bd cb80 fdbc 09f9 27bd 6b97 1bbd
00000290: 14bd 98bd b471 89bc d7b9 ef3a aebc c33c
000002a0: 90bb 0080 c32e 55bb 8948 0180 17c0 3ebc
000002b0: 32ef f03b 9ffc 5d39 0b43 a6ba 054c 1732
000002c0: 9b34 b63b 1132 85ba 213a 29b8 39e1 9dbb
000002d0: 867f 3cb3 50f2 15bd 71ee 38bb bfc2 f5bc
000002e0: 4d45 22ba fb7e 08bd 8c9d b5bb ec73 1c39
000002f0: de6b 0000 886e b683 230c 089f 9b20 0280
00000300: 856f 733c 8a60 20bd d2f9 4bbd c097 0100
00000310: 4f02 40ba 0b0e a83b 624b 3eae a931 f4b7
00000320: a5c9 edaf bf7f a939 b1fe b9bc 3c8b 03bc
00000330: 900f 473c 9ed8 babc f472 94b9 592a 3913
00000340: b64c 68bb 18c4 94b3 8863 233c 55d2 97bc
00000350: a1e6 163b 762c 0200 6a60 083b c461 36b9
00000360: 2586 debc c723 a8bc 552f 1ebd 3dfa 0a29
00000370: b72a 1312 bb53 1bbc e198 ecb9 e939 97ba
00000380: 86ed 9a3b 64e3 9f3a 6cd0 70bb 5c00 fabc
00000390: 80b5 03bd a2cd e5b9 a8e9 903c 233d bb23
000003a0: eb56 ed39 90f5 cd82 73ee a339 a6de 843b
000003b0: b7c5 a1bb 69f5 2fbc bad3 3324 e847 b3b4
000003c0: b3ac 18bd 1bc9 f3b9 6f60 e739 0925 9db2
000003d0: 9376 a8bb c819 84a0 bae5 47bc 1b72 453b
000003e0: 8c23 9bbd a11f 0280 051d 88bb 0acf d1bb
000003f0: aa8e 0180 f024 7038 5373 51bc 3b5b c825

bias f4 [64]
0.0060292454 0.008287814 0.009280645 0.0018950638 0.0101115685 -0.0053016874 0.0022981218 -0.005222058
-0.010077603 0.009847544 0.0011588632 0.008691515 0.005046824 0.008504812 0.0016401169 -0.0037191669
-0.000438275 0.009147546 0.0022217215 -0.0030421887 0.0014315959 0.00073648966 -0.009852303 -7.005483e-23
0.0009928421 -0.010889597 -0.0021732443 -4.2683053e-21 -0.0018294107 0.00030569267 0.008047503 -4.136273e-05
-0.008199248 -0.0008947328 0.001710422 -0.00044118933 -7.0918e-40 -0.009696398 0.0018935738 0.0036654836
-0.0061259344 0.007294 -6.388344e-05 0.0034085673 -0.0063570645 -0.006308623 -0.0039537707 0.0022234863
0.00026483912 -0.0067765806 0.00196746 0.0015194336 -0.006842522 0.00077503035 0.0019964976 0.0011227969
0.000867992 0.010404452 0.0026264437 -0.012470945 0.009725726 -0.0001204965 -0.0068730777 -0.006624988
00000000: fa90 c53b 9dc9 073c d90d 183c ca63 f83a
00000010: feaa 253c c7b9 adbb 169c 163b cc1d abbb
00000020: 881c 25bc 9857 213c ffe4 973a db66 0e3c
00000030: d45f a53b c457 0b3c 31f9 d63a 44bd 73bb
00000040: 46c8 e5b9 97df 153c 4d9a 113b 755f 47bb
00000050: 63a4 bb3a fc10 413a 8e6b 21bc d761 a99a
00000060: 4122 823a 486a 32bc fd6c 0ebb 8440 a19d
00000070: d6c8 efba 6045 a039 add9 033c e57c 2db8
00000080: 2456 06bc 808c 6aba 3d30 e03a 6e4f e7b9
00000090: e8b8 0780 a4dd 1ebc cb31 f83a 9c38 703b
000000a0: 10bc c8bb 8202 ef3b 29f9 85b8 4562 5f3b
000000b0: ec4e d0bb 91b8 cebb a28e 81bb e9b7 113b
000000c0: 1bda 8a39 140e debb 80f0 003b bb27 c73a
000000d0: 3c37 e0bb 682b 4b3a acd7 023b d02a 933a
000000e0: f589 633a 6f77 2a3c 6a20 2c3b ef52 4cbc
000000f0: a758 1f3c 11b3 fcb8 8e37 e1bb 6d16 d9bb

weight f4 [16, 64]
-0.03359076 -0.075194724 -0.114484444 0.0052470113 -0.058181487 0.041413747 -0.060990095 -0.030023698
-0.017339148 -0.06454136 -0.05427706 -0.06641648 -0.032323163 -0.049268015 0.0053219786 -0.021359086
0.00026128802 -0.12022226 0.004478681 -0.015548217 -0.039272655 0.11749157 0.10629563 -1.102289e-22
-0.009874742 0.035352785 -0.070371844 -4.3397476e-23 -0.028406546 -0.031384815 -0.042579394 -6.571445e-06
0.13600427 -0.029423134 0.005775173 0.07818462 -8.2877e-41 0.14985013 0.0030352229 -0.13325159
-0.014435893 -0.10743124 -0.10082617 -0.13317557 0.05333328 -0.016502311 0.014285484 0.08945137
-0.008025347 -0.02461245 0.0064009666 0.005447513 0.043763768 -0.00050823326 0.004657118 0.0019320997
-0.048453785 -0.062648 -0.12523104 -0.009764354 -0.06805643 -5.9205944e-05 -0.040626813 0.11943655
-0.040364716 -0.0211554 -0.015022301 -0.11536889 -0.016321238 0.07883199 0.009309526 0.04559097
0.03514395 -0.025484804 0.01893706 -0.013827128 -0.060749825 -0.031366143 -0.11384909 0.044513423
-0.00024207824 -0.015803747 -0.09591537 0.04415433 0.036068168 0.13747582 0.05442242 1.0363969e-22
-0.0628502 0.07961046 -0.03414789 -3.170268e-23 0.035905365 0.06654957 -0.031302642 1.3500713e-05
-0.0005751113 0.09004115 -0.09859029 -0.007896829 1.67005e-40 0.0003863467 -0.10774885 -0.009344195
0.063366756 -0.011294824 -0.008022959 -0.0043830425 0.024136376 0.054755807 -0.04972296 -0.0381433
-0.05374852 0.03438123 -0.073450126 -0.09418524 0.056859896 -0.088432655 -0.11474926 -0.096782416
0.014651874 -0.012071381 -0.017067723 0.08329151 -0.014443165 -5.808302e-05 0.035599425 0.001075219
-0.009160249 -0.047719654 -0.05321986 0.0021575838 -0.024443096 0.05587175 -0.047475442 -0.030911705
-0.013912902 -0.023653014 -0.062339377 -0.040005993 -0.006290401 -0.012183273 0.0026985414 -0.018576108
0.00040870352 -0.05576072 0.0019452021 -0.013670891 -0.048978 0.12042267 0.101553485 7.026626e-23
0.010116104 0.055689603 -0.047102332 8.746449e-24 -0.024644513 -0.033867694 -0.03776567 -4.5847014e-06
0.16324611 -0.038164023 0.0034325186 0.094563134 -6.7924e-41 0.15837698 0.0022896815 -0.124469906
-0.016439619 -0.06610348 -0.0886548 -0.09764339 0.06420133 -0.019344183 0.0445653 0.109410666
0.020868352 -0.02056963 0.033291493 -0.00028888872 0.06243972 0.009976781 0.0018912536 0.0056693153
-0.048670877 -0.030747728 -0.11210283 -0.009053548 -0.040717926 -5.412484e-05 -0.0450636 0.14550817
-0.007896953 -0.0121308705 -0.007726625 -0.025909908 0.0003251839 0.073489785 0.012312599 0.076514676
0.019640757 0.004215678 0.060977854 -0.010045677 -0.010136851 0.0031383305 -0.058567498 0.043771625
-0.00032429426 -0.020154074 -0.016180549 0.03873668 0.065008394 0.10441233 0.032756843 6.1414204e-23
-0.09875699 0.055743113 -0.017496087 -3.964358e-23 0.03975582 0.07327058 -0.013785316 -2.3502043e-05
-0.043776978 0.097586766 -0.01681617 -0.034796726 1.15132e-40 -0.022600818 -0.021459566 0.028061133
0.06694333 0.004335545 0.053422574 0.019738086 0.017211357 0.07176162 -0.10474802 -0.057660762
-0.0836553 0.030711563 -0.09359956 -0.015941158 0.031380914 -0.08650683 -0.03079719 -0.068024985
0.027543861 0.0010259259 0.05081975 0.07062487 -0.00028933017 2.5775427e-05 0.08630187 -0.025894629
00000000: 7796 09bd b1ff 99bd d276 eabd 1fef ab3b
00000010: b64f 6ebd 76a1 293d c0d0 79bd 42f4 f5bc
00000020: d40a 8ebc 432e 84bd 9f51 5ebd 5d05 88bd
00000030: 4b65 04bd 42cd 49bd fe63 ae3b 40f9 aebc
00000040: 7cfd 8839 1737 f6bd e6c1 923b f3bd 7ebc
00000050: 5ddc 20bd 6c9f f03d 86b1 d93d 3142 059b
00000060: abc9 21bc 15ce 103d 1d1f 90bd 79db 519a
00000070: d8b4 e8bc 5d8d 00bd bb67 2ebd 4880 dcb6
00000080: b444 0b3e c908 f1bc aa3d bd3b 421f a03d
00000090: 07e7 0080 5072 193e 97ea 463b 1b73 08be
000000a0: 8684 6cbc e904 dcbd f37d cebd 2d5f 08be
000000b0: ff73 5a3d db2f 87bc aa0d 6a3c 4832 b73d
000000c0: bf7c 03bc 0ca0 c9bc 33bf d13b 0d81 b23b
000000d0: a341 333d f53a 05ba bd9a 983b 823e fd3a
000000e0: 7a77 46bd 984d 80bd 913c 00be abfa 1fbc
000000f0: 2b61 8bbd e653 78b8 4d68 26bd 269b f43d
00000100: 7955 25bd 174e adbc 1920 76bc 8646 ecbd
00000110: 1eb4 85bc ab72 a13d fb86 183c 99bd 3a3d
00000120: 1af3 0f3d 82c5 d0bc e521 9b3c 2e8b 62bc
00000130: cfd4 78bd c979 00bd b629 e9bd b553 363d
00000140: 62d6 7db9 dc76 81bc 476f c4bd 2cdb 343d
00000150: 37bc 133d 76c6 0c3e 0bea 5e3d dc95 fa1a
00000160: 9bb7 80bd cf0a a33d a8de 0bbd 044e 199a
00000170: 8111 133d 244b 883d 3337 00bd 1f81 6237
00000180: 11c3 16ba 7f67 b83d b5e9 c9bd b461 01bc
00000190: 8bd1 0100 948e ca39 6eab dcbd 6518 19bc
000001a0: 6ec6 813d ed0d 39bc bb72 03bc a09f 8fbb
000001b0: a6b9 c53c a047 603d 4daa 4bbd 263c 1cbd
000001c0: 6827 5cbd 55d3 0c3d 056d 96bd 31e4 c0bd
000001d0: ece5 683d 2e1c b5bd a901 ebbd dc35 c6bd
000001e0: 6a0e 703c 0bc7 45bc 9cd1 8bbc bd94 aa3d
000001f0: 06a3 6cbc 2b9e 73b8 b4d0 113d 5dee 8c3a
00000200: de14 16bc af75 43bd 11fd 59bd 4066 0d3b
00000210: e33c c8bc c7d9 643d 9c75 42bd 8b3a fdbc
00000220: f1f2 63bc f7c3 c1bc 9357 7fbd 53dd 23bd
00000230: b51f cebb 5a9c 47bc 03da 303b ec2c 98bc
00000240: 4247 d639 5a65 64bd 27f6 fe3a dffb 5fbc
00000250: 289d 48bd 29a0 f63d 46fb cf3d b5e4 a91a
00000260: 04be 253c c81a 643d 60ee 40bd 512e 2919
00000270: 4ae3 c9bc dab8 0abd 2db0 1abd 49d6 99b6
00000280: fd29 273e e151 1cbd 1bf4 603b 51aa c13d
00000290: 58bd 0080 932d 223e 7b0e 163b 14ea febd
000002a0: 61ac 86bc 4361 87bd a690 b5bd 42f9 c7bd
000002b0: fd7b 833d b177 9ebc 1b8a 363d b312 e03d
000002c0: 1bf4 aa3c a481 a8bc a95c 083d fd75 97b9
000002d0: cbc0 7f3d a775 233c f1e3 f73a aac5 b93b
000002e0: 1d5b 47bd a9e2 fbbc 2b96 e5bd 5555 14bc
000002f0: d7c7 26bd 1b04 63b8 9c94 38bd 1800 153e
00000300: 3962 01bc 8fc0 46bc a12f fdbb 0441 d4bc
00000310: 727d aa39 d081 963d c9ba 493c bab3 9c3d
00000320: a7e5 a03c ac23 8a3b eac3 793d a096 24bc
00000330: 0915 26bc 73ac 4d3b 79e4 6fbd e049 333d
00000340: 0a06 aab9 281a a5bc 128d 84bc 5aaa 1e3d
00000350: 1f23 853d 22d6 d53d 0a2c 063d 8d7d 941a
00000360: 1b41 cabd e452 643d f453 8fbc 60b4 3f9a
00000370: 00d7 223d e30e 963d cedb 61bc 4126 c5b7
00000380: 7d4f 33bd 92db c73d 11c2 89bc 0387 0ebd
00000390: f140 0100 5a25 b9bc f9cb afbc 76e0 e53c
000003a0: 9619 893d 3011 8e3b a1d1 5a3d c4b1 a13c
000003b0: d5fe 8c3c c2f7 923d 2186 d6bd b12d 6cbd
000003c0: 7853 abbd d196 fb3c 20b1 bfbd 0897 82bc
000003d0: 4689 003d 7e2a b1bd 634a fcbc af50 8bbd
000003e0: aaa3 e13c 5c78 863a 5f28 503d c6a3 903d
000003f0: 3db1 97b9 4f38 d837 09bf b03d f920 d4bc

bias f4 [16]
0.0050498135 0.0066930554 0.0037309695 0.004006835 0.00781883 0.004794135 0.004241047 0.004463534
0.0058203763 0.0043877126 0.01001797 0.0046243533 0.0045290003 0.0036219424 0.004116822 0.0031484037
00000000: e878 a53b 6b51 db3b 4883 743b c54b 833b
00000010: 8d1a 003c 1f18 9d3b 7bf8 8a3b d642 923b
00000020: dbb8 be3b cdc6 8f3b 6922 243c e387 973b
00000030: 0268 943b 1c5e 6d3b 68e6 863b 7355 4e3b

weight f4 [3, 16]
0.1900742 -0.2051683 0.16164686 -0.14849184 -0.26522672 0.16197713 -0.15471956 -0.13854888
-0.17758949 -0.14037897 -0.34081653 -0.16689298 -0.13431777 0.15756741 -0.1552577 0.11437337
-0.23788422 -0.0014631115 -0.19616222 0.006014453 -0.005575748 -0.20017438 0.08885425 0.009358297
0.0002807003 0.00836167 -0.015680106 0.008738336 0.009370739 -0.20207696 0.00974595 -0.16772674
0.048836432 -0.042560928 0.054997817 -0.047752026 -0.04243814 0.056108207 -0.053142007 -0.050780576
-0.043661874 -0.05054757 -0.045470253 -0.04529646 -0.048588928 0.057828054 -0.046310276 0.0717528
00000000: d0a2 423e a417 52be c186 253e 3f0e 18be
00000010: cccb 87be 55dd 253e ce6e 1ebe c2df 0dbe
00000020: 05da 35be 81bf 0fbe 817f aebe fee5 2abe
00000030: 998a 09be 5a59 213e e0fb 1ebe 963c ea3d
00000040: ec97 73be e0c5 bfba c0de 48be e314 c53b
00000050: c4b4 b6bb 83fa 4cbe 38f9 b53d 8b53 193c
00000060: f52a 9339 63ff 083c 9173 80bc 3d2b 0f3c
00000070: ba87 193c 43ed 4ebe 7aad 1f3c 8fc0 2bbe
00000080: b608 483d 5e54 2ebd 6445 613d a197 43bd
00000090: 9dd3 2dbd b8d1 653d 6fab 59bd 4bff 4fbd
000000a0: cbd6 32bd f80a 4fbd 043f 3abd c888 39bd
000000b0: 2f05 47bd 1cdd 6c3d d8af 3dbd 22f3 923d

bias f4 [3]
0.99180984 0.98873734 -0.036517955
00000000: 40e7 7d3f e41d 7d3f da93 15bd
