models/TEV/H/model4.pt (torch, 422913 bytes, 12 tensors)

weight f4 [128, 384]
0	0xbbafe70f	-0.0053681205
1	0xbc89b4bf	-0.01680982
2	0x3c6be034	0.014396716
3	0x3ce82f26	0.028342795
4	0x3b2c902b	0.0026331048
5	0xbcd9b5c7	-0.026575936
6	0x3a3d5a39	0.0007223222
7	0xbcc222a3	-0.023698157
8	0x3b708faa	0.0036706724
9	0xbc2ce35e	-0.010552255
10	0xbcf89d01	-0.030348303
11	0x3cce870a	0.025210876
12	0xbc3a3376	-0.011364808
13	0xbd246d15	-0.04014309
14	0xbc3c432d	-0.011490625
15	0xbc69ea48	-0.014277048
16	0xbcea1e3d	-0.028578872
17	0x3c9d3b15	0.019193212
18	0x3cf512b8	0.029916152
19	0x3d308c71	0.043102685
20	0xbbfd30f0	-0.007726781
21	0xbcb10af5	-0.02161167
22	0x3d290327	0.041262772
23	0x3d987909	0.074449606
24	0x3cff53e0	0.031167924
25	0x3c8fbc7f	0.017545937
26	0xbd5a165d	-0.053243984
27	0x3bb57a51	0.005538263
28	0xbc7bb681	-0.015363337
29	0xbd84c114	-0.06482139
30	0xbce9c158	-0.028534576
31	0xbc16e53a	-0.009209925
32	0xbc6cfb5c	-0.014464226
33	0x3d1ab3b6	0.037769042
34	0xbd19f545	-0.037587423
35	0xbca10bdb	-0.019658973
36	0xbccab0ef	-0.024742572
37	0xbcd1c816	-0.025608104
38	0x3cd8b839	0.026455032
39	0x3cf2fb2a	0.02966078
40	0x3d9e590c	0.07731828
41	0xbcb3af19	-0.021934079
42	0xbb84e255	-0.004055301
43	0x3d8fbf2f	0.07018887
44	0x3ca576e9	0.020198302
45	0xbb2f727a	-0.0026771114
46	0x3bb3e455	0.005489866
47	0xba919477	-0.0011106868
48	0xbcf35692	-0.029704366
49	0x3cab416a	0.020905215
50	0x3d21d0a0	0.0395056
51	0x3b3c6374	0.0028745802
52	0x3ca219f4	0.019787766
53	0xbd0c0624	-0.034185544
54	0x3d528c21	0.05140317
55	0x3d0f84f2	0.035038896
56	0x3d8d7f67	0.06909066
57	0x3cb04174	0.021515585
58	0xbd54ffb6	-0.052001677
59	0xbb779cd8	-0.0037782695
60	0xbbbed73d	-0.0058239982
61	0x3c0502ef	0.008118375
62	0xbbcb4e3b	-0.006204394
63	0xb8872c9f	-6.445613e-05
64	0x39d67297	0.00040902637
65	0x3aa576f8	0.0012623956
66	0x3ac80d8b	0.0015262825
67	0x39013705	0.00012322895
68	0x3a612311	0.0008588294
69	0xba65421f	-0.00087455095
70	0xba7522bc	-0.0009351184
71	0xba2b6818	-0.00065386435
72	0x3bca903d	0.0061817453
73	0x3d5be2ef	0.053683218
74	0xbc1e55f4	-0.0096640475
75	0xbdc49974	-0.09599581
76	0xbd81e4b8	-0.06342453
77	0xbd0fb56b	-0.035085123
78	0xbc115e70	-0.008872613
79	0xbb0e3bbe	-0.002170309
80	0x3c3673e5	0.01113603
81	0x3bf68bd2	0.007523992
82	0x3cc81fe6	0.024429273
83	0x3de4235d	0.111395575
84	0xbcddfe5c	-0.027098827
85	0xbb2b639e	-0.0026151906
86	0xbb8805fa	-0.004151103
87	0x39dcd265	0.00042118426
88	0xbc0c3b52	-0.008559065
89	0xbcd2f06f	-0.025749413
90	0x3cb49daa	0.022047836
91	0x3c60ec93	0.013728279
92	0xbcb7378c	-0.022365354
93	0xbb3df175	-0.002898303
94	0x3b926a20	0.0044682175
95	0x388cd0e4	6.714629e-05
96	0xbb743896	-0.0037265173
97	0xbca0bcd9	-0.0196213
98	0xbd1c3595	-0.038137037
99	0x3bb11f9b	0.005405379
100	0x3aa24cee	0.0012382546
101	0x3b0cf537	0.0021508464
102	0x3c11b10d	0.00889231
103	0x3baa480a	0.005196576
104	0x3c341c0e	0.010993017
105	0xbd94f372	-0.07272996
106	0x3cd70973	0.026249623
107	0xbc93d0df	-0.018043933
108	0xbc12f85e	-0.008970348
109	0x3c3577b5	0.011075904
110	0x3d476004	0.048675552
111	0x3c37d64d	0.011220527
112	0xbd329f1e	-0.043608777
113	0xbd32e1f1	-0.043672506
114	0x3dcef757	0.1010577
115	0x3bff8127	0.0077973786
116	0x3a9aacbf	0.001180075
117	0x3c9d6455	0.019212881
118	0x3beac609	0.007164721
119	0x3c167369	0.009182789
120	0xbd2299a5	-0.039697308
121	0xbbe17d03	-0.0068813576
122	0xbb3fc20d	-0.002925995
123	0xbc9e1af7	-0.019299967
124	0x3af24288	0.0018482963
125	0x3c88dbae	0.016706314
126	0x3ba9e518	0.005184781
127	0x3b95776a	0.0045613544
128	0x39d032d3	0.0003971072
129	0xba280dff	-0.0006410777
130	0xbc2617f7	-0.01013755
131	0xbc8a1987	-0.016857876
132	0xb9ed8c95	-0.00045308904
133	0x3b21fe87	0.002471836
134	0xb962adac	-0.00021617737
135	0xba82a519	-0.0009967416
136	0xbc93ebce	-0.018056776
137	0xbd4455eb	-0.0479335
138	0xbcecd698	-0.02891092
139	0xbcf5bf1a	-0.02999835
140	0xbca255d4	-0.019816317
141	0xbc803035	-0.015647987
142	0xb9e49c9c	-0.00043604232
143	0x3ac167dc	0.0014755684
144	0xbd2bad11	-0.041913096
145	0xbc2b63f9	-0.010460847
146	0x3cce5088	0.025184885
147	0x3c723eb4	0.014785457
148	0xbc0ab409	-0.008465775
149	0xbca46b2f	-0.02007064
150	0xbcbd2318	-0.023088023
151	0xbbef4ba2	-0.0073027173
152	0x3b10404c	0.002201098
153	0xbbadc436	-0.005302931
154	0xbbc24581	-0.0059286957
155	0x3b8698a3	0.004107551
156	0xbc3e4778	-0.011613719
157	0xbc31a2af	-0.010842009
158	0xbc00ba06	-0.007856851
159	0xbafa1812	-0.001908066
160	0x3b61f7f1	0.003448006
161	0x3cc38410	0.023866683
162	0x3d00059d	0.031255353
163	0x3d130ad3	0.035898995
164	0x3bfbc38c	0.007683223
165	0x3be9c504	0.007134082
166	0xba734739	-0.00092803274
167	0x3a2cb3c8	0.0006588069
168	0xbda56e98	-0.08077735
169	0x3d22a428	0.039707333
170	0x397e783b	0.00024268117
171	0xbd6b6f78	-0.05747935
172	0x3ccd54ce	0.025064852
173	0x3d0890dc	0.033341274
174	0x3ce5a8ad	0.028034532
175	0x3b995a49	0.0046799523
176	0x3c5f2f1b	0.013622071
177	0xbb87b24e	-0.0041411286
178	0xbd201fb7	-0.039092746
179	0xbcd89a84	-0.026440866
180	0xbc960988	-0.018315092
181	0xbaa04ca8	-0.0012229877
182	0x3cb2ec4a	0.021841187
183	0x3b8d358c	0.004309362
184	0x3c8cb09a	0.017174054
185	0xbbd8d8e5	-0.0066176527
186	0xbcfb46e9	-0.030673461
187	0xbcbe0871	-0.023197385
188	0xbc963d7d	-0.018339867
189	0xbc07321a	-0.008251691
190	0x3b7d344c	0.0038635908
191	0x3ad4225b	0.0016184555
192	0x3b52cdf0	0.0032166205
193	0x3cdc31fc	0.026879303
194	0x3a2c2198	0.0006566285
195	0xbb7e2ceb	-0.0038784097
196	0xba26eaa3	-0.0006367361
197	0xb9b40e81	-0.00034343082
198	0xb71f34b9	-9.489414e-06
199	0x3704bc99	7.911724e-06
200	0xbc26d8ae	-0.010183496
201	0x3ceb367d	0.028712505
202	0x3ce99a26	0.028515887
203	0x3c02f92a	0.007993976
204	0x3c307a80	0.010771394
205	0x3bfb7516	0.00767387
206	0x3b9586df	0.004563197
207	0x3a914320	0.0011082627
208	0xbc0b1b43	-0.008490386
209	0x3c48b39c	0.012249853
210	0x3ce0f518	0.02746062
211	0xbd157f11	-0.036498133
212	0x3bab6225	0.0052302056
213	0x3c4a5921	0.012350352
214	0x3badd3f2	0.005304807
215	0x3b054595	0.0020335664
216	0xbcb07c16	-0.021543544
217	0xbcd349f6	-0.025792103
218	0xbb47f42a	-0.0030510523
219	0x3b858c4f	0.004075564
220	0x3c56f00b	0.013118754
221	0x3c079ed9	0.008277618
222	0x3bac8f08	0.005266074
223	0x3b1764b6	0.00231008
224	0x3a62e0bb	0.0008654703
225	0xbbcad874	-0.006190354
226	0x3b84264e	0.0040328866
227	0x3b89ffb2	0.0042113895
228	0x3a4019a5	0.000732804
229	0xba41d0f8	-0.00073935045
230	0xb9f1e096	-0.00046134432
231	0xb404c9d3	-1.2366881e-07
232	0xbcd675b0	-0.026179165
233	0x3d63ed14	0.055646017
234	0x3d31d3c4	0.043414846
235	0xbc95873c	-0.018252961
236	0xbc8ccbc5	-0.017187009
237	0xbd191a34	-0.037378505
238	0xbc387fe1	-0.011260957
239	0x376c66fa	1.4090672e-05
240	0x3ca43693	0.020045554
241	0x3d51195e	0.051049583
242	0xbcb1e47d	-0.021715397
243	0xba5134b6	-0.0007980572
244	0xbd6b8af3	-0.05750556
245	0xbd0aad29	-0.033856545
246	0xba69dd2f	-0.00089212036
247	0x3a8b5827	0.001063113
248	0x390fe53b	0.00013722938
249	0xbc4b6353	-0.012413817
250	0x3b65b3bd	0.003504976
251	0xbc7655ce	-0.015035106
252	0xbc54ddd8	-0.012992345
253	0xbb588ce9	-0.0033042973
254	0xb96ad669	-0.00022395853
255	0xbaaab7f6	-0.0013024795

bias f4 [128]
0	0xbd6a977c	-0.057273373
1	0x9b512686	-1.7300522e-22
2	0x3d027978	0.031854123
3	0x3cddc386	0.027070772
4	0xbdc8ff82	-0.09814359
5	0x3d0deb4c	0.034648225
6	0x3d7f2752	0.06229336
7	0xbcf31115	-0.029671231
8	0x3c9297b3	0.017894601
9	0xbd80715d	-0.06271622
10	0xbd4ad5e2	-0.04952038
11	0xb707002b	-8.046666e-06
12	0x3cef8668	0.029238895
13	0x3c862e54	0.016379513
14	0xbe1ed819	-0.15512122
15	0xbaf48776	-0.0018656093
16	0xbddd6087	-0.10809427
17	0xbd6004ae	-0.054691963
18	0x3d406c12	0.046978064
19	0xbd7939b8	-0.06084606
20	0xade423ab	-2.5936439e-11
21	0xbdd611bf	-0.104526035
22	0x3c38681e	0.011255292
23	0xbdc87d6d	-0.09789548
24	0xbd82a98f	-0.06379997
25	0x3ba5858e	0.0050513214
26	0xb1cd4b65	-5.9748566e-09
27	0xbac83057	-0.0015273195
28	0xbd9356dc	-0.071943015
29	0xbde5e069	-0.112244435
30	0xbd6a4def	-0.05720323
31	0xbd72016b	-0.059083384
32	0xbd13f7d8	-0.036125034
33	0xbbb66fc7	-0.005567524
34	0x3d51dc11	0.051235262
35	0x3d843274	0.06454936
36	0xba63735e	-0.0008676554
37	0xbd92187d	-0.07133577
38	0xbcb281f4	-0.021790482
39	0xbd027718	-0.031851858
40	0xbd09fcd1	-0.03368837
41	0xb78f7917	-1.7103315e-05
42	0x3a9537c3	0.0011384416
43	0xbd2215e7	-0.03957167
44	0x3c939212	0.018013988
45	0xbb1bf81d	-0.002379901
46	0xbc4579c9	-0.012052962
47	0x96012d71	-1.0434876e-25
48	0xa298e4a9	-4.1441786e-18
49	0x3d704314	0.05865772
50	0x3c37ec2a	0.0112257395
51	0xbd3cc5e0	-0.046087146
52	0xbadcb806	-0.0016839511
53	0xa025f126	-1.4055833e-19
54	0xbab7f1a9	-0.0014033812
55	0xb8490ebf	-4.7935868e-05
56	0xbca2ce75	-0.019873837
57	0xbde7637f	-0.11298274
58	0xba3f097f	-0.0007287487
59	0xbace4cef	-0.0015739481
60	0xbd53b657	-0.051687565
61	0xbdc8321f	-0.09775185
62	0x3bd579e3	0.006514774
63	0xbe3a4200	-0.1818924
64	0x9901e2d8	-6.7149544e-24
65	0xbdabded5	-0.08392111
66	0xba43f104	-0.0007474574
67	0x3d625f3d	0.055266608
68	0x3d0936ee	0.03349965
69	0xbda54fea	-0.08071883
70	0xbabad082	-0.0014252814
71	0x3d12c65a	0.035833694
72	0xb02465c6	-5.980748e-10
73	0xbe3987a6	-0.18118152
74	0xbe0df8db	-0.13864462
75	0xbd704eae	-0.058668785
76	0x3d83b738	0.064314306
77	0xbb2b167f	-0.0026105938
78	0x3d8d1b13	0.068899296
79	0xbd243434	-0.040088847
80	0x3d1b4711	0.03790957
81	0xaea68835	-7.573001e-11
82	0x3cbc21ff	0.02296543
83	0xbd405c56	-0.04696306
84	0x3c84ac7e	0.016195532
85	0xba98c03b	-0.0011653969
86	0xb1096bc4	-1.9997382e-09
87	0xb828dd68	-4.0260522e-05
88	0xbdd7e0e2	-0.1054094
89	0xbdf409db	-0.11915942
90	0xbd25468a	-0.040350474
91	0xbd91f51a	-0.071268275
92	0xb813fc70	-3.5282632e-05
93	0x3acf038d	0.0015793905
94	0xbc84a8b6	-0.016193729
95	0x9541639f	-3.9054627e-26
96	0x3cc031dc	0.023461275
97	0x3c4e1892	0.0125791
98	0xbd6c2f8a	-0.057662524
99	0x3cda59e1	0.026654186
100	0xb7a24e0e	-1.9348252e-05
101	0xb88c51b8	-6.6909415e-05
102	0x3bac69b2	0.0052616233
103	0xbc30be62	-0.010787578
104	0xbd0cd26b	-0.034380358
105	0xbd6c1a04	-0.057641998
106	0x3c973ec5	0.018462548
107	0xbd7bac54	-0.06144364
108	0xbda9f8c4	-0.082994014
109	0x919b31b3	-2.4485318e-28
110	0xbe1c0f62	-0.15240243
111	0xb70b0a4e	-8.287445e-06
112	0xbd79a627	-0.06094947
113	0xa38205ab	-1.4097029e-17
114	0x8c9c5941	-2.4089323e-31
115	0x3c9975c8	0.01873292
116	0xa925f1ec	-3.6847194e-14
117	0xbd92d4f7	-0.07169526
118	0xbd2ede98	-0.04269275
119	0xbd1903f6	-0.037357293
120	0x92119ca6	-4.5947017e-28
121	0xbda9ffb1	-0.083007224
122	0xbd6d5910	-0.057946265
123	0xb7c83168	-2.3864864e-05
124	0xb82a039c	-4.053452e-05
125	0xbe0e198c	-0.13876933
126	0xbe04ccbd	-0.12968726
127	0xb53fb253	-7.141254e-07

weight f4 [128, 128]
0	0xb78d9713	-1.687886e-05
1	0x0000c605	7.1036e-41
2	0xbafd9be1	-0.0019348824
3	0xbaa90de3	-0.0012897815
4	0xb9e4353d	-0.00043527214
5	0xb92b0f9c	-0.00016313646
6	0x379b833e	1.8538554e-05
7	0xb8c1e068	-9.244756e-05
8	0x39c15b6c	0.00036879943
9	0xb9fa9868	-0.00047797267
10	0x3a1d2d10	0.00059957895
11	0x0001b44c	1.56514e-40
12	0xbb07236e	-0.0020620483
13	0xb9f0d9fa	-0.00045938772
14	0x3a19aa4d	0.00058618636
15	0x36a08e69	4.7849503e-06
16	0x39a21ab1	0.00030918934
17	0x3822d189	3.8818955e-05
18	0x38787966	5.924087e-05
19	0x38bf76d5	9.129724e-05
20	0xa96aabb1	-5.2107356e-14
21	0x399e80d3	0.0003023209
22	0xbb03e2a4	-0.0020124102
23	0xba97a07e	-0.0011568216
24	0x39a744a5	0.00031903866
25	0xba956b0c	-0.00113997
26	0x0000f4f2	8.787e-41
27	0x38776f1d	5.899287e-05
28	0xba08ee0c	-0.000522346
29	0xb7f73485	-2.946915e-05
30	0xb90bc325	-0.0001332877
31	0xb92d31c2	-0.00016517102
32	0x3a76343c	0.0009391939
33	0xba3671bd	-0.00069596973
34	0x3abd4f9f	0.0014443285
35	0x3918a61f	0.00014557735
36	0x800294e4	-2.37083e-40
37	0x390ea805	0.00013604767
38	0x396f2efe	0.00022810322
39	0xba0bfea2	-0.00053403724
40	0x3968ed8c	0.00022213737
41	0x0000bfb6	6.8773e-41
42	0x38e29a59	0.00010805269
43	0x3a0f713b	0.000547189
44	0x3892114d	6.965045e-05
45	0xb7bfb8de	-2.285506e-05
46	0xb941c50a	-0.00018479317
47	0x000167bd	1.2905e-40
48	0x00028740	2.3219e-40
49	0x3a1fc9b3	0.0006095424
50	0xba984831	-0.0011618194
51	0x3a251991	0.000629806
52	0xb390129e	-6.708909e-08
53	0x80005854	-3.1686e-41
54	0x38ef25f6	0.00011403479
55	0x80002cce	-1.6073e-41
56	0xb998db04	-0.0002915488
57	0x3a8c7ae2	0.0010717774
58	0x000033a1	1.8521e-41
59	0x10e91c17	9.1945575e-29
60	0xbb08f3ba	-0.0020897225
61	0x39b2bbff	0.00034090874
62	0x3938639d	0.00017584716
63	0x3a1a5099	0.0005886644
64	0x0002c41d	2.54023e-40
65	0xba94d790	-0.0011355747
66	0x804c7d36	-7.024415e-39
67	0x3a3a05ba	0.000709619
68	0xb93239d0	-0.0001699694
69	0xba0de1a0	-0.0005412344
70	0x3135cca1	2.6455285e-09
71	0x39c37974	0.00037283788
72	0x0002ccf9	2.57201e-40
73	0x3a7e267e	0.0009695067
74	0x399ac527	0.0002952006
75	0x39c1e865	0.00036984976
76	0x39f46552	0.00046614796
77	0x3836fe6b	4.3629127e-05
78	0xb9b72237	-0.00034929972
79	0x3a417500	0.00073798
80	0xb72e0e6c	-1.0374566e-05
81	0x8000e4b9	-8.205e-41
82	0x38b1e369	8.482376e-05
83	0xb9f6ce9f	-0.0004707472
84	0xbb11ec99	-0.0022266267
85	0x360fb099	2.1411454e-06
86	0x00027a39	2.27516e-40
87	0x00026856	2.211e-40
88	0xba0d70f5	-0.0005395555
89	0xb91d00c7	-0.00014972976
90	0xb6912d62	-4.32662e-06
91	0xb970bb0b	-0.00022957863
92	0x0002aecc	2.46376e-40
93	0x3850404d	4.965095e-05
94	0x39de3c4c	0.00042388064
95	0x1079247c	4.9134698e-29
96	0xbaf49245	-0.0018659314
97	0xb831c47e	-4.2383086e-05
98	0x3a12532a	0.00055818504
99	0xb74a1a3e	-1.2046248e-05
100	0x00016c7b	1.30751e-40
101	0x00027e65	2.29013e-40
102	0xba048ec1	-0.00050566724
103	0x39f4a49d	0.00046661953
104	0xb87c008f	-6.0082002e-05
105	0xb9a9efd3	-0.00032412875
106	0xb815ffbf	-3.576255e-05
107	0xba01aa3d	-0.0004946327
108	0x39ba4a39	0.00035531985
109	0x00004fa7	2.8574e-41
110	0x387c97b8	6.022278e-05
111	0x8000a4d8	-5.9135e-41
112	0x37d51642	2.5401943e-05
113	0x00024d7a	2.11464e-40
114	0x00004137	2.3395e-41
115	0xb94027a6	-0.00018325317
116	0x00000033	7.1e-44
117	0x3a2aa77a	0.00065099413
118	0xbb0a471e	-0.0021099518
119	0xb8e344f1	-0.00010837045
120	0x00028775	2.32264e-40
121	0x3a0608ee	0.0005113025
122	0x3806915b	3.2083462e-05
123	0x8000d6fe	-7.7125e-41
124	0x000154d9	1.22273e-40
125	0x393f32a7	0.00018234049
126	0x398f5cc3	0.00027344198
127	0x0001a1a7	1.49825e-40
128	0xb9e3a79f	-0.000434217
129	0x8002bbae	-2.50998e-40
130	0xbb3b344b	-0.0028565105
131	0xbadfd69e	-0.0017077511
132	0xba53abe3	-0.00080746243
133	0xb9f728c9	-0.00047141899
134	0x39ce0110	0.00039292173
135	0xb98fd480	-0.0002743341
136	0x3a0247d3	0.0004969809
137	0xba4d1c2f	-0.0007824329
138	0x39ada876	0.00033122645
139	0x0001977a	1.46175e-40
140	0xbb43e173	-0.0029889017
141	0xba13ea19	-0.0005642488
142	0x39e5ba53	0.00043817106
143	0xb91baa57	-0.00014845408
144	0x39a2b5f1	0.00031034605
145	0x394926de	0.00019183333
146	0x39c7adcf	0.00038085735
147	0xb8dc3d94	-0.00010501887
148	0xa99b3370	-6.892306e-14
149	0x39d97bc8	0.0004148169
150	0xbb46e1e7	-0.003034705
151	0xbab85583	-0.001406357
152	0x39d9464e	0.00041441846
153	0xbabf23a8	-0.001458277
154	0x8002ba18	-2.50429e-40
155	0x3a03bd95	0.00050255033
156	0xb9d7d685	-0.00041167825
157	0xb938d60d	-0.00017627348
158	0xb991ac17	-0.00027784772
159	0xb9c6a752	-0.00037890166
160	0x3ab7ee34	0.0014032782
161	0xba638334	-0.00086789136
162	0x3af61b18	0.0018776385
163	0x394cee91	0.00019543829
164	0x00020499	1.8532e-40
165	0x3a0a02e1	0.0005264711
166	0x3a15f491	0.0005720342
167	0xba70ca2f	-0.0009185401
168	0x39fd5074	0.00048315863
169	0x00013855	1.12044e-40
170	0x3a0382dc	0.0005016753
171	0x391ec9ad	0.00015143184
172	0x399600c1	0.0002861079
173	0x389102b4	6.914642e-05
174	0xb9c1a1f8	-0.00036932505
175	0x000044ad	2.4636e-41
176	0x8002d162	-2.58783e-40
177	0x3a892003	0.0010461811
178	0xbae44172	-0.0017414524
179	0x3a5418ef	0.00080908736
180	0x33a86fd3	7.84345e-08
181	0x0002aa06	2.44664e-40
182	0x382c0f4b	4.102224e-05
183	0x00028f32	2.3504e-40
184	0xb9eb49a5	-0.00044877562
185	0x3a6f2f84	0.0009124207
186	0x00028fa2	2.35197e-40
187	0x91ceaeb0	-3.2608729e-28
188	0xbb3e2df1	-0.0029019082
189	0x395bb3b8	0.00020952418
190	0x3986d2cd	0.0002571553
191	0x3a34aff3	0.00068926736
192	0x8001c6cb	-1.63149e-40
193	0xba5606f0	-0.0008164486
194	0x8012accf	-1.715031e-39
195	0x3a442bb9	0.0007483322
196	0xb9b8bf83	-0.00035237902
197	0xba40c8e1	-0.0007354152
198	0x317f8b50	3.7186574e-09
199	0xb82cc452	-4.1190833e-05
200	0x0002ab90	2.45216e-40
201	0x3a69cdb2	0.00089188956
202	0x393c426c	0.00017953821
203	0x39c15ab4	0.00036879408
204	0xb941559f	-0.0001843781
205	0xb8a23508	-7.73464e-05
206	0xb8b526df	-8.637993e-05
207	0x3ab8bd0c	0.0014094426
208	0x394fb560	0.00019808626
209	0x8002807e	-2.29765e-40
210	0x386fce3f	5.7174122e-05
211	0xba408b83	-0.00073450076
212	0xbb57a3b3	-0.0032903969
213	0xb65281aa	-3.1367913e-06
214	0x00019c25	1.4785e-40
215	0x8002c233	-2.53337e-40
216	0xba34dd4f	-0.00068994326
217	0xb9910122	-0.000276574
218	0x393a73bc	0.00017781457
219	0xba1ea959	-0.00060524564
220	0x0002b6d0	2.49252e-40
221	0xb7a80082	-2.0027397e-05
222	0x39e72a85	0.00044091433
223	0x10b604dd	7.1793835e-29
224	0xbb2cb18d	-0.0026350946
225	0xb9c3f734	-0.0003737748
226	0x393b514d	0.00017863997
227	0x38cc2fb9	9.736367e-05
228	0x8001acee	-1.53871e-40
229	0x80018676	-1.40071e-40
230	0xb9c0f694	-0.0003680481
231	0x39e20a44	0.00043113728
232	0x3903cfbd	0.00012570522
233	0xb9637600	-0.00021692365
234	0xb9c5e203	-0.0003774316
235	0xba38abe0	-0.00070446543
236	0x39cc0fb7	0.0003892162
237	0x80028559	-2.31507e-40
238	0x399080fc	0.0002756192
239	0x0001fc77	1.82403e-40
240	0xb8a08d44	-7.655707e-05
241	0x8001da49	-1.70141e-40
242	0x8000e36f	-8.1588e-41
243	0xba5aeff6	-0.0008351797
244	0x00003823	2.0138e-41
245	0x3a099ce4	0.0005249514
246	0xbb3e553f	-0.002904251
247	0xb99d41f0	-0.000299945
248	0x00025b1e	2.16358e-40
249	0x397e0c53	0.00024227919
250	0x397048b1	0.00022915263
251	0x00025d4d	2.17141e-40
252	0x0001ae72	1.54415e-40
253	0x391008fd	0.00013736259
254	0x3a342233	0.0006871551
255	0x800155e7	-1.22651e-40

bias f4 [128]
0	0xb8d8c97f	-0.00010337214
1	0xb9104967	-0.00013760255
2	0x3923a40f	0.00015606008
3	0xb908ff5a	-0.00013065097
4	0x3922f727	0.00015541595
5	0xb928344d	-0.00016041212
6	0x3904555e	0.00012620303
7	0x3cc869fc	0.0244646
8	0xba0da6d0	-0.000540358
9	0x38bbe327	8.959165e-05
10	0x3d1e445b	0.038639408
11	0xb90592d9	-0.00012738573
12	0xb8d97037	-0.00010368268
13	0xb907a18f	-0.00012934789
14	0xb8daa33f	-0.00010425457
15	0x3a189fca	0.000582215
16	0x38c4975d	9.374202e-05
17	0xb8eb2233	-0.00011212043
18	0xb88ff39a	-6.864146e-05
19	0xb9003e14	-0.00012230157
20	0x391cef54	0.00014966476
21	0x38ac3a24	8.212429e-05
22	0x367e5767	3.7899824e-06
23	0xb8f1ef98	-0.00011536403
24	0xbbeaa705	-0.0071610236
25	0xb8c74a0b	-9.502851e-05
26	0x392133b2	0.00015373414
27	0x399d64f9	0.00030020604
28	0x391b9841	0.00014838671
29	0xba476610	-0.0007606456
30	0xb9045993	-0.0001262187
31	0x3909ad98	0.00013130007
32	0xb8e7bbf5	-0.00011049948
33	0x37af5605	2.0901682e-05
34	0xb84fed00	-4.957337e-05
35	0xb66dda66	-3.5442877e-06
36	0x39041414	0.0001259598
37	0xb902d441	-0.00012476837
38	0x389d0f8f	7.4892414e-05
39	0x39130deb	0.00014024197
40	0x3a20545e	0.00061160873
41	0x38e18709	0.00010753988
42	0x3a1fa741	0.00060902914
43	0x38fb416a	0.00011980797
44	0x38ac1e7a	8.207276e-05
45	0xb9f39863	-0.0004646211
46	0xb908d6b1	-0.0001304995
47	0xb90ad003	-0.00013238196
48	0x38db1ee3	0.00010448487
49	0x3804162e	3.149191e-05
50	0xb90031e7	-0.00012225621
51	0xba29c2c7	-0.00064758625
52	0x39236aed	0.00015584724
53	0xb90326cc	-0.00012507587
54	0x3b75bf65	0.0037498113
55	0xb90456b3	-0.00012620799
56	0x38256e30	3.9441686e-05
57	0xb8f891cd	-0.00011852719
58	0xb8d11e74	-9.971569e-05
59	0xbac9642f	-0.001536494
60	0xb904247f	-0.00012602097
61	0x392f64e0	0.0001672688
62	0xb9812efe	-0.0002463981
63	0xb903ad11	-0.00012557606
64	0xb986e928	-0.00025732187
65	0xb9071bc3	-0.00012884945
66	0xb8e490b2	-0.00010898839
67	0xb934da59	-0.00017247479
68	0x3908fc73	0.00013064015
69	0xb99c8959	-0.0002985697
70	0xb9711b12	-0.00022993636
71	0xb8742ab6	-5.821391e-05
72	0x398ee40d	0.00027254262
73	0xb67d5bc9	-3.7753364e-06
74	0xbd2159fc	-0.039392456
75	0xb8cbd5df	-9.719631e-05
76	0x3bfc15ea	0.007693042
77	0xb9067705	-0.00012823574
78	0xb9059c81	-0.0001274217
79	0x39db0d82	0.00041781
80	0x388ffb9a	6.865636e-05
81	0xb9027966	-0.0001244299
82	0x3901be20	0.00012373226
83	0xb901cf93	-0.00012379726
84	0xb9147312	-0.00014157247
85	0xb92f84a6	-0.00016738716
86	0xb9061fb3	-0.00012791045
87	0xb91ac3b5	-0.00014759491
88	0xb8e3fe31	-0.0001087155
89	0xb903d772	-0.00012573393
90	0xb90377bd	-0.0001253774
91	0x38f2b225	0.00011572641
92	0x38d2730f	0.00010035012
93	0xb8d1ad8e	-9.998224e-05
94	0xb9065dfd	-0.00012814249
95	0x38b21db7	8.493236e-05
96	0x3909b374	0.0001313219
97	0x38ec982a	0.000112817
98	0xb902c11a	-0.00012469702
99	0x3a06812a	0.0005130941
100	0xb8dbcd11	-0.0001048093
101	0x3919f542	0.00014682583
102	0x3828f19c	4.0279338e-05
103	0x37c529d2	2.3503704e-05
104	0xb9a3a00d	-0.0003120903
105	0xb91558ee	-0.00014242876
106	0x38e5f9f6	0.0001096613
107	0x3903e481	0.00012578258
108	0x388d17ee	6.727861e-05
109	0x39057eba	0.00012731078
110	0x38c01022	9.1582784e-05
111	0x394daa6a	0.00019613808
112	0xb9091ce4	-0.00013076101
113	0x38f49f29	0.000116644725
114	0xb8b55ad9	-8.647674e-05
115	0x3a0b41db	0.00053122424
116	0x3c2f4c0a	0.0106992815
117	0xb8dca482	-0.000105210594
118	0x38f8cb7a	0.00011863462
119	0x38eb2adf	0.000112136586
120	0x38c5a360	9.424123e-05
121	0x3894888c	7.082624e-05
122	0xb99e0915	-0.00030142875
123	0x39028ebd	0.0001245094
124	0xb913e68c	-0.00014104898
125	0xbc801e92	-0.015639577
126	0x3605d7bc	1.9944118e-06
127	0xb8e1cba3	-0.00010766766

weight f4 [128, 224]
0	0x38408258	4.589776e-05
1	0xb8c79907	-9.517563e-05
2	0x38d8eb34	0.000103434926
3	0xb80f2930	-3.4132216e-05
4	0x38d9fc2a	0.000103943355
5	0xb8e568a3	-0.00010939061
6	0x377a5460	1.4920806e-05
7	0x3aa67647	0.0012700044
8	0x390021b9	0.00012219594
9	0x3803ae5d	3.1395222e-05
10	0xbc84b0e7	-0.016197635
11	0xb7a7aa0e	-1.998714e-05
12	0x38a1b476	7.710692e-05
13	0xb7d2fa8a	-2.5150617e-05
14	0x38c0f8c7	9.201612e-05
15	0x39dcde16	0.00042127137
16	0xb85565bf	-5.0877916e-05
17	0x39058442	0.00012733138
18	0x3879ff62	5.960407e-05
19	0x37d4d455	2.5371244e-05
20	0x38c68da4	9.467758e-05
21	0xb8417075	-4.611952e-05
22	0x38e511a8	0.0001092286
23	0x3902d906	0.00012478614
24	0xbbb01d72	-0.005374604
25	0x3886ad41	6.421889e-05
26	0x39379277	0.00017506802
27	0x3995cb91	0.00028571163
28	0xb995965e	-0.00028531527
29	0xb91faf2e	-0.00015228681
30	0xb4d404b8	-3.949151e-07
31	0x380986f0	3.2789016e-05
32	0xb880f62c	-6.149369e-05
33	0x39283cc7	0.0001604437
34	0xb9037dec	-0.00012540043
35	0xb89794b5	-7.22794e-05
36	0xb8d56c92	-0.00010176854
37	0xb6ce1e38	-6.1427963e-06
38	0xb831273f	-4.223664e-05
39	0x38b4db12	8.623874e-05
40	0x39b4d3fb	0.00034490213
41	0xb89071f0	-6.8876776e-05
42	0x39abd99b	0.0003277779
43	0xb7e0c33b	-2.6793792e-05
44	0xb7ab621a	-2.043047e-05
45	0x390e6430	0.00013579498
46	0xb802ba78	-3.1168078e-05
47	0xb82b1770	-4.0791405e-05
48	0xb84296ff	-4.639383e-05
49	0xb8bde2a6	-9.054439e-05
50	0xb8a33b4e	-7.783492e-05
51	0xb952dadb	-0.0002010869
52	0xb96e3ebf	-0.00022720823
53	0x38f609ab	0.00011731995
54	0x3b90b35e	0.0044159135
55	0xb89b5b7c	-7.408016e-05
56	0xb7feccea	-3.037458e-05
57	0x380d2d9b	3.3659493e-05
58	0x38bba262	8.947101e-05
59	0xbb7d8783	-0.0038685508
60	0x36d3b8d9	6.309809e-06
61	0xb902d51d	-0.00012477157
62	0xb94db7b5	-0.0001961876
63	0xb705d22d	-7.976353e-06
64	0xb987c7f1	-0.00025898174
65	0xb7aea48f	-2.0819045e-05
66	0xb498b7cc	-2.8445936e-07
67	0x37bcb085	2.2493545e-05
68	0x37f950ed	2.9720797e-05
69	0xb99327ff	-0.00028067824
70	0xb97de9b7	-0.00024215026
71	0xb9816c28	-0.0002468538
72	0x38cdc869	9.812491e-05
73	0x38fc865a	0.00012041321
74	0x3c5b728e	0.013394011
75	0xb923d608	-0.00015624624
76	0x39671264	0.00022036728
77	0xb7b95194	-2.2091706e-05
78	0xb79568b9	-1.781095e-05
79	0xb92f5f2b	-0.00016724753
80	0xb84efe48	-4.9351045e-05
81	0xb88c91cd	-6.702878e-05
82	0x38f32878	0.00011594681
83	0x377d7132	1.51063305e-05
84	0xb8b882bc	-8.798155e-05
85	0xb8ed72f2	-0.00011322451
86	0xb7a5b096	-1.9751762e-05
87	0xb8d8416f	-0.000103118706
88	0x38d0bb2f	9.9530786e-05
89	0x367ae04e	3.7383465e-06
90	0xb70b966d	-8.320069e-06
91	0xb90623e6	-0.00012792609
92	0xb89c0abb	-7.4406584e-05
93	0x387dce45	6.0512004e-05
94	0xb78c8f55	-1.6756045e-05
95	0x390f042a	0.00013639094
96	0x38093f65	3.2722386e-05
97	0xb85c7b7d	-5.2567095e-05
98	0x372b29ad	1.0202098e-05
99	0xb863fad5	-5.4354623e-05
100	0x387d3b78	6.0375285e-05
101	0xb90473af	-0.00012631596
102	0xb957ac3c	-0.0002056816
103	0xb939f4a8	-0.00017734116
104	0xb8ab079b	-8.155332e-05
105	0xb8bc4db6	-8.9790134e-05
106	0xb862f5ae	-5.4111406e-05
107	0x373360e6	1.0691792e-05
108	0x39122b4f	0.00013939779
109	0x37871431	1.6102656e-05
110	0x391553d7	0.0001424098
111	0xb814644a	-3.537935e-05
112	0xb80412b6	-3.148868e-05
113	0xb82e9e0a	-4.1632018e-05
114	0x382ef4f3	4.171296e-05
115	0x398ecbb4	0.0002723612
116	0x3b9c4448	0.004768882
117	0x389aa095	7.373203e-05
118	0xb80bad24	-3.3301432e-05
119	0x39359499	0.00017316862
120	0xb8bbab8d	-8.948809e-05
121	0x35d153e0	1.5596124e-06
122	0xb9072759	-0.00012889261
123	0x3605a98f	1.991724e-06
124	0xb883da33	-6.2872095e-05
125	0x3c1c8945	0.009554212
126	0x38d94ddf	0.00010361871
127	0x38d1879b	9.991155e-05
128	0xbb96ed08	-0.004605893
129	0xbc0ed811	-0.008718506
130	0xbb6e295c	-0.003634057
131	0x3b00c17f	0.0019646583
132	0x3c176d44	0.00924236
133	0x3c826d50	0.015921265
134	0x3d08932a	0.03334347
135	0x3d30d08a	0.04316763
136	0x3b1af2b2	0.0023643193
137	0xbbb59d2c	-0.005542418
138	0x3c159138	0.009128861
139	0x3cc4853d	0.023989314
140	0xbb1d7ec0	-0.0024031848
141	0xbd167a7e	-0.03673791
142	0xbd27d89e	-0.040978067
143	0xbcad7d13	-0.021177804
144	0xbbaebf38	-0.0053328536
145	0x3d30af76	0.043136083
146	0x3c1ac5e0	0.009446591
147	0x3c27d8af	0.0102445325
148	0xb9e97d0b	-0.00044534387
149	0x3b7a13d6	0.0038158796
150	0x3be96f20	0.007123843
151	0xbc8973c5	-0.016778836
152	0xbca5c2f8	-0.02023457
153	0xbcaadb23	-0.020856446
154	0xbc5b2659	-0.013375842
155	0xbc1e5470	-0.009663686
156	0xbc64d864	-0.013967607
157	0xbcb8518a	-0.022499818
158	0xbc89522c	-0.016762815
159	0xbc5b2cfe	-0.013377426
160	0xb987de5f	-0.00025914886
161	0x3c07652b	0.008263866
162	0x3bb14a15	0.0054104426
163	0x3c7a1649	0.015264102
164	0xbbafa32e	-0.0053600287
165	0x396deec6	0.00022691031
166	0xba938213	-0.0011253975
167	0x3c17d19e	0.009266285
168	0xbc275642	-0.010213437
169	0x3b51e6a0	0.0032028332
170	0xbbd0a4c8	-0.0063672997
171	0xbcc2d755	-0.023784319
172	0xbc876aea	-0.016530473
173	0xbbc17da1	-0.0059048687
174	0x393d15f7	0.00018032627
175	0x3b9bb6cb	0.004752015
176	0xba0c8b3e	-0.0005361325
177	0xbb65d649	-0.003507035
178	0xbbab6c26	-0.005231398
179	0xbc007f20	-0.007842809
180	0xbc0d196f	-0.008612021
181	0x3b855cd5	0.0040699043
182	0x3ce274d0	0.027643591
183	0xbc10f5fc	-0.00884771
184	0x3cc41547	0.023935927
185	0x3d2703b7	0.040775027
186	0xbd614355	-0.054995853
187	0xbd5ec79c	-0.05438958
188	0xbc669b46	-0.014075106
189	0xb9bcfd9e	-0.00036047114
190	0xb801eead	-3.097828e-05
191	0xb25d196a	-1.28696716e-08
192	0xbc5e8ed6	-0.013583859
193	0xbd03bb5b	-0.032161098
194	0xbbaa773f	-0.0052022035
195	0xbc68792c	-0.014189046
196	0xbd03ef0f	-0.032210406
197	0x3bd5e05c	0.00652699
198	0xba168a7b	-0.0005742681
199	0x3c7f3bde	0.015578238
200	0xbb1e3a64	-0.002414369
201	0x3b63bec2	0.0034751152
202	0xbb98a375	-0.0046581575
203	0x3d1079a1	0.035272244
204	0xbca39cd7	-0.019972248
205	0x3c34f469	0.0110446
206	0x3d107b35	0.03527375
207	0xbc1038cf	-0.008802607
208	0x3cdcbc2a	0.026945192
209	0x3cff46f9	0.031161772
210	0x3dc00f77	0.0937795
211	0x3c9d8e45	0.019232878
212	0x3daa071e	0.08302139
213	0x3c4e5b74	0.012595046
214	0x3ca2f58b	0.019892475
215	0xbce666d6	-0.028125208
216	0x3db51662	0.0884216
217	0x39926931	0.00027925664
218	0xbc62f08a	-0.013851294
219	0xbc03c75b	-0.0080431355
220	0x3d609848	0.054832727
221	0xbb879776	-0.0041379286
222	0xbab116b1	-0.0013510791
223	0xbc5c0a8a	-0.013430247
224	0x3a5b45c8	0.0008364585
225	0x39c1b8de	0.00036949565
226	0xba381183	-0.00070216524
227	0x3a3c1ed8	0.0007176227
228	0xb9cfc7d1	-0.00039630992
229	0x39dd6150	0.00042224908
230	0xba471714	-0.00075946865
231	0xbb802ce9	-0.0039116037
232	0x3af5e1b2	0.0018759279
233	0xb9f0d4bd	-0.0004593487
234	0x3b9100b6	0.0044251336
235	0x3a4461c2	0.00074913737
236	0x3a64477a	0.00087081606
237	0x3a442545	0.000748236
238	0x3a5b04ca	0.00083549006
239	0xbb1aece6	-0.0023639738
240	0xba439ff4	-0.00074624945
241	0x3a929969	0.0011184636
242	0x3a8c8968	0.0010722103
243	0x3a62efa5	0.00086569256
244	0xba4111d2	-0.0007365021
245	0xba2d77d9	-0.0006617285
246	0x39626236	0.00021589626
247	0x3a953c76	0.0011385817
248	0x3b69035d	0.0035554983
249	0x3a503bf4	0.0007943504
250	0xb9811419	-0.0002461977
251	0xbaa30009	-0.0012435924
252	0xba52d062	-0.0008041916
253	0x3b00849d	0.0019610294
254	0x3a541817	0.0008090748
255	0xba3e2649	-0.000725363

bias f4 [128]
0	0xbcd10a77	-0.025517685
1	0x3b4d3a0c	0.0031315116
2	0xbdd12c67	-0.10213547
3	0xbdc926f2	-0.09821881
4	0x80204f20	-2.96712e-39
5	0xbb39f965	-0.002837741
6	0xbb31fd1e	-0.0027158926
7	0xbc253a56	-0.010084709
8	0x3cbce4c9	0.023058312
9	0x3c921c5c	0.017835788
10	0xbba17bd2	-0.0049280906
11	0x843e0675	-2.2337358e-36
12	0xbdbc6c34	-0.092003256
13	0x9a80080a	-5.295255e-23
14	0xbc5bf859	-0.01342591
15	0xbb59bfae	-0.0033225822
16	0xbe13d6b1	-0.14437367
17	0xbabc5e9c	-0.0014371458
18	0xbda1372a	-0.0787185
19	0xbcaee3fb	-0.021348944
20	0xbd9abaa3	-0.075551294
21	0xbb17d134	-0.0023165466
22	0x3d3df760	0.046378493
23	0xb9602ab1	-0.00021378208
24	0xbc868c8e	-0.016424444
25	0xbcf278d0	-0.029598624
26	0xb1ce6238	-6.0065553e-09
27	0xbc38237c	-0.011238929
28	0xbd51289b	-0.051064115
29	0xbaa98179	-0.0012932263
30	0xbd840318	-0.064459026
31	0xbad5e517	-0.0016318884
32	0xb7a761bd	-1.9953464e-05
33	0xb5d6e5ba	-1.6011102e-06
34	0xbc92074f	-0.01782575
35	0x3b70394e	0.003665525
36	0xaf3fed77	-1.7455713e-10
37	0xbc42dde0	-0.011893719
38	0x3d569120	0.052384496
39	0xbceeb0e2	-0.029137079
40	0xbd8e0c9c	-0.06935999
41	0x3d38c939	0.045113776
42	0xbdd472bc	-0.10373446
43	0xbc7f573b	-0.015584762
44	0x3b14877e	0.0022663767
45	0xbc11317f	-0.008861898
46	0xbda87e20	-0.082271814
47	0xbad0fd25	-0.0015944584
48	0x84affbbc	-4.1373484e-36
49	0x8df5a797	-1.5139637e-30
50	0xba7f65a6	-0.0009742625
51	0xbcefc79f	-0.029269991
52	0xb4b3d28e	-3.3494547e-07
53	0xb662fcd7	-3.3823796e-06
54	0xbb232074	-0.002489117
55	0xbb15d029	-0.0022859669
56	0xb8143b3c	-3.5341116e-05
57	0xa08ec0a1	-2.4183207e-19
58	0xb39f17c1	-7.408335e-08
59	0xa8b67750	-2.0257803e-14
60	0x3b270dd5	0.0025490422
61	0xbd398189	-0.04528955
62	0x85793010	-1.17167514e-35
63	0xbaf9dd24	-0.0019063097
64	0xb0dab116	-1.5911918e-09
65	0xbd4ef18e	-0.050523333
66	0xba9f5e4a	-0.0012158838
67	0xbd54555a	-0.05183921
68	0xb9c21461	-0.00037017747
69	0xbd83310d	-0.0640584
70	0xba977301	-0.001155466
71	0xbdd8fe56	-0.10595386
72	0x3d6f6e14	0.058454588
73	0xba11a08e	-0.00055552355
74	0xbafcc5d5	-0.0019285033
75	0xba80970d	-0.0009810642
76	0xbaf79faf	-0.0018892194
77	0x88d9adf3	-1.3101108e-33
78	0xbc97467f	-0.018466232
79	0x394b055f	0.0001936159
80	0xbb108c41	-0.0022056254
81	0xba38b70d	-0.00070463197
82	0xbcca4e72	-0.024695609
83	0x3d21d63b	0.039510947
84	0xb8898c30	-6.558781e-05
85	0x3c23601f	0.0099716475
86	0x3d865280	0.065587044
87	0xaebc2e61	-8.557489e-11
88	0x3891b166	6.947182e-05
89	0xb9311645	-0.00016888331
90	0x87aad9dc	-2.5706803e-34
91	0xbdefa23c	-0.117008656
92	0xbd72bb2f	-0.059260543
93	0xbe1be603	-0.15224461
94	0xa503eac7	-1.1441984e-16
95	0x3be285e0	0.006912932
96	0xb179b6ca	-3.6338172e-09
97	0x88a74e65	-1.0069377e-33
98	0xb68df7bf	-4.230969e-06
99	0x3de220fb	0.11041447
100	0xba8e2c14	-0.0010846877
101	0x3bb0502c	0.005380651
102	0xbc389c71	-0.011267767
103	0xac4679d4	-2.820512e-12
104	0xba560eb2	-0.0008165642
105	0xba695cf6	-0.0008902097
106	0xba5a2d2d	-0.0008322772
107	0x3d3c2df3	0.045942258
108	0xb3fea51e	-1.1857831e-07
109	0xb6f3083d	-7.2429234e-06
110	0x0000b281	6.4035e-41
111	0xbd069ae3	-0.032862555
112	0xbd6b1b5f	-0.05739915
113	0xbd0801e7	-0.03320494
114	0xb8bbd27d	-8.956061e-05
115	0xbcb507a6	-0.022098374
116	0x3c991195	0.018685142
117	0xb3d0ac5e	-9.717108e-08
118	0xbda1a582	-0.07892896
119	0xba62385d	-0.00086296146
120	0xbd6c6f3e	-0.057723276
121	0x3af5278c	0.0018703802
122	0xba314906	-0.00067628955
123	0x1435f728	9.186908e-27
124	0x3d5dff92	0.05419881
125	0xbaf8b70b	-0.001897545
126	0x3c52f455	0.012875636
127	0xbaae1af0	-0.0013283174

weight f4 [64, 128]
0	0xadb2a7dd	-2.0310803e-11
1	0xac7a4c1a	-3.5569382e-12
2	0x2da220ba	1.8431801e-11
3	0xae42284c	-4.4146284e-11
4	0x00019928	1.46778e-40
5	0x2d3487dd	1.0261983e-11
6	0xad006270	-7.297815e-12
7	0x2c1ebbe4	2.255745e-12
8	0x2ba0303d	1.1382073e-12
9	0x2b93ce7f	1.0502292e-12
10	0x870af498	-1.0453846e-34
11	0x0002823e	2.30393e-40
12	0xada42ff2	-1.8665933e-11
13	0x00015561	1.22464e-40
14	0xae918a93	-6.618452e-11
15	0xa8fdfd7a	-2.819857e-14
16	0xab8e63a5	-1.0117364e-12
17	0x800232bd	-2.01872e-40
18	0x2d9cb0ed	1.7813718e-11
19	0x2bf5e583	1.7471999e-12
20	0xac71a6e0	-3.4340794e-12
21	0x0001e53c	1.74069e-40
22	0x2b95c940	1.0642945e-12
23	0x80005cfc	-3.3357e-41
24	0xade34554	-2.58377e-11
25	0xad07854c	-7.703459e-12
26	0x800005e3	-2.112e-42
27	0xab043a74	-4.697694e-13
28	0xae070c03	-3.0706115e-11
29	0x00005909	3.194e-41
30	0xab40f090	-6.854595e-13
31	0xab67f85b	-8.241235e-13
32	0x00002f81	1.7041e-41
33	0x00023302	2.01969e-40
34	0x2d0ea889	8.109188e-12
35	0xac2a4184	-2.4194821e-12
36	0x80010b67	-9.5926e-41
37	0x2c4f477a	2.9456147e-12
38	0xad35b67b	-1.0329178e-11
39	0x2e5e2798	5.0512122e-11
40	0x2e14512d	3.3723403e-11
41	0xae017575	-2.9435527e-11
42	0xacc44027	-5.5777774e-12
43	0xaccc97ac	-5.8148677e-12
44	0xae381344	-4.1853868e-11
45	0xae0393a3	-2.991708e-11
46	0xae962a79	-6.828755e-11
47	0xa9e19f38	-1.0019627e-13
48	0x80004ce9	-2.759e-41
49	0x8000e322	-8.148e-41
50	0x8001d8e3	-1.6964e-40
51	0xadc7736b	-2.2674937e-11
52	0x00009f93	5.7244e-41
53	0x0000aa49	6.1087e-41
54	0xacb5fad5	-5.1721774e-12
55	0x8cec003b	-3.6361696e-31
56	0x00003a47	2.0906e-41
57	0x80002efb	-1.6853e-41
58	0x0002cfc9	2.5821e-40
59	0x0001337f	1.10309e-40
60	0xadb97df6	-2.1088003e-11
61	0xad368c3b	-1.037664e-11
62	0x8001351c	-1.10888e-40
63	0x8000f973	-8.9486e-41
64	0x00026ac1	2.21967e-40
65	0xadcad533	-2.305942e-11
66	0xac06d42d	-1.9160327e-12
67	0xab2b3dd9	-6.0837235e-13
68	0x00000783	2.695e-42
69	0xaead7148	-7.887252e-11
70	0x80018e26	-1.42829e-40
71	0xad14dd3f	-8.4619525e-12
72	0x2c0b2a61	1.9776613e-12
73	0x00011db3	1.0249e-40
74	0xad3faa06	-1.0894846e-11
75	0xa50b5b74	-1.2087314e-16
76	0xa38dd2fe	-1.537661e-17
77	0x0000392a	2.0507e-41
78	0xade5ff95	-2.6147787e-11
79	0x80027ff7	-2.29576e-40
80	0x86c7a792	-7.51017e-35
81	0x1b14b208	1.2299798e-22
82	0x2ca7ebfd	4.7726254e-12
83	0x2c232275	2.318282e-12
84	0x00002da1	1.6369e-41
85	0x2b9c0cb5	1.1087994e-12
86	0x2b9aa9b4	1.098946e-12
87	0x8001baca	-1.58843e-40
88	0xabdd0e25	-1.570692e-12
89	0x80016622	-1.28474e-40
90	0x00016cdc	1.30887e-40
91	0xac35f7f4	-2.5859289e-12
92	0xaded79f6	-2.6997942e-11
93	0x1c627350	7.4926165e-22
94	0x00009042	5.175e-41
95	0xad633b00	-1.2916557e-11
96	0x8000901f	-5.1701e-41
97	0x00000537	1.871e-42
98	0x80011c46	-1.01978e-40
99	0x2c5b0960	3.1126976e-12
100	0x800263e1	-2.19501e-40
101	0xae864615	-6.1060636e-11
102	0x2d745b91	1.3890126e-11
103	0x0001212c	1.03735e-40
104	0xab302ecb	-6.25927e-13
105	0x8000b98f	-6.6566e-41
106	0x8000f20b	-8.6829e-41
107	0xabe7fe46	-1.6484112e-12
108	0x80029df4	-2.40334e-40
109	0x8001dd67	-1.7126e-40
110	0x0000421b	2.3714e-41
111	0x2bf765b8	1.7578638e-12
112	0x2cebe1db	6.7041767e-12
113	0xadf7eb73	-2.818521e-11
114	0x8000bba4	-6.7313e-41
115	0x2c3440f6	2.56156e-12
116	0xabf26b44	-1.7224906e-12
117	0x0002820b	2.30322e-40
118	0xab200de5	-5.68627e-13
119	0x848fcf68	-3.380961e-36
120	0xad6f55ee	-1.3604657e-11
121	0x2bdd4983	1.5723398e-12
122	0x000194b1	1.45176e-40
123	0x00011e57	1.0272e-40
124	0xaddcfc2c	-2.5123091e-11
125	0xaad87270	-3.8448715e-13
126	0x2c82b946	3.7153917e-12
127	0xad7e5c85	-1.4458772e-11
128	0x3cbe3c7a	0.023222197
129	0xbd4847d8	-0.04889664
130	0x3b2f97a3	0.0026793263
131	0xbd434532	-0.04767341
132	0x0016971d	2.07459e-39
133	0xba1e044d	-0.00060278625
134	0xbaf4b0c8	-0.0018668408
135	0x3d248985	0.04017021
136	0xbade1d69	-0.0016946021
137	0x3b6abe85	0.0035819125
138	0x3b5efe77	0.0034026185
139	0x80026de7	-2.23097e-40
140	0x3d00158d	0.031270552
141	0x0002234c	1.96333e-40
142	0xbcfb9626	-0.030711245
143	0x39985e66	0.00029062032
144	0x3c2481ed	0.010040742
145	0xb88ef04f	-6.8158486e-05
146	0xbd787d77	-0.060666528
147	0xbbc7b755	-0.006094853
148	0x3d0b0df4	0.033948854
149	0xb9a62210	-0.00031687366
150	0x3ced6001	0.028976442
151	0x3581bf21	9.666875e-07
152	0xbc47619a	-0.012169266
153	0xbc5d9a27	-0.013525522
154	0x9dad8581	-4.593076e-21
155	0x3cb0ba0c	0.021573089
156	0xbd3fced5	-0.04682811
157	0xba75b8b9	-0.0009373534
158	0x3dc82dfc	0.09774396
159	0x3c09b199	0.008404159
160	0x3000d3fe	4.686739e-10
161	0xb4ade438	-3.2389812e-07
162	0x3c1409ca	0.009035537
163	0xbbbf4b50	-0.0058378354
164	0x0bf77548	9.5317404e-32
165	0x3bf13288	0.00736076
166	0x3d4bbd83	0.04974128
167	0xbca792b1	-0.02045569
168	0xbc809b19	-0.015698956
169	0xbd23a710	-0.039954245
170	0x3bbb1742	0.0057095597
171	0xbc956f5a	-0.018241573
172	0x3bed5588	0.007242862
173	0x3bf882cf	0.007583953
174	0xbd7e7f43	-0.062133085
175	0xbaa71575	-0.0012747484
176	0x8002a104	-2.41433e-40
177	0x0001bff7	1.607e-40
178	0x37fe8510	3.0341122e-05
179	0x3c8d026c	0.017213069
180	0x2bde03ed	1.5775138e-12
181	0xb6e3c295	-6.7877795e-06
182	0xbb1ce06b	-0.0023937474
183	0xba01b827	-0.00049484003
184	0x23df4927	2.420869e-17
185	0xa02300af	-1.3806863e-19
186	0xb61e30c1	-2.3572213e-06
187	0xae72fd58	-5.5249444e-11
188	0x3a399704	0.0007079693
189	0x3d403486	0.04692509
190	0x04d49348	4.9976217e-36
191	0xba3cd6a0	-0.00072036125
192	0x2c280aa4	2.3880143e-12
193	0xbb3db1b3	-0.0028945028
194	0x3b038881	0.0020070376
195	0xbca9d240	-0.020730138
196	0xb89a2e17	-7.351877e-05
197	0xbda95630	-0.08268392
198	0x395702c9	0.00020505035
199	0x3d0afa8b	0.033930343
200	0x3cf19726	0.029491019
201	0x3786ce41	1.607009e-05
202	0xbc2197b0	-0.009862825
203	0x39eab6f1	0.0004476826
204	0x3a0a2096	0.0005269138
205	0x01814b70	4.7495364e-38
206	0xbbc8fa11	-0.006133326
207	0xb94374cd	-0.00018640161
208	0xb928d6d1	-0.00016101754
209	0xba37022b	-0.0006981219
210	0xbc671c00	-0.014105797
211	0x3d5411f9	0.051774953
212	0xb77d051b	-1.5081164e-05
213	0x3da426d4	0.080152184
214	0xbba00adc	-0.004884107
215	0x8001be9b	-1.60212e-40
216	0x3b6a9e3c	0.0035799881
217	0x3174f48f	3.5645689e-09
218	0x8001340f	-1.1051e-40
219	0xbc497a12	-0.01229717
220	0xbd6c7d4b	-0.057736676
221	0x3c186bff	0.009303092
222	0x80007be9	-4.445e-41
223	0xbc7bc714	-0.015367288
224	0xb30b3ce9	-3.2418857e-08
225	0x0001e82a	1.7512e-40
226	0x358a076d	1.0283962e-06
227	0x3d23090c	0.03980355
228	0xb8ccdad6	-9.7682394e-05
229	0xbc710ea3	-0.014712962
230	0x3c021643	0.007939878
231	0xa9be1a1b	-8.4422236e-14
232	0x3ab8b7fb	0.0014092916
233	0xb96de79d	-0.00022688364
234	0x399462f7	0.00028302494
235	0x3c848ef9	0.016181456
236	0x95af0101	-7.068352e-26
237	0xb59e9489	-1.1815147e-06
238	0x97a5417a	-1.0679404e-24
239	0x3dd291cc	0.10281715
240	0xbc3775cc	-0.011197519
241	0xbc9be72b	-0.019031128
242	0x374e569b	1.2298721e-05
243	0xbc5a8a5e	-0.013338653
244	0xbd0daa4b	-0.034586232
245	0x3210bf83	8.425448e-09
246	0x3d01a23a	0.031648852
247	0x39c81a7e	0.0003816671
248	0xbd214043	-0.039367925
249	0x3d3e421d	0.04644977
250	0xbab157b8	-0.001353017
251	0x800127f5	-1.0617e-40
252	0xbc96ebdc	-0.018423013
253	0x3a0198c9	0.0004943726
254	0x3d99e9dc	0.07515308
255	0xbb3d8bdd	-0.0028922476

bias f4 [64]
0	0xaeb890aa	-8.393049e-11
1	0x3b0b8a92	0.002129231
2	0x3b150585	0.0022738886
3	0x3b867633	0.004103446
4	0x3aad0abf	0.0013202055
5	0xa09a09bf	-2.6095064e-19
6	0xb74c5c65	-1.218086e-05
7	0xbb8ff4ef	-0.004393212
8	0xbb87fb69	-0.0041498435
9	0x3c332184	0.010933284
10	0xb885511d	-6.357043e-05
11	0xb9e0bb11	-0.00042863985
12	0x3c4ada13	0.0123810945
13	0x3ad676c6	0.0016362302
14	0xbb958fc4	-0.0045642573
15	0x3c25c5bc	0.010117944
16	0x3c5ef1ce	0.013607455
17	0xbc71c76e	-0.01475702
18	0x3c1dffc6	0.009643501
19	0x3c07f84a	0.008298943
20	0xb9f14a77	-0.00046022583
21	0xbe16dde4	-0.14733082
22	0xbbc69bde	-0.0060610613
23	0x3b165226	0.0022937148
24	0x3c276712	0.010217445
25	0xb98544cf	-0.00025419003
26	0xba4c4718	-0.0007792576
27	0x3b511712	0.003190462
28	0x3b09018c	0.0020905463
29	0x3c2daf8f	0.010600938
30	0x8200557e	-9.42849e-38
31	0xbc31bf96	-0.0108489
32	0xbc8d9215	-0.017281571
33	0xbce2abf2	-0.02766988
34	0xbcbac642	-0.022799615
35	0xbdfffffe	-0.124999985
36	0xb9997463	-0.0002926915
37	0x3b92d4c3	0.0044809296
38	0x39b6632a	0.00034787628
39	0xba291167	-0.00064494315
40	0xbaa590a6	-0.001263161
41	0x3b1a5df5	0.0023554538
42	0xbcae5af9	-0.021283614
43	0x3b5b13eb	0.003342862
44	0x3b0342da	0.002002886
45	0x3af0b76c	0.0018365211
46	0xbc8a2790	-0.016864568
47	0xac05fff8	-1.9042528e-12
48	0x3a095e1e	0.000524016
49	0x3b491cb6	0.003068728
50	0x3af3693b	0.001857079
51	0xbc198f13	-0.00937249
52	0xbcbcbfb8	-0.023040637
53	0xbb8386a6	-0.004013854
54	0x3c361704	0.011113886
55	0xbbd5bbc3	-0.006522627
56	0x3b3874ba	0.0028145746
57	0x3c28c26d	0.010300261
58	0xbb3eb6d5	-0.0029100676
59	0x3b0a22ea	0.002107794
60	0xb58c6eeb	-1.0463094e-06
61	0xbc615928	-0.013754167
62	0x3abaada7	0.0014242426
63	0xbac27192	-0.0014834872

weight f4 [16, 64]
0	0xb1495b0e	-2.9301108e-09
1	0xbd98e3fe	-0.07465361
2	0xbd798189	-0.06091455
3	0x3d961b89	0.07329471
4	0x3d7c90b9	0.061661456
5	0x00018912	1.41007e-40
6	0xa0a66e3b	-2.8194438e-19
7	0x3d15b473	0.036549043
8	0xba8cc1a1	-0.0010738858
9	0xbb4f6001	-0.0031642916
10	0x2714bdc0	2.064199e-15
11	0x36d6d909	6.402963e-06
12	0xbd722f59	-0.059127185
13	0x3d7dff9d	0.06201135
14	0x3d329534	0.043599322
15	0xbc462e9d	-0.012096074
16	0xbd15d246	-0.036577486
17	0x3d8ad621	0.06779123
18	0xbd47e894	-0.04880579
19	0xbc48ef9c	-0.012264159
20	0x2f2be654	1.5634188e-10
21	0x8000aa33	-6.1056e-41
22	0x3d7fb0ca	0.06242446
23	0x3d63b736	0.055594645
24	0xbd0ec0a2	-0.034851678
25	0x2cd2352f	5.9744635e-12
26	0xb8af7947	-8.36724e-05
27	0xbd69d1bf	-0.057084795
28	0xbc8d27d7	-0.017230911
29	0xbc5a951c	-0.0133412145
30	0x804e0de3	-7.16815e-39
31	0xbde16926	-0.110063836
32	0x3d8aac70	0.06771171
33	0x3d47f1e6	0.048814677
34	0x3d5b31d4	0.053514317
35	0x0000caf2	7.2803e-41
36	0xbcf326b4	-0.029681541
37	0xbda30977	-0.0796079
38	0xbdb59e63	-0.088681005
39	0x34887621	2.5417924e-07
40	0x3ce05c69	0.027387815
41	0xbcba91d8	-0.022774622
42	0x3d12fba9	0.035884533
43	0xbca28663	-0.019839471
44	0xbca0e1ae	-0.019638862
45	0x3bec75cb	0.0072161905
46	0xbd844368	-0.06458169
47	0xaa2260ae	-1.4422033e-13
48	0xbc68fcab	-0.014220397
49	0x3d8bf6f0	0.06834209
50	0x3d52a894	0.0514303
51	0x3cbc5bb9	0.022992956
52	0x3d3b6014	0.045745924
53	0xbd48cbbe	-0.04902243
54	0xbb0f5447	-0.0021870302
55	0x3ced7967	0.028988553
56	0xbcb33a09	-0.02187826
57	0x3bce6bcc	0.0062994715
58	0xbcf849b0	-0.030308574
59	0xbcf50c92	-0.02991322
60	0x1b32d595	1.4792827e-22
61	0x3d967fea	0.073486164
62	0x3d5db67b	0.054129105
63	0xb9013751	-0.00012323006
64	0xb16d3484	-3.451789e-09
65	0xbdc8262e	-0.09772907
66	0xbdfd005d	-0.12353585
67	0x3d9d0445	0.0766683
68	0x3d82a079	0.06378264
69	0x80007963	-4.3545e-41
70	0xa432a9d3	-3.8741444e-17
71	0x3d1ee9fe	0.03879737
72	0x3c5b0dc7	0.013369984
73	0xbc8a28f1	-0.016865226
74	0xa4e88001	-1.0083081e-16
75	0xb8794e34	-5.943906e-05
76	0xbcb39abf	-0.021924375
77	0x3d24d980	0.040246487
78	0x3ccc21aa	0.024918396
79	0xbc1c6e06	-0.009547716
80	0xbb817c9a	-0.0039516212
81	0x3d4bf9ea	0.049798883
82	0xbd0791a9	-0.033097897
83	0xbc67db64	-0.014151428
84	0x33627d26	5.2733547e-08
85	0x00005f4e	3.4189e-41
86	0x3d911d29	0.0708564
87	0x3cf58393	0.029969966
88	0xbc694296	-0.014237067
89	0x2f52b516	1.9163723e-10
90	0xb897c766	-7.237382e-05
91	0xbe084433	-0.13307266
92	0xbd8646af	-0.065564506
93	0xbbd51d37	-0.006503727
94	0x807d8d94	-1.1530226e-38
95	0xbd1b3ce2	-0.03789986
96	0x3d860886	0.065445945
97	0x3d63b2b5	0.05559035
98	0x3d63c59b	0.055608373
99	0x8000ec25	-8.4713e-41
100	0x3bcc77f8	0.0062398873
101	0xbd5549c3	-0.052072298
102	0xbd6b1022	-0.057388432
103	0x36280af6	2.504033e-06
104	0x3d241bb3	0.04006548
105	0xbda87e59	-0.08227224
106	0x3d363e37	0.044492926
107	0xbd9cf0c9	-0.076631136
108	0xbd765309	-0.060137782
109	0x3be743eb	0.007057657
110	0xbbbee133	-0.0058251857
111	0xaa2dad2c	-1.5425568e-13
112	0xbd5928d6	-0.05301746
113	0x3d73f06b	0.059555452
114	0x3c836879	0.016041027
115	0x3d300518	0.042973608
116	0x3d48ddbf	0.0490396
117	0x384fe2c6	4.9563845e-05
118	0xbca457bd	-0.020061368
119	0x3d2a9f57	0.041655865
120	0xbd9c719b	-0.07638856
121	0xbce09829	-0.027416306
122	0x3bb454bd	0.0055032657
123	0xbd91e4b5	-0.071237005
124	0x115434f7	1.6740172e-28
125	0x3d5bdc1d	0.053676713
126	0x3ccb196c	0.024792396
127	0xb901ed37	-0.00012390768
128	0xb1192e69	-2.2290811e-09
129	0xbd85f6a4	-0.065411836
130	0xbd4dafcf	-0.050216492
131	0x3d8ea409	0.06964881
132	0x3d801a5f	0.0625503
133	0x80015e1a	-1.25593e-40
134	0x9dc6dd6f	-5.263912e-21
135	0x3ce2887d	0.027652973
136	0xbb4ebfbf	-0.0031547395
137	0x3c3cd90a	0.0115263555
138	0x24ad2081	7.5081854e-17
139	0x36cd36e9	6.1158685e-06
140	0xbd9778d8	-0.07396096
141	0x3d5dd6f7	0.054160085
142	0x3d31a647	0.043371465
143	0xbc86585e	-0.016399559
144	0xbd20ca4e	-0.039255433
145	0x3d923cf6	0.071405336
146	0xbd71b946	-0.05901458
147	0xbc85ecf4	-0.01634834
148	0x2e9331c0	6.6936234e-11
149	0x00011055	9.7694e-41
150	0x3d85fee1	0.06542755
151	0x3d721ee9	0.05911151
152	0xbd2276ea	-0.039664187
153	0x2e8ddff6	6.451721e-11
154	0x376f3996	1.4258918e-05
155	0xbd3df3fa	-0.046375252
156	0xbc4f8389	-0.012665638
157	0xbccb1349	-0.02478947
158	0x8024a016	-3.363506e-39
159	0xbdf511e8	-0.11966306
160	0x3d944876	0.07240383
161	0x3d444a05	0.047922153
162	0x3d61bc93	0.05511148
163	0x80006cd9	-3.9047e-41
164	0xbd23a26a	-0.039949812
165	0xbdaec289	-0.085331984
166	0xbdaad2d5	-0.08340994
167	0x343232a4	1.6595965e-07
168	0x3ce0f2ea	0.02745958
169	0xbc8830f5	-0.016624907
170	0x3d08f44b	0.0334361
171	0xbc74e20e	-0.014946474
172	0xbc59a4cc	-0.01328392
173	0x3c1354c8	0.008992381
174	0xbd9f1a7b	-0.077687226
175	0xa9d5178e	-9.463186e-14
176	0xbc3ae17f	-0.0114063015
177	0x3d85b1e0	0.065280676
178	0x3d673eb3	0.05645628
179	0x3cba4440	0.022737622
180	0x3d3ed7d1	0.046592537
181	0xbd83c1c9	-0.06433446
182	0x3a8b90f5	0.0010648059
183	0x3d0396c6	0.03212621
184	0xbc88d1c8	-0.016701594
185	0x3c90710b	0.017632028
186	0xbd27b0d0	-0.040940106
187	0xbceeea2a	-0.029164393
188	0x1d1cf6e9	2.0774078e-21
189	0x3d9ecac1	0.07753516
190	0x3d51527a	0.051104046
191	0x3843ac60	4.665216e-05
192	0xb113eda0	-2.152639e-09
193	0xbdd83d59	-0.10558576
194	0xbdcced02	-0.10006143
195	0x3d8e8ea9	0.06960804
196	0x3d876640	0.066112995
197	0x00011005	9.7582e-41
198	0xa104bff5	-4.4977393e-19
199	0x3d08165f	0.03322446
200	0x3bc065b8	0.005871501
201	0xbd03a0f8	-0.032135934
202	0x295a890d	4.8524596e-14
203	0xb7649090	-1.3623518e-05
204	0xbce91b76	-0.028455477
205	0x3d62d597	0.055379476
206	0x3d1d9afa	0.038477875
207	0xbb8e9145	-0.0043508136
208	0xbbb88432	-0.0056309933
209	0x3d66c45a	0.0563396
210	0xbca97f41	-0.020690562
211	0x3add1a6d	0.0016868837
212	0x2fca63b2	3.6814424e-10
213	0x80014011	-1.14818e-40
214	0x3d8a5a41	0.06755496
215	0x3d4640dd	0.048401702
216	0xbc2bed22	-0.010493549
217	0x2ecc3918	9.286988e-11
218	0x37c3eb74	2.3355453e-05
219	0xbdccd165	-0.10000876
220	0xbd1ca982	-0.038247593
221	0x3b2f3d6f	0.0026739498
222	0x8058073e	-8.084122e-39
223	0xbd9f9ba1	-0.07793356
224	0x3d858f96	0.065215275
225	0x3d523ba4	0.05132641
226	0x3d50b070	0.050949514
227	0x0000da3d	7.8289e-41
228	0xbc5a777a	-0.0133341495
229	0xbd922643	-0.07136204
230	0xbdc38906	-0.095476195
231	0x34d2a9fb	3.9239225e-07
232	0x3ce8aedb	0.02840369
233	0xbd2b1210	-0.041765273
234	0x3d221c87	0.039577987
235	0xbd10dfd4	-0.03536971
236	0xbceea107	-0.029129518
237	0x3bb7a62a	0.005604525
238	0xbcd89467	-0.026437951
239	0xaa632da8	-2.017749e-13
240	0xbcc07804	-0.023494728
241	0x3d823554	0.06357828
242	0x3d194800	0.03742218
243	0x3ce30a01	0.027714731
244	0x3d2f18b8	0.042748183
245	0xbcac9427	-0.021066738
246	0xbc4739c7	-0.012159771
247	0x3d1570b4	0.036484435
248	0xbd2c1c74	-0.042019323
249	0xbcab00bd	-0.020874375
250	0xbc485ce6	-0.01222918
251	0xbd5c335d	-0.05375992
252	0x1a503fb7	4.306486e-23
253	0x3d8ad62f	0.067791335
254	0x3d5375ab	0.05162589
255	0x39334c1b	0.00017099122

bias f4 [16]
0	0x3bc90c0a	0.0061354684
1	0x3bdeabeb	0.0067953966
2	0x3bc89e44	0.0061223824
3	0x3bc8d597	0.0061289775
4	0x3ba8c345	0.005150231
5	0x3bdbf800	0.0067129135
6	0x3bcefc6d	0.0063167126
7	0x3ba1dcef	0.0049396674
8	0x3c35a8eb	0.011087636
9	0x3be25935	0.006907607
10	0x3bee61dc	0.0072748493
11	0x3ba11adc	0.004916532
12	0x3bbc2a92	0.0057423795
13	0x3bd7222c	0.006565353
14	0x3b80f0bd	0.0039349482
15	0x3c00147c	0.007817384

weight f4 [3, 16]
0	0xbde2a91d	-0.11067412
1	0xbe08d3ea	-0.13362089
2	0xbde85c43	-0.113457225
3	0xbdf070f5	-0.11740295
4	0x3de2a755	0.11067072
5	0xbde45c48	-0.11150414
6	0xbdeb5a06	-0.1149178
7	0x3e000b12	0.12504223
8	0xbe9c90c3	-0.30579194
9	0xbe18d17b	-0.1492366
10	0xbe3cd760	-0.18441534
11	0x3de9f4ff	0.114236824
12	0x3e39ddac	0.18150967
13	0xbe0096c4	-0.12557513
14	0x3dfb2d9d	0.122645594
15	0xbe5c8650	-0.21535611
16	0x3b2750ed	0.0025530413
17	0xb99fe913	-0.00030500497
18	0xbbf55782	-0.0074872384
19	0xbbe19728	-0.0068844743
20	0xbe40befb	-0.18822853
21	0xba5698c8	-0.00081862183
22	0xba9f0c69	-0.0012134436
23	0xbe607621	-0.21920063
24	0xbd30bd8a	-0.04314951
25	0xbb7029e3	-0.003664606
26	0xbc9ae27b	-0.018906822
27	0xbe48c71b	-0.19607203
28	0xbeaa320b	-0.33241305
29	0xbb397b26	-0.0028302162
30	0xbe5febb0	-0.21867251
31	0xbc8f96f3	-0.017528033
32	0xbd5c36a0	-0.053763032
33	0xbd43e321	-0.04782403
34	0xbd619466	-0.055073164
35	0xbd508f00	-0.050917625
36	0x3db510e9	0.08841116
37	0xbd60dd0b	-0.054898303
38	0xbd53d737	-0.051718917
39	0x3dae74a6	0.08518343
40	0xbd3bb1dc	-0.045823917
41	0xbd2e863f	-0.042608496
42	0xbd294115	-0.041321833
43	0x3dacb7d9	0.08433504
44	0x3d86e4c5	0.06586603
45	0xbd4e08ff	-0.050301548
46	0x3db21648	0.08695656
47	0xbd363384	-0.044482723

bias f4 [3]
0	0x3f7db4e7	0.9910416
1	0x3f7d6961	0.9898892
2	0xbc36b304	-0.011151079
