models/O/model2.pt (torch, 310479 bytes, 8 tensors)

weight f4 [128, 384]
0	0x3c28b5e0	0.010297269
1	0x3d526559	0.051366184
2	0x3d5b7971	0.053582612
3	0x3e510cf3	0.20415096
4	0x3dc05935	0.09392015
5	0x3dec21a8	0.11529857
6	0x3e4fdf28	0.20299971
7	0x3e4d6d15	0.20061143
8	0x3e478d5b	0.19487517
9	0x3c2c8048	0.0105286315
10	0x3e2be966	0.16788253
11	0x3e28fb78	0.16502178
12	0x3d8f5faf	0.07000672
13	0x3d969957	0.07353466
14	0x3dd9c63a	0.10633512
15	0x3e723c22	0.23655751
16	0x3e47623d	0.19471069
17	0x3e44e358	0.1922735
18	0x3e3b97d6	0.1831964
19	0x3ded49ce	0.11586343
20	0x3e4294f0	0.19002128
21	0x3e10f1b2	0.141547
22	0x3e78e652	0.2430661
23	0x3d1d7986	0.038445972
24	0x3e2c659e	0.16835639
25	0x3e65824a	0.22412983
26	0x3e3fb9d1	0.18723227
27	0x3d8a3497	0.06748312
28	0x3d98085e	0.07423471
29	0x3cdbc98c	0.026829503
30	0x3ce582d3	0.028016483
31	0x3dd0de8b	0.10198697
32	0xbc8c7ad4	-0.017148413
33	0x3db60ce9	0.08889181
34	0x3dac0627	0.08399611
35	0x3cc13efa	0.0235896
36	0x3dd1450f	0.1021825
37	0x3dc97857	0.09837406
38	0x3d29f56f	0.04149383
39	0x3ce4b174	0.027916647
40	0xbc6ff03b	-0.014644678
41	0x3db95f10	0.09051335
42	0xbd301755	-0.042991
43	0xbba836f7	-0.0051335054
44	0x3dc0b74b	0.0940996
45	0xbcf00d89	-0.029303329
46	0x3db5d223	0.08877971
47	0xbc1827fe	-0.009286879
48	0xbd67f632	-0.056631275
49	0xbbb2c5ab	-0.0054556928
50	0x3e091f8f	0.13390945
51	0x3e7ddec3	0.24792008
52	0xbced2ac5	-0.028951058
53	0xbe388813	-0.18020658
54	0x3dd0e56a	0.10200007
55	0xbcdb6ab4	-0.026784278
56	0x3d30206f	0.04299968
57	0x3ca29c4c	0.019849919
58	0xbe19855e	-0.14992282
59	0x3dc9b416	0.09848802
60	0x3e12b37e	0.14326283
61	0xbc4a00ab	-0.012329261
62	0x3da0f176	0.07858555
63	0x3c09ddfe	0.0084147435
64	0x3c8ea960	0.017414749
65	0x3d7d00e5	0.06176843
66	0xbd4b2929	-0.0495998
67	0x3ddf1b46	0.10893874
68	0x3de36f9d	0.11105273
69	0x3db7879c	0.08961412
70	0xbcd461e2	-0.02592558
71	0xbc0e0ccb	-0.008670042
72	0xbc07ff0e	-0.008300556
73	0x3d8a38c7	0.06749111
74	0x3d998bc6	0.07497363
75	0x3dd631f9	0.1045875
76	0xbb12d178	-0.0022402685
77	0x3e09159e	0.13387153
78	0x3db42118	0.08795375
79	0xbdc2f536	-0.095194265
80	0x3d7855c7	0.06062868
81	0xbd972b09	-0.07381255
82	0x3d5db652	0.054128952
83	0x3dd85a39	0.105640836
84	0xbd926da4	-0.071498185
85	0x3ddf144c	0.10892543
86	0xbd17eac9	-0.037089143
87	0xbd96fa86	-0.07372002
88	0xbd86a6e3	-0.065748
89	0xbdfc067b	-0.123059236
90	0x3ca56e4a	0.020194191
91	0x3cb13952	0.021633778
92	0xbdb35b7c	-0.08757684
93	0xbdc030f9	-0.09384341
94	0xbdb46e2b	-0.08810075
95	0xbd51fc15	-0.051265795
96	0x3d38bf59	0.04510436
97	0x3e37e0bd	0.17956825
98	0x3d37ed94	0.044904307
99	0x3d74c284	0.059755817
100	0xbe05d1a1	-0.13068248
101	0xbdfd71e4	-0.123752385
102	0xbc691a95	-0.014227529
103	0x3b3c496e	0.002873029
104	0x3e743eda	0.23852101
105	0x3e7f5f74	0.24938756
106	0x3e611822	0.21981862
107	0xbbcde97a	-0.006283936
108	0x3c041f89	0.008064159
109	0xbde65e8b	-0.112485014
110	0xbeb7b0c8	-0.3587706
111	0xbe6ede44	-0.23326975
112	0x3df427c1	0.11921645
113	0x3e4b5924	0.19858223
114	0x3e5201c2	0.20508483
115	0x3dd0d3b1	0.10196627
116	0x3bbb315a	0.0057126703
117	0xbe0fdec8	-0.14049828
118	0xbe8f985d	-0.2804593
119	0xbe48b287	-0.19599353
120	0x3e0f7948	0.14011109
121	0x3e025912	0.1272929
122	0x3df03a34	0.11729851
123	0x3d40c1e9	0.047059927
124	0x3d8b70e6	0.06808643
125	0xbde822bd	-0.11334751
126	0xbd55380a	-0.052055396
127	0xbbe4b587	-0.0069796476
128	0xbc3cce2a	-0.011523763
129	0x3ca3c594	0.019991674
130	0x3d80bf47	0.06286483
131	0x3c120191	0.008911506
132	0x3dc0e667	0.09418946
133	0x3e12026a	0.14258733
134	0x3cbe3f86	0.02322365
135	0x393c3093	0.00017947172
136	0x3c774a87	0.015093452
137	0xbd663ca5	-0.05621018
138	0x3e171586	0.14754304
139	0xbd862b11	-0.06551183
140	0x3d2565d9	0.040380333
141	0xbd37e76a	-0.044898428
142	0xbbcde948	-0.006283913
143	0xbc8f3333	-0.017480468
144	0x3d13bc89	0.036068473
145	0x3c1b09c3	0.009462777
146	0x3d85b0b2	0.065278426
147	0xbda2bb59	-0.0794589
148	0xbd037e63	-0.032102954
149	0xbd23ff67	-0.040038493
150	0x3d5a2f47	0.053267743
151	0xbd9783ef	-0.07398211
152	0x3d3fdb72	0.04684014
153	0x3db71148	0.08938843
154	0xbd98a78e	-0.074538335
155	0xbca7d4e5	-0.020487258
156	0x3c578fca	0.013156841
157	0xbd91f64e	-0.07127057
158	0xbcb8327b	-0.022485008
159	0xbcc5f5c6	-0.024165045
160	0xbd146e7a	-0.03623817
161	0xbcf78c14	-0.030218162
162	0xbdc1ec04	-0.094688445
163	0xbde97e86	-0.114010856
164	0x3d89e0d2	0.06732334
165	0x3e529829	0.20565857
166	0x3d26c711	0.04071719
167	0x3be4243b	0.006962327
168	0x3e972fb3	0.2952858
169	0x3e9949d2	0.29939133
170	0xbe101f87	-0.14074527
171	0x3d0a3f86	0.033751987
172	0x3e66f211	0.22553279
173	0xbd2d9b20	-0.042384267
174	0xbdbafd58	-0.09130353
175	0x3e80a728	0.2512753
176	0xbe1e8499	-0.1548027
177	0xbb14ba63	-0.0022694103
178	0xbcc41df4	-0.023940064
179	0x3cdaf3ae	0.026727524
180	0x3d4388ee	0.04773801
181	0xbe0bf449	-0.13667406
182	0xbe08080d	-0.13284321
183	0x3bb2f9d1	0.0054619093
184	0xbd102671	-0.03519291
185	0x3e143ce2	0.1447635
186	0xbdf33c6e	-0.118767604
187	0xbdfbc7c2	-0.1229396
188	0xbe629a8f	-0.22129272
189	0xbda13b1c	-0.07872602
190	0xbcd570fc	-0.026054852
191	0xbd0efcc8	-0.03490904
192	0xbc38274f	-0.011239841
193	0x3d52560d	0.051351596
194	0x3dc75e16	0.09734742
195	0xbda0ad91	-0.07845605
196	0xbc9db657	-0.019251985
197	0xbe1a8ce4	-0.15092808
198	0xbd251ef1	-0.04031271
199	0xbb5d6740	-0.0033783466
200	0x3db7e109	0.08978469
201	0x3db68caa	0.08913548
202	0x3d861300	0.06546593
203	0xbdb274b8	-0.087136686
204	0x3d87f241	0.06638003
205	0xbe98c7b8	-0.29839873
206	0xbe4793a1	-0.1948991
207	0xbd448ce2	-0.04798592
208	0x3e1d647a	0.1537036
209	0x3e3f925e	0.18708178
210	0x3d10ba67	0.035334017
211	0xbcc2e488	-0.023790613
212	0xbe5212f5	-0.20515044
213	0xbe1f2cad	-0.15544386
214	0xbdefdb72	-0.11711778
215	0xbd25a703	-0.040442478
216	0xbd27fcf7	-0.04101273
217	0x3c049217	0.008091471
218	0x3daee5c6	0.085399196
219	0xbdddbc66	-0.1082695
220	0xbca72469	-0.020403104
221	0x3ce978dd	0.028500015
222	0x3c9d9c41	0.019239547
223	0xba3837c0	-0.00070273504
224	0x395458fb	0.00020251043
225	0xbd432ec2	-0.047652014
226	0xbccac033	-0.02474985
227	0xbb56452c	-0.0032695038
228	0xbacb5094	-0.0015511685
229	0xba66711b	-0.0008790658
230	0xb9fd3f38	-0.00048303022
231	0xb957b4a4	-0.00020571292
232	0xbe06ffa0	-0.1318345
233	0xbd8f8e3f	-0.07009553
234	0x3dd6bd82	0.104853645
235	0x3ddf3e9d	0.109006144
236	0x3c211932	0.009832667
237	0xbba93286	-0.0051634936
238	0xbcf17ed7	-0.029479427
239	0xbcf1dbeb	-0.02952381
240	0xbcf2a87c	-0.029621355
241	0x3cb6e74c	0.022327088
242	0x3d8fc41e	0.07019828
243	0x3d077d43	0.033078443
244	0xbdda1125	-0.10647801
245	0xbdc6afe5	-0.09701518
246	0xbcc807c1	-0.02441776
247	0xbca20dde	-0.019782003
248	0x3c6706a3	0.014100703
249	0xbd9253cc	-0.07144889
250	0x3de50542	0.111826435
251	0xbabcb9f7	-0.0014398684
252	0xbd5d6073	-0.05404706
253	0xbd195721	-0.03743661
254	0xbd5620f8	-0.052277535
255	0xbcabad40	-0.020956635

bias f4 [128]
0	0x3e67066b	0.22561042
1	0x3e669547	0.22517882
2	0x3ead0631	0.33793786
3	0xbb156eff	-0.0022801755
4	0x3eb9069a	0.3613785
5	0x3ea4e55b	0.32206234
6	0xbd2e7a78	-0.042597264
7	0x3e8a835f	0.27053353
8	0x3e355e4a	0.1771175
9	0x3e9b5b4f	0.303431
10	0x3e4eb9a5	0.20188005
11	0xbc8bab19	-0.01704936
12	0x3de37227	0.11105757
13	0xbab09c0e	-0.0013474242
14	0x3e70350f	0.2345774
15	0x3e59ab4c	0.21256751
16	0x3e53b93d	0.20676132
17	0x3e93e0d4	0.28882468
18	0x3e291969	0.165136
19	0x3ea089e5	0.31355205
20	0x3e77d0aa	0.24200693
21	0x3db1a1c9	0.08673436
22	0x3e9d1b9c	0.30685127
23	0xbcd81434	-0.026376821
24	0x3e84856e	0.2588305
25	0x3e938595	0.28812853
26	0x3eab8f54	0.33507788
27	0x3e272363	0.16322093
28	0x3d96190f	0.07328998
29	0x3ead04c6	0.33792704
30	0x3e4a2d6e	0.19743893
31	0x3ea894c3	0.32925996
32	0x3eafaa42	0.34309584
33	0x3e04edf4	0.12981397
34	0x3e76e6a1	0.24111415
35	0x3e548d1c	0.20756954
36	0xbcf21ea6	-0.02955563
37	0x3e32e221	0.17469074
38	0x3ea474dc	0.32120407
39	0x3e089796	0.13339075
40	0x3c852d41	0.01625693
41	0xbccc0446	-0.024904381
42	0x3e953a59	0.29146078
43	0x3e24d6fb	0.16097634
44	0x3e2dcafa	0.1697196
45	0x3e83e4c0	0.2576046
46	0x3e86192a	0.26191074
47	0x3e39c39a	0.18141022
48	0xbbad62ef	-0.005291335
49	0x3c116ac4	0.008875553
50	0x3bb723c0	0.0055889785
51	0x3be6193b	0.0070220507
52	0x3ea8fe11	0.33006337
53	0x3dfeffd8	0.12451142
54	0x3eb1ed7c	0.347515
55	0x3e01d81c	0.12680095
56	0x3ca8c3ff	0.02060127
57	0x3e86b8c7	0.2631285
58	0x3d602683	0.054724228
59	0x3ea14ddc	0.31504714
60	0x3c8e6140	0.017380357
61	0x3dd7c491	0.10535539
62	0x3e6a72c2	0.22895339
63	0x3d3cd845	0.04610469
64	0x3cc347ad	0.023837889
65	0x3e7d01bf	0.24707697
66	0x3eadc157	0.3393657
67	0x3e719d52	0.23595169
68	0x3e127adc	0.1430468
69	0x3e9bd850	0.3043847
70	0x3eb7c6ff	0.3589401
71	0x3e839271	0.25697663
72	0x3ea8224f	0.32838675
73	0x3e35feeb	0.17773025
74	0x3eab6d05	0.33481613
75	0x3cb94c2f	0.022619335
76	0x3e8f4718	0.27983928
77	0x3e03a991	0.12857653
78	0x3e1204c5	0.14259632
79	0x3e7c5ed3	0.24645548
80	0x3ca678f7	0.020321352
81	0x3e420709	0.18947996
82	0x3e36a6ea	0.1783711
83	0x3e899d9c	0.2687806
84	0x3ea76371	0.32693055
85	0x3dd5ee9a	0.104459
86	0x3eba7ef4	0.36424983
87	0x3e7a4cd6	0.24443373
88	0x3e45bc2e	0.19310066
89	0x3ea13b2a	0.3149045
90	0x3c1ae29a	0.00945344
91	0x3eac6b89	0.33675793
92	0x3e8f2d5f	0.27964303
93	0x3e98f01d	0.29870692
94	0x3ec0d39d	0.37661448
95	0x3dc37d43	0.09545376
96	0x3eb5da8c	0.355183
97	0x3e9f3ea8	0.3110249
98	0x3e725598	0.23665464
99	0x3e6170ee	0.22015736
100	0x3df00c0f	0.1172105
101	0x3eac4fb8	0.3365457
102	0x3ea47b28	0.3212521
103	0x3e882989	0.2659419
104	0x3e8e70ff	0.27820584
105	0x3e9149f5	0.28376737
106	0x3e4630c1	0.19354536
107	0x3e5e62f9	0.21717443
108	0x3eaafa42	0.33394057
109	0x3e937ab2	0.28804547
110	0x3e9733cb	0.29531702
111	0x3e235ccb	0.15953366
112	0x3ccfc40c	0.025362037
113	0x3dae3522	0.08506228
114	0x3e329fb5	0.17443736
115	0x3ea11779	0.3146322
116	0x3e91338a	0.28359634
117	0x3eaa4d5d	0.33262148
118	0x3e81f706	0.25383776
119	0x3ea520bc	0.32251537
120	0x3d46d0f1	0.048539106
121	0x3e992b6d	0.29915944
122	0x3c89aca0	0.016805947
123	0x3dd469a7	0.10371714
124	0x3eae4b07	0.34041616
125	0x3d0ff69c	0.035147294
126	0xbb9e1180	-0.0048238635
127	0x3d28814a	0.041138925

weight f4 [128, 128]
0	0x3e4238ac	0.18966931
1	0x3d90a836	0.07063334
2	0x3e80e889	0.2517741
3	0xbf039b79	-0.5140911
4	0x3e843237	0.2581956
5	0x3e56cc76	0.20976433
6	0x3eabe1a7	0.33570597
7	0x3e2f6e47	0.17131911
8	0x3d807624	0.062725335
9	0x3e59a998	0.21256101
10	0x3e4a4b0c	0.1975519
11	0xbe38f3ed	-0.180618
12	0x3d0ae5d6	0.033910595
13	0x3eb02e0e	0.34410137
14	0x3e088eb9	0.13335694
15	0x3d9d04f3	0.076669596
16	0x3e1eaddd	0.15496011
17	0x3e69279a	0.22769013
18	0x3df89956	0.121386215
19	0x3e17fd83	0.14842801
20	0x3e0a63bb	0.13514607
21	0x3ce2811c	0.027649455
22	0x3de7490c	0.112932295
23	0xbf0995c6	-0.5374416
24	0x3e107009	0.14105238
25	0x3e3b10b6	0.18268093
26	0x3df310f2	0.118684664
27	0x3e46b101	0.19403459
28	0x3e354ae4	0.1770435
29	0x3e1959f7	0.14975725
30	0x3d81913c	0.063265294
31	0x3e35fc26	0.17771968
32	0x3e0d0f0b	0.1377527
33	0x3dd0b573	0.10190859
34	0x3e1dc307	0.15406428
35	0x3e1ca501	0.15297319
36	0xbef08916	-0.46979588
37	0x3e135fae	0.14391968
38	0x3e829963	0.2550765
39	0x3e12d92c	0.14340657
40	0xbe8117c7	-0.25213453
41	0xbef75dfa	-0.48313886
42	0x3e0d01f5	0.13770278
43	0x3d9b3b54	0.07579675
44	0x3de27168	0.11056787
45	0x3e15ae08	0.14617169
46	0x3e501b9d	0.20323034
47	0x3e30d0c4	0.17267138
48	0x3e686adc	0.22697014
49	0x3dc5aa89	0.096516676
50	0xbe955589	-0.2916682
51	0xbe7a0aeb	-0.24418227
52	0x3e1a9eaf	0.15099595
53	0x3e134299	0.14380874
54	0x3e7ff0f3	0.24994259
55	0x3e30b6ec	0.17257279
56	0x3e43f4e8	0.19136393
57	0x3e2f9802	0.1714783
58	0xbe10878d	-0.14114209
59	0x3e12a6a8	0.14321387
60	0xbcdc2e64	-0.02687759
61	0x3c5b899d	0.013399509
62	0x3deb103e	0.11477707
63	0xbe5a0413	-0.21290617
64	0x3e888dca	0.26670676
65	0x3e324742	0.17409995
66	0x3e23c892	0.1599448
67	0x3d8cb17b	0.06869789
68	0x3df77441	0.120827205
69	0x3e40bcfb	0.1882209
70	0x3e5e7cb1	0.21727253
71	0x3e19a489	0.15004171
72	0x3dd82167	0.10553246
73	0x3e45346a	0.19258276
74	0x3e96df85	0.29467407
75	0x3e16bdc0	0.14720821
76	0x3e1e5fa5	0.15466173
77	0x3d92435a	0.071417525
78	0x3e8ea97d	0.27863684
79	0x3de6966b	0.11259159
80	0xbde78799	-0.1130516
81	0x3d939015	0.07205216
82	0x3db60ffd	0.08889768
83	0x3d960612	0.073253766
84	0x3e9309a0	0.2871828
85	0x3e2585c4	0.16164309
86	0x3e20cda2	0.15703443
87	0x3e2244ed	0.15846606
88	0x3d007c11	0.03136832
89	0x3e839d4d	0.25705948
90	0xbe8f286d	-0.2796053
91	0x3e74956f	0.2388513
92	0x3e3dcbb6	0.18534741
93	0x3da934a8	0.082619965
94	0x3e735f32	0.23766783
95	0x3e0bbf87	0.1364728
96	0x3e247423	0.16059928
97	0x3dd44dbc	0.10366389
98	0x3e04567b	0.12923615
99	0x3dcbea34	0.0995678
100	0x3e0fb008	0.14031994
101	0x3e1727b5	0.14761241
102	0x3e3f3503	0.18672566
103	0x3e880d2a	0.26572543
104	0x3dfc5eef	0.12322795
105	0x3e44c736	0.19216618
106	0x3e2e940d	0.17048664
107	0x3e72148d	0.23640652
108	0x3e8a3f88	0.27001595
109	0x3e8813fa	0.2657774
110	0x3e5cc04b	0.21557729
111	0x3dd8c6e8	0.10584813
112	0xbe870282	-0.263691
113	0x3d38b8f1	0.04509825
114	0x3e01e86c	0.12686318
115	0x3e1dd2bd	0.15412422
116	0x3d764779	0.060126755
117	0x3de79d5d	0.113093115
118	0x3e8c8a7e	0.2744941
119	0x3e588161	0.21143104
120	0x3e1acd61	0.15117408
121	0x3e4b6ef0	0.19866538
122	0x3e8cb98d	0.27485314
123	0x3e125eb5	0.1429394
124	0x3e23d33d	0.1599855
125	0xbe6a5e0a	-0.22887436
126	0x3e055c65	0.13023527
127	0x3e67c9f3	0.22635631
128	0xbc7a28a0	-0.015268475
129	0xbd5b843d	-0.05359291
130	0xbe2b6b48	-0.16740143
131	0x3f0b1f3b	0.5434453
132	0xbe5652fe	-0.20930097
133	0xbe33106e	-0.17486736
134	0xbea8524e	-0.32875293
135	0xbce9f561	-0.028559389
136	0x3c062201	0.008186818
137	0xbe373ad7	-0.1789354
138	0xbc19c015	-0.009384175
139	0x3e2f9c9a	0.17149583
140	0xbb828452	-0.003983059
141	0xbe63f77a	-0.22262374
142	0xbe12bd7c	-0.14330095
143	0xbdc86a66	-0.09785919
144	0xbe192246	-0.1495448
145	0xbe3beb34	-0.18351442
146	0xbe0982d0	-0.13428807
147	0xbe287137	-0.16449438
148	0xbd3f45b1	-0.046697322
149	0xbbb494da	-0.0055109086
150	0xbdc7c189	-0.09753711
151	0x3eca63d5	0.3952929
152	0xbdec2475	-0.11530391
153	0xbdd03e3b	-0.101681195
154	0xbe1311c4	-0.14362246
155	0xbd116081	-0.035492424
156	0xbe749414	-0.23884612
157	0xbe56022b	-0.20899265
158	0xbd63877f	-0.05554914
159	0xbe31b541	-0.17354299
160	0xbe2a1e39	-0.16613092
161	0xbe0ad81d	-0.13559003
162	0xbd1a0dd6	-0.03761085
163	0xbe42a6b0	-0.19008899
164	0x3ee8427e	0.4536323
165	0xbd950b84	-0.07277587
166	0xbdf910e0	-0.12161422
167	0xbde89273	-0.11356058
168	0x3eaed6c1	0.3414822
169	0x3f03fa44	0.5155375
170	0xbe3f6f0d	-0.18694706
171	0xbc901885	-0.017589817
172	0xbc1fd377	-0.009755007
173	0xbe209c6c	-0.1568467
174	0xbe56ea09	-0.20987715
175	0xbd793ed7	-0.060850944
176	0xbde9f7b7	-0.11424201
177	0xbddff58f	-0.109355085
178	0x3e8e90ea	0.27844936
179	0x3eb9829f	0.36232468
180	0xbdb778d9	-0.08958597
181	0xbd9e46b4	-0.07728329
182	0xbd8ec567	-0.06971245
183	0xbb51bc9b	-0.0032003287
184	0xbd453faa	-0.048156418
185	0xbd559874	-0.052147344
186	0x3de67e0e	0.11254512
187	0xbd85f0e1	-0.06540085
188	0x3de1030d	0.1098691
189	0xbccaa04c	-0.024734639
190	0xbd2f0c70	-0.04273647
191	0x3e555332	0.20832518
192	0xbebd1f98	-0.36938167
193	0xbd6f4216	-0.058412634
194	0xbd984584	-0.07435134
195	0xbd900895	-0.07032887
196	0x3c4bb8bd	0.012434182
197	0xbe092908	-0.13394558
198	0xbe0d1172	-0.13776186
199	0xbdfd96bb	-0.12382265
200	0xbe0159fb	-0.12631981
201	0xbd42f72c	-0.047599003
202	0xbda1404f	-0.07873594
203	0xbd561550	-0.05226642
204	0xbe664f50	-0.22491193
205	0x3c416aa2	0.011805208
206	0xbe0ed37a	-0.1394786
207	0xbd1c4c22	-0.038158543
208	0x3e734ba8	0.2375933
209	0xbc8d3d5b	-0.01724117
210	0xbe0bd3c2	-0.13654998
211	0xbd7c6f96	-0.061629854
212	0xbe312f6b	-0.17303245
213	0xbe4573b9	-0.19282426
214	0xbdb86e97	-0.09005468
215	0xbe0124fe	-0.12611768
216	0xbe0dbc7a	-0.1384143
217	0xbdfc0c66	-0.12307052
218	0x3e62d995	0.22153313
219	0xbe3f85c7	-0.18703376
220	0xbd80e7b5	-0.062941946
221	0xbe5a7f2e	-0.21337578
222	0xbe0ecb88	-0.13944829
223	0xbccb3afe	-0.024808403
224	0xbe214e7d	-0.15752597
225	0xbdf9678e	-0.121779546
226	0xbd35512f	-0.044266876
227	0xbd274bf4	-0.04084392
228	0xbe06e29d	-0.13172384
229	0xbde7423a	-0.112919286
230	0xbe3d919c	-0.18512577
231	0xbe42f8a6	-0.19040164
232	0xbe46101b	-0.19342081
233	0xbdcfef4a	-0.10153063
234	0xbe0d8662	-0.13820794
235	0xbcc127f8	-0.023578629
236	0xbe093122	-0.13397649
237	0xbd9058b0	-0.07048166
238	0xbe01e650	-0.12685513
239	0xbdb6ba44	-0.08922246
240	0x3e70e262	0.23523858
241	0xbdad7cbc	-0.08471057
242	0xbe0102e2	-0.12598756
243	0xbe158a36	-0.14603505
244	0xbe0649ac	-0.13114041
245	0xbdcad472	-0.09903802
246	0xbe37491c	-0.17898983
247	0xbda2a341	-0.079412945
248	0xbc7e68b8	-0.015527897
249	0xbd8fc251	-0.07019485
250	0xbeb290c6	-0.34876078
251	0xbdbea7cd	-0.09309349
252	0xbe1d84d1	-0.15382697
253	0x3e66d684	0.22542769
254	0xbd4862f8	-0.04892251
255	0xbe8432c7	-0.2581999

bias f4 [128]
0	0x3dc0d2d5	0.09415213
1	0xbbcf0037	-0.0063171643
2	0x3e143fae	0.14477417
3	0xbd80595c	-0.06267044
4	0xbd64cd31	-0.05585975
5	0x3db85f43	0.09002545
6	0xbd93e383	-0.07221129
7	0xbc431e25	-0.0119090425
8	0xbdef2a7b	-0.116780244
9	0xbd950cc3	-0.07277825
10	0x3e101338	0.14069831
11	0x3df95c1a	0.1217577
12	0xbd3323c3	-0.043735277
13	0x3cc1937f	0.023629902
14	0x3de2fb5e	0.11083101
15	0x3df32f23	0.11874225
16	0xbe1df646	-0.15425977
17	0xbdf735fd	-0.12070844
18	0x3d3efe24	0.046629086
19	0x3c2981f0	0.010345921
20	0xbd4dc6d0	-0.05023843
21	0xbd1f8cd8	-0.03895268
22	0x3d2e9f19	0.042632196
23	0xbe6d8f65	-0.23199232
24	0xbd590de9	-0.05299178
25	0xbdd029c9	-0.1016422
26	0x3df80653	0.12110581
27	0x3bbf4dbd	0.0058381245
28	0xbdf062de	-0.117376074
29	0xbcc084ef	-0.023500888
30	0xbd9b2da8	-0.075770676
31	0xbd642795	-0.05570181
32	0xbd2ec981	-0.042672638
33	0x3cdf87c4	0.027286418
34	0x3dabc140	0.08386469
35	0xbe50dd07	-0.20396815
36	0xbd8f79b3	-0.07005634
37	0xbdb92173	-0.09039583
38	0xbd096e22	-0.033552296
39	0x3e00eae3	0.12589602
40	0x3dda27da	0.10652132
41	0xbe150f84	-0.145567
42	0xbd6be269	-0.05758897
43	0xbd0a7fbf	-0.033813234
44	0xbd861345	-0.06546644
45	0xbe134086	-0.14380082
46	0xbe133ea2	-0.14379361
47	0xbda877b3	-0.08225956
48	0x3e2c93ec	0.16853303
49	0x3e17d927	0.14828931
50	0xbda205aa	-0.079112366
51	0xbccbacfd	-0.02486276
52	0x3d30b622	0.043142445
53	0x3e1d3375	0.1535166
54	0x3dfcc200	0.1234169
55	0x3da5e788	0.08100802
56	0xbda8b03c	-0.08236739
57	0xbe01607a	-0.12634459
58	0x3dbf926d	0.093541004
59	0xbe391875	-0.18075736
60	0xbd7bf705	-0.061514873
61	0xbdac7a48	-0.08421761
62	0xbd450dc6	-0.04810884
63	0x3e268a53	0.16263704
64	0x3dea78ea	0.11448844
65	0xbd3a540f	-0.04549032
66	0xbd9e4446	-0.07727866
67	0xbcc04c86	-0.02347399
68	0x3e1a2552	0.15053299
69	0xbe417be6	-0.1889492
70	0x3e0d7088	0.13812459
71	0xbdd73e71	-0.10509957
72	0xbd98384d	-0.074326135
73	0x3d6b30b2	0.057419486
74	0xbe135af2	-0.14390162
75	0xbd7940ee	-0.060852937
76	0xbe19858d	-0.14992352
77	0xbd3fd402	-0.046833046
78	0x3d56e43a	0.052463748
79	0xbe12d3d7	-0.14338623
80	0x3d617741	0.05504537
81	0xbba7d5e4	-0.0051219333
82	0xbd108c17	-0.03528985
83	0x3c37e1af	0.011223241
84	0x3de6f50b	0.11277207
85	0xbdc2e013	-0.09515395
86	0xbb17d5f3	-0.0023168295
87	0x3e16947c	0.1470508
88	0x3dd3b9cb	0.103381716
89	0xbdc5bc23	-0.09655025
90	0x3c00cf4c	0.007861923
91	0xbe073ce9	-0.13206829
92	0xbe0d11e8	-0.13776362
93	0xbe05e7d2	-0.13076714
94	0xbda1930e	-0.078893766
95	0x3e0f7da9	0.1401278
96	0x3d898967	0.067156605
97	0xbd61757c	-0.055043682
98	0xbdad32a0	-0.084569216
99	0xbd1453c5	-0.0362127
100	0x3d17ed02	0.037091263
101	0x3de80af0	0.11330211
102	0x3d00f6c3	0.03148533
103	0x3dd0743a	0.101784185
104	0xbda28cfd	-0.07937048
105	0xbd0a654b	-0.033788007
106	0x3d73542a	0.059406437
107	0x3d9b8c54	0.07595125
108	0xbda79103	-0.08181956
109	0x3d85b9e6	0.06529598
110	0x3884fd0a	6.341383e-05
111	0xbe000e86	-0.1250554
112	0x3e068076	0.13134941
113	0x3e0594cd	0.13045044
114	0x3d088e31	0.03333873
115	0x3d530fdf	0.051528808
116	0x3d11f8e1	0.03563774
117	0xbdc739bf	-0.09727811
118	0xbca7d15f	-0.020485578
119	0x3d0f0ab0	0.0349223
120	0xbe091d47	-0.13390075
121	0xbdd742f5	-0.10510818
122	0x3d990168	0.07470971
123	0xbd10483f	-0.03522515
124	0x3df49534	0.11942521
125	0xbdb38a10	-0.08766568
126	0xbd0b6009	-0.034027133
127	0x3e192864	0.14956814

weight f4 [64, 146]
0	0xbd04daa1	-0.032435063
1	0x3da50f16	0.08059518
2	0xbd915c03	-0.07097628
3	0xbd283e66	-0.041075133
4	0x3e0d0916	0.13772997
5	0xbb864a42	-0.0040982077
6	0x3dc8d534	0.0980629
7	0x3cf2291c	0.029560618
8	0xbca91811	-0.020641359
9	0x3df952a4	0.121739656
10	0xbdd44f2b	-0.103666626
11	0xbe05f778	-0.13082683
12	0xbd7a3de4	-0.06109418
13	0xbdef205d	-0.11676095
14	0x3c2b4a15	0.010454674
15	0xbd9dee03	-0.07711413
16	0x3c6860c9	0.014183232
17	0x3d5bc8df	0.053658362
18	0xbdda8a21	-0.10670877
19	0xbd085f3f	-0.03329396
20	0x3bb05edb	0.0053824014
21	0x3dd5d3ac	0.10440764
22	0xbe047115	-0.12933762
23	0x3d271e1f	0.04080021
24	0xbc862e1e	-0.016379412
25	0x3c47ea83	0.012201908
26	0xbd92b4bd	-0.07163379
27	0x3b4c5b44	0.0031182328
28	0x3ce38b42	0.027776364
29	0xbcb6585b	-0.022258928
30	0x3db279ad	0.08714614
31	0x3d2f2c75	0.042767007
32	0x3d44bb4f	0.048030194
33	0x3c0f7e79	0.008758181
34	0xbcaeea3a	-0.021351922
35	0x3d2c46cc	0.042059705
36	0x3cbdf679	0.023188816
37	0x3df0cbe5	0.1175764
38	0xbc5559f0	-0.013021931
39	0xbdf401fb	-0.1191444
40	0xbce5ae9d	-0.028037364
41	0x3c98ae23	0.018637722
42	0x3dfed53e	0.124430165
43	0x3cc55144	0.024086602
44	0xbd263b3c	-0.040583834
45	0x3dce1442	0.100624576
46	0x3d4cf4da	0.050038196
47	0x3e23af54	0.15984851
48	0xbd9773d3	-0.073951386
49	0xbd370381	-0.044681076
50	0x3d21b463	0.03947867
51	0x3bd6c91f	0.006554737
52	0x3cfb06bc	0.03064286
53	0xbd884492	-0.06653704
54	0xbddf353e	-0.10898827
55	0x3bbb54ed	0.005716911
56	0x3daa733b	0.0832276
57	0x3b918368	0.0044407137
58	0xbb58c3c4	-0.003307567
59	0x3df34641	0.11878634
60	0x3c4878ea	0.012235859
61	0x3d95efda	0.07321139
62	0xbd324ed8	-0.043532223
63	0xbd695cdf	-0.056973334
64	0xbd834e4c	-0.06411418
65	0x3c364fa3	0.011127385
66	0x3c839605	0.016062746
67	0xbd5326ce	-0.05155068
68	0xbdc5a4f4	-0.09650603
69	0x3dcf83c2	0.10132553
70	0xbdb71c4b	-0.08940943
71	0x3d6fea4c	0.058573052
72	0x3cecf30d	0.02892449
73	0xbde86065	-0.11346511
74	0x3d2dc164	0.04242076
75	0x3e04fe88	0.12987721
76	0x3d982a62	0.07429959
77	0x3db28c60	0.08718181
78	0x3c34f97c	0.01104581
79	0x3d8cf7ac	0.06883177
80	0x38f14750	0.000115050585
81	0xbde667a3	-0.11250236
82	0x3d24699f	0.04013979
83	0xbb9c6d85	-0.004773798
84	0xbda0b4ef	-0.0784701
85	0xbb02ee1d	-0.0019978352
86	0xbd5438e1	-0.051812056
87	0xbd2b27f0	-0.041786134
88	0x3d2f790c	0.04284005
89	0x3cb36eb7	0.021903379
90	0x3c8d8cc7	0.017279042
91	0x3d1457de	0.03621661
92	0x3dac1ba6	0.08403711
93	0x3def8e30	0.11697042
94	0x3d1ed1e0	0.03877437
95	0xbd8b5e4b	-0.06805094
96	0xbdd4d186	-0.10391526
97	0x3cd47d98	0.025938794
98	0x3d7fd0ca	0.062454976
99	0xbb049ed0	-0.0020236261
100	0xbd2d5c74	-0.0423245
101	0xbd074f06	-0.033034347
102	0xbb6bb660	-0.0035966858
103	0xbd7dc84b	-0.061958592
104	0x3cd044e6	0.025423478
105	0xbcfb43f3	-0.03067205
106	0xbd3a7e6d	-0.045530725
107	0xbe21573a	-0.1575593
108	0x3e006e70	0.12542129
109	0xbd2a6a3e	-0.041605227
110	0xbd762003	-0.060089123
111	0xbcf17dc1	-0.02947891
112	0xbd95c287	-0.07312494
113	0xbc972d47	-0.018454207
114	0xbd9b1af7	-0.075735025
115	0xbcee4748	-0.029086724
116	0xbd36e7d9	-0.0446547
117	0x3d2f59c7	0.042810228
118	0x3d913c5b	0.0709159
119	0x3cb3cf7c	0.021949522
120	0x3d67e95c	0.056619033
121	0xbbe377c8	-0.0069417693
122	0xbdb87923	-0.0900748
123	0xbca0cb1d	-0.019628102
124	0xbd09d6fc	-0.03365229
125	0xbcc298ba	-0.023754466
126	0xbbf9da6e	-0.007624916
127	0xbe01d84c	-0.12680167
128	0xbd8ec883	-0.06971838
129	0x3d8a58b5	0.06755201
130	0x3c0d0939	0.008608156
131	0x3c8f8646	0.017520081
132	0xbda2c908	-0.079485
133	0x3ccf7a3c	0.02532684
134	0xbc4ce4d6	-0.012505731
135	0xbd5514c2	-0.05202175
136	0x3ceeec03	0.029165274
137	0x3d1fdaa8	0.039026886
138	0x3d8ea59f	0.069651835
139	0xbc90f089	-0.017692821
140	0xbd22c768	-0.03974095
141	0xbcd9e0a2	-0.026596371
142	0x3c2ae2d8	0.01043006
143	0xbcd5d108	-0.02610065
144	0x3d68f7e4	0.056877032
145	0xbc945733	-0.018107986
146	0xbdc02363	-0.093817495
147	0x3c3ba024	0.011451755
148	0xbe229c3b	-0.1587991
149	0xbc45262e	-0.0120330285
150	0x3dfa4671	0.12220467
151	0xbc600c98	-0.013674878
152	0x3d4b962b	0.04970376
153	0xbd9d24e8	-0.07673055
154	0x3e02fe97	0.12792431
155	0x3dafc9a4	0.08583382
156	0xbde9fe66	-0.11425476
157	0xbddeb3b2	-0.10874118
158	0xbd567980	-0.052361965
159	0xbdc87c3d	-0.097893216
160	0xba9b08c9	-0.001182818
161	0xbddfa7d3	-0.10920682
162	0x3db44eaf	0.0880407
163	0x3d05a5b6	0.032628737
164	0xbd68ac25	-0.056804795
165	0xbc0a2a85	-0.008432989
166	0x3d47d28c	0.048784778
167	0x3ddc687c	0.10762116
168	0xbe17d22d	-0.1482627
169	0x3d98cba6	0.07460718
170	0xbc73ab99	-0.014872455
171	0x3dce912f	0.10086285
172	0xbe068c70	-0.1313951
173	0xbdd801f1	-0.10547245
174	0x3de0b883	0.10972693
175	0xbd399394	-0.045306757
176	0x3db84457	0.0899741
177	0x3e19ea16	0.15030703
178	0x3deab268	0.114598095
179	0xbd8fe84a	-0.070267275
180	0xbda8a1ea	-0.08234008
181	0x3d26f216	0.040758215
182	0x3da7b2ea	0.08188422
183	0x3e3215b6	0.17391095
184	0xbb954fcb	-0.004556631
185	0xbdc1e513	-0.094675206
186	0xbe0d2829	-0.13784851
187	0x3dcce5f4	0.100047976
188	0x3e1f2c2c	0.15544194
189	0x3da8d408	0.08243567
190	0x39569e95	0.00020467707
191	0x3df37b9a	0.118888095
192	0x3e1dbca9	0.15404
193	0x3e380da0	0.17973948
194	0xbdd87962	-0.10570027
195	0xbd28b84e	-0.04119139
196	0x3de3d97d	0.11125467
197	0xbb824039	-0.003974941
198	0x3a10fb45	0.0005530606
199	0xbe01e74f	-0.12685893
200	0xbde35cf7	-0.11101716
201	0xbdf97ab7	-0.12181609
202	0x3d6502ba	0.055910803
203	0x3e0c0460	0.13673544
204	0x3a9a4087	0.0011768498
205	0x3da614f1	0.08109463
206	0x3ddcdce7	0.10784321
207	0x3dd518d1	0.10405124
208	0x3c24a6aa	0.010049501
209	0xbdc94837	-0.09828227
210	0xbe08f881	-0.13376047
211	0x3dc54127	0.096315674
212	0x3d8cbceb	0.06871971
213	0xbd4f3d1e	-0.050595395
214	0xbe0ae169	-0.1356255
215	0x3e1ca00a	0.15295425
216	0xbe1a7578	-0.15083873
217	0x3db064c9	0.08612973
218	0x3dec358f	0.11533653
219	0xbd7984cc	-0.06091766
220	0x3e25c969	0.16190113
221	0x3d6cfeb0	0.057860076
222	0x3e397eee	0.18114826
223	0x3dce05c2	0.10059692
224	0xbdac217b	-0.084048234
225	0x3d5a0210	0.053224623
226	0x3b4b21c5	0.003099547
227	0xbd5c4b82	-0.053782947
228	0x3e0dc45c	0.13844436
229	0xbdb44bc3	-0.08803513
230	0xbd40a79a	-0.047034837
231	0xbbcc24d5	-0.0062299767
232	0xbdc2cb36	-0.09511416
233	0xbdc4ca17	-0.09608858
234	0xbd71f90a	-0.059075393
235	0x3dcf11df	0.101108305
236	0xbdac04d9	-0.08399362
237	0x3de5a3b1	0.11212862
238	0x3d80ca64	0.06288603
239	0x3cd80741	0.026370646
240	0x3e260591	0.16213061
241	0xbdb9a845	-0.09065298
242	0xbda4041a	-0.08008595
243	0x38c80229	9.5371455e-05
244	0x3dfc462f	0.12318074
245	0x3d31aa4f	0.04337531
246	0xbc04b453	-0.008099633
247	0xbe073d99	-0.13207091
248	0xbd803872	-0.06260766
249	0xbd9c19c9	-0.07622106
250	0x3d935e18	0.07195681
251	0x3d8055e4	0.06266382
252	0xbbb2845f	-0.005447909
253	0xbe22c642	-0.15895942
254	0x3d987b93	0.07445445
255	0xbdc904eb	-0.09815391

bias f4 [64]
0	0xbd2496f3	-0.04018302
1	0xbc07fda7	-0.0083002215
2	0x39ae60ea	0.00033260073
3	0xbaef85b5	-0.0018274101
4	0xbcf601e4	-0.030030198
5	0x3bf0fda5	0.0073544555
6	0xbb81a12e	-0.0039559817
7	0x3d44047d	0.047855843
8	0xbd63424c	-0.055483148
9	0xbacb1494	-0.0015493804
10	0xbd29d694	-0.041464403
11	0xbbabb137	-0.0052396315
12	0xb96ecc86	-0.0002277364
13	0xbc815702	-0.015788559
14	0xb90cdf61	-0.00013434656
15	0xbd070182	-0.032960422
16	0xbd8059db	-0.062671386
17	0xba047189	-0.00050523184
18	0xbd91ea07	-0.07124715
19	0xbd8f37ed	-0.06993089
20	0xba87d128	-0.0010362016
21	0xbaa8043e	-0.0012818647
22	0x3d45c162	0.048280127
23	0x3d151a73	0.036402177
24	0xbb47f4ff	-0.003051102
25	0xbb0ceb4d	-0.0021502555
26	0xbd5895cb	-0.05287723
27	0xbd34bc13	-0.044124674
28	0xbcfb6c0d	-0.030691171
29	0xbd63945d	-0.055561412
30	0xbaea0890	-0.0017855335
31	0x3be0590a	0.006846552
32	0xbaa3972b	-0.0012480965
33	0xbd533985	-0.051568527
34	0x3d62bca1	0.05535567
35	0xbce642a7	-0.028107954
36	0x3d171f56	0.03689512
37	0xbb2ba361	-0.002618991
38	0x3cf68b86	0.030095827
39	0x3c383866	0.011243915
40	0xbabc90e5	-0.0014386444
41	0xbd1a4ac4	-0.03766896
42	0x3cc6694e	0.024220135
43	0xbdac5803	-0.084152244
44	0x3c9da5a1	0.019244017
45	0xbaa74322	-0.0012761096
46	0xbb8c1e3a	-0.004276064
47	0xbcef2853	-0.029194033
48	0x3ce84928	0.028355196
49	0xbd8651c9	-0.06558568
50	0x3cc8d022	0.024513308
51	0xbc589f5f	-0.013221591
52	0xbbd778f7	-0.0065756994
53	0xbd06f6ac	-0.03295009
54	0xba6dbdda	-0.00090691226
55	0xba20885c	-0.0006123835
56	0xbbfbd22b	-0.007684966
57	0xbb88619f	-0.004162028
58	0xbd92e424	-0.071724206
59	0xbafb737a	-0.0019184195
60	0x3c0ee226	0.00872091
61	0xbb1f142b	-0.0024273496
62	0xbaeff814	-0.0018308186
63	0xbc2e13f0	-0.010624871

weight f4 [19, 64]
0	0x3de4c5c4	0.11170533
1	0x3de61e5a	0.11236258
2	0xbdc666bd	-0.096875645
3	0x3b5b384f	0.003345031
4	0x3d11d705	0.03560545
5	0x39ca25a1	0.00038556478
6	0xbdcc4cf2	-0.09975614
7	0xbdaf8781	-0.08570767
8	0xbc8c4dc6	-0.017126929
9	0xbd9912c0	-0.074742794
10	0xbdcc0481	-0.099617966
11	0x3df43239	0.11923642
12	0x3c848903	0.016178614
13	0x3cc78f27	0.024360253
14	0xbdc260f4	-0.094911486
15	0x3d4431ba	0.047898985
16	0x3d75c4c8	0.06000212
17	0x3a9b5daa	0.0011853476
18	0xbd84be2e	-0.064815864
19	0x3d8c7bda	0.0685956
20	0xbc657f3d	-0.014007387
21	0x3c1de4a3	0.009637031
22	0x3da0e0d1	0.0785538
23	0xbb18419d	-0.0023232468
24	0x3db2885b	0.08717414
25	0xbdb50de6	-0.088405415
26	0x3d836d78	0.06417364
27	0x3d427d62	0.047482856
28	0xbd37a65d	-0.04483639
29	0x3d6d3223	0.057909142
30	0x3d532c2a	0.05155579
31	0xbddab5cd	-0.10679207
32	0x3b1de18f	0.0024090742
33	0x3c6dac84	0.014506463
34	0xbda07eb6	-0.07836668
35	0x3cde345b	0.027124574
36	0x3ca36f20	0.01995045
37	0x3cf28053	0.029602205
38	0x3d78b8aa	0.060722984
39	0x3c966015	0.018356362
40	0x3d04a097	0.032379713
41	0xbd78501a	-0.060623266
42	0xbd65571e	-0.055991285
43	0xbd9b9e51	-0.07598556
44	0x3ad3e2e7	0.0016165645
45	0xb88bc0e7	-6.663967e-05
46	0x3d67d4a8	0.05659929
47	0xbd9acf24	-0.0755904
48	0x3b2fdc1e	0.002683408
49	0xbdaf6b0a	-0.08565338
50	0x3cd150fb	0.02555131
51	0xbd262c39	-0.040569518
52	0x3c8b02c2	0.016969088
53	0x3d755949	0.059899602
54	0x3be3dece	0.0069540506
55	0xb9b6703a	-0.0003479736
56	0x3cb3acdc	0.021933012
57	0xbcb50742	-0.022098187
58	0xbcc5c6ed	-0.024142707
59	0xbad6f8c7	-0.0016401046
60	0xbb89d47a	-0.0042062374
61	0x3d35c0dd	0.044373382
62	0x3d4ab786	0.049491428
63	0x3dd90e32	0.10598411
64	0xbbefdcc9	-0.007320021
65	0x3199a467	4.4715764e-09
66	0x3da941d5	0.082645096
67	0xbad09960	-0.001591485
68	0x3d805eef	0.06268107
69	0x3d3a7e04	0.045530334
70	0x3c88d99e	0.01670533
71	0x3d8449aa	0.06459363
72	0xbc3c2e51	-0.011485652
73	0xbcb2487c	-0.021763079
74	0xbca2735a	-0.019830395
75	0x3d3e2113	0.04641826
76	0x00014e13	1.19843e-40
77	0xbb248680	-0.0025104582
78	0x3b5d84f6	0.0033801175
79	0xba6df2f2	-0.0009077034
80	0x3d40395b	0.0469297
81	0x3a94748b	0.0011326236
82	0x3d370904	0.044686332
83	0xbd21b161	-0.039475802
84	0x3aa785b7	0.0012780939
85	0x3aa8043b	0.0012818644
86	0x3d911268	0.07083589
87	0xbb261b03	-0.002534569
88	0xbaf3dab8	-0.0018604612
89	0x3d2f1616	0.042745672
90	0xbd824216	-0.06360261
91	0x3bc00d9b	0.005860997
92	0xbd191bf5	-0.037380178
93	0xbd5796ce	-0.052634053
94	0xbafc6335	-0.001925564
95	0xbce10012	-0.027465854
96	0x3ade7ba9	0.001697411
97	0xbcc57419	-0.024103211
98	0xbbea0539	-0.007141736
99	0x3d762ed2	0.060103245
100	0xbdb28729	-0.08717186
101	0x3b4de19e	0.0031414996
102	0xbdb0f0de	-0.08639692
103	0xbaa26cf7	-0.0012392093
104	0x3aaa9d73	0.0013016894
105	0x3d2e71b9	0.042588923
106	0x3c5136ca	0.01276941
107	0x3c619768	0.013769008
108	0x3a207476	0.00061208697
109	0x36ce4b25	6.1480264e-06
110	0xbd835e36	-0.06414454
111	0xba9c60bf	-0.0011930688
112	0xbd83d3e5	-0.064369
113	0x3d9a3b7f	0.07530879
114	0x80015b1c	-1.2452e-40
115	0x39219110	0.00015408196
116	0x3d3040a0	0.04303038
117	0xb4440b69	-1.8258073e-07
118	0xba6ae8c8	-0.0008961079
119	0x3b095bbc	0.002095922
120	0xb915822c	-0.0001425824
121	0x3b1e2762	0.002413236
122	0x3d7449b0	0.059640586
123	0xbb0c344c	-0.0021393476
124	0x3d8d0518	0.06885737
125	0xbbb4b1fe	-0.0055143824
126	0xbb089a7e	-0.0020844038
127	0xbd85a88a	-0.06526287
128	0x3d98e499	0.074654765
129	0x2d7f2a57	1.4504473e-11
130	0xbd92385d	-0.07139657
131	0x3adb6687	0.001673893
132	0xbcd0e1e4	-0.025498338
133	0xbd371b6c	-0.044703886
134	0xb3ddd04e	-1.0329005e-07
135	0x3da60610	0.08106625
136	0x3dcb781f	0.09935021
137	0xbd9b7637	-0.07590907
138	0x3dbe7bec	0.0930098
139	0xbd55851a	-0.05212889
140	0x0001541b	1.22007e-40
141	0x8d9c71d3	-9.641644e-31
142	0x31047d15	1.927963e-09
143	0x3ae356b2	0.0017344563
144	0xbd370554	-0.044682816
145	0xba4fdcce	-0.0007929326
146	0xbd211665	-0.039327998
147	0x3ded50ac	0.115876526
148	0x3ac8e8fc	0.0015328224
149	0xbaa80441	-0.001281865
150	0x3cd2a646	0.025714051
151	0xbb9fb1e6	-0.004873502
152	0x3a2b386b	0.0006531539
153	0xbc887d4d	-0.01666131
154	0x3c820bee	0.01587483
155	0x3a2d4ac4	0.0006610567
156	0xbb5a99d7	-0.0033355856
157	0x3be99bfd	0.007129191
158	0xbafc562b	-0.0019251754
159	0x3b18f54b	0.0023339565
160	0xb9fbe05f	-0.0004804162
161	0xbd7170fe	-0.05894565
162	0xba83038e	-0.0009995566
163	0x3d771940	0.060326815
164	0x3d61316c	0.054978773
165	0xbc80a3ca	-0.0157031
166	0xbd02d8c0	-0.03194499
167	0xbcebf5a4	-0.028803654
168	0x3b245d37	0.0025079974
169	0x3d6243ef	0.055240568
170	0x3af71b71	0.0018852783
171	0xbdb8aaa8	-0.09016925
172	0x3c1126c4	0.00885934
173	0xb748c1df	-1.1966068e-05
174	0x3d170b8d	0.03687625
175	0xbdb161ee	-0.08661257
176	0x3db89e2b	0.09014543
177	0x3d96f0e5	0.07370166
178	0x0001c349	1.6189e-40
179	0x398bb4cd	0.00026646853
180	0xbc20460f	-0.009782328
181	0x339524d1	6.94505e-08
182	0xba5e947e	-0.0008490755
183	0x39870a3a	0.00025756826
184	0xb8a213e2	-7.7284654e-05
185	0x3c088e37	0.008334688
186	0xbcdabb58	-0.02670066
187	0x3babab84	0.005238952
188	0x3c3273d3	0.010891872
189	0xbb2c7708	-0.0026316065
190	0x3be9ab1e	0.0071309945
191	0xbc59ccfe	-0.013293503
192	0x3cbf2c0a	0.02333643
193	0xb4973ead	-2.8171544e-07
194	0x3cade316	0.021226447
195	0x3acb5626	0.0015513345
196	0xbd84df3b	-0.0648789
197	0x3d326ef5	0.043562848
198	0x3c77d3e3	0.015126201
199	0x3cf2e480	0.029649973
200	0xbd8279b0	-0.06370866
201	0x3d8e8670	0.06959236
202	0xbd76f13b	-0.06028865
203	0x3d473bba	0.048640944
204	0x8000644e	-3.5983e-41
205	0x3addcf2e	0.0016922706
206	0x3ccf82c9	0.025330918
207	0xbc37aaac	-0.011210125
208	0x3d381f37	0.044951644
209	0xba925024	-0.00111628
210	0xbcd1cc74	-0.025610186
211	0xbd238ef7	-0.039931264
212	0x3a5d56d9	0.0008443422
213	0xbaa8043a	-0.0012818642
214	0x3d74f062	0.05979956
215	0x3d08416b	0.033265512
216	0xbab38a11	-0.0013697763
217	0x3c8cd3c5	0.017190823
218	0x3d8cd5ea	0.06876738
219	0xb96d4470	-0.00022627576
220	0x3d017512	0.031605788
221	0x3d205f1c	0.039153203
222	0xbaf73089	-0.0018859069
223	0x3d319b0f	0.043360766
224	0xbad4face	-0.0016249062
225	0x3dc04167	0.093874745
226	0xbce3eb3d	-0.027822131
227	0x3d91ad4d	0.071131326
228	0x3db94400	0.09046173
229	0x3b054d29	0.002034018
230	0x3d00deb2	0.03146238
231	0x3cfe4343	0.031037932
232	0x3aaa9fb6	0.0013017568
233	0x3bc53553	0.0060183196
234	0xbcb1157e	-0.021616694
235	0x3d26cb0c	0.040720984
236	0xb5d6fd58	-1.6017975e-06
237	0x360f04b4	2.1311398e-06
238	0xbd903044	-0.07040456
239	0x3d9b9e0d	0.07598505
240	0x3dcb2fa9	0.099212
241	0xbdbb076e	-0.091322765
242	0x00006b9a	3.86e-41
243	0x3c974d2f	0.018469421
244	0x3df81369	0.12113077
245	0x3615dac9	2.233008e-06
246	0xba6aef3a	-0.0008962039
247	0x3b015b11	0.0019738118
248	0x37f9623b	2.9728855e-05
249	0x3c3cf2ac	0.011532467
250	0xba3d7567	-0.0007227272
251	0x3ac28958	0.0014841957
252	0xbd8754e9	-0.06607992
253	0x39d893b4	0.00041308778
254	0xbb2d6281	-0.0026456418
255	0xbc1509cb	-0.009096573

bias f4 [19]
0	0x3ed3b20c	0.41346776
1	0xbd7eda98	-0.062220186
2	0xbb687ec7	-0.0035475956
3	0x3cafe70f	0.021472482
4	0x3e975416	0.2955634
5	0x3c46a641	0.012124599
6	0xbbb04588	-0.0053793825
7	0xbccc1833	-0.024913883
8	0x3e8a10ce	0.26965946
9	0x3e97381c	0.29534996
10	0xbb6d1430	-0.0036175363
11	0xbb0cb9f9	-0.0021473153
12	0x3bbdb6c3	0.005789609
13	0x3e9b534e	0.30336994
14	0xbb54af76	-0.0032453216
15	0x3a773632	0.0009430378
16	0x3b487869	0.0030589348
17	0x3e9cf8d8	0.30658603
18	0x3eb23c91	0.34811834
