models/N/model3.pt (torch, 310479 bytes, 8 tensors)

weight f4 [128, 384]
0	0x3c3beb03	0.011469605
1	0x3bca4c89	0.0061736745
2	0xbda59897	-0.08085745
3	0x3c06b5e0	0.008222073
4	0xbc3682fc	-0.011139628
5	0xbbad1b22	-0.0052827755
6	0x3d2b429f	0.04181158
7	0xbcb80653	-0.022463953
8	0xbbea8da0	-0.0071579963
9	0x3ca282c8	0.019837752
10	0xbc149c3e	-0.009070454
11	0xbd607a9f	-0.05480444
12	0xbd512d36	-0.051068507
13	0xbd346e3f	-0.04405045
14	0xbb795ebb	-0.0038050849
15	0x3d1ec2cf	0.038760003
16	0x3e6dd946	0.23227414
17	0xbc0d5e6e	-0.008628471
18	0xbd8fcf5d	-0.07021973
19	0x3c2a20e0	0.010383815
20	0x3def7544	0.116922885
21	0x3dac1a55	0.0840346
22	0x3c46f0b0	0.012142345
23	0xbd622b23	-0.05521692
24	0x3cd56b10	0.026052028
25	0xbba345b9	-0.004982677
26	0xbd6465b1	-0.055761043
27	0xbd417f7e	-0.047240727
28	0xbc89f4c8	-0.016840354
29	0xbc1f3069	-0.009716132
30	0x3cf86d31	0.030325504
31	0x3d8c445d	0.06848977
32	0x3c199c20	0.009375602
33	0x3ce5b1eb	0.02803894
34	0x3de02e40	0.109463215
35	0x3e4e83e2	0.20167497
36	0x3c7507a0	0.014955431
37	0xbcabe0d7	-0.020981235
38	0xbd1d2841	-0.038368467
39	0xbdae0c05	-0.08498386
40	0xbc8b615f	-0.017014204
41	0xbda537c3	-0.08067276
42	0x3bc53de9	0.006019343
43	0xbbbb95d4	-0.005724648
44	0xbc99e868	-0.018787578
45	0x3d283e7f	0.041075226
46	0x3d93c1c6	0.07214694
47	0x3d80946a	0.06278308
48	0x3e49e429	0.19715942
49	0x3d4b754d	0.049672414
50	0x3d5a92ae	0.05336254
51	0x3da40a3c	0.080097646
52	0x3cf0af44	0.029380448
53	0x3d4ed80c	0.050499007
54	0xbcbd3bc3	-0.023099786
55	0xbd2d0d0a	-0.042248763
56	0x3dcfec98	0.101525486
57	0x3c95a79b	0.018268397
58	0xbcb3d8c8	-0.021953955
59	0xbd57b322	-0.05266107
60	0x3a79c3df	0.0009527783
61	0xbc341f1d	-0.010993746
62	0xbd8e7b80	-0.069571495
63	0xbdb0bc73	-0.08629694
64	0xbdbbdd1e	-0.09173034
65	0xbdbc7bc6	-0.092032954
66	0xbd9da808	-0.07698065
67	0xbd9c1b92	-0.07622446
68	0xbd1eda6b	-0.03878252
69	0xbd2a9497	-0.041645613
70	0xbc34ec66	-0.01104269
71	0x3c795d99	0.015220069
72	0x3da883d7	0.082282715
73	0x3d2096d5	0.039206345
74	0x3c6acdd0	0.014331296
75	0xbca0b900	-0.019619465
76	0x3da32359	0.079657264
77	0x3ca18fde	0.019721922
78	0x3d76706b	0.060165804
79	0x3da57bd0	0.08080256
80	0xbd919c6b	-0.071099125
81	0xbde431fd	-0.11142347
82	0xbc8aefcf	-0.016960053
83	0xbbff3098	-0.0077877752
84	0xbce81b7e	-0.028333422
85	0xbc623974	-0.013807643
86	0x3ced3ae6	0.028958749
87	0xbcb80270	-0.0224621
88	0xbcc6446c	-0.024202548
89	0xbc564778	-0.013078563
90	0x3d778856	0.060432754
91	0x3da85bb2	0.082206145
92	0xbb338289	-0.0027391037
93	0x3d673062	0.056442626
94	0x3d11468b	0.035467666
95	0xbc8d0d4f	-0.01721826
96	0x3daa619c	0.08319399
97	0x3df4ed9f	0.11959385
98	0x3df08b69	0.117453404
99	0x3cfc43d7	0.030794067
100	0x3c940a55	0.018071333
101	0xbccad43c	-0.024759404
102	0xbe127709	-0.14303221
103	0xbe1f4442	-0.15553382
104	0xbd969487	-0.07352548
105	0x3d4a4b11	0.049387995
106	0x3dd14036	0.102173254
107	0x3be1f0c2	0.0068951556
108	0x3d152a1e	0.03641712
109	0x3c5bf792	0.013425725
110	0xba879d9b	-0.0010346653
111	0x3d81b097	0.0633251
112	0xbd58ed84	-0.052960888
113	0x3d4fe95d	0.050759662
114	0x3d898e63	0.06716611
115	0x3c0528b1	0.008127377
116	0x3c89a201	0.016800882
117	0xbcafbd6a	-0.021452624
118	0xbd37e6f6	-0.044897996
119	0xbd23b899	-0.039970968
120	0xbc996107	-0.018723024
121	0x3a9afbe1	0.0011824333
122	0xbc91fff9	-0.017822253
123	0xbca2204b	-0.01979079
124	0xbd16091c	-0.03662978
125	0x3d9fc369	0.078009434
126	0x3da9bd0b	0.0828801
127	0x3c3fed95	0.011714359
128	0x3d46cd62	0.048535712
129	0x3d679782	0.056540973
130	0x3beecbf2	0.007287496
131	0xbd252049	-0.040313993
132	0xbcc2d799	-0.023784446
133	0x3d843873	0.06456079
134	0x3d8e945c	0.06961891
135	0x3c9c9926	0.019115996
136	0xbd514381	-0.051089767
137	0xbd193556	-0.03740438
138	0xbbdc91d2	-0.0067312503
139	0xbca7faae	-0.020505276
140	0x3d215a2a	0.039392628
141	0x3c3fb196	0.011700055
142	0xbd2a5674	-0.041586354
143	0xbd13d172	-0.036088414
144	0x3d727463	0.059193026
145	0x3dcd10c6	0.10012965
146	0x3df6f44a	0.12058313
147	0xbd9ad917	-0.07560938
148	0xbc07c0b0	-0.008285686
149	0x3d18d50d	0.037312556
150	0x3db74ec9	0.08950574
151	0x3d4b3488	0.049610645
152	0xbde97504	-0.11399272
153	0xbe269366	-0.16267166
154	0xbe031b00	-0.12803268
155	0xbe6f0400	-0.2334137
156	0xbd17a6cc	-0.037024304
157	0x3e4a5cf9	0.19762029
158	0x3e29a1a4	0.16565567
159	0x3ddaefa4	0.10690239
160	0xbd972eaa	-0.07381947
161	0xbce2ebb2	-0.027700279
162	0xbcc6ab8b	-0.02425172
163	0xbddd71fb	-0.10812756
164	0xbca90a4c	-0.020634793
165	0x3d6b33ed	0.057422567
166	0x3cccdb27	0.025006844
167	0xbd594919	-0.053048227
168	0xbe543c74	-0.20726186
169	0xbe1fdfd9	-0.15612735
170	0x3d528a61	0.0514015
171	0xbadf2803	-0.0017025474
172	0xbccfe9fa	-0.025380123
173	0x3d88bc36	0.066765234
174	0xbd324701	-0.043524746
175	0xbd16d714	-0.03682621
176	0xbd7c7ada	-0.061640598
177	0xbbfb438c	-0.0076679643
178	0x3d996ced	0.07491479
179	0x3d6f1456	0.058369003
180	0x3c2f681e	0.010705976
181	0x3cf50607	0.0299101
182	0xbd450326	-0.048098706
183	0xbcb6c1a9	-0.022309141
184	0x3dff7f13	0.12475409
185	0x3d98e7e7	0.07466107
186	0xbd24cce7	-0.040234473
187	0x3cb8c45f	0.022554575
188	0x3e235522	0.15950444
189	0x3e11cd5f	0.14238499
190	0x3e19d3b6	0.15022168
191	0x3e3590bb	0.17730992
192	0x3dd86663	0.10566404
193	0xbe6dc521	-0.2321973
194	0xbe98f30d	-0.29872933
195	0x3bab8585	0.0052344226
196	0x3dbfc60d	0.09363947
197	0x3ce4c032	0.027923677
198	0x3dd42cee	0.10360132
199	0x3dfbb2db	0.12289973
200	0x3daefd05	0.085443534
201	0xbc8f07c8	-0.017459765
202	0xbe1545ce	-0.1457741
203	0x3d14df8c	0.036346003
204	0x3dde6f42	0.108610645
205	0x3ce09def	0.027419059
206	0x3e1b59ba	0.15170947
207	0x3dcfda83	0.101491
208	0xbd1542f3	-0.0364408
209	0x3d0a0573	0.033696603
210	0x3ca7aa92	0.020467076
211	0xbd30f756	-0.043204628
212	0x3ded4a4b	0.11586436
213	0x3dd6e8c3	0.104936145
214	0x3da3fe5c	0.080074996
215	0x3d7bb359	0.061450336
216	0xbdcbef67	-0.09957772
217	0xbdc6f111	-0.097139485
218	0xbd6e02dc	-0.058108196
219	0xbd7e5807	-0.06209567
220	0xbcfc91f3	-0.030831313
221	0xbd54cb50	-0.051951706
222	0x3cc5d6df	0.02415031
223	0x3d54d55c	0.051961288
224	0x3d68f7ee	0.05687707
225	0x3cfbd75a	0.030742336
226	0x3d0baac6	0.03409841
227	0x3df428a2	0.119218126
228	0x3da64286	0.08118157
229	0x3d02e986	0.031960987
230	0xbc9373d0	-0.01799956
231	0xbdcf4a63	-0.1012161
232	0x3def5130	0.11685407
233	0x3e05d430	0.13069224
234	0x3dda9a09	0.10673911
235	0x3dfd8363	0.12378576
236	0x3dbabd41	0.091181286
237	0x3d8214f8	0.06351656
238	0x3bc3d27f	0.005976021
239	0xbd7f58a3	-0.06234039
240	0x3e156d90	0.14592576
241	0x3e03ad44	0.12859064
242	0xbd86823d	-0.0656781
243	0x3ce8a5e0	0.028399408
244	0x3dcb46c0	0.09925604
245	0x3d9db586	0.077006385
246	0x3d1708dd	0.036873687
247	0xbbccadd0	-0.006246306
248	0xbdc37f01	-0.095457084
249	0xbe0079fc	-0.12546533
250	0xbdf06193	-0.11737361
251	0xbc961089	-0.018318431
252	0x3d02f69f	0.031973477
253	0x3e092a11	0.13394953
254	0x3d6137db	0.05498491
255	0x3aebcbb7	0.0017989789

bias f4 [128]
0	0x3c46d03f	0.012134611
1	0x3c52fb3e	0.012877284
2	0x3bff4e6c	0.007791331
3	0x3d93fcae	0.07225929
4	0x3e8c9536	0.2745759
5	0x3e873cd0	0.26413584
6	0x3eb1cc3a	0.34726125
7	0x3ec4922f	0.3839278
8	0x3e226230	0.15857768
9	0x3e49a6fe	0.19692609
10	0x3e9311d7	0.28724548
11	0x3e5fbd53	0.21849565
12	0x3e1e7cf3	0.15477352
13	0x3dc797c1	0.09745742
14	0x3e46788b	0.19381921
15	0x3e86eb2d	0.263513
16	0x3e6eca38	0.23319328
17	0x3ebc4ba4	0.3677646
18	0x3e5c802d	0.2153327
19	0x3e767e19	0.2407154
20	0x3e5de479	0.21669187
21	0x3ec1947b	0.37808594
22	0x3e075ed2	0.13219765
23	0x3e757a10	0.23972344
24	0x3cb56c0e	0.022146251
25	0x3cc7a0df	0.024368702
26	0x3e273bfb	0.16331474
27	0x3ea1f22f	0.31630084
28	0x3e68d8ad	0.22738905
29	0x3eb39045	0.35071006
30	0x3e8b227e	0.27174753
31	0x3e83a920	0.2571497
32	0x3e3ebc07	0.18626414
33	0x3e9457d6	0.28973264
34	0x3da7be8d	0.081906416
35	0x3e9d81f4	0.3076321
36	0x3e259dc7	0.16173469
37	0x3e1bc981	0.15213586
38	0x3d86a8e5	0.06575183
39	0x3e825042	0.25451857
40	0x3df89a1f	0.12138771
41	0x3ecbdc85	0.3981668
42	0x3e09569e	0.13411948
43	0x3e814273	0.2524601
44	0x3d5a84b3	0.053349208
45	0x3eb6b03d	0.35681334
46	0x3e26a98f	0.16275619
47	0x3e178f10	0.14800668
48	0x3e38a91d	0.18033262
49	0x3e6e7724	0.23287636
50	0x3e70ae1b	0.23503916
51	0x3e8d50c3	0.2760068
52	0x3ecbcdce	0.39805454
53	0x3ce64eed	0.028113807
54	0x3e8788a3	0.26471433
55	0x3e3b6b2c	0.18302602
56	0xbc2ad863	-0.010427567
57	0x3e813b03	0.25240335
58	0x3e25ece3	0.16203646
59	0x3e3573c9	0.1771995
60	0x3e1869a3	0.14884047
61	0x3a38fda2	0.0007056837
62	0x3e8bbcdc	0.27292526
63	0x3c415eb8	0.011802368
64	0x3e7496ab	0.238856
65	0x3ec2889b	0.37994847
66	0x3cbf4f45	0.023353228
67	0x3e90746d	0.28213826
68	0x3e74ef82	0.2391949
69	0x3e7ef20c	0.24897021
70	0x3e81a1a9	0.2531865
71	0x3ea04e59	0.31309775
72	0x3e0a51ba	0.13507739
73	0x3e6d1fd6	0.23156676
74	0x3e2ba161	0.1676078
75	0x3e8bb1fe	0.27284235
76	0x3e83af3b	0.25719628
77	0x3e20bea5	0.15697725
78	0x3e378b5a	0.17924252
79	0x3e05ffad	0.13085814
80	0x3e79d4fe	0.24397656
81	0x3ea93972	0.3305164
82	0x3e79aae8	0.24381602
83	0x3ecde572	0.40214115
84	0x3e250981	0.16116907
85	0x3d612227	0.05496421
86	0x3ed5ac49	0.41733006
87	0x3e81247b	0.25223145
88	0x3e9e2861	0.30890182
89	0x3ed4e77e	0.41582865
90	0x3e1d1486	0.1533986
91	0x3e0d1f2f	0.13781427
92	0x3d8f96d1	0.07011188
93	0x3d735f9a	0.059417345
94	0x3dcc3a74	0.099720865
95	0x3d0c1ef3	0.034209203
96	0x3e4ade98	0.19811475
97	0x3e49b942	0.19699576
98	0x3e36d9c4	0.17856508
99	0x3e2ba13d	0.16760726
100	0x3db8c3f4	0.0902175
101	0x3e260157	0.16211449
102	0x3e8436d0	0.2582307
103	0x3e772dfd	0.24138637
104	0x3ef33886	0.4750406
105	0x3e5b7458	0.214311
106	0x3db49851	0.088181145
107	0x3e82b11d	0.25525752
108	0x3e65eb85	0.22453125
109	0x3dbb7637	0.09153407
110	0x3e4ef285	0.20209701
111	0x3ec18de5	0.3780357
112	0x3eac426a	0.3364442
113	0x3d4eeed5	0.050520737
114	0x3d1ef3ff	0.03880691
115	0x3eb79ad9	0.35860327
116	0x3e57f9f1	0.21091439
117	0x3e4b4f94	0.19854575
118	0x3e9f18e4	0.31073678
119	0x3e9f1d30	0.31076956
120	0x3e883bfc	0.26608264
121	0x39ad679b	0.00033074323
122	0x3e46ecf7	0.19426332
123	0x3ea5b551	0.32364896
124	0xbc984e4c	-0.018592022
125	0x3e6b0d6d	0.2295434
126	0x3cad154b	0.021128317
127	0x3cbbcde1	0.02292532

weight f4 [128, 128]
0	0x3e2f1bc5	0.17100437
1	0x3dbadc05	0.09123997
2	0x3c94b22c	0.018151365
3	0x3d306b8e	0.043071322
4	0xbe995d15	-0.29953828
5	0xbe7ec24a	-0.24878803
6	0xbe856e2b	-0.26060614
7	0xbe43f560	-0.19136572
8	0xbd0fed25	-0.035138268
9	0xbe41101c	-0.18853801
10	0xbd9ba8aa	-0.076005295
11	0xbe23517e	-0.15949056
12	0xbe0db555	-0.13838704
13	0xbe00cf9a	-0.12579194
14	0xbdc32d9e	-0.09530185
15	0xbe36aebf	-0.17840098
16	0xbe123061	-0.14276268
17	0xbe20155b	-0.15633146
18	0xbde98954	-0.114031464
19	0xbe7c07fe	-0.24612424
20	0xbdc4e34f	-0.09613668
21	0xbe4af5bb	-0.19820301
22	0xbde4a905	-0.111650504
23	0xbe4fb636	-0.20284352
24	0xbdd74441	-0.10511065
25	0xbe8e4a1f	-0.27790925
26	0xbe34bce1	-0.17650177
27	0xbe4a6f11	-0.19768931
28	0xbe1c28f8	-0.15250003
29	0xbe4b6cac	-0.19865674
30	0xbe060010	-0.13085961
31	0xbdcdd400	-0.100502014
32	0xbe4d4033	-0.20044021
33	0xbe7d31a2	-0.24725965
34	0xbcfcdf52	-0.030868206
35	0xbe194cf5	-0.14970763
36	0xbcfc17f2	-0.030773137
37	0xbe0d19cc	-0.13779372
38	0x3bf92134	0.007602835
39	0xbd5c014c	-0.053712174
40	0x3cc81ba8	0.02442725
41	0xbe1cd351	-0.15314986
42	0xbdddca31	-0.108295806
43	0xbe270d02	-0.16313556
44	0xbd787c8e	-0.06066566
45	0xbe06fd71	-0.13182618
46	0xbe0aa51f	-0.13539551
47	0xbd9115f7	-0.070842676
48	0xbe0e6a69	-0.1390778
49	0xbdcce831	-0.100052245
50	0xbcad37b1	-0.02114472
51	0xbe57a3f3	-0.21058635
52	0xbe6197bd	-0.2203054
53	0xbe5b9528	-0.21443617
54	0xbe6af364	-0.22944409
55	0xbe15684c	-0.14590567
56	0x3df72c0f	0.120689504
57	0xbe0897b8	-0.13339126
58	0xbdb3fbe7	-0.08788281
59	0xbe525425	-0.20539911
60	0xbe31d9b0	-0.17368197
61	0x3d6dff19	0.05810461
62	0xbe15bf0d	-0.14623661
63	0xbdea79e8	-0.11449033
64	0xbe189a3e	-0.14902589
65	0xbe677f69	-0.22607197
66	0xbdfaef08	-0.12252623
67	0xbe252f1f	-0.16131257
68	0xbdca4087	-0.09875589
69	0xbdffddc4	-0.1249347
70	0xbdbd4f85	-0.09243683
71	0xbe780e68	-0.24224246
72	0xbe47368a	-0.19454399
73	0xbe098f71	-0.13433625
74	0xbcb8f228	-0.022576407
75	0xbda7b9b4	-0.08189717
76	0xbe8b6293	-0.27223644
77	0xbd71ab31	-0.05900115
78	0xbd6bc22b	-0.05755822
79	0xbdd73e07	-0.10509878
80	0xbdb4c577	-0.08826726
81	0xbeb5eb3b	-0.3553103
82	0xbe31e435	-0.1737221
83	0xbe9505d1	-0.29106
84	0xbe889403	-0.26675424
85	0xbd80e5f8	-0.06293863
86	0xbeb4c6e4	-0.35307992
87	0xbd96fb75	-0.0737218
88	0xbe489e15	-0.19591554
89	0xbe8004a6	-0.25003546
90	0xbe11ac43	-0.14225869
91	0xbe285ea4	-0.16442353
92	0xbc9fbc51	-0.019498976
93	0xbe0ad0a7	-0.13556157
94	0xbe22e5d0	-0.15907979
95	0xbdbcca48	-0.092182696
96	0xbe05d5ac	-0.1306979
97	0xbddd939e	-0.10819171
98	0xbd859fd8	-0.065246284
99	0xbe3c9753	-0.184171
100	0xbdc2d4c1	-0.09513236
101	0xbdd7d190	-0.10538018
102	0xbddaa112	-0.10675253
103	0xbe13d4d9	-0.14436664
104	0xbea05ada	-0.31319314
105	0xbdedf62b	-0.116192184
106	0xbc4f6464	-0.012658212
107	0xbe040684	-0.1289311
108	0xbe5a9a89	-0.21348013
109	0xbdc4ee01	-0.09615708
110	0xbe3355ea	-0.17513242
111	0xbe8bd41e	-0.2731027
112	0xbe8f9f72	-0.28051335
113	0x3d437229	0.047716293
114	0xbe24ec58	-0.16105783
115	0xbe3a1969	-0.18173756
116	0xbe211049	-0.15728869
117	0xbdeb5612	-0.11491026
118	0xbe0bb8f6	-0.13644776
119	0xbe4cf6c1	-0.20016004
120	0xbe2d05f9	-0.1689681
121	0x3d973e7d	0.073849656
122	0xbe2e9917	-0.17050587
123	0xbe8c5907	-0.27411672
124	0x3e145db0	0.14488864
125	0xbdf1afee	-0.11801134
126	0x3e06d221	0.13166095
127	0xbe109203	-0.14118199
128	0x3e32d504	0.17464072
129	0x3e1edb1d	0.15513273
130	0x3db5cd1c	0.08877012
131	0x3d96c5c2	0.07361938
132	0x3d922a9a	0.07137032
133	0x3d2998f6	0.04140564
134	0x3cb27643	0.021784907
135	0x3e4da0e6	0.20080909
136	0x3e03e859	0.12881602
137	0x3d864ed0	0.06558001
138	0x3c03b2f0	0.0080382675
139	0x3e2d5149	0.16925539
140	0xbb337a65	-0.0027386185
141	0xbc3faffd	-0.011699674
142	0xbc7f8008	-0.01559449
143	0x3e25d530	0.16194606
144	0x3d8759e8	0.06608945
145	0x3caa319e	0.020775612
146	0x3ddd2e10	0.10799801
147	0x3dd5a05c	0.10430977
148	0x3d637642	0.0555327
149	0x3da425b9	0.080150075
150	0x3d6cc698	0.05780658
151	0x3db3f7cc	0.08787498
152	0xbe0cda5a	-0.1375517
153	0xbe8ce27c	-0.27516544
154	0x3e068d6b	0.13139884
155	0x3df29474	0.118447214
156	0x3dff39fb	0.12462231
157	0x3c13e9a2	0.00902787
158	0x3dbed6c0	0.09318304
159	0x3e3df2ce	0.18549654
160	0x3d931307	0.071813636
161	0x3e160150	0.14648938
162	0x3df3b66d	0.11900029
163	0xbb4c230f	-0.0031148826
164	0x3dfc8951	0.123308785
165	0x3c9acd07	0.018896593
166	0x3dcb93fc	0.09940335
167	0x3cf4de55	0.029891172
168	0x3dc1d547	0.094645076
169	0x3add41c9	0.0016880567
170	0x3de634bf	0.11240529
171	0x3e230247	0.15918837
172	0xbdc67b94	-0.096915394
173	0x3d19aa4b	0.03751592
174	0x3df1bbd7	0.11803406
175	0x3bb1e896	0.0054293377
176	0x3d8a627f	0.06757068
177	0x3de3af02	0.111173645
178	0x3e0a19e8	0.13486445
179	0x3d72b971	0.059258882
180	0x3e2bde71	0.16784073
181	0xbe57cb34	-0.2107361
182	0x3dc40c0a	0.09572609
183	0xbcc804fd	-0.024416441
184	0x3e21a3a4	0.1578508
185	0x3da44c14	0.08022323
186	0x3d8bfa70	0.068348765
187	0x3d8bfce4	0.068353444
188	0x3c777791	0.01510419
189	0x3d99c5d8	0.07508439
190	0x3e08a788	0.13345158
191	0xbe233b70	-0.15940642
192	0x3dc91b43	0.09819653
193	0x3e24a953	0.16080217
194	0xbe1f3202	-0.1554642
195	0x3dd5b26c	0.10434422
196	0x3dc8ad39	0.097986646
197	0x3de3f0b7	0.11129897
198	0x3e444b37	0.19169317
199	0x3dcadee6	0.09905796
200	0x3dc5e35e	0.096625075
201	0x3e41503f	0.18878268
202	0x3d946d2f	0.072473876
203	0x3e0b3ce8	0.13597453
204	0x3de45659	0.11149282
205	0x3c483309	0.012219199
206	0x3dd15ac1	0.10222388
207	0x3de42adf	0.111409895
208	0x3e1e751b	0.1547436
209	0x3e585670	0.21126723
210	0x3d28ac1b	0.041179758
211	0x3d802bd3	0.06258359
212	0xbda9defc	-0.08294484
213	0x3dc77f84	0.097411186
214	0x3e2facd7	0.17155777
215	0xbd385297	-0.04500064
216	0x3d591786	0.05300095
217	0x3e5879f4	0.21140271
218	0x3d6b0174	0.057374433
219	0x3cec8e12	0.028876338
220	0x3d020819	0.031746004
221	0xbcf08fd2	-0.029365454
222	0x3d98889e	0.07447933
223	0xbdb22b75	-0.08699695
224	0x3e0a3d25	0.13499887
225	0x3cb48f1e	0.0220409
226	0x3d8ed2b8	0.06973785
227	0x3de9f2a4	0.11423233
228	0xbd66b021	-0.056320313
229	0x3daba237	0.083805494
230	0x3dbd1001	0.09231568
231	0x3deee04b	0.11663874
232	0x3e27dd44	0.16393
233	0x3e0f85f9	0.1401595
234	0xbd4be701	-0.04978085
235	0x3daa9773	0.08329668
236	0x3e13430f	0.1438105
237	0xbd16afc1	-0.036788706
238	0x3d10f6f6	0.03539177
239	0x3dd6b499	0.10483665
240	0x3dfc74ed	0.12326989
241	0x3cd363db	0.02580445
242	0xbdb53d8f	-0.08849632
243	0x3e1a48d8	0.1506685
244	0x3e083701	0.13302232
245	0xbcb6f202	-0.022332195
246	0x3e1c575e	0.15267703
247	0x3e1b1dd1	0.15148093
248	0x3da61e83	0.081112884
249	0x3df1d26a	0.118077114
250	0x3d8d6c2a	0.06905396
251	0x3e30fd6c	0.17284173
252	0x3e1d9b53	0.15391283
253	0x3cddf836	0.027095895
254	0x3e0771fb	0.13227074
255	0xbdc323fe	-0.09528349

bias f4 [128]
0	0xbdf778de	-0.120836005
1	0xbcfda6c9	-0.030963318
2	0x3ceb5909	0.028728979
3	0x3d4f8843	0.05066706
4	0xbd34b4cf	-0.044117745
5	0x3bccb996	0.0062477095
6	0xbd6dd415	-0.058063585
7	0xbd5ef1b8	-0.05442974
8	0x3c06691f	0.008203774
9	0xbe1d07a6	-0.15334949
10	0x3ddf1127	0.108919434
11	0x3da8ef2e	0.08248745
12	0x3c32edfd	0.010920999
13	0xbc6ad8e5	-0.014333938
14	0x3c6d9ebd	0.014503178
15	0xbdd1d011	-0.10244764
16	0xbbf0d3e7	-0.0073494795
17	0xbdfe814d	-0.12427006
18	0xbdb0c344	-0.08630994
19	0x3acdf7e1	0.0015714132
20	0x3db84bb6	0.08998816
21	0x3ddc22ee	0.1074885
22	0xbcd82fc5	-0.026389966
23	0xbd25aa7f	-0.0404458
24	0xbe433298	-0.19062269
25	0x3e07c802	0.1325989
26	0xbe0e1a72	-0.13877276
27	0x3d7e39fe	0.062067024
28	0xbd7a4ac0	-0.061106443
29	0xbcbdbbcf	-0.023160843
30	0xbce402a7	-0.027833296
31	0x3e01be50	0.12670255
32	0xbe0b6a95	-0.13614877
33	0xbd0e6bbc	-0.034770712
34	0xbd9f559a	-0.07779999
35	0xbdafaa69	-0.08577425
36	0xbcbf1356	-0.02332465
37	0x3c273dcc	0.010207605
38	0xbdb77c3d	-0.089592434
39	0x3da46ca5	0.08028535
40	0x3dce77db	0.10081454
41	0xbd8e8590	-0.06959069
42	0xbe1d20ff	-0.15344618
43	0xbd151413	-0.036396097
44	0x3bb53109	0.005529527
45	0xb9b15041	-0.00033819865
46	0x3df1b745	0.11802534
47	0x3e1907de	0.14944407
48	0x3e2a5980	0.16635704
49	0xbc3ea05f	-0.011634915
50	0x3d7eaa40	0.06217408
51	0xbd3a04d8	-0.045414776
52	0x3c8baf0d	0.017051244
53	0x3defb7ec	0.11705002
54	0xbbfa8b48	-0.007645998
55	0xbd4552e7	-0.048174765
56	0xbd9046f5	-0.07044784
57	0x3e20677b	0.15664475
58	0xbde87aad	-0.113515235
59	0x3e12e540	0.14345264
60	0x3d224be9	0.039623175
61	0x3d827f5d	0.06371949
62	0xbdee6e39	-0.11642117
63	0x3dd285b3	0.10279407
64	0x3dc74a0d	0.09730921
65	0xbd3ead01	-0.046551708
66	0x3da56d3f	0.08077478
67	0xbd29b66c	-0.041433737
68	0xbdc05fdc	-0.09393284
69	0x3d82a3ff	0.06378936
70	0xbd0c3960	-0.034234405
71	0x3d9f2511	0.07770742
72	0xbd555912	-0.052086897
73	0x3dd49c48	0.10381371
74	0x3e43ecf7	0.19133364
75	0xbe26a891	-0.1627524
76	0xbcbb814f	-0.022888808
77	0xbc7093f7	-0.014683715
78	0x3de904a0	0.11377835
79	0xbdba7992	-0.09105219
80	0x3c863988	0.016384855
81	0xbe018e91	-0.12652041
82	0x3e19b350	0.15009809
83	0x3cd5b9d7	0.026089592
84	0xbd9fe3a7	-0.07807093
85	0x3d6c5399	0.057696912
86	0x3db05eda	0.086118415
87	0x3d80ef25	0.06295613
88	0xbd97dd23	-0.07415225
89	0x3dc5a804	0.09651187
90	0x3ce1104d	0.027473593
91	0x3d7eb9e6	0.062189005
92	0xbd1164ae	-0.035496406
93	0x3d1e3cef	0.03863233
94	0x3dec065b	0.1152465
95	0x3d703dbb	0.05865262
96	0xbd5b85a6	-0.053594254
97	0xbdddb134	-0.108248144
98	0xbdf1318e	-0.1177703
99	0xbd0723da	-0.032993175
100	0xbbbc9b3d	-0.0057558105
101	0x3d80d8f6	0.06291382
102	0xbdc57abb	-0.096425496
103	0x3d3c7cda	0.046017505
104	0x3d3ef37e	0.04661893
105	0xbd4e61ab	-0.050386112
106	0x3db5622f	0.08856618
107	0x3dbd6616	0.09247987
108	0xbd81f631	-0.063457854
109	0x3c3e5473	0.011616814
110	0xbcbab8f7	-0.022793276
111	0x3da17d9e	0.07885288
112	0x3e045067	0.12921296
113	0xbdfe24b9	-0.12409348
114	0xbcb133ae	-0.021631088
115	0x3e30f97c	0.1728267
116	0xbdbd9ea8	-0.09258777
117	0xbc828fb5	-0.015937665
118	0x3d172d20	0.03690827
119	0xbdc078f8	-0.09398073
120	0x3bb45cfd	0.005504249
121	0xbca89c4c	-0.02058234
122	0xbc81c390	-0.015840322
123	0xbd890804	-0.06690982
124	0xbdd03b9b	-0.10167619
125	0x3db73ad4	0.089467674
126	0x3db3e450	0.087837815
127	0xbcdd26f7	-0.026996119

weight f4 [64, 146]
0	0x3d359839	0.044334624
1	0x3c5cbf29	0.0134733105
2	0xbd065cff	-0.03280353
3	0x3a24474d	0.0006266728
4	0x3ce3cd65	0.0278079
5	0x3d6c343d	0.057667006
6	0xbd7eb732	-0.062186427
7	0x3d2cac82	0.042156704
8	0xbcc35045	-0.023841986
9	0x3db8023e	0.08984803
10	0xbd24a278	-0.040194005
11	0xbcb74194	-0.022370137
12	0x3d465091	0.048416678
13	0xbc1c95e1	-0.009557218
14	0x3d1c4b09	0.038157497
15	0x3d5629ec	0.052286074
16	0xbd1acd7e	-0.03779363
17	0x3bc793ca	0.006090616
18	0xbbb60f6c	-0.0055560376
19	0x3d8f1f7f	0.06988429
20	0x3c99bdd9	0.018767284
21	0xbd6dae8b	-0.058027785
22	0x3ce75221	0.028237404
23	0x3cb42edb	0.021994999
24	0x3c511c00	0.012763023
25	0xbcccb59d	-0.024988944
26	0xbbe9e718	-0.007138144
27	0xbd625214	-0.055254057
28	0x3da36e13	0.07979979
29	0xbd285d6d	-0.041104723
30	0x3d3370ad	0.043808628
31	0xbc85e80d	-0.016346002
32	0x3bec702f	0.0072155218
33	0x3a66572b	0.0008786793
34	0x36c88b42	5.976676e-06
35	0x3db8a044	0.09014943
36	0xbc3b1738	-0.01141911
37	0x3aaaf071	0.0013041628
38	0x3d3de5be	0.046361677
39	0xbd775c97	-0.060391035
40	0xbdb072ee	-0.08615671
41	0x3d296482	0.041355617
42	0x3d0e7802	0.034782417
43	0xbc4a98a7	-0.012365497
44	0xbb015b19	-0.0019738136
45	0x3d660855	0.05616029
46	0xbc45b353	-0.01206668
47	0xbd8de4db	-0.06928416
48	0xbc19e6e4	-0.0093934275
49	0x3d989257	0.07449787
50	0xb99612cc	-0.00028624234
51	0x3d34bcc9	0.044125352
52	0xbb22800d	-0.0024795562
53	0xbc8ade33	-0.016951656
54	0x3ccf9e2e	0.02534398
55	0x3c9fe76e	0.019519534
56	0x3cebe14c	0.028793953
57	0xbd51264e	-0.05106192
58	0x3d54985c	0.051903114
59	0xbd882bc8	-0.066489756
60	0x3b4cd86d	0.003125693
61	0xbc2afbde	-0.010436026
62	0xbc8e3b6b	-0.017362317
63	0xbd10bd02	-0.035336502
64	0xbd5731b5	-0.05253764
65	0x3d1e23d2	0.03860838
66	0x3bb4285b	0.005497975
67	0xbb200563	-0.0024417273
68	0x3d0f5634	0.03499432
69	0xbd428b23	-0.047495972
70	0xbccea4c6	-0.025225054
71	0xbc8aa09d	-0.01692229
72	0x3d2e62a6	0.042574547
73	0xbcbb9dd5	-0.022902409
74	0x3b923cde	0.0044628223
75	0xb9e284a2	-0.00043204898
76	0xbc0032a4	-0.007824574
77	0xbd462c11	-0.04838187
78	0xbd38dacd	-0.04513054
79	0x3dd43a7b	0.10362717
80	0xbcf89976	-0.030346613
81	0x3d69830e	0.05700975
82	0xbdc5533f	-0.096350186
83	0xbd39e6be	-0.04538607
84	0x3d893e74	0.06701365
85	0x3cc8fb34	0.024533845
86	0xbbbfecba	-0.0058570774
87	0xbd94e7b6	-0.07270758
88	0x3d8dd420	0.06925225
89	0xbd2691d4	-0.040666416
90	0xbce59fe4	-0.028030343
91	0x3af7dc1a	0.00189102
92	0x3d960d9d	0.07326815
93	0xbcbff6b5	-0.023433069
94	0xbbf6282b	-0.0075121126
95	0xbca253ff	-0.019815443
96	0xbc922b24	-0.017842837
97	0x3d8243ce	0.06360589
98	0xbcf6e612	-0.030139003
99	0x3d9bd16d	0.07608304
100	0xbc7e0241	-0.015503467
101	0x3cfab54b	0.030604025
102	0x3c2f6917	0.010706208
103	0x3d1d59ef	0.038415845
104	0xbd7864a5	-0.060642857
105	0xbc95e02c	-0.01829537
106	0xbd92f90d	-0.07176409
107	0xbd6d9b60	-0.058009505
108	0xbb71bf56	-0.0036887727
109	0xbd9e7c21	-0.077385195
110	0x3c5b3819	0.013380074
111	0xbbdad71e	-0.006678476
112	0xbd8ef0fd	-0.069795586
113	0x3d5dd7c5	0.054160852
114	0x3d4af01d	0.049545396
115	0xbdc1dbd5	-0.09465758
116	0x3d41e2db	0.047335487
117	0xbce7da4d	-0.028302336
118	0x3ca8ad27	0.020590378
119	0x3d57513d	0.05256771
120	0x3c80262a	0.015643198
121	0x3d019ed7	0.031645622
122	0xbd86b86e	-0.06578146
123	0x3d429534	0.047505572
124	0x3bdc7310	0.0067275837
125	0x3cf993e9	0.030466037
126	0x3acdd4fb	0.0015703732
127	0xbd5358dc	-0.051598415
128	0xbd7c5755	-0.061606724
129	0x37c91dcb	2.397494e-05
130	0x80028ac9	-2.33458e-40
131	0x3a1dda05	0.0006021562
132	0xbd59f308	-0.05321029
133	0x8001b32a	-1.56107e-40
134	0x800113f0	-9.8988e-41
135	0x0001f0fc	1.78284e-40
136	0x3d4dda79	0.05025718
137	0x3d000de6	0.031263255
138	0x3cfe27d0	0.031024843
139	0xae0a784a	-3.1484405e-11
140	0xbbac97d1	-0.0052671214
141	0xbd501cbf	-0.050808664
142	0x0000187d	8.785e-42
143	0x0000f493	8.7737e-41
144	0x000190fd	1.43847e-40
145	0xbd2a08f2	-0.041512437
146	0x3a19decb	0.00058696856
147	0xb9cbe92e	-0.0003889291
148	0xba158277	-0.00057033397
149	0xb9c5d96c	-0.0003773676
150	0x39527638	0.000200712
151	0x39dbcfd9	0.00041925794
152	0xb9b06ad2	-0.00033648923
153	0x3917a91a	0.00014463477
154	0xb9eebebf	-0.00045537014
155	0x3a22f96c	0.00062169763
156	0xba0320ff	-0.000500217
157	0xba11bb03	-0.0005559178
158	0x39c84cf7	0.00038204316
159	0xb98aa201	-0.00026442113
160	0x3a120869	0.0005570711
161	0x39e653cb	0.0004393145
162	0x39d7006a	0.00041008304
163	0x39ab23a1	0.00032642207
164	0x39dda621	0.0004227618
165	0x39d6ed51	0.00040994075
166	0xba12a7fb	-0.0005594489
167	0xba0f4e86	-0.0005466718
168	0x39e095a4	0.000428361
169	0x3a1ca6a9	0.0005975762
170	0x3a2b7e62	0.0006541965
171	0xba323d44	-0.00067992904
172	0x3a24bb23	0.0006283989
173	0xba1d2815	-0.00059950474
174	0x3a0e53ad	0.0005429339
175	0xb95fda26	-0.00021348204
176	0x39fe0c8c	0.00048456003
177	0xba0552e9	-0.0005085902
178	0x39ee9b12	0.00045510434
179	0x377d19a7	1.5085948e-05
180	0xaebab485	-8.4903674e-11
181	0x3a10ec7c	0.0005528403
182	0xb9acb6d5	-0.00032942617
183	0xb8a0b9b6	-7.663986e-05
184	0x39ff9a25	0.00048752237
185	0xb9b254db	-0.00034014028
186	0xba1effc5	-0.00060653343
187	0x3a0cc553	0.000536998
188	0x3a23452c	0.0006228264
189	0xb9899041	-0.00026238154
190	0x366d3168	3.534451e-06
191	0x3a1169b7	0.0005547064
192	0xba05e822	-0.0005108138
193	0xba0e39b4	-0.00054254686
194	0xba0bede3	-0.0005337877
195	0x3a0dbfb1	0.00054072874
196	0x00026c7d	2.22589e-40
197	0x39db9195	0.00041879402
198	0xb98c3681	-0.0002674349
199	0xb9f406e0	-0.0004654443
200	0x39851ec2	0.00025390653
201	0x39de8cf9	0.00042448172
202	0x390bd2aa	0.00013334551
203	0xba2402ef	-0.00062565407
204	0x3955aecc	0.0002037838
205	0xb973ef8d	-0.00023263526
206	0x35cd1a87	1.5281411e-06
207	0xb9bb0e36	-0.00035678007
208	0x3a0de1bc	0.000541236
209	0xb9e27d63	-0.000431995
210	0xb9a71f72	-0.0003187615
211	0x3944ecdd	0.00018780255
212	0xba12571a	-0.0005582437
213	0xb78e9eb2	-1.7001617e-05
214	0x39fb9a38	0.00047989353
215	0xb94c616b	-0.00019491247
216	0xb91d5b9d	-0.00015006815
217	0xb8d72e32	-0.000102606034
218	0x39a31136	0.00031102606
219	0xb94c5cc3	-0.00019489512
220	0xba30e62a	-0.00067481643
221	0x3a1b645a	0.00059277343
222	0xb815ae13	-3.5686488e-05
223	0xb9c2ebcb	-0.00037178243
224	0xb90a58eb	-0.0001319383
225	0x3a126904	0.00055851066
226	0xb9beda92	-0.00036402472
227	0x3a05b1c2	0.00051000353
228	0xba39f9a2	-0.0007094388
229	0xba017ac4	-0.0004939253
230	0x3a0cf3b4	0.0005376891
231	0xba1d6dc0	-0.0006005429
232	0xba0b475f	-0.00053130643
233	0xba1d0290	-0.00059894565
234	0x39aa3ca8	0.0003247012
235	0xb9fa3ea9	-0.000477304
236	0x39ee16fb	0.0004541202
237	0xb4d11c5c	-3.8949918e-07
238	0x3a159e6b	0.0005707505
239	0xb9bc7c42	-0.00035950734
240	0xb9a2ae11	-0.00031028737
241	0xba18a892	-0.0005823459
242	0xb93f2af4	-0.00018231181
243	0x39835092	0.00025046297
244	0x39ea4eac	0.00044690573
245	0x3a203914	0.0006112021
246	0x39cf7a01	0.00039573017
247	0xba094c9d	-0.00052375515
248	0x39c290c2	0.00037110416
249	0x39b43e46	0.00034378673
250	0xba1589c7	-0.00057044293
251	0x39d38069	0.0004034073
252	0xb99778bd	-0.0002889092
253	0xb9f3ae15	-0.00046478273
254	0x39f0b427	0.0004591059
255	0xba13418d	-0.0005617373

bias f4 [64]
0	0x3c4a501f	0.012348204
1	0xa91b8c0a	-3.4538378e-14
2	0xbc110d79	-0.00885331
3	0x3beae75f	0.007168695
4	0xbaa488ae	-0.0012552941
5	0xb8e54662	-0.00010932681
6	0x3a6d0674	0.0009041794
7	0xbc836177	-0.016037686
8	0xbcd66afa	-0.026174057
9	0x3c616d03	0.013758901
10	0xbaa70635	-0.0012742939
11	0xbcb4eebf	-0.0220865
12	0xbd75717d	-0.059922684
13	0x3bcac31c	0.0061878096
14	0xba1c8135	-0.0005970181
15	0xbd244c59	-0.040111873
16	0xba96fd9a	-0.0011519671
17	0x3bce23c2	0.0062908838
18	0xbc4e6ce2	-0.012599202
19	0x3d34bf00	0.044127464
20	0x3acb332e	0.0015502924
21	0x3c9f8283	0.019471413
22	0xbc9e7923	-0.019344872
23	0x3ae04f2f	0.0017113442
24	0xbdadeb56	-0.084921524
25	0x3d2bb3d8	0.04191956
26	0xb19c7f0c	-4.554641e-09
27	0xbc9cf44c	-0.019159459
28	0x3d02da25	0.03194632
29	0xb885c10d	-6.377893e-05
30	0x3bd4a7b0	0.0064897165
31	0xbaa818ab	-0.0012824734
32	0xbcf3d120	-0.029762805
33	0xbadc7adb	-0.0016821282
34	0x3d5a5225	0.053300995
35	0x3c0f3d54	0.008742649
36	0xb55f11c8	-8.309985e-07
37	0xbb116c0e	-0.002218965
38	0x3be6da40	0.0070450604
39	0xbc0d31e9	-0.008617857
40	0xbc306452	-0.010766106
41	0xba9dffd0	-0.0012054387
42	0x3ca603b2	0.020265434
43	0xbcb47e8a	-0.022032995
44	0xbc8c78e4	-0.017147489
45	0xbcc08412	-0.023500476
46	0xb94f8176	-0.00019789286
47	0xbd575155	-0.0525678
48	0x3d13c939	0.036080573
49	0xbbde9580	-0.006792724
50	0x80005fe6	-3.4402e-41
51	0xbae4e417	-0.0017462996
52	0xbb920f38	-0.0044573806
53	0xba88e0e2	-0.0010442997
54	0x3c759a73	0.014990437
55	0x3c34db09	0.01103855
56	0xbd1641cf	-0.036683854
57	0xbb11fb89	-0.002227517
58	0xba8caed0	-0.001073325
59	0x3a4de0e5	0.00078536413
60	0x3c86ed8f	0.016470699
61	0xba24d850	-0.00062883366
62	0xbc3cdc02	-0.011527063
63	0xbd481e12	-0.048856802

weight f4 [19, 64]
0	0x3bfdab35	0.0077413567
1	0xb9de6af5	-0.0004242283
2	0xbdfb67b2	-0.12275638
3	0x3b4070b5	0.0029364054
4	0xba07396f	-0.00051583996
5	0xbc0f374c	-0.008741211
6	0x3a23d472	0.00062496134
7	0x3d3964fa	0.045262314
8	0x3dc12f49	0.09432847
9	0x3dd4dceb	0.10393699
10	0xbd30c885	-0.04315998
11	0xbcbe657c	-0.02324175
12	0xbd5ab3ba	-0.053394057
13	0x3c43f4f7	0.01196026
14	0x3d4d93ee	0.050189905
15	0xbd90850e	-0.07056628
16	0x3c87958e	0.016550805
17	0xbd6fc7ef	-0.05854028
18	0x3d58f8c1	0.052971605
19	0x3d5ef40e	0.054431967
20	0x3ad9871f	0.0016596055
21	0xbde56241	-0.11200381
22	0x3b555738	0.0032553207
23	0x3e0190ed	0.12652941
24	0xbd25f637	-0.040518012
25	0x3d210792	0.03931386
26	0xba4e5e9f	-0.0007872376
27	0x3cdf529b	0.027261069
28	0x3c9ef451	0.019403609
29	0x3aa7fb1b	0.0012815924
30	0x3d826fa1	0.06368948
31	0xbc3ea774	-0.011636604
32	0xbdbfceb0	-0.093655944
33	0xbdaa03e9	-0.08301527
34	0x3d1b2a5a	0.037882186
35	0xbd480e66	-0.048841856
36	0xb60af3c0	-2.0705484e-06
37	0xbba30a40	-0.004975587
38	0x3b64a845	0.0034890336
39	0x3ce7c349	0.028291361
40	0xbd6c5277	-0.057695832
41	0xba879dfa	-0.0010346763
42	0x3c814f66	0.01578493
43	0xbd792a10	-0.06083113
44	0x3c4dd893	0.012563842
45	0xbdb2e6c0	-0.08735418
46	0x3db8b376	0.090186045
47	0xbd91e873	-0.07124414
48	0xbdc21103	-0.09475901
49	0xbd04afae	-0.032394104
50	0xb7990892	-1.8243012e-05
51	0xbcc1db6d	-0.0236642
52	0xbd8afb6b	-0.067862354
53	0x3b86b1fd	0.0041105733
54	0x3d16738e	0.036731295
55	0x3dbe69bb	0.0929751
56	0x3d7705c4	0.060308233
57	0xbdb6e3f7	-0.089301996
58	0x38abe103	8.195827e-05
59	0xbb0893a6	-0.0020839958
60	0x3cb14085	0.02163721
61	0x3bcf141d	0.0063195364
62	0x3cdf437b	0.027253857
63	0xbdf8ded5	-0.12151877
64	0x8001834d	-1.38937e-40
65	0xb38070f0	-5.981008e-08
66	0xb7087e7e	-8.135683e-06
67	0x000084c9	4.7634e-41
68	0xba885f35	-0.001040435
69	0xb904cac0	-0.00012664031
70	0x3a5d03f5	0.00084310706
71	0x3aa7d9b9	0.0012805975
72	0xb775aec4	-1.4643829e-05
73	0x3757506e	1.2833725e-05
74	0xb99e3733	-0.00030177235
75	0xb30e4fd9	-3.3134572e-08
76	0x80027b8f	-2.27995e-40
77	0xbc94b232	-0.018151376
78	0xbacbc7f6	-0.0015547264
79	0x3ce166c1	0.027514817
80	0x34cf8f15	3.866086e-07
81	0xbaa7c7a9	-0.0012800592
82	0x80023575	-2.02848e-40
83	0x3c77c35a	0.015122259
84	0x3aa6acde	0.0012716313
85	0xbcd68e16	-0.026190799
86	0xba973c94	-0.001153844
87	0xbb90aad5	-0.004414896
88	0x0000787e	4.3224e-41
89	0x8000d7b6	-7.7383e-41
90	0xa6c046ce	-1.3341868e-15
91	0xae0c7bde	-3.194233e-11
92	0x16834c41	2.1212314e-25
93	0xbaa58911	-0.001262935
94	0x39cf8c00	0.00039586425
95	0xbaa7df61	-0.0012807661
96	0x3d8a8876	0.06764309
97	0xbaa7feb9	-0.0012817002
98	0xaca08810	-4.5625795e-12
99	0x895ede93	-2.6826932e-33
100	0x800215ae	-1.91448e-40
101	0x32334097	1.0433857e-08
102	0xbaaa6a9b	-0.0013001742
103	0x80020013	-1.83698e-40
104	0x800033e9	-1.8622e-41
105	0x3a7c9b4b	0.00096361776
106	0x80025c92	-2.16879e-40
107	0xbaa4fd53	-0.0012587704
108	0x3c307d38	0.010772042
109	0xb82d8eb3	-4.1379313e-05
110	0xbdb40d04	-0.08791545
111	0x000080ec	4.6248e-41
112	0x3aec52e6	0.0018030077
113	0x3945f21f	0.00018877581
114	0x80024040	-2.0672e-40
115	0x0000c90e	7.2125e-41
116	0x396c3d35	0.00022529515
117	0x38c2c53d	9.287379e-05
118	0xb979c499	-0.00023819729
119	0x332143c5	3.754737e-08
120	0x800016e9	-8.219e-42
121	0x3abd36f1	0.001443593
122	0x382c1050	4.1023188e-05
123	0x2d9d6e85	1.7897914e-11
124	0x0004b5ce	4.32561e-40
125	0x3a1ee2d5	0.0006061022
126	0x2f8f5ac5	2.6076044e-10
127	0x3d781e01	0.06057549
128	0x800125eb	-1.05438e-40
129	0x2e9f04c0	7.2313266e-11
130	0xadd10f45	-2.376733e-11
131	0x800050f3	-2.9039e-41
132	0x3a93daf4	0.0011280463
133	0xb5c93600	-1.4991383e-06
134	0xba5ccf92	-0.00084232644
135	0x3aa7e3fe	0.0012809036
136	0xb6a1b135	-4.8188035e-06
137	0xba6f4065	-0.0009126722
138	0x36f9c931	7.4442e-06
139	0x340d855d	1.3180166e-07
140	0x000115b6	9.9624e-41
141	0x3ce42f9a	0.02785473
142	0xbaa6cc1a	-0.0012725622
143	0xb7c49c8a	-2.3437915e-05
144	0x29073b79	3.0027606e-14
145	0xbaa748b8	-0.0012762761
146	0x8002c0f1	-2.52885e-40
147	0xb1284a5d	-2.4489488e-09
148	0x3aa3f8f3	0.0012510106
149	0xbd075ad6	-0.033045612
150	0xb8a92791	-8.065918e-05
151	0x80006e32	-3.953e-41
152	0x0001380f	1.11946e-40
153	0x0001bba5	1.5915e-40
154	0xac2f6052	-2.4922464e-12
155	0x80027070	-2.24006e-40
156	0x298835da	6.048955e-14
157	0x3a9f5be8	0.0012158128
158	0x3608c040	2.0377483e-06
159	0xbaa7ee7c	-0.0012812163
160	0x3d79ed03	0.061017048
161	0xbaa7fffb	-0.0012817377
162	0x8000f169	-8.6602e-41
163	0x13a308d5	4.1155694e-27
164	0x0001fd17	1.82627e-40
165	0x3215f305	8.728198e-09
166	0xb7c0d203	-2.2985978e-05
167	0x00022644	1.97398e-40
168	0x00029180	2.35867e-40
169	0xbb12fbac	-0.002242784
170	0x8002aebc	-2.46354e-40
171	0xbaa77913	-0.0012777172
172	0x3cde4293	0.027131354
173	0xba8fdf09	-0.0010976504
174	0x31a6f781	4.859374e-09
175	0x00003703	1.9734e-41
176	0xb7317c84	-1.0579013e-05
177	0x3a89cca0	0.0010513254
178	0x8000b499	-6.4786e-41
179	0x243e0386	4.1202667e-17
180	0xbb224c5f	-0.002476476
181	0x3a0faa49	0.00054803916
182	0x3a624b75	0.000863246
183	0x36c8b9e6	5.982106e-06
184	0x00003c7b	2.1696e-41
185	0xba47076c	-0.00075923535
186	0xb8f17fca	-0.00011515578
187	0x308f614f	1.0432276e-09
188	0x00026dc2	2.23045e-40
189	0xba832988	-0.0010006884
190	0x3d6fc306	0.0585356
191	0x00014b0c	1.18757e-40
192	0x00026b2a	2.22114e-40
193	0xaabac97d	-3.3180048e-13
194	0xb4db79fc	-4.0880684e-07
195	0x000095b4	5.3703e-41
196	0xba695d26	-0.0008902125
197	0x3a8b9f43	0.0010652322
198	0x3a5d0fd6	0.00084328407
199	0x3aa7de34	0.001280731
200	0x3775f344	1.4659778e-05
201	0x39255a9a	0.00015769378
202	0xb9e5dd48	-0.0004384315
203	0x35837fc5	9.797446e-07
204	0x00025f06	2.17759e-40
205	0xbc7b8ffa	-0.015354151
206	0xba98f70e	-0.0011670308
207	0x3d22ea15	0.03977402
208	0x37379792	1.094294e-05
209	0xbaa7ce47	-0.0012802564
210	0x80011262	-9.843e-41
211	0x3b83cc0f	0.0040221284
212	0xbaa6947c	-0.0012709047
213	0xbcfe003a	-0.031005967
214	0xba91b10a	-0.0011115384
215	0xbc815f49	-0.015792506
216	0x8002af9d	-2.46669e-40
217	0x8002bc93	-2.51319e-40
218	0x20ab6bd3	2.903988e-19
219	0x31e13160	6.553975e-09
220	0x351fb464	5.949462e-07
221	0xbaa62b20	-0.0012677647
222	0xb90812b3	-0.00012976937
223	0xbaa7f619	-0.0012814432
224	0xbcd4afb5	-0.02596269
225	0xbaa8042f	-0.001281863
226	0x335ba20e	5.11373e-08
227	0x8001ff7b	-1.83485e-40
228	0x0000fcd3	9.0696e-41
229	0xb75b45d8	-1.3069679e-05
230	0xbcac3b88	-0.02102448
231	0x800237ca	-2.03684e-40
232	0x0001622a	1.2705e-40
233	0xba905378	-0.0011011204
234	0x00029840	2.38288e-40
235	0xbaa75d38	-0.001276887
236	0xbc2c8e81	-0.010532022
237	0xbcbe318e	-0.023216989
238	0xbd6925c3	-0.056920778
239	0x8000d557	-7.6532e-41
240	0xba3778e3	-0.00069989095
241	0x30695bb9	8.489525e-10
242	0x8000770e	-4.2709e-41
243	0x0ac47f35	1.8921963e-32
244	0x392d3990	0.0001652001
245	0x3a58407e	0.0008249356
246	0xbcc43a12	-0.023953471
247	0xb86d9b81	-5.6650028e-05
248	0x0002461a	2.08819e-40
249	0x3accff2a	0.001564001
250	0xbacf1077	-0.0015797754
251	0x320fd1ec	8.371426e-09
252	0x00014c52	1.19214e-40
253	0x3a20266c	0.0006109241
254	0xba8c74d2	-0.0010715968
255	0x3d4fcbfd	0.050731648

bias f4 [19]
0	0x3e9dbdc4	0.30808842
1	0xbc389a15	-0.011267205
2	0x3d095006	0.033523582
3	0xbc93b02c	-0.018028341
4	0x3ea5d7ea	0.32391292
5	0x3d0fb8bc	0.035088286
6	0xbd020c68	-0.031750113
7	0xbcf9d242	-0.030495767
8	0x3eb7144d	0.35757676
9	0x3ea3f380	0.32021713
10	0xbb0cfe74	-0.002151397
11	0xbab7f3cf	-0.0014034453
12	0xbacf9429	-0.0015837002
13	0x3e9c0e49	0.3047965
14	0x3997de24	0.00028966472
15	0x3af222aa	0.0018473465
16	0xbb8c0611	-0.004273184
17	0x3ea1e226	0.3161785
18	0x3ee6d655	0.45085397
