models/N/model2.pt (torch, 310479 bytes, 8 tensors)

weight f4 [128, 384]
000000 36 ea 0b bd df 76 8b bc 8e 4e 36 3d 9c 94 44 3d
       -0.034158908 -0.017024456 0.04450851 0.047993287
000010 98 1b 06 3c 83 84 c4 3c 47 7f aa 3c 55 17 1e 3c
       0.00818529 0.023988968 0.020812644 0.0096491175
000020 5a 91 8a bd 36 d6 f1 bb 80 c6 d0 bc b9 5c 5a bc
       -0.06766005 -0.0073802723 -0.025485277 -0.013327771
000030 90 5e 13 bd 5d 03 7f bd 72 bc 84 bd e4 e2 4b 3e
       -0.035978854 -0.062259067 -0.064812556 0.1991077
000040 74 9c 97 3e 77 84 fb bb 1a 9d 18 bd 2a a6 01 bd
       0.29611552 -0.007675703 -0.0372592 -0.031652607
000050 2b ac 89 3c c7 60 0d bc c3 63 93 3d 49 35 1d bd
       0.016805729 -0.008629031 0.071967624 -0.038380895
000060 37 ac 4e 3d 83 cc 86 bd 2d 54 a7 bd bc d9 3c 3c
       0.050457206 -0.06581976 -0.08170352 0.011526521
000070 50 6b dc 3d a2 9c 9a bd 52 5c 97 bd 44 af 3c 3e
       0.10762656 -0.075494066 -0.073906556 0.18426234
000080 25 7f be bb a2 e7 8d bc f6 f9 44 3d 00 e6 5d 3e
       -0.0058134967 -0.017322365 0.048089944 0.2166977
000090 47 39 cf bc fb 63 80 3b 37 76 89 bc f1 04 90 bd
       -0.025295867 0.0039181686 -0.016780002 -0.070321925
0000a0 82 2b ab 3d 53 a8 7f bd a3 47 27 3d 35 62 ad 3c
       0.08357908 -0.062416386 0.040839802 0.021164993
0000b0 04 e9 16 3e fb 4d 8d 3e f4 5b bf 3e c8 48 05 3e
       0.14737326 0.27598557 0.37374842 0.13016045
0000c0 40 18 57 3e ec f9 84 3d bd da 04 3e a5 9c fd 3d
       0.21005344 0.06492981 0.12974067 0.12383393
0000d0 3b 10 ab 3d bd a9 14 3e 6a 53 f1 3d 11 4c 93 3c
       0.08352705 0.14517875 0.11783488 0.017980607
0000e0 01 04 44 3e cc b5 79 bd 2c ed a0 3d cd 97 0d bd
       0.19142152 -0.06096439 0.07857737 -0.034568597
0000f0 d5 19 0f 3e a1 3b 0f 3e 6b d5 21 bd d7 60 f5 3d
       0.13974698 0.1398759 -0.03951017 0.11981361
000100 0f e0 04 bd 70 d3 07 be 53 37 9e be dc 4b ac be
       -0.03244024 -0.13264251 -0.30901584 -0.33651626
000110 6c df 0c be dc 3b 7b bc 6b ba 03 3e be 21 b8 3d
       -0.13757104 -0.015334096 0.12864082 0.08990811
000120 84 90 b8 3e af dd 16 3e 1f 2e c7 3c 70 e3 a9 bd
       0.36047757 0.14733003 0.024313984 -0.082953334
000130 09 7e 01 3d 97 5c f5 3d b0 78 03 3e fc e6 d8 3d
       0.031614337 0.11980551 0.12839007 0.10590932
000140 8d 0a 83 be cb 71 8e be 60 77 f6 bd b5 c1 2a be
       -0.25593987 -0.27821192 -0.12034488 -0.16675456
000150 63 bf 2e bd bc ac 15 3e b4 1b 10 3e 80 c4 0f bd
       -0.04266299 0.14616674 0.14073068 -0.035099506
000160 85 36 07 be 30 cc 1a be 47 98 7b be e4 81 b4 be
       -0.13204391 -0.15116954 -0.24569808 -0.3525535
000170 45 72 1c be 3e 14 5e 3d 00 3f d5 3c 69 e7 68 bd
       -0.15277965 0.054218523 0.026031017 -0.056861315
000180 f8 ca 27 3e 5b ed 6c 3e f0 43 3c 3e 06 44 b0 bc
       0.1638602 0.23137419 0.18385291 -0.021516811
000190 d5 c0 a8 bd 35 45 55 bd ad 14 07 bd bd 61 e5 bd
       -0.08239905 -0.052067954 -0.032978702 -0.11200283
0001a0 1b 69 84 bd c8 ee 0b 3e 8b f5 3b 3e 0d 8d a4 3d
       -0.0646536 0.13665307 0.18355386 0.08034716
0001b0 1e 15 19 3d 5f 22 6d bc 63 34 64 bc 25 54 e3 3d
       0.037373655 -0.014473527 -0.013928506 0.11100034
0001c0 e0 13 b2 bd 09 0e a2 bd 21 b6 a9 bc 78 e8 a3 bd
       -0.08695197 -0.07912833 -0.020716729 -0.08003324
0001d0 bc 21 1c be 96 1b 0e be bb da c4 bd 8c 02 67 ba
       -0.15247244 -0.1387771 -0.09612032 -0.000881233
0001e0 f7 0f b2 bd 00 89 0d bd 2f 60 c1 bd 77 36 19 be
       -0.08694451 -0.03455448 -0.09442174 -0.14962183
0001f0 97 f0 4a be a2 5d 0a be 96 d1 82 3d 8a 95 7a 3d
       -0.1981834 -0.1351228 0.063876316 0.061177768
000200 26 cc 8a 3d 51 93 47 3d 47 15 c9 3c 01 e8 27 3e
       0.067772195 0.048724476 0.024546279 0.16397096
000210 54 32 b0 3d fd 48 09 3e 0d f3 de 3c dc 4c cf 3d
       0.08603349 0.13406749 0.027215505 0.10122082
000220 ef e8 1f be 11 b1 0e be 7e e0 5e bd 77 23 4b bd
       -0.15616201 -0.13934733 -0.05441331 -0.04959437
000230 05 29 91 3d 74 9c 25 3d b8 73 3e 3d bb 36 c4 3a
       0.07087902 0.04043241 0.046497077 0.0014969924
000240 9d de 55 3e df 4e 18 3e e7 2e 13 3d 03 6f c7 bd
       0.20885701 0.14873837 0.0359334 -0.09737971
000250 76 90 b3 3d 37 10 83 3c c1 65 b0 3d d2 c2 6e 3b
       0.08767788 0.015998943 0.08613158 0.003643204
000260 33 75 38 3e 69 d7 62 be 9c 09 ad be 14 ce 52 be
       0.18013458 -0.22152485 -0.33796394 -0.20586425
000270 d7 85 2f be 6f e4 a4 3e 21 63 80 3e ad 94 f5 3d
       -0.171409 0.3220553 0.2507563 0.11991248
000280 8b 20 3d bd 0f bc c1 bc 26 c1 ea bc 9f d5 45 3b
       -0.046173614 -0.023649244 -0.028656553 0.0030187143
000290 70 50 26 bc 8e 57 26 3d 2d 91 64 3d 73 cc 53 be
       -0.010151014 0.040610842 0.055802513 -0.2068346
0002a0 9d 6c a1 be 03 49 1b be 7b 1e 28 3e 35 ed 89 3d
       -0.31528178 -0.1516457 0.16417877 0.06734697
0002b0 80 cd d2 3b 6a b8 cf 3d 6f 5a 49 3c 34 9e 04 be
       0.006433189 0.10142596 0.012289627 -0.12950975
0002c0 6d cd 3a bd 51 05 b3 bd fb 43 23 bd 5c ef 60 bd
       -0.045606066 -0.087412484 -0.039859753 -0.05491577
0002d0 64 04 9e bd 29 be db bd 32 dc 16 be 4b db 9f bd
       -0.07715681 -0.107296295 -0.14732435 -0.07805499
0002e0 8d cb 08 3f ff 21 91 3e 4a 5d 15 3c a0 54 38 3e
       0.53435594 0.2834625 0.00911648 0.18001032
0002f0 2b 98 0c 3e 1f 15 22 3d d7 f1 d2 bc 0b 1f dc 3b
       0.13729922 0.039570924 -0.025750084 0.006717568
000300 86 d7 43 3e f8 a5 cf bb b1 19 38 be a3 0d 37 3e
       0.19125184 -0.0063369237 -0.1797855 0.17876296
000310 0b c1 a2 3e 93 35 4a 3c 63 3a 19 be 3e 47 24 bd
       0.31787905 0.012341875 -0.14963679 -0.040107004
000320 46 d9 42 3d 68 10 c6 bc 86 ef ce 3b 8b 46 0e 3b
       0.04757049 -0.024177745 0.0063151745 0.0021709527
000330 78 a6 82 3d 61 9b af bd 9e ad 9c 3d ef e1 32 3e
       0.06379408 -0.08574558 0.07650302 0.17469
000340 09 65 41 bc b3 5f 9a 3c 7c a6 8d bb a2 88 25 bd
       -0.011803874 0.018844461 -0.004322825 -0.040413506
000350 19 4a 6f bd a7 78 84 be 56 ec 74 bc a0 84 63 3c
       -0.058420274 -0.258733 -0.014948925 0.013886601
000360 2e 0d a2 3c bd e1 14 3e f7 62 db bd 89 01 4f be
       0.019781675 0.14539237 -0.107122354 -0.2021543
000370 71 30 5f be b8 aa 6f be 00 69 e3 bd b4 00 be bd
       -0.21795823 -0.23404968 -0.111040115 -0.09277478
000380 df 00 6c be aa 35 b9 be 41 56 e7 bc 8e 06 de 3d
       -0.23047207 -0.36173755 -0.028239371 0.10841094
000390 e4 c0 fa 3c a3 59 35 3d 65 06 db 3c 35 4f fa bd
       0.030609556 0.044274937 0.026736448 -0.12222139
0003a0 52 ff 8f 3e 9a d1 1c 3e cc 44 41 3d 91 f0 a1 3d
       0.2812448 0.15314332 0.04718475 0.079072125
0003b0 d7 ea 7a 3d 4e c8 88 3d 35 70 f4 3b 75 b0 1a be
       0.061259117 0.0667883 0.007459665 -0.15106376
0003c0 ea 79 8a 3e 98 61 81 3e 75 58 30 3d ba e6 74 3d
       0.27046138 0.2526977 0.04305311 0.05979035
0003d0 d5 75 47 3d 07 9d 33 bc d9 e9 b7 bc 6b 8f 82 3c
       0.048696358 -0.010962731 -0.022450374 0.015937528
0003e0 a8 2e 39 b8 7e 27 2c be bb af 5d be e7 aa 19 be
       -4.415089e-05 -0.1681194 -0.21649067 -0.150066
0003f0 92 0b e8 bd 8d 21 b4 3d 18 65 36 3e 30 14 f2 3d
       -0.11330332 0.08795462 0.17812002 0.11820257

bias f4 [128]
000000 5b b3 45 3d 91 08 8c 3e 18 1e ae 3d 36 ee fa 3e
       0.04826675 0.27350286 0.08501834 0.49009866
000010 74 a4 9f 3e e3 02 87 3e 93 09 1d 3e 9c 95 a4 3e
       0.31180155 0.2636939 0.15335684 0.32145393
000020 14 d6 c3 3e a8 a5 a1 3d a9 10 72 3d fb 96 49 3d
       0.38249266 0.078929245 0.05909792 0.04921625
000030 49 f1 ad 3e f8 59 c8 3e d5 55 3e 3d 65 56 46 3e
       0.33973148 0.3913114 0.046468575 0.19368894
000040 60 71 af 3e 47 88 45 3e 2f 1d 18 3e 9c fb 92 3b
       0.34266186 0.19290267 0.14854883 0.0044855606
000050 fc 6d 56 3e a2 13 5a 3e 1f d5 8c 3e b5 e4 8c 3d
       0.20940393 0.21296552 0.27506348 0.0687956
000060 8c 3d 9b 3e 7a 57 ce 3d c1 92 65 3e 94 c4 b9 3d
       0.30320394 0.100752786 0.22419263 0.090706974
000070 ea 08 c2 3d 8a 95 8c 3d 22 ae d2 3e a9 8b 40 3e
       0.094743565 0.0686446 0.41148478 0.18803276
000080 5f a0 2e 3e 82 29 8f 3d a1 f1 53 3d 15 70 e8 3d
       0.17053364 0.06990339 0.051744107 0.11349503
000090 84 62 62 3e b9 7e a4 3d da 95 79 3e 51 62 e0 3d
       0.22107893 0.08031983 0.2437357 0.10956252
0000a0 1d 59 97 3d 93 7f 62 3e b6 42 b1 3e 40 11 33 3e
       0.07390044 0.22118978 0.3462121 0.17487049
0000b0 85 aa 95 3e 5a f2 94 3e ab 9f 47 3e f5 9b 84 3e
       0.2923166 0.2909115 0.19494502 0.25900236
0000c0 68 bf 9a 3d 46 92 f5 3d db 96 b6 3c 61 f8 c4 3e
       0.07556039 0.1199079 0.02228873 0.38470748
0000d0 35 cc b6 3e b7 a7 37 3e 2d 6b 8d 3e 0c 12 9c 3e
       0.35702673 0.17935072 0.2762083 0.3048252
0000e0 5b 01 81 3d 18 6c 15 3d 3f d7 4c 3e 8f ed cd 3d
       0.06299087 0.03648004 0.20003985 0.10055076
0000f0 a2 73 90 3e f7 6a b0 3e d9 55 b3 3e 19 5d b3 3e
       0.2821322 0.34456608 0.35026434 0.35031965
000100 c7 58 dc 3c c2 93 a8 3e 39 8a 49 3e 7d 63 cc 3e
       0.026897801 0.3292523 0.19681634 0.39919654
000110 29 56 46 3e 07 cd 9c 3e b1 f3 88 3e 41 06 9c 3e
       0.19368805 0.30625173 0.26748422 0.3047352
000120 32 06 30 3e 4a ae d7 3e 02 7b 71 3e cb 03 8a 3d
       0.17189863 0.4212516 0.2358208 0.06739005
000130 1f 21 26 3e c2 57 8f 3e d3 7c 56 3e 17 6f 4a 3e
       0.16223572 0.2799664 0.20946054 0.1976894
000140 75 9f b2 3e d7 d9 a7 3e 40 10 29 3d 5c 00 01 3e
       0.3488728 0.32783386 0.041275263 0.12597793
000150 fe 07 da 3e e8 dc 82 3e 93 19 c4 3c 51 15 bd 3e
       0.42584223 0.25559163 0.023937976 0.36930326
000160 6c 2b 9f 3d e0 9e 12 3e d2 a3 98 3e 9a 26 e6 3e
       0.07771954 0.14318419 0.29812485 0.44951326
000170 51 33 ab 3e ad 2a 96 3e f1 7e b9 3e 9c f6 f6 3d
       0.3343759 0.29329434 0.3622966 0.12058756
000180 95 62 3d 3e 0a 07 de 3e 1a 95 28 3e 4f a1 65 3e
       0.18494637 0.43364745 0.16463128 0.22424816
000190 9c 4f 9e 3e 15 ef 9d 3e e4 7d 39 3e d8 0e 69 3e
       0.30920112 0.30846468 0.1811443 0.22759569
0001a0 ab 88 53 3e 47 a6 f3 3d ce 9f a8 3e a8 87 0a 3f
       0.20657603 0.11896949 0.3293442 0.54113245
0001b0 38 1a 10 3e ed 16 c2 3d 7d 06 16 3e 44 ad 93 3e
       0.14072502 0.09477029 0.14650913 0.2884313
0001c0 92 b2 7c 3d 73 4c ac 3e d0 33 c5 3e 1d c8 8c 3e
       0.061693735 0.33652076 0.38516092 0.27496424
0001d0 79 cf a8 3d 73 9a d0 3d bb 21 c6 3d 2a 53 aa 3e
       0.08242697 0.10185709 0.09674402 0.33266574
0001e0 98 7a 56 3e d9 1e 9d 3e 93 d5 96 3d 9f 94 ba 3c
       0.20945203 0.30687597 0.07364955 0.022775946
0001f0 fc 75 cd 3e 3e e9 77 3e 66 7b c5 3d 6f 40 be 3e
       0.40129077 0.24210069 0.09642677 0.37158534

weight f4 [128, 128]
000000 92 8b 79 bc 3e 31 a1 3d 58 bb 2c bd 97 36 d3 3e
       -0.01523103 0.0787072 -0.042170852 0.41252586
000010 7f c0 5b 3e 20 8a 34 3e 2e a5 ec 3d 98 62 e3 3d
       0.2146015 0.17630816 0.11554943 0.1110279
000020 23 a7 5c 3e cc ba 52 bc 66 db 56 bd 5a 2a 80 bb
       0.21548133 -0.012861919 -0.05245533 -0.0039112987
000030 9c 69 13 3e c8 c9 b6 3e fb 32 00 be 3c c3 ff 3d
       0.14395756 0.35700822 -0.12519448 0.1248841
000040 7b 9a 83 3e 58 8d ac 3d f5 c8 e7 3c b2 87 8f bd
       0.25703797 0.08425397 0.028294066 -0.07008304
000050 8d d0 ec 3d c2 7c 26 3e 04 e1 29 3e 26 a5 9c 3d
       0.115632154 0.16258529 0.16589743 0.07648687
000060 75 a2 38 3e d7 ef 46 3c 29 ae 3c 3e c1 0f a6 bb
       0.18030722 0.012142143 0.18425812 -0.005067796
000070 8a 47 8a bd 4a 3c 35 bd 0d b3 9b 3e 8c fc 09 3e
       -0.06751926 -0.04424695 0.30410042 0.13475245
000080 99 8c 69 3d c5 16 97 bc 49 50 41 3a 7d 7d 3b 3d
       0.05701885 -0.018443475 0.0007374329 0.04577397
000090 b6 72 34 3e 2b 5c 8d 3d fa fb 31 3d 3b 6e be 3c
       0.17621884 0.06902345 0.043453194 0.023245921
0000a0 62 2f 5d 3e 47 87 99 3d b9 2a 55 3e d1 2f 6d bc
       0.21600106 0.07496505 0.20817079 -0.014476732
0000b0 3d 14 29 3e 70 e8 d5 3d a0 31 25 3d 64 53 b1 3d
       0.16511627 0.104447246 0.04033053 0.086584836
0000c0 de 6a 5f 3d a7 30 1c 3d f3 fc 95 39 29 b3 75 3e
       0.054545276 0.038132336 0.00028607956 0.23994125
0000d0 8a 74 0d 3e be 1d 29 3e 34 a2 78 3e 01 ce 80 3e
       0.13813987 0.16515252 0.24280626 0.25157169
0000e0 13 a2 b3 3c 7d 65 62 bd 7f da 05 3e 02 e1 5d bd
       0.021927869 -0.055272568 0.13071631 -0.054169662
0000f0 f0 3f bc 3d 6c 37 5e 3e e6 dd 63 3e 48 8b 6a 3e
       0.091918826 0.2170083 0.22252616 0.22904694
000100 d5 88 d7 bc 7e ea 0f 3e 58 66 0b 3e d9 9b 6e 3e
       -0.026310364 0.14054295 0.1361326 0.23301639
000110 a5 88 3c 3e 28 a1 45 3e fb 51 33 3e 87 c1 2a 3e
       0.18411501 0.19299757 0.17511742 0.16675387
000120 fc 39 d7 3d 2d 79 88 3e 2b 92 26 3d d0 1e a0 bd
       0.105091065 0.2665495 0.04066674 -0.07818377
000130 df 6d d8 3d 53 30 11 3e f2 df 0d 3d c1 81 40 3c
       0.10567831 0.1417859 0.0346374 0.011749686
000140 ef 47 8c 3e 9a e3 16 3e 44 04 7b bd 28 bd 34 3d
       0.2739863 0.1473526 -0.061283365 0.044125706
000150 c2 13 9c 3e 2c 1e 2d 3e a5 f8 d1 bd a7 61 e5 3d
       0.30483824 0.16906041 -0.10252503 0.11200266
000160 ed c7 43 bd c0 8f 8e 3d d7 cc 10 3e 78 cc 93 3e
       -0.047798086 0.06961012 0.1414064 0.28866935
000170 7b 79 20 3e a4 73 2f 3e 59 57 ff 3d af bd 75 bc
       0.15671341 0.17133957 0.12467832 -0.014998837
000180 5f ea d7 3d e1 17 a2 3e e1 21 5f 3c 61 bc 5e 3e
       0.105427496 0.31658843 0.013618917 0.21751548
000190 f0 45 a9 3d 46 3e 6b 3e 7f 54 ad 3d 7a d1 f7 3d
       0.08265293 0.22972974 0.08463382 0.12100501
0001a0 ba 53 b8 3d 25 e9 fe 3b 46 6f fa 3d e4 7a 03 3f
       0.090003446 0.007779258 0.12228255 0.5135939
0001b0 41 e8 d2 3d 5f bd f1 3c 6b 9b 2a bc 45 f4 22 3e
       0.10298205 0.029509244 -0.010413031 0.15913494
0001c0 f4 15 e9 bc 6f e9 7f 3e 15 fa a6 3e ec 05 54 3e
       -0.02845285 0.24991392 0.32612672 0.20705384
0001d0 99 a0 45 bd de 0c 5e bc 9f 0d bf 3c 0f 57 69 3e
       -0.04824886 -0.013552872 0.023321925 0.22787116
0001e0 1c 72 55 3e 91 c8 23 3e e1 9b 05 3c 2b 15 82 bd
       0.2084431 0.15994479 0.00815484 -0.06351694
0001f0 74 46 60 3e b8 53 8f 3d a9 2b 2a bd c8 cc d5 3d
       0.21901876 0.0699839 -0.041545544 0.104394495
000200 67 45 9a 3d 44 c8 07 3e 69 d0 d6 3d 49 3c 05 3d
       0.07532769 0.13259989 0.1048897 0.032528196
000210 87 31 7c 3d 90 8b 80 3d e0 03 d3 3d 51 37 57 3c
       0.06157067 0.062766194 0.103034735 0.013135747
000220 8e b8 b3 3d 46 fd 86 ba f7 95 e0 3d 51 a9 fb 3d
       0.087754354 -0.001029887 0.109661035 0.12288154
000230 d8 dc 3b 3c 77 d3 cb 3d 85 0f 1f 3e 48 ca 05 3e
       0.0114662275 0.09952443 0.15533264 0.13065445
000240 c4 17 5f 3b 45 70 e5 bc 1d 8d 2d 3d a2 aa f1 3d
       0.0034041265 -0.028007636 0.042370904 0.11800124
000250 4d 46 e0 bc 0b 0e e4 bc ad de 2e 3d c2 6a bd 3d
       -0.027377272 -0.027838727 0.04269283 0.09248878
000260 28 85 9a 3d 88 52 9e 3c fa e0 aa bc 35 c3 25 3e
       0.07544929 0.019326463 -0.02085923 0.16187747
000270 39 51 00 3e 33 16 08 3e a6 80 2a 3c 7f d5 0f 3b
       0.12530984 0.13289718 0.010406649 0.0021947322
000280 75 a9 4a 3d 4b 1f 04 3e d2 7e b2 be 34 3a 50 3d
       0.049478013 0.12902562 -0.3486238 0.050836757
000290 e1 63 fe bc 6f c3 a9 3d ce 94 9f 3d 1e e9 d5 3d
       -0.031053485 0.08289229 0.07792054 0.10444854
0002a0 2f b4 5c be f7 13 f8 3b d8 18 05 3e 5a b3 bb bc
       -0.2155311 0.0075707394 0.12997758 -0.02291267
0002b0 52 cf 7c 3b 17 6a 0e 3d d7 cf 4d 3d c6 df 1c bd
       0.003857572 0.034769144 0.05024704 -0.038299344
0002c0 64 d9 b7 3d 3e 76 d7 bb 23 50 1a 3e 78 03 dc 3d
       0.08977011 -0.006575375 0.15069632 0.10742849
0002d0 df fa da 3c 7f 9e 8c 3d 5d 3b df 3c 8d a8 b4 3d
       0.026730953 0.06866168 0.027249986 0.08821211
0002e0 d5 36 b0 3d ff 0e 1c 3e e7 1e ad 3d 6d 8e 23 3e
       0.086042084 0.15240096 0.0845316 0.159723
0002f0 9b 69 ca bc 77 de 1e 3e 66 c6 e6 3d c2 0e 16 3e
       -0.02470856 0.15514551 0.1126831 0.14654067
000300 a7 3c 16 3e f6 e1 a9 3d 72 12 e4 3d fa 38 37 3d
       0.14671575 0.08295052 0.11136331 0.04473207
000310 75 72 92 bc 05 82 48 3d 16 ac e5 3d da 5a f2 3d
       -0.017876843 0.04895212 0.112144634 0.11833735
000320 33 cc 45 bb fb 5d 65 3d 39 46 37 bd 32 52 2b 3e
       -0.0030181527 0.05599783 -0.044744704 0.16730574
000330 5f 3d 57 3b bc 6f 38 bc 4b 99 c3 3d e9 aa ca 3d
       0.0032842977 -0.011257108 0.09550723 0.0989588
000340 0e c0 09 3e 66 01 7d 3d 8c 8d f3 3d 13 54 f2 3d
       0.1345217 0.06176891 0.11892232 0.11832442
000350 d7 c8 6c bc 7d ed 27 bd 90 fe 2e 3d 23 31 15 3b
       -0.014452181 -0.04099797 0.04272324 0.0022764883
000360 dd 5f 98 3d 0d 1a b0 3d 0c 86 c1 3d f3 a2 19 3e
       0.074401595 0.08598719 0.094493955 0.15003566
000370 83 ae e1 3c d8 53 e8 3d a0 a0 b0 3d 3d d7 ca 3d
       0.027549034 0.11344117 0.08624387 0.09904335
000380 de 41 40 bd ab 0a 08 3e 80 80 34 3d 2e ea 17 3d
       -0.046937816 0.1328532 0.04406786 0.037088566
000390 6a ef a6 3c 9c 02 01 3e 85 78 5d bc 6c 98 8b 3d
       0.020377833 0.12598652 -0.013517504 0.068161815
0003a0 39 7c 31 3c c2 e2 5d 3d 8a 40 94 3c da 18 08 3e
       0.01083284 0.05417133 0.01809718 0.1329073
0003b0 a1 5b a7 3d bb 10 da 3b d4 dc ad 3d 73 ed 50 3d
       0.08171774 0.0066548265 0.08489385 0.0510077
0003c0 2a 0f 25 3e 2d 4b e8 3c 47 c4 6a bc 3a d5 c4 3d
       0.16119066 0.02835616 -0.014329023 0.09610982
0003d0 ea b2 bc 3d ba 5b d1 3d bd b8 26 bd b7 5d 3d bb
       0.09213813 0.102225736 -0.040703524 -0.002889497
0003e0 1a 4d 33 3d d0 65 1c 3d 98 59 9d 3d 23 a6 ee 3d
       0.0437747 0.038183033 0.07683104 0.11652782
0003f0 8b 91 47 3d 18 c3 6f bd 90 04 85 3c 2a eb f9 3c
       0.048722785 -0.058535665 0.016237527 0.030507643

bias f4 [128]
000000 b7 7c 19 3e 4c 1e ab 3d c1 fe 95 bd 32 76 4a bd
       0.14988981 0.08355388 -0.07323981 -0.049429126
000010 0c c6 0b 3d a0 fa 48 bb e8 e9 32 3e 29 49 b2 bd
       0.03412442 -0.0030666962 0.1747204 -0.087053604
000020 1a 13 97 bd 66 e3 6b bd 67 cc 14 be 42 a4 20 be
       -0.0737669 -0.05758991 -0.14531098 -0.1568766
000030 83 72 28 b9 a7 24 c2 bd 9d 57 65 3d d3 37 b3 3d
       -0.00016064387 -0.09479647 0.055991758 0.08750882
000040 b2 91 3e be 5a ba 95 bc 1d 1c 29 3e ad e0 93 3d
       -0.18610266 -0.018277336 0.1651463 0.07220588
000050 5c 19 c1 bc 07 b6 23 be 19 ab 94 3d 6e 2d cc bd
       -0.023571663 -0.15987407 0.07259197 -0.099696025
000060 75 3d bb bd bb fd 00 3e 85 9a a3 3d ea e7 27 be
       -0.091425814 0.1259679 0.07988457 -0.16397062
000070 64 b7 11 be 38 02 f5 bd 6f e2 c7 bd a5 ac a2 bd
       -0.14230114 -0.11963314 -0.09759986 -0.079430856
000080 e6 70 ee 3d 1c ed 19 3e 2f cd 01 3d cb a4 2e be
       0.116426274 0.15031856 0.03168982 -0.17055051
000090 14 96 f9 3c 50 8b 8e bb 4f ff 20 3e a7 a7 3b 3e
       0.03046707 -0.0043501034 0.15722392 0.18325673
0000a0 f0 b5 99 3d e2 1c e6 bd d9 d4 0b 3e 66 ff 0f be
       0.07505405 -0.11235978 0.13655414 -0.1406227
0000b0 bd 08 24 3d 18 21 e4 39 e0 e4 22 be d7 92 46 3d
       0.040047396 0.00043512206 -0.15907621 0.04847988
0000c0 01 2a 7a 3d c7 c1 bd bd c0 35 8f 3c cc 3d b9 3c
       0.061075214 -0.09265476 0.017481685 0.022612475
0000d0 aa 16 d2 bb b2 13 c8 bc af 57 f9 3d 33 ec c3 bd
       -0.006411393 -0.024423454 0.121749274 -0.09566536
0000e0 c8 88 3f bd aa 79 b4 bd 4e 9c 80 bd ab 3b 34 be
       -0.046761304 -0.08812268 -0.06279813 -0.17600887
0000f0 9a 65 43 bd 69 96 2a be c2 7b 8b bd 60 58 42 3d
       -0.047704317 -0.1665894 -0.06810714 0.047447562
000100 19 50 b9 bd ed c6 27 3c 1d 04 0f 3e 60 52 99 bd
       -0.090484805 0.010240299 0.13966413 -0.07486415
000110 5a 14 07 3e a2 bc 18 be 7e fa ae bd d1 55 3a 3d
       0.13191357 -0.14915708 -0.08543871 0.045491997
000120 77 71 12 3e 4f d4 f8 bd 23 ae fb bd 0b 2a 71 3d
       0.14301096 -0.1214987 -0.12289073 0.058877986
000130 43 95 c8 bc fa 4d 6f 3d f7 ea 2a 3d e0 83 c6 3b
       -0.024485236 0.058423974 0.041727986 0.006058201
000140 22 24 dc 3c ba a6 a2 3d 64 7d e5 bd d0 d7 f9 3d
       0.026872698 0.07941957 -0.11205557 0.12199366
000150 7e c3 3d be 06 61 c4 bd 2f 61 8b bd 40 36 ae bd
       -0.18531606 -0.09588818 -0.06805646 -0.08506441
000160 10 70 b5 3d 1d 53 37 3e 87 1a ee 3d 31 9a 0f bd
       0.08859265 0.17902799 0.116261534 -0.035059158
000170 27 73 8f 3c e6 75 85 bd 43 87 63 3d 29 12 ce bd
       0.017510964 -0.06516628 0.055548918 -0.100620575
000180 5a ac c1 3d d3 91 63 bd c2 68 8b bc ca f2 70 bd
       0.094567016 -0.05555899 -0.017017726 -0.05882529
000190 81 bb 80 bd 50 32 83 bc 27 3d a6 bd 66 3d 29 be
       -0.062857635 -0.016015202 -0.08117133 -0.16527328
0001a0 e6 55 67 3b 21 a5 1a 3e 8b 6c 8f bd 5b 7e 28 be
       0.0035299002 0.15102054 -0.07003125 -0.16454451
0001b0 1f a4 1a 3d b2 4e b1 bd b2 99 23 3e dd d0 92 bd
       0.037754174 -0.08657588 0.15976599 -0.07168744
0001c0 56 f1 e7 bd be dc 5a bc d2 7d c9 bb b5 0e e6 3d
       -0.11325328 -0.013358293 -0.006149032 0.11233274
0001d0 06 03 b9 3d 1d 66 8b bd 3f 60 6b bd 13 5d f5 bc
       0.0903378 -0.06806586 -0.057464834 -0.029951608
0001e0 a7 96 e6 bd bf c2 e9 bd d6 b4 64 3e c8 bb 4b be
       -0.112592034 -0.11414098 0.22334608 -0.19895852
0001f0 5b 9d 72 bd 72 75 1a 3e 11 f0 1b be 9b 14 24 bd
       -0.059232097 0.15083864 -0.15228297 -0.040058713

weight f4 [64, 146]
000000 8d 98 1f bc d2 47 9b ba 9c eb 70 3b 95 a1 e8 b9
       -0.009740961 -0.0011846966 0.0036761528 -0.00044370876
000010 b5 75 bb b9 e2 c7 b2 39 e9 9d 6e bc 02 21 a6 3a
       -0.00035755118 0.0003409973 -0.014564016 0.0012674632
000020 9f 68 17 3b 7d 34 11 3b 2e 95 a9 3c 67 63 14 bb
       0.002310313 0.002215653 0.020701017 -0.0022642256
000030 c7 4e aa ba 66 7c 9c 3b 18 74 98 bb 81 60 2a bb
       -0.0012993448 0.0047755716 -0.0046525113 -0.0025997462
000040 bc 6f 1f bc bd 51 8b 3a a9 99 1f bc de ed 77 ba
       -0.009731229 0.0010629218 -0.009741225 -0.0009457747
000050 84 9c 01 3c fa ff 85 3c c7 15 93 bc 0e 6f cb 3a
       0.007910851 0.01635741 -0.01795472 0.0015520768
000060 07 01 80 3a a8 ca ac bb 79 1e e1 bb 78 58 b8 3c
       0.0009765931 -0.005273182 -0.0068700877 0.022503123
000070 9f df 3a ba dc 46 b5 3a 60 51 da 3b d6 a8 a8 3a
       -0.0007128659 0.0013830322 0.0066625327 0.00128677
000080 c7 90 9e bc f1 be 4a ba f8 ab c1 bb 2d 0e c1 3c
       -0.019356145 -0.0007734141 -0.005910393 0.02356633
000090 b8 12 bb bb 4b 63 fa 3a 32 7e a8 ba 0e 9e 4e bb
       -0.0057090186 0.0019103078 -0.0012854992 -0.0031527313
0000a0 53 71 13 bb 14 cd 61 3c 51 88 4d bc 85 84 51 3c
       -0.0022497966 0.013781805 -0.012544707 0.012787943
0000b0 4a 98 c9 bb c0 68 2b 3b 65 03 3c 3c 94 2a bb 3a
       -0.0061521875 0.0026154965 0.011475419 0.0014279657
0000c0 5a 33 0d bc 82 5c 77 3c 71 a4 59 3a 6d fc 08 ba
       -0.0086182 0.015097739 0.0008302397 -0.00052256027
0000d0 c3 e9 9b bb ef 1e 4f 3c 5d f4 88 bb d1 20 9a 3b
       -0.004758091 0.0126416525 -0.004179521 0.004703619
0000e0 ec 54 18 3a 32 25 e4 3b e9 77 70 3c c2 97 82 3c
       0.0005810994 0.006962442 0.014677026 0.015941504
0000f0 92 f7 51 39 a7 45 07 3c ab ee 28 3a 3d c2 aa bb
       0.0002002402 0.0082563525 0.00064442557 -0.0052111433
000100 9b 1a a3 3a 50 5c a1 39 b6 3d 38 bc dd f7 52 3c
       0.0012443842 0.0003077709 -0.011245182 0.012876478
000110 db fc fb bc 79 3d 4f 3c 9c 94 58 3c 49 37 86 ba
       -0.03076022 0.012648934 0.013219025 -0.0010239865
000120 fe 84 ff 39 89 9f 01 3d 45 0d 4f 3b 5a de 9e bc
       0.00048736477 0.031646285 0.0031593603 -0.019393135
000130 f7 f0 51 ba 05 cb fc ba 72 2c b0 bb fa d9 00 bb
       -0.0008008624 -0.0019286579 -0.005376392 -0.0019661174
000140 69 2a 5a bc c2 fa c2 bc aa f1 ab 3c 9c c5 9d ba
       -0.013315775 -0.023801211 0.020989258 -0.0012037042
000150 27 e0 6f 3b dd 4f a7 3b 00 60 c7 3b f7 70 95 bb
       0.003660211 0.005105956 0.006084442 -0.0045605856
000160 d3 64 a7 ba d2 89 59 bc 33 22 26 bc 8a fd 3a ba
       -0.0012771137 -0.013277488 -0.01013999 -0.0007133117
000170 12 fe 05 bc 13 ec 05 3c 27 91 df bb 5f d8 b2 3b
       -0.008178251 0.00817396 -0.0068227234 0.0054579224
000180 8b 36 cd bb 76 d1 07 3b 71 3f 67 3c 6d 49 a3 b9
       -0.0062626055 0.0020724214 0.014114247 -0.0003114449
000190 d6 43 c6 3c a2 3c c8 ba 70 69 9a 3c 78 08 a7 3b
       0.024202269 -0.0015276859 0.018849105 0.005097445
0001a0 a2 75 9c 3a a8 97 54 bb e8 72 a2 39 0a 79 99 ba
       0.0011936913 -0.0032439027 0.0003098466 -0.0011709046
0001b0 46 79 f4 ba ed 0d a7 3a b8 6c c8 bb e4 7f 8a 3c
       -0.0018651865 0.0012745239 -0.006116476 0.016906686
0001c0 52 85 bd 3c c5 5c d2 3b 87 c6 89 bc 77 49 a5 bc
       0.023134861 0.0064197504 -0.016818298 -0.020176632
0001d0 0c aa 8e bc 8f 0c 47 3c de 42 17 3b 1c fe 06 3b
       -0.017415069 0.01214899 0.0023080627 0.0020598238
0001e0 65 59 b0 bb a7 ba f5 3a 7f 29 99 bc 89 8e a1 3c
       -0.0053817504 0.0018747643 -0.018696545 0.019721286
0001f0 3d 4a ba ba 6b fc e5 bb e8 cd 25 bb a9 cf ce 39
       -0.0014212799 -0.007018616 -0.0025299732 0.000394461
000200 30 cd 1c bc 8e 1f 8d b9 23 45 a1 39 da 72 ad b9
       -0.009570405 -0.00026917126 0.00030759824 -0.00033082702
000210 21 1b 0a bb 2b 99 b4 39 32 fe 9b 39 cb 54 a1 39
       -0.00210733 0.00034446394 0.00029753294 0.0003077149
000220 ea 92 89 bd fe b1 8e bc 02 d1 2e 3a c8 1c e9 b9
       -0.06717475 -0.017418858 0.0006668718 -0.00044462667
000230 1c 01 24 3a c7 ff d1 bc 36 e7 ee ba e1 cc 04 37
       0.0006256269 -0.02563466 -0.0018226865 7.915515e-06
000240 4a 6d 30 ba 7c ae 1d 3b b6 1c 4f bd 59 c3 42 bc
       -0.00067301525 0.00240603 -0.05056449 -0.011887395
000250 aa e3 13 3c dd 55 2b 3d 8a d3 68 ba 7d cd 3e 3b
       0.009026447 0.041829932 -0.00088816194 0.002911418
000260 ec 4b 9b bd df ae b5 3d dd 99 bb 3c 65 ee ff 3c
       -0.0758284 0.08871245 0.022900516 0.031241605
000270 70 4b 51 3d 5c 6f 2d 3d fc f8 48 bc d1 52 55 3c
       0.051097333 0.04234253 -0.012266394 0.013020233
000280 b6 96 80 bc 4e c0 98 bc af 8b 8a 3d fa e7 8e 3b
       -0.015696865 -0.018646386 0.06764924 0.00436115
000290 32 60 97 bc 9e 19 94 bb a2 4d 80 3d 7f 90 35 3d
       -0.018478487 -0.0045196554 0.06264807 0.044327255
0002a0 1d 3e 5c bd 5f b8 d6 3c 39 ee 94 3b 1b 64 a4 bd
       -0.053770173 0.026210962 0.004545 -0.08026906
0002b0 a7 ad 8e bc 55 67 26 3d c8 6c 71 3d 73 69 ae 3c
       -0.017416788 0.04062589 0.058941633 0.021290516
0002c0 d0 22 ad 3c fa 80 df 3b 19 b1 ec bc 59 88 80 bd
       0.021134764 0.006820795 -0.02889304 -0.06276006
0002d0 24 24 52 bd c0 63 97 3d bd a8 bc bc 49 5c 8a 3c
       -0.051303998 0.07392073 -0.02302968 0.016889708
0002e0 9d e1 61 bc b7 87 1d bd e0 3c 5d bd 97 6b 4a 3d
       -0.013786701 -0.038459506 -0.054013133 0.049419012
0002f0 a9 36 16 bd 1d e8 5f 3d 3e ce b2 bc 34 78 95 3c
       -0.03667322 0.05466472 -0.02182686 0.018245794
000300 7d 99 eb 3c d9 2f 05 3c f5 09 8d bd 6c 70 3a 3d
       0.028759712 0.008129084 -0.06886665 0.04551737
000310 de 11 9c 3b de 64 b3 ba 63 e3 30 bd 0f 0c 21 3d
       0.004762872 -0.0013686677 -0.043185603 0.03931814
000320 38 68 f5 bc b0 6d cc 3d d2 16 62 3b e7 15 74 3d
       -0.029956922 0.09981859 0.0034498465 0.0595912
000330 65 3d 98 3d cb 8f 1d 3d b1 1c 50 3d 09 38 b9 3c
       0.07433585 0.03846721 0.050808612 0.022609727
000340 a5 b5 6d 3b 5b f5 b0 bc 92 73 ec 3c 1c 9a fa 3a
       0.0036271599 -0.02160137 0.028863702 0.0019119415
000350 c8 a7 46 bd 34 9e 94 3d 8c 40 d0 bd 37 a7 27 3c
       -0.048499852 0.07256737 -0.10168561 0.010232738
000360 ec d4 25 3d 7d 1e 63 bb 41 8e 0c bd 0d 3e d2 3d
       0.04048626 -0.0034655624 -0.03431535 0.102657415
000370 24 6a a5 3d 27 b1 e0 bc c2 d1 e2 bb dd 82 ef bb
       0.08076885 -0.027428223 -0.0069219777 -0.0073093013
000380 67 15 2d bc 50 a6 4d bc 0c 47 03 bd 88 a0 7c bd
       -0.010564185 -0.012551859 -0.032050177 -0.061676532
000390 fa 7e 8b 3d 2b e4 1a bc 24 1d 2c 3d 1e 24 7a 3c
       0.06811328 -0.009453814 0.04201998 0.0152674
0003a0 79 22 99 3c 9f cb ac 3d b3 6f 01 bd 7b 50 a1 bd
       0.018693196 0.08437275 -0.031600665 -0.078766786
0003b0 c5 9c c8 bc fe 1e 62 bb 98 41 aa bc 84 4c 78 3d
       -0.024488816 -0.0034503336 -0.02078323 0.060619846
0003c0 ce 58 62 bd 53 f0 94 3c a5 54 c3 bc 24 76 7d 3c
       -0.055260472 0.018181002 -0.023844073 0.015470061
0003d0 41 06 81 3d 49 bc 12 bb fa 00 5f 3d 72 28 98 bb
       0.06300021 -0.0022390059 0.05444429 -0.0046434933
0003e0 7c 36 5b 3d d1 a6 07 3d 8e af 08 3c 1a 00 fd bb
       0.053518757 0.033118073 0.008342637 -0.0077209594
0003f0 2d 98 e9 39 79 02 10 3d 77 fc 45 bc 54 98 22 3c
       0.00044554603 0.035158608 -0.012084118 0.009924013

bias f4 [64]
000000 53 16 b2 b9 ef 77 08 bb af 55 37 ba 86 f8 66 bb
       -0.00033967439 -0.002082344 -0.0006993664 -0.0035243346
000010 03 a9 ac ba f7 29 7c ba fb 91 88 ba bd 4f 7b 39
       -0.0013172928 -0.00096192904 -0.0010419482 0.0002396693
000020 59 8d 10 bb de f1 00 00 ef 39 6e b9 52 71 41 bb
       -0.0022056906 8.6766e-41 -0.0002271903 -0.0029517007
000030 8a 11 8e b9 67 c6 58 ba e4 09 85 3c 29 ee 1b 3c
       -0.00027097418 -0.00082693103 0.016240068 0.009517231
000040 8f 3f 84 b7 cd 0a 8d 3a 5f f1 91 bb cb fc 8b ba
       -1.5765223e-05 0.0010760665 -0.0044538225 -0.0010680197
000050 fa 6e 82 ba 2d 17 a0 ba 5d e2 8a 3a e7 66 33 ba
       -0.0009951286 -0.0012213938 0.0010596026 -0.0006843642
000060 35 e4 9b b9 56 95 9f ba cf e5 01 00 49 1e 90 3c
       -0.0002973393 -0.0012175243 1.74275e-40 0.017592566
000070 03 77 bf ba 1a 03 e7 8a 94 a8 64 b9 04 e1 6a ba
       -0.0014607612 -2.2245658e-32 -0.00021806575 -0.00089599215
000080 c6 08 f9 ba da 92 2b 39 40 ab 51 3a a4 e0 01 00
       -0.0018999807 0.00016362537 0.00079982355 1.72421e-40
000090 bb 82 77 ba bc 9e f4 ba b8 fd fb b3 18 26 26 bb
       -0.00094417826 -0.0018663029 -1.17342495e-07 -0.0025352295
0000a0 ae 86 52 ba f1 e7 ea ba ef 12 78 b3 c0 7d 8b b7
       -0.0008030933 -0.0017921907 -5.775922e-08 -1.6628648e-05
0000b0 9a f4 1d 3a 5d 4c a9 b8 e9 57 a1 ba 5d 02 42 bb
       0.0006025523 -8.072772e-05 -0.0012309524 -0.002960346
0000c0 f5 a6 6c bb 98 86 85 b9 d3 ee a1 b9 3c 20 ab 3a
       -0.0036110256 -0.00025468017 -0.0003088625 0.0013055871
0000d0 6d 9c 69 b6 2e c2 73 ba 16 59 f6 b8 72 ec c3 ba
       -3.4810757e-06 -0.00092986494 -0.00011746788 -0.0014947786
0000e0 95 f4 fc ba 46 ce ad ba e2 0b 02 80 4f 7f 5b ba
       -0.0019298965 -0.0013260327 -1.87934e-40 -0.00083731575
0000f0 57 88 ba ba 1d 3c c6 b9 0e 5b 8d ba 58 44 94 b4
       -0.0014231306 -0.0003781029 -0.0010784583 -2.7616875e-07

weight f4 [19, 64]
000000 04 ed 2f 3b 1f f2 82 3d 9a 7a 7f ba e5 1a 83 bd
       0.0026844153 0.06393837 -0.0009745747 -0.06401614
000010 a1 2c 18 3d 28 99 c4 3d 29 f1 87 bd 4c 60 13 3a
       0.037151936 0.09599525 -0.066377945 0.00056219543
000020 fa 91 87 bd 7e 91 01 00 73 db b2 bc ae 37 59 bd
       -0.0661964 1.44028e-40 -0.021833157 -0.053031616
000030 25 af fa 38 fd 07 93 bc 14 e6 22 3b 55 1d 59 3a
       0.00011953552 -0.017948145 0.0024856376 0.0008282264
000040 bb ae 92 b7 af 2c d5 b9 b2 b6 a3 bb 5e 1e 71 3d
       -1.7485921e-05 -0.00040659818 -0.004996144 0.05886685
000050 8b 57 7a ba a9 a1 89 3c 64 63 0a 3a 81 43 e9 3b
       -0.0009549788 0.016800718 0.00052790926 0.007118643
000060 e7 f3 54 38 0c ea f8 bb e7 d1 52 ba 59 ec 25 3a
       5.077189e-05 -0.00759626 -0.0008042142 0.0006329469
000070 23 d0 50 3d 38 c2 61 3a a9 5c e9 ba 93 9c 86 b9
       0.050979745 0.00086120097 -0.0017804104 -0.0002567513
000080 e7 9b 83 bc 0e 47 07 3c 25 9b 73 3a 04 dc 91 3a
       -0.016065551 0.008256687 0.00092928327 0.0011128192
000090 cf e6 d7 bb 41 82 91 bc 7a 4c e3 39 a1 19 7a bd
       -0.006588794 -0.017762305 0.00043353793 -0.061059598
0000a0 4a 5f 68 3a a3 ed a2 3d c7 51 0e 3b 02 a2 df 39
       0.0008864297 0.07955482 0.0021716224 0.0004265458
0000b0 e9 47 5d 3c 3f 2b 4b 3c 36 d5 f5 bc b4 c2 b5 3c
       0.013505914 0.012400447 -0.030008893 0.022187568
0000c0 c6 34 00 3a 35 11 22 3a 99 e7 31 3d 60 29 5c 39
       0.00048906764 0.00061823736 0.04343376 0.00020996248
0000d0 91 f4 22 3c c7 81 ee 3c d1 03 9b 1d e6 03 2b b9
       0.0099460045 0.029114617 4.1032104e-21 -0.00016309283
0000e0 b6 42 89 bd 0b 34 fb ba 9f ba 00 00 4f b1 95 bc
       -0.06702177 -0.001916529 6.6947e-41 -0.018273024
0000f0 92 a2 1e 3d de 8b 17 38 63 9d d5 3c 2b 0e a2 37
       0.038729258 3.6131467e-05 0.026076024 1.9318502e-05
000100 f3 5c a1 39 eb d5 1a ba 69 0e 76 bb ea 2a 12 3b
       0.00030777566 -0.000590651 -0.003754521 0.002230341
000110 bf 88 ad b7 8a d9 5e 37 9c 3c f1 b9 50 42 78 b7
       -2.0686884e-05 1.3282881e-05 -0.0004601226 -1.47973915e-05
000120 2b ca 6c bb b8 53 02 00 82 aa b2 b4 56 a5 e2 b9
       -0.0036131244 2.13704e-40 -3.3279144e-07 -0.00043229264
000130 cb f9 66 38 5c 43 41 3a dc c6 93 3b 97 d2 87 3c
       5.506891e-05 0.0007372403 0.00450979 0.01657991
000140 50 cf 3e 20 b0 e8 17 3a ee 0c 8d bb 44 1d 37 0e
       1.616222e-19 0.0005794866 -0.00430452 2.2570582e-30
000150 97 8f 03 3c 55 70 86 ba 22 fc f6 b9 4e f8 f6 b8
       0.00802984 -0.0010256866 -0.0004710863 -0.000117764444
000160 98 96 45 ba 3f 2b 34 36 37 7f 6f a5 c9 84 a9 ba
       -0.0007537394 2.6847263e-06 -2.0773048e-16 -0.001293325
000170 29 f8 af b9 87 27 c6 a4 47 e2 61 b9 c7 f9 b6 39
       -0.00033563495 -8.5935774e-17 -0.00021541967 0.00034899844
000180 f3 37 46 ba e9 57 ed 3a bb f1 5e ba ac bf 87 ab
       -0.00075614377 0.0018107864 -0.00085046486 -9.645527e-13
000190 14 ff 65 38 e0 bd 01 ad 07 79 28 39 e2 21 47 b8
       5.4835415e-05 -7.374962e-12 0.00016066815 -4.7476853e-05
0001a0 28 e4 39 39 27 91 a8 ba 5e 76 f1 a0 4c 04 91 39
       0.0001772797 -0.0012860642 -4.0905317e-19 0.00027659757
0001b0 a7 3c b5 ba 06 ba 1e ba c3 c4 7f ba c1 95 f2 ba
       -0.001382728 -0.00060549413 -0.0009756798 -0.0018507765
0001c0 90 b3 2d 3b 20 63 4a 39 db 68 7d b8 47 42 4f 3a
       0.0026504733 0.00019301148 -6.0417555e-05 0.00079062994
0001d0 02 0d dc 96 be 79 30 3a 56 11 01 80 13 1b 09 ba
       -3.5551126e-25 0.0006732008 -9.8054e-41 -0.00052301696
0001e0 91 0e 02 80 ea 6c a4 3a 8e a3 01 00 99 37 ea 39
       -1.88896e-40 0.0012544666 1.50508e-40 0.00044673381
0001f0 2a e6 8b 3a 9e ee 9f b9 0f ac 38 3a d6 23 f4 06
       0.0010673453 -0.00030504627 0.00070446817 9.1835255e-35
000200 3d 10 a1 b9 53 5a d7 39 4a 12 20 3b 9d 5e 87 ba
       -0.0003072041 0.00041075292 0.0024424964 -0.001032788
000210 aa 7d 51 ba d2 4f de 39 3a 9f d8 39 3e 7d 00 00
       -0.00079914427 0.0004240261 0.00041317364 4.4928e-41
000220 bd 3d 82 3b d8 24 01 00 01 34 1b b3 80 b2 dc 39
       0.003974645 1.05053e-40 -3.6136047e-08 0.00042094663
000230 72 65 aa b8 e1 79 40 ba bf f2 8e bb 48 c2 8a 3c
       -8.125127e-05 -0.000734238 -0.0043624337 0.016938344
000240 f3 5e 94 89 19 1b 8e ba 77 86 bd 38 14 fe 9b 39
       -3.5718994e-33 -0.0010841816 9.037268e-05 0.00029753207
000250 4a 1e a4 bb 28 f8 9a b8 bf 84 f5 39 07 fa 06 ba
       -0.0050084936 -7.389515e-05 0.00046828945 -0.00051489513
000260 8b 77 62 39 6a 61 82 a7 fd d1 bf 93 f7 be 24 bc
       0.00021597573 -3.6187865e-15 -4.8422243e-27 -0.010055295
000270 87 a9 93 39 24 2a 78 ad 1d e4 61 39 33 3c 48 ba
       0.00028164333 -1.4106525e-11 0.00021542651 -0.0007638365
000280 20 4d 45 ba a8 02 e0 b8 3a f5 5e ba cf a2 05 b1
       -0.0007526446 -0.00010681647 -0.00085051695 -1.9446593e-09
000290 2f f9 3f 39 34 c7 01 00 9d 6d 5c 39 26 37 af 37
       0.00018308008 1.63296e-40 0.00021021669 2.0887306e-05
0002a0 f6 5b 1a 3a 40 ae bb 3a d4 d9 00 80 e2 a8 6b 39
       0.0005888337 0.0014318898 -7.8142e-41 0.0002247426
0002b0 b2 ed c8 b8 fe f2 ab ba a5 c0 5f 3a df cf fa 3a
       -9.5810174e-05 -0.0013118682 0.0008535481 0.0019135437
0002c0 85 97 2b bc 5b ca ef 38 e1 6e 1d b8 32 5b fd ba
       -0.010473137 0.000114341 -3.753498e-05 -0.0019329546
0002d0 f7 14 01 a3 d1 c7 93 b9 40 54 01 00 4b c7 87 39
       -6.9975435e-18 -0.000281869 1.22059e-40 0.0002589769
0002e0 8c 3b 01 80 f9 86 8b ba cd 2d 00 80 fe 91 e8 b9
       -1.13197e-40 -0.0010645083 -1.643e-41 -0.0004435926
0002f0 ec e3 6f ba 7e 3e 3c 39 37 b8 59 ba 5b 79 00 00
       -0.00091510895 0.00017952357 -0.0008305343 4.3534e-41
000300 f5 5c a1 39 a3 ec 1a ba 28 27 6a bb aa ba 11 3b
       0.0003077757 -0.00059098954 -0.0035728905 0.0022236505
000310 99 c5 3e b8 8a 2e f7 36 c9 3d 0a ba 41 cc 02 b7
       -4.5483557e-05 7.3665915e-06 -0.0005273489 -7.79616e-06
000320 20 81 5e bb d6 fa 01 80 af 05 38 b2 aa e9 e0 b9
       -0.0033951476 -1.81818e-40 -1.0711502e-08 -0.00042898703
000330 7a 3c b0 37 fc c5 3f ba 2d 27 17 bb 6a 79 3e bc
       2.1008997e-05 -0.0007315574 -0.0023064122 -0.011625627
000340 b6 5e 02 00 bf 0b be ba e7 40 8f bb 2c 45 99 38
       2.17647e-40 -0.001449935 -0.0043717506 7.308493e-05
000350 be 09 00 bc f3 be 8b ba b3 ab f6 b9 9e 18 01 b9
       -0.007814823 -0.0010661766 -0.00047048702 -0.0001231157
000360 a7 0d 4e 3a d8 43 59 36 fa 76 42 a6 11 37 fe ba
       0.0007860311 3.237501e-06 -6.7468514e-16 -0.0019395073
000370 7d 8c d4 b9 bd 6f 93 b4 14 d3 61 b9 59 98 c9 39
       -0.00040540463 -2.7462184e-07 -0.00021536305 0.00038451215
000380 80 ae 4e ba 72 75 b3 3a 76 f5 5e ba 04 e1 e3 2f
       -0.0007884279 0.0013691618 -0.00085052045 4.1450943e-10
000390 0c c2 78 39 0f 03 ec b0 58 ae fa b8 8f 63 9a b8
       0.00023723411 -1.7172129e-09 -0.00011953403 -7.3618365e-05
0003a0 97 83 2b 3a b2 83 b6 ba c9 94 5f a6 60 da a9 39
       0.0006542741 -0.0013924746 -7.757031e-16 0.00032396894
0003b0 c3 53 cf b9 71 1a 1c ba 4b e1 66 ba be f1 08 bb
       -0.00039544524 -0.0005954868 -0.0008807375 -0.0020896043
0003c0 f0 49 66 bc f2 1b 97 39 38 45 9b b9 2a 30 d8 39
       -0.014055714 0.00028821785 -0.00029615476 0.00041234615
0003d0 24 d0 0a 2e cb be 2b 3a b4 c0 00 80 79 5d 06 ba
       3.1562433e-11 0.00065515627 -6.9129e-41 -0.0005125623
0003e0 e7 7b 00 00 e2 34 a7 3a 05 0c 02 80 e9 86 ea 39
       4.4448e-41 0.0012756849 -1.87983e-40 0.00044732474
0003f0 ef c9 9b 3a 52 d8 9a b7 8b c9 47 3a 07 e9 3b 10
       0.0011885742 -1.8458963e-05 0.000762128 3.7058765e-29

bias f4 [19]
000000 d2 35 a9 3e 46 d2 f9 bc a2 7e 14 3d 40 93 e3 3c
       0.33048874 -0.030495774 0.03625358 0.027780175
000010 80 fe 9e 3e 99 40 b1 3c e5 9d e0 bc 59 ea e5 bc
       0.31053543 0.021637248 -0.02741904 -0.028065847
000020 1d 9a ad 3e c7 ff 9e 3e 11 8c 0b bb a0 51 86 bc
       0.33906642 0.31054518 -0.0021293203 -0.016396344
000030 85 88 9c 3b 09 f7 97 3e 6c 40 cd bb 4d 43 74 bc
       0.0047770166 0.2968066 -0.006263783 -0.014908624
000040 23 81 65 bc 33 46 9d 3e 7e 28 03 3f
       -0.014007839 0.3071762 0.5123366
