models/TEV/O/model0.pt (torch, 422913 bytes, 12 tensors)

weight f4 [128, 384]
0	0xbd468e70	-0.048475683
1	0x3cd28a39	0.025700675
2	0xbe086569	-0.13319935
3	0x3ddea78e	0.10871802
4	0xbd5bd4f5	-0.05366989
5	0xbd075ac0	-0.03304553
6	0x3c2c0853	0.0105000315
7	0x3d711534	0.05885811
8	0x3dc30533	0.09522476
9	0xbdc88cec	-0.09792504
10	0x3d32806b	0.0435795
11	0x3d9f9791	0.07792581
12	0x3d9fb212	0.07797636
13	0x3e763176	0.24042305
14	0x3c628734	0.01382618
15	0x3e1bf706	0.1523095
16	0xbe8f1bf3	-0.2795101
17	0xbbfca6b9	-0.0077103046
18	0x3d72ce54	0.0592788
19	0xbd643e3b	-0.05572341
20	0xbc1c8a5f	-0.009554475
21	0xbe15df37	-0.14635931
22	0xbd61464f	-0.054998692
23	0x3c0c210c	0.008552801
24	0xbd972f22	-0.07382037
25	0x3dcf26c1	0.101148136
26	0xbd373470	-0.044727743
27	0xbe24e4b8	-0.16102874
28	0x3e65e942	0.22452262
29	0x3f006b24	0.50163484
30	0x3f37de10	0.71823215
31	0x3f299b67	0.6625275
32	0x3565b694	8.5574834e-07
33	0x39197cb5	0.00014637674
34	0x3ad02dce	0.0015882791
35	0xbe5c3961	-0.21506263
36	0x3d206152	0.039155312
37	0xbc7f3f1a	-0.015579009
38	0x3dd755f1	0.10514439
39	0xbe15ecdf	-0.1464114
40	0x3d919d9c	0.0711014
41	0x3d06d84d	0.032921124
42	0x3dc004ff	0.09375953
43	0x3e297e5d	0.1655211
44	0x3ac4f622	0.0015026967
45	0xbe0c656a	-0.13710561
46	0x3e8b97e0	0.2726431
47	0x3d83ab63	0.06429174
48	0xbcd6f05e	-0.026237663
49	0x3c7fd0c9	0.015613743
50	0xbd9e7b02	-0.07738306
51	0x3e22a5ff	0.15883635
52	0xbdff1e48	-0.124569476
53	0x3dce2fb2	0.10067691
54	0xbd3e6229	-0.04648033
55	0x3e0e006d	0.1386735
56	0xbda94a13	-0.08266082
57	0xbe8ba715	-0.2727591
58	0xbd68e059	-0.05685458
59	0x3e6f7186	0.2338315
60	0x3c66f2e2	0.014095994
61	0xbf34bb32	-0.7059814
62	0xbeee6bd0	-0.4656663
63	0x3eced575	0.4039723
64	0xbb293b1f	-0.0025822592
65	0x3c58f682	0.013242366
66	0xbd91b05a	-0.071137145
67	0xbe07c7f2	-0.13259867
68	0xbe25f564	-0.1620689
69	0xbd932380	-0.071845055
70	0xbdba2f66	-0.09091072
71	0xbe68af4f	-0.22723125
72	0x3e28ec60	0.1649642
73	0x3ea796b8	0.32732177
74	0x3d811f4b	0.06304797
75	0xbe222b5d	-0.15836854
76	0xbe9bf22c	-0.304582
77	0xbe5a6056	-0.21325812
78	0xbe2213b1	-0.15827824
79	0xbc7880fa	-0.015167469
80	0xbe408c51	-0.18803526
81	0xbdc5a77b	-0.09651085
82	0x3df56c2a	0.11983521
83	0x3cd59253	0.02607075
84	0x3df2dd1d	0.1185858
85	0x3ce72cfd	0.028219694
86	0x3ce012ae	0.027352657
87	0x3e0ea338	0.1392945
88	0xbd8e0380	-0.06934261
89	0xbc438c51	-0.0119353095
90	0xbdd5fbb8	-0.10448402
91	0x3de67f7a	0.11254783
92	0x3d809e58	0.06280202
93	0xbd8ee541	-0.069773205
94	0xbea31028	-0.31848264
95	0xbe7a7f72	-0.24462679
96	0xbd85f390	-0.065405965
97	0x3e0c3b95	0.13694604
98	0x3cc6b12c	0.024254404
99	0xbe874606	-0.2642061
100	0x3bf6e523	0.0075346394
101	0x3e67418f	0.22583602
102	0x3e69a372	0.22816256
103	0xbd630696	-0.055426203
104	0x3c8374be	0.016046878
105	0x3daf0c8d	0.08547316
106	0x3d76d374	0.06026025
107	0xbd65eee3	-0.056136023
108	0xbe234ae8	-0.15946543
109	0xbb3d23c1	-0.0028860422
110	0xbc95a4b3	-0.018267011
111	0x3e8bb1ae	0.27283996
112	0x3e246ea7	0.16057836
113	0xbe1b9a2e	-0.15195534
114	0xbca7b57c	-0.02047228
115	0xbd5e7764	-0.05431308
116	0x3defb384	0.11704162
117	0xbe13270b	-0.14370362
118	0xbe537e27	-0.20653592
119	0x3dda1a0d	0.106495
120	0x3e8bd962	0.27314287
121	0x3e16911a	0.1470379
122	0xbdb90544	-0.090342075
123	0xbe0e45ea	-0.13893858
124	0x3c9949e8	0.018711999
125	0xbe2994d4	-0.1656068
126	0xbe1783d9	-0.1479639
127	0xbda2afe0	-0.07943702
128	0xba151edf	-0.0005688499
129	0x3972d049	0.0002315651
130	0xbc468aad	-0.012118024
131	0xbd2ed4e8	-0.042683512
132	0xbd105a54	-0.035242394
133	0xbd96b328	-0.0735839
134	0xbdd65640	-0.1046567
135	0xbd28547f	-0.041096207
136	0xbc937423	-0.017999714
137	0x3c3cf204	0.01153231
138	0xbdb5e8de	-0.088823065
139	0xbd897125	-0.06711034
140	0xbd4effac	-0.050536796
141	0xbd85ceb3	-0.06533565
142	0x3d07275a	0.032996513
143	0xbd4cf93c	-0.050042376
144	0xba802769	-0.000977737
145	0xbc41bb23	-0.011824402
146	0x3d85158c	0.0649825
147	0x3d7890dc	0.060685024
148	0x3e367f28	0.17821944
149	0xbec51f56	-0.3850047
150	0xbe8d2c92	-0.27573067
151	0xbdd6184c	-0.10453853
152	0xbf32e000	-0.69873047
153	0x3d63b9a5	0.055596966
154	0x3eaab11b	0.33338246
155	0xbe878c99	-0.26474455
156	0xbe9b75ec	-0.30363405
157	0xbdebdce3	-0.1151674
158	0x3ddc7032	0.10763587
159	0xbc4b2945	-0.012399976
160	0xba708192	-0.0009174581
161	0xbd209199	-0.039201353
162	0xbd9cb7de	-0.076522574
163	0xbdf6a9ed	-0.120441295
164	0xbda0e491	-0.078560956
165	0xbc5e06c4	-0.013551418
166	0xbd9f59f1	-0.07780827
167	0xbba0dda9	-0.0049092364
168	0xbe8bdad9	-0.27315405
169	0x3e18af9b	0.14910738
170	0x3cf598ac	0.029980026
171	0xbd2a8300	-0.041628838
172	0xbe28edd4	-0.16496974
173	0xbe33c940	-0.1755724
174	0x3e469a19	0.19394721
175	0xbd5e4f94	-0.05427511
176	0x3e503df5	0.20336135
177	0xbe96503d	-0.29358092
178	0x3e2b141d	0.16706891
179	0x3d6852bc	0.056719527
180	0x3d4e37eb	0.050346296
181	0xbddf563b	-0.10905119
182	0xbc638fb9	-0.013889247
183	0xbb6bf1c3	-0.0036002256
184	0x3e86da26	0.2633831
185	0xbdacc700	-0.08436394
186	0x3de958fa	0.11393924
187	0xbe2ffc6b	-0.17186134
188	0xbe02070a	-0.12697998
189	0xbe83f083	-0.25769433
190	0xbe55061e	-0.20803115
191	0xbd66e642	-0.056371935
192	0xbd00dbfe	-0.0314598
193	0x3c1f8e58	0.009738527
194	0x3e8cad51	0.2747598
195	0x3dda0f57	0.10647457
196	0xbe8e72b6	-0.27821892
197	0x3d1e961e	0.03871738
198	0x3d9cde3c	0.07659575
199	0x3cc3578c	0.023845457
200	0xbe43304e	-0.19061396
201	0xbe0347c1	-0.1282034
202	0x3ca4a7e2	0.020099584
203	0x3e136efd	0.14397807
204	0xbe9f5402	-0.3111878
205	0xbcc2771d	-0.023738438
206	0x3e16e66c	0.14736336
207	0xbddb43ec	-0.107063144
208	0xbdbc9252	-0.09207596
209	0x3d30e8cc	0.043190762
210	0x3e520c39	0.20512475
211	0xbe0bc7c8	-0.13650429
212	0x3d9d5f0d	0.07684145
213	0x3bac0029	0.0052490425
214	0xbe053b2d	-0.13010855
215	0xbd65b696	-0.05608233
216	0x3da2c40b	0.079475485
217	0x3d49ab18	0.049235433
218	0xbe2bc80c	-0.1677553
219	0xbec5c751	-0.3862863
220	0xbe4330bb	-0.19061558
221	0xbe539d4b	-0.20665471
222	0xbdc17bd2	-0.09447445
223	0xbb25eded	-0.0025318817
224	0x3dbe699f	0.092974894
225	0x3dc5da10	0.09660733
226	0x3d5c615f	0.053803798
227	0x3c627f5b	0.013824309
228	0x3c149027	0.009067572
229	0xb9f15282	-0.00046028575
230	0x38c86059	9.554689e-05
231	0xb431c620	-1.6556487e-07
232	0x3e31f83a	0.17379847
233	0xbb92ce4b	-0.0044801584
234	0xbdd6614d	-0.104677774
235	0xbcde409b	-0.027130416
236	0xbe0fa09c	-0.14026111
237	0xbdd31a96	-0.10307805
238	0x3b99cadd	0.0046933726
239	0x3802682b	3.109143e-05
240	0xbe566360	-0.20936346
241	0x3debf26a	0.11520846
242	0x3e605c1c	0.21910137
243	0x3d942bb0	0.07234895
244	0xbebbe41d	-0.36697474
245	0xbe58c4e4	-0.21168858
246	0xbd19e9b8	-0.037576407
247	0xb92f60cf	-0.00016725365
248	0x3e31d316	0.17365679
249	0x3ec9817d	0.39356604
250	0xbe707fec	-0.23486298
251	0xbe69ed3c	-0.22844404
252	0x3e2e992c	0.17050618
253	0x3e3f8bec	0.1870572
254	0xbaa54d29	-0.0012611496
255	0xb8af4df3	-8.3591694e-05

bias f4 [128]
0	0xbc443f19	-0.011977934
1	0xbc9a9731	-0.018870922
2	0x3d094c55	0.03352006
3	0xbc9f7e6a	-0.019469459
4	0xbc89db2d	-0.016828144
5	0xbd2c0300	-0.04199505
6	0xbd094068	-0.03350869
7	0xbcf902bb	-0.03039681
8	0xbd9ee36d	-0.07758222
9	0xbd062167	-0.0327467
10	0xbd11f8c6	-0.03563764
11	0xbcaac7b9	-0.020847188
12	0xbc420d80	-0.011844039
13	0xbc95fa27	-0.018307758
14	0xbc290116	-0.0103152
15	0x3bb19967	0.0054198983
16	0xbd452eb4	-0.048140243
17	0xbc956c6f	-0.018240182
18	0xbc6a51fe	-0.014301775
19	0xbc299733	-0.01035099
20	0x3bdc7b76	0.006728585
21	0xbc3cce3a	-0.011523778
22	0xbcb7d308	-0.022439495
23	0xbcfb034c	-0.03064122
24	0x3c25a224	0.010109458
25	0xbd3a93d8	-0.04555115
26	0xbcda9a46	-0.026684891
27	0x3c563b81	0.01307571
28	0xbd5d5eb8	-0.05404541
29	0xbcc02480	-0.023454905
30	0xbcc28af9	-0.023747908
31	0xbcd6995f	-0.02619618
32	0xbd57a37d	-0.05264615
33	0xbd5a8e9b	-0.053358655
34	0xbd2c23a1	-0.042026166
35	0xbc10a2b4	-0.008827854
36	0x3d339051	0.043838803
37	0xbd1eb387	-0.03874543
38	0xbd825c52	-0.06365265
39	0xbc32d15d	-0.010914174
40	0xbb02de66	-0.0019968986
41	0x3982c640	0.0002494324
42	0xbd63c45d	-0.05560719
43	0xbceab098	-0.02864866
44	0xbc008215	-0.007843514
45	0xbd441a3c	-0.04787658
46	0xbd3a8b3f	-0.04554295
47	0x3ce69e38	0.028151616
48	0xbd085514	-0.03328426
49	0x8b9111ab	-5.587855e-32
50	0x3cf40dcb	0.029791733
51	0x3d082d7e	0.03324651
52	0xbd305b1e	-0.043055646
53	0x3a8c304f	0.001069555
54	0xbd009a5b	-0.031397205
55	0xbc3b4ce0	-0.011431903
56	0xbdc12db0	-0.09432542
57	0xbcaf6d09	-0.021414297
58	0xbd7c5763	-0.061606776
59	0xbc18ce38	-0.00932651
60	0xbc2697f8	-0.010168068
61	0xbd1b433c	-0.037905917
62	0xba6011d7	-0.000854758
63	0xbdb4ec93	-0.088341855
64	0xbd7d612f	-0.06186026
65	0xbc7bc315	-0.015366335
66	0xbce43263	-0.027856058
67	0xbce878c2	-0.028377894
68	0xbc3a07ca	-0.011354396
69	0xbd15d281	-0.036577705
70	0xbd6de547	-0.058079984
71	0xbcbaae9d	-0.02278834
72	0xbcb1b9d4	-0.021695055
73	0xbcc36835	-0.0238534
74	0xb9b88583	-0.0003519469
75	0xbd33275e	-0.043738715
76	0xbc819084	-0.01581598
77	0xbc18eec0	-0.009334266
78	0x3c348db8	0.0110201165
79	0x3c070c93	0.008242744
80	0x3cc4fbb7	0.024045808
81	0x3bdfb93a	0.0068275006
82	0xbd4f7e54	-0.050657585
83	0xbd3df426	-0.046375416
84	0xbdbfc624	-0.09363964
85	0xbcd69c39	-0.02619754
86	0xbc02d59c	-0.007985499
87	0xbd1faf1c	-0.038985357
88	0xbd0178a1	-0.03160918
89	0xbd24846b	-0.040165346
90	0xbd38735b	-0.045031887
91	0xbd26d90f	-0.040734347
92	0x3c6640c2	0.014053525
93	0xbd43f591	-0.047841612
94	0xbccba0c1	-0.024856927
95	0xbd4b795f	-0.049676295
96	0xbd111b38	-0.03542635
97	0xbc6a123c	-0.014286574
98	0xbcd890b3	-0.026436185
99	0xbcdd6d1d	-0.027029568
100	0xbbc5ad81	-0.006032646
101	0xbd6744b8	-0.05646202
102	0xbc4a974e	-0.012365175
103	0xbc8f685b	-0.017505815
104	0xbad110c7	-0.0015950435
105	0xbd7d402c	-0.061828777
106	0xb981b14c	-0.00024736894
107	0xbd0cdc74	-0.034389928
108	0xbc127284	-0.008938435
109	0xbd8cbeb9	-0.06872315
110	0xbc161319	-0.009159827
111	0xbc97094f	-0.018437056
112	0xbd82fcf2	-0.06395902
113	0xbd7479c1	-0.059686426
114	0xbd04eff5	-0.032455403
115	0xbda352f9	-0.0797481
116	0xbcea4408	-0.028596893
117	0xbd2f53ee	-0.04280465
118	0xbc82e4e7	-0.01597829
119	0x3c2db0db	0.010601248
120	0xbd94bffb	-0.0726318
121	0xbba3776f	-0.004988603
122	0xbd4de866	-0.05027046
123	0xbce2659b	-0.02763634
124	0xbd3208ca	-0.043465413
125	0xbc8d822e	-0.017273989
126	0xbb62381a	-0.0034518302
127	0xbd1cba4d	-0.038263608

weight f4 [128, 128]
0	0x3e0dea0c	0.13858813
1	0x3d9793ec	0.07401261
2	0xbd14bb3c	-0.036311373
3	0xbe2485a3	-0.16066603
4	0xbde1a455	-0.11017672
5	0xbe5f307a	-0.21795836
6	0x3db24b09	0.08705718
7	0x3d640691	0.055670325
8	0xbdfcf149	-0.12350709
9	0xbe804b14	-0.2505728
10	0xbe119813	-0.14218168
11	0xbd3872b1	-0.045031253
12	0x3d8e85ec	0.06959137
13	0xbcff94a0	-0.0311988
14	0x3d294b8b	0.04133181
15	0x3c89e033	0.01683054
16	0xbdfa8579	-0.12232489
17	0x3db20b24	0.08693531
18	0x3e1abb2e	0.15110466
19	0xbc02825e	-0.007965652
20	0x3da15bd0	0.0787884
21	0xbe56f8d1	-0.20993353
22	0x3b304d58	0.002690157
23	0xbd907f99	-0.07055587
24	0x3c0b68c0	0.008508861
25	0xbe4aace5	-0.19792517
26	0xbe0b78e7	-0.1362034
27	0x3e1deb85	0.15421875
28	0xbb368c1a	-0.0027854503
29	0x3d390bfd	0.04517745
30	0x3de66e79	0.1125154
31	0x3d85bd24	0.06530216
32	0xbe4a0815	-0.19729646
33	0xbdca6bec	-0.09883866
34	0xbdf86755	-0.12129084
35	0xbd0dc92f	-0.03461569
36	0xbe3dff60	-0.18554449
37	0x3e6b1212	0.22956112
38	0xbd391c78	-0.045193166
39	0xbcad46b8	-0.021151885
40	0xbe6325d2	-0.22182396
41	0x3ddc780e	0.10765086
42	0x3da196ee	0.07890116
43	0xbd7a8363	-0.061160456
44	0x3d20b837	0.03923818
45	0x3dde4e56	0.10854785
46	0x3e18a4a8	0.14906561
47	0xbdb6a10d	-0.08917437
48	0xbda22c6f	-0.07918631
49	0x00028653	2.31857e-40
50	0x3c994b8c	0.018712781
51	0xbd2f8745	-0.042853612
52	0x3e137963	0.14401774
53	0x3dade0f8	0.08490175
54	0x3db20019	0.08691425
55	0x3da2c104	0.07946971
56	0x3db048e7	0.08607655
57	0x3d586a7f	0.052835938
58	0x3e0aea1c	0.13565868
59	0x3d39d106	0.045365356
60	0x3e12664d	0.14296837
61	0x3d7f80c6	0.062378667
62	0x3cbfac28	0.02339752
63	0xbe2148f2	-0.15750483
64	0xbd9d9144	-0.07693723
65	0x3cd220cd	0.025650406
66	0x3d21c08e	0.039490275
67	0x3dd5bcef	0.10436427
68	0x3ccaecc7	0.024771107
69	0xbb8c39af	-0.0042793374
70	0xbddddcea	-0.10833152
71	0xbd7ee267	-0.062227633
72	0xbe30efea	-0.1727902
73	0x3db48686	0.08814721
74	0xbcf99b9c	-0.030469708
75	0xbd7d01b3	-0.0617692
76	0xbc9abe84	-0.018889673
77	0xbd82c8cd	-0.06385956
78	0xbdf37186	-0.11886887
79	0x3e0d3c4f	0.13792537
80	0xbe2200b6	-0.15820584
81	0xbd781f91	-0.06057698
82	0xbe30bd9f	-0.17259835
83	0xbd48bf67	-0.04901066
84	0x3d347440	0.044056177
85	0x3d017ef5	0.031615216
86	0x3d019217	0.031633463
87	0x3ce9aafc	0.028523915
88	0x3db9e987	0.09077745
89	0x3db067a6	0.08613519
90	0x3d965284	0.07339957
91	0xbcb6311d	-0.022240216
92	0x3d915905	0.07097057
93	0xbd928609	-0.071544714
94	0xbd94182b	-0.07231172
95	0xbc00e8d9	-0.007868015
96	0xbc4f9bd1	-0.012671427
97	0xbc8888e7	-0.016666843
98	0xbe120369	-0.14259113
99	0xba6d30d3	-0.0009048108
100	0x3ca82d65	0.020529458
101	0x3e07a65a	0.13247052
102	0x3da2496c	0.0792416
103	0xbc0fbb27	-0.008772648
104	0x3c418f0b	0.011813889
105	0xbd7116fc	-0.05885981
106	0xbddbe7e7	-0.10737591
107	0xbe3065f2	-0.17226389
108	0xbd9abaa5	-0.07555131
109	0xbdbef39a	-0.09323807
110	0xbd11bdc5	-0.03558137
111	0xbdee5383	-0.11637022
112	0x3d8fb936	0.07017748
113	0xbcdebbbb	-0.027189126
114	0x3c87a10e	0.016556289
115	0x3b993eec	0.0046766903
116	0xbc6a7b6e	-0.0143116545
117	0x3e15649d	0.14589162
118	0x3e1e40df	0.15454434
119	0x3dcf8595	0.101329006
120	0xbe37c4fb	-0.17946236
121	0xbe2d2f28	-0.1691252
122	0xbd6afa3b	-0.057367545
123	0x3d88f12d	0.06686626
124	0xbd764a40	-0.060129404
125	0x3d8c2805	0.068435706
126	0xbe031281	-0.12800027
127	0xbe19cbb7	-0.15019117
128	0xbd6fb2fc	-0.058520302
129	0xbc7bb801	-0.015363694
130	0xbd6efe90	-0.05834824
131	0xbd8f9215	-0.07010285
132	0x3d96170a	0.07328613
133	0xbd9258b2	-0.071458235
134	0x3dd6647e	0.10468386
135	0xbdb9a94d	-0.09065495
136	0x3e07af74	0.13250524
137	0x3d858d59	0.065211006
138	0x3dcd7399	0.10031814
139	0xbe0b3dd0	-0.13597798
140	0xbc5f16d7	-0.013616285
141	0x3dc2bfb5	0.095092215
142	0x3d066044	0.03280665
143	0xbd17d8dd	-0.03707205
144	0xbe03b128	-0.12860548
145	0x3da03977	0.078234605
146	0x3dad1d41	0.08452845
147	0xbdc13480	-0.09433842
148	0x3ddeb973	0.108752154
149	0xbd89742f	-0.067116134
150	0xbe07f2db	-0.13276236
151	0xba06e3b8	-0.0005145627
152	0xbb83a8c4	-0.004017921
153	0xbe37f737	-0.17965399
154	0x3ca03feb	0.019561728
155	0xbd78c9f7	-0.060739484
156	0x3e086461	0.13319542
157	0xbd5ff1b9	-0.054673884
158	0x3c5163ac	0.012780111
159	0x3d7b7e6e	0.06139987
160	0xbdc2581a	-0.0948946
161	0x3d680c82	0.056652553
162	0xbde77af1	-0.11302746
163	0x3cadfa33	0.021237468
164	0xbccf0515	-0.025270978
165	0x3cc05b13	0.023480928
166	0xbd74286a	-0.059608854
167	0xbab4391b	-0.0013749929
168	0xbdcbb8a4	-0.09947327
169	0xbe2604fd	-0.1621284
170	0x3d959b7c	0.07305047
171	0xbd83eb8d	-0.06441412
172	0xbe0cc9d7	-0.13748871
173	0x3e0e11f2	0.13874033
174	0x3c09c610	0.008409038
175	0xbe0f58a3	-0.13998656
176	0x3e3c5412	0.18391445
177	0x0003c55d	3.46307e-40
178	0x3d7be165	0.06149425
179	0xbc243c6b	-0.01002417
180	0xbcc8677d	-0.02446341
181	0xbe562104	-0.20911032
182	0x3da62348	0.08112198
183	0x3e387327	0.18012677
184	0xbe3a57da	-0.18197575
185	0x3d722134	0.059113696
186	0x3ce0f0d5	0.027458588
187	0xbd0fbe96	-0.035093866
188	0xbdbca1d4	-0.09210554
189	0x3da729a9	0.08162243
190	0x3d865291	0.06558717
191	0xbe2840e3	-0.16431002
192	0x3a94487c	0.0011313106
193	0x3d9f406b	0.077759586
194	0x3d913094	0.07089344
195	0xbe01e07e	-0.12683293
196	0x3daee62e	0.08539997
197	0xbd0b8e85	-0.034071464
198	0x3e0b15b7	0.13582502
199	0x3d5e2591	0.054235045
200	0x3d9cf633	0.07664146
201	0x3d964449	0.07337243
202	0x3e282944	0.16421992
203	0x3e08b08d	0.13348599
204	0x3e1f634f	0.15565227
205	0x3caffbfa	0.021482456
206	0xbd5644d2	-0.052311726
207	0x3d13101d	0.03590404
208	0xbddba7ef	-0.1072539
209	0xbd90fbf6	-0.07079308
210	0x3e534c71	0.20634629
211	0xbdd85353	-0.10562768
212	0xbe0b40b3	-0.135989
213	0x3e0bea00	0.13663483
214	0xbd9e329a	-0.07724495
215	0x3e09e584	0.1346646
216	0xbdc21be0	-0.09477973
217	0xbd00a5b0	-0.031408012
218	0x3d472edf	0.048628684
219	0x3e0acba2	0.13554242
220	0x3cfbd1dd	0.030739719
221	0xbdf1add1	-0.11800731
222	0xbdccdbb9	-0.10002846
223	0xbd08e085	-0.033417244
224	0x3c0347db	0.008012737
225	0x3c919346	0.01777042
226	0x3d29321e	0.04130756
227	0xbd9bfff6	-0.0761718
228	0xbc810b35	-0.015752414
229	0xbe10f6d0	-0.14156651
230	0x3dea7c88	0.11449534
231	0x3d0a5ac1	0.033777956
232	0xbcb84fc7	-0.022498978
233	0xbd58a362	-0.05289019
234	0x3c14b900	0.009077311
235	0x3e01e908	0.1268655
236	0xbc1c7ffc	-0.009551998
237	0x3e4bd67c	0.19906038
238	0x3dc5d691	0.09660066
239	0x3c0267ac	0.007959288
240	0xbd5748f1	-0.052559797
241	0x3c0b45c4	0.00850052
242	0xbe336ce7	-0.17522012
243	0x3b580b17	0.0032965594
244	0xbd70f166	-0.058823965
245	0xbda8f46a	-0.08249743
246	0xbd238de0	-0.039930224
247	0xbdd088b0	-0.10182321
248	0x3d9159cd	0.07097206
249	0xbc8b5eec	-0.017013036
250	0xbc48ba76	-0.012251487
251	0xbdc046b8	-0.093884885
252	0xbdad665b	-0.084667884
253	0x3d1188cf	0.03553086
254	0x3cb882f4	0.02252338
255	0xbe1ac337	-0.15113531

bias f4 [128]
0	0x3c87f7fe	0.016597744
1	0xbb8b51da	-0.004251701
2	0xbd884e3b	-0.06655546
3	0x3d30cb1c	0.04316245
4	0xbc1399af	-0.009008809
5	0x3c665a46	0.014059609
6	0x3d1de1fe	0.0385456
7	0xbd1cf294	-0.038317278
8	0xbd5169d6	-0.051126324
9	0xbc483791	-0.012220279
10	0x3cebcd2a	0.028784353
11	0x3d032963	0.03202189
12	0xbc8238ad	-0.015896166
13	0x3c9ddb72	0.019269679
14	0xbc2cd334	-0.010548402
15	0xbd0bca1d	-0.034128297
16	0x3d203a98	0.03911838
17	0xbd04cf59	-0.032424305
18	0x3d052d27	0.032513764
19	0x3d238eb2	0.039931007
20	0x3ca3a8a5	0.019977877
21	0xbbef8131	-0.007309102
22	0xbb5d398a	-0.003375622
23	0x3da1e554	0.07905069
24	0x3c794023	0.015213045
25	0xbca2f7ec	-0.019893609
26	0x3bf95576	0.0076090647
27	0x3d13b372	0.036059804
28	0xba9d4b64	-0.0012000618
29	0xbd22a337	-0.039706435
30	0x3d05deba	0.03268311
31	0x3d71e014	0.05905159
32	0xbca8f3a7	-0.020623995
33	0x3c5b14b3	0.013371634
34	0x3d693b53	0.05694134
35	0xbbbf2b34	-0.0058340076
36	0xbdb56e49	-0.08858926
37	0x3d116979	0.035500977
38	0x3d062051	0.032745663
39	0x3c759b37	0.014990619
40	0xbd36c94c	-0.044625565
41	0x3d5f9e42	0.054594286
42	0xbb80c3fd	-0.0039296136
43	0x3b6dbbe7	0.0036275329
44	0xbcdfeb28	-0.02733381
45	0x3b433de3	0.0029791526
46	0xbcefafed	-0.029258693
47	0xbcd5bf41	-0.026092174
48	0x3c4be2b0	0.012444183
49	0xbd62ca95	-0.05536898
50	0xbcff9f6c	-0.031203948
51	0xbce02258	-0.027360126
52	0xbcb173cf	-0.021661667
53	0x3c78f19b	0.015194322
54	0x3c2bb7e0	0.010480851
55	0xbce2fc31	-0.027708145
56	0x3be2560c	0.0069072302
57	0xbd80dbc2	-0.062919155
58	0x3d55d840	0.052208185
59	0xbd5d3f7a	-0.054015614
60	0xbaf68816	-0.0018808867
61	0xbc752c1d	-0.014964131
62	0xbc8b503f	-0.017006038
63	0xbcd1aa89	-0.025594013
64	0x3bb86db5	0.0056283125
65	0xbd8e1abf	-0.06938695
66	0x3d26c4fe	0.04071521
67	0xbc7c8978	-0.0154136345
68	0x3bc8845f	0.0061192955
69	0xbbdf03c5	-0.0068058693
70	0xbb784a12	-0.0037885946
71	0x3d892c4b	0.06697901
72	0xbca9f824	-0.020748205
73	0xbca4e9d2	-0.020131025
74	0xbca54a5c	-0.020177059
75	0x3d288e90	0.041151583
76	0x3b6447d9	0.0034832864
77	0x3bdad294	0.006677935
78	0x3d0895d0	0.033345997
79	0x3bad4d7c	0.005288778
80	0xbd7ce731	-0.06174392
81	0x3c907b85	0.017637024
82	0xba52dc3b	-0.0008043681
83	0xbb6ebe48	-0.0036429334
84	0x3cdcba0e	0.026944187
85	0xbcd11472	-0.025522444
86	0xbc6ac38c	-0.014328849
87	0x3d92e761	0.07173038
88	0xbd3d53fa	-0.046222664
89	0xbd0c9b35	-0.034327704
90	0xbbb6612b	-0.0055657825
91	0xbd315d9e	-0.04330217
92	0xbcd1ef73	-0.025626874
93	0x3d282a1b	0.04105578
94	0x38a7c6df	8.000223e-05
95	0x3d3e111e	0.046403043
96	0x3bf906e5	0.007599699
97	0xbc8605ce	-0.01636019
98	0xbd1955e7	-0.03743544
99	0xbd244ec0	-0.040114164
100	0xbce9cda5	-0.028540442
101	0x3d02f85f	0.031975146
102	0x3cb2f967	0.02184744
103	0x3cd9dd38	0.026594743
104	0xbd0c9ff7	-0.034332242
105	0xbd7ca0d5	-0.06167682
106	0x3c054ddc	0.008136239
107	0xbc26a319	-0.010170721
108	0xbb022ba8	-0.0019862447
109	0x3c45fa83	0.012083652
110	0xbcacdef0	-0.021102399
111	0x3ca552f5	0.020181159
112	0x3d1d9a3a	0.03847716
113	0x3baacf7b	0.005212722
114	0x3ba01f57	0.0048865485
115	0x3ceb4ef7	0.028724177
116	0xbc94020d	-0.018067384
117	0xbc1ab6a2	-0.009442957
118	0xbc84fce0	-0.016233861
119	0xbcaa82aa	-0.020814259
120	0xbc98d6b4	-0.018657066
121	0xbc81f743	-0.015864974
122	0x3b5ce3cb	0.003370511
123	0x3cde6071	0.027145596
124	0xbcc79fbd	-0.024368161
125	0x3d9c1238	0.076206625
126	0x3d09da7a	0.03365562
127	0xbd1353e8	-0.03596869

weight f4 [128, 224]
0	0xbb697235	-0.0035621051
1	0xbd309392	-0.043109484
2	0x3dfa657b	0.12226387
3	0x3df1802d	0.11792026
4	0xbdbace42	-0.09121372
5	0x3dbece23	0.09316661
6	0x3e019934	0.12656099
7	0x3de5979a	0.11210556
8	0x3e099398	0.13435209
9	0xbe1a1a23	-0.15049033
10	0xbd9108a0	-0.07081723
11	0x3d1373da	0.035999157
12	0x3d8b2866	0.06794815
13	0xbcbc9251	-0.023018988
14	0xbddc122d	-0.10745654
15	0x3e5019d9	0.2032236
16	0xbd06955a	-0.032857276
17	0x3d8a7daa	0.0676225
18	0x3d8afaf1	0.067861445
19	0x3e12122a	0.14264742
20	0x3dd767fd	0.10517881
21	0xbc9dbce7	-0.019255115
22	0x3d6402f4	0.05566688
23	0x3dc37557	0.09543865
24	0xbce9ddf4	-0.028548218
25	0x3df505a4	0.119639665
26	0xbcd94799	-0.026523398
27	0xbde9c3d5	-0.11414305
28	0x3d0c0ed8	0.034193844
29	0xbd51b5a8	-0.05119863
30	0xbe8fd660	-0.28093243
31	0xbdafa98f	-0.085772626
32	0x3dbea87c	0.093094796
33	0x3d38a71a	0.045081235
34	0x3d9c8682	0.07642843
35	0xbc3d539a	-0.011555577
36	0x3e548a8b	0.20755975
37	0x3c085659	0.008321368
38	0x3d2ae1f6	0.0417194
39	0x3deb2895	0.1148235
40	0xbdd5415d	-0.10412858
41	0xbe0969e7	-0.13419305
42	0xbd8197af	-0.063277595
43	0x3cad5dfc	0.02116298
44	0x3e28c02b	0.16479556
45	0x3d44bdb9	0.048032496
46	0x3d991cb8	0.07476181
47	0xbdffda8d	-0.12492857
48	0xbd802fd5	-0.06259123
49	0xbd45e7ec	-0.04831688
50	0xbb13276c	-0.0022453917
51	0xbcaf60b8	-0.021408424
52	0x3c7fa084	0.015602235
53	0x3c6750a4	0.014118347
54	0x3c85e23d	0.01634323
55	0xbd30727f	-0.043077942
56	0x3d1ae951	0.037820164
57	0xbdc206bc	-0.09473941
58	0xbcf92aca	-0.030415911
59	0xbdcf3254	-0.10117021
60	0xbd38bf3c	-0.04510425
61	0xbda086c3	-0.07838204
62	0x3d759deb	0.059965055
63	0xbad2e7bd	-0.0016090792
64	0x3e7d556e	0.2473962
65	0x3e410ac1	0.18851759
66	0xbe15252b	-0.1456496
67	0x3de2473b	0.110487424
68	0xbe02451c	-0.12721676
69	0xbd9da5f9	-0.076976724
70	0x3d22df84	0.039763942
71	0x3b7ba3db	0.0038397226
72	0xbb98c1cd	-0.0046617747
73	0x3cf6d7d8	0.03013222
74	0xbe183b25	-0.14866312
75	0x3e893bb8	0.26803374
76	0xbc0d1c12	-0.0086126495
77	0xbd2322c3	-0.039828073
78	0x3e0a0e2d	0.1348197
79	0x3d8eaa21	0.06966043
80	0xbcb820d2	-0.022476587
81	0xbddf08d6	-0.10890357
82	0x3d969118	0.07351893
83	0x3cd2284f	0.025653986
84	0x3c213d5e	0.009841291
85	0xbc67cb5c	-0.014147606
86	0x3dafbfa0	0.085814714
87	0xbe80837a	-0.2510031
88	0xbd2d9c52	-0.042385407
89	0x3e423b85	0.18968017
90	0xbc48b419	-0.01224997
91	0xbd701a02	-0.058618553
92	0xbcaafaa9	-0.020871477
93	0x3db9e231	0.09076346
94	0xbe0b0006	-0.13574228
95	0xbd28aa99	-0.04117832
96	0xbd868a20	-0.06569314
97	0xbc96364a	-0.018336434
98	0xbdafa68f	-0.085766904
99	0x3d871a84	0.06596854
100	0xbe11c4bf	-0.14235209
101	0x3e18f935	0.14938815
102	0xbd19141c	-0.037372693
103	0xbd86dcc1	-0.06585074
104	0x3daadad7	0.08342522
105	0xbe1be700	-0.15224838
106	0xbe0e8326	-0.13917217
107	0x3e302c40	0.1720438
108	0x3e23af05	0.15984733
109	0x3ce3fb39	0.027829753
110	0xbd18da0f	-0.037317332
111	0xbc1a1837	-0.009405187
112	0xbdc36442	-0.09540607
113	0xbd827b00	-0.06371117
114	0xbcec53dd	-0.028848583
115	0xbe12f229	-0.1435019
116	0xbe08846c	-0.13331765
117	0xbda0ce2f	-0.078518264
118	0x3ce0812a	0.02740534
119	0x3de49bed	0.11162553
120	0xbadd672b	-0.0016891708
121	0x3e4eebc4	0.20207125
122	0xbd9fb8c4	-0.07798913
123	0xbe77acfe	-0.24187085
124	0x3d9cdb8a	0.07659061
125	0xbe4bc110	-0.19897866
126	0x3eb0f5f6	0.34562653
127	0xba96f24b	-0.0011516301
128	0x33cc6c54	9.519195e-08
129	0xbb2cd5b3	-0.0026372492
130	0x3b1b983a	0.0023741857
131	0x3cf0d021	0.029396119
132	0x3e001025	0.12506159
133	0x3e07f4ff	0.13277052
134	0x3d0b285e	0.033974044
135	0xbd286df9	-0.041120503
136	0xbd82b2dc	-0.06381771
137	0xbdf06d87	-0.11739641
138	0xbd6123a0	-0.054965615
139	0xbdb6bde0	-0.089229345
140	0x3a961082	0.0011449012
141	0x3d3829e8	0.04496184
142	0x3e3db932	0.18527678
143	0x3c4b7f73	0.012420523
144	0xbd954f0b	-0.07290467
145	0xbe61c292	-0.22046879
146	0xbe64d355	-0.22346242
147	0xbe7075a1	-0.23482372
148	0x3d68c57c	0.05682896
149	0x3e1121dc	0.14173073
150	0x3da16292	0.07880129
151	0xbe872b31	-0.2640014
152	0xbea160d7	-0.31519195
153	0xbd6d3c48	-0.057918817
154	0x3d2e43ca	0.042545117
155	0xbd025df5	-0.031827886
156	0x3c6fb6c9	0.014630982
157	0x3e15a46a	0.146135
158	0xbdc8e317	-0.09808939
159	0xbe346799	-0.17617644
160	0xbbb156b1	-0.0054119457
161	0x3d896720	0.06709123
162	0x3a9b699e	0.0011857038
163	0xbd07a994	-0.033120707
164	0xbe1128b2	-0.1417568
165	0xbe210735	-0.15725406
166	0xbc9676a7	-0.018367125
167	0xbd0f02c6	-0.034914754
168	0xbdfa7fdb	-0.12231418
169	0xbd5a8b64	-0.05335559
170	0x3d0c7f50	0.034301102
171	0x3dbab311	0.091161855
172	0x3e82e2d8	0.25563693
173	0xbd12690b	-0.035744708
174	0xbc393124	-0.01130322
175	0xbb768343	-0.003761486
176	0x3c688bbd	0.014193472
177	0x3da560a6	0.08075075
178	0xbb27f61f	-0.0025628877
179	0x3c9d8d7a	0.0192325
180	0xbe217870	-0.157686
181	0xbdb704e8	-0.08936483
182	0xbd817660	-0.06321406
183	0x3d5bd062	0.053665526
184	0xbd11013c	-0.035401568
185	0xbe88a9d3	-0.26692066
186	0xbdceb5cf	-0.10093271
187	0xbdd7c5a2	-0.10535742
188	0x3cbc5302	0.0229888
189	0x3dfafe44	0.122555286
190	0x3e02d113	0.12775068
191	0x3c32382a	0.010877648
192	0x3ce3de2f	0.027815906
193	0x3d921645	0.07133154
194	0x3d668261	0.056276683
195	0xbd99e242	-0.075138584
196	0x3d6c2aa5	0.057657856
197	0x3d81f560	0.0634563
198	0x3d121779	0.035666917
199	0x3beab571	0.007162743
200	0x3c96fa72	0.018429969
201	0xbd4ad3f7	-0.04951855
202	0xbc2207aa	-0.009889523
203	0x3e1d5a60	0.15366507
204	0xbd3ea347	-0.046542432
205	0x3d5cd1d1	0.053911034
206	0x3da5d2d9	0.080968566
207	0x3e32cfe6	0.1746212
208	0x3d089d27	0.033352997
209	0x3cd142ab	0.025544485
210	0x3ce3bf0e	0.027801063
211	0x3d8c3607	0.068462424
212	0xba12870c	-0.00055895816
213	0xbc83808c	-0.016052507
214	0x3ccae955	0.024769465
215	0xbc6489bd	-0.013948855
216	0xbcb8c43f	-0.022554515
217	0xbc71a067	-0.014747716
218	0xbcc34687	-0.023837341
219	0xbdb6d995	-0.08928219
220	0x3ca3fa0e	0.020016696
221	0xbcfef403	-0.031122213
222	0xbe00653e	-0.12538621
223	0xbdc304bd	-0.09522388
224	0xbcfcfde1	-0.030882778
225	0xbcf59506	-0.029978286
226	0x3d8db699	0.06919593
227	0xbc6a09f0	-0.014284596
228	0xbba18cd1	-0.0049301167
229	0xbd93a815	-0.072097935
230	0x3c5018ae	0.012701197
231	0x3c0a4035	0.00843816
232	0xbc496ea8	-0.012294449
233	0xbcd417b4	-0.025890209
234	0x3d513230	0.051073253
235	0x3d34ecb7	0.04417106
236	0xbc902c09	-0.017599123
237	0xbcdc5f9c	-0.026901059
238	0x3d40fc90	0.047115862
239	0x3d81503b	0.06314131
240	0xbd176171	-0.03695816
241	0x3cfa9849	0.030590193
242	0x3dd7c160	0.1053493
243	0xbd4363cb	-0.047702592
244	0x3d4b5256	0.04963907
245	0xbd1d1b68	-0.038356215
246	0x3d3bfe0f	0.045896586
247	0x3ce61b61	0.028089227
248	0xbcaee683	-0.02135015
249	0x3d59c100	0.053162575
250	0xbd046719	-0.032324884
251	0xbd62901b	-0.05531321
252	0x3d3d2bcc	0.046184346
253	0x3c6a67b1	0.0143069485
254	0x3d1b1a32	0.03786678
255	0x3bdcab61	0.006734297

bias f4 [128]
0	0xbdf34eac	-0.1188024
1	0xbc9115e9	-0.017710643
2	0x3d9f5645	0.077801265
3	0xbccd7801	-0.025081636
4	0x3d37756c	0.044789717
5	0x3b92c93a	0.0044795545
6	0xbd38df0d	-0.045134593
7	0xbc29900a	-0.010349283
8	0xbc0893ea	-0.008336047
9	0x3d125c8e	0.0357328
10	0xbd8fd57c	-0.07023141
11	0xbb5b0cb5	-0.0033424322
12	0xbd416f0c	-0.047225043
13	0xbda1cd5c	-0.07900497
14	0x3cc4dde2	0.024031583
15	0x3d02aec9	0.03190497
16	0xbd5ff892	-0.054680414
17	0xbd23f3f2	-0.040027566
18	0xbd006f67	-0.03135624
19	0xbd958fa0	-0.07302785
20	0xbc0d8e73	-0.00863992
21	0x80027c47	-2.28253e-40
22	0xbcc449f1	-0.02396104
23	0xbabc80e2	-0.0014381672
24	0xbd3c598e	-0.045983844
25	0x3c285f84	0.010276679
26	0x3cb991fa	0.022652615
27	0x3d93c533	0.07215347
28	0xbdba99bf	-0.09111356
29	0xbdd4bb36	-0.1038727
30	0xb255e50f	-1.2450314e-08
31	0xbdc2d362	-0.09512974
32	0xbce4db36	-0.02793656
33	0xbd9e97eb	-0.0774382
34	0xbdfa0980	-0.12208843
35	0x3dd986c7	0.1062141
36	0xbb989837	-0.0046568173
37	0x3d0ef617	0.03490266
38	0x3d577de7	0.052610304
39	0xbd6ccbd3	-0.05781157
40	0xbcd3231a	-0.025773574
41	0xbda35815	-0.07975785
42	0xbd8937e8	-0.067001164
43	0x3d3d96fd	0.04628657
44	0xb75e1fde	-1.3239651e-05
45	0x3bf71f43	0.0075415685
46	0xbd1c9de1	-0.038236503
47	0x3c64af8e	0.013957871
48	0xbb07f22a	-0.0020743706
49	0x3cb0bcb7	0.021574361
50	0x3d0d471a	0.034491636
51	0xbceb2ae7	-0.02870698
52	0xbb96e0bc	-0.004604427
53	0x3d3baab0	0.045817077
54	0xb7a64cb6	-1.9824463e-05
55	0xbd806970	-0.062701106
56	0xbcfcfd98	-0.030882642
57	0xbd056992	-0.032571383
58	0x3cbbbee0	0.022918165
59	0x3d397bd5	0.04528411
60	0xbd4daf52	-0.050216027
61	0xbbdfd30a	-0.0068305777
62	0xbcee0914	-0.029057063
63	0xbd9013e4	-0.07035044
64	0xbc43acb8	-0.011943035
65	0xbbb9aa4c	-0.005666053
66	0x3c310a59	0.01080569
67	0xbd8f9986	-0.07011704
68	0xbd37b6cb	-0.04485206
69	0x8fb3a14a	-1.7712889e-29
70	0x3d0763b4	0.03305407
71	0xbd82cd2e	-0.06386791
72	0x3bc27738	0.005934622
73	0xbdd03ebe	-0.10168217
74	0xbc987e14	-0.018614806
75	0xbd3d3ef8	-0.04620263
76	0xbd05a7ee	-0.032630853
77	0xbbbb68f0	-0.0057192966
78	0xbd9c4e43	-0.07632115
79	0x3d44c1f5	0.048036534
80	0x3c6cf26b	0.014462094
81	0xbb1aead9	-0.0023638515
82	0xbc61996d	-0.01376949
83	0xbc95da72	-0.01829264
84	0xbcd1310f	-0.025536088
85	0xbb5e2d97	-0.0033901685
86	0x3c634c0c	0.013873111
87	0xbdaf31f3	-0.08554449
88	0xbcc73050	-0.02431503
89	0xbd25202e	-0.040313892
90	0x3d10053d	0.035161246
91	0x3c8690a3	0.01642639
92	0xbd63e0c0	-0.05563426
93	0xbd2087cf	-0.039192017
94	0xbd8e3214	-0.069431454
95	0x3d3c7c56	0.046017013
96	0xbb4fbf78	-0.0031699818
97	0xbccefe9f	-0.025267897
98	0xbd564341	-0.052310232
99	0xba212c36	-0.00061482505
100	0x3cde9a52	0.027173195
101	0xbd2ae676	-0.04172369
102	0x3959a182	0.00020754899
103	0xbdef9f00	-0.11700249
104	0x3cd1208a	0.025528211
105	0x3c7b0200	0.015320301
106	0xbdd26024	-0.102722436
107	0xbd6dad16	-0.058026396
108	0xbd950050	-0.0727545
109	0xbdba9ad0	-0.091115594
110	0x3c91dec2	0.017806415
111	0x3bde72e8	0.0067886002
112	0xbbd3f4a5	-0.006468373
113	0xbd9cf820	-0.076645136
114	0xbd3b991c	-0.045800313
115	0xbcafec58	-0.021475002
116	0x3c4d4ff7	0.012531272
117	0xbc9fcccc	-0.019506834
118	0xbd9b9ccb	-0.07598265
119	0xbca25ad5	-0.019818703
120	0xbd0936d6	-0.03349956
121	0xbdb2fa97	-0.087392025
122	0xbdee81e9	-0.11645872
123	0xbd86f465	-0.06589583
124	0xbcddcedd	-0.02707618
125	0xbd5f01dc	-0.054445133
126	0xbd25d5c4	-0.040487066
127	0xbdd218b1	-0.10258616

weight f4 [64, 128]
0	0xbceddc29	-0.029035645
1	0x3d436125	0.047700066
2	0xbdab36ec	-0.08360085
3	0xbd3c1ec2	-0.04592777
4	0x3d526a8f	0.051371153
5	0xbc904fd0	-0.017616183
6	0xbe114d2c	-0.14189595
7	0x3bd5bd4a	0.006522809
8	0xbadbf730	-0.0016782042
9	0xbe10a7a5	-0.14126451
10	0xbd847a10	-0.06468594
11	0xbdf2c031	-0.11853064
12	0xbd9f1bf2	-0.07769002
13	0x3d1963ef	0.03744882
14	0x3d91f053	0.07125916
15	0xbeb3e316	-0.3513419
16	0xbda969bf	-0.082721226
17	0x3e0b0cbc	0.13579077
18	0x3cb88620	0.022524893
19	0xbc201acb	-0.009772013
20	0x3e5aa8d9	0.21353473
21	0x00017725	1.34577e-40
22	0x3d51f936	0.051263057
23	0xa6702aaf	-8.3324574e-16
24	0x3d83c9f4	0.06435004
25	0x3dae787d	0.08519075
26	0x3d51120d	0.051042605
27	0x3d916811	0.07099927
28	0x3d729327	0.059222367
29	0xbd2617d0	-0.040550053
30	0x80023df4	-2.05896e-40
31	0xbcdf4a43	-0.02725709
32	0x3c784490	0.015153065
33	0x3d03e01f	0.03219616
34	0x3ded7fcf	0.11596643
35	0xbb410968	-0.002945507
36	0xbd3a4755	-0.045478184
37	0xbd5fae5e	-0.05460965
38	0xbc85a3a7	-0.016313387
39	0xbd4e04c7	-0.050297525
40	0x3d8bcdd2	0.068263665
41	0xbe79f77e	-0.24410817
42	0xbd6dfbb2	-0.058101363
43	0xbde92eea	-0.11385901
44	0xbc9c82ee	-0.0191054
45	0xbb2c2183	-0.0026265092
46	0x3b88bd86	0.0041729836
47	0x3e05bb5e	0.13059756
48	0xbd133603	-0.03594018
49	0xbe175dd3	-0.14781885
50	0xbe039780	-0.12850761
51	0x3dbd01b1	0.09228838
52	0x3bd69d91	0.006549545
53	0xbe1cc142	-0.15308097
54	0xb08382e5	-9.568707e-10
55	0x3d81a304	0.06329921
56	0xbba7e694	-0.0051239226
57	0xbca60b7a	-0.020269144
58	0x3cefcb8c	0.029271863
59	0x3d15ca7f	0.03657007
60	0xbd0e7cd8	-0.03478703
61	0x3b0766e7	0.00206607
62	0xbc957a51	-0.018246802
63	0xbe59c52f	-0.21266626
64	0xbd4c2998	-0.049844354
65	0x3aebb743	0.0017983693
66	0xbcd8fa6d	-0.0264866
67	0xbc37ddf2	-0.0112223495
68	0x3e2b8019	0.16748084
69	0x000072bd	4.116e-41
70	0xbd65fe5b	-0.056150775
71	0xbdc15332	-0.09439696
72	0xbc25e2c0	-0.010124862
73	0x3c8ce054	0.017196812
74	0xbc9dae5b	-0.019248178
75	0x3ce603e8	0.028078035
76	0xbca69ad9	-0.020337509
77	0x3d4c1835	0.049827773
78	0xbda74985	-0.081683196
79	0x3d23e4b7	0.04001304
80	0xbd69412f	-0.05694693
81	0x3da0a7ad	0.078444816
82	0xbe8832da	-0.26601297
83	0xbd3d2345	-0.046176214
84	0xbcc7321e	-0.02431589
85	0xbe1a5522	-0.15071538
86	0x3d2de40c	0.04245381
87	0x3c8e76eb	0.017390689
88	0x3e190ec2	0.14947036
89	0x3c91b850	0.017788082
90	0xbd4b4df9	-0.049634907
91	0xbd9903a8	-0.074714005
92	0x3d6de7f2	0.05808253
93	0xbc1ad39a	-0.009449864
94	0xbb939030	-0.0045032725
95	0x3bcae7a6	0.0061921654
96	0x3dce4f7a	0.10073753
97	0x3dcc33ed	0.099708416
98	0xbd518278	-0.051149815
99	0x31bad3a8	5.437375e-09
100	0xbd862195	-0.06549374
101	0x3cebe4c8	0.028795615
102	0xbe4cbe66	-0.19994506
103	0x3d32a774	0.043616727
104	0xbd5eeda2	-0.054425843
105	0x3b1a1669	0.0023511893
106	0x3c92292b	0.017841896
107	0x3d6f6997	0.058450308
108	0xbdd409fb	-0.10353466
109	0xbd36401a	-0.044494726
110	0xbdcea1f3	-0.10089483
111	0xbd71839e	-0.05896341
112	0xbd27f4a2	-0.041004784
113	0x3cc817b8	0.024425372
114	0x3c4240e3	0.0118562905
115	0xbd8f13c6	-0.06986193
116	0x3e1ba5d8	0.15199983
117	0xbcbf52f5	-0.023354987
118	0x3d8b2980	0.06795025
119	0xbcda4820	-0.02664572
120	0xbe2c2238	-0.16809928
121	0x3cfb3e4e	0.030669358
122	0xbdd117a2	-0.10209586
123	0xbd7e019c	-0.062013254
124	0xbc10f07f	-0.008846401
125	0xbe18af9d	-0.14910741
126	0xbd8b63b6	-0.06806128
127	0xbe7c2068	-0.24621737
128	0x3bc052b0	0.005869232
129	0x3d79d29f	0.06099188
130	0x3ddf5cf7	0.109064035
131	0xbe59263e	-0.21205994
132	0x3b82a637	0.0039870995
133	0xbc759d8c	-0.014991175
134	0xbe0daf7e	-0.13836476
135	0x3d4b073d	0.04956745
136	0xbd9469e6	-0.07246761
137	0xbe5f2c11	-0.21794154
138	0xbd053a30	-0.032526195
139	0x3d5892c5	0.052874345
140	0xbcc32da8	-0.023825482
141	0x3df155de	0.11783956
142	0x3e09212a	0.13391557
143	0x3de7909e	0.113068804
144	0xbbec4058	-0.007209819
145	0x3b584a1d	0.003300316
146	0xbdf4b30f	-0.11948215
147	0xbcab67d9	-0.020923542
148	0x3ccf20b1	0.025284143
149	0x8000c8cc	-7.2032e-41
150	0xbd8f3627	-0.069927506
151	0xb3a0a896	-7.481246e-08
152	0xbd162137	-0.03665277
153	0x3ce1ec31	0.027578445
154	0xbcdf7ea6	-0.02728207
155	0xbd2bf052	-0.041977234
156	0xbcc7011c	-0.024292521
157	0xbd3ec62d	-0.046575714
158	0x0000d5f0	7.6746e-41
159	0xbccebe49	-0.02523722
160	0xbcd9397a	-0.026516665
161	0xbde563e9	-0.11200697
162	0xbdb13dd7	-0.08654373
163	0xbcce8cf1	-0.02521369
164	0xbe5322c5	-0.20618732
165	0xbe049dfe	-0.12950894
166	0xbe7920fb	-0.24328987
167	0xbda79b0a	-0.08183868
168	0x3df4f4b3	0.11960735
169	0xbde9f5f1	-0.11423863
170	0xbd340c01	-0.04395676
171	0x3df0112b	0.117220245
172	0xbc3d2342	-0.011544051
173	0x3dbd3156	0.09237926
174	0x3c3dee6b	0.011592488
175	0x3c18faee	0.00933717
176	0xbdc93027	-0.098236375
177	0x3c85862a	0.016299326
178	0x3cb14a13	0.021641767
179	0x3d1d707b	0.038437348
180	0x3ab057a3	0.0013453852
181	0xbe917040	-0.28405952
182	0xb35fa65e	-5.2072544e-08
183	0x3cb887ad	0.022525633
184	0x3d5b53c8	0.053546697
185	0xbcfe07b9	-0.031009542
186	0x3c9e9f27	0.019363
187	0x3ba82a14	0.005131969
188	0x3ce0f0df	0.027458606
189	0xbb95186e	-0.0045500314
190	0x3db1d22a	0.08682664
191	0xbeb12d78	-0.34605002
192	0x3d6a49c4	0.057199255
193	0x3887a241	6.467524e-05
194	0x3d1aadc4	0.037763372
195	0x3cacf0e9	0.021110969
196	0x3db3dadd	0.08781979
197	0x80005b74	-3.2807e-41
198	0xbd053be3	-0.032527816
199	0x3c1f7d36	0.009734442
200	0xbe2db45b	-0.16963331
201	0x3d94dcb6	0.0726866
202	0xbe08c28f	-0.13355468
203	0x3d379ace	0.044825368
204	0xbd71903c	-0.058975443
205	0x3d638b2a	0.05555264
206	0xbd0786c7	-0.033087518
207	0x3be93f71	0.0071181585
208	0x3d875605	0.06608204
209	0x3d83dc3b	0.0643849
210	0xbd292345	-0.0412934
211	0xbdb89867	-0.090134434
212	0xbd965f7d	-0.07342432
213	0x3d2272c2	0.039660223
214	0xbddfc861	-0.10926891
215	0xbe5d959c	-0.21639103
216	0x3df4bf41	0.11950541
217	0xbc9a035f	-0.018800436
218	0x3bb5be4b	0.0055463663
219	0x3c9f42fb	0.019441118
220	0x3c8d812b	0.017273506
221	0x3dc60a95	0.09669987
222	0xbc5e4a80	-0.013567567
223	0xbe07cf80	-0.13262749
224	0x3d3ad2ca	0.04561118
225	0xbd8600e3	-0.06543138
226	0xbda2b9c7	-0.079455905
227	0x0000ae2d	6.2482e-41
228	0xbdfb7104	-0.122774154
229	0x3dac14f0	0.08402431
230	0x3da5e3b9	0.08100075
231	0x3dc9d3fd	0.09854887
232	0x3cc2d624	0.02378375
233	0xbcefb242	-0.029259805
234	0x3cf13a4f	0.029446749
235	0x3d513999	0.05108032
236	0xbd8947d6	-0.06703155
237	0xbc1ed639	-0.009694629
238	0xbd96bac9	-0.07359845
239	0xbe1fd5d1	-0.15608908
240	0x3da12ae1	0.078695066
241	0xbd985ee1	-0.07439972
242	0x3ddc7b29	0.107656784
243	0x3cb7a64e	0.022418167
244	0xbc9cd976	-0.019146662
245	0xbd7a338b	-0.06108431
246	0x3af07e8b	0.001834826
247	0xbdad2464	-0.084542066
248	0xbead0560	-0.33793163
249	0x3c1d45ac	0.009599131
250	0xbd94cacb	-0.07265242
251	0x3d463b61	0.048396472
252	0xbc7a4faa	-0.015277782
253	0x3d2141f4	0.03936954
254	0xbd22931c	-0.039691076
255	0x3ca60584	0.020266302

bias f4 [64]
0	0x3d8853f2	0.06656636
1	0x3d83949a	0.06424828
2	0x3d188436	0.03723546
3	0x3d0b8d89	0.034070525
4	0x3ca142a3	0.019685095
5	0x3d30cdf8	0.043165177
6	0x3b909251	0.0044119735
7	0x3d202151	0.039094273
8	0x3cde5fef	0.027145354
9	0x3d461379	0.048358414
10	0x3d94c130	0.0726341
11	0x3d9b1874	0.075730234
12	0x396c65c8	0.0002254463
13	0x3d216bb4	0.039409354
14	0x3c755c11	0.014975564
15	0x3cba87a0	0.02276975
16	0xbbdf2916	-0.0068103177
17	0x3cb657ac	0.022258602
18	0x3d37492a	0.04474751
19	0x3d02e4ae	0.031956367
20	0x3d8b703a	0.06808515
21	0xbcfdcd88	-0.030981794
22	0x3cef46ee	0.029208627
23	0xba2e8dd8	-0.00066587096
24	0x3df85535	0.12125627
25	0xbca5fc01	-0.020261766
26	0x3da33e42	0.07970859
27	0x3d37bed5	0.044859726
28	0x3cb25d7c	0.021773092
29	0x3d14cc7c	0.036327824
30	0x3e0325bf	0.12807368
31	0x3d848341	0.06470347
32	0x3d83899c	0.06422731
33	0x3cae13ff	0.02124977
34	0x3d9febec	0.078086704
35	0xbc99c654	-0.018771328
36	0x3d0e4c04	0.034740463
37	0xbcbeefc0	-0.023307681
38	0x3d3d0b24	0.046153203
39	0x3e077398	0.1322769
40	0x3c98ef95	0.01866893
41	0x3df600df	0.12011885
42	0xbd2f65bd	-0.042821635
43	0x3e0210e4	0.12701756
44	0x3caefd31	0.021360965
45	0x3c7ba627	0.015359438
46	0x3b446875	0.0029969488
47	0x3c4f464f	0.01265104
48	0x3d9dadea	0.07699187
49	0x3dcf57bd	0.101241566
50	0x3d15af7f	0.03654432
51	0x3d13f003	0.036117565
52	0x3c6deb51	0.014521436
53	0x3d785ce3	0.06063546
54	0x3d984e5f	0.07436823
55	0x3cab234b	0.020890852
56	0x3c30b695	0.010785718
57	0xbbdeab91	-0.0067953547
58	0x3d45fb84	0.048335567
59	0xbc5e006d	-0.013549906
60	0x3db6bd12	0.08922781
61	0x3c2d5b47	0.010580844
62	0xbd8f4a1d	-0.06996558
63	0xbcb3a222	-0.021927897

weight f4 [16, 64]
0	0x3c661066	0.014041996
1	0xbd28edb3	-0.041242313
2	0x3c616f94	0.013759512
3	0xbc980cf7	-0.01856087
4	0x3a657d6f	0.0008754348
5	0xbd2b8eb5	-0.041884143
6	0xbe140b14	-0.14457351
7	0xbd175bda	-0.03695283
8	0x3d7652bc	0.060137495
9	0xbf06c4e8	-0.52644205
10	0x3ccc811c	0.024963908
11	0xbdf1904d	-0.11795101
12	0x3ce64f02	0.028113846
13	0xbe863907	-0.26215383
14	0x3a1c4d17	0.0005962415
15	0x3d330910	0.043709815
16	0x00030c87	2.8e-40
17	0xbe3abc3b	-0.18235867
18	0x3c436734	0.011926461
19	0x3cc2ac92	0.023763929
20	0x3dc25f35	0.094908156
21	0x3d9d3734	0.07676545
22	0xbcb2d665	-0.021830747
23	0x311135a9	2.113078e-09
24	0xbdd175d6	-0.102275535
25	0xbde63e04	-0.11242297
26	0xbd5609c4	-0.052255407
27	0x3dc90913	0.09816184
28	0x3d3c00b9	0.045899127
29	0x3bd6e3c3	0.006557913
30	0xbde00532	-0.10938491
31	0xbe924aed	-0.2857279
32	0x3c244811	0.010026948
33	0x3d4b54a6	0.049641274
34	0xbd5fb3ba	-0.05461476
35	0x3dbefbb5	0.09325353
36	0xbf10de0c	-0.56588817
37	0x3d91d95c	0.07121536
38	0x3cd780d0	0.02630654
39	0xbe065030	-0.13116527
40	0xbe21e598	-0.1581024
41	0xbe1f292f	-0.15543054
42	0x3dd51fb3	0.10406437
43	0xbd458df8	-0.048231095
44	0xbce7dbe8	-0.028303102
45	0xbecb4031	-0.39697412
46	0xbd0a1be8	-0.03371802
47	0x3d88e334	0.066839606
48	0x3d2f3962	0.042779334
49	0xbd2506f1	-0.040289823
50	0x3c396b6e	0.011317117
51	0x3c97919a	0.018502045
52	0x3b9f4180	0.004860103
53	0xbe2e163c	-0.17000669
54	0xbc569165	-0.013096188
55	0x3d0a13e9	0.033710394
56	0x3d65a9d4	0.056070164
57	0x3c9eaad0	0.01936856
58	0xbd9c5f1b	-0.076353274
59	0x3d19cc70	0.037548482
60	0xbca3c5f4	-0.019991852
61	0x3d51aa26	0.051187657
62	0xbaacb19c	-0.001317549
63	0x3d21595a	0.039391853
64	0xbe8cd5fa	-0.27507
65	0xbb9c0eda	-0.0047625126
66	0x3d0cce91	0.034376685
67	0xbe76d3f9	-0.24104299
68	0xbea1ab3c	-0.31575954
69	0xbe9d3003	-0.30700693
70	0x3d68716d	0.056748796
71	0x3dc5ab49	0.09651811
72	0xbc8a199f	-0.01685792
73	0xbe3f2c20	-0.18669176
74	0xbe1ed026	-0.1550909
75	0xbd909065	-0.07058791
76	0x3c83f05b	0.016105821
77	0xbccb2690	-0.024798661
78	0x3dda3163	0.10653951
79	0xba2243ed	-0.00061899313
80	0x80031698	-2.83612e-40
81	0x3c8f75af	0.01751217
82	0xbd62e8f3	-0.05539794
83	0xbe20be10	-0.15697503
84	0x3cfdfb42	0.031003598
85	0xbe004139	-0.1252488
86	0xbca5dc6a	-0.020246703
87	0x34a9b7f3	3.1612544e-07
88	0xbd840394	-0.06445995
89	0x3e1c54fd	0.15266795
90	0x3e1e7753	0.15475206
91	0x3d3d83ad	0.046268154
92	0xbe0d9781	-0.13827325
93	0x3d18903d	0.03724693
94	0xbd2a4448	-0.041569024
95	0x3ea06fd0	0.31335306
96	0x3dfa3b41	0.12218333
97	0x3d392d55	0.045209248
98	0xbe13cfcd	-0.14434738
99	0x3df6cb39	0.120504804
100	0x3c74c225	0.014938866
101	0x3da05236	0.078281805
102	0xb8c4e031	-9.387767e-05
103	0xbaae9c83	-0.0013321791
104	0xbb8bed17	-0.0042702067
105	0xbd11ff31	-0.03564376
106	0x3d0754a7	0.033039715
107	0xbd5c516a	-0.05378858
108	0xbe33c893	-0.17556982
109	0xbc8b9ed0	-0.017043501
110	0x3d9dbf20	0.0770247
111	0x3d193d31	0.037411872
112	0xbdbf5bcb	-0.0934368
113	0xbd860b25	-0.065450944
114	0xbe04c45c	-0.1296553
115	0xbd3ba1d9	-0.045808647
116	0x3c33a900	0.010965586
117	0xbe7271e5	-0.2367626
118	0xbc75ee68	-0.015010454
119	0x3b84d034	0.00405314
120	0x3abf5ed1	0.0014600401
121	0xbe8ad933	-0.27118835
122	0x3cf90894	0.030399598
123	0x3c800041	0.015625121
124	0x3ca42f42	0.020042066
125	0xbc0d778d	-0.00863446
126	0x3d7be554	0.061498
127	0x3bdd4266	0.0067523
128	0x3d94dbb8	0.072684705
129	0xbbbc6556	-0.005749385
130	0x3da45b0c	0.08025178
131	0x3dbf1713	0.09330573
132	0x3c305534	0.0107625015
133	0x38d89508	0.00010327442
134	0xbd71aa8e	-0.059000544
135	0xbdb7e84d	-0.08979855
136	0xbcdb68e3	-0.026783412
137	0xbc1a4ec9	-0.009418198
138	0x3df11db9	0.11773247
139	0xbd369bf7	-0.044582333
140	0xbd4eeae8	-0.050516993
141	0x3d9df3a5	0.07712487
142	0x3d91d9e0	0.071216345
143	0xbc02ef30	-0.007991597
144	0x37ed15f3	2.8262823e-05
145	0x3cc7dbd3	0.024396813
146	0x3c621b49	0.013800451
147	0x3d9682b8	0.073491514
148	0x3d3885eb	0.04504959
149	0xbc66a310	-0.014076963
150	0x3ccd4049	0.025055068
151	0x9fd64385	-9.074423e-20
152	0xbba253da	-0.0049538435
153	0x3ca5df7a	0.020248163
154	0xbd885050	-0.066559434
155	0x3d23d0b5	0.03999396
156	0xbcbc3b8f	-0.022977619
157	0xbdf5c8f2	-0.12001218
158	0xbd16bb2c	-0.036799595
159	0x3e199601	0.14998628
160	0x3c97788d	0.0184901
161	0xbce97cc8	-0.028501883
162	0xbb5e12a6	-0.0033885627
163	0xbab60506	-0.0013886995
164	0x3d636657	0.05551752
165	0xbc2f7a06	-0.010710245
166	0x3c2ebca0	0.010665089
167	0xbd160940	-0.036629915
168	0xbcad5745	-0.021159777
169	0xbb8cdec7	-0.004299018
170	0xbd2308da	-0.039803363
171	0xbca77232	-0.020440195
172	0x3ce99b72	0.028516505
173	0x3c8d623e	0.01725876
174	0xbd091723	-0.03346933
175	0x3d87e063	0.06634595
176	0xbda5526b	-0.080723606
177	0xbd65a727	-0.056067612
178	0xbd0700d5	-0.032959778
179	0x3d237f01	0.039916042
180	0x3b495b27	0.0030724497
181	0x3d454753	0.048163723
182	0x3ddb7149	0.10714967
183	0x3bfb4dbf	0.00766918
184	0xbaf2ae3d	-0.0018515062
185	0x3d1dc96d	0.038522173
186	0xbd8f07df	-0.06983923
187	0xbe799762	-0.24374154
188	0x3ae6e9c3	0.0017617274
189	0xbd9bd682	-0.076092735
190	0xbd4728db	-0.048622947
191	0xbda007d2	-0.078139916
192	0x3e01baa8	0.1266886
193	0x3db2a33f	0.08722543
194	0x3dd13802	0.10215761
195	0x3da24295	0.07922856
196	0x3c564631	0.013078258
197	0x3bd2d10e	0.0064336127
198	0x3d538907	0.05164435
199	0xbe109ced	-0.14122362
200	0x39950302	0.00028421736
201	0xbb6f4170	-0.003650751
202	0x3dd07463	0.10178449
203	0xbd87fa60	-0.06639552
204	0xbd785eea	-0.060637392
205	0x3cc56c63	0.024099534
206	0x3dd5bbf2	0.10436238
207	0xbc2f8841	-0.010713638
208	0x37c6d1d2	2.3701145e-05
209	0xb9307761	-0.0001682914
210	0xbd4afc59	-0.049557064
211	0x3cf5deda	0.03001349
212	0x3d518f77	0.05116221
213	0xbd3ef614	-0.046621397
214	0xbb663fba	-0.0035133199
215	0x15a9e702	6.862302e-26
216	0x3ba51046	0.0050373403
217	0xbda47295	-0.08029667
218	0xbda81bcc	-0.08208427
219	0x3d28360e	0.041067176
220	0xbd6f8303	-0.058474552
221	0xbe3230e4	-0.17401463
222	0x3c47f0df	0.012203424
223	0x3dad00fa	0.08447452
224	0x3d61fd5a	0.055173256
225	0xbb1315e7	-0.0022443475
226	0x3c878057	0.01654069
227	0x3d8ff42e	0.070289955
228	0x3dfd1259	0.12357015
229	0xbc8df452	-0.017328415
230	0x3bd3c705	0.006462934
231	0xbd53fb5b	-0.051753383
232	0xbb068710	-0.002052728
233	0xbd0a08be	-0.033699743
234	0xbe0019d1	-0.12509848
235	0xbd00cf8a	-0.031447925
236	0x3d5c5f44	0.05380179
237	0x3d8db0f5	0.069185175
238	0x3d441d07	0.047879245
239	0x3d85dce2	0.06536271
240	0xbd9d1e11	-0.0767175
241	0xbcbae6a6	-0.02281506
242	0x3d72156c	0.05910246
243	0xbb89900d	-0.0041980804
244	0xbd3245b5	-0.04352351
245	0x3c8aa88c	0.016926073
246	0x3ca4208b	0.020035049
247	0xbc238c78	-0.009982221
248	0x3cfea75c	0.031085663
249	0xbd374d7e	-0.044751637
250	0xbdfcbb36	-0.12340395
251	0xbeea735e	-0.45791143
252	0x3c665520	0.014058381
253	0xbe7782c2	-0.24170974
254	0xbdc566c1	-0.096387394
255	0xbdd2ca63	-0.102925085

bias f4 [16]
0	0x3d70e031	0.058807556
1	0x3d2843bb	0.041080218
2	0x3d2ced55	0.042218525
3	0x3d362d9b	0.044477087
4	0x3d8fd4c7	0.07023006
5	0x3d34f6d4	0.044180706
6	0x3d3b3cbe	0.045712225
7	0x3deaca5e	0.1146438
8	0x3d379f97	0.04482993
9	0x3d556003	0.052093517
10	0x3d5bfc74	0.053707555
11	0x3cc7f686	0.024409544
12	0xbdf48928	-0.11940223
13	0x3d35a5bd	0.044347513
14	0xbd1c54be	-0.038166754
15	0x3d47468f	0.048651274

weight f4 [3, 16]
0	0x3cfe23ea	0.031022985
1	0xbde959e0	-0.113940954
2	0x3d695c43	0.056972753
3	0x3d4c92c2	0.049944647
4	0xbd0eaa02	-0.0348301
5	0x3ceb0799	0.028690146
6	0x3e120055	0.14257939
7	0x3d509a1c	0.05092822
8	0x3d3eccd1	0.046582047
9	0x3dd4c737	0.1038956
10	0xbe0d8370	-0.1381967
11	0xbc87ea46	-0.016591202
12	0x3c483480	0.012219548
13	0x3d6d99ee	0.058008127
14	0xbe24433c	-0.16041273
15	0xbd6955df	-0.05696666
16	0xbc9a1f6c	-0.018813811
17	0xbddf9393	-0.109168194
18	0x3da60866	0.081070706
19	0x3d967f2c	0.07348475
20	0x3b116758	0.0022186842
21	0xbc90eb6a	-0.01769038
22	0x3e2c9536	0.16853794
23	0x3d9316b4	0.07182065
24	0x3daff183	0.085909866
25	0x3e000a75	0.12503989
26	0xbd28c6ad	-0.041205097
27	0x3cdd0b77	0.026983006
28	0xbdb89fd5	-0.090148605
29	0x3d9fda9f	0.078053705
30	0xbe4cbe28	-0.19994414
31	0x3b7219f9	0.003694175
32	0xbe07d5e4	-0.13265187
33	0xbdd7c8d7	-0.10536354
34	0x3d6bb3e0	0.05754459
35	0x3dcf231d	0.10114119
36	0x3dd39aa5	0.103322305
37	0xbea17fbd	-0.3154277
38	0x3e7a9404	0.24470526
39	0x3e838caf	0.2569327
40	0x3df49caf	0.119439475
41	0xbe3d77bd	-0.18502708
42	0x3e8f0c4b	0.27939066
43	0x3ebfd0a5	0.3746387
44	0xbc2c720f	-0.010525241
45	0x3deb8728	0.115003884
46	0x3cc78bd8	0.024358675
47	0x3e6fa02f	0.23400949

bias f4 [3]
0	0x3f7a8ccf	0.97871107
1	0x3f67b083	0.9050371
2	0x3f397b59	0.7245384
