models/TEV/O/model1.pt (torch, 422913 bytes, 12 tensors)

weight f4 [128, 384]
0	0xbc7c920e	-0.0154156815
1	0xbc896f23	-0.016776627
2	0x3d62a9bd	0.055337656
3	0xbd726fa1	-0.05918849
4	0xbba93d5f	-0.0051647867
5	0xbbdbf9ac	-0.006713113
6	0x3df6262a	0.12018998
7	0x3d58e6e4	0.05295457
8	0xbd3208b0	-0.043465316
9	0xbead9d63	-0.3390914
10	0xbe24aeca	-0.16082302
11	0x3cb7a7d7	0.0224189
12	0xbdef62ea	-0.11688788
13	0xbe34ad3b	-0.17644207
14	0xbea3e934	-0.32013857
15	0x3e78c4f3	0.2429388
16	0xbce54aef	-0.027989833
17	0x3cf6c13f	0.030121444
18	0xbd3daf1b	-0.04630957
19	0xbdc2c23e	-0.09509705
20	0xbec30bbe	-0.38094896
21	0xbe04d0c0	-0.12970257
22	0x3cb1c34e	0.021699574
23	0x3e2c5f89	0.16833319
24	0xbe441ef4	-0.19152433
25	0xbf20ece9	-0.62861496
26	0xbf0d3a2e	-0.551669
27	0xbe8d51f7	-0.27601597
28	0xbf1dd23b	-0.6164891
29	0xbf4eb357	-0.807424
30	0x3f2306f3	0.6368248
31	0x3f96d656	1.178416
32	0xbbc37fd3	-0.0059661656
33	0xbe147737	-0.14498602
34	0xbcee3778	-0.029079184
35	0xbd9f2e70	-0.07772529
36	0xbe17f3aa	-0.14839044
37	0xbe701184	-0.23444182
38	0x3e1a19bd	0.15048881
39	0x3ca9abf4	0.020711876
40	0xbd5d5600	-0.054037094
41	0xbe602410	-0.21888757
42	0x3caa241a	0.020769168
43	0x3dd091b4	0.10184041
44	0xbed45004	-0.41467297
45	0xbebd647c	-0.36990726
46	0xbeb0c50a	-0.3452533
47	0xbe611013	-0.21978788
48	0x3d0e40c2	0.034729727
49	0xbdcb062f	-0.09913289
50	0xbd585f6c	-0.052825376
51	0x3ce748b1	0.028232904
52	0x3dd50a5f	0.10402369
53	0x3d88cac1	0.06679297
54	0xbdb3f4bf	-0.08786916
55	0xbe80077c	-0.2500571
56	0xbed404a2	-0.41409785
57	0x3e79648b	0.2435476
58	0x3f00418c	0.50100017
59	0x3d340af7	0.04395577
60	0xbed4f083	-0.41589746
61	0xbea42c69	-0.32065132
62	0xbf202937	-0.6256289
63	0xbdcb7f5c	-0.09936401
64	0x3d17c0ca	0.037049092
65	0x3d9bbf61	0.07604862
66	0x3bd18ab5	0.006394709
67	0xbe8d5bd2	-0.27609116
68	0xbdbedb33	-0.09319153
69	0x3ced5154	0.028969444
70	0x3d7c575a	0.061606742
71	0xbe0375bb	-0.1283788
72	0xbdb8151e	-0.08988403
73	0xbe96ecb8	-0.29477477
74	0xbd758ce6	-0.059948824
75	0x3b38dd86	0.002820821
76	0x3bd31257	0.0064413953
77	0x3df36966	0.118853375
78	0x3dc2fbef	0.09520709
79	0x3dd43827	0.10362273
80	0xbef18425	-0.4717113
81	0xbe0e2c6d	-0.13884135
82	0xbd8544b5	-0.065072455
83	0x3cb16098	0.021652505
84	0x3be5256a	0.0069929855
85	0x3e051128	0.12994826
86	0x3e0854c7	0.1331359
87	0x3bfaf3f4	0.007658476
88	0x3d5b33a5	0.05351605
89	0x3d966bdd	0.07344792
90	0x3e316023	0.1732183
91	0x3e1a0d09	0.15044035
92	0xbe106a0b	-0.14102952
93	0x3d5ea851	0.054359738
94	0xbec5e607	-0.3865206
95	0x3d471ab9	0.04860947
96	0xbd6fe98d	-0.05857234
97	0xbe120bad	-0.14262266
98	0x3e13e911	0.14444377
99	0xbd77fa83	-0.06054164
100	0x3cda6e14	0.026663817
101	0x3daeb960	0.08531451
102	0xbe2c38c9	-0.16818537
103	0xbe0b662d	-0.13613196
104	0xbca3f38c	-0.020013593
105	0x3d9128be	0.07087849
106	0x3dc9e71b	0.09858533
107	0x3ddbc42a	0.10730775
108	0x3d760147	0.060059812
109	0xbd26fc60	-0.040768027
110	0xbd7edb1b	-0.062220674
111	0xbd8ae11c	-0.067812175
112	0x3d015c1f	0.031581994
113	0xb94e3f47	-0.00019669264
114	0x3db1a2db	0.0867364
115	0xbdb2cd20	-0.08730531
116	0xbd5f0fa1	-0.054458264
117	0x3d4d22b2	0.050081916
118	0x3e1e3c17	0.1545261
119	0x3d3a6fa9	0.045516644
120	0x3eac4e43	0.3365346
121	0x3d018fe1	0.031631354
122	0x3d87196f	0.06596648
123	0xbeadd4d6	-0.33951443
124	0xbe710990	-0.23538804
125	0xbd4453fd	-0.04793166
126	0xbc0af6ce	-0.008481694
127	0xbd77248f	-0.0603376
128	0x3b5b6894	0.0033479081
129	0xba000bc6	-0.0004884567
130	0xbbd32f30	-0.006444834
131	0xbd9fe932	-0.0780815
132	0xbd8220dd	-0.063539244
133	0xbcdebe10	-0.027190238
134	0x3d671098	0.05641231
135	0x3c170edc	0.009219851
136	0x3c8796c7	0.016551388
137	0xbd068afe	-0.032847397
138	0x3dfe6239	0.12421078
139	0x3e3ca388	0.18421757
140	0x3c6d91c5	0.014500086
141	0x3e1cc9e1	0.15311386
142	0x3e8036bd	0.25041762
143	0x3d70c5fc	0.058782563
144	0xbd4f766d	-0.05065005
145	0xbe66faad	-0.22556563
146	0xbe709d10	-0.23497415
147	0x3e502979	0.2032832
148	0x3d816816	0.06318681
149	0x3d16c307	0.036807086
150	0x3e818d4c	0.25303113
151	0x3e43bce2	0.19115022
152	0xbe5addcf	-0.21373676
153	0xbbab2be8	-0.00522374
154	0x3e315165	0.17316206
155	0x3e383aa3	0.17991118
156	0x3e9937f5	0.29925504
157	0x3eabf81a	0.33587724
158	0x3e2cbe42	0.16869453
159	0x3e8e557e	0.277996
160	0x3c824f58	0.015906975
161	0xbca30be2	-0.019903127
162	0x3e6678e8	0.2250706
163	0x3de593be	0.1120982
164	0x3d989e11	0.07452024
165	0x3d0b64aa	0.034031548
166	0x3d23cd9c	0.039991006
167	0xbd803cd4	-0.06261602
168	0x3d10461b	0.035223108
169	0x3d42aa38	0.047525615
170	0x3c87b6be	0.01656663
171	0x3d8ae9b3	0.06782856
172	0x3ce3b60e	0.027796771
173	0x3c9bb146	0.019005429
174	0xbd21ab4a	-0.039469995
175	0xbc5c94a9	-0.013463178
176	0x3d7240b0	0.059143722
177	0x3dc3e962	0.095659986
178	0xbde99193	-0.11404719
179	0xbe009dfb	-0.12560265
180	0xbe3e9184	-0.18610197
181	0xbe788462	-0.2426925
182	0x3d9c8ef2	0.07644452
183	0x3d7bebb9	0.0615041
184	0xbebe73b7	-0.37197658
185	0xbe9d958e	-0.30778164
186	0xbf08e9e3	-0.5348188
187	0xbf0ded2d	-0.55440027
188	0xbf001fc6	-0.5004848
189	0xbe2f69d7	-0.17130218
190	0xbd8ce443	-0.06879475
191	0x3dacf0e3	0.08444383
192	0xbc093aa4	-0.008375797
193	0x3b6798f5	0.0035338972
194	0x3e2f9517	0.17146717
195	0x3d66c3c5	0.056339044
196	0x3e45702b	0.1928107
197	0x3e7fe825	0.249909
198	0x3b9e8fe5	0.004838931
199	0x3c00a6a8	0.007852234
200	0x3cab936d	0.020944322
201	0xbd3643e6	-0.044498347
202	0x3cbbfa22	0.022946421
203	0x3e4ab868	0.19796908
204	0xbce0a878	-0.027424082
205	0xbd1e3fd9	-0.03863511
206	0xbdbbda95	-0.091725506
207	0x3e591496	0.21199259
208	0x3d2ee5fe	0.042699806
209	0xbd8f7f2f	-0.0700668
210	0xbd4199de	-0.04726588
211	0x3e15b485	0.14619644
212	0x3e825a42	0.25459486
213	0xbea25b46	-0.3171026
214	0xbdddd454	-0.10831514
215	0x3c718e9f	0.014743476
216	0x3ea39016	0.31945866
217	0x3ecfa587	0.40555975
218	0xbecee481	-0.4040871
219	0xbe03598b	-0.12827127
220	0x3e60b521	0.21944095
221	0xbeefd168	-0.46839452
222	0xbea4ca88	-0.3218577
223	0xbd125ce9	-0.035733137
224	0x3b925f6c	0.0044669416
225	0x3bef2a24	0.0072987247
226	0x3b8023ca	0.0039105164
227	0x3976b6c4	0.00023528474
228	0xb9e55112	-0.00043738686
229	0xb9438559	-0.00018646325
230	0x3a50af70	0.00079607125
231	0xb9a4f04e	-0.00031459559
232	0xbdca4e05	-0.09878162
233	0xbd15a2a9	-0.036532078
234	0xbe79beee	-0.2438924
235	0xbedbc73a	-0.42925435
236	0xbe993d27	-0.29929468
237	0xbe947527	-0.2899563
238	0xbd7a1a22	-0.06106008
239	0x3e231698	0.15926588
240	0xbe729a88	-0.23691761
241	0x3d96f1d2	0.07370342
242	0xbc846d6f	-0.016165463
243	0xbe449c6d	-0.19200297
244	0x3ea26e44	0.3172475
245	0x3e457cc4	0.19285876
246	0x3e5a7260	0.21332693
247	0x3de14959	0.11000318
248	0xbeaf36f9	-0.34221628
249	0xbe3ee937	-0.18643652
250	0xbca32bc8	-0.019918337
251	0x3e15a84a	0.14614978
252	0x3df8e7b2	0.121535674
253	0x3e207d5a	0.15672818
254	0x3e4c97ea	0.19979826
255	0x3dfb267f	0.12263202

bias f4 [128]
0	0xbd4b620a	-0.049654044
1	0xbd4af49a	-0.049549676
2	0xbd139ccf	-0.036038216
3	0xbca927f6	-0.020648938
4	0x3cf0e8d5	0.029407898
5	0xbcf70d06	-0.030157577
6	0xbcce4a50	-0.02518192
7	0xbd804acb	-0.062642656
8	0xbc5e5a7a	-0.013571376
9	0x3cd4a9ed	0.025959933
10	0x3bbd414a	0.0057756053
11	0xbd863091	-0.06552232
12	0x3b34a37b	0.0027563262
13	0xbb867e29	-0.004104395
14	0xbcc79811	-0.024364503
15	0xbb971a4a	-0.004611288
16	0xbd84d8e9	-0.06486685
17	0xbced15b5	-0.028941015
18	0xb988d49e	-0.00026098354
19	0xbc01613f	-0.00789672
20	0xbc9b4cb5	-0.018957475
21	0xbdb76d40	-0.08956385
22	0xbda0945a	-0.07840796
23	0xbd0074c4	-0.031361356
24	0xbd493ff9	-0.049133275
25	0xbd76f8b2	-0.060295768
26	0x3d3c26e8	0.04593554
27	0xbd33cfa2	-0.043899186
28	0xbd092db1	-0.03349084
29	0x3cdbac6b	0.026815614
30	0xbd56cc5f	-0.052440997
31	0xbdcdd145	-0.100496806
32	0xbd919499	-0.07108421
33	0xbd133f4b	-0.035949033
34	0xbcf613e5	-0.030038783
35	0xbd2de3a2	-0.042453416
36	0xbd862fa5	-0.06552056
37	0xbce226ee	-0.027606454
38	0x3cd733c9	0.02626981
39	0x3a8ef276	0.0010905999
40	0xbd35d892	-0.04439599
41	0xbd14e653	-0.036352467
42	0xbc984ae5	-0.0185904
43	0xbdb80eae	-0.08987175
44	0xbd5fce52	-0.05464012
45	0xbc563bc7	-0.0130757755
46	0xbc39a561	-0.011330933
47	0xbd5944c2	-0.05304409
48	0x3afd6d39	0.0019334919
49	0xbdcc6a18	-0.09981173
50	0xbd34c862	-0.044136412
51	0xbad1ec1f	-0.0016015804
52	0xbd90e7b1	-0.07075442
53	0xbc25bdca	-0.01011605
54	0xbb93a431	-0.004505657
55	0x3bbca25f	0.005756661
56	0xbce8d16c	-0.028420173
57	0xbd723cc7	-0.059139993
58	0x3c7d32e3	0.015454027
59	0xbd5f4eff	-0.054518696
60	0xbd0f2e13	-0.03495605
61	0xbcb55eb4	-0.022139885
62	0xbd08a29b	-0.033358198
63	0xbd47763b	-0.048696738
64	0xbbf471be	-0.007459848
65	0xbdaad43a	-0.0834126
66	0xbcb138d3	-0.021633541
67	0xbc0fd667	-0.008779145
68	0x3cbcbf13	0.02304033
69	0xbc32621d	-0.01088765
70	0xbc9dba87	-0.019253982
71	0x3c8bddec	0.017073594
72	0xbca7cc66	-0.020483207
73	0xbdc01ee5	-0.09380893
74	0xbd7c90c1	-0.061661486
75	0xbdb6af38	-0.08920139
76	0xb9f6714c	-0.0004700519
77	0xbd5c69d8	-0.053811878
78	0xbd70b69e	-0.058767907
79	0xbc952c4a	-0.018209595
80	0xbd080db8	-0.03321621
81	0xbd29cb46	-0.041453622
82	0x3ae6e4c9	0.0017615791
83	0xbca0eb7e	-0.019643541
84	0xbcc478d4	-0.023983397
85	0xbd865f13	-0.06561103
86	0x3caa176d	0.020763123
87	0xbc7c6007	-0.015403754
88	0xbd818a1e	-0.06325172
89	0xbda53672	-0.08067025
90	0xbd054ecc	-0.03254585
91	0xbd688c0e	-0.05677419
92	0xbd3e6f35	-0.046492774
93	0xbc8eee8a	-0.017447729
94	0xbce9ded8	-0.028548643
95	0x3ba17ace	0.0049279695
96	0x3b873774	0.0041264836
97	0xbd450be2	-0.048107035
98	0xbdb2fd36	-0.087397024
99	0xbda7af45	-0.08187727
100	0x3cc67df8	0.024229988
101	0xbc7515f2	-0.014958845
102	0xbd84684e	-0.06465207
103	0xbc903a0c	-0.017605804
104	0xbde816f4	-0.11332503
105	0xbd780534	-0.060551837
106	0xbd6e8aab	-0.058237713
107	0xbd297f4f	-0.041381177
108	0xbc8bb998	-0.017056271
109	0xbd99f516	-0.075174496
110	0xbc85746f	-0.016290871
111	0xbd0efc07	-0.03490832
112	0xbd2b2ddd	-0.041791786
113	0xb615ad24	-2.2303511e-06
114	0xbcc65472	-0.024210189
115	0xbc3cbf2b	-0.011520187
116	0x3cb0c908	0.021580234
117	0xbd9110bc	-0.0708327
118	0xbd8ea10e	-0.069643125
119	0xb7ec38ab	-2.815978e-05
120	0xbd563419	-0.052295778
121	0xbd000ef2	-0.031264253
122	0xbd367061	-0.044540767
123	0x3c968ece	0.018378641
124	0xbcd3ddce	-0.0258626
125	0xbd9cb865	-0.07652358
126	0xbc8c8039	-0.017150985
127	0x39149148	0.00014168501

weight f4 [128, 128]
0	0x3e84e772	0.2595783
1	0xbc0924d6	-0.008370599
2	0xbd837254	-0.06418291
3	0xbe96bdd8	-0.29441714
4	0x3ccfa170	0.025345534
5	0xbdcfd69c	-0.10148355
6	0x3e12b28f	0.14325927
7	0x3e0e7eca	0.13915554
8	0x3c38e0cc	0.0112840645
9	0xbed9e954	-0.42560828
10	0xba265a47	-0.000634585
11	0xbd819406	-0.06327061
12	0xbd5d9fbc	-0.054107413
13	0xbe1abdce	-0.15111467
14	0xbb4932e3	-0.0030700497
15	0x3a2ab9ae	0.0006512654
16	0x3e2f347b	0.17109863
17	0xbeb5f871	-0.35541108
18	0x3d0b79d1	0.03405172
19	0x3d87e260	0.066349745
20	0x3d5d3032	0.05400104
21	0x3d05fd57	0.032712307
22	0x3c307d72	0.010772096
23	0xbda2140e	-0.079139814
24	0x3e128390	0.14308
25	0xbdbe9335	-0.09305421
26	0xbe8e5e92	-0.27806526
27	0x3df550e8	0.11978322
28	0xbc19c52a	-0.0093853865
29	0xbe08c854	-0.13357669
30	0xbd708ac5	-0.05872609
31	0x3dcf95c9	0.10135991
32	0xbd732633	-0.0593626
33	0xbc9feebb	-0.019523015
34	0xbd2617da	-0.04055009
35	0xbdf1e395	-0.11810986
36	0xbd5298b3	-0.051415157
37	0xbd05e665	-0.032690424
38	0xbdb2bb0f	-0.08727085
39	0xbd349a9d	-0.044092763
40	0x3dbd5818	0.09245318
41	0x3d3ac88b	0.04560141
42	0xbdcfb370	-0.10141647
43	0x3c458b7e	0.012057183
44	0x3c3ebd09	0.011641749
45	0x3d90e832	0.07075538
46	0xbe7e9dee	-0.24864933
47	0x3df1e5fc	0.11811444
48	0x3deb508b	0.11489972
49	0x3c09e6e4	0.008416865
50	0xbe652780	-0.2237835
51	0xbd211628	-0.03932777
52	0x3e01a0e1	0.12659027
53	0x3dbd40d5	0.09240881
54	0x3c55a488	0.013039716
55	0xbe409f88	-0.18810856
56	0x3dc1edd9	0.09469194
57	0xbb9c5159	-0.0047704396
58	0x3ddd1149	0.107943125
59	0x3d7aa0c4	0.061188474
60	0xbd983d58	-0.074335754
61	0xbe2cf0ee	-0.16888782
62	0x3c6790d3	0.01413365
63	0xbc203f82	-0.009780766
64	0x3e3332e9	0.1749989
65	0x3cf900a9	0.030395823
66	0xbd7b166a	-0.061300673
67	0xbd9c93fd	-0.07645414
68	0xbda14a93	-0.07875552
69	0x3c1eb1c9	0.009685942
70	0xbe0dff27	-0.13866864
71	0xbdd4fdb4	-0.103999525
72	0xbcc387f8	-0.023868546
73	0x3d905a16	0.070484325
74	0xbde74e82	-0.11294271
75	0x3e85611a	0.26050645
76	0xbd0acbab	-0.03388564
77	0xbd2994ca	-0.041401662
78	0x3c078ead	0.008273763
79	0x3ad90865	0.0016558288
80	0xbd9f9c78	-0.07793516
81	0x3b82cb7c	0.0039915424
82	0x3d40725f	0.046984073
83	0xbcf7c8a6	-0.030247044
84	0x3db10563	0.086436056
85	0x3e175c22	0.1478124
86	0xbd9aeeae	-0.07565056
87	0xbd0e21e4	-0.03470029
88	0xbd2ef349	-0.042712484
89	0x3dfdd53a	0.12394185
90	0xbdccbc43	-0.099968456
91	0x3d790e08	0.060804397
92	0xbe8084a0	-0.25101185
93	0xbda26769	-0.0792988
94	0xbe4c9592	-0.19978932
95	0x3dc06fdf	0.09396338
96	0xbda34fcc	-0.079742044
97	0x3de2b0e2	0.11068894
98	0x3e2cf484	0.1689015
99	0x3daf3cc3	0.08556511
100	0xbe31a044	-0.17346293
101	0xbdd8fa87	-0.10594659
102	0xbd914b40	-0.07094431
103	0xbc4b602f	-0.012413069
104	0xbdef595c	-0.11686966
105	0x3d5c4024	0.053772107
106	0x3dc37219	0.09543247
107	0xbe3bd0ad	-0.18341322
108	0x3e06c31d	0.13160367
109	0x3da90f37	0.08254855
110	0xbdc6db86	-0.097098395
111	0xbe0e2fd4	-0.13885432
112	0xbee63c81	-0.44968036
113	0xbdf2740c	-0.118385404
114	0xbb37804b	-0.0028000053
115	0xbcd2ce50	-0.025733143
116	0x3de4dcce	0.11174928
117	0x3c46708c	0.012111794
118	0x3d5a1722	0.053244717
119	0x8a0dcef6	-6.827828e-33
120	0x3e250dda	0.16118565
121	0xbeb30c4e	-0.34970325
122	0xbe62fd80	-0.22167015
123	0x3c82f758	0.015987083
124	0xbd85405b	-0.065064155
125	0x3e980392	0.29690224
126	0x3e2e4fcd	0.17022629
127	0xbcc0b7a7	-0.023525072
128	0x3da6472a	0.08119042
129	0x3d283060	0.04106176
130	0xbd6e4724	-0.058173314
131	0x3db214e6	0.08695392
132	0xbdb72c07	-0.089439444
133	0xbd3bbacb	-0.045832437
134	0xbd39c5cc	-0.04535465
135	0xbe939d9e	-0.2883119
136	0xbe8ff134	-0.2811371
137	0xbd031d29	-0.03201023
138	0xbe630d2d	-0.22172995
139	0xbe31c336	-0.17359623
140	0x3d65f501	0.056141857
141	0xbdbde45d	-0.092720725
142	0x3e31e398	0.17371976
143	0x3dbf58e3	0.09343126
144	0xbdcdd7da	-0.10050936
145	0x3db556eb	0.08854469
146	0xbe35a673	-0.17739277
147	0x3cd3f2dd	0.025872642
148	0xbda4e7a7	-0.08051997
149	0x3d77adc2	0.060468443
150	0x3b74e3b4	0.0037367167
151	0x3e1b2fcc	0.15154952
152	0xbe8164f4	-0.25272334
153	0x3e1a3c5b	0.15062086
154	0xbe111e49	-0.14171709
155	0x3e4102db	0.18848746
156	0xbca17b97	-0.019712253
157	0xbdb186f8	-0.08668321
158	0xbdf92d10	-0.12166798
159	0x3bb2599b	0.0054428107
160	0xbe202267	-0.15638123
161	0xbdba2350	-0.090887666
162	0xbb302be7	-0.0026881637
163	0xbd7c65ae	-0.061620407
164	0xbd48b793	-0.049003195
165	0x3d89711c	0.06711027
166	0xbdc636e5	-0.09678439
167	0x3d9a1399	0.07523269
168	0x3da2b707	0.07945066
169	0x3d12a26b	0.035799425
170	0xbe0ca11e	-0.13733336
171	0xbd979031	-0.07400549
172	0x3db2615d	0.08709977
173	0x3d5de901	0.054177288
174	0x3cc08a6e	0.023503508
175	0x3e3c999b	0.18417971
176	0xbd4b85c3	-0.049688112
177	0x3d5ff930	0.054681003
178	0xbcf1300a	-0.029441852
179	0xbdcb3926	-0.099230096
180	0x3d3d39e6	0.046197794
181	0xbdddee7e	-0.108365044
182	0x3de08c5c	0.109642714
183	0xbde38ad0	-0.11110461
184	0xbe5fcdde	-0.21855876
185	0x3e03bfaf	0.1286609
186	0xbdc31f9b	-0.09527513
187	0xbe3108a6	-0.17288455
188	0xbe3753da	-0.1790308
189	0xbe60922a	-0.21930757
190	0xbe0cf324	-0.13764626
191	0xbd521dbc	-0.05129789
192	0xbd78b4d8	-0.06071934
193	0x3999260a	0.00029210775
194	0x3da7e3ea	0.08197768
195	0xbe33c928	-0.17557204
196	0x3e09f2d6	0.13471541
197	0x3ce1580d	0.027507806
198	0xbdf77f55	-0.120848335
199	0xbdec5e12	-0.1154138
200	0xbe174949	-0.1477405
201	0xbd909a20	-0.07060647
202	0x3d39a4f1	0.045323316
203	0xbe688008	-0.2270509
204	0x3e07e7aa	0.13271967
205	0xbe715688	-0.23568165
206	0xbda380e9	-0.07983572
207	0x3db6f67f	0.08933734
208	0x3dd256dd	0.10270474
209	0xbda68367	-0.08130532
210	0x3df263c9	0.11835439
211	0xbd5a4608	-0.053289443
212	0xbe1777e3	-0.14791827
213	0x3bff2933	0.0077868938
214	0xbe0b63b4	-0.13612252
215	0x3d570271	0.052492563
216	0xbd01621d	-0.03158771
217	0xbdec2526	-0.11530523
218	0xbe1b0f5c	-0.15142578
219	0x3cd27961	0.025692644
220	0xbe41c087	-0.189211
221	0x3d933c2b	0.071892105
222	0xbe16076b	-0.14651267
223	0x3e22455b	0.1584677
224	0xbc538591	-0.012910263
225	0x3d8c6842	0.06855823
226	0xbd1aee3a	-0.037824847
227	0xbe18c185	-0.14917572
228	0xbe8313b6	-0.25600976
229	0x3daaa996	0.08333127
230	0xbce42151	-0.027847918
231	0xbdf837d4	-0.12120023
232	0xbd45b510	-0.048268378
233	0xbe01401e	-0.12622115
234	0x3e09aa69	0.13443913
235	0xbd7f907f	-0.06239366
236	0x3d11cb30	0.035594165
237	0xbc137aa5	-0.009001409
238	0xbd99ca43	-0.075092815
239	0xbd82f685	-0.06394676
240	0xbe3d9402	-0.18513492
241	0xbe0cc5a3	-0.13747267
242	0xbda5e38e	-0.08100043
243	0x3d900485	0.07032112
244	0xbd897165	-0.067110814
245	0xbd984bd0	-0.07436335
246	0x3daf6b8a	0.08565433
247	0x8770531e	-1.8080019e-34
248	0xbd10fa8a	-0.035395183
249	0x3e855c8a	0.26047164
250	0xbdc8f63f	-0.09812593
251	0xbd30a95a	-0.043130256
252	0x3dc2d667	0.0951355
253	0x3e69bd83	0.22826199
254	0xbd64af80	-0.055831432
255	0x3eb523b9	0.35378817

bias f4 [128]
0	0xbc7e50e0	-0.015522212
1	0x3d83df3c	0.06439063
2	0xbd477e0c	-0.048704192
3	0x3d1b2027	0.03787246
4	0xbcf1e78f	-0.029529361
5	0x3cdb6e1f	0.026785908
6	0x3d03e3e1	0.032199744
7	0xbcf96a16	-0.030446094
8	0xbd9d4cef	-0.076806895
9	0xbba06407	-0.0048947367
10	0xbd491c5e	-0.04909932
11	0x3d9bd8a1	0.07609678
12	0xbd27d64b	-0.04097585
13	0x3d3ea46f	0.046543535
14	0xbd1d664d	-0.03842764
15	0x3d84b8d3	0.06480565
16	0xbd6130ad	-0.05497806
17	0x3d243db0	0.040097892
18	0xba00c77f	-0.000491254
19	0xbcd55594	-0.026041783
20	0x3d56d999	0.05245361
21	0xbd519ceb	-0.05117504
22	0x3c9cecfb	0.01915597
23	0xbdbaa804	-0.09114078
24	0xbd5350b8	-0.05159065
25	0xbd1410b2	-0.036148734
26	0x3d9885af	0.07447373
27	0xbc1cbe79	-0.009566897
28	0xbcbe2c85	-0.023214588
29	0xbdaa329f	-0.083104365
30	0xbd9b51d0	-0.07583964
31	0x3dd6fe86	0.10497765
32	0xbc8bd07d	-0.017067188
33	0x3c6555f3	0.013997543
34	0x3b8851b0	0.0041601285
35	0x3d0e0048	0.034668237
36	0x3dc8a33b	0.09796759
37	0xbd2e6bb9	-0.0425832
38	0xbdcfd744	-0.101484805
39	0x3cb53211	0.0221186
40	0x3d18eaa1	0.037333135
41	0x3cdf828e	0.027283933
42	0x3bd03b08	0.0063546933
43	0xbd91cf5f	-0.07119631
44	0x3caaa2ed	0.020829642
45	0x3d580836	0.052742206
46	0xbcc6f1de	-0.024285253
47	0x3d1da640	0.038488626
48	0x3ad3fefe	0.0016174016
49	0x3c592bc5	0.013255064
50	0x3deaa61e	0.114574656
51	0x3b17cd80	0.002316326
52	0xbcc7215b	-0.024307897
53	0x3c2d1e48	0.010566302
54	0xbbf82a43	-0.0075733974
55	0xbd695325	-0.05696406
56	0xbda08a63	-0.07838895
57	0x3ce87887	0.028377784
58	0x3d81fae4	0.06346682
59	0xbd0eb543	-0.034840833
60	0xbd3bdf2d	-0.045867134
61	0xbc1c5e74	-0.009544004
62	0x3c85b880	0.016323328
63	0xbd8b19a9	-0.06792004
64	0xbd558b1a	-0.05213461
65	0x3dcca818	0.09992999
66	0xbd248dc3	-0.040174257
67	0x3db64d5f	0.08901476
68	0x3ca1f674	0.019770838
69	0xbd5d889e	-0.054085366
70	0x3cbd32c0	0.023095489
71	0xbd5e4254	-0.054262474
72	0xbd586ec7	-0.05284002
73	0x3d175dd0	0.0369547
74	0x3cef312d	0.029198254
75	0x3d80c8f7	0.06288331
76	0x3bd61557	0.0065333056
77	0xbcaf78d2	-0.021419916
78	0x3be496d2	0.006975987
79	0x3d4ebba2	0.05047191
80	0x3b94fec7	0.0045469734
81	0xbd50b1d0	-0.050950825
82	0xbc842bdc	-0.016134195
83	0x3d2fc02e	0.042907886
84	0xbcb2193d	-0.02174055
85	0xbc9caa7a	-0.019124258
86	0x3d041a2d	0.032251526
87	0x3d3586a3	0.044317853
88	0xbd8c79ed	-0.06859193
89	0x3bd5c700	0.006523967
90	0xbd2842ea	-0.04107944
91	0x3df23814	0.11827102
92	0x3d637c90	0.055538714
93	0x3cf042ea	0.029328782
94	0xbdc606fe	-0.096693024
95	0xbad88f20	-0.0016522147
96	0xbc40d33e	-0.011769114
97	0xbd5076fc	-0.050894722
98	0xbd219a3b	-0.039453726
99	0xbc7fe4c7	-0.01561851
100	0x3c3e6c58	0.011622511
101	0xbb01b7ee	-0.0019793469
102	0x3c4be870	0.012445554
103	0x3c48bfa5	0.012252723
104	0x3d437906	0.04772284
105	0x3d0830ad	0.033249546
106	0xbc89cd36	-0.016821485
107	0xbd886b67	-0.0666111
108	0x3c0f8768	0.008760311
109	0x3db11c08	0.08647925
110	0xbd675b38	-0.056483477
111	0x3be024f7	0.006840344
112	0x3c4e073e	0.012574969
113	0xbc78391d	-0.015150336
114	0x3cb4b12d	0.02205714
115	0x3da4176c	0.0801228
116	0x3cf5d5f9	0.030009257
117	0xbd609d59	-0.05483756
118	0xbc607f3d	-0.013702211
119	0xbd56fd78	-0.05248782
120	0x3d82806a	0.06372149
121	0x3dee371e	0.116316065
122	0xbc8c96d1	-0.017161759
123	0x3d2a11df	0.04152095
124	0xbcaf5e91	-0.021407397
125	0x3dbfc14a	0.09363039
126	0x3c9ef179	0.019402253
127	0x3d1a2f49	0.03764275

weight f4 [128, 224]
0	0x000094e1	5.3408e-41
1	0x800120c9	-1.03597e-40
2	0x000197a3	1.46233e-40
3	0x00012852	1.063e-40
4	0x80010bc1	-9.6052e-41
5	0x80002645	-1.3729e-41
6	0x000089fd	4.9501e-41
7	0x00005107	2.9067e-41
8	0x80018165	-1.38254e-40
9	0x8000d86a	-7.7635e-41
10	0x00002f5d	1.6991e-41
11	0x00019eb5	1.48769e-40
12	0x8001ebd7	-1.76439e-40
13	0x80013578	-1.11016e-40
14	0x8001c2a4	-1.6166e-40
15	0x0001a057	1.49355e-40
16	0x8001439a	-1.16086e-40
17	0x80017599	-1.34022e-40
18	0x00003b9d	2.1385e-41
19	0x8002776a	-2.26509e-40
20	0x00016d03	1.30942e-40
21	0x8000835c	-4.7123e-41
22	0x00028708	2.32111e-40
23	0x000160d1	1.26567e-40
24	0x00004cea	2.7592e-41
25	0x800264c4	-2.19819e-40
26	0x800256b8	-2.1478e-40
27	0x0001ef57	1.77694e-40
28	0x00016728	1.28841e-40
29	0x00025b6c	2.16467e-40
30	0x8001b191	-1.55534e-40
31	0x8001a8ba	-1.52363e-40
32	0x00026eff	2.23489e-40
33	0x0000c22e	6.9659e-41
34	0x00010771	9.4505e-41
35	0x00022cbe	1.99721e-40
36	0x8001625a	-1.27117e-40
37	0x8000d52a	-7.6469e-41
38	0x0001a50f	1.51047e-40
39	0x0000972c	5.423e-41
40	0x00007e05	4.5207e-41
41	0x00028806	2.32467e-40
42	0x8002337a	-2.02137e-40
43	0x00027722	2.26408e-40
44	0x80002dd5	-1.6441e-41
45	0x80028c49	-2.33996e-40
46	0x00014ea3	1.20045e-40
47	0x0001baa2	1.58787e-40
48	0x8001a4b4	-1.5092e-40
49	0x0000f768	8.8753e-41
50	0x0000b23e	6.3941e-41
51	0x00010693	9.4194e-41
52	0x0001e5ed	1.74317e-40
53	0x00026937	2.21415e-40
54	0x0001857b	1.39719e-40
55	0x8001d9ff	-1.70038e-40
56	0x8001a8d2	-1.52397e-40
57	0x000283b6	2.3092e-40
58	0x8001d8b7	-1.69578e-40
59	0x00023ca7	2.05429e-40
60	0x80023039	-2.0097e-40
61	0x80010333	-9.2983e-41
62	0x000178dc	1.35192e-40
63	0x80000483	-1.618e-42
64	0x8002c22f	-2.53331e-40
65	0x00011cea	1.02208e-40
66	0x8000490b	-2.6203e-41
67	0x0001697a	1.29673e-40
68	0x8002026b	-1.84538e-40
69	0x8000e22f	-8.114e-41
70	0x00013b6f	1.13156e-40
71	0x8001a541	-1.51117e-40
72	0x8001c66f	-1.6302e-40
73	0x0000ade3	6.2379e-41
74	0x800299cd	-2.38844e-40
75	0x80008fc8	-5.1579e-41
76	0x80009949	-5.4988e-41
77	0x00011a6a	1.01311e-40
78	0x0002045d	1.85236e-40
79	0x000282e1	2.30621e-40
80	0x8002739d	-2.25145e-40
81	0x80026799	-2.20835e-40
82	0x80000d25	-4.715e-42
83	0x00009f01	5.704e-41
84	0x8002a938	-2.44375e-40
85	0x00028873	2.3262e-40
86	0x80014796	-1.17516e-40
87	0x00003ec9	2.2523e-41
88	0x800156f9	-1.23035e-40
89	0x0002c207	2.53275e-40
90	0x8001e074	-1.72354e-40
91	0x80014723	-1.17355e-40
92	0x00021cf8	1.94063e-40
93	0x80023761	-2.03537e-40
94	0x0001863e	1.39993e-40
95	0x800280d7	-2.2989e-40
96	0x00012fb5	1.0895e-40
97	0x8001e2db	-1.73216e-40
98	0x80012af1	-1.0724e-40
99	0x00020585	1.85651e-40
100	0x80003f5b	-2.2728e-41
101	0x0000f5ed	8.8222e-41
102	0x0001c363	1.61927e-40
103	0x00023d5b	2.05681e-40
104	0x80020bcf	-1.87907e-40
105	0x800225e9	-1.9727e-40
106	0x00003f35	2.2674e-41
107	0x00015a9e	1.24343e-40
108	0x800114d3	-9.9306e-41
109	0x800147c1	-1.17576e-40
110	0x8001c809	-1.63595e-40
111	0x00027a72	2.27596e-40
112	0x80001bd2	-9.98e-42
113	0x80002bcd	-1.5713e-41
114	0x80027e60	-2.29006e-40
115	0x80021d3a	-1.94156e-40
116	0x000219c1	1.9291e-40
117	0x80023b57	-2.04958e-40
118	0x80009ed5	-5.6978e-41
119	0x800021ec	-1.2169e-41
120	0x00026cd9	2.22718e-40
121	0x000257fe	2.15237e-40
122	0x80028534	-2.31455e-40
123	0x000258cf	2.1553e-40
124	0x80018bf4	-1.42041e-40
125	0x0001606e	1.26428e-40
126	0x00005d6f	3.3518e-41
127	0x80013481	-1.1067e-40
128	0x0003864c	3.23683e-40
129	0x00006bde	3.8695e-41
130	0x00048cef	4.179e-40
131	0x80052640	-4.72899e-40
132	0x80047157	-4.08e-40
133	0x80006cda	-3.9049e-41
134	0x0000d7b4	7.738e-41
135	0x93b097c5	-4.4578302e-27
136	0x841f1a54	-1.870245e-36
137	0x8000f251	-8.6927e-41
138	0x00028bfc	2.33888e-40
139	0x80049b2c	-4.23007e-40
140	0x80035e9e	-3.09449e-40
141	0x00020daa	1.88573e-40
142	0x800171f7	-1.32718e-40
143	0x8001cde8	-1.65701e-40
144	0x00004598	2.4966e-41
145	0x00022db2	2.00063e-40
146	0xa6be2f0a	-1.3196648e-15
147	0x82996e5d	-2.2544675e-37
148	0x00014188	1.15344e-40
149	0x8001ddd6	-1.71415e-40
150	0x00028b7a	2.33706e-40
151	0x8002aa80	-2.44835e-40
152	0x0baff108	6.777021e-32
153	0xae837277	-5.977523e-11
154	0xab1959f3	-5.448135e-13
155	0x03a6bf77	9.800561e-37
156	0x0001f514	1.79753e-40
157	0x00020ddd	1.88644e-40
158	0x000058ba	3.1829e-41
159	0x0001af5b	1.54741e-40
160	0x8000ee95	-8.5587e-41
161	0x00049cc7	4.23583e-40
162	0x0001b32e	1.56113e-40
163	0x9ac8ae33	-8.2999495e-23
164	0xa34ed695	-1.1212722e-17
165	0x800164bc	-1.27972e-40
166	0x00031b06	2.852e-40
167	0x00007e4c	4.5307e-41
168	0x2c105e37	2.051593e-12
169	0xb0b13c10	-1.2895516e-09
170	0x08fe963e	1.5322391e-33
171	0x8003358a	-2.94713e-40
172	0x80020c89	-1.88168e-40
173	0x80014336	-1.15946e-40
174	0x80045a71	-3.99786e-40
175	0x000529f2	4.74225e-40
176	0x80055f96	-4.93467e-40
177	0x80042647	-3.81073e-40
178	0x00007f42	4.5652e-41
179	0x80021979	-1.92809e-40
180	0x18cf065c	5.3514667e-24
181	0x00021522	1.91252e-40
182	0x8003309c	-2.92944e-40
183	0x800049e2	-2.6504e-41
184	0x86aa43d6	-6.404657e-35
185	0xa6edff9f	-1.6514465e-15
186	0x00013f0a	1.1445e-40
187	0xa1762087	-8.339109e-19
188	0x312c0f09	2.503784e-09
189	0xa2308235	-2.3921379e-18
190	0x0001aee4	1.54574e-40
191	0x80027fe1	-2.29545e-40
192	0xae3fd674	-4.3618845e-11
193	0x1c5655aa	7.091738e-22
194	0x000110b5	9.7829e-41
195	0x80026ea6	-2.23364e-40
196	0x9c84f167	-8.797428e-22
197	0xb3730bb8	-5.6588505e-08
198	0x80016417	-1.27741e-40
199	0x17ba954b	1.2057655e-24
200	0x00015ceb	1.25168e-40
201	0x8000f913	-8.9351e-41
202	0x9ec43494	-2.0774053e-20
203	0x00013009	1.09067e-40
204	0x80026ec6	-2.23409e-40
205	0x96bb3267	-3.0243288e-25
206	0x000149b8	1.18281e-40
207	0xafd839e7	-3.9331313e-10
208	0x29cc0730	9.060667e-14
209	0x00015dfa	1.25548e-40
210	0x00012a56	1.07023e-40
211	0x0001eafd	1.76133e-40
212	0x0001e5ff	1.74343e-40
213	0x0f4a10d1	9.962608e-30
214	0x00013e22	1.14125e-40
215	0x8001e6f3	-1.74684e-40
216	0x80021828	-1.92337e-40
217	0x0001553b	1.2241e-40
218	0x26cc8a66	1.4192857e-15
219	0x8001de7c	-1.71648e-40
220	0x8000bd7e	-6.7977e-41
221	0x0002c946	2.55874e-40
222	0x80021d70	-1.94231e-40
223	0x2d17ffa3	8.640119e-12
224	0x3a99bb90	0.0011728872
225	0x3bd132b1	0.0063842167
226	0xbc52ae4c	-0.012858938
227	0xbc75e635	-0.015008499
228	0xbc748846	-0.014925068
229	0x3c58fd1a	0.013243938
230	0x3c849f2d	0.016189182
231	0x3c59f1b4	0.013302255
232	0x3a737675	0.0009287366
233	0xba7c5840	-0.00096261874
234	0x3b79eeec	0.0038136793
235	0xbcaaa7e7	-0.020832015
236	0xbb6c5a7d	-0.0036064677
237	0x3cefd9aa	0.029278595
238	0x3b132271	0.0022450949
239	0xbba8613a	-0.0051385434
240	0x3b7492a3	0.0037318848
241	0xbaf66b3f	-0.0018800272
242	0xbb87e286	-0.0041468767
243	0xbb24ec27	-0.0025165172
244	0xbabdafcf	-0.0014471951
245	0x3b4f1803	0.0031600005
246	0xbb6a3356	-0.0035736165
247	0xbae683a0	-0.0017586835
248	0xbbe55214	-0.00699831
249	0xbbb69539	-0.005571988
250	0xbc07abc4	-0.008280698
251	0x3cd502d0	0.026002318
252	0x3a37d1aa	0.00070121384
253	0xbbb12a9b	-0.0054066903
254	0x3b6bfccc	0.0036008833
255	0x3a52b733	0.0008038163

bias f4 [128]
0	0xb321972a	-3.7623217e-08
1	0xbccd9a4e	-0.025097992
2	0xbd742add	-0.05961119
3	0xbd881c82	-0.066460624
4	0xbd001547	-0.03127029
5	0x3d5d32fa	0.054003693
6	0x3c3c9463	0.0115099875
7	0xbd0f2fe7	-0.034957793
8	0xbd82dd6b	-0.063898884
9	0x3cf6aca8	0.030111626
10	0xbd41757e	-0.04723119
11	0xb7953d16	-1.779063e-05
12	0xbd8beb9a	-0.06832047
13	0xbdd3578a	-0.10319431
14	0xbd69b214	-0.057054594
15	0xbd818bec	-0.06325516
16	0xbdd088c4	-0.10182336
17	0xbd09d0d5	-0.033646423
18	0xbd4a71e4	-0.04942502
19	0xbd24ff0d	-0.040282298
20	0xbc0f1a95	-0.008734365
21	0xbc17b853	-0.009260255
22	0xbc11c3aa	-0.008896748
23	0xbe0c6e7a	-0.13714018
24	0x3a52eb3c	0.0008045917
25	0xbbb90a9b	-0.005647016
26	0xbdafbe3e	-0.08581208
27	0xbc7a5bb9	-0.015280657
28	0xbde15f94	-0.11004558
29	0xbbe38b1b	-0.006944073
30	0xbe0583c0	-0.1303854
31	0xbda7f259	-0.08200521
32	0xbced5227	-0.028969837
33	0xbdc657ed	-0.09684739
34	0xbb128dbb	-0.002236231
35	0xbdb3ad00	-0.087732315
36	0xbd5ee8a7	-0.054421093
37	0xbd1421b7	-0.036164965
38	0xbdb6099a	-0.0888855
39	0xbce56679	-0.028002964
40	0xbda4da91	-0.08049501
41	0xbd148764	-0.03626193
42	0xbe015157	-0.12628685
43	0xbda44dd5	-0.08022658
44	0xbdb138bb	-0.086533986
45	0xbdab0e97	-0.08352392
46	0xbcb2a730	-0.021808237
47	0xbdd83140	-0.10556269
48	0x3ceb811f	0.028748093
49	0x3d8a125f	0.06741785
50	0xba6b6e02	-0.0008980931
51	0xbc7b5be0	-0.015341729
52	0xbc79f4bf	-0.015256106
53	0x3c08f380	0.008358836
54	0xbd83af20	-0.06429887
55	0xbddcfd43	-0.10790493
56	0xbd4b19ee	-0.049585275
57	0x3c83cb14	0.016088046
58	0x3d1aff5f	0.037841197
59	0xbc7d9209	-0.015476712
60	0x3d75bff4	0.059997514
61	0xbd285501	-0.04109669
62	0xbd5dadda	-0.054120876
63	0xbdb86824	-0.09004238
64	0xbd83c7ae	-0.0643457
65	0xbdfa315b	-0.12216445
66	0xbd51c4b6	-0.05121299
67	0xbdc9537d	-0.09830377
68	0xbc873406	-0.016504299
69	0x3c022165	0.007942532
70	0xbbed043d	-0.0072331713
71	0x3ce12cfc	0.02748727
72	0x3c851ee2	0.016250078
73	0xbdd307b9	-0.10304207
74	0x3c839b16	0.016065162
75	0xbc529a04	-0.012854103
76	0xbc946585	-0.018114815
77	0xbdc84be5	-0.09780101
78	0x3c802d43	0.015646582
79	0xbd0912b6	-0.03346511
80	0xbd81d8dc	-0.06340191
81	0xbd69eb79	-0.05710933
82	0xbbbc8e39	-0.005754259
83	0xbde7abb4	-0.11312047
84	0xbd3d9109	-0.046280894
85	0xbdf47540	-0.11936426
86	0xbd481ac6	-0.04885366
87	0xbce09d12	-0.027418647
88	0xbdedb132	-0.11606063
89	0x3c00920a	0.007847318
90	0x3c8545ba	0.0162686
91	0xbd111567	-0.0354208
92	0xbd715c6d	-0.058926035
93	0xbc826eb2	-0.015921924
94	0xbd5245b9	-0.051336024
95	0xbcd85f99	-0.026412772
96	0xbd6de6da	-0.058081485
97	0xbdb30777	-0.08741658
98	0xbb8b6761	-0.004254267
99	0x3bb2e4d7	0.0054594087
100	0x3bd6f5e7	0.0065600756
101	0xbd6d2bbe	-0.057903044
102	0xbd81ded9	-0.06341333
103	0xbd47f31c	-0.04881583
104	0xbc70760c	-0.014676582
105	0xbda4252a	-0.08014901
106	0xbd30f8e4	-0.04320611
107	0xbcf35523	-0.029703682
108	0xbdd7a347	-0.105291896
109	0xbdcde58d	-0.10053549
110	0xbc63a26c	-0.013893705
111	0xbac9bea6	-0.0015391901
112	0xbd50085b	-0.05078922
113	0xbc22e303	-0.009941819
114	0xbd9883cb	-0.074470125
115	0xbd8889ba	-0.06666894
116	0xbd73249d	-0.05936109
117	0xbd89824b	-0.067143045
118	0xbc56bf12	-0.013107078
119	0x3bbf63c9	0.0058407527
120	0x3cc4f0c7	0.024040593
121	0xbc70864f	-0.014680459
122	0xbb618aa4	-0.0034414912
123	0xbce9282c	-0.028461538
124	0xbcb35d39	-0.021895038
125	0x3d77a1a4	0.060456887
126	0x3d78f0ab	0.060776394
127	0x3da0c507	0.0785008

weight f4 [64, 128]
0	0x8000ce03	-7.3903e-41
1	0x3a12a06a	0.00055933616
2	0xbddcaf4f	-0.10775625
3	0xbc40c0b9	-0.011764699
4	0xbe40aedd	-0.18816705
5	0x3b1d43a8	0.0023996625
6	0x3d19f7ff	0.037590023
7	0xbcb5bba8	-0.022184208
8	0xbe01f9a8	-0.12692893
9	0xbda2c671	-0.07948006
10	0xbe2f2daf	-0.1710727
11	0xab8e547f	-1.0113159e-12
12	0x3dacb576	0.084330484
13	0x3c9de717	0.019275231
14	0x3caa0f23	0.02075917
15	0xbc8ca6c9	-0.017169373
16	0xbd871ec8	-0.06597668
17	0xbc6e020d	-0.014526856
18	0xbd358475	-0.044315774
19	0x3ce446df	0.027865825
20	0x3c88e87a	0.016712416
21	0x269e11f4	1.0968319e-15
22	0xbd8a3593	-0.067485
23	0xbe197821	-0.14987232
24	0xbd849321	-0.06473375
25	0x3b25e6e7	0.002531463
26	0xbd30432c	-0.04303281
27	0x3da800e4	0.08203295
28	0x3d09c7d7	0.033637848
29	0x3cc74e39	0.024329292
30	0xbc7b7778	-0.015348308
31	0x3df8c51e	0.12146972
32	0x3d6a3d99	0.05718765
33	0x3ac35fed	0.0014905907
34	0x19898ab2	1.4221487e-23
35	0x3e558b33	0.20853882
36	0xbd5af2ce	-0.053454213
37	0x3d776ee4	0.060408488
38	0xbd33b431	-0.043873016
39	0x3c372fb4	0.011180807
40	0x3d030695	0.0319887
41	0x3ca99a64	0.020703502
42	0xbe5dc29b	-0.21656267
43	0xbd01157f	-0.03151464
44	0xbc4c349b	-0.012463714
45	0xbd8f7b0d	-0.07005892
46	0x3bddf76a	0.006773879
47	0xbc2c0662	-0.010499569
48	0xbcd4ac6a	-0.02596112
49	0xbb8c7585	-0.0042864704
50	0x3d3d5fed	0.04623406
51	0xbd227789	-0.03966478
52	0xbd250fdb	-0.040298324
53	0x3b96f138	0.0046063922
54	0x3d2ade8a	0.041716136
55	0xbe4f38c4	-0.20236498
56	0x3df29f65	0.11846808
57	0x3defaec8	0.11703259
58	0x3d802df9	0.062587686
59	0xbc446d0a	-0.011988888
60	0xbd8cb881	-0.06871129
61	0x3df5c18a	0.11999805
62	0x3d584617	0.052801218
63	0x3d91cef3	0.071195506
64	0x3d616148	0.055024415
65	0x3cb59301	0.022164823
66	0x3e275f3e	0.16344926
67	0x3ca27551	0.019831331
68	0x3b4c2901	0.003115237
69	0xb9b8f97e	-0.000352811
70	0x3d9e96fc	0.07743642
71	0x3e0ffcdd	0.14061303
72	0xbb93c0be	-0.0045090606
73	0x3e3ad52e	0.18245384
74	0x3d79eb92	0.061015673
75	0x3d13fcc6	0.036129735
76	0xbe8499ea	-0.25898677
77	0xbe337d81	-0.17528345
78	0x3d019076	0.03163191
79	0xbca7e698	-0.020495698
80	0x3d0241f4	0.03180118
81	0x3cac9810	0.021068603
82	0x3cb63715	0.022243062
83	0x3e1352a0	0.14386988
84	0x3c58414e	0.013199164
85	0xbe759a03	-0.23984532
86	0x3d33a928	0.04386249
87	0x3c861df2	0.0163717
88	0x3ca7292c	0.020405374
89	0x3d4f37e4	0.05059041
90	0x3d2dd3af	0.042438205
91	0xbd226d79	-0.039655183
92	0x3bc00b5f	0.0058607305
93	0x3ce33c0c	0.027738594
94	0xbd5e246a	-0.054233946
95	0xbc6d8e5d	-0.014499274
96	0xbdf4a11f	-0.11944794
97	0x3e5e0a19	0.2168354
98	0x3d828b31	0.06374205
99	0xbdeeb9f9	-0.11656565
100	0x3d5328f0	0.051552713
101	0x3ba877a4	0.0051412154
102	0x3d79ea4c	0.06101446
103	0x3bfc822c	0.0077059474
104	0xbd892102	-0.06695749
105	0xbccdb4a6	-0.025110554
106	0xbaa66dc3	-0.0012697506
107	0xbdc1a67b	-0.09455582
108	0x3cf0e817	0.029407544
109	0x3b662493	0.0035117015
110	0x3bba888f	0.0056925486
111	0xbc0f9f26	-0.008765971
112	0xbcb81144	-0.02246917
113	0xbb828afa	-0.0039838525
114	0x3d9578ca	0.07298429
115	0x3c337a07	0.010954387
116	0xb76d1022	-1.4130057e-05
117	0xbd9a49f0	-0.07533634
118	0xbbad9ae9	-0.0052980077
119	0x3e3af309	0.18256773
120	0xbd28e2e3	-0.041232
121	0xbde45927	-0.11149817
122	0x3c885ddf	0.016646324
123	0xbe16368f	-0.1466925
124	0xbdb85a6c	-0.090016216
125	0xbd0349e3	-0.032052886
126	0xbe8101d7	-0.25196716
127	0x3bcfb40c	0.006338602
128	0x8000a684	-5.9735e-41
129	0xbcbfa367	-0.023393346
130	0xbe3cf47c	-0.18452638
131	0x39cc180a	0.00038927823
132	0x3dd89962	0.105761304
133	0xbd5de5c5	-0.054174203
134	0xbbadf7a9	-0.0053090644
135	0x3baf653c	0.0053526442
136	0xbd91365e	-0.07090448
137	0xbba72172	-0.0051004225
138	0x3dcd6a2f	0.100300185
139	0x0000ffd7	9.1778e-41
140	0xbe07feaa	-0.1328074
141	0xbbd7aed3	-0.00658212
142	0xbd9d1d31	-0.076715834
143	0xbcc65698	-0.024211213
144	0x3847c120	4.762516e-05
145	0xbe055ed2	-0.13024452
146	0xbe045ac3	-0.12925248
147	0xbe58ff23	-0.21191077
148	0xbc269dcd	-0.010169459
149	0x3befc758	0.007317465
150	0x396a7988	0.00022361253
151	0x3dcbb1eb	0.099460445
152	0xbdb6fab0	-0.089345336
153	0x3d1a16be	0.037619345
154	0x3daa2d24	0.08309391
155	0x3db8eae7	0.09029179
156	0xbcecc4ec	-0.028902493
157	0xbe3085b2	-0.172385
158	0xbd85b1ad	-0.065280296
159	0xbe3352a7	-0.17511998
160	0xbb6efa82	-0.0036465232
161	0x3bfa461a	0.0076377513
162	0x00026a15	2.21726e-40
163	0xbd8f0abf	-0.069844715
164	0x3e094c73	0.1340807
165	0xbd34aa48	-0.044107705
166	0xbd848d91	-0.06472314
167	0x3bed6f35	0.007245923
168	0xbb0459b6	-0.0020195073
169	0xbd29cedc	-0.041457042
170	0xbe3e4bb5	-0.18583567
171	0xbd6297bf	-0.055320498
172	0xbbef7ce4	-0.0073085893
173	0x3d29c9ca	0.041452207
174	0x29c828f7	8.8888905e-14
175	0x3cf13bbf	0.029447434
176	0xbcf0e1ae	-0.029404487
177	0xbda2b87e	-0.07945345
178	0xbe0a69ff	-0.13516997
179	0x3d75ca33	0.060007285
180	0xbd59c381	-0.053164963
181	0x3b96b6d7	0.004599433
182	0xbe8c19c0	-0.27363396
183	0xbd1f8f06	-0.038954757
184	0xbe873650	-0.26408625
185	0xbd8ada66	-0.067799374
186	0xbc9a696f	-0.018849103
187	0xbd67f566	-0.056630515
188	0xbe9e491a	-0.30915147
189	0xbdbc030c	-0.09180269
190	0xbaea7af5	-0.0017889427
191	0x3c52fbb6	0.012877395
192	0xbd982224	-0.07428387
193	0xbdf8f0ec	-0.12155327
194	0x3b6afafa	0.003585516
195	0xbda03edf	-0.07824492
196	0x3bd869ed	0.006604424
197	0x3c2ae11d	0.010429648
198	0xbdfcf6a2	-0.12351729
199	0x3c65baf5	0.014021625
200	0xbe67662e	-0.22597572
201	0xbe06fa94	-0.13181525
202	0x3d3dbb07	0.04632094
203	0xbe24bd4b	-0.16087835
204	0xbe40c645	-0.18825634
205	0xbcc8e622	-0.024523798
206	0xbc5717d6	-0.0131282415
207	0xbdbe0f40	-0.092802525
208	0xbe83a8e0	-0.2571478
209	0xbc7b7cbe	-0.015349565
210	0xbcdac620	-0.026705801
211	0xbe826571	-0.2546802
212	0x3c2c873d	0.01053029
213	0xbaf10365	-0.0018387852
214	0xbce51116	-0.027962249
215	0xbcd684c6	-0.026186358
216	0xbcd98373	-0.026551938
217	0xbd80b7a4	-0.06285027
218	0xbca7a3ee	-0.02046391
219	0xbe0f6723	-0.14004187
220	0x3cc3cc2c	0.023901068
221	0xbc860694	-0.016360559
222	0xbb355bcc	-0.0027673123
223	0xbc7dbea7	-0.01548735
224	0xbd322e45	-0.043501157
225	0xbd7c5803	-0.061607372
226	0xbd51b766	-0.051200293
227	0x3e09b379	0.1344737
228	0xbddda43f	-0.10822343
229	0xbe648f4d	-0.2232029
230	0xbe875987	-0.2643549
231	0xbda82d4e	-0.08211766
232	0xbd1186f5	-0.035529096
233	0xbe95bc8b	-0.2924541
234	0xbe31ca90	-0.17362428
235	0xbd787503	-0.060658466
236	0xbe1c6202	-0.15271762
237	0x3e01ad18	0.12663686
238	0xbeb8686d	-0.3601717
239	0xbc60defa	-0.013725037
240	0xbddfe97e	-0.10933207
241	0xbd47225b	-0.04861675
242	0xbd9fefda	-0.0780942
243	0xbc3e3795	-0.0116099315
244	0x3a90c8cb	0.0011046169
245	0xbe2e4ec8	-0.1702224
246	0xbe6e7129	-0.23285355
247	0x3b6df637	0.0036310086
248	0xbdef3429	-0.11679871
249	0xbca57850	-0.020198971
250	0xbc9cd37f	-0.019143818
251	0x3e79c6b4	0.24392205
252	0xbd472eeb	-0.04862873
253	0xbdaa1d99	-0.083064266
254	0xbcea4b8a	-0.028600473
255	0xbcbe62f5	-0.023240546

bias f4 [64]
0	0xbc466f10	-0.01211144
1	0x3e00a0eb	0.12561385
2	0xbaae0639	-0.0013277001
3	0xbcce2fad	-0.025169218
4	0x3e1775df	0.14791058
5	0x3dcb60d5	0.099305786
6	0x3c85cbe2	0.01633257
7	0x3e0750db	0.13214438
8	0x3b8691a3	0.0041067167
9	0x3c808c46	0.015691888
10	0xbd08efb6	-0.03343173
11	0x3af692ae	0.0018812025
12	0xbcca527d	-0.024697537
13	0x3be6f2ed	0.007048002
14	0xbd81d4b3	-0.06339397
15	0x3d43069f	0.047613736
16	0xbc97d609	-0.018534677
17	0xbcfe58b8	-0.031048164
18	0x3d0efe43	0.03491045
19	0x3be41ec3	0.006961675
20	0xbd6b16e2	-0.05739487
21	0x3c3b04f2	0.011414753
22	0x3d851828	0.06498748
23	0x3e22fcca	0.15916744
24	0x3c35b7f8	0.011091225
25	0x3bb0f9df	0.0054008807
26	0xbc1f1041	-0.009708465
27	0xbcc5a64e	-0.024127152
28	0xbc027cd4	-0.007964332
29	0x3d3c6c00	0.046001434
30	0x3d2e7c3f	0.04259896
31	0xbb011bf3	-0.0019700497
32	0x3bff4ef2	0.0077913934
33	0x3d3b7b55	0.045771915
34	0x3d953af2	0.072866336
35	0x3d0374de	0.032093875
36	0x3dbe5e37	0.09295314
37	0xbc9f5d16	-0.019453567
38	0xbd6f9edc	-0.05850111
39	0xbd96cf8f	-0.073638074
40	0xbabea00c	-0.0014543547
41	0x3d4ca3e0	0.04996097
42	0x3cd426fd	0.025897497
43	0x3e32f85e	0.17477557
44	0x3c84639f	0.016160784
45	0xbc4cb441	-0.012494148
46	0x3d2d014d	0.04223757
47	0x3de6495f	0.11244463
48	0xbd5e549a	-0.0542799
49	0x3caec9ab	0.021336397
50	0xbcde2c9e	-0.027120885
51	0x3de7aba4	0.11312035
52	0x3c3d1616	0.01154091
53	0x3d07fcd1	0.03320009
54	0x3caf83d8	0.021425173
55	0x3e1f5698	0.15560377
56	0x3d364eef	0.04450887
57	0x3d514004	0.05108644
58	0x3c2aa1e1	0.0104145715
59	0x3d234806	0.03986361
60	0xbb36462d	-0.0027812824
61	0x3c514e7d	0.012775061
62	0xbd4f4784	-0.050605312
63	0xbcfb60de	-0.030685838

weight f4 [16, 64]
0	0x3ce7bb55	0.028287569
1	0x3d009fc5	0.031402368
2	0xbc3e4a8b	-0.011614452
3	0x3d2864f4	0.0411119
4	0xbde52696	-0.11189
5	0x3d54c70c	0.05194764
6	0xbc83d9db	-0.016095093
7	0x3bb6ef6e	0.0055827415
8	0x3d9e1e32	0.07720603
9	0xbe51c93e	-0.20486924
10	0x3dc56e42	0.09640171
11	0xbe78e02b	-0.24304263
12	0xbe941920	-0.2892542
13	0x3de5de54	0.11224046
14	0x3dd3f671	0.10349739
15	0x3dee8f3c	0.116484135
16	0xbe0cbd84	-0.1374417
17	0x3d87f4a8	0.06638461
18	0x3dbeb140	0.093111515
19	0xbc91c084	-0.017791994
20	0xbdb494a7	-0.08817416
21	0xbe311098	-0.17291486
22	0x3c3cb04f	0.011516645
23	0x3d8c2fb5	0.06845037
24	0xbea6eb4b	-0.3260139
25	0xbd3a4e66	-0.045484923
26	0xbc1fbf98	-0.009750269
27	0x3d55988a	0.052147426
28	0x3d1ef89d	0.038811315
29	0xbdbd88da	-0.09254618
30	0x3d9d1b92	0.07671274
31	0x9a69ff10	-4.838931e-23
32	0xbe519cdc	-0.20469993
33	0xbb5c3a5f	-0.0033604128
34	0xbdab59c7	-0.08366733
35	0xbd5ef3d6	-0.05443176
36	0x3dad046e	0.084481105
37	0x3df0461c	0.11732122
38	0xbda6ae8b	-0.0813876
39	0xbe09f04f	-0.13470577
40	0x3db9dd3e	0.09075402
41	0xbc4c8518	-0.012482904
42	0x3d43ea4e	0.047830872
43	0x3d9e09aa	0.07716687
44	0x3de33ae1	0.11095215
45	0x3da72233	0.0816082
46	0xbd60ba48	-0.05486515
47	0x3d26cc02	0.0407219
48	0xbe9f3a10	-0.31098986
49	0xbdd91221	-0.10599161
50	0x3c3a9297	0.011387489
51	0x3d0e75f2	0.03478045
52	0xbe4cdebc	-0.20006841
53	0xbd97da43	-0.07414677
54	0xbcf39546	-0.029734265
55	0x3adbe87a	0.0016777657
56	0x3db5709f	0.088593714
57	0xbd906064	-0.07049635
58	0xbe86126c	-0.2618593
59	0x3d45e0b6	0.048310004
60	0x3d9860da	0.07440348
61	0x3db29d6f	0.08721434
62	0x3d705ec6	0.058684133
63	0x3db630b0	0.08896005
64	0x3d4335d0	0.04765874
65	0xbd430ab7	-0.04761764
66	0x3c9f5647	0.01945032
67	0x3d23d0e4	0.039994135
68	0x3c57a7e4	0.013162587
69	0x3d47971a	0.048728086
70	0xbd947a15	-0.07249848
71	0x3abb003a	0.0014267035
72	0x3e03ab5a	0.12858334
73	0xbdcd1cae	-0.10015236
74	0x3cde954c	0.0271708
75	0xbd5dfd76	-0.054196797
76	0x3c2778b2	0.010221647
77	0xbde06e81	-0.10958577
78	0xbd1204c3	-0.035649072
79	0x3d922b18	0.07137126
80	0x3d27a231	0.040926162
81	0xbdb625b7	-0.08893912
82	0x3c50d723	0.012746605
83	0xbb1f179f	-0.0024275554
84	0xbd1cd613	-0.038290095
85	0x3de8b828	0.1136325
86	0xbde5a351	-0.11212791
87	0x3b309b12	0.0026947898
88	0xbd01c252	-0.03167946
89	0xbaaa7e8a	-0.0013007682
90	0x3d7948bf	0.06086039
91	0x3c79b301	0.015240432
92	0xbdcc7b2d	-0.099844314
93	0x3dc7d422	0.09757258
94	0x3cf30418	0.029665038
95	0x000228f4	1.98362e-40
96	0xbe2220ac	-0.15832776
97	0xbdef4993	-0.11683955
98	0xbe0fde30	-0.14049602
99	0xbd90a58f	-0.07062828
100	0xbce99e76	-0.028517943
101	0xbd4c5cbf	-0.049893137
102	0x3b264689	0.0025371632
103	0x3d80555c	0.06266281
104	0xbe207c1b	-0.15672342
105	0xbe2405e5	-0.16017874
106	0x3d6194eb	0.05507366
107	0xbd8dd775	-0.06925861
108	0x3c239e96	0.00998654
109	0xbdcd3dcc	-0.100215524
110	0x3e306543	0.17226128
111	0x3d8bcdec	0.06826386
112	0xbd1055ac	-0.035237953
113	0x3d93bb6d	0.07213483
114	0x83b797b4	-1.0790603e-36
115	0x3da8dea7	0.082455926
116	0x3e3f4d5a	0.18681851
117	0xbd83d372	-0.06436814
118	0xbd06d351	-0.03291637
119	0x3dda8888	0.106705725
120	0x3c6f3f06	0.014602428
121	0x3d102c5b	0.03519855
122	0xbdaa10e5	-0.083040036
123	0xbdcc9218	-0.09988803
124	0x3d84cac3	0.06483986
125	0x3da05c3f	0.078300945
126	0x3b931f9b	0.0044898516
127	0xbd95f41e	-0.07321952
128	0xbd2c950f	-0.04213434
129	0xbe363ea1	-0.17797329
130	0x3dbd1abc	0.09233615
131	0xbd1b90b9	-0.037979815
132	0xbe19cecd	-0.15020294
133	0x3bffc252	0.007805147
134	0xbe836c14	-0.25668395
135	0xbd9b5664	-0.07584837
136	0x3dedb3f6	0.116065904
137	0xbe9601c9	-0.29298237
138	0x3cd81cfd	0.02638101
139	0xbd540554	-0.051762894
140	0xbe02759f	-0.12740181
141	0xbc0c483a	-0.008562142
142	0x3ce06371	0.027391167
143	0xbe3abd5d	-0.18236299
144	0xbd5bf2c2	-0.05369831
145	0xbbbf385a	-0.005835575
146	0x3bb919dd	0.005648835
147	0xbd97af24	-0.07406452
148	0x3d86faf4	0.06590834
149	0x3c2b9967	0.010473586
150	0x3d336820	0.043800473
151	0xbe26dfe1	-0.1629634
152	0xbd84eccf	-0.0649048
153	0xbd115fe2	-0.03549183
154	0x3b106902	0.0022035246
155	0x3c69c16c	0.014267307
156	0xbc3e084b	-0.011598657
157	0x3d8be81a	0.06831379
158	0xbea706cd	-0.32622376
159	0x8001a0ca	-1.49516e-40
160	0xbeb8c261	-0.360858
161	0xbe2ec887	-0.17068683
162	0xbd18f8e1	-0.037346724
163	0x3c7f46ad	0.015580815
164	0xbddbb52f	-0.107279174
165	0xbc1ce0b6	-0.00957506
166	0xbbd65efb	-0.0065420843
167	0x3a169647	0.0005744439
168	0x3ca91312	0.020638976
169	0xbe19020d	-0.14942189
170	0x3d10a09e	0.035309426
171	0xbd046110	-0.03231913
172	0xbb1460a1	-0.0022640603
173	0x3bde8e36	0.006791855
174	0xbe090a0a	-0.13382736
175	0xbede185f	-0.4337797
176	0xbe0a8594	-0.13527519
177	0xbb10eea2	-0.0022114892
178	0xbe4bec73	-0.19914417
179	0xbcc485d5	-0.023989597
180	0xbcc82ecf	-0.024436383
181	0xbdbd0552	-0.092295304
182	0xbd94caab	-0.07265218
183	0xbe9608ed	-0.29303685
184	0xbeac14cd	-0.3360962
185	0xbd1fb66c	-0.03899233
186	0xbe108c05	-0.14115913
187	0xbe25d9d6	-0.16196379
188	0x3c034276	0.008011451
189	0xbd43e6a6	-0.047827385
190	0x3c8c8535	0.017153362
191	0xbe03dbab	-0.12876765
192	0x3ca5472c	0.020175539
193	0xbd76e1de	-0.060273997
194	0x3afb85c0	0.0019189641
195	0xbc70fd77	-0.014708868
196	0xbd1285fa	-0.0357723
197	0xbd2f7850	-0.04283935
198	0xbe20ef80	-0.15716362
199	0xbd6cd5f4	-0.05782123
200	0xbd910b92	-0.07082285
201	0x3c9b50cd	0.018959427
202	0x3af06d80	0.001834318
203	0x3b1c0cf1	0.0023811425
204	0x3c227414	0.0099153705
205	0x3d26f91b	0.04076491
206	0x3cd2927d	0.025704617
207	0xbe153571	-0.14571168
208	0x3da13ea4	0.07873276
209	0x3bcb09cd	0.0061962367
210	0x3cfa9646	0.030589234
211	0x3d254a22	0.0403539
212	0x3df27f04	0.118406326
213	0xbae6d5cc	-0.0017611324
214	0xbaaddadd	-0.0013264079
215	0xbd165ed6	-0.036711536
216	0xbcbb905b	-0.022895982
217	0xbd8b4e17	-0.06802004
218	0xbcd92522	-0.026506964
219	0xbcd986e5	-0.02655358
220	0x3d2729ea	0.040811457
221	0x3ca9a1c9	0.020707028
222	0xbb90d249	-0.004419599
223	0x00012a77	1.07069e-40
224	0xbcf32fa0	-0.029685795
225	0x3d1848aa	0.037178673
226	0xbe26ccc5	-0.16289051
227	0x3d812ae5	0.063070096
228	0xbe22ce41	-0.15898992
229	0x3cbd87de	0.023136076
230	0xbbf5858c	-0.0074927267
231	0xbdf0c143	-0.11755612
232	0xbccfab90	-0.025350362
233	0xbdd9b03d	-0.10629318
234	0x3ccb9e9d	0.024855906
235	0xbbbb66f7	-0.0057190615
236	0xbd4edf39	-0.05050585
237	0x3d251e45	0.04031207
238	0xbc387ea6	-0.011260664
239	0xbd20ddb0	-0.039273918
240	0xbd8d317e	-0.068942055
241	0x3c417133	0.011806774
242	0xbe0cceb9	-0.13750733
243	0x3c85012d	0.016235912
244	0x3c0063fa	0.007836336
245	0x3bdca1dd	0.006733163
246	0xbe0c5e00	-0.13707733
247	0xbcd9ba32	-0.026578043
248	0xbe76b74f	-0.24093364
249	0xbdf52df2	-0.11971654
250	0xbc9d4e86	-0.019202482
251	0xbe237ae6	-0.15964851
252	0x3c9cdb11	0.019147428
253	0x3d2357fe	0.039878838
254	0xb93f3e60	-0.00018238416
255	0xbdcc2ccc	-0.09969482

bias f4 [16]
0	0x3bc110f5	0.005891914
1	0xbdea82d5	-0.114507355
2	0x3d0f7112	0.03501994
3	0x3cd88509	0.026430624
4	0x3d7c4beb	0.06159584
5	0x3d7f49b3	0.062326144
6	0x3bd3822d	0.006454727
7	0x3dbc5d7f	0.091975205
8	0x3d8d5891	0.06901658
9	0x3ca8da00	0.020611763
10	0x3d9bc756	0.0760638
11	0x3d209231	0.03920192
12	0x3d627bb2	0.055293746
13	0x3dae9474	0.08524409
14	0x3da3c77c	0.07997033
15	0x3d13aecd	0.036055375

weight f4 [3, 16]
0	0x3ce6e9ba	0.028187621
1	0x3d74e291	0.059786383
2	0x3e25d075	0.16192801
3	0x3e11bf1b	0.14233057
4	0x3d53c8c4	0.051705137
5	0x3cd990e7	0.026558353
6	0x3dd9cb1a	0.10634442
7	0x3cc0465c	0.02347105
8	0xbd15c5ce	-0.036565594
9	0x3e0396c7	0.12850486
10	0xbc86d154	-0.016457237
11	0x3df165c3	0.11786988
12	0x3d1def82	0.03855849
13	0xbc8b270f	-0.016986398
14	0x3d9abb18	0.075552166
15	0x3d1626da	0.036658145
16	0xbc79d1c2	-0.015247764
17	0x3df26906	0.11836438
18	0x3e1a90c0	0.1509428
19	0x3e307f88	0.1723615
20	0xbd11efa6	-0.035628937
21	0xbcf7b1bd	-0.03023612
22	0x3e047425	0.1293493
23	0xbcedc51f	-0.029024659
24	0xb9980093	-0.00028992127
25	0x3e27a566	0.16371688
26	0x3c94cce3	0.018164104
27	0xbcdb9c6e	-0.02680799
28	0x3d97a2ca	0.074040964
29	0x3d08365f	0.033254977
30	0xbcd7cd3b	-0.026342979
31	0xbc512ccc	-0.012767028
32	0x3e26196e	0.16220638
33	0x3e84a3c0	0.2590618
34	0xbd27cfaa	-0.04096953
35	0x3df7ec24	0.12105587
36	0x3e12c244	0.14331919
37	0xbd9c6053	-0.0763556
38	0xbd09c34c	-0.033633515
39	0xbdf5e692	-0.120068684
40	0x3e9625ab	0.29325613
41	0xbcb642e2	-0.02224869
42	0xbd91d5e1	-0.07120872
43	0x3ceab4c5	0.02865065
44	0xbd343ac5	-0.04400136
45	0x3d829b6a	0.06377299
46	0xbe565082	-0.20929149
47	0x3cc6257a	0.024187792

bias f4 [3]
0	0x3f79cc59	0.97577435
1	0x3f68ce87	0.90940136
2	0x3f8c2e12	1.095156
