models/TEV/O/model2.pt (torch, 422913 bytes, 12 tensors)

weight f4 [128, 384]
0.08182208 -0.09170389 0.032821823 0.07205517 0.004934825 -0.019873394 0.037434995 -0.2848544
0.054251447 -0.10469877 -0.012831522 -0.2680631 -0.070421875 0.1157791 -0.06440193 0.21016689
-0.08261217 -0.14128813 0.0145452125 0.22952317 -0.05776395 0.13146104 0.10790565 0.18767579
0.12673904 -0.02786812 0.08282596 -0.07009488 -0.08706823 0.20716634 -0.08951997 0.13871561
-0.17614894 -0.027351208 -0.033017036 -0.041804314 0.07227117 -0.05314804 0.0705283 0.009951952
-0.098056704 -0.3236386 -0.1979714 0.12926655 0.20443438 -0.022829402 -0.082105316 -0.27413195
-0.10329661 -0.0046900082 0.036975138 -0.011701897 -0.09459383 0.06126686 -0.039121203 -0.019682676
0.0035821307 0.040683024 0.09882454 0.015649378 0.0046078903 -0.077109 -0.4732482 -0.2419524
0.046789117 -0.13780525 -0.14104456 -0.05428629 -0.15813826 -0.18707787 -0.16112922 0.35199174
0.07285523 0.011122002 0.0019277182 0.0662411 -0.04944932 0.0439326 0.09522494 0.09940199
0.48250088 -0.036049098 -0.23843604 -0.18552785 -0.00022582477 0.052922368 0.04529555 0.082415506
0.4756008 0.110075235 -0.00017693698 -0.28166017 -0.10691753 -0.30795032 -0.010594031 0.17144734
-0.23676305 -0.2282733 -0.38045162 -0.18216509 -0.11781818 0.116756305 0.21815634 -0.020572284
0.07053527 0.09009221 0.06945219 0.06851992 -0.083959855 0.0011267179 -0.012238147 -0.32400993
-0.18085513 0.036941208 -0.019718941 0.055186525 0.15250413 -0.059822127 -0.24907944 -0.0062158005
0.060350545 -0.0027904303 -0.01662581 0.36111578 -0.0278984 -0.41518894 -0.460581 0.10785618
-0.13182676 -0.16667011 -0.30184588 -0.09538539 0.07247582 0.14989486 0.2865756 0.02267489
0.046945147 0.013613637 0.12397709 0.0021695124 -0.077781804 -0.028353129 0.019010462 -0.07917458
-0.09981696 0.26313382 0.089629345 0.14386109 0.33058816 0.0938663 0.21663737 -0.5400352
-0.02359317 -0.5030007 -0.5494813 0.15527695 0.2704361 0.43642595 0.21769844 -0.022354566
0.1191774 0.22289748 -0.17270148 -0.180741 -0.07019611 -0.0566843 -0.13537891 0.5404594
-0.01863927 -0.030784996 -0.054749597 -0.0703426 0.0679371 -0.08878672 -0.0499945 0.36376417
-0.19412012 -0.07753104 0.0525507 0.12166458 0.017332636 -0.053587597 -0.28170642 0.1344415
0.15355824 -0.05658603 -0.22812021 0.044482958 -0.020524736 -0.0156041095 -0.06786238 0.19391538
-0.048880573 -0.36687848 -0.2710927 -0.10794455 -0.12532601 -0.49318537 -0.22210872 0.0015607615
0.09079065 -0.054347243 -0.2603622 -0.17217511 0.039866462 -0.19017227 -0.10208596 -0.1476634
0.15644984 0.0994549 -0.07426281 -0.013679858 0.13045526 -0.018766353 -0.23477986 -0.07684059
-0.09006235 -0.434606 0.30051094 0.64480513 0.13522911 -0.047794733 -0.024506355 -0.35076708
-0.0006222188 -0.0019607067 0.003985578 -9.245133e-05 0.008147454 0.006325399 0.0007211558 0.0005002314
-0.41279548 -0.34172598 -0.1763801 -0.052923277 0.4164595 0.7196869 -0.3730804 -0.10603483
0.10427166 -0.016278453 -0.15456372 0.047120932 0.65527445 0.3335306 -0.30872223 -0.31383172
-0.08319954 -0.2919391 0.048682086 0.49479973 0.6946422 0.58875567 0.2625492 0.030144399
00000000: 5692 a73d 40cf bbbd 2d70 063d a991 933d
00000010: 50b4 a13b 87cd a2bc 7055 193d 70d8 91be
00000020: c436 5e3d 4f6c d6bd 4e3b 52bc 913f 89be
00000030: 5839 90bd 981d ed3d 29e5 83bd fd35 573e
00000040: 9230 a9bd d6ad 10be 0b4f 6e3c 1f08 6b3e
00000050: e499 6cbd b99d 063e a3fd dc3d 152e 403e
00000060: e1c7 013e af4b e4bc a8a0 a93d e88d 8fbd
00000070: d450 b2bd 6a23 543e 3f56 b7bd 770b 0e3e
00000080: 6360 34be a40f e0bc df3c 07bd 003b 2bbd
00000090: e802 943d c2b1 59bd 2471 903d 830d 233c
000000a0: f4d1 c8bd f5b3 a5be 04b9 4abe 735e 043e
000000b0: 3f57 513e ba04 bbbc d526 a8bd 065b 8cbe
000000c0: 2c8d d3bd a4ae 99bb 3e73 173d 50b9 3fbc
000000d0: 69ba c1bd f6f2 7a3d 8e3d 20bd 903d a1bc
000000e0: 2ec2 6a3b 3ea3 263d 8564 ca3d 2033 803c
000000f0: c9fd 963b 53eb 9dbd 974d f2be 5fc2 77be
00000100: f2a5 3f3d d21c 0dbe fc6d 10be 4d5b 5ebd
00000110: ffee 21be 5791 3fbe 0fff 24be 4338 b43e
00000120: 1f35 953d 0f39 363c 7dab fc3a 6aa9 873d
00000130: 5f8b 4abd acf2 333d 4b05 c33d 4593 cb3d
00000140: 5b0a f73e 38a8 13bd 9428 74be 03fb 3dbe
00000150: 60cb 6cb9 20c5 583d d487 393d 76c9 a83d
00000160: f381 f33e 206f e13d 2988 39b9 c335 90be
00000170: 94f7 dabd aaab 9dbe 9692 2dbc e48f 2f3e
00000180: 0372 72be 7ac0 69be 8eca c2be 7c89 3abe
00000190: a84a f1bd ee1d ef3d 6064 5f3e 3587 a8bc
000001a0: cc74 903d 4482 b83d f33c 8e3d 2c54 8c3d
000001b0: 25f3 abbd 61ae 933a 8282 48bc a1e4 a5be
000001c0: 1632 39be aa4f 173d 9e89 a1bc 440b 623d
000001d0: 0b2a 1c3e 0c08 75bd ae0e 7fbe eaad cbbb
000001e0: 2232 773d a7df 36bb da32 88bc 2be4 b83e
000001f0: 2f8b e4bc a593 d4be 46d1 ebbe b3e3 dc3d
00000200: 98fd 06be 92ab 2abe 8b8b 9abe 6a59 c3bd
00000210: 346e 943d 0a7e 193e 09ba 923e b1c0 b93c
00000220: 8e49 403d bb0b 5f3c b3e7 fd3d 612e 0e3b
00000230: 114c 9fbd d244 e8bc d4bb 9b3c 4826 a2bd
00000240: d66c ccbd 7ab9 863e 978f b73d 5250 133e
00000250: da42 a93e fa3c c03d 30d6 5d3e bf3f 0abf
00000260: 7746 c1bc a7c4 00bf ceaa 0cbf ec00 1f3e
00000270: 9a76 8a3e 3973 df3e 57ec 5e3e ec20 b7bc
00000280: 4813 f43d 3d3f 643e a8d8 30be 2b14 39be
00000290: fac2 8fbd cc2d 68bd c5a0 0abe 8c5b 0a3f
000002a0: 62b1 98bc d130 fcbc 1d41 60bd c80f 90bd
000002b0: 9b22 8b3d d0d5 b5bd 08c7 4cbd 4c3f ba3e
000002c0: 6dc7 46be 98c8 9ebd 673f 573d 482b f93d
000002d0: 2cfd 8d3c ab7e 5bbd d33b 90be 08ab 093e
000002e0: 5f3e 1d3e c1c6 67bd 5898 69be c333 363d
000002f0: 7e23 a8bc 61a8 7fbc 6efb 8abd c191 463e
00000300: ff36 48bd 7fd7 bbbe aacc 8abe 0812 ddbd
00000310: 7655 00be cb82 fcbe 7870 63be 7792 cc3a
00000320: 73f0 b93d 379b 5ebd 324e 85be ac4e 30be
00000330: 044b 233d 85bc 42be 7212 d1bd 1335 17be
00000340: 6334 203e 03af cb3d 1a17 98bd 7c21 60bc
00000350: 1096 053e e5bb 99bc 226a 70be 995e 9dbd
00000360: 9c72 b8bd ad84 debe 92dc 993e f311 253f
00000370: 8079 0a3e 69c4 43bd 8dc1 c8bc be97 b3be
00000380: 661c 23ba 337f 00bb 7499 823b 6ee2 c1b8
00000390: e67c 053c 4b45 cf3b f20b 3d3a f621 033a
000003a0: ee59 d3be b5f6 aebe fc9c 34be 14c6 58bd
000003b0: 2e3a d53e 673d 383f 6504 bfbe ca28 d9bd
000003c0: 618c d53d 645a 85bc f445 1ebe e101 413d
000003d0: 11c0 273f 86c4 aa3e d710 9ebe 8dae a0be
000003e0: 8564 aabd 0b79 95be de66 473d 6456 fd3e
000003f0: 12d4 313f b1b8 163f d96c 863e 63f1 f63c

bias f4 [128]
-0.02519331 0.020036936 -0.01006725 -0.06084967 -0.014063778 -0.028522206 -0.022680966 -0.0005328209
-0.036277737 -0.016269764 -0.015047408 0.034401484 -0.05258772 -0.041676216 -0.0243674 0.002705083
-0.029568153 0.018947145 -0.07598799 -0.050430544 -0.050450243 -0.0028219323 -0.042437844 -0.015088122
-0.013061663 -0.014242711 -0.05704955 -0.062613934 -0.04557679 -0.10110449 -0.051713247 -0.05074395
-0.033296447 -0.049417168 -0.01612302 -0.03237428 -0.016488964 -0.043147728 -0.03434796 0.014959823
-0.068024494 -0.04677308 -0.017692061 -0.027019808 -0.05610992 -0.048070524 -0.016982015 -0.0015295965
-0.029437056 -0.00462232 -0.024617085 -0.02485221 -0.013182591 -0.008526872 -0.02595218 -0.047690358
-0.0024247076 -0.091930114 0.013585359 -0.050529744 -0.044213593 -0.04109509 -0.09357437 -0.020780506
-0.08610502 -0.04164317 -0.009932252 -0.04448918 -0.03334463 -0.005405527 -0.034583863 0.010252836
0.020868275 -0.030900324 -0.03871519 -0.038827207 -0.044253837 -0.030358704 -0.017504895 -0.0747865
-0.028617024 -0.068419926 -0.0266324 -0.009478846 -0.01391225 -0.047220062 -0.01896502 -0.01665654
0.0017745177 -0.0058973143 -0.031386215 -0.010920577 -0.038553156 0.013658521 -0.058156062 -0.061680768
-0.015084423 -0.07307373 -0.07299633 -0.052012507 -0.06263234 -0.06505748 0.0010696745 -0.0035069361
-0.024226133 -0.04075025 -0.03202272 -0.04057396 -0.062760115 -0.019826956 -0.014716362 -0.06343757
-0.029934648 -0.09261351 -0.074326076 0.016600635 -0.07136617 -0.04537671 -0.04854387 -0.04632909
-0.06781219 -0.027213978 -0.0043972735 -0.031794194 -0.032406237 -0.015262657 -0.023066787 -0.01873943
00000000: 3362 cebc 8024 a43c 1bf1 24bc 813d 79bd
00000010: c36b 66bc 67a7 e9bc 6fcd b9bc 01ad 0bba
00000020: f797 14bd 2b48 85bc 6789 76bc 92e8 0c3d
00000030: 3966 57bd aeb4 2abd 249e c7bc c347 313b
00000040: e938 f2bc 0b37 9b3c 979f 9bbd 4290 4ebd
00000050: eaa4 4ebd 2bf0 38bb 4ed3 2dbd 2c34 77bc
00000060: 9600 56bc 425a 69bc caac 69bd bc3b 80bd
00000070: baae 3abd df0f cfbd 45d1 53bd e3d8 4fbd
00000080: db61 08bd a869 4abd 6c14 84bc e59a 04bd
00000090: dd13 87bc acbb 30bd 72b0 0cbd 0c1a 753c
000000a0: 6d50 8bbd 2195 3fbd f1ee 90bc a558 ddbc
000000b0: 84d3 65bd 99e5 44bd de1d 8bbc be7c c8ba
000000c0: fb25 f1bc d576 97bb c5a9 c9bc dd96 cbbc
000000d0: cbfb 57bc 4bb4 0bbc ab99 d4bc f756 43bd
000000e0: d8e7 1ebb db45 bcbd 2095 5e3c 47f8 4ebd
000000f0: 5019 35bd 5353 28bd eba3 bfbd e13b aabc
00000100: d457 b0bd 0792 2abd e2ba 22bc 493a 36bd
00000110: 6194 08bd d920 b1bb cfa7 0dbd 83fb 273c
00000120: f2f3 aa3c ad22 fdbc d293 1ebd 4709 1fbd
00000130: 8343 35bd d1b2 f8bc 6d66 8fbc aa29 99bd
00000140: 406e eabc bf1f 8cbd 312c dabc 294d 1bbc
00000150: 35f0 63bc d369 41bd 885c 9bbc 4c73 88bc
00000160: ef96 e83a 423e c1bb d58e 00bd 38ec 32bc
00000170: eae9 1dbd fdc7 5f3c 0d35 6ebd f9a4 7cbd
00000180: a824 77bc aea7 95bd 1a7f 95bd 110b 55bd
00000190: 6245 80bd db3c 85bd 5234 8c3a a0d4 65bb
000001a0: e275 c6bc bce9 26bd 412a 03bd e130 26bd
000001b0: 6088 80bd 246c a2bc e51c 71bc 8feb 81bd
000001c0: 8239 f5bc 27ac bdbd 4538 98bd 0efe 873c
000001d0: 6d28 92bd eedc 39bd f0d5 46bd 92c3 3dbd
000001e0: 1ee1 8abd d9ef debc 0117 90bb a13a 02bd
000001f0: 67bc 04bd 3910 7abc 8ff6 bcbc 6f83 99bc

weight f4 [128, 128]
-0.013026141 -0.1971721 -0.11319489 -0.021682467 -0.15786059 -0.089246735 0.11062454 0.1571132
-0.018474707 -0.14613459 0.059968937 -0.023879733 -0.12967433 -0.060269967 -0.058019344 0.04919661
-0.020959618 0.0340516 -0.26096317 0.100512415 0.009956171 -0.0066184415 -0.101095475 -0.056132834
0.049662814 0.020749237 0.03605566 0.08168025 -0.06495281 -0.055696085 -0.282433 0.16357134
-0.1040704 -0.00452193 0.0106631955 0.06326425 0.07769692 -0.06217803 -0.09989519 -0.07931663
-0.057304278 0.087579995 -0.11474258 0.054240752 -0.18975836 -0.15666012 0.06536095 -0.023114752
0.05302555 -0.14419764 -0.20565313 -0.01031336 -0.08839257 0.004673321 0.080791265 -0.1322133
-0.09684848 -0.012234928 -0.010779859 -0.048136026 -0.051350966 -0.038046494 -0.12567076 -0.07341152
-0.29011098 -0.002719136 -0.013102592 -0.015579572 0.028848385 -0.08949705 -0.1029284 -0.011565844
0.12855692 0.026635228 0.039857704 0.13852388 0.14537452 -0.113762006 -0.14551564 0.10944244
0.03822716 -0.093634516 0.1511865 -0.093786895 0.0055312677 0.053241827 0.06260253 0.09913039
-0.09094787 0.049257334 -0.068073444 -0.011324697 -0.08573319 -0.043577224 0.043494657 -0.13842936
0.08535568 -0.16640641 0.12841985 -0.16887864 -0.032074332 0.08964458 0.046571396 -0.037632037
-0.025285807 -0.04086484 0.055983745 -0.030226862 -0.23467249 -0.21880965 -0.037281323 -0.09794804
0.2453471 -0.1674927 -0.0920407 0.13924146 -0.032083172 -0.15815793 0.079352885 -0.060313724
0.08901863 0.08308068 -0.043979675 0.16805616 0.13160391 -0.18905671 -0.26397088 0.10924994
0.15603174 0.004791885 -0.10203495 0.10640694 0.059702076 -0.0013393121 -0.0908192 -0.18764699
-0.056816354 -0.079986654 0.10796487 -0.017801723 -0.016625324 -0.17800893 0.091912776 0.034738086
-0.09805587 -0.19646727 -0.13680789 0.012549148 0.004291229 -0.08821867 -0.09378337 0.087540016
0.106668375 0.08984622 0.039241105 -0.0900129 0.10071587 0.17553212 0.09549261 -0.09578522
0.020764155 0.046297267 -0.08388335 -0.0770911 -0.09541997 -0.058805346 0.114680484 -0.064163625
0.08120894 0.019503526 0.0018301955 0.043535803 0.01756792 0.18933985 -0.060378708 0.01705653
-0.14357953 -0.12775338 -0.10592872 0.09978408 0.069151275 -0.0897192 -0.007272554 0.16941775
0.12799422 -0.11830918 -0.07484377 -0.14092067 0.0013477658 -0.01581581 0.16540948 0.03529072
0.06886716 0.0009075294 0.04617341 0.03966223 -0.15305957 -0.06720052 -0.08297136 -0.019223373
0.0058554634 0.042766023 -0.08315713 0.2567653 -0.0691192 0.0050526424 -0.059219755 0.16754177
-0.015709661 -0.08918322 -0.0027714428 0.19546694 0.0453658 0.096097074 0.10503528 0.10723286
0.015446208 -0.088550285 -0.18286963 -0.10948043 0.13513403 -0.02431858 0.1728469 -0.075244434
-0.095542 0.02770647 -0.009486633 -0.0022737656 -0.21571027 -0.0074917166 -0.07566006 0.09502879
-0.049133606 -0.041839905 0.03650282 0.006082332 0.08427643 -0.065665856 -0.011797101 0.059743706
0.15218906 -0.11479994 0.05821297 -0.1884352 -0.16983813 -0.019810619 0.103006765 -0.07250192
-0.14445443 -0.13727707 0.16140072 0.0380025 0.023316782 -0.013271218 0.07446643 0.024565453
00000000: 986b 55bc 7ce7 49be b9d2 e7bd 6e9f b1bc
00000010: 35a6 21be fec6 b6bd 1e8f e23d 48e2 203e
00000020: 4558 97bc 4ea4 15be fda1 753d 6e9f c3bc
00000030: 59c9 04be a4dd 76bd b1a5 6dbd 6282 493d
00000040: 81b3 abbc b179 0b3d f79c 85be 74d9 cd3d
00000050: 351f 233c 83df d8bb 250b cfbd 8beb 65bd
00000060: 3c6b 4b3d 4efa a93c 1aaf 133d fa47 a73d
00000070: fb05 85bd 9421 64bd 0f9b 90be 3f7f 273e
00000080: dd22 d5bd b32c 94bb afb4 2e3c b090 813d
00000090: 901f 9f3d 64ae 7ebd d995 ccbd c270 a2bd
000000a0: e4b7 6abd 245d b33d 28fe eabd 8d2b 5e3d
000000b0: 0450 42be 836b 20be f6db 853d 265b bdbc
000000c0: 5231 593d 8ca8 13be bc96 52be 5ef9 28bc
000000d0: 2a07 b5bd a822 993b e475 a53d ec62 07be
000000e0: 7f58 c6bd 0275 48bc 019e 30bc 482a 45bd
000000f0: 6455 52bd a4d6 1bbd d6af 00be c758 96bd
00000100: 6d89 94be 8833 32bb 41ac 56bc 7641 7fbc
00000110: 7353 ec3c 3b4a b7bd 20cc d2bd aa7e 3dbc
00000120: 6da4 033e 1f32 da3c d541 233d 34d9 0d3e
00000130: 0fdd 143e 0efc e8bd 0d02 15be 5c23 e03d
00000140: 1594 1c3d 74c3 bfbd a2d0 1a3e 5813 c0bd
00000150: a33f b53b 1a14 5a3d c135 803d e004 cb3d
00000160: e042 babd 0fc2 493d 176a 8bbd 398b 39bc
00000170: e294 afbd 087e 32bd 7427 323d 6dc0 0dbe
00000180: f5ce ae3d 7166 2abe 7e80 033e 86ee 2cbe
00000190: 6060 03bd 9497 b73d a6c1 3e3d 0d24 1abd
000001a0: 2e24 cfbc e461 27bd 364f 653d 539e f7bc
000001b0: fc4d 70be a30f 60be 4db4 18bd fb98 c8bd
000001c0: 453c 7b3e 3583 2bbe d67f bcbd 5095 0e3e
000001d0: a569 03bd 27f4 21be c483 a23d 860b 77bd
000001e0: 664f b63d 3426 aa3d 0824 34bd ea16 2c3e
000001f0: 2dc3 063e 1598 41be 3127 87be 6fbe df3d
00000200: c9c6 1f3e 3f05 9d3b b3f7 d0bd e2eb d93d
00000210: 2a8a 743d db8b afba 6bff b9bd 8826 40be
00000220: 44b8 68bd 0bd0 a3bd b01c dd3d ebd4 91bc
00000230: d531 88bc f947 36be c43c bc3d 8649 0e3d
00000240: 84d1 c8bd b72e 49be 5e17 0cbe f19a 4d3c
00000250: 709d 8c3b fdab b4bd 7f11 c0bd 2e48 b33d
00000260: f374 da3d 4c01 b83d 48bb 203d af58 b8bd
00000270: 1f44 ce3d b1be 333e a191 c33d 0b2b c4bd
00000280: 9719 aa3c 34a2 3d3d 09cb abbd f0e1 9dbd
00000290: 8c6b c3bd e0dd 70bd 9add ea3d 3868 83bd
000002a0: df50 a63d dcc5 9f3c 2ce3 ef3a 9952 323d
000002b0: 99ea 8f3c 4ee2 413e aa4f 77bd 23ba 8b3c
000002c0: 8306 13be c8d1 02be 28f1 d8bd 995b cc3d
000002d0: 2f9f 8d3d b3be b7bd 9b4e eebb d97b 2d3e
000002e0: eb10 033e 154c f2bd b147 99bd 824d 10be
000002f0: 84a7 b03a 2890 81bc 1a61 293e 018d 103d
00000300: 3a0a 8d3d 44e7 6d3a 5420 3d3d dd74 223d
00000310: a6bb 1cbe 6da0 89bd e3ec a9bd 567a 9dbc
00000320: 30df bf3b 6d2b 2f3d 494e aabd be76 833e
00000330: 5e8e 8dbd a390 a53b 6a90 72bd 1290 2b3e
00000340: 8cb1 80bc b1a5 b6bd 18a1 35bb 7c28 483e
00000350: 7dd1 393d 8bce c43d bd1c d73d e79c db3d
00000360: 1812 7d3c da59 b5bd 2d42 3bbe 4737 e0bd
00000370: 9360 0a3e c237 c7bc c7fe 303e c119 9abd
00000380: 86ab c3bd aef8 e23c d36d 1bbc 7503 15bb
00000390: 27e3 5cbe 137d f5bb a9f3 9abd 749e c23d
000003a0: 5240 49bd 5260 2bbd fb83 153d 4d4e c73b
000003b0: 1f99 ac3d d27b 86bd a148 41bc d1b5 743d
000003c0: 73d7 1b3e 3b1c ebbd b970 6e3d 28f5 40be
000003d0: 0cea 2dbe e149 a2bc 36f5 d23d e37b 94bd
000003e0: ddeb 13be 5c92 0cbe 3b46 253e 82a8 1b3d
000003f0: d602 bf3c 866f 59bc db81 983d 7d3d c93c

bias f4 [128]
0.021015098 -0.007929002 0.045568235 -0.02469483 0.021321658 0.02155502 -0.017253721 -0.07461217
0.08882529 0.019184614 -0.01691363 0.036327586 0.0035375063 0.057568844 -0.013599244 0.05804057
0.048683036 -0.083711706 0.052600835 -0.017006135 -0.07839745 -0.017705603 -0.05220356 -0.04973549
-0.017273173 0.031184964 -0.039584566 0.045202162 -0.04600181 -0.045341067 0.03955931 0.054775003
-0.058925956 0.042734355 -0.03245989 -0.067008615 0.08597112 0.025909564 -0.0049442705 -0.038292196
0.06041924 0.032167904 0.016498707 0.065880366 -0.03089472 -0.048098467 0.052655295 0.024241582
-0.038985882 -0.00015486887 0.03663348 -0.028281782 -0.042942237 -0.028330345 0.011103915 -0.01330393
0.019202387 0.050542034 7.3849784e-05 0.0069297454 0.0041059745 0.035085794 0.082062796 -0.078109436
0.02189075 -0.01379511 -0.056502037 0.0017550839 -0.039768033 0.033711515 -0.060356583 0.020233635
0.055533353 0.026213448 0.071970634 0.030714478 0.045363303 0.05159787 -0.012544936 0.026410196
0.044691414 0.06766971 -0.04650659 0.07834864 -0.023021841 0.06526995 0.09061185 0.082302004
0.063577436 -0.02475431 -0.024859073 0.020984134 -0.026511494 -0.032678038 0.00236202 0.045966767
-0.014175774 -0.026977327 -0.06095793 0.039703768 -0.0022967414 -0.010801916 -0.05734056 -0.0038460058
0.013632439 -0.0067290585 0.08585101 -0.0031218196 -0.0044785435 0.049069926 -0.08276697 0.062727585
0.030367762 -0.0287252 -0.02369609 0.034029596 -0.022735674 0.011347854 0.01264345 -0.05465257
0.050338145 -0.016890043 -0.057242308 0.067542955 -0.06642775 0.00686509 -0.06625497 0.011182876
00000000: db27 ac3c a5e8 01bc c2a5 3a3d d04c cabc
00000010: c2aa ae3c 2794 b03c ad57 8dbc 44ce 98bd
00000020: 09ea b53d 0d29 9d3c 748e 8abc 3ccc 143d
00000030: 82d5 673b 4fcd 6b3d 5dcf 5ebc f3bb 6d3d
00000040: dd67 473d 0b71 abbd f973 573d 7350 8bbc
00000050: d88e a0bd 570b 91bc 66d3 55bd 71b7 4bbd
00000060: 7880 8dbc 9c77 ff3c 6d23 22bd e725 393d
00000070: 656c 3cbd 8eb7 39bd f108 223d c15b 603d
00000080: 585c 71bd 380a 2f3d a9f4 04bd d03b 89bd
00000090: a011 b03d 4b40 d43c 8c03 a2bb 47d8 1cbd
000000a0: 2a7a 773d 7ec2 033d 4c28 873c 49ec 863d
000000b0: ed16 fdbc e602 45bd 14ad 573d 4896 c63c
000000c0: a9af 1fbd 4c64 22b9 fd0c 163d 32af e7bc
000000d0: 33e4 2fbd 0a15 e8bc 32ed 353c baf8 59bc
000000e0: 534e 9d3c 2a05 4f3d cddf 9a38 eb12 e33b
000000f0: 698b 863b 1fb6 0f3d 8a10 a83d d7f7 9fbd
00000100: 3b54 b33c e304 62bc ae6e 67bd d80a e63a
00000110: cee3 22bd 1615 0a3d 7738 77bd 02c1 a53c
00000120: f176 633d 96bd d63c 5765 933d ee9c fb3c
00000130: dfce 393d 4a58 533d 4689 4dbc 325a d83c
00000140: 580e 373d 6b96 8a3d b27d 3ebd 4075 a03d
00000150: 4d98 bcbc 40ac 853d b592 b93d f48d a83d
00000160: e334 823d 8dc9 cabc 41a5 cbbc ebe6 ab3c
00000170: a22e d9bc 68d9 05bd 1fcc 1a3b a647 3c3d
00000180: 8141 68bc 8eff dcbc 06af 79bd 6ba0 223d
00000190: ed84 16bb 85fa 30bc efdd 6abd 450d 7cbb
000001a0: 985a 5f3c 6f7f dcbb a8d2 af3d 7197 4cbb
000001b0: bfc0 92bb 8cfd 483d bb81 a9bd 5277 803d
000001c0: d0c5 f83c 1c51 ebbc 4d1e c2bc 9e62 0b3d
000001d0: 2a40 babc 59ec 393c 7926 4f3c 60db 5fbd
000001e0: 5f2f 4e3d fd5c 8abc e976 6abd f653 8a3d
000001f0: 460b 88bd 8df4 e03b b0b0 87bd 6238 373c

weight f4 [128, 224]
-0.011243959 0.041395728 -0.06681452 0.02271801 -0.015368785 0.027067931 -0.10466402 0.02396723
-0.078830905 -0.06879581 -0.10610413 -0.0107192155 -0.10166684 -0.054900803 -0.01577376 0.005461046
-0.062474567 0.116742164 0.01007008 0.12231495 0.11324486 0.026090354 -0.032726668 0.09101361
0.12661044 0.03985224 0.088568605 0.060289413 0.13015185 -0.12513767 -0.03732629 0.084177084
0.08159988 -0.041149877 0.0004718169 0.18985148 0.042443033 -0.028413275 -0.026997898 -0.15333147
-0.09264389 0.06976319 0.15870063 -0.04184081 -0.005763361 -0.069841005 -0.10554276 -0.04999567
-0.012306543 -0.069610685 0.026837816 -0.03175449 0.0019860081 0.032669608 -0.031332534 -0.0152002
0.12028789 0.03659486 0.07546087 -0.12517276 -0.012814024 0.19746032 -0.059999753 -0.034416504
0.0074658087 -0.07311016 0.049524333 -0.01920134 0.026369685 -0.058750656 0.06863777 -0.15620758
-0.0068250573 0.08251284 -0.06702572 0.022041494 0.049982775 -0.013866908 -0.0016015853 -0.073272884
-0.028089378 0.04515286 0.06226462 -0.101541184 -0.007898945 0.048488677 -0.0017773196 -0.0116759045
-0.13688801 -0.037677884 0.06265864 -0.05237199 -0.1134188 0.07683295 -0.04000779 0.13053146
-0.03513639 -0.003412405 0.17159496 0.119064584 0.04045667 0.03974773 -0.04767038 -0.025109505
-0.065313615 -0.11676638 0.026761636 -0.033464674 -0.0238804 0.062078696 0.020136718 -0.057469193
0.11609243 -0.07140478 0.04751142 -0.07909296 -0.021443794 0.04655008 -0.010619326 -0.09052021
0.108096 0.11898984 -0.04063609 0.046655204 0.0034349607 0.01806617 -0.02997173 0.060742095
-6.1150126e-06 0.017350314 0.22052582 0.1322018 0.1418775 -0.02850795 0.074092396 0.01904249
-0.03384335 -0.017266598 -0.021152051 -0.07355409 -0.026860416 0.12317872 0.11245552 -0.0023109391
-0.10992441 -0.09391714 -0.15214244 -0.080977015 0.008737922 -0.11781193 -0.110137135 0.059750564
0.010384445 0.025820274 0.08129155 -0.06249932 0.04867802 0.032224745 0.08866257 0.06326332
0.06637502 0.19958292 0.0647282 -0.002209626 0.067536466 -0.08470871 0.032438513 0.12996621
-0.078458965 -0.020250067 -0.0378193 -0.14338139 -0.008982868 0.025696406 -0.0033725211 -0.0020453949
0.05047901 0.15048666 0.17244208 0.118582875 -0.017771356 -0.024812216 -0.030028505 0.047052223
-0.08182201 -0.073198 -0.14686847 -0.062261656 0.023045683 0.06821385 0.073009744 0.04895543
-0.094646335 -0.066931166 -0.042524796 0.104134336 -0.11204223 -0.08014513 -0.32253534 0.14037049
-0.13617554 -0.27379087 -0.04468726 0.011708028 0.07134012 0.14454746 -0.0021862036 0.009613993
-0.021036204 0.03204277 -0.0625549 -0.14225805 -0.027249923 0.065354206 0.1967266 -0.15331613
-0.07191132 0.24250194 0.008226981 0.016273813 -0.13913678 -0.13686298 -0.058706447 0.0032377539
0.13543431 -0.035870086 -0.02109718 0.019039134 -0.010568281 0.14067978 0.26892483 0.05877706
-0.021361684 0.10665103 -0.09091639 0.1299502 0.06959159 0.12510033 0.09109793 0.0032822012
-0.08245086 -0.014854554 -0.08415715 0.1976948 0.05443447 -0.0449178 0.028193029 0.07131332
0.03436981 -0.07108758 0.025555907 0.16026573 -0.015152514 -0.03841005 0.02993518 -0.14444052
00000000: 9538 38bc 918e 293d 0dd6 88bd 1f1b ba3c
00000010: 5bcd 7bbc 91bd dd3c 175a d6bd ed56 c43c
00000020: 1972 a1bd d1e4 8cbd 1f4d d9bd a69f 2fbc
00000030: b436 d0bd aadf 60bd f937 81bc 93f2 b23b
00000040: 55e5 7fbd 8416 ef3d fafc 243c 4380 fa3d
00000050: ecec e73d 70bb d53c 660c 06bd 5865 ba3d
00000060: 2ba6 013e 1a3c 233d 7563 b53d 08f2 763d
00000070: 8746 053e 1724 00be 74e3 18bd 0965 ac3d
00000080: d61d a73d c68c 28bd 315e f739 6d68 423e
00000090: bfd8 2d3d f5c2 e8bc b22a ddbc ed02 1dbe
000000a0: 14bc bdbd 01e0 8e3d 6b82 223e 4561 2bbd
000000b0: 94da bcbb cd08 8fbd cd26 d8bd 42c8 4cbd
000000c0: 62a1 49bc 0c90 8ebd fbda db3c ff10 02bd
000000d0: b027 023b 91d0 053d 8b56 00bd 420a 79bc
000000e0: 7f59 f63d 7ee4 153d 3b8b 9a3d 4a2d 00be
000000f0: eaf1 51bc 0a33 4a3e 4dc2 75bd 52f8 0cbd
00000100: bea3 f43b c8ba 95bd 07da 4a3d 214c 9dbc
00000110: 3d05 d83c 87a4 70bd f691 8c3d e1f4 1fbe
00000120: bba4 dfbb 7efc a83d c844 89bd 5d90 b43c
00000130: bdba 4c3d 0732 63bc 49ec d1ba 1810 96bd
00000140: b21b e6bc 35f2 383d 3009 7f3d d3f4 cfbd
00000150: 946a 01bc 109c 463d f3f4 e8ba 4b4c 3fbc
00000160: 5f2c 0cbe 2054 1abd 2c53 803d 0384 56bd
00000170: 1e48 e8bd 985a 9d3d 35df 23bd 0aaa 053e
00000180: 2deb 0fbd a8a2 5fbb 97b6 2f3e 22d8 f33d
00000190: e5b5 253d 84ce 223d 0442 43bd 73b2 cdbc
000001a0: 25c3 85bd 3623 efbd 383b db3c 4112 09bd
000001b0: d4a0 c3bc 3b46 7e3d c2f5 a43c d164 6bbd
000001c0: dec1 ed3d ab3c 92bd 569b 423d 7dfb a1bd
000001d0: e5aa afbc 4cab 3e3d aefc 2dbc a962 b9bd
000001e0: 7061 dd3d f2b0 f33d 0772 26bd 8719 3f3d
000001f0: 141d 613b 81ff 933c 4687 f5bc b4cc 783d
00000200: 8f2f cdb6 3f22 8e3c 85d1 613e e95f 073e
00000210: 5648 113e 8189 e9bc c1bd 973d fffe 9b3c
00000220: 539f 0abd ae72 8dbc 1147 adbc 87a3 96bd
00000230: 600a dcbc 2045 fc3d 144f e63d 2073 17bb
00000240: 0d20 e1bd a157 c0bd 3acb 1bbe 47d7 a5bd
00000250: 8029 0f3c 6247 f1bd 948f e1bd 02bd 743d
00000260: 8523 2a3c 0a85 d33c 2f7c a63d 49ff 7fbd
00000270: 9a62 473d 18fe 033d b994 b53d 3390 813d
00000280: a0ef 873d 775f 4c3e 3890 843d 5fcf 10bb
00000290: 8f50 8a3d c37b adbd 3fde 043d dd15 053e
000002a0: 18af a0bd 78e3 a5bc 69e8 1abd 92d2 12be
000002b0: e12c 13bc 4581 d23c 8405 5dbb 080c 06bb
000002c0: 14c3 4e3d 2d19 1a3e a894 303e 94db f23d
000002d0: 3c95 91bc fd42 cbbc 57fe f5bc d5b9 403d
000002e0: 4c92 a7bd d5e8 95bd b064 16be 1406 7fbd
000002f0: 4dca bc3c b4b3 8b3d 2286 953d 7d85 483d
00000300: f0d5 c1bd 3513 89bd 7b2e 2ebd 6244 d53d
00000310: 6676 e5bd 2123 a4bd 5a23 a5be 48bd 0f3e
00000320: 9a71 0bbe 512e 8cbe fd09 37bd 07d3 3f3c
00000330: c51a 923d 4004 143e 6946 0fbb 0284 1d3c
00000340: 1e54 acbc 483f 033d c91c 80bd 18ac 11be
00000350: 3b3b dfbc 6dd8 853d b372 493e e7fe 1cbe
00000360: 3e46 93bd 6e52 783e 76ca 063c a950 853c
00000370: df79 0ebe cf25 0cbe 2c76 70bd 7f30 543b
00000380: 4baf 0a3e 83ec 12bd fed3 acbc f5f7 9b3c
00000390: 9526 2dbc 5c0e 103e 84b0 893e 37c0 703d
000003a0: b3fe aebc db6b da3d 5f32 babd aa11 053e
000003b0: 0986 8e3d 4d1a 003e 8d91 ba3d 331a 573b
000003c0: ffdb a8bd 8460 73bc 955a acbd 8170 4a3e
000003d0: aef6 5e3d bafb 37bd 11f5 e63c b80c 923d
000003e0: 5cc7 0c3d 5d96 91bd 9f5a d13c b31c 243e
000003f0: 4042 78bc db53 1dbd 9f3a f53c 37e8 13be

bias f4 [128]
0.01780861 -0.019035898 -0.029345537 -2.0663464e-15 -0.024521064 -0.0058121854 -0.063323826 -0.020910671
0.05917563 -0.066730484 -0.0015736839 -0.011859474 -0.013076109 -0.008319772 -0.01963416 -0.004958008
-0.066413455 -0.048797105 -0.04270545 0.03428445 -0.0980396 0.058071516 -0.054570824 -0.025247479
0.005486735 -0.037781224 -0.06925836 -0.02762702 -0.115821816 -0.037999745 0.028821466 -0.05351866
-0.00023632913 -0.08196966 -0.037364233 -0.0634045 -0.046577852 -0.0533454 0.012127866 -0.09421777
-0.10100533 -0.06830558 -0.12089714 -0.0035901996 -0.042831518 -0.04405428 0.027719596 -0.037248034
0.036216673 -0.052585285 0.01714619 0.033269405 -0.044892337 -0.08177969 -0.033599395 -0.021026514
0.037824605 0.032026127 -0.008070078 -0.095854156 -0.01581673 0.0039580176 0.0011748621 -0.022454932
-0.08134209 -0.08501755 0.0044665025 -0.00030124653 -0.034504086 0.05622515 -0.011045469 -0.014297765
-1.3717865e-05 -0.08839806 -0.08243956 0.011428697 -0.06671275 -0.054677565 -0.100900255 -0.03386469
-0.035889603 -0.025654463 -0.070992745 -0.057491016 -0.0021417849 -0.011745231 -0.07877261 -0.0008608287
-0.015102469 -0.047616865 -0.046684235 -0.031350236 0.03822993 -0.09116729 0.008003334 -0.04195632
-0.029168144 -0.1159976 0.039184127 0.014682248 -0.014278541 -0.042655796 -0.096769765 -0.024627531
-0.038931567 -0.036011662 -0.065882 -0.05873059 -0.054156344 0.043938544 0.019403977 -0.06517061
-0.0748462 -0.023168473 -0.017886557 0.05910469 -0.10462132 -0.03620246 0.032802507 0.04417417
-0.045625422 -0.07161399 -0.00011919904 -0.044591058 -0.094280116 -0.09011844 0.031037524 -0.043899488
00000000: 5de3 913c 2cf1 9bbc 0d66 f0bc 5de5 14a7
00000010: 66e0 c8bc 2574 bebb ecaf 81bd db4c abbc
00000020: 2562 723d fea9 88bd 1244 ceba 3d4e 42bc
00000030: 2d3d 56bc a74f 08bc d1d7 a0bc c976 a2bb
00000040: c703 88bd 79df 47bd e9eb 2ebd da6d 0c3d
00000050: fcc8 c8bd 66dc 6d3d a885 5fbd cdd3 cebc
00000060: 12ca b33b 7cc0 1abd 54d7 8dbd 0f52 e2bc
00000070: fd33 edbd 9fa5 1bbd ff1a ec3c 6236 5bbd
00000080: 1ecf 77b9 b6df a7bd 3d0b 19bd 38da 81bd
00000090: 6bc8 3ebd b580 5abd f5b3 463c 3ff5 c0bd
000000a0: e2db cebd cce3 8bbd eb98 f7bd 8e49 6bbb
000000b0: 1a70 2fbd 4372 34bd 3514 e33c 6591 18bd
000000c0: ef57 143d ab63 57bd 2b76 8c3c 8045 083d
000000d0: 07e1 37bd 1c7c a7bd 859f 09bd cc3f acbc
000000e0: f9ed 1a3d d42d 033d 5c38 04bc 2f4f c4bd
000000f0: 1692 81bc 42b2 813b d5fd 993a 68f3 b7bc
00000100: af96 a6bd ae1d aebd bd5b 923b a0f0 9db9
00000110: 2854 0dbd 584c 663d 0ef8 34bc 2c41 6abc
00000120: c825 66b7 0b0a b5bd 12d6 a8bd 6e3f 3b3c
00000130: b2a0 88bd 95f5 5fbd cba4 cebd b4b5 0abd
00000140: fa00 13bd 4f29 d2bc a564 91bd b37b 6bbd
00000150: 305d 0cbb 126f 40bc 8953 a1bd 3ca9 61ba
00000160: 5970 77bc e709 43bd f837 3fbd 1b69 00bd
00000170: fd96 1c3d ebb5 babd 6a20 033c 64da 2bbd
00000180: 08f2 eebc 2690 edbd 897f 203d d08d 703c
00000190: 8bf0 69bc d8b7 2ebd 3a2f c6bd adbf c9bc
000001a0: b576 1fbd f780 13bd 24ed 86bd 7d8f 70bd
000001b0: 0bd3 5dbd e7f8 333d 17f5 9e3c 2b78 85bd
000001c0: f748 99bd cfcb bdbc d486 92bc c217 723d
000001d0: b443 d6bd 0849 14bd ec5b 063d f9ef 343d
000001e0: b9e1 3abd 5baa 92bd 7ffa f9b8 1da5 36bd
000001f0: ef15 c1bd 0490 b8bd 6842 fe3c f3cf 33bd

weight f4 [64, 128]
3.8810175e-08 -0.011572359 -0.0011524833 3.0607e-41 -8.881612e-14 -1.6946972e-17 0.06856467 -0.08754921
-0.024360364 -0.03914003 0.0017000319 -0.06478803 0.077697374 -0.01313143 -0.069648415 -0.08982323
0.033678163 5.128914e-22 -0.027171578 0.040782895 -0.002929613 -0.07001323 -0.022488052 0.011436986
-0.00044009546 0.062405985 -0.19192167 -0.06991288 0.002263005 -0.06961915 0.061773784 -0.13085726
1.23829e-40 -0.011313456 -0.08537296 -0.006491339 -0.0034403712 0.04678854 -0.076065674 -2.8815898e-06
-0.078653105 -0.09759386 -0.03393762 -3.36938e-40 -0.0015453353 -7.3684014e-06 -0.03397093 -0.004136587
-1.6720601e-06 0.020860894 -0.03727407 0.029605424 -6.980413e-17 -0.0432321 -0.03440669 -0.0128131695
-0.0043526147 0.03387682 -0.056212142 -0.0243752 0.007253459 -0.07075804 -3.579917e-15 -2.1171945e-19
0.0788122 -0.0028758089 0.006420512 5.5112347e-25 -1.3061067e-06 -0.015421217 0.00064660906 -0.0050226394
3.05838e-40 -0.13557442 -1.0522843e-06 -0.035222627 -0.054070234 0.0032466438 -0.1334405 -0.0006872065
-0.0165753 0.0020660122 -3.0397484e-07 -0.059137035 -2.8379294e-09 -0.10442315 -0.0031096628 0.013917263
-0.23334299 -0.097829826 2.3866e-41 -0.020459093 -7.905637e-08 -0.025818842 -0.022948788 0.013230789
-0.032711726 -0.045385372 -0.009363054 -0.023439558 -1.5362525e-12 -0.07387306 -0.011253014 0.063674204
-0.04386693 0.028056337 -0.081267186 -0.032923743 -0.081969485 1.6366567e-37 -0.12675396 0.23064385
-0.050282624 -0.15709724 -0.038615856 -7.666756e-06 0.0672216 -0.010042604 -0.00033610535 -0.057846755
0.10364769 0.0016941641 0.09203466 -0.010255785 -0.03353569 -0.028104842 -0.055859774 -0.026300993
-0.0024284997 -0.011278781 -0.013117867 -1.74634e-40 -0.1913803 0.07392271 0.123373084 0.02177613
-0.18791872 -0.059687186 0.06383237 -0.0072310604 -0.059943896 0.038839728 -0.046454526 -0.08523263
-0.057988733 0.018989077 -0.07478226 0.10351275 -0.12908222 0.01562064 -0.05194982 -0.0193329
0.060734354 0.02534885 -0.062318966 -0.016679665 -0.16537762 0.022501172 -0.04056161 0.07979706
0.007486834 -0.030858276 0.0423867 0.09414149 -0.25180617 0.04592897 0.08337569 -0.11797142
0.01900251 -0.09615827 -0.0026958238 2.1171492e-14 -0.122264996 -0.08852161 0.05321219 -0.24245054
-0.02685782 -0.013439785 -0.03238167 -0.015046801 -0.063365124 -0.06957141 0.044640683 0.047513045
-0.006290437 0.085058734 0.016613359 -0.08539249 0.13717581 0.04698303 0.0025185314 -0.08036212
0.11840517 0.02348584 0.0058445144 2.7083e-40 -0.119861715 -0.1330664 -0.09769982 0.0018492413
-9.518e-42 -0.018248547 -0.11966978 0.09047048 0.08444757 -0.06381691 0.022170316 -0.026297757
-0.07105006 -0.09091453 -0.055788368 0.041067462 0.015436447 0.07193106 -0.0794608 0.14090635
0.07292105 0.011224684 -0.0021099837 -0.011159312 -0.09087286 -0.034184378 -0.0075721005 0.19446573
0.026945312 -0.029512856 -0.033200167 -0.019271001 0.022815708 0.018526075 -0.050898053 0.047174726
-0.0834686 0.023275642 0.026861459 0.018968549 -0.02079986 -0.0072174827 -0.0859527 -0.053940695
-0.010961026 -0.011889633 0.12914494 -0.1773129 0.15994692 -0.059341557 -0.106449276 -0.038527112
-0.032021046 -0.13522923 -0.040302534 -0.015629604 -0.012361315 -0.10359596 0.008350247 -0.11058576
00000000: 3db0 2633 fe99 3dbc ec0e 97ba 5255 0000
00000010: 02ff c7a9 e84e 9ca3 a26b 8c3d 004d b3bd
00000020: 638f c7bc 4c51 20bd 9bd3 de3a 96af 84bd
00000030: cd1f 9f3d 3625 57bc d4a3 8ebd 3ef5 b7bd
00000040: 1df2 093d 0d03 1b1c ee96 debc f70b 273d
00000050: c0fe 3fbb 1963 8fbd dd38 b8bc 3262 3b3c
00000060: 9dbc e6b9 6b9d 7f3d 1d87 44be 7c2e 8fbd
00000070: ec4e 143b 7c94 8ebd 8206 7d3d 72ff 05be
00000080: 2f59 0100 135c 39bc 05d8 aebd 4cb5 d4bb
00000090: da77 61bb 57a5 3f3d 52c8 9bbd 5661 41b6
000000a0: e114 a1bd 4adf c7bd 2d02 0bbd 3fab 0380
000000b0: d98c caba 163e f7b6 1a25 0bbd 358c 87bb
000000c0: 8c6b e0b5 77e4 aa3c b2ac 18bd 1387 f23c
000000d0: 16f5 a0a4 2414 31bd 08ee 0cbd 54ee 51bc
000000e0: 61a0 8ebb 6cc2 0a3d b43e 66bd 80ae c7bc
000000f0: 6dae ed3b 97e9 90bd e8fa 80a7 47f4 79a0
00000100: 4a68 a13d 1178 3cbb 2963 d23b 8090 2a17
00000110: 7c4d afb5 46a9 7cbc 3381 293a f494 a4bb
00000120: 8d54 0300 05d4 0abe 373c 8db5 9a45 10bd
00000130: c078 5dbd a5c5 543b a0a4 08be a625 34ba
00000140: ecc8 87bc ef65 073b fc31 a3b4 ad39 72bd
00000150: 6205 43b1 cedb d5bd 7ccb 4bbb 3b05 643c
00000160: 77f1 6ebe 015b c8bd 8742 0000 d499 a7bc
00000170: b3c5 a9b3 0982 d3bc 19ff bbbc f4c5 583c
00000180: bbfc 05bd 03e6 39bd 7f67 19bc 5104 c0bc
00000190: 5435 d8ab c24a 97bd 905e 38bc 9f67 823d
000001a0: cfad 33bd 67d6 e53c 696f a6bd 0cdb 06bd
000001b0: 9edf a7bd 2ac5 5e02 cacb 01be e72d 6c3e
000001c0: 27f5 4dbd 19de 20be a92b 1ebd 77a0 00b7
000001d0: 7aab 893d bc89 24bc 4c37 b0b9 b8f0 6cbd
000001e0: 3d45 d43d b70e de3a ab7c bc3d e107 28bc
000001f0: b85c 09bd 203c e6bc 38cd 64bd 2e75 d7bc
00000200: 7727 1fbb a3ca 38bc 52ec 56bc cfe6 0180
00000210: 33f9 43be ca64 973d 07ab fc3d db63 b23c
00000220: c46d 40be 8d7a 74bd 8cba 823d 88f2 ecbb
00000230: bb87 75bd 6816 1f3d 1a47 3ebd 728e aebd
00000240: 9885 6dbd fb8e 9b3c 7127 99bd 7efe d33d
00000250: 212e 04be b6ed 7f3c 56c9 54bd 0860 9ebc
00000260: 96c4 783d 64a8 cf3c 2c42 7fbd cba3 88bc
00000270: c058 29be 6154 b83c ee23 26bd a46c a33d
00000280: 1e54 f53b 7fca fcbc ad9d 2d3d 41cd c03d
00000290: bdec 80be 0420 3c3d e0c0 aa3d 009b f1bd
000002a0: 27ab 9b3c a1ee c4bd 6bac 30bb 23b2 be28
000002b0: 1266 fabd d14a b5bd 06f5 593d f444 78be
000002c0: ee04 dcbc 8b32 5cbc a4a2 04bd dc86 76bc
000002d0: 93c5 81bd 757b 8ebd 26d9 363d 0a9d 423d
000002e0: 0320 cebb 4633 ae3d bd18 883c 42e2 aebd
000002f0: d177 0c3e 4771 403d f20d 253b e594 a4bd
00000300: 697e f23d 6065 c03c 5783 bf3b f7f2 0200
00000310: 0f7a f5bd 8f42 08be d816 c8bd 3e62 f23a
00000320: 881a 0080 fa7d 95bc 6e15 f5bd 9648 b93d
00000330: d9f2 ac3d 71b2 82bd 869e b53c 656e d7bc
00000340: b282 91bd 6631 babd 5882 64bd 5b36 283d
00000350: 27e9 7c3c 9750 933d 58bc a2bd c149 103e
00000360: a257 953d bde7 373c a747 0abb 8cd5 36bc
00000370: 8d1b babd eb04 0cbd 621f f8bb 0622 473e
00000380: 6abc dc3c f2c4 f1bc e6fc 07bd 38de 9dbc
00000390: 02e8 ba3c ffc3 973c 7a7a 50bd 493a 413d
000003a0: 96f1 aabd 8fac be3c 900c dc3c ee63 9b3c
000003b0: 7864 aabc a280 ecbb f807 b0bd ebf0 5cbd
000003c0: e095 33bc bccc 42bc 923e 043e 8391 35be
000003d0: 20c9 233e 2210 73bd 1402 dabd 9bce 1dbd
000003e0: 8028 03bd 8879 0abe 4514 25bd a809 80bc
000003f0: 1d87 4abc 1e2a d4bd 79cf 083c c97a e2bd

bias f4 [64]
-0.11999738 0.051911976 -0.003962977 0.017874194 -0.035432328 0.03192128 -1.651566e-05 -0.06625837
0.08761102 -0.013443138 0.048967764 0.037262198 -0.07327867 -0.18409315 -0.0012070526 -0.03793514
0.015846647 0.01710347 0.016490435 -0.0942616 0.015819773 -0.01846969 -0.10534849 -0.012011945
0.089835584 -0.006523167 0.06196041 0.032303095 0.028309675 0.02181547 0.017606039 0.030673834
0.074801885 -0.05712962 0.14068983 0.020695735 0.0661142 0.06590734 0.041166816 -0.013345528
0.04828413 0.02481816 0.103598446 0.10101196 0.067353845 0.08906599 -0.039057788 0.07124001
0.13037416 0.002731104 -0.0091557875 -0.014226161 0.008136887 -0.118350856 0.017191183 0.0024563684
0.03976424 0.0069108694 -0.0065506846 0.0014330384 0.009717557 -0.021733008 -0.0026167445 -0.028187973
00000000: 30c1 f5bd a7a1 543d dcdb 81bb e76c 923c
00000010: 7d21 11bd e3bf 023d 1c8b 8ab7 78b2 87bd
00000020: 686d b33d 9c40 5cbc 6c92 483d 3fa0 183d
00000030: 2113 96bd ea82 3cbe f735 9eba e161 1bbd
00000040: d4d0 813c 941c 8c3c f316 873c 3a0c c1bd
00000050: 7898 813c bf4d 97bc f3c0 d7bd c0cd 44bc
00000060: b8fb b73d 4ac0 d5bb 33ca 7d3d 4050 043d
00000070: b1e9 e73c 5bb6 b23c 8a3a 903c b147 fb3c
00000080: bb31 993d c000 6abd ff10 103e 1a8a a93c
00000090: e266 873d 6dfa 863d 899e 283d 34a7 5abc
000000a0: 94c5 453d 744f cb3c 6c2b d43d 5cdf ce3d
000000b0: d0f0 893d 3b68 b63d 0ffb 1fbd 48e6 913d
000000c0: ce80 053e 52fc 323b 2802 16bc d814 69bc
000000d0: 9450 053c ef61 f2bd 86d4 8c3c 06fb 203b
000000e0: d4df 223d 9374 e23b 20a7 d6bb cad4 bb3a
000000f0: 6336 1f3c 6c09 b2bc b07d 2bbb 77ea e6bc

weight f4 [16, 64]
-4.80571e-40 -1.9307059e-10 4.02414e-40 2.66884e-40 -0.005107139 -2.8844416e-12 4.31251e-40 3.35093e-40
-5.1442685e-20 -1.6057886e-11 2.27309e-40 7.4674e-41 -3.3747e-40 -1.36722e-40 4.14058e-40 -7.1071824e-09
6.9021e-41 -1.1176574e-09 -1.15538e-40 -2.1447e-40 1.39372e-40 2.801678e-20 2.85806e-40 2.47579e-40
-2.95628e-40 -1.81509e-40 -9.702954e-10 -1.5533408e-34 -1.76405e-40 -1.7745195e-27 -0.00047127416 1.72685e-40
2.32785e-40 4.64608e-40 7.3549034e-13 0.043943256 2.3358e-40 -5.0770763e-11 7.0629835e-11 9.0546e-41
3.14272e-40 -9.60997e-06 2.3561e-41 2.12591e-40 2.73878e-40 -8.250105e-15 -4.81252e-40 -6.0946704e-08
-4.0591704e-20 -4.22766e-40 2.72816e-40 1.9440586e-06 4.40023e-40 1.8566e-40 2.6755e-40 -4.7968945e-07
-2.5671195e-18 -1.1182123e-12 -2.4758251e-11 0.01946414 -0.04255957 -0.030608144 -0.020973971 -0.042228583
-0.0143986335 -0.4055358 -0.00517465 -0.0032729076 -0.16249575 -0.018019257 -3.7737455e-38 -0.069784865
-0.0081317015 0.0016213632 0.15016195 -0.02635031 -0.008752768 -0.11092321 0.087055564 0.02141767
-0.014439057 0.001933441 0.06399554 -0.3400242 0.118681155 -0.02793019 0.00017432631 0.004578033
-0.014204187 -1.8509047e-24 0.00051876024 0.007549408 -0.013531701 0.15313622 0.006297203 0.12939213
-0.05832538 -0.07213666 -0.08250016 -0.188461 0.0015132214 -0.14161338 -0.011832428 -1.3670265e-19
-0.019046351 -0.1451154 0.13925181 -0.23705328 0.07456905 -0.3313556 -0.04322707 -0.016563667
-0.112395436 0.08362428 0.027421568 0.0046450114 0.03177383 0.010184746 0.010867885 -0.00808724
0.013767192 0.12173955 0.033159073 -0.011942735 -0.09292909 0.0181037 -0.00012718844 -0.17469342
-0.06112827 0.07763221 -0.29849672 0.00020336763 -0.02023799 0.046710648 -2.9672168e-05 -0.042795278
-0.02353244 0.02969604 -0.04040489 0.067577206 -1.42323e-40 0.045024585 -0.19534193 -0.056992613
0.12239592 0.0884509 -0.1162424 -0.094402134 -0.17946473 0.002028106 0.001094853 -0.0012744685
-0.029762974 -1.26002e-40 -0.037305783 0.05455387 -0.019767083 -0.048895545 0.0658638 -0.14011578
-0.011739363 0.005961263 -0.010117522 -0.022502445 -0.028532766 0.0038511334 0.028722107 0.0025120226
0.016123123 0.032350775 -0.08921735 -0.006596292 -0.046337396 -0.021574322 -0.047760207 0.0011446632
0.002227351 -0.2683952 0.039065246 0.06527381 -0.05376369 0.02652265 0.06041315 0.017901892
-0.016847981 -0.044327434 -0.038225386 0.0086735515 0.005184117 0.12739384 -0.005828445 -0.05687348
4.75962e-40 -0.16761407 0.05127739 -0.0032556166 0.0038884445 -2.7876847e-06 -2.65126e-40 2.3967e-40
0.01629423 0.0025288542 -0.004264391 -2.8015881e-08 -4.09601e-40 -0.0103201 0.021455754 0.00050878257
-4.4758803e-14 -0.044073515 -0.051739663 0.023157947 -0.00550798 0.0428151 -1.08205e-40 5.34224e-40
3.3120502e-06 2.5704e-40 -0.006919721 -4.871715e-10 -0.00017397679 -4.6431147e-08 -0.031760033 -0.026503714
0.008925328 3.26997e-40 -0.06199549 -0.19235203 -0.060881563 -0.039989818 -0.004554221 2.31007e-40
0.022416174 -0.069434874 0.011589438 -0.06069664 -0.0003900821 8.2633844e-11 -0.036181685 0.05037011
0.0039851526 -0.12607123 -0.00031217045 -5.616365e-10 -0.04351912 -1.3000527e-29 0.00013477459 -1.383797e-06
-0.00023273593 -0.0057136673 -1.4344719e-08 -0.020995826 0.07436889 -7.1799316e-11 0.021950932 0.06614585
00000000: a33b 0580 8a48 54af c461 0400 f7e7 0200
00000010: c959 a7bb 7bf9 4aac 27b2 0400 1aa6 0300
00000020: 64ee 729f 253f 8dad a579 0200 29d0 0000
00000030: bbac 0380 207d 0180 3a82 0400 7033 f4b1
00000040: 67c0 0000 139c 99b0 1342 0180 db55 0280
00000050: 8384 0100 354e 041f b61c 0300 26b2 0200
00000060: 1738 0380 f9f9 0180 3c5b 85b0 7379 4e87
00000070: bfeb 0180 8897 0c93 5915 f7b9 60e1 0100
00000080: e988 0200 230f 0500 aa05 4f2b d8fd 333d
00000090: 208b 0200 cc4a 5fae 1051 9b2e 68fc 0000
000000a0: 106c 0300 823a 21b7 ae41 0000 9e50 0200
000000b0: 76fb 0200 e59e 14a8 893d 0580 cee1 82b3
000000c0: 5cb0 3f9f 809a 0480 80f8 0200 ac76 0236
000000d0: 9bca 0400 8b05 0200 d2e9 0200 02c4 00b5
000000e0: 846b 3da2 d85f 9dab a0c6 d9ad 4373 9f3c
000000f0: f252 2ebd eebd fabc 9bd1 abbc e1f7 2cbd
00000100: 3fe8 6bbc 63a2 cfbe 1c90 a9bb 477e 56bb
00000110: 4965 26be 1f9d 93bc 5676 4d81 5eeb 8ebd
00000120: d43a 05bc ec83 d43a 0ec4 193e 9bdc d7bc
00000130: c567 0fbc b52b e3bd 304a b23d 1c74 af3c
00000140: cb91 6cbc 846b fd3a 1810 833d a717 aebe
00000150: 1b0f f33d dbcd e4bc 5dcb 3639 5303 963b
00000160: aeb8 68bc f234 0f98 69fd 073a 0661 f73b
00000170: 11b4 5dbc becf 1c3e c458 ce3b 5f7f 043e
00000180: 98e6 6ebd 63bc 93bd d8f5 a8bd ecfb 40be
00000190: 4957 c63a 1903 11be cddc 41bc d763 21a0
000001a0: 1807 9cbc 2299 14be 0798 0e3e 18be 72be
000001b0: a8b7 983d 71a7 a9be de0e 31bd 87b0 87bc
000001c0: 942f e6bd 3543 ab3d 32a3 e03c 2e35 983b
000001d0: 4725 023d ecdd 263c 370f 323c 5880 04bc
000001e0: ca8f 613c 9652 f93d cfd1 073d 76ab 43bc
000001f0: 9b51 bebd 364e 943c e35d 05b9 d5e2 32be
00000200: a361 7abd a3fd 9e3d 90d4 98be 153f 5539
00000210: 24ca a5bc aa53 3f3d 7fe8 f8b7 1a4a 2fbd
00000220: 1bc7 c0bc 1c45 f33c 997f 25bd eb65 8a3d
00000230: bd8c 0180 b36b 383d b707 48be 1671 69bd
00000240: b6aa fa3d bf25 b53d 7f10 eebd e855 c1bd
00000250: 9ac5 37be f9e9 043b 2c81 8f3a 110c a7ba
00000260: 7bd1 f3bc 3e5f 0180 f3cd 18bd e173 5f3d
00000270: 94ee a1bc b246 48bd 9ae3 863d 837a 0fbe
00000280: 7556 40bc b356 c33b f7c3 25bc 0c57 b8bc
00000290: 8cbd e9bc 4c63 7c3b a04a eb3c bfa0 243b
000002a0: a414 843c 3f82 043d 96b7 b6bd b525 d8bb
000002b0: 48cc 3dbd a2bc b0bc 35a0 43bd 8608 963a
000002c0: c0f8 113b 186b 89be e102 203d 46ae 853d
000002d0: 5137 5cbd 0746 d93c c773 773d fda6 923c
000002e0: c704 8abc af90 35bd 3992 1cbd 831b 0e3c
000002f0: 86df a93b 8873 023e 8afc bebb 2bf4 68bd
00000300: ca2e 0500 06a3 2bbe 3e08 523d 2f5c 55bb
00000310: 46d5 7e3b 0f14 3bb6 10e3 0280 1a9c 0200
00000320: 7a7b 853c 22bb 253b 4ebc 8bbb 93a7 f0b2
00000330: cd75 0480 a315 29bc fac3 af3c d25f 053a
00000340: 6393 49a9 6e86 34bd f8ec 53bd bcb5 bd3c
00000350: 497c b4bb e35e 2f3d a22d 0180 33d1 0500
00000360: 9744 5e36 86cc 0200 d4be e2bb a6e9 05b0
00000370: 8a6d 36b9 966b 47b3 cf16 02bd 511e d9bc
00000380: 8a3b 123c 898f 0300 fcee 7dbd eef7 44be
00000390: f25e 79bd 5dcc 23bd 933b 95bb f483 0200
000003a0: 20a2 b73c df33 8ebd a0e1 3d3c 0a9d 78bd
000003b0: ef83 ccb9 b8b6 b52e 3f33 14bd e350 4e3d
000003c0: e295 823b d118 01be cfaa a3b9 a861 1ab0
000003d0: 1b41 32bd 4cd7 838f 4752 0d39 e7ba b9b5
000003e0: 930a 74b9 b739 bbbb be70 76b2 70ff abbc
000003f0: b74e 983d 6ce3 9dae 71d2 b33c 7a77 873d

bias f4 [16]
-0.06605783 0.030967614 0.035287257 -0.07203686 0.041049626 -0.12136144 0.08552832 0.04284963
0.025010014 0.06890025 0.0115311695 -0.20375654 0.063989095 0.03820569 0.049929854 0.062168084
00000000: 5449 87bd cbaf fd3c 5f89 103d 1088 93bd
00000010: a723 283d 598c f8bd 7929 af3d 1883 2f3d
00000020: cde1 cc3c 931b 8d3d 3bed 3c3c 8ea5 50be
00000030: b70c 833d 927d 1c3d 3f83 4c3d f6a3 7e3d

weight f4 [3, 16]
-0.04598774 0.19760475 0.085184425 -0.20534381 -0.039685775 -0.01930534 0.0081861075 0.013074914
0.10448247 0.059286736 0.11159447 -0.18860345 0.082372054 0.10406226 -0.2307187 -0.014861065
-0.05135918 -0.10184208 0.11827675 -0.14406401 0.009193019 -0.13596852 0.06866206 -0.04765587
0.12884223 0.075267635 0.12061366 -0.1557006 0.11229516 0.14788441 -0.0806147 0.032563295
2.27987e-40 0.1831296 -0.18563013 0.0014128012 0.31678197 -0.0041325646 0.04421252 -0.04278828
0.14556137 -0.0076743015 -0.17514643 1.6204915e-18 0.06605796 0.10401612 0.15180174 0.101185344
00000000: a45d 3cbd e658 4a3e 2c75 ae3d a645 52be
00000010: 8d8d 22bd 3b26 9ebc 061f 063c 2a38 563c
00000020: e8fa d53d a6d6 723d a48b e43d 4321 41be
00000030: aeb2 a83d 981e d53d 8641 6cbe d37b 73bc
00000040: 015e 52bd 9592 d0bd 153b f23d 8485 13be
00000050: 519e 163c 553b 0bbe b29e 8c3d cd32 43bd
00000060: 38ef 033e eb25 9a3d 4b04 f73d fa6f 1fbe
00000070: 01fb e53d 036f 173e 5219 a5bd 1761 053d
00000080: 897b 0200 5386 3b3e d315 3ebe be2d b93a
00000090: 3f31 a23e 776a 87bb 3018 353d c342 2fbd
000000a0: 0a0e 153e b578 fbbb 9659 33be 7024 ef21
000000b0: 6549 873d 6706 d53d ea71 1b3e 433a cf3d

bias f4 [3]
0.97714466 0.90246874 0.5893194
00000000: 2726 7a3f 3108 673f a3dd 163f
