models/data_aug/C/model3.pt (torch, 353039 bytes, 8 tensors)

weight f4 [128, 384]
00000000: 7c8d 27ba 880e 93bc 044e 3939 3acc 893c
00000010: 5561 a5bc 3b1d aebc 729b 4c3c f8e7 14bc
00000020: 8d31 35bd 4dd2 10bc dc58 5fbd 1a84 8bbc
00000030: ead3 9cbc bcd0 32bd ffda a0bd 5239 90bd
00000040: b346 d4bc 8e62 c03c 42c7 99bc 29a3 0ebd
00000050: 2e50 493d 857b 113d 312d 06ba 3376 493c
00000060: 0357 fa3b bd76 223d 9ed7 0e3c e78f 283d
00000070: 405c 943c 9d44 133d 83d3 6e3d 81ff 383d
00000080: 9b79 10bd fe8a bb3b 2dce 8dbb bd32 103d
00000090: 6fff ee3c 3a4d 25bd e304 213d 3c1b f43b
000000a0: 2dc6 023d 7413 ef3c 28d1 10bb dfe7 92bc
000000b0: 9a34 d0bc e2c6 9e3b 4a30 333c c1d3 69bc
000000c0: 3251 9abc 6bae 0e3b 460d cabc c3af 1b3d
000000d0: b0f9 413d 2961 00bd cac0 f33c e8ce 85bc
000000e0: b41d 60ba 383b 8e3c 2f98 993c 1e55 f23c
000000f0: 6b3b 863d c48e 993d 3800 da3d 508d 513d
00000100: 2477 dc3c e353 853b fe55 0fbd 887e 13bd
00000110: 0559 58bd c53c 25bd b3e1 4abd c415 2a3d
00000120: 60a2 fdbc d865 3d3d 6cca 263d b464 dbbc
00000130: 8df1 10bd e4df d9bc 7a17 79bb 3064 65bc
00000140: b281 d53d be24 fb3c be93 0cbb e895 cdbc
00000150: 3771 8ebc ae1a 053d ade7 22bb 16b3 31bc
00000160: 70f8 79bd 4dcb b6bc 03a6 b33a 1f15 38bd
00000170: 95f9 b6bc 0450 bc3d 0753 973d f49c fc3d
00000180: b469 043d 9f8f 523d ce57 b53d 09cd 533d
00000190: 1116 243c 044b 7a3c d5d5 ff3c 7ba1 dc3c
000001a0: c0c0 fd3c 6628 113d 3bab 9d3c ac0b a83c
000001b0: ee6f c73b c2f1 233c 1f21 e93c f155 4d3a
000001c0: 3d12 033c 037b a0bb 95b1 0bbc 6b16 cabc
000001d0: ffad 00bd 75ff 9cba 4436 6d3d 1d2d 513d
000001e0: f4a3 523d 2d02 f9bc 30b1 f8bc 3182 e73c
000001f0: 6d8e b63d c511 c73d 6a05 ee3c 22bc 883d
00000200: aa72 973a 8781 54bd 2d0c efbb 3110 943b
00000210: e3a6 883c 95db 7d3c 6561 43ba dfd9 573d
00000220: ce4f 00bc 144b 98bc 64c8 2b3c a3a1 2c3d
00000230: 2a6c 503b 4d63 373c a055 553b b834 ad3c
00000240: dfc8 3ebc afa1 12bd 5db1 13bd 73da 213d
00000250: e6a2 553d f769 50bd 581f 0abd 40f7 f23b
00000260: 6205 43bc e269 063d 4ce3 ff3c f529 d53c
00000270: 66be 57bd c15c 21be 90e9 a3bd f8e0 9cbd
00000280: 8e81 113e 1d4d 023e ebb8 5c3d e15e 913d
00000290: fd2f 823d 4987 563c fc62 fabc 5af2 ab3c
000002a0: 7125 3f3c bb2c e03a f42c 893c 158c 25bc
000002b0: 57da e0bb dd2a 8c3c 9deb 593c 6745 993c
000002c0: ed6d dd3c 2c1f 95bb a5bc 083d 9486 b63b
000002d0: 3683 673d 4a1b aa3c 1bf5 0bbd 834e 8abd
000002e0: c385 05be c12c 1ebd fd3d cc3c d99c 7fbd
000002f0: c0f3 d8b9 44ca 84bc 0b2d 1bbd 93b7 243d
00000300: 5b31 d2bb ed4d 00bd 9143 a4bc b61e 3dbc
00000310: 757f 6c3d 8f07 373d 517c ac3c d05c b3bd
00000320: 8a6b 193d cabd 403d 3032 25bd a843 8c39
00000330: e41b 473c 3f06 b1bc bcfa 463c e47e 3fbd
00000340: a816 b8bc f636 d4bc 8015 b7bc 8bc0 1e3d
00000350: 2314 3f3d 0a57 b93d 8f32 ea3c c259 5fbd
00000360: a11c 983d 2661 e93c 853c fd3d dd7d d93d
00000370: d500 643c 35a3 b43d 197c 703d 4f31 2dbc
00000380: 713b f9bb 3ad2 2f3d dabc 7b3d 6b9c 0fbd
00000390: 6ce1 353d 15d3 e83c 302c 04bd 4b27 6abd
000003a0: c6ea bdbc e6d5 8f3d bd59 3f3c f5d9 08bd
000003b0: ae22 cf3b f2cc bd3c c891 8ab9 7cf9 6ebc
000003c0: d506 383a 6969 413c 7572 00bd 774d 18bc
000003d0: 856a 093c 0f6d b93c 2ded 5c3c 34b4 bd3c
000003e0: 4ad6 363d 90ee a13d 1628 5e3d 6093 6b3c
000003f0: 333e a8bc d6a5 25be 9c28 25be e623 94bd
-0.0006391627 -0.017951265 0.00017672038 0.016821016 -0.020188013 -0.021254173 0.012488233 -0.009088509
-0.04423671 -0.008839202 -0.054528102 -0.017030764 -0.019144017 -0.043656096 -0.0785427 -0.07042183
-0.025912618 0.023484495 -0.018771771 -0.03482357 0.04914873 0.035518188 -0.00051184284 0.012296247
0.007639767 0.03966402 0.008718399 0.04115286 0.018110394 0.035954107 0.058307182 0.045165543
-0.035272222 0.0057233563 -0.0043275566 0.035204638 0.029174535 -0.040356852 0.0393113 0.0074495357
0.031927276 0.02918408 -0.0022097323 -0.01793283 -0.025415707 0.004845486 0.010936806 -0.0142716775
-0.018837545 0.0021771442 -0.024664532 0.038009416 0.04735726 -0.03134266 0.029755015 -0.016334012
-0.0008549348 0.017362222 0.018749325 0.029581603 0.06554302 0.074979335 0.10644573 0.051160157
0.02691228 0.004068838 -0.034994118 -0.03600934 -0.05281927 -0.040341157 -0.04953165 0.041524664
-0.030961215 0.046239704 0.04072039 -0.026781417 -0.03538661 -0.026596017 -0.0038008378 -0.014000937
0.10425128 0.030657168 -0.0021450366 -0.025095895 -0.01738797 0.032496147 -0.0024857328 -0.01084592
-0.061027944 -0.022313738 0.0013706092 -0.044942018 -0.022335807 0.09194949 0.07388883 0.12334624
0.03232737 0.0514065 0.08854638 0.05170921 0.010015027 0.015276674 0.031229893 0.026932469
0.0309757 0.035438918 0.019246688 0.020513378 0.006086341 0.01000637 0.028458176 0.00078329357
0.007999954 -0.0048974766 -0.008526226 -0.024668893 -0.031415936 -0.0011977988 0.05791308 0.051068414
0.05142589 -0.030396545 -0.030357927 0.028260322 0.08913884 0.09720186 0.029055316 0.066765085
0.0011554558 -0.05188134 -0.0072951526 0.0045185317 0.01668114 0.015494247 -0.00074531726 0.052698012
-0.007831527 -0.018590488 0.010484789 0.042146336 0.0031802752 0.011193109 0.0032552257 0.021143302
-0.011644571 -0.035798725 -0.03605782 0.03951497 0.052157305 -0.050882306 -0.033721298 0.0074147284
-0.011903139 0.03281582 0.031236313 0.026020983 -0.052671812 -0.15758039 -0.08003533 -0.07660097
0.14209577 0.12724729 0.05388729 0.07098175 0.06356809 0.013093778 -0.030564778 0.020989586
0.011666642 0.0017103174 0.016745068 -0.010104199 -0.0068619656 0.017110283 0.0133008035 0.018709851
0.027029956 -0.004550835 0.03338303 0.005570242 0.056521617 0.020764966 -0.034169298 -0.06753256
-0.13039307 -0.0386169 0.024931902 -0.06240544 -0.00041380338 -0.016209729 -0.037884753 0.040214133
-0.006414575 -0.031324316 -0.02005175 -0.011542967 0.05773874 0.044684943 0.021055372 -0.08757937
0.037456073 0.047055997 -0.040331066 0.0002675329 0.012152646 -0.021609424 0.012144741 -0.04675187
-0.02247174 -0.025905114 -0.02234912 0.038757842 0.046650063 0.090498045 0.028588561 -0.05452896
0.074273355 0.028488707 0.12365059 0.1061971 0.013916214 0.08820192 0.0587121 -0.010570838
-0.007605963 0.042925097 0.0614594 -0.03506128 0.044404432 0.028420964 -0.032268703 -0.05716638
-0.023183238 0.0702322 0.01167911 -0.033410985 0.006321273 0.023169015 -0.00026430027 -0.014585849
0.0007020061 0.011804917 -0.031359155 -0.009295813 0.008387213 0.022635011 0.0134842815 0.023157217
0.044637956 0.0790683 0.054237448 0.014378399 -0.020537471 -0.16176543 -0.16128772 -0.072334096

bias f4 [128]
00000000: b49c 0b39 929f fc3a df23 853c b1cf 5eba
00000010: d3b5 8f38 234d 623c f7b1 903a 84fb 15ba
00000020: 1a82 aa3c 1b75 01bb 11a6 013d 05ba 22bc
00000030: 38a2 6fbb 6b65 8cba 7d55 be3a 6e53 b83b
00000040: 9c56 413b 93f8 b238 1516 9fb9 b0f7 bb3c
00000050: d56b 433c 04ca ed3b 5f75 aab9 8c5a 533b
00000060: f1e9 28bc 0497 a93c cce0 203b ba13 853a
00000070: c4f7 bcba 1cc5 c7bb 11df 813c 2d16 063a
00000080: 5f30 0d3d 9320 ba3a d818 8fbb 07e3 223c
00000090: e825 8937 1369 763a bdc0 c539 e6d9 cc3a
000000a0: 3186 52b8 2da2 333c 605b eabb 5ecc 533c
000000b0: f4df 6cbb 7548 3e3c a6e4 253b 647c 7d3c
000000c0: 598e b8bb 318f b33a c407 553c 2f45 933c
000000d0: 765d 013d 80cc 00b9 de79 893c aa45 e33a
000000e0: dac8 51ba efdb 4c3c 0cee 24b8 46a8 ba3b
000000f0: 683c a63c 6516 26ba 2737 223a 1ef5 803a
00000100: 2013 313b d27e e63c 54f5 7cbb a4c6 a13c
00000110: 9557 203b 7a62 803c e0bd 0ebb be4c 743b
00000120: 7ffc 1539 fb3e 823b cc27 3d3a d949 9d3c
00000130: 58f8 09ba f1bf 7e3a 45b5 de3a dba0 c53c
00000140: e39e b139 6882 823c 8e16 e838 8bbd 68bb
00000150: 2d9c 9d39 698a 96ba 39f6 bbba b87a 663b
00000160: 9c9d 273b b897 b23a 91f7 d63c e64b 023c
00000170: 6eae caba 22eb 013b 9da4 9a3c e894 4f3a
00000180: d07c b0bb ac0b e73b 2065 21bc a2f5 983a
00000190: f6c7 163b a2a6 9e3c 576d ad3c 2d40 be3a
000001a0: 89f9 87b9 8f98 0c3b 758b 99ba e8d1 013d
000001b0: b80e 463b 1ea5 6d3a 5844 ba3c cd9b b2ba
000001c0: 7d53 123b 8f35 173d 42b4 c73a b94c 693b
000001d0: 4399 a83b b45b 943b dae4 c03c 1c60 ec3c
000001e0: 68b7 9b3c fd1a 673c a9ec 5c3a d426 f1b9
000001f0: ad51 843a d380 d0ba 0bd5 943c 398b 6639
0.0001331445 0.001927363 0.016252456 -0.00084995764 6.852639e-05 0.013812336 0.0011039366 -0.00057213777
0.02081399 -0.0019753638 0.031652514 -0.009932046 -0.0036565196 -0.0010711377 0.0014521327 0.00562518
0.0029501086 8.534002e-05 -0.00030343296 0.022945255 0.011927565 0.007256748 -0.00032512375 0.0032250015
-0.010309682 0.020701893 0.0024548052 0.0010152974 -0.0014417102 -0.0060964953 0.015853437 0.0005114999
0.03446996 0.0014200382 -0.0043669753 0.009941823 1.6349324e-05 0.00093998126 0.0003771837 0.0015628904
-5.0192877e-05 0.010963959 -0.007152006 0.012927143 -0.0036144229 0.011613955 0.0025313287 0.015471552
-0.0056322035 0.001369929 0.01300234 0.017977325 0.031583272 -0.00012283213 0.016781744 0.0017339487
-0.00080026465 0.012503608 -3.9322345e-05 0.0056963293 0.020292476 -0.00063357345 0.0006188028 0.0009838676
0.0027019456 0.028136645 -0.0038598375 0.01974804 0.0024466265 0.015671957 -0.0021780655 0.0037277187
0.0001430381 0.003974793 0.0007215708 0.019200252 -0.00052631414 0.00097179326 0.0016991278 0.024124553
0.0003387845 0.015931323 0.00011066823 -0.0035513367 0.00030061734 -0.0011485341 -0.0014340348 0.003516836
0.002557612 0.0013625538 0.026241096 0.007952666 -0.0015463361 0.0019823988 0.018877322 0.0007918612
-0.0053859726 0.007050952 -0.00985077 0.0011669884 0.002300737 0.019366566 0.021170301 0.0014514975
-0.00025935125 0.0021453237 -0.0011714535 0.031694323 0.0030221175 0.0009065437 0.022737667 -0.0013626755
0.0022327595 0.03691631 0.0015236216 0.0035598709 0.0051452233 0.0045275334 0.023546625 0.028854422
0.019008353 0.014105556 0.0008427599 -0.0004599603 0.0010095142 -0.0015907533 0.018167993 0.00021986374

weight f4 [128, 128]
00000000: da12 333e cd80 33bd 7849 45be 9a6e 3ebd
00000010: f182 03bd 0c3b 903d 7068 d13c 60a4 31bd
00000020: 860a 753d 43eb 07bd 1d2f c33d 4886 673e
00000030: 096d 22bd 5c87 21bd 9a67 3fbd 9081 813d
00000040: 55bb cfbc 06f6 31bd 2539 1dbd 40f5 743d
00000050: 73a3 783d e5d9 a33d 1d5a 22bd 47f0 28bd
00000060: cf08 1b3e 0075 ed3d 210d 06bd c59f 24bd
00000070: e11e abbd aa6e 6d3e 1dbb 7a3d 0ad7 1cbd
00000080: 1787 dc3d d8e8 43bd 7000 f8bc 39aa e33d
00000090: 3735 00bd 760d 27bd db69 03bd baf6 56bc
000000a0: dde6 0cbd c30b d33d c2f9 25be 908c 8b3d
000000b0: b555 23bd 831f 7d3e d1e1 a53d 5fda 893d
000000c0: bf04 c3bd 6468 10bc ca38 573e 8765 8f3d
000000d0: 06eb b83d cd97 1abd 5b80 4cbe 1ea7 10bd
000000e0: 8f67 25bd 57d6 fb3d 08a1 08bd 5edf 253e
000000f0: 7d27 46be 8293 1bbd a56c 1ebd 3715 2bbd
00000100: 521b 19bd 99a8 c03d c01a 2b3d 8121 063e
00000110: 7fcb 24bd 2a6c a03d d8ea 2cbe 484a 9a3d
00000120: aaec 23bd c2cd 8e3d 1ddb 20bd 3f9f 943d
00000130: 7ee0 01bc cd62 13bd c108 2abc 6ad6 dd3d
00000140: 22cf fbbc bd08 ef3d cb67 17bd 2330 933d
00000150: 01f3 1fbd 2491 1cbd b7d3 12bd b84e 403d
00000160: 3ebe 08bd 0e07 a4bb db97 f53d 479a a13d
00000170: 2dd3 24bd e599 3ebd d018 a23d e228 20bd
00000180: 338d d0bd 8c1b a13d c7ea 24be 01bc 13bd
00000190: 8ea9 08bd f53b 833d cf44 913d 1eb6 4bbd
000001a0: de4e 20bd c776 39bd 6b50 0dbd 5e6d 4e3e
000001b0: 32c6 203e 0706 2ebd 2e4d 023e d739 18bd
000001c0: db39 abbd 1bf1 b83d ed54 36bd 09a1 87be
000001d0: 0706 16be a252 153e 2e6a e43d c57f f73d
000001e0: c73a 863d 10b8 8b3d d189 23bd da96 b6bd
000001f0: 1f2c 1dbe 664b 17bd a87c 8d3d bde8 10bd
00000200: 0d41 31be 83ab 363d edae 453e df1e 413d
00000210: 89b1 073d 7741 90bd 9761 d1bc 8564 343d
00000220: 9089 74bd a816 0b3d 68f0 bebd 8f52 65be
00000230: ba75 233d 01d9 253d b911 3d3d 6a98 81bd
00000240: 893d ce3c 61c2 353d 2eb8 203d a92e 74bd
00000250: ca75 71bd 97e2 a3bd e1c2 263d 9ffc 2c3d
00000260: 0d31 19be 06d0 e9bd 268b 0a3d e34d 293d
00000270: 134a aa3d cbfd 69be fcda 7abd 96bb 203d
00000280: 3d19 d7bd 9444 483d f902 e73c b2f8 debd
00000290: eca5 043d 69ac 2b3d 3eea 073d 46f6 563c
000002a0: a021 113d 73bf cfbd 3e5f 253e c995 8bbd
000002b0: ae24 233d aebb 79be afb7 a5bd 57e7 89bd
000002c0: 1e8f c03d 50b1 103c 8156 54be f421 8cbd
000002d0: 6156 b4bd c20b 1f3d 7ece 4d3e b049 153d
000002e0: 8c4b 243d c445 f5bd 6729 0c3d 566c 24be
000002f0: c7d1 463e ec6b 203d 045b 233d b4fe 2c3d
00000300: 7278 1b3d cd07 bcbd 131b 2bbd f3ff 03be
00000310: 1b3c 233d 6b7a a0bd d6e7 2c3e 43fb 99bd
00000320: 2d00 283d 73dc 8ebd b614 253d 119f 94bd
00000330: 5742 013c 7b6d 173d f60b 283c d98f d7bd
00000340: b910 fe3c 9c15 eabd aa36 1c3d 293d 93bd
00000350: 664f 243d c818 203d ff0e 143d 216d 40bd
00000360: b09f 0d3d 54ff a23b b5eb eebd d9a6 a1bd
00000370: 26c9 263d 9481 413d a1d2 a1bd 5821 253d
00000380: 7ebc d03d 342a a1bd 8cb4 253e 5b27 183d
00000390: 1ae4 0c3d 4344 83bd b452 91bd 16ad 4e3d
000003a0: 5a58 243d 2daa 3d3d 6fb9 0e3d 8721 4bbe
000003b0: 8c8f 1ebe cbbe 2f3d 8904 ffbd e119 193d
000003c0: 34b1 ac3d 4ae3 b2bd a55b 3a3d 8a93 873e
000003d0: 0f3f 173e e85b 13be 5eca dbbd 08b7 f1bd
000003e0: dde9 85bd dabc 8bbd fa25 283d 73fc b53d
000003f0: 77e8 1d3e b108 1b3d 5a8a 8dbd 92af 153d
0.1748766 -0.043824006 -0.19266307 -0.046492197 -0.032107297 0.07042512 0.025562495 -0.04336965
0.05982449 -0.033183347 0.095304705 0.22609818 -0.039654765 -0.03943573 -0.04672966 0.0632354
-0.025357882 -0.043447517 -0.038384575 0.0598042 0.060702752 0.080005445 -0.03963672 -0.04124477
0.15140079 0.115945816 -0.032727364 -0.04019143 -0.08355499 0.23186746 0.0612136 -0.038291015
0.10767954 -0.04782948 -0.030273646 0.11116452 -0.03130075 -0.04078432 -0.032083374 -0.013120348
-0.034399856 0.10304978 -0.16208556 0.068139195 -0.03987666 0.24719052 0.08099712 0.06731104
-0.095223896 -0.008813951 0.21017757 0.07001787 0.09029202 -0.037742425 -0.19970839 -0.035315625
-0.040381964 0.122967415 -0.033356696 0.16198489 -0.19351001 -0.03798247 -0.03867783 -0.04176828
-0.03737957 0.094071575 0.041773558 0.13098718 -0.04023313 0.07833131 -0.16886461 0.07533699
-0.040020622 0.06972839 -0.039271463 0.07256936 -0.007927058 -0.035982896 -0.010378064 0.10831912
-0.030738417 0.116715886 -0.03696422 0.07186916 -0.039050106 -0.038224354 -0.03584644 0.046950072
-0.033384554 -0.005005724 0.11991855 0.07890754 -0.040240455 -0.046533484 0.07914889 -0.03910149
-0.101831816 0.07866582 -0.16105185 -0.036067966 -0.033364825 0.0640792 0.07093202 -0.049734227
-0.039137714 -0.04527929 -0.03450052 0.20158908 0.15700606 -0.042486217 0.12724754 -0.037164535
-0.083606444 0.09030362 -0.044514585 -0.26490048 -0.14650737 0.14582303 0.11153065 0.12084917
0.0655418 0.068222165 -0.039926354 -0.089154914 -0.15348862 -0.03693714 0.06908542 -0.035378207
-0.17309971 0.04459716 0.1930501 0.04714858 0.033128295 -0.070437364 -0.02555923 0.044041175
-0.059701502 0.033957154 -0.093231976 -0.22394775 0.039907195 0.040490154 0.04615948 -0.06327899
0.025175827 0.044374827 0.039238147 -0.05961481 -0.058950223 -0.08002203 0.040713195 0.042233106
-0.14960118 -0.114166304 0.03382411 0.041334044 0.0831491 -0.2285072 -0.061243996 0.039241396
-0.10502861 0.048893526 0.02819966 -0.108872786 0.032384798 0.04191247 0.033182375 0.01312024
0.035432458 -0.10143938 0.16149613 -0.068156786 0.039829902 -0.24388 -0.080916755 -0.06733578
0.094022974 0.008831337 -0.20736124 -0.068424135 -0.08805538 0.038829572 0.20098302 0.036447227
0.04011111 -0.11976197 0.03421917 -0.16056952 0.19415961 0.039165422 0.03988172 0.04223509
0.037956662 -0.091811754 -0.041773867 -0.12890606 0.039852243 -0.078358494 0.16885313 -0.075186275
0.041015793 -0.06975641 0.040302955 -0.07256902 0.007889352 0.036969643 0.010256758 -0.10525484
0.031013833 -0.11429903 0.03813807 -0.071894 0.040114783 0.039086133 0.036147114 -0.046979073
0.034576118 0.004974285 -0.11666051 -0.07893152 0.040719174 0.047242716 -0.079015024 0.040315002
0.10192202 -0.07869378 0.16182154 0.037146907 0.034397222 -0.06409504 -0.070958525 0.050458036
0.04012332 0.04630487 0.034844812 -0.19837008 -0.15484446 0.042906564 -0.12452037 0.037378196
0.08432236 -0.08734758 0.045497555 0.2647975 0.14770149 -0.14390528 -0.10731958 -0.118024886
-0.065387465 -0.0682313 0.041051842 0.088860415 0.1542071 0.037850086 -0.06911154 0.03654439

bias f4 [128]
00000000: e476 963b 4ac7 37bb f070 3d3b bc47 ab3b
00000010: 1775 bebb af59 ccbb 8a1e 3a3b db20 39bb
00000020: 7172 3fbb ace2 aebb 1878 373b af96 bdbb
00000030: bcb7 80bb 25ce 3abb 62ae 3dbb d6a4 a33b
00000040: 9634 d43b 8448 afbb 9538 3d3b 2458 35bb
00000050: 2918 e4bb 129f d23b f3ed cb3b 0b48 44bb
00000060: 95e1 d8bb 06d3 2f3b e48d 3b3b 56a1 c8bb
00000070: 952a dc3b 1686 3c3b c95a 38bb 2a86 593b
00000080: 682b 473b 686a be3b 4144 2dbb 06a9 443b
00000090: ccbb e73b 53d2 453b f416 d83b 2954 aa3b
000000a0: e04a 38bb 90bf aebb 080b bd3b 3852 c63b
000000b0: 9e7b e43b 8b2e 88bb 052c c0bb e655 e33b
000000c0: acd1 4abb 4f32 2c3b 6b07 d9bb 1df2 2f3b
000000d0: 668d 3dbb c81c b93b 8719 9f3b 3958 8f3b
000000e0: 4b58 413b bba1 63bb f959 e83b bc9c a63b
000000f0: d7b7 303b d16d 47bb cd91 a5bb 3ea7 9a3b
00000100: 24fe 473b 5c4c e73b 7b16 df3b 5e2f 383b
00000110: 5a23 3fbb 4a10 42bb 6f22 c0bb 0080 a23b
00000120: de09 a3bb 2c65 32bb c750 b2bb 0dad e3bb
00000130: fe98 563b 00db e1bb 71e5 39bb 7d1e e83b
00000140: 75ab 353b 0d62 b1bb 6df9 433b 6d2c cdbb
00000150: da13 b93b ffe8 a2bb 20ac 3f3b 5f47 c73b
00000160: cc44 30bb b7e7 8ebb 1a1d c1bb 1530 9c3b
00000170: 3035 38bb 72ae 3ebb 1682 e3bb 7588 e73b
00000180: 4abc cdbb 9473 3fbb 355b e53b 6b81 433b
00000190: a25e 3a3b 3878 d4bb 6d65 da3b 346f a6bb
000001a0: 1b83 c7bb 7595 e2bb 44c8 a1bb a909 e53b
000001b0: 3150 41bb cdc2 c5bb ebff 83bb 28c2 39bb
000001c0: 83d5 a7bb 7440 3f3b 5f7b 5abb fbd3 e03b
000001d0: 2330 413b c235 383b 74f1 3c3b 0120 e8bb
000001e0: b030 5b3b 094a 43bb 1713 de3b 7bb0 ca3b
000001f0: eeba e1bb 3532 3fbb 76aa e53b d12e 89bb
0.0045918096 -0.002804237 0.0028906427 0.0052270573 -0.005812298 -0.006236277 0.002839955 -0.0028248343
-0.00292125 -0.00533708 0.0027995165 -0.005785785 -0.003928153 -0.002850422 -0.0028943052 0.004994015
0.0064759953 -0.0053492207 0.0028872837 -0.0027670944 -0.006960888 0.006427654 0.006223434 -0.0029950168
-0.0066186883 0.002682866 0.002861851 -0.0061227484 0.0067189434 0.0028766445 -0.0028130284 0.003319154
0.0030390862 0.0058110245 -0.0026438388 0.0030007972 0.0070719477 0.0030185177 0.006594533 0.005198021
-0.00281208 -0.0053328946 0.0057691373 0.0060522817 0.006972744 -0.004155939 -0.0058646225 0.00693773
-0.0030947728 0.0026275103 -0.0066231987 0.0026847192 -0.0028923391 0.005649183 0.004855338 0.0043745306
0.002950209 -0.003473385 0.0070908037 0.005084602 0.0026965046 -0.0030430446 -0.005052781 0.004719644
0.003051647 0.0070586633 0.0068081 0.0028104405 -0.0029165358 -0.002961176 -0.00586348 0.0049591064
-0.0049755415 -0.0027220948 -0.0054417583 -0.0069481195 0.0032745 -0.006892562 -0.0028365518 0.0070837126
0.0027720605 -0.0054133 0.0029903308 -0.0062613995 0.0056481184 -0.004971623 0.0029246882 0.006081506
-0.0026896475 -0.0043611187 -0.0058933618 0.004766474 -0.0028107874 -0.0029095677 -0.0069429977 0.0070658275
-0.0062785493 -0.0029213177 0.006999398 0.0029831778 0.0028437753 -0.0064840578 0.006664923 -0.0050791744
-0.006088627 -0.0069147893 -0.0049372036 0.006989677 -0.002949726 -0.006035185 -0.0040283105 -0.0028344486
-0.005121888 0.0029182704 -0.0033337695 0.0068612075 0.0029478155 0.0028108214 0.002883044 -0.0070838933
0.0033445768 -0.0029798767 0.006777178 0.006185589 -0.006888739 -0.0029174213 0.007008846 -0.004186489

weight f4 [128, 146]
00000000: 73d2 8cbc ef93 783c 5d06 7cbc a0f7 91bc
00000010: 7e8d a03c 61ae a63c 74a5 77bc 8b08 7b3c
00000020: 9a6a 803c 2a02 9d3c 061c 75bc e0f2 a03c
00000030: 78b5 853c b9e1 7a3c d0b4 883c fa3c 90bc
00000040: e941 9dbc 0000 933c 73f6 76bc 3feb 723c
00000050: 5d49 a63c 77ac a4bc a697 a3bc 40a8 713c
00000060: 6880 a53c 5a2a 6fbc cbeb 78bc 9af3 a23c
00000070: 56f7 a5bc 3271 79bc e313 7c3c 68cd 7dbc
00000080: 943d 70bc adb6 96bc 5d84 713c 192f 8abc
00000090: 8684 a4bc 0f76 6ebc 622f 9ebc 2fd2 91bc
000000a0: 2403 803c 13d7 923c 477e a0bc c285 a2bc
000000b0: 09ed a2bc 3227 923c 0885 a13c 697d a6bc
000000c0: 874d 7a3c dd4e 6abc 2d4c 9e3c f729 71bc
000000d0: fc97 923c fcbc 95bc b691 98bc d401 94bc
000000e0: 1f5f 6dbc 0aed 8a3c d286 a5bc 6220 91bc
000000f0: dbea 70bc 14fd 713c a8f2 903c 1d18 8dbc
00000100: 7499 71bc cd24 a4bc 7b64 a6bc aca1 76bc
00000110: 34b4 783c 71c7 6d3c 2506 a13c 79b3 99bc
00000120: 2e0a 9a3c fc7d 763c 1aee 933c 1c33 a63c
00000130: c4d9 7cbc 745f a63c 772b 823c 72b4 a5bc
00000140: cbef 76bc 24a9 9d3c 91a8 70bc 8dcb a33c
00000150: db47 9fbc b5cf 9b3c 95cc 81bc d962 99bc
00000160: a9a1 713c 335f 943c 52b8 a13c c0f2 97bc
00000170: 316c 763c 1613 8c3c ec6e a63c d631 a6bc
00000180: 4037 9b3c f4de 783c 9f59 a6bc 2056 8abc
00000190: 09ca 82bc f550 9d3c 87e8 9ebc a09d 903c
000001a0: 1959 993c 7b1c a63c 3d98 993c 4459 a6bc
000001b0: cd39 793c f541 a23c 4c38 863c da6e 703c
000001c0: 1938 9b3c 59e8 76bc f804 7e3c b13c a6bc
000001d0: 11a7 8dbc 28fc 75bc 0d59 7cbc 6596 a53c
000001e0: 979a 7ebc 67df 723c b32a a6bc fd3b 9abc
000001f0: ae7c a63c 6abc 783c 5638 a6bc b993 873c
00000200: 4b61 3339 78dd 51b9 5fb4 503a a042 9cb9
00000210: 080b bfb9 3d80 2eb9 111f 593a 7ab3 8cb9
00000220: a977 9db9 8b9c 853a fece e439 8c4c cdb9
00000230: ce57 e039 add3 5db9 90be e239 9b7c 65ba
00000240: 363f a439 39de ef38 1f62 fc84 7f2c fa04
00000250: 6138 fa84 72de fc84 1a04 fe04 53ac fe04
00000260: 4b33 fa84 0560 fa04 0f90 fa04 39f3 fd04
00000270: 4b33 fa84 104f fe04 d9ac fb04 3662 fa04
00000280: 6ff4 fa04 4bb3 fc84 c540 fe84 4e22 fd04
00000290: 6b7e fa84 b40b fa04 c40a ff04 c9e1 fe84
000002a0: e172 fe84 1635 fa04 39a6 fe04 63eb f984
000002b0: cf4c fa84 ea8a fe04 52f2 fe84 935c fa84
000002c0: 6287 fa04 06ee fa84 3245 fa84 e0a7 fd84
000002d0: 2bed f904 f648 fb84 f001 ff84 ae1c fa84
000002e0: 486e fe84 b612 fd84 bc7a fa04 080c fd04
000002f0: c347 fe84 cb6e fe84 2ed7 fe84 8fb1 fc04
00000300: d72c fe04 39ef fe84 e69a fa04 61bb f984
00000310: d72c fe04 5aea f984 b789 fb04 a893 fd84
00000320: 7569 fd84 64d8 fc84 0139 fa84 1494 fb04
00000330: a30f ff84 bbc1 fc84 dd28 fa84 466d fa04
00000340: c0dd fc04 de62 fc84 2d55 fa84 d6d8 fe84
00000350: 5b22 ff84 b73e fa84 f65e fa04 441c fa04
00000360: f235 fe04 8658 fd84 bc2f fd04 d124 fa04
00000370: 1f35 fd04 2dc7 fe04 e4dc fa84 9bcb fe04
00000380: eec7 fa04 892c ff84 0a2c fa84 e9ce fd04
00000390: 5746 fa84 87b2 fe04 44e6 fd84 287c fd04
000003a0: ba9e fa84 d49c fd84 1c13 fa04 78d4 fc04
000003b0: 3f50 fe04 412f fd84 895f fa04 2502 fb04
000003c0: 9ef3 fe04 db1c ff84 eee8 fd04 7e60 fa04
000003d0: cef4 fe84 0731 fb84 fedd fa84 4e35 fe04
000003e0: e950 fe84 efcb fc04 97d6 fd04 8efa fe04
000003f0: 2452 fd04 91ee fe84 b18c fa04 023d fe04
-0.017190194 0.015171989 -0.0153823765 -0.017818272 0.019598719 0.020346822 -0.015115131 0.015321861
0.015675832 0.019166071 -0.014960295 0.019647062 0.016321883 0.015312606 0.01668778 -0.0176072
-0.019196467 0.017944336 -0.0150734065 0.014826595 0.020298654 -0.020101769 -0.019969773 0.014749587
0.02020283 -0.0145975 -0.015192936 0.019891549 -0.02025954 -0.015224742 0.015385601 -0.015490867
-0.014663119 -0.018397653 0.0147410305 -0.016868161 -0.020082723 -0.014554515 -0.019309703 -0.017800419
0.015626498 0.017924821 -0.019591464 -0.019839171 -0.019888418 0.017840955 0.019716755 -0.020323472
0.015277273 -0.014301029 0.019323433 -0.014719478 0.017894737 -0.018278591 -0.018624168 -0.018067278
-0.014488011 0.016958732 -0.020205889 -0.017715637 -0.014704431 0.014769811 0.017693833 -0.017223412
-0.014746059 -0.02003708 -0.020311585 -0.015053194 0.0151796825 0.014512883 0.01965625 -0.018762337
0.018803682 0.015044685 0.018057872 0.020288043 -0.015432779 0.020309187 0.015889866 -0.020227645
-0.01507182 0.019245692 -0.014688627 0.019994522 -0.019443443 0.01901994 -0.015844623 -0.018723892
0.014748015 0.0181118 0.019741211 -0.01854837 0.015040443 0.017098945 0.020316564 -0.020287436
0.018947244 0.015189875 -0.020306407 -0.01688677 -0.015965478 0.019203642 -0.019397987 0.017653286
0.018719243 0.020277252 0.01874935 -0.020306237 0.015211535 0.019806841 0.016384266 0.014674867
0.018947648 -0.015070044 0.015504114 -0.020292612 -0.017291578 -0.015013732 -0.015402091 0.020213315
-0.015539787 0.014823771 -0.020284032 -0.018827433 0.020323124 0.01518164 -0.020290535 0.016549932
0.00017107015 -0.00020014297 0.00079614477 -0.00029804278 -0.00036438578 -0.00016641706 0.00082825223 -0.000268366
-0.00030034527 0.0010193748 0.0004364177 -0.0003915768 0.0004279003 -0.00021155058 0.0004324806 -0.00087542244
0.00031327613 0.000114378 -5.9335025e-36 5.881558e-36 -5.8826493e-36 -5.94492e-36 5.971888e-36 5.9873368e-36
-5.8821823e-36 5.8862898e-36 5.8907014e-36 5.970338e-36 -5.8821823e-36 5.978772e-36 5.9168552e-36 5.886491e-36
5.8999194e-36 -5.940957e-36 -5.9774594e-36 5.9511518e-36 -5.8890814e-36 5.8785465e-36 5.99601e-36 -5.9922464e-36
-5.9820613e-36 5.882347e-36 5.9867764e-36 -5.8755787e-36 -5.8845255e-36 5.9842685e-36 -5.993765e-36 -5.8859734e-36
5.8899047e-36 -5.8993308e-36 -5.8838263e-36 -5.9634183e-36 5.8757423e-36 -5.907682e-36 -5.995199e-36 -5.8801056e-36
-5.981639e-36 -5.9497197e-36 5.888743e-36 5.9491063e-36 -5.9781016e-36 -5.981686e-36 -5.9912724e-36 5.9407977e-36
5.9756292e-36 -5.9934804e-36 5.891697e-36 -5.87117e-36 5.9756292e-36 -5.8754837e-36 5.9136288e-36 -5.9615615e-36
-5.957686e-36 -5.944364e-36 -5.8827067e-36 5.9145805e-36 -5.9964572e-36 -5.942283e-36 -5.8812245e-36 5.887507e-36
5.944856e-36 -5.933571e-36 -5.885294e-36 -5.9914245e-36 -5.9981762e-36 -5.8832312e-36 5.8861925e-36 5.8800675e-36
5.9764654e-36 -5.956131e-36 5.952385e-36 5.8808528e-36 5.9528798e-36 5.9898027e-36 -5.8977574e-36 5.9902095e-36
5.8958324e-36 -5.999111e-36 -5.881516e-36 5.967003e-36 -5.8839314e-36 5.9879064e-36 -5.969148e-36 5.9594034e-36
-5.8920485e-36 -5.9624038e-36 5.8792267e-36 5.9440037e-36 5.9788807e-36 -5.952341e-36 5.8862453e-36 5.9011786e-36
5.993884e-36 -5.997671e-36 5.9693926e-36 5.886333e-36 -5.993993e-36 -5.905484e-36 -5.8978585e-36 5.9764066e-36
-5.9789417e-36 5.94322e-36 5.9677084e-36 5.994521e-36 5.955545e-36 -5.99342e-36 5.8903922e-36 5.977114e-36

bias f4 [128]
00000000: 15e5 9dbb 6595 a485 3a12 12ba 35d0 b738
00000010: 8c28 b9b7 f1c4 22b9 6948 f43a b794 0080
00000020: 7f60 f5ba 73fa 56b8 9e7d 98b8 1614 f195
00000030: bda8 a73a 49ed 2939 ca2d b43a 668a 14bb
00000040: bb60 9f3a 9db4 c13a f575 0189 9ec1 0eb8
00000050: 3057 708d 9d93 1ea1 50df 0580 59ef e195
00000060: d800 a13a 0805 733a 8cba bf3a 982f 0000
00000070: 2861 1cb8 8b8e 39bb 2553 bc8a 3154 b03a
00000080: 155c 903a d6b8 2a39 c10d 19b8 aa31 89b9
00000090: 07af d2ba 14a2 9cbb 1612 d53a c212 78b8
000000a0: 2507 c5b8 e02d 0000 47f4 74b9 900d 49b1
000000b0: dcf7 11bb 044d 3bb6 17a9 1cb9 49a2 80b8
000000c0: d316 a33a f6c7 c83a 99b6 ecba 56a6 9cb8
000000d0: 3461 da37 d626 c43a 703e 41bb 8098 0680
000000e0: 91e0 ce3a aed7 9083 0ca2 50b9 6f48 9ab9
000000f0: 14ae 2ab9 8b7e 96b8 8878 0437 fcc1 25b9
00000100: 1c56 bb3a d264 f3b7 5da7 cf3a f45e 1fb7
00000110: 4699 15bb 82d3 7eb8 d1ee 9e3a 71e5 2fb8
00000120: 5d6b 45b9 3863 98b9 c345 d438 6f1f d83a
00000130: 5b15 e4b8 f892 eab8 1b31 acb7 d0cb aa39
00000140: 5a9e cc3a e2f0 963a 3e39 15ba 0a2e 42b9
00000150: 0151 11bb 02dd fcb8 86ff 0139 2e4b c187
00000160: c3ca d5b8 eb52 833a ad33 9eb8 16fc c787
00000170: 15d4 3a36 c572 af3a f554 c2b6 dffc 4f3a
00000180: 1161 eb39 2bf1 2938 4bbe 77b8 96c1 a53a
00000190: 3131 d2b8 4475 853a 425a 0787 a19d a9bb
000001a0: 0b42 5cb8 a315 ba3a 441c 0280 d5d3 0ebb
000001b0: 9816 71b9 6ec6 c03a 40ff 088c 19ee 06bc
000001c0: 09db e6aa 05df 05b9 a87d a43a ac0b a23a
000001d0: 796e b23a 6807 0880 407e 3138 fdb0 14bb
000001e0: 1e07 7d81 e0eb f5b9 f486 0000 973e e198
000001f0: 099e bfb6 1ff3 aeb9 861c a7b8 009d ca37
-0.0048185685 -1.5477365e-35 -0.0005572174 8.7649016e-05 -2.20726e-05 -0.0001552289 0.0018637303 -5.3349e-41
-0.0018720775 -5.1254825e-05 -7.271323e-05 -9.7370815e-26 0.0012791377 0.00016205492 0.0013746556 -0.00226655
0.0012159565 0.0014778558 -1.5583273e-33 -3.403576e-05 -7.406066e-31 -5.3727847e-19 -5.39287e-40 -9.12544e-26
0.0012283577 0.0009270464 0.0014627739 1.7073e-41 -3.7283782e-05 -0.0028313722 -1.8135017e-32 0.0013452825
0.0011013771 0.0001628132 -3.6490852e-05 -0.0002616768 -0.0016073891 -0.0047800634 0.0016256 -5.9145277e-05
-9.395023e-05 1.6457e-41 -0.00023360654 -2.925706e-09 -0.002227298 -2.791e-06 -0.0001494031 -6.1337436e-05
0.0012442715 0.0015318382 -0.001805979 -7.469642e-05 2.6032889e-05 0.0014965187 -0.0029486679 -6.0572e-40
0.0015783479 -8.513077e-37 -0.00019896793 -0.00029427136 -0.00016277313 -7.176128e-05 7.8958765e-06 -0.00015807891
0.001429263 -2.9014805e-05 0.0015842725 -9.4992465e-06 -0.0022826954 -6.07553e-05 0.0012125616 -4.1936935e-05
-0.0001882738 -0.00029065623 0.00010121942 0.001648886 -0.00010875865 -0.000111853646 -2.0526864e-05 0.0003257678
0.0015611157 0.001151588 -0.00056924287 -0.00018518433 -0.0022173526 -0.00012057462 0.00012397589 -2.90836e-34
-0.00010194399 0.0010019218 -7.5436525e-05 -3.0090355e-34 2.7839608e-06 0.0013385644 -5.791541e-06 0.0007934104
0.00044895013 4.0517345e-05 -5.9066613e-05 0.0012646194 -0.00010022743 0.0010182043 -1.0182796e-34 -0.0051762615
-5.2513595e-05 0.0014197122 -1.93811e-40 -0.0021793742 -0.00022991968 0.0014707574 -1.055387e-31 -0.008235478
-4.1008193e-13 -0.0001276695 0.0012549656 0.0012363098 0.0013613246 -7.37341e-40 4.2317668e-05 -0.00226885
-4.6473867e-38 -0.00046905782 4.8412e-41 -5.8224336e-24 -5.7106413e-06 -0.00033369006 -7.9684934e-05 2.4153385e-05

weight f4 [19, 128]
00000000: e8e3 5dba 1a78 83a6 ec2c 0939 a0a4 9dba
00000010: 0294 dd38 5416 6239 25eb d639 0fb1 0080
00000020: e63d 493b 712f 9938 23c5 0337 5df9 2215
00000030: a13b 0f3a 9e61 22ba a1c2 5339 e1f2 34ba
00000040: 4bc8 bf39 26b5 e439 904c ee02 938a 8438
00000050: 3f86 1c14 3c65 70b5 a2eb b400 d06f ad12
00000060: 8b7b ed39 8e55 1e3a 7f5a 8439 1dcd 031d
00000070: 57a6 0cb8 0e6d c43c 1f30 0000 f801 d539
00000080: 2ecb fb39 60cd bd39 f483 8f37 4a2b 063a
00000090: 32dd bbba d98d 3139 bae2 bc39 6505 99b5
000000a0: 06cd 0638 8c7c 0080 a6b3 09ba bef8 1738
000000b0: 332b 403b 2720 23b8 caf0 47b9 2880 f937
000000c0: 9a1f 0e3a d603 ca39 c550 fcba 6336 07b9
000000d0: 6fa7 9239 c8d7 e639 9466 be3c a01a 0000
000000e0: a296 073a 1fcd 170a 1e45 cbb8 79a4 3539
000000f0: 517a 4337 dd11 a439 8f0e e638 1779 c8b9
00000100: c0c3 0d3a bf5f 8b38 0b2c 8739 05ab f437
00000110: 4247 3aba 13ee 3fb7 d85d 193a d47c 4a38
00000120: ae44 8339 91f1 9839 63fd d9b8 be25 de39
00000130: e257 2739 b8ae 7538 c7cd c0b7 1284 c839
00000140: 513c 163a 9af9 c839 8765 bfba b6d3 de39
00000150: 53f7 ba3c c3d2 d8b8 f66f 1f39 ad94 3110
00000160: de1b abb8 a5c9 f539 e75d 6e38 cabe 528e
00000170: b253 35b8 78cb 173a 5215 d3b9 7fee ec39
00000180: 19a4 6f39 ada5 d239 eea8 7939 2ef6 003a
00000190: b3f0 c239 0846 a239 3a24 f70e 478c 4bba
000001a0: dba0 6eb8 d890 3a39 d905 0080 eb9c b2b9
000001b0: 96af d739 2cec c939 8ce8 f691 df32 a139
000001c0: 0c79 9837 8564 a639 95e9 c039 59fb c839
000001d0: 7717 f439 4c21 0680 8300 d539 1b2d 50ba
000001e0: 7755 2e84 38bc 1539 1c2a 0080 b986 8217
000001f0: 5a70 30b8 68ea b339 7459 fd38 d0cd 9939
00000200: 9e3b cdb9 af78 0410 e0d3 3fba ec11 443a
00000210: e035 beb9 0b1d 40bb ee8d a83a 391d 0080
00000220: 4762 64ba 1f07 76b9 b2e6 543a e5c6 a213
00000230: 7041 a1b9 08b3 b8ba 8081 e0b9 870b 0aba
00000240: 52c1 173a df92 4aba 5f7f 0000 bee4 c3b8
00000250: 7fc3 d210 90bb a42f 4c5b 0000 e178 a70f
00000260: cc9d 8d3a 963c efb9 561a da38 833d 0080
00000270: 5d50 d538 6171 ed3a eb0f 0080 9a2b 0c37
00000280: f972 5c39 b0d1 21b9 4021 00ba 9cde 3bb9
00000290: 12f1 c9ba eb9f 65ba c42d edb9 1d91 a938
000002a0: 6d32 c9b9 f804 0000 9637 9f3a 429e 80b7
000002b0: cfd0 be3a d614 223a b7d7 8b3a abf3 9c38
000002c0: 9ac3 89b9 4afb 1a39 a4db 60ba 94e5 f6b9
000002d0: 69c9 2b3a cdf4 86b9 4cf3 3dbb 6c25 0080
000002e0: dfe7 7039 4e1d a307 2cd9 2dba 6a7f 0939
000002f0: cbd4 d9ba 852f e2b9 2462 1dba 62d5 07b9
00000300: 84de f938 6e68 d3b8 485a 0d39 56be ed37
00000310: a2ae 91b8 8606 12ba 3ea4 29b9 bd60 8939
00000320: fb68 e8ba 94ba 87b7 eb91 66b8 ffd6 c1b9
00000330: 9587 32ba ce9b d23a 20ba 2938 6505 8939
00000340: b3d5 5cba 366c ad39 bdc8 c539 7e82 bf3a
00000350: 4da0 3dba f508 d43a c024 39b9 fc75 918d
00000360: ae46 2e38 1af9 5b3a 4a1e 313a 99f0 7c8a
00000370: 06b7 2039 f761 9139 c34d 62ba 4a5a 9739
00000380: 4bff 1b39 9dea 1c3a 1ed3 853a c2be 0839
00000390: 397c 2bba 392e bf38 270e 238b a531 013a
000003a0: 8dad 0eb9 94e0 b1b9 e87e 0080 c7c3 10ba
000003b0: e911 8239 349d eb37 4bab 4d8e fde6 f8b8
000003c0: a5a6 6d35 1c8e 21ba 3bd4 95b8 bcdd 303a
000003d0: 6471 d039 2456 0000 b0d7 61ba 2c40 bc37
000003e0: f98f 9e01 d24e 7c3a e85c 0000 cb4a 9415
000003f0: de05 9638 a1d3 1d3a fe25 5cb9 dc12 143a
-0.00084644416 -9.122505e-16 0.00013082073 -0.0012027211 0.0001056567 0.00021561357 0.00040992457 -6.3517e-41
0.003070706 7.304445e-05 7.854108e-06 3.2912352e-26 0.00054639025 -0.00061943557 0.00020195033 -0.0006902647
0.0003657959 0.00043622515 3.5014902e-37 6.320062e-05 7.902463e-27 -8.955428e-07 1.6614918e-38 1.0945399e-27
0.0004529621 0.00060399703 0.00025244427 1.7443747e-21 -3.3533517e-05 0.023977783 1.7263e-41 0.00040627993
0.0004802583 0.00036201905 1.7108374e-05 0.0005118145 -0.0014332889 0.00016932878 0.0003602708 -1.1400958e-06
3.2139033e-05 -4.4679e-41 -0.0005252905 3.6232865e-05 0.0029322624 -3.8892173e-05 -0.0001906782 2.974279e-05
0.0005421579 0.000385313 -0.0019250145 -0.00012894864 0.00027972038 0.00044029788 0.023242272 9.551e-42
0.00051722873 7.3089645e-33 -9.6926684e-05 0.00017322776 1.1651385e-05 0.00031293827 0.000109699664 -0.00038237192
0.0005407892 6.6458706e-05 0.0002578202 2.9166704e-05 -0.0007105955 -1.1439918e-05 0.00058504706 4.827681e-05
0.00025037437 0.0002917168 -0.00010394563 0.0004237126 0.000159591 5.857527e-05 -2.2984006e-05 0.00038245373
0.0005731034 0.0003833294 -0.0014602401 0.00042500877 0.022823012 -0.0001033894 0.0001520513 3.502163e-29
-8.159106e-05 0.00046880278 5.6831075e-05 -2.597636e-30 -4.323171e-05 0.0005790512 -0.0004026094 0.0004519112
0.00022853947 0.0004017776 0.00023809422 0.0004919496 0.00037181898 0.00030951225 6.0925086e-30 -0.00077647384
-5.689343e-05 0.00017792301 -2.098e-42 -0.0003406772 0.00041138817 0.0003851367 -3.8955275e-28 0.00030746215
1.8176179e-05 0.0003173688 0.00036795126 0.0003833424 0.0004655679 -5.62958e-40 0.00040626907 -0.00079412916
-2.0492845e-36 0.00014279864 -1.5106e-41 8.435062e-25 -4.2066305e-05 0.00034316187 0.00012080642 0.00029335776
-0.00039145065 2.612538e-29 -0.00073176436 0.0007479477 -0.00036279764 -0.0029314186 0.0012859681 -1.0483e-41
-0.0008712154 -0.00023463041 0.00081215345 4.1090674e-27 -0.00030757068 -0.0014091441 -0.00042821094 -0.0005266
0.0005789 -0.0007727574 4.5692e-41 -9.340931e-05 8.3131604e-29 2.9964697e-10 3.2751e-41 1.6514032e-29
0.0010804473 -0.00045630772 0.000103999555 -2.2066e-41 0.000101716 0.0018115455 -5.71e-42 8.354802e-06
0.00021023666 -0.00015432271 -0.0004887767 -0.00017916638 -0.0015406928 -0.00087594864 -0.0004523826 8.0855774e-05
-0.00038375278 1.782e-42 0.0012147303 -1.5332484e-05 0.001455808 0.00061829144 0.0010669146 7.4840464e-05
-0.0002627641 0.00014780197 -0.0008577651 -0.00047091825 0.0006553145 -0.00025740862 -0.0028984128 -1.3424e-41
0.00022974562 2.4542738e-34 -0.00066317874 0.00013112804 -0.0016619203 -0.00043141484 -0.0006003699 -0.00012954095
0.00011914692 -0.000100807156 0.0001348044 2.8341234e-05 -6.946667e-05 -0.000557043 -0.00016178281 0.00026202752
-0.0017731482 -1.6180136e-05 -5.497217e-05 -0.00036972013 -0.00068103644 0.0016068162 4.0466082e-05 0.00026134696
-0.00084241776 0.00033077755 0.0003772433 0.0014611033 -0.00072336645 0.0016176986 -0.00017656665 -8.964719e-31
4.155066e-05 0.0008391306 0.00067565276 -1.217861e-32 0.0001532697 0.00027729545 -0.0008632803 0.00028868235
0.00014877056 0.0005985888 0.0010210013 0.00013041034 -0.0006541643 9.116199e-05 -3.1403305e-32 0.0004928357
-0.00013606828 -0.00033927395 -4.5525e-41 -0.0005522337 0.00024808876 2.8087386e-05 -2.5350675e-30 -0.000118685864
8.853188e-07 -0.00061628385 -7.144405e-05 0.0006746908 0.00039757334 3.0901e-41 -0.0008615209 2.2441229e-05
5.8246624e-38 0.0009624782 3.3328e-41 5.9894726e-26 7.15365e-05 0.000602061 -0.00020994988 0.0005648562

bias f4 [19]
00000000: 4283 ae3e b201 00ba 0272 7239 3c8b 93b9
00000010: 586f ad3e 3ecd 7b38 df66 7ab6 c876 9939
00000020: 2a7f ad3e df7d a63e 8303 1039 524e 5ab9
00000030: 4407 1739 a12c a63e f770 87b9 9619 e438
00000040: 75d1 a938 f620 a63e eb67 54c0
0.34084517 -0.0004883065 0.0002312139 -0.00028141763 0.3387401 6.003421e-05 -3.7312782e-06 0.00029270933
0.3388608 0.32517907 0.00013734218 -0.00020819277 0.00014403189 0.32455924 -0.00025833372 0.00010876653
8.0975624e-05 0.32447022 -3.3188426
