models/data_aug/C/model1.pt (torch, 353039 bytes, 8 tensors)

weight f4 [128, 384]
000000 5c 4e d3 3c 7c 92 90 bc 92 7e 8b 3c 78 fc 41 3d
       0.0257942 -0.017647974 0.017028127 0.047359914
000010 aa a0 a0 3c a9 26 66 3c e4 bd e7 bc 0c ed 68 3d
       0.01960786 0.014047303 -0.02828879 0.05686669
000020 dc 06 71 3d 08 32 af 3c be 41 99 3d e7 fe b9 bd
       0.058844432 0.021386161 0.074832425 -0.09081822
000030 f8 70 7e bd 87 dc 8d 3d 1f 1c 03 bb ca 54 59 be
       -0.062119454 0.06926828 -0.0020005775 -0.2122375
000040 5d 5a d8 be 46 e4 37 ba 6e 1d 84 3d 63 88 b3 3c
       -0.42256442 -0.00070149114 0.06450926 0.02191562
000050 8e aa 7b bd 71 7b 47 bc c7 4c ff 3c d8 b4 e7 3c
       -0.06144195 -0.012175427 0.03116454 0.028284475
000060 d0 f8 c8 bc b1 c3 a7 3d f6 ce b5 bb eb 52 44 bd
       -0.024532706 0.08191622 -0.0055483533 -0.04793064
000070 42 26 c4 bd 49 f5 f0 bc cc af 85 bd 4d 21 12 3d
       -0.095776096 -0.029413836 -0.06527671 0.03567629
000080 4c ed 87 be 58 d0 19 bd 7e a4 06 be 9f a2 c4 bd
       -0.2654823 -0.037552208 -0.13148686 -0.0960133
000090 f9 d6 72 3d 8d 6a b1 3d 44 42 b8 3c e7 51 93 3d
       0.059287045 0.08662901 0.022492535 0.07193356
0000a0 ba 4b ad bc c3 43 46 be 51 d4 bf bc 18 1c 44 bd
       -0.021154273 -0.19361787 -0.02341667 -0.047878355
0000b0 b9 bb ae bd 26 ac b9 3d e2 41 57 3e a7 c2 f8 3d
       -0.08531899 0.09066038 0.21021226 0.12146502
0000c0 60 c0 79 be 8d 0c 0f 3c 11 b5 1f 3d 97 85 46 bd
       -0.24389791 0.00873102 0.038991038 -0.048467245
0000d0 9e a6 38 3b 41 06 9f 3d b5 43 a4 bb 59 b4 ea bc
       0.0028175483 0.07764865 -0.005012954 -0.02865045
0000e0 b4 4a 26 3d f4 11 c5 bd 65 c6 29 3d 64 df 7a 3c
       0.040598586 -0.09622565 0.04144897 0.01531205
0000f0 2a 46 89 bd 0b 06 ca 3d 0e 65 92 3d a9 61 96 b9
       -0.06702836 0.09864434 0.07148181 -0.00028682992
000100 f9 d3 ae 3c ba 08 92 3d d6 45 a8 bb cd 0a b3 3b
       0.02134131 0.07130571 -0.005135278 0.005463934
000110 a8 e3 eb 3b dd 23 62 bb cc e2 5d 3d 3a 7c 88 3d
       0.0071987696 -0.003450624 0.05417137 0.06664319
000120 78 ac 12 bd 01 c1 84 3d 07 e5 dd b8 a5 f5 b8 3b
       -0.03580901 0.06482125 -0.00010580761 0.0056445175
000130 10 cc 0a bc 2b 01 86 bc e6 53 1a bc e6 fd c5 bc
       -0.008471504 -0.016357979 -0.009419417 -0.02416892
000140 7b ec ec bc 4b fe de 3d c9 4f 26 3d 2f d5 69 3c
       -0.028921356 0.10888346 0.040603433 0.014272018
000150 17 30 d1 bc 67 84 68 bd 29 99 db 3b 92 c1 17 be
       -0.025535626 -0.056766894 0.0067016077 -0.14819935
000160 0b 32 5c bd 6d cf bf 3c be 0e 62 3d 6f b2 cb 3c
       -0.053758662 0.023414338 0.05518984 0.024865357
000170 a6 47 a5 3c 97 64 55 be 06 c9 5e be 50 ac 06 bd
       0.020175766 -0.20839153 -0.21756372 -0.032879174
000180 7d 61 26 be cd 75 21 be b8 70 a8 bd e3 bb b7 bd
       -0.16248126 -0.15767594 -0.082246244 -0.089713834
000190 4c 05 da bc 32 ae 2e bd e5 f8 1a bd 4f 28 ba 3d
       -0.026613854 -0.042646594 -0.03783502 0.090897195
0001a0 51 b0 47 3d 46 fc d6 bc bd b3 97 bd 3b 29 5d bd
       0.048752133 -0.02624334 -0.07407329 -0.0539944
0001b0 fd 60 20 bd bc 87 8e bc 29 da c0 bc 96 f1 f0 bc
       -0.039154995 -0.017398708 -0.023541527 -0.029412072
0001c0 78 5f 06 3e 14 ba 84 bc 1d e8 62 bc 3b 32 a5 3d
       0.13122356 -0.01620201 -0.013849285 0.08066221
0001d0 7e 40 2c 3d b4 e4 b4 3c 68 f4 da bd bf 15 21 bd
       0.042053692 0.02208171 -0.10691148 -0.03932738
0001e0 b1 08 f0 3d 23 35 cd 3d 8f 6b d6 3d fa 8b 60 bd
       0.11720408 0.10019901 0.10469734 -0.054820992
0001f0 09 77 14 3d f5 f6 3a be 79 ac 82 be d2 ce cc bd
       0.036246333 -0.18258269 -0.2552221 -0.10000385
000200 2a 63 8b 3c 13 ac b8 3d 9b fb 8b 3d 94 2b 01 3d
       0.017015059 0.090171956 0.06835099 0.0315357
000210 09 c5 58 3d ba 22 89 bb 5f 92 f9 bc ce 2b d4 bc
       0.052922282 -0.004185048 -0.030465303 -0.025899794
000220 bc 75 86 bd cb 10 93 3d 63 e2 c2 3d a6 aa 08 be
       -0.06565425 0.071809374 0.09515836 -0.13346347
000230 4e ac 80 bd b7 ff 52 3c 89 d3 ce 3b a5 14 1a bc
       -0.062828645 0.01287835 0.006311838 -0.009404336
000240 12 1e ba be 04 6f 37 3d 4e 83 85 3d dc 98 78 bd
       -0.36351067 0.044783607 0.06519185 -0.060692653
000250 d0 5c 41 bd 80 5a 05 3d 82 be 07 3d 95 3e 5b 3d
       -0.047207654 0.03255701 0.033140667 0.05352648
000260 bf 75 9c be 35 cc a1 ba 70 5f b6 bc f2 a9 70 bd
       -0.30558583 -0.0012344184 -0.022262305 -0.058755822
000270 d8 bd 85 3d fa 65 0b 3e 2a 63 ba 3d 15 3b e0 bd
       0.065303504 0.1361312 0.09100945 -0.10948769
000280 fa b8 1b 3b 2d cf 36 bd 49 81 1c be 1d ad f1 bd
       0.0023761378 -0.044631172 -0.15283693 -0.11800597
000290 e5 e2 c0 bd 1f 2e 45 bd df e4 a4 bc 31 43 3f bd
       -0.09418277 -0.048139688 -0.020128665 -0.046694938
0002a0 76 fb 8c bc 3b d8 51 3c 18 ad 31 bd 01 ad 93 bc
       -0.01720975 0.012807901 -0.043377966 -0.01802683
0002b0 38 11 45 bd a4 4f b8 3c 24 29 16 bd 17 d0 2d bd
       -0.048112124 0.022498913 -0.03666033 -0.042434778
0002c0 c0 25 28 be 02 ae 60 bc 46 c1 b2 bd 3c 7a 7a bd
       -0.1642065 -0.013713362 -0.0872827 -0.061151728
0002d0 98 79 2c bd 9f 7c 23 3d 63 1e ae 3d 82 f8 71 3d
       -0.04210815 0.03991377 0.085018896 0.059074886
0002e0 0c 47 1e bf 28 50 b0 be 8a ed 23 3e f0 75 e3 3d
       -0.6182716 -0.34436154 0.16008583 0.11106479
0002f0 e7 7d 80 3e 1e 11 c8 3d 58 ad 6a 3d 96 e7 26 3d
       0.25096056 0.0976889 0.05729422 0.0407482
000300 0d 1b 36 bb f8 c6 3c 3d 6e 1e b7 3e 3f f3 24 3c
       -0.002778712 0.04608819 0.35765404 0.01006776
000310 cf 61 74 be 73 45 95 bd 0d d9 77 3c f0 6b 97 be
       -0.23865436 -0.07288637 0.0151274325 -0.29574537
000320 99 09 1f 3d 0f 8b 3e 3b 89 b8 df 3b 4e 6c 86 be
       0.038827512 0.0029074585 0.006827418 -0.26254505
000330 18 45 ad bd c7 9e dd 3c 9e 61 94 3d c9 a6 f3 bd
       -0.08460444 0.02705325 0.072451815 -0.11897046
000340 fb ac 53 3d 0b 03 91 3c c2 23 4d bd bd 69 45 bd
       0.05167864 0.017701646 -0.05008293 -0.048196543
000350 88 47 93 3d a7 e7 78 bc 17 96 47 be bc 4b b1 3d
       0.07191378 -0.015191949 -0.19490848 0.08657023
000360 d8 16 38 3d 79 2f 8f bd fd b2 84 be 8e 50 be be
       0.04494366 -0.069914766 -0.25917807 -0.37170833
000370 4a 8c 05 be eb 7e 54 bd 8d 46 1f 3e 65 eb 8e 3d
       -0.13041797 -0.05187885 0.15554257 0.06978492
000380 23 18 88 3a c3 de 80 bd e6 ca 19 be d4 b3 91 bd
       0.001038317 -0.062924884 -0.15018806 -0.071143776
000390 d6 95 d6 bd 39 e3 df bd 3c f6 66 bc cd 49 65 3d
       -0.10477798 -0.10932011 -0.014096793 0.055978585
0003a0 98 b9 a9 be e2 fe 83 3c b4 2a a6 bc cb fc dc bc
       -0.3314941 0.016112749 -0.020284034 -0.02697601
0003b0 bb 1e 18 be aa 7f 0c be a2 21 dc bb f8 7a 42 bc
       -0.14855473 -0.13720575 -0.0067178765 -0.011870138
0003c0 78 24 a8 be 83 c4 0f 3c d4 91 88 3d 5b bf 52 3d
       -0.32840323 0.008774879 0.066684395 0.051452022
0003d0 d8 85 30 be 9c d3 e7 bc 25 68 2b 3c 08 5d 98 3b
       -0.17238557 -0.028299145 0.010461842 0.004649762
0003e0 fe ec a6 3e 41 0f d9 3e e3 17 74 be 20 a3 1e bd
       0.32602686 0.4239445 -0.23837237 -0.038729787
0003f0 34 ac 76 bc 36 bb 04 bd e8 27 cb 3d 16 6f c9 3c
       -0.015055705 -0.0324051 0.09919721 0.024589103

bias f4 [128]
000000 71 e6 83 3d 0e 54 9b bc e9 54 52 3d 16 b8 43 bd
       0.064404376 -0.018960979 0.051350508 -0.04778298
000010 8a 43 b0 3d d8 f9 8b bb 2a e1 88 bc 4e 6f ab bc
       0.08606632 -0.004271727 -0.01670893 -0.020927098
000020 09 c9 49 bc 10 48 b9 3d 43 cc 4d bb 52 f8 fe 3a
       -0.012315997 0.09046948 -0.0031402267 0.0019452667
000030 88 92 ec bb 2e 32 89 bc 54 94 2c 39 b3 70 29 3d
       -0.0072196163 -0.01674756 0.00016458455 0.041367244
000040 10 7b b9 3c 48 c8 85 ba 72 79 e6 bb dc fc 21 bd
       0.022641689 -0.0010206783 -0.0070335204 -0.039547786
000050 93 44 20 3c c1 36 c1 bc 9f dd 61 bc 04 09 9b bc
       0.009781974 -0.023585679 -0.013785749 -0.018925197
000060 1c c9 d5 bc d2 83 ce 3c 35 b2 f0 3c 1b c8 68 bc
       -0.026096873 0.025209341 0.02938185 -0.014207865
000070 0a d1 b6 bc f0 f2 33 bc 92 e5 17 3c 77 3c 0c bd
       -0.022316474 -0.010983214 0.009271042 -0.03423735
000080 60 c4 52 3b 6a 64 04 be a8 4f 0a 3d 98 5d e7 bc
       0.0032160506 -0.1292893 0.033767372 -0.028242871
000090 c0 23 9c bc 60 f7 c5 bc 47 0d 8a ba 95 36 3f 3d
       -0.019060016 -0.02416581 -0.0010532521 0.046682913
0000a0 b6 b7 95 bb 3c a6 8d bc 04 f1 ea bc a0 b5 37 bc
       -0.004569019 -0.01729118 -0.028679378 -0.011212736
0000b0 a7 3c 51 3c 29 eb fc 3d 61 fe 48 bd e4 dd 0d 3e
       0.012770808 0.12349541 -0.04907072 0.13854176
0000c0 d1 9a a5 bb f0 92 65 3c 5b b2 3b 3d 26 70 bd bc
       -0.005053856 0.014012083 0.04582439 -0.023124766
0000d0 54 7d 35 bc 19 9c 4e bc f7 ad 17 bc 75 1b 93 3c
       -0.011077244 -0.012610459 -0.009257785 0.017957428
0000e0 31 c0 2b 3a 72 c4 40 3c 6a 52 87 3d 17 f0 b2 bc
       0.0006551771 0.011765586 0.06607516 -0.021843
0000f0 fa 44 95 3c b8 84 c3 bc e6 bc dc bb 6f ec b2 bc
       0.018221367 -0.023866996 -0.0067363856 -0.021841256
000100 1f 9d 4d 3d 15 81 05 bc 7c 75 d9 3b b3 14 41 3d
       0.05019867 -0.008148451 0.0066363197 0.04713888
000110 8b b5 ff 3b 8b f1 0a 3b 62 ab 5f 3d 97 63 6c bc
       0.007803624 0.00212011 0.054606803 -0.014428041
000120 8b 06 1d 3e c1 8f 3f bd 34 0e b0 bc ea 0f cd bb
       0.15334527 -0.046767954 -0.021491148 -0.0062580006
000130 63 3a bd 39 1e 3b a5 bc 6a 29 cc bc 91 2a d0 39
       0.0003609239 -0.02016979 -0.024922092 0.00039704566
000140 d1 49 be bb 77 d2 c5 bc ad 76 84 3a 6a 03 2f 3d
       -0.0058071394 -0.024148209 0.0010106169 0.042727865
000150 d5 ce 35 bc bd 5a 23 3b 38 b6 00 be ca 71 40 3c
       -0.011096676 0.002492591 -0.12569511 0.011745879
000160 2c 7d fc 3c 10 f4 77 3d fc 63 a0 bc 93 03 41 3d
       0.030821405 0.06053549 -0.019578926 0.04712255
000170 e0 26 95 3b 9c 95 f6 bc 5c 46 4d 3d 9a d7 c3 3b
       0.0045517534 -0.030100636 0.050115928 0.0059766294
000180 54 16 6a ba 0a b6 17 bd c1 c6 bf 3c 66 b1 b4 3c
       -0.0008929719 -0.03703884 0.023410203 0.022057246
000190 f2 c5 48 bc cc cb 29 bd 83 55 a9 bc ab 24 09 3d
       -0.012254225 -0.04145412 -0.020670658 0.033482235
0001a0 2f c2 82 bc 9b af 33 bc 52 62 68 bd 76 7f 9f bc
       -0.015961735 -0.010967161 -0.05673439 -0.019469958
0001b0 78 69 86 bc dc 7c 08 3c 2d 74 f9 ba e5 d3 b1 3a
       -0.016407713 0.00833055 -0.0019031815 0.0013567178
0001c0 8f f4 09 38 46 d3 0f bd ed 87 93 bc d1 e6 f9 3d
       3.289111e-05 -0.035113595 -0.01800915 0.12202228
0001d0 53 01 16 3d b4 25 c4 bc a9 f4 77 bc f7 6c c2 3c
       0.036622357 -0.02394376 -0.015134015 0.0237336
0001e0 56 57 85 be ab 63 c3 3c 2a 35 a2 bd 4e e9 92 be
       -0.26043195 0.023851236 -0.079202965 -0.28693622
0001f0 14 eb a8 3b 37 3d 0b 3b f3 e7 8f bc c5 2a c0 bc
       0.0051549766 0.0021246204 -0.017566657 -0.023457894

weight f4 [128, 128]
000000 2b 5c 82 3e 84 fb d7 bd 16 d7 57 3e a3 3e 9f 3e
       0.25460944 -0.1054602 0.21078143 0.31102476
000010 2b d1 fe bd db 43 fa bd 21 8c 06 be b2 d9 dc bd
       -0.124422394 -0.12219974 -0.13139392 -0.107837096
000020 70 46 69 bd c3 98 d9 bd e7 fc 75 3e c7 0d ae bc
       -0.05695194 -0.1062484 0.24022256 -0.021246804
000030 37 2a 8f 3e 48 1a a9 bd c7 fc 38 bc bd b1 13 3e
       0.27961895 -0.08256966 -0.011290736 0.1442327
000040 42 0a 2c bd d8 31 80 3e 9c 7b 4b be ce 69 37 be
       -0.04200197 0.25038028 -0.19871372 -0.17911455
000050 b7 cf 40 3e da 66 f2 bd 91 22 70 3e b9 41 ff bd
       0.18829237 -0.11836024 0.23450686 -0.124637075
000060 09 28 19 be bf 47 01 bd 83 d2 1d 3e 36 3a ee bd
       -0.14956678 -0.031562563 0.15412335 -0.116321966
000070 20 7e 2b be 20 76 ed bd c5 9d c4 3c 77 20 a9 bd
       -0.16747332 -0.11594796 0.024001012 -0.08258145
000080 9c b3 c3 3c 6a 3f fb 3d 1b 2c 51 3e 17 e0 99 bd
       0.023889355 0.12267955 0.20426981 -0.07513445
000090 35 09 d9 bd 62 0a 8c 3e e7 50 16 bd 8b c3 73 3e
       -0.10597459 0.2735167 -0.03669825 0.23805062
0000a0 13 86 ea bd ea 92 44 bd 5d 42 8d be a9 7d 5f be
       -0.11451354 -0.04799167 -0.27589694 -0.2182528
0000b0 75 16 6d bc f1 13 5f bd 42 65 b8 bd 80 78 90 3e
       -0.014470686 -0.054462377 -0.090036884 0.28216934
0000c0 8a a4 ef bd b6 30 71 3d 8c c4 34 bd 19 d6 43 be
       -0.11701305 0.058884345 -0.044132754 -0.1912464
0000d0 05 76 b3 be ed f0 e3 bd 73 5a 75 be 48 c1 fd 3d
       -0.3505098 -0.11129937 -0.23960285 0.12390381
0000e0 8b 0a b4 bb f1 d6 95 be 00 73 8a 3e d3 d0 f1 bd
       -0.005494421 -0.2926555 0.27040863 -0.11807408
0000f0 cb db 42 3b 12 0f 6c bd f5 60 a0 be 28 1c 7f be
       0.0029733058 -0.05763156 -0.31323972 -0.24913085
000100 45 93 14 be 4d 64 87 bd c1 8b 1a 3c 79 11 7c 3e
       -0.14509304 -0.06610928 0.009432734 0.2461604
000110 df 74 95 3e 80 8e 83 3b f3 b6 3f 3e b4 cc d7 bd
       0.29190728 0.00401479 0.18722133 -0.10537091
000120 55 50 15 bd 88 4f a7 3d 12 80 14 be ee 5f e3 bd
       -0.036453564 0.08169466 -0.1450198 -0.111022815
000130 0b 64 53 bb 5d 5f 02 be b3 99 1b be 3b 5f 5a b9
       -0.0032255675 -0.1273169 -0.1519535 -0.00020825576
000140 af d2 ed bd 55 4b 40 be 15 07 81 bb b9 52 41 3e
       -0.1161245 -0.18778737 -0.003937612 0.18879212
000150 1e 0a 03 be 22 d3 ae bb fa 5b 01 be 5c 75 03 3d
       -0.12796828 -0.0053352276 -0.12632743 0.032094344
000160 4d 00 e4 3d ad 0d 12 3e 8f 8f 1f be 2d 43 70 3e
       0.1113287 0.1426303 -0.15582107 0.23463126
000170 1f 24 85 3e 45 cf f0 bd 2d a7 0d 3e c7 ee 9d be
       0.2600412 -0.117582835 0.13833304 -0.30846235
000180 43 eb 22 3e 83 f2 25 be 60 aa 6e 3e d8 84 cc 3d
       0.15910058 -0.16205792 0.2330718 0.099862754
000190 be 75 9c be 9e b0 25 be 4e a0 13 be 6a aa 5a bd
       -0.3055858 -0.16180655 -0.1441662 -0.053385176
0001a0 ce 59 f6 bd ac 52 0e be c8 36 a4 be 62 0d 1a be
       -0.12028848 -0.13898724 -0.32073045 -0.15044168
0001b0 d1 05 f9 bd 23 28 24 be 44 bf fa bd c5 5e ba bb
       -0.121593125 -0.16030936 -0.12243512 -0.005687567
0001c0 e6 d5 88 3d b7 90 39 be fc 70 e4 bd 7e 9f b5 3d
       0.06681423 -0.1812161 -0.111543626 0.08868311
0001d0 e9 0e 85 3e 04 c9 bf bd ad 92 77 be 88 ae b5 bc
       0.25987938 -0.093645126 -0.24177046 -0.02217795
0001e0 c6 44 62 be e8 5b b5 3c c2 7b 02 be c6 84 75 3e
       -0.22096547 0.02213855 -0.12742522 0.2397643
0001f0 1f 96 69 3e ce 50 76 bb ad 29 f2 bd 48 c6 72 be
       0.22811173 -0.0037584784 -0.11824355 -0.23708451
000200 0a e0 5b be 3d 52 b9 3d b7 25 37 be fc f4 82 be
       -0.21472183 0.09048889 -0.17885481 -0.25577533
000210 87 59 50 3d 95 b5 a4 3d d5 45 c9 3d 85 79 a4 3d
       0.05086663 0.080424465 0.098277725 0.080309905
000220 48 8d f0 3c ad 3b 6f 3d 57 61 34 be 3a 76 b4 3c
       0.029364243 0.05840652 -0.17615257 0.022029031
000230 7e 6c 7f be 15 30 38 3d ff ad 7f 3a 4f 63 32 be
       -0.2494373 0.04496773 0.00097534055 -0.17420696
000240 72 cb 15 3c 83 3d 65 be 18 c3 2a 3e a3 e5 3a 3e
       0.009142743 -0.22386746 0.16675985 0.18251662
000250 26 e8 16 be a3 b7 ba 3d a9 ea 45 be 07 19 b3 3d
       -0.14736995 0.09117057 -0.19327797 0.08745008
000260 4a ae bb 3d 9d 9a 45 bd e8 4f 29 be f1 a8 a4 3d
       0.091641024 -0.048243154 -0.16534388 0.080400355
000270 53 b3 f5 3d a9 f0 ad 3d f0 86 3c bd 6a 76 7d 3d
       0.11997094 0.08493168 -0.046027124 0.061880507
000280 a9 b6 65 bd 73 5e 17 3d db dd 1e be 5b 0e 89 3d
       -0.0560824 0.03695531 -0.15514319 0.06692191
000290 34 72 a1 3d f9 51 70 be 12 0e 1f 3d ee 59 34 be
       0.07883111 -0.2346877 0.038831778 -0.1761243
0002a0 d6 17 99 3d 2d d5 20 3d 71 ef 64 3e 83 b5 3f 3e
       0.074752495 0.0392658 0.22356965 0.18721585
0002b0 b7 c6 d3 bc 6d c9 81 bc 64 a8 e2 3d fc a6 72 3e
       -0.02585159 -0.015843118 0.11067274 0.23696512
0002c0 a7 6b a6 3d bc cf b5 bd 84 64 a3 bb e1 fa 18 3e
       0.08126002 -0.08877513 -0.0049863476 0.14939453
0002d0 4b 9a 97 3e bc 6c a8 3d 6c c4 3c 3e 8e 10 40 be
       0.29609904 0.082238644 0.18434304 -0.18756315
0002e0 89 26 b5 3c 29 ba 42 3e 9e 88 73 be 7d 36 ab 3d
       0.022113102 0.19016327 -0.23782584 0.08360002
0002f0 19 c6 6b bd 24 f8 16 3d 53 9d 82 3e f5 80 50 3e
       -0.057561968 0.03685774 0.25510654 0.20361693
000300 a2 2a 57 3d 45 96 0e 3d 9f 2b 0d 3e d1 57 59 be
       0.052530892 0.034811277 0.13786171 -0.21224906
000310 d8 e9 12 3e 9d 28 73 bc d6 cc 39 be 84 76 9e 3d
       0.14347017 -0.014841226 -0.18144545 0.07737449
000320 cd 62 c7 bd 83 b9 7d bd 78 94 03 3e fd fd 89 3d
       -0.09735642 -0.061944496 0.12849605 0.067378975
000330 3c 55 09 3c 6e 1e d3 3d 4e 0a fb 3d 0f 1b 37 bc
       0.008382138 0.103085384 0.12257825 -0.011175885
000340 fa 30 9c 3d f4 fd 13 3e 06 ec 01 3c fb a5 39 be
       0.07626529 0.14452344 0.0079298075 -0.18129723
000350 e0 ea b7 3d d1 99 e8 3b 52 e3 6b bd a1 21 25 bd
       0.08980346 0.0070984145 -0.057589836 -0.040315274
000360 63 4b 03 be 5d ec 34 be 30 5d 00 3e a4 d7 33 be
       -0.12821727 -0.1766829 0.12535548 -0.17562729
000370 71 fd 6a be 71 c9 ae 3d 5d cb 33 be a6 ae 5e 3e
       -0.22948243 0.08534516 -0.17558046 0.2174631
000380 a8 90 07 be 14 2f f2 3d 17 9a 38 be 03 a8 ac 3d
       -0.13238776 0.11825386 -0.1802753 0.08430483
000390 67 74 82 3e 75 2a 0f 3e d4 40 e9 3d 5e ca 59 3d
       0.25479433 0.1398104 0.11389318 0.053171508
0003a0 1f 02 a4 3d f0 40 b5 3d 0c 96 88 3e 14 48 db 3d
       0.08008217 0.088502765 0.26676977 0.10707107
0003b0 07 56 c1 3d f3 77 d3 3d 5b ed b0 3d 64 f2 0d 3c
       0.094402365 0.10325613 0.08639022 0.008663747
0003c0 e4 60 e4 bd 56 b4 11 3e 9f 8a 95 3d 76 76 ee bd
       -0.11151293 0.14228949 0.073018305 -0.116436884
0003d0 0b 30 4b be 28 8d a9 3d 12 78 4a 3e c6 87 94 bc
       -0.19842546 0.082788765 0.19772366 -0.018131148
0003e0 ef ec 02 3e 14 fa f6 bd 62 65 a5 3d 94 49 42 3e
       0.12785695 -0.12059417 0.08075978 0.1897338
0003f0 5c 27 53 be 85 3d 33 3c 98 a9 ee 3d 43 9f 43 3e
       -0.20620483 0.01093996 0.11653441 0.19103722

bias f4 [128]
000000 3d 7b 75 bf 34 46 cb bf 10 7c d2 3f c7 c7 bc bf
       -0.9589117 -1.5880799 1.6444111 -1.4748467
000010 56 bd bf 3f e0 bc e8 bf ba f7 17 c0 43 5b c7 bc
       1.4979656 -1.818264 -2.374495 -0.02433551
000020 f8 55 ad 3f 48 08 f2 be b5 29 39 c0 ed 74 eb 3f
       1.354186 -0.47271943 -2.8931706 1.8395058
000030 07 fd e5 bf 52 05 a2 bf 1a 20 9d 3f ba 23 ba bf
       -1.7967843 -1.2657874 1.2275422 -1.4542153
000040 d3 ac 06 c0 3c 70 1a c0 84 d5 dc bf b1 04 68 c0
       -2.1042984 -2.4131002 -1.725266 -3.6252863
000050 78 ee 02 c0 13 96 13 40 50 e3 b7 3f 4a 4f f9 bf
       -2.045805 2.3060348 1.4366245 -1.9477322
000060 f8 a5 b8 bf c2 be e2 3f a5 db 60 3f ff 80 fa 3f
       -1.442565 1.7714465 0.8783515 1.9570616
000070 a8 17 d5 bf 14 d5 18 40 e8 6b be bf 06 df 37 bf
       -1.6647844 2.3880053 -1.487668 -0.7182468
000080 d9 62 b9 3f bf b2 00 c0 e8 e9 ae 3f 09 11 e2 bf
       1.4483291 -2.0109098 1.3665133 -1.7661449
000090 87 55 09 c0 7a e8 e4 3f 46 1f ca 3f e8 ab 13 40
       -2.1458452 1.7883446 1.5790794 2.3073673
0000a0 e6 c5 04 3f 40 9e ca bf 56 96 4f 3f 21 09 03 40
       0.5186447 -1.5829544 0.8108877 2.0474322
0000b0 2e 3f 12 40 2a aa eb bf eb 6f b4 bf b5 f2 fe be
       2.2851062 -1.8411305 -1.4096655 -0.49794546
0000c0 e5 f6 d8 3f be 74 04 c0 15 46 e1 bf 50 63 a8 3f
       1.6950346 -2.0696254 -1.7599512 1.3155308
0000d0 9a 4b df be a2 a7 ff 3f e6 b2 dc bf 58 5a 82 bf
       -0.43612367 1.9973032 -1.7242095 -1.0183821
0000e0 f1 4b 04 c0 45 a1 e6 bf b8 e5 03 c0 5f a4 9c bf
       -2.067135 -1.8017966 -2.060896 -1.2237662
0000f0 b6 d2 86 3f 9f a7 0a c0 df d6 86 3e c4 a1 84 bf
       1.0533054 -2.1664808 0.2633581 -1.0361867
000100 4b ab f0 3f 7d c7 38 40 29 ff f4 3f 89 fd 08 c0
       1.8802274 2.8871758 1.9140369 -2.1404746
000110 ad e9 ff 3f 8a 6e f7 3f 85 e3 18 c0 fc 47 a6 bf
       1.9993187 1.9330609 -2.3888867 -1.2990718
000120 15 30 6f 3e f6 b1 f9 bf cf 0d e1 bf ef 81 e1 bf
       0.23358186 -1.9507434 -1.7582339 -1.7617778
000130 2a ee f7 3f 73 bc a9 bf 9a 49 e8 3f 05 5c e1 3f
       1.9369557 -1.3260635 1.8147461 1.7606207
000140 7a 5b 04 c0 2f 6b df 3f 99 12 0e c0 06 7c 1e 40
       -2.0680833 1.7454585 -2.219885 2.4763198
000150 af 18 df bf 3f 6f f3 3f b0 ff b0 3f 8e 2f e7 bf
       -1.7429408 1.9018325 1.382803 -1.8061388
000160 5d 12 e9 bf bd c5 14 3f 9c 0f fc bf d9 a7 89 bf
       -1.8208729 0.58114225 -1.9692264 -1.0754348
000170 22 dd af 3f 42 56 e2 bf 66 6f 12 40 42 46 e6 3f
       1.3739359 -1.7682574 2.2880492 1.7990191
000180 e3 f5 b2 bf 77 36 af 3f a1 8e a5 bf bb fd 0b c0
       -1.3981289 1.3688496 -1.2934152 -2.1873615
000190 10 50 bb 3f bb dd 00 40 1b 92 09 40 ad 9b d9 3f
       1.4633808 2.0135334 2.1495426 1.7000633
0001a0 5f a0 7c bf 85 3e 1b 40 7a 20 e4 3f 14 90 bb be
       -0.98682207 2.425691 1.7822411 -0.3663336
0001b0 74 e9 c9 3f 34 f4 df 3f 23 25 02 c0 18 21 c8 bf
       1.5774369 1.74964 -2.0335166 -1.56351
0001c0 3f bb 07 c0 bd 6b b0 3f de 74 b1 bf fe 96 13 40
       -2.1208036 1.3782879 -1.386379 2.3060908
0001d0 06 75 e7 3f 68 4e 02 c0 d8 de a3 3f 35 18 03 c0
       1.8082588 -2.0360355 1.2802382 -2.0483525
0001e0 a8 cb 99 3e cf 19 82 3f bc 45 d1 3f d9 ce b6 3f
       0.3003819 1.0164126 1.6349406 1.4281875
0001f0 69 99 04 40 c1 74 b5 bf 65 35 f6 3f 4d 8a f7 bf
       2.0718634 -1.4176255 1.9235045 -1.9339081

weight f4 [128, 146]
000000 af 01 00 80 da a3 00 80 61 19 00 80 48 7b 00 00
       -6.04e-43 -5.8779e-41 -9.104e-42 4.4225e-41
000010 4e 54 00 00 35 a2 00 00 23 09 00 00 57 3f 00 00
       3.0243e-41 5.8189e-41 3.278e-42 2.2722e-41
000020 54 93 00 80 d8 2b 00 00 6a 56 00 80 06 82 00 80
       -5.2851e-41 1.5728e-41 -3.1e-41 -4.6644e-41
000030 00 59 00 80 00 18 00 80 e0 1d 00 00 02 3f 00 80
       -3.1927e-41 -8.61e-42 1.0717e-41 -2.2603e-41
000040 ac 70 00 00 94 0f 00 00 4f 98 00 80 9b 76 00 00
       4.0419e-41 5.588e-42 -5.4638e-41 4.2548e-41
000050 74 8f 00 80 8f 97 00 80 bf 57 00 00 dc 99 00 80
       -5.1461e-41 -5.4369e-41 3.1477e-41 -5.5194e-41
000060 62 9c 00 80 9b 8b 00 00 2f 55 00 00 e4 87 00 00
       -5.61e-41 5.0081e-41 3.0558e-41 4.8748e-41
000070 1b 3c 00 00 c8 44 00 00 28 5d 00 00 ab 8f 00 00
       2.1562e-41 2.4674e-41 3.3418e-41 5.1538e-41
000080 b7 01 00 80 a2 4f 00 80 45 72 00 00 5e 87 00 00
       -6.15e-43 -2.8567e-41 4.0992e-41 4.856e-41
000090 ea 23 00 00 3f 3d 00 80 3c af 00 00 ae 5f 00 00
       1.2884e-41 -2.1971e-41 6.2862e-41 3.4323e-41
0000a0 0a 5d 00 00 73 a0 00 00 4e 4d 00 80 76 25 00 80
       3.3376e-41 5.7558e-41 -2.7732e-41 -1.3438e-41
0000b0 24 1b 00 80 35 b3 00 80 54 23 00 00 31 68 00 00
       -9.736e-42 -6.4287e-41 1.2673e-41 3.7377e-41
0000c0 de 23 00 00 69 6e 00 00 fe 3e 00 00 4f 02 00 00
       1.2867e-41 3.9608e-41 2.2597e-41 8.28e-43
0000d0 ba 0d 00 80 d5 af 00 80 a8 3c 00 00 12 09 00 00
       -4.924e-42 -6.3077e-41 2.176e-41 3.254e-42
0000e0 b9 74 00 80 40 96 00 80 1c 4b 00 00 db 3f 00 80
       -4.1872e-41 -5.39e-41 2.6944e-41 -2.2907e-41
0000f0 80 4c 00 80 4e 53 00 00 e6 41 00 80 ed 66 00 80
       -2.7443e-41 2.9884e-41 -2.364e-41 -3.6923e-41
000100 f1 32 00 00 22 91 00 00 aa 2c 00 80 8c 7e 00 80
       1.8274e-41 5.2064e-41 -1.6022e-41 -4.5396e-41
000110 bc 03 00 00 a2 8f 00 00 f8 9e 00 80 3d 1b 00 00
       1.34e-42 5.1526e-41 -5.7027e-41 9.771e-42
000120 b7 9f 00 00 34 11 00 00 65 76 00 00 05 09 00 00
       5.7295e-41 6.171e-42 4.2472e-41 3.236e-42
000130 84 9a 00 00 c2 96 00 80 ed 0e 00 80 5c 6c 00 80
       5.543e-41 -5.4082e-41 -5.354e-42 -3.8872e-41
000140 f6 3e 00 00 2b 6d 00 00 de 53 00 80 b9 98 00 80
       2.2586e-41 3.9162e-41 -3.0086e-41 -5.4787e-41
000150 10 45 00 80 4c 64 00 00 5d 7e 00 80 8b 93 00 00
       -2.4775e-41 3.598e-41 -4.533e-41 5.2928e-41
000160 62 28 00 00 7a 57 00 00 28 77 00 80 da 8d 00 80
       1.4487e-41 3.138e-41 -4.2745e-41 -5.0887e-41
000170 4a 72 00 00 f7 6c 00 00 49 18 00 00 4d 44 00 80
       4.0999e-41 3.9089e-41 8.712e-42 -2.4502e-41
000180 71 62 00 80 51 3e 00 00 54 4d 00 80 12 54 00 00
       -3.5314e-41 2.2355e-41 -2.774e-41 3.0159e-41
000190 40 ac 00 00 b6 67 00 00 14 7b 00 00 59 6d 00 00
       6.1792e-41 3.7204e-41 4.4152e-41 3.9227e-41
0001a0 f3 61 00 00 cf 95 00 80 60 85 00 00 e1 34 00 80
       3.5138e-41 -5.3741e-41 4.7846e-41 -1.897e-41
0001b0 91 2a 00 00 9e 16 00 80 89 36 00 00 7e 5a 00 80
       1.527e-41 -8.114e-42 1.9564e-41 -3.2462e-41
0001c0 d6 00 00 00 05 6d 00 80 d6 ae 00 00 19 58 00 00
       3e-43 -3.9109e-41 6.272e-41 3.1603e-41
0001d0 a1 97 00 00 ec 53 00 00 27 53 00 80 2f 63 00 80
       5.4394e-41 3.0105e-41 -2.983e-41 -3.558e-41
0001e0 a5 70 00 80 95 2e 00 00 31 2b 00 80 b4 a3 00 80
       -4.0409e-41 1.671e-41 -1.5494e-41 -5.8726e-41
0001f0 1a 18 00 00 ba 77 00 00 36 2c 00 00 ff 41 00 00
       8.646e-42 4.295e-41 1.586e-41 2.3675e-41
000200 fb 96 9b 9b 7d 85 00 00 88 01 00 00 b3 a5 00 00
       -2.5740168e-22 4.7887e-41 5.5e-43 5.9442e-41
000210 10 66 8f 9b a4 0f 00 80 45 44 00 80 08 35 00 80
       -2.3723322e-22 -5.611e-42 -2.449e-41 -1.9024e-41
000220 0e 1d 91 9b ed 5b 9d 19 33 2f 8e 05 54 40 54 88
       -2.4007014e-22 1.6270548e-23 1.3370954e-35 -6.3872047e-34
000230 03 6a 95 06 c6 46 bd 19 27 ff dc 86 77 85 f8 87
       5.620334e-35 1.9570727e-23 -8.3129715e-35 -3.7393336e-34
000240 81 8e 40 85 23 cd e2 17 b7 b0 c4 3b 87 52 4f bb
       -9.0539704e-36 1.4656691e-24 0.0060025114 -0.0031634883
000250 f8 83 a5 ba a2 46 3e bb c0 78 6c ba 41 4b 49 bb
       -0.0012627831 -0.00290338 -0.00090206787 -0.003071502
000260 4c e5 c1 ba 15 26 98 bb e8 98 d1 3b fa 27 57 bb
       -0.0014793067 -0.0046432116 0.0063964017 -0.0032830224
000270 0b ee 84 3b b3 1e 49 3b 2c 65 63 bb 09 cd 36 bb
       0.0040566972 0.0030688464 -0.0034697754 -0.0027893207
000280 f6 e9 a5 3b 37 c6 4a bb 90 b9 05 3c 45 b3 c8 b9
       0.0050632907 -0.00309409 0.008161917 -0.0003828054
000290 ef 01 7d bb 9d b1 02 3b 80 3f 21 bb 03 1d b8 bb
       -0.003860589 0.0019942292 -0.00246045 -0.005618693
0002a0 ba 0d 3f 3b b2 97 5d bb 86 a4 45 bb e8 91 45 38
       0.0029152469 -0.0033812341 -0.0030157878 4.7104346e-05
0002b0 8d 9e fd bb 08 71 2a 3b cb 25 26 39 ab c7 fe 3a
       -0.007739848 0.0026007313 0.00015845073 0.0019438168
0002c0 74 95 2c bb e5 55 17 bc b1 a6 c6 3b 3a 90 9d 3b
       -0.0026334198 -0.009236787 0.0060623516 0.004808453
0002d0 7e d2 90 3b 42 83 46 bb 0a e1 ba 3b 05 23 8c 3b
       0.004419624 -0.0030290638 0.0057030963 0.0042766356
0002e0 a6 ab 50 3b f0 44 94 bb a3 91 36 3b 8c 48 b8 39
       0.0031840592 -0.0045248196 0.0027857802 0.00035149266
0002f0 6f de b2 3a a4 61 b2 bb 88 99 5c bb 66 d8 1c 37
       0.0013646613 -0.0054437686 -0.0033660848 9.348709e-06
000300 0e dd ca bb b4 c2 82 3b 6c d7 32 3b c8 09 a1 ba
       -0.0061909026 0.0039904956 0.0027289046 -0.001228624
000310 05 33 25 3a ee b2 99 3b eb f1 9e 3b b3 0d e1 bb
       0.0006301853 0.0046905195 0.004850616 -0.006868088
000320 80 28 91 bb 52 6b dd 3b 99 7b 97 3b 62 7f 08 bb
       -0.004429877 0.0067571783 0.0046228883 -0.002082788
000330 c0 10 da 3b 62 25 d9 bb 14 ea 42 3b a3 f3 8e 3b
       0.006654829 -0.006626771 0.0029741572 0.00436254
000340 a9 87 0e 3c 95 62 00 bb dd eb 44 3b 67 85 81 bb
       0.008699336 -0.001959001 0.0030047812 -0.0039526704
000350 db 0a 03 3b 2f f2 bf 3b d2 53 f5 bb b9 b3 59 3b
       0.0019995484 0.005857728 -0.007486799 0.0033218695
000360 35 20 e0 b9 11 26 a0 bb 42 ab 8e 3b f5 5f e6 3b
       -0.00042748605 -0.0048873504 0.0043539116 0.007030482
000370 a1 bd 4f bb 55 68 91 bb 03 3b 43 3b 71 4b 91 bb
       -0.003169872 -0.004437486 0.0029789812 -0.004434042
000380 4d e0 45 3b a8 eb 48 3b 3f b3 b0 3b 7e c1 0b 3b
       0.0030193508 0.003065804 0.0053924615 0.0021325047
000390 1c 3b 53 ba 1d f9 24 bc 22 06 5c bb 97 9f 51 3b
       -0.0008057819 -0.010069159 -0.0033572991 0.0031985992
0003a0 54 17 2c 3b 27 ae 46 bb 18 49 8b bb 1b fa 9d 3b
       0.0026259022 -0.0030316205 -0.004250657 0.0048210747
0003b0 a7 51 1f bb 44 a6 db bb dc 53 d3 3b 97 e7 4b bb
       -0.0024310143 -0.00670317 0.006449206 -0.003111338
0003c0 38 4d 9f bb fb 90 88 3a 7f 7a b1 3a 13 0c 33 bb
       -0.0048615 0.0010419184 0.0013540535 -0.002732043
0003d0 0b 63 92 bb ce c9 88 3b 0d 44 f2 ba b1 3b c0 bb
       -0.0044673732 0.0041744476 -0.0018483415 -0.005866491
0003e0 a7 13 c9 bb a4 bb 0a 3b 92 87 3e bb d6 86 07 bc
       -0.006136376 0.0021168971 -0.0029072505 -0.0082718935
0003f0 f9 8a e9 b8 fc 7e 04 3b 19 ae 56 3b a5 6c 95 3b
       -0.000111361915 0.002021729 0.003275758 0.0045600706

bias f4 [128]
000000 a2 29 00 80 d2 cf 0c 3a 1f 4c d0 87 0c 6b 00 80
       -1.4935e-41 0.0005371544 -3.1341102e-34 -3.8401e-41
000010 21 c3 37 3a a9 42 89 39 a2 44 a9 84 24 01 c5 38
       0.00070099725 0.00026180342 -3.979474e-36 9.3939045e-05
000020 0c 01 c4 b9 22 e9 32 bc fc 31 d7 b9 c4 cd b7 b9
       -0.00037384813 -0.010919841 -0.00041045237 -0.00035057787
000030 3b 62 7a b9 32 03 2d b9 04 c6 76 87 11 12 89 8b
       -0.00023878452 -0.00016499756 -1.8565175e-34 -5.2797664e-32
000040 3b bd 7c ba 5c 65 00 80 2e bf 78 b9 c2 8e 45 ba
       -0.00096412346 -3.6361e-41 -0.00023722343 -0.0007536226
000050 11 61 c3 86 66 56 25 3a 1d d3 18 ba a7 b8 01 3a
       -7.3493474e-35 0.0006307125 -0.0005829798 0.0004948475
000060 81 86 2b 82 09 03 89 39 3f 31 a5 ba ee 20 e9 81
       -1.2601697e-37 0.00026132938 -0.0012603177 -8.5637934e-38
000070 12 3d 85 b7 86 7d 29 39 a6 aa 65 bc 38 3b 04 80
       -1.5883274e-05 0.00016163857 -0.014017737 -3.88586e-40
000080 64 c1 cf bb 80 80 01 80 0e e4 94 91 0f 76 89 ba
       -0.0063401926 -1.37933e-40 -2.3490832e-28 -0.0010487455
000090 9c 1f 5a 39 30 d2 02 80 c1 05 9a 39 b7 95 53 b9
       0.00020801876 -2.59072e-40 0.00029377456 -0.00020178301
0000a0 cc 8b 00 00 92 3f 96 ab 13 a9 84 a9 0f 05 6a 39
       5.015e-41 -1.0675785e-12 -5.891307e-14 0.00022317863
0000b0 61 c7 9f ba d3 91 05 83 ef 83 fd 39 a7 bb 7f 39
       -0.0012190157 -3.9252585e-37 0.0004835422 0.00024388601
0000c0 c1 fa a4 83 d0 f1 a9 39 e9 ac 07 ba 48 50 04 3a
       -9.696624e-37 0.00032414356 -0.0005175607 0.0005047363
0000d0 09 0a 86 9a 99 6c c7 39 5d 7e 8d b5 25 75 cd 39
       -5.5437314e-23 0.0003803715 -1.0542095e-06 0.00039187926
0000e0 71 04 f7 39 48 82 cc 39 90 19 00 00 2a b3 00 00
       0.0004711482 0.0003900698 9.17e-42 6.4272e-41
0000f0 0c 45 05 b7 8d b7 06 3a 5a d5 3d ba 75 ff db 92
       -7.943494e-06 0.00051390455 -0.00072415697 -1.3883818e-27
000100 5a 7e 4b 39 8a 82 be ba ac 13 48 80 ab 60 f6 98
       0.00019406658 -0.0014534753 -6.619213e-39 -6.368712e-24
000110 0c 73 30 80 8c b4 41 85 bb 57 b4 ba 88 39 00 80
       -4.449375e-39 -9.1079776e-36 -0.0013759056 -2.0638e-41
000120 89 d7 cb 39 38 08 d8 b7 e4 2f 00 80 98 11 5f 80
       0.00038879763 -2.5753034e-05 -1.718e-41 -8.730684e-39
000130 a0 3b 00 00 46 94 ab b7 18 2d a3 8a 17 21 5d 90
       2.139e-41 -2.0453834e-05 -1.5713291e-32 -4.3610057e-29
000140 ff ce a5 92 c4 7d 33 87 b9 b1 b1 82 b5 4c d6 39
       -1.0463992e-27 -1.3503422e-34 -2.610982e-37 0.00040874412
000150 58 74 6a b7 14 14 8b 39 cc 44 00 80 c5 bc f8 39
       -1.3974575e-05 0.00026527105 -2.468e-41 0.0004744289
000160 33 1a 93 ba 93 57 48 b9 ac dc 3a 80 3a 52 4e 8d
       -0.0011223018 -0.0001910611 -5.405621e-39 -6.3577628e-31
000170 92 12 00 3a cd 82 f6 a4 eb 45 90 38 4c 20 b8 35
       0.00048855797 -1.0690708e-16 6.879478e-05 1.3718468e-06
000180 50 50 00 80 10 5f 00 80 06 7c 1a b8 7c 39 00 80
       -2.881e-41 -3.4102e-41 -3.6831967e-05 -2.0622e-41
000190 33 47 00 84 b9 a0 b2 82 5b a6 a7 a1 09 54 81 39
       -1.507902e-36 -2.6247e-37 -1.1360394e-18 0.00024667408
0001a0 05 2d 00 80 9a f8 90 b7 fa 6a c4 39 40 0c 00 80
       -1.615e-41 -1.7281902e-05 0.00037463737 -4.394e-42
0001b0 ef 39 9c a3 17 5e 06 b8 2a 10 a8 38 71 19 0b 95
       -1.693809e-17 -3.2035718e-05 8.013875e-05 -2.8090896e-26
0001c0 65 34 74 ba 4a ae c4 ba 46 65 7f 85 d9 18 8f 38
       -0.0009315669 -0.0015005555 -1.20086434e-35 6.8233996e-05
0001d0 bb 83 62 bc 94 32 9c 85 1b 9a a4 ba a5 f5 bb b7
       -0.013825352 -1.4688749e-35 -0.0012558134 -2.2406524e-05
0001e0 9e a5 68 39 4a 11 09 b1 ee 81 90 39 80 84 00 00
       0.00022186941 -1.9945952e-09 0.00027562625 4.7532e-41
0001f0 ad 40 be 39 31 9d 1b ba c6 ad 8a a1 db 10 e1 38
       0.0003628781 -0.0005936204 -9.397241e-19 0.000107319756

weight f4 [19, 128]
000000 63 5e 22 09 e1 60 39 3a 09 70 8b 0e c8 81 00 00
       1.9544421e-33 0.0007071626 3.437403e-30 4.6557e-41
000010 7f 65 89 3a 9e e8 51 3a 90 87 09 80 fc 0a b3 39
       0.0010482519 0.000800738 -8.7515e-40 0.00034149725
000020 fc 39 4a 3a ed 91 af 38 fe 5c 89 ba 05 11 4e ba
       0.0007714329 8.371831e-05 -0.0010479984 -0.00078608125
000030 54 30 a0 3a 1f 44 99 39 89 e8 52 aa 6b 15 a5 8c
       0.0012221434 0.00029233188 -1.8732424e-13 -2.5435166e-31
000040 55 e8 84 ba 24 a0 0c 00 a2 c4 5a ba 5e 5a 76 ba
       -0.0010140041 1.159474e-39 -0.00083453406 -0.0009397621
000050 eb 17 9f 09 51 c2 80 3a 49 15 65 ba dd 20 7f 3a
       3.830035e-33 0.0009823536 -0.00087388285 0.0009732375
000060 75 48 82 86 11 c9 97 3a e4 d7 a0 ba 5d 7e 9c 88
       -4.900703e-35 0.0011580308 -0.0012271372 -9.418616e-34
000070 06 aa 42 b7 e2 21 1e 3a 27 fb 87 b8 e5 96 6c 80
       -1.1602888e-05 0.00060322706 -6.4840824e-05 -9.972364e-39
000080 c6 cd b4 3c 73 39 f5 03 bd a3 24 b7 2d 13 07 3b
       0.022070777 1.44129955e-36 -9.813285e-06 0.0020610795
000090 9a 06 15 3b 87 be 00 00 98 dd 1e 3b 47 b8 84 39
       0.002273953 6.8348e-41 0.0024240967 0.000253143
0000a0 ec 44 00 80 f1 82 b3 b6 e3 1d 72 37 c2 1c 30 3a
       -2.4725e-41 -5.3498593e-06 1.4431283e-05 0.00067181524
0000b0 2b 52 e1 39 57 99 d3 0b eb 50 7e 3a 2f ba 3a 3a
       0.00042976564 8.1504964e-32 0.0009701389 0.00071230804
0000c0 c8 d6 0d 09 db 4e 34 3a 3a 5a 5e ba a5 b3 04 3b
       1.7073247e-33 0.00068782055 -0.0008482073 0.0020248678
0000d0 ad e6 d8 1b 8f a6 87 3a d5 db 05 38 98 7f 85 3b
       3.5883273e-22 0.0010349321 3.1914406e-05 0.0040740483
0000e0 9c f8 6c 3a f7 a0 5c 3a 48 2d 00 00 7f 4f 00 80
       0.0009039731 0.00084163196 1.6244e-41 -2.8518e-41
0000f0 00 6d b4 b7 62 51 0d 3a 1e 83 54 ba 0b 46 55 18
       -2.150843e-05 0.000539085 -0.0008106696 2.7564967e-24
000100 c1 4d 10 3a c9 66 39 ba 8c 3b 63 01 9e 6e 87 15
       0.00055047503 -0.0007072506 4.1736038e-38 5.470059e-26
000110 69 c5 10 05 f2 3f 7f 86 ff f6 a7 b9 d2 6a 00 00
       6.807106e-36 -4.800715e-35 -0.0003203675 3.832e-41
000120 42 f6 53 3a 08 dc ad b7 53 42 00 80 f5 6c df 82
       0.00080857065 -2.0725667e-05 -2.3793e-41 -3.2829443e-37
000130 d2 28 a3 03 65 f1 17 b7 f0 21 dd 83 c8 7f 2b 0b
       9.589651e-37 -9.056505e-06 -1.2997004e-36 3.3029534e-32
000140 25 a9 a1 96 80 28 e4 2e 52 ae 8f 88 0e 1d 4d 3a
       -2.6117698e-25 1.0375434e-10 -8.647482e-34 0.0007824459
000150 78 8c ef 37 bb 6f 26 3a 39 36 88 84 a7 ba 13 3a
       2.8556431e-05 0.00063490466 -3.2023242e-36 0.00056354183
000160 72 28 a6 ba 11 a2 05 3a d8 35 00 80 17 2e f3 93
       -0.0012676849 0.0005097697 -1.9315e-41 -6.1387272e-27
000170 de fb c9 3a 1c ef c2 a5 28 87 bb 3a 0a 0a 41 ba
       0.0015410145 -3.3815662e-16 0.0014307247 -0.00073638617
000180 ec 40 00 80 58 34 00 80 63 0b 93 37 95 4d db 02
       -2.329e-41 -1.8777e-41 1.7529068e-05 3.2223688e-37
000190 7f a6 b9 81 91 15 b5 87 8e e9 96 26 53 30 90 3a
       -6.819718e-38 -2.7246529e-34 1.0471646e-15 0.001100073
0001a0 a1 a5 00 00 fb 2e 95 b5 1c 5b 52 3a 84 13 1b 00
       5.9416e-41 -1.1115038e-06 0.00080244406 2.486559e-39
0001b0 b3 e1 46 ad 7e 67 e8 b7 a0 9c 22 3a 89 5b 3b 16
       -1.1305112e-11 -2.7704747e-05 0.00062031485 1.5134623e-25
0001c0 de 49 00 ba b6 50 d8 39 f8 b0 34 0d 30 75 ae 39
       -0.00048938196 0.00041258865 5.56798e-31 0.00033275178
0001d0 cc 77 44 ba 4e c6 60 82 17 39 b4 ba 0d 44 d8 b7
       -0.0007494658 -1.6513832e-37 -0.0013749924 -2.5780895e-05
0001e0 2a 35 43 3a 4c 6d 80 37 d1 45 2b 3a 8c ea 01 80
       0.0007446582 1.5309684e-05 0.0006533536 -1.75975e-40
0001f0 01 92 5e 3a 93 6f 82 ba 53 d2 a3 2a 8e ae f4 b8
       0.0008490384 -0.0009951465 2.9100558e-13 -0.0001166734
000200 fa 92 00 00 c2 b1 83 3a dd ac 64 0a 84 69 00 80
       5.2725e-41 0.0010047483 1.1010313e-32 -3.7852e-41
000210 e6 64 83 3a d8 3c 78 b9 9d 10 00 00 2b 10 ce 38
       0.0010024577 -0.00023673789 5.96e-42 9.825857e-05
000220 1e fb c3 38 27 63 c3 b8 3e e8 4e 3a b7 3f 10 ba
       9.345099e-05 -9.316793e-05 0.0007892883 -0.00055026583
000230 87 da 1c 3a 48 b0 84 38 ac 17 00 80 ee 9f ed 08
       0.0005983491 6.3270854e-05 -8.492e-42 1.4301518e-33
000240 98 47 5d ba 40 aa 00 00 54 cf 47 ba 58 20 9c 39
       -0.0008441149 6.1074e-41 -0.0007622142 0.00029778737
000250 c4 29 49 06 fe 4e 8f 37 9c fc a1 3a 69 c5 d5 3a
       3.7834583e-35 1.7083712e-05 0.0012358609 0.0016309443
000260 ba 55 ac 82 f5 69 5d 38 ca 5d 37 b9 e4 f2 7a 86
       -2.5322333e-37 5.2789186e-05 -0.00017487179 -4.7198222e-35
000270 72 8a 34 b8 6c f9 3a 39 b1 06 29 3a 7b 7a 00 80
       -4.304428e-05 0.00017831259 0.00064478355 -4.3938e-41
000280 43 65 a1 bb f0 49 98 00 9b d7 6c a1 c8 6a 90 b9
       -0.0049254014 1.3985519e-38 -8.024526e-19 -0.00027545379
000290 ef 33 b9 3a e8 9c 00 00 9c 96 4d 39 b1 0b 30 39
       0.0014129857 5.6287e-41 0.0001960643 0.00016789023
0002a0 b8 9f 00 00 9e 96 a1 35 39 80 e0 27 80 a3 8f 37
       5.7296e-41 1.203927e-06 6.231151e-15 1.7123064e-05
0002b0 22 39 2f ba 9a 36 1f 09 3c 7d 48 3a 41 0f a1 39
       -0.00066842337 1.9164602e-33 0.0007648056 0.00030719678
0002c0 3b 59 17 87 ef 0d 7a b9 f6 a3 ca 38 f0 32 5f ba
       -1.13862e-34 -0.00023847049 9.662651e-05 -0.0008514365
0002d0 19 24 df 19 60 b1 58 37 e7 ab 97 b6 09 8b 87 39
       2.307224e-23 1.2915902e-05 -4.5201627e-06 0.00025852796
0002e0 ad 75 45 3a eb 28 27 3a f4 08 00 80 61 91 00 80
       0.00075324887 0.00063766417 -3.212e-42 -5.2152e-41
0002f0 f5 ad 0b 38 4d 64 13 ba ca 63 82 39 34 ca e6 95
       3.3302193e-05 -0.0005622551 0.0002486988 -9.321528e-26
000300 09 33 9d 39 45 09 11 ba 82 bb 09 80 c6 8d 3c 13
       0.00029983398 -0.00055326923 -8.93785e-40 2.3798836e-27
000310 1e f3 d6 01 a5 38 1d 04 dc 08 aa 39 f8 47 00 80
       7.896004e-38 1.8481271e-36 0.00032431528 -2.5818e-41
000320 ea c1 92 b9 a1 00 b7 b7 0e 9d 00 00 e4 24 1c 00
       -0.00027991767 -2.1815593e-05 5.634e-41 2.584628e-39
000330 d8 4a 6c 80 1b 8a 57 27 00 1c 3d 81 c7 95 00 00
       -9.945082e-39 2.991211e-15 -3.4733907e-38 5.373e-41
000340 cd d0 16 94 d7 22 4e 05 da 09 f3 82 d0 c6 9c 38
       -7.614243e-27 9.6924725e-36 -3.5711295e-37 7.4756914e-05
000350 4b 06 45 b8 da 49 e4 39 62 27 1e 02 e6 63 2b 3a
       -4.697432e-05 0.00043542573 1.1619309e-37 0.00065380184
000360 06 02 fb 38 45 53 5c 3a 80 a0 00 80 d0 2d 8d 11
       0.000119689896 0.0008404742 -5.7577e-41 2.2274112e-28
000370 b9 9b 32 3a 26 e4 32 24 22 46 36 3a fa ca 1c 39
       0.00068133656 3.8790847e-17 0.00069531996 0.00014952934
000380 ac 11 00 80 bc 0d 00 00 7c 74 05 b7 68 2c 0c 80
       -6.34e-42 4.927e-42 -7.954539e-06 -1.117956e-39
000390 b8 eb 07 00 7d 01 9f 05 f6 d7 30 25 b8 20 88 b7
       7.27408e-40 1.4952835e-35 1.5338737e-16 -1.62277e-05
0003a0 58 69 00 80 00 50 a3 92 d7 43 85 39 38 72 00 80
       -3.779e-41 -1.0306468e-27 0.0002541828 -4.0974e-41
0003b0 61 d3 21 29 2f 11 6b 37 73 4b 36 38 75 c3 0b 13
       3.5932523e-14 1.4011092e-05 4.346245e-05 1.7640634e-27
0003c0 02 10 ef b9 0c 47 95 b9 1c 0f ea 8c 9b 71 35 b8
       -0.0004559756 -0.0002847243 -3.6062502e-31 -4.3259566e-05
0003d0 ff f1 24 ba db a5 00 80 54 3c 22 b9 a5 d5 0c 38
       -0.0006292164 -5.9498e-41 -0.00015471998 3.3577573e-05
0003e0 59 7f e4 b7 6c 32 35 37 d5 62 df 39 ac 50 00 00
       -2.7239019e-05 1.08001805e-05 0.0004260751 2.894e-41
0003f0 4c a0 9e b9 25 1c b9 b9 84 e0 b4 27 cb 11 39 38
       -0.0003025554 -0.0003530692 5.0203456e-15 4.4124008e-05

bias f4 [19]
000000 86 02 af 3e 7d 70 5c 38 12 ae b9 39 98 2b 2f 3a
       0.34181613 5.255685e-05 0.00035415642 0.0006682216
000010 b4 2d ad 3e 9d ff 75 ba 74 29 9a 39 00 4b 47 3a
       0.3382393 -0.00093840976 0.00029404054 0.00076024234
000020 0d 09 ad 3e c7 33 a5 3e f0 f1 cd b6 6f 14 33 38
       0.33795968 0.32266065 -6.1376413e-06 4.2695956e-05
000030 97 0e fe 38 88 2c a5 3e ec 57 22 39 72 1f 9b 38
       0.000121143814 0.32260537 0.00015482277 7.396833e-05
000040 e3 28 bc b8 42 3c a5 3e 81 98 40 c0
       -8.972154e-05 0.32272536 -3.009308
