models/data_aug/C/model0.pt (torch, 353039 bytes, 8 tensors)

weight f4 [128, 384]
0	0x3c1014ab	0.00879399
1	0xbc5b8c6e	-0.01340018
2	0xbc0f7d26	-0.008757865
3	0x3d0ac2f9	0.033877347
4	0x3aa23e7d	0.0012378242
5	0xbc4cc3dc	-0.012497868
6	0x3cfd6081	0.030929806
7	0x3c8a72fe	0.016900536
8	0x3bbc4d6b	0.0057465336
9	0xbce6e283	-0.028184181
10	0xbb96700a	-0.004590993
11	0x3d8d3b3c	0.06896064
12	0xbc3b47a0	-0.011430651
13	0xbb38e3fc	-0.002821206
14	0x3e06e8aa	0.13174692
15	0xbbd1aa52	-0.0063984776
16	0xbd4e4803	-0.050361644
17	0x3ba0e8a6	0.0049105464
18	0x3c4547cc	0.0120410435
19	0x3c66a52c	0.014077466
20	0x3adbced1	0.001677001
21	0xbcd63532	-0.026148412
22	0x3cf8cef5	0.030372122
23	0x3cd584b4	0.026064254
24	0x3d92aebb	0.071622334
25	0x3b06d6cc	0.0020574806
26	0x3c9a5f9d	0.01884442
27	0x3d34e8c2	0.044167288
28	0x3e01c0e9	0.12671246
29	0x3b7336ed	0.0037111596
30	0xbb522e82	-0.0032071178
31	0x3d550610	0.052007735
32	0xbd14ce28	-0.03632942
33	0xbb998380	-0.0046848655
34	0xbb5872da	-0.0033027441
35	0xbdf6113c	-0.12015006
36	0xbdf75e42	-0.12078525
37	0x3c49cacc	0.012316417
38	0xbd49ebee	-0.049297266
39	0x3c708bd5	0.014681776
40	0x3dcb90dd	0.0993974
41	0xbd0fc3b1	-0.035098735
42	0xbdad1d97	-0.084529094
43	0xbce02458	-0.02736108
44	0xbd81caf4	-0.06337538
45	0x3cb1fb3e	0.021726247
46	0x3decb20e	0.11557399
47	0x3d760445	0.060062665
48	0xbdf5c5eb	-0.120006405
49	0xbcf59dea	-0.029982526
50	0x3d3bec2c	0.045879528
51	0x3d0f2bf3	0.034954023
52	0xbcec7eaa	-0.028868992
53	0xbd87344e	-0.06601773
54	0xbc2e2a98	-0.010630272
55	0x3db9958d	0.09061728
56	0x3ce7f39d	0.028314406
57	0xbd47b0f0	-0.048752725
58	0x3c13f3f0	0.009030327
59	0xbdc02242	-0.09381534
60	0xbd452f47	-0.04814079
61	0x3d12530d	0.035723735
62	0xbd8f8c02	-0.07009126
63	0xbd837784	-0.0641928
64	0xbc2f7d92	-0.010711091
65	0x3d0c5693	0.03426225
66	0xbd3089fd	-0.043100346
67	0xbc797fb0	-0.015228197
68	0x3b7baf81	0.003840417
69	0x3b972d89	0.0046135825
70	0x3c29188e	0.010320796
71	0x3aea710e	0.0017886476
72	0x3ca93543	0.02065528
73	0x3d034824	0.03205122
74	0xbd80d229	-0.06290085
75	0xbce86fb2	-0.028373573
76	0x399fc25f	0.0003047166
77	0x3c4e5f4c	0.012595963
78	0x3d211ee6	0.039336108
79	0x3bb89187	0.0056325826
80	0xbe2d482c	-0.16922063
81	0x3d1f45ee	0.03888505
82	0x3d16eef8	0.036848992
83	0x3ca118c1	0.019665124
84	0x3bcfcd23	0.006341593
85	0x3c5d7cd1	0.013518528
86	0x3bec6d95	0.0072152116
87	0xbd5441a7	-0.051820423
88	0x3d76d288	0.060259372
89	0xbcb870c8	-0.022514716
90	0x3d972aa6	0.073811814
91	0x3cf15337	0.029458625
92	0x3d39acfc	0.045330986
93	0xbcc4c217	-0.02401833
94	0xbd036217	-0.032075968
95	0xbcdcd271	-0.026955815
96	0xbdf81ae6	-0.121145055
97	0xbe14353f	-0.14473437
98	0x3d119a16	0.03554734
99	0x3d88077f	0.06642055
100	0xbc94e11c	-0.018173747
101	0x3c0abe4b	0.008468221
102	0x3d02243f	0.03177285
103	0x3b4dff37	0.0031432637
104	0xbca4b1a2	-0.020104233
105	0xbc6ff899	-0.014646673
106	0xbd59b9ca	-0.053155698
107	0x3cd86734	0.026416399
108	0xbcad4f66	-0.021156024
109	0xbc86a83d	-0.016437644
110	0xbc581de4	-0.01319072
111	0x3c53c5f9	0.012925618
112	0x3d543381	0.05180693
113	0x3bdcf92f	0.006743572
114	0x3c1edd21	0.009696276
115	0xbcb835cd	-0.022486592
116	0xbcffce4f	-0.031226305
117	0xbd624ac5	-0.055247087
118	0xbd8b7b86	-0.068106696
119	0xbc143a76	-0.009047141
120	0xbcefe742	-0.029285077
121	0xbd44fe90	-0.048094332
122	0xbc859252	-0.016305123
123	0xbe108ea2	-0.1411691
124	0xbd867c90	-0.06566727
125	0xbd41b939	-0.047295783
126	0xbd887e8a	-0.066647604
127	0xbbc55562	-0.0060221413
128	0xbb152235	-0.0022755985
129	0xbbd9238a	-0.006626551
130	0xbd3c2792	-0.045936175
131	0xbdf68500	-0.120370865
132	0xbcd2b9d9	-0.025723385
133	0x3d2dd8e1	0.04244316
134	0xbd9e4a05	-0.07728962
135	0xbccd184b	-0.025035998
136	0x3cd635f6	0.026148777
137	0xbd9d3c49	-0.07677514
138	0xbd30a859	-0.0431293
139	0x3c79aa36	0.015238335
140	0xbcada353	-0.021196043
141	0xbd911100	-0.070833206
142	0xbbc1a665	-0.0059097284
143	0xbcb3160f	-0.021861104
144	0xbe0cbae8	-0.13743174
145	0xbe82204a	-0.2541526
146	0xbd8d8b77	-0.069113664
147	0x3cf2bf55	0.02963225
148	0x3d83e2d5	0.06439749
149	0x3db31437	0.0874409
150	0x3d9c57cd	0.07633934
151	0xbc57501c	-0.013141658
152	0xbd5d0769	-0.053962145
153	0xbd7257c6	-0.05916574
154	0xbd9da488	-0.076973975
155	0x3d8898f8	0.066698015
156	0x3d7e4d04	0.062085167
157	0xba0ec398	-0.0005446016
158	0x3b2bdce6	0.0026224195
159	0x3c25c94a	0.010118792
160	0xbbd752c4	-0.0065711457
161	0xbd986c16	-0.07442491
162	0xbda02036	-0.07818644
163	0xbdd1f9f6	-0.102527544
164	0xbc17f2b9	-0.009274178
165	0x3ceb924f	0.028756289
166	0x3aa5e99a	0.001265812
167	0xbd400aa5	-0.04688515
168	0xbc53291a	-0.012888217
169	0xbbe9acf5	-0.007131214
170	0xbad10815	-0.0015947843
171	0x3d2b2081	0.041779045
172	0xbc6ba264	-0.014381979
173	0xbc2c1d40	-0.010505021
174	0x3d3d006c	0.04614298
175	0xbd221aaf	-0.03957623
176	0xbd5f12a9	-0.054461155
177	0xbb3c1958	-0.002870163
178	0xbd854921	-0.06508089
179	0xbccaa1cf	-0.02473536
180	0xbd910aec	-0.07082161
181	0xbdc74243	-0.09729435
182	0xbc4cc314	-0.012497682
183	0xbd125116	-0.03572186
184	0xbac8de69	-0.0015325072
185	0xbdad7dbf	-0.0847125
186	0xbd31b290	-0.04338318
187	0xbc9a2332	-0.01881561
188	0x3d3e1c8b	0.04641394
189	0xbd1e7b6a	-0.038691916
190	0xbc9fec01	-0.019521715
191	0x3d646147	0.055756833
192	0xbaf5dc14	-0.0018757605
193	0x3c220c92	0.009890692
194	0x3e31dea8	0.17370093
195	0x3e1a5954	0.15073138
196	0x3e086424	0.1331945
197	0x3c1bad1c	0.009501722
198	0x3d321054	0.043472603
199	0xbd463e6e	-0.04839938
200	0xbda44380	-0.08020687
201	0xbd42b493	-0.04753549
202	0x3da309e2	0.07960869
203	0xbb23a99c	-0.0024972921
204	0xbcea28b0	-0.028583854
205	0xbd0943ec	-0.03351204
206	0x3d719e03	0.058988582
207	0x3c75cf01	0.015002967
208	0xbd2125bd	-0.03934263
209	0xbd8409d2	-0.064471856
210	0xbd957463	-0.0729759
211	0x3d8ad7d7	0.067794494
212	0xbdd23d3f	-0.10265588
213	0x3da5c446	0.08094077
214	0xbd00fb59	-0.031489704
215	0xbd99ce1a	-0.07510014
216	0x3d3c540f	0.045978602
217	0x3d7ce5d4	0.06174262
218	0xbdf0aabe	-0.117513165
219	0xbd95cb2d	-0.07314143
220	0x3aca2a2d	0.0015423946
221	0x3c2cc572	0.0105451215
222	0x3d29d124	0.041459218
223	0xbd2e5d12	-0.042569228
224	0x3ab4cbd5	0.0013793657
225	0x3b94a2d1	0.004536011
226	0x3c050106	0.00811792
227	0xbce97c83	-0.028501755
228	0xbc1b043a	-0.009461457
229	0x3d67746b	0.05650751
230	0x3dd1cafc	0.10243794
231	0x3d3b738b	0.045764487
232	0x3dce1564	0.10062674
233	0x3d738260	0.059450507
234	0xbdf7d99b	-0.12102052
235	0x3e340b12	0.17582348
236	0xbc24ee14	-0.010066528
237	0xbbe57c6b	-0.007003357
238	0xbc6441d5	-0.013931711
239	0xbdf20177	-0.11816686
240	0xbe3d4f43	-0.18487267
241	0xbe065dc4	-0.13121706
242	0xbd056ad4	-0.032572582
243	0x3dc48caa	0.09597142
244	0x3d8645e4	0.06556299
245	0x3d4abb30	0.049494922
246	0xbca91850	-0.020641476
247	0xbdf70f8c	-0.12063512
248	0x3db72140	0.08941889
249	0x3e2557a0	0.16146708
250	0x3d91548c	0.07096204
251	0x3d2f61a2	0.04281772
252	0xbc753c8d	-0.01496805
253	0xbd30d2ab	-0.04316966
254	0xbc696633	-0.014245558
255	0xbbb4887e	-0.005509435

bias f4 [128]
0	0x3d407ee3	0.04699601
1	0xbd09b651	-0.033621136
2	0xbd1294af	-0.035786327
3	0xbb834a04	-0.004006626
4	0xbd451cdf	-0.048123237
5	0x397e039d	0.00024224674
6	0xbc9edb67	-0.019391729
7	0x3d03d022	0.032180913
8	0xbd0a7438	-0.03380224
9	0x3cf39b01	0.029736998
10	0xbaab040e	-0.0013047473
11	0x8154d570	-3.9091384e-38
12	0x3d167e25	0.036741395
13	0xbd39f5c9	-0.045400415
14	0x3c9187de	0.017764982
15	0x3d3e21d0	0.046418965
16	0x3d41b00e	0.04728704
17	0x3d39adef	0.04533189
18	0x3d2799bb	0.040918093
19	0x3d4a379d	0.049369443
20	0xbd43a643	-0.04776598
21	0x3d4b41a7	0.049623158
22	0x3c951589	0.018198745
23	0x3bcff793	0.006346652
24	0x3d2d732e	0.042346172
25	0xbd196435	-0.03744908
26	0x3d3b0adf	0.045664664
27	0xbc8b1560	-0.016977966
28	0xbd0fee0a	-0.03513912
29	0xbc02830c	-0.007965814
30	0x3d23a141	0.039948706
31	0x3d35abc0	0.044353247
32	0x3d401103	0.046891224
33	0xbd0f4abd	-0.034983385
34	0xba7017f3	-0.0009158842
35	0x3cd3e8bc	0.025867812
36	0xbcb4ca6b	-0.022069177
37	0x3d08e700	0.033423424
38	0x3d7cf348	0.06175545
39	0xbd0c63d9	-0.03427491
40	0x3d8857b3	0.06657352
41	0xbcdc0f6d	-0.026862824
42	0x3cd7bbfe	0.026334759
43	0x3d40eb91	0.047099654
44	0x3bced4eb	0.006312003
45	0x3d705d7b	0.0586829
46	0xbb3d7af6	-0.0028912402
47	0x3d428f2f	0.04749983
48	0xbc620c7d	-0.013796923
49	0x3d40727d	0.046984185
50	0x3b6771ad	0.0035315559
51	0x3d414660	0.047186255
52	0x3d21b893	0.039482664
53	0x3c9a8afe	0.018865105
54	0x3d6d598f	0.057946738
55	0xbd09d224	-0.03364767
56	0xbaaac380	-0.0013028234
57	0xbd1b3a92	-0.037897654
58	0x3d233698	0.039846987
59	0xbd1e74f7	-0.038685765
60	0xbd1d2d73	-0.038373422
61	0x3cd8f47f	0.026483772
62	0x3ce37725	0.027766773
63	0x8006d698	-6.27995e-40
64	0x89c274d6	-4.6813673e-33
65	0x3d07a32a	0.03311459
66	0xbc826486	-0.015917074
67	0x812f075c	-3.2147704e-38
68	0x3d0eaa88	0.0348306
69	0x3d112aa7	0.035441067
70	0x3b53fc84	0.0032346556
71	0xbd263882	-0.040581234
72	0x3d035722	0.03206552
73	0x94368f63	-9.21693e-27
74	0x3d60aecc	0.0548542
75	0x3d0a4736	0.03375932
76	0x3d5d4da5	0.054029126
77	0x3cd67461	0.02617854
78	0x3d3feee0	0.04685867
79	0x3d13240f	0.03592306
80	0x3d36a9f3	0.04459567
81	0x3cf98e52	0.030463371
82	0xbd392767	-0.045203593
83	0x3d2d6607	0.04233363
84	0xbd10d509	-0.035359416
85	0x3c365534	0.011128712
86	0x809c45f4	-1.4351432e-38
87	0x3cafba05	0.021451006
88	0x3d80f524	0.06296757
89	0xbaf24ee3	-0.0018486645
90	0xbd2b0300	-0.041750908
91	0x3c103e27	0.008803881
92	0x39c43e13	0.00037430282
93	0x3d31f95d	0.043450702
94	0x3cfdb591	0.030970367
95	0x800339d0	-2.96246e-40
96	0x3d424246	0.047426485
97	0xbae3b155	-0.0017371575
98	0xbd149994	-0.036279276
99	0xbab711f3	-0.0013967141
100	0xb9bd4ce1	-0.00036106168
101	0xbbe327b9	-0.0069322255
102	0xbd1640d6	-0.036682926
103	0x3ce6d602	0.028178219
104	0xbd00bba6	-0.031428955
105	0x3d0afa12	0.033929892
106	0x3ce6b6cd	0.028163338
107	0xbcdfb3ed	-0.027307475
108	0x80247e18	-3.351312e-39
109	0x3d367bd2	0.044551678
110	0xbca73adb	-0.020413807
111	0x3d3ab4e8	0.045582682
112	0xbc44cdf4	-0.012011994
113	0xbd055e9f	-0.03256094
114	0x3cbd64ff	0.023119448
115	0xbd2a745f	-0.041614886
116	0xbcaf78ae	-0.02141985
117	0xbd1dfb21	-0.038569573
118	0x3ce40348	0.027833596
119	0x3d495300	0.04915142
120	0xbd3f0783	-0.046638023
121	0x3d4e35f0	0.050344408
122	0xbc5e366b	-0.013562779
123	0x3c1129dd	0.008860079
124	0xbcf2bcfc	-0.02963113
125	0x3d6a08f0	0.05713743
126	0x832c4bbc	-5.0633196e-37
127	0x3d338f76	0.043837987

weight f4 [128, 128]
0	0xbd22b9e1	-0.03972805
1	0x3c9e3856	0.019313972
2	0x3d25ef10	0.04051119
3	0xbd91ea84	-0.071248084
4	0x3ceb3138	0.028709993
5	0x3bc21d2a	0.005923887
6	0x3e01c326	0.126721
7	0xbd8259a8	-0.06364757
8	0x3d1f50a8	0.03889528
9	0xbdbf0f30	-0.09329069
10	0x3c3d8d65	0.011569356
11	0x000b3a30	1.031064e-39
12	0xbd7341c9	-0.05938891
13	0x3ce21e9d	0.027602488
14	0xbda7de8c	-0.08196744
15	0xbca89af0	-0.020581692
16	0xbd0f07c1	-0.034919504
17	0xbcf00290	-0.029298097
18	0xbd052feb	-0.0325164
19	0xbcfa0aa3	-0.03052265
20	0x3d0f253b	0.034947615
21	0xbccbd8b8	-0.024883613
22	0xbdd91b97	-0.106009655
23	0xbcb10e85	-0.021613369
24	0xbd12f81a	-0.03588114
25	0x3db453dd	0.08805058
26	0xbccf4e5c	-0.02530592
27	0x3daaeb51	0.08345664
28	0xbdc02e0b	-0.09383782
29	0x3e42a31f	0.19007538
30	0xbcf936b5	-0.030421594
31	0xbd262c27	-0.04056945
32	0xbd71ebe3	-0.05906285
33	0x3dca94a2	0.09891631
34	0x3d05fefb	0.03271387
35	0xbda6171b	-0.08109876
36	0x3df88e72	0.12136544
37	0xbd72b17c	-0.059251294
38	0xbd3f3780	-0.04668379
39	0x3d530cfa	0.051526047
40	0xbd00b9d7	-0.03142723
41	0x3cb2af47	0.021812094
42	0xbe14ff7d	-0.14550586
43	0xbdddd28e	-0.10831176
44	0xbc100796	-0.008790871
45	0xbd42190c	-0.047387168
46	0x3d357331	0.04429931
47	0xbca41d77	-0.020033581
48	0x3dbb1ea1	0.091367014
49	0xbce2fa44	-0.027707227
50	0xbca2e873	-0.019886231
51	0xbd017222	-0.031602986
52	0xbd3e1980	-0.046411037
53	0xbd5e42c8	-0.054262906
54	0xbcfceacc	-0.030873679
55	0x3cd3d880	0.025860071
56	0x3d0dc538	0.03461191
57	0x3d75f305	0.060046215
58	0xbd501280	-0.050798893
59	0x3cc89d36	0.024489027
60	0x3d404c12	0.046947546
61	0xbd8ba038	-0.06817669
62	0xbde75b7b	-0.112967454
63	0x000069bc	3.793e-41
64	0x877c7676	-1.8993185e-34
65	0xbd7fb270	-0.06242603
66	0x3d7ef2c2	0.06224323
67	0x00201790	2.947189e-39
68	0xbd94702a	-0.07247956
69	0xbcdcb446	-0.02694143
70	0xbdc32bfd	-0.095298745
71	0xbdbcab46	-0.09212355
72	0xbd83644f	-0.06415617
73	0x92587c9b	-6.831117e-28
74	0x3c9c9506	0.019114029
75	0xbd199c12	-0.037502356
76	0xbd84ec14	-0.06490341
77	0xbd4c9efa	-0.0499563
78	0xbdeb77fc	-0.114974946
79	0xbda73398	-0.081641376
80	0xbce25bde	-0.027631696
81	0xbd549c60	-0.051906943
82	0x3d927308	0.07150847
83	0xbde3b98a	-0.11119373
84	0x3cbed35e	0.023294147
85	0xbd0fa4bf	-0.035069223
86	0x8001392c	-1.12345e-40
87	0xbda0439f	-0.07825398
88	0x3cb41c33	0.021986103
89	0x3c8143f0	0.015779465
90	0x3db3a403	0.08771517
91	0xbd0c411f	-0.03424179
92	0x3d0f1dc1	0.034940485
93	0xbd8be254	-0.06830278
94	0xbdca35cf	-0.098735444
95	0x80005850	-3.168e-41
96	0xbd0bb69c	-0.034109697
97	0xbd56e912	-0.052468367
98	0x3e00a66e	0.12563488
99	0xbd90fbf5	-0.07079307
100	0x3c27ff36	0.010253718
101	0x3cb33b59	0.021878885
102	0x3d17efb6	0.03709384
103	0xbdb03387	-0.08603578
104	0x3d06a529	0.032872353
105	0xbe07fc93	-0.13279943
106	0xbd3d486e	-0.046211652
107	0x3d84024e	0.06445752
108	0x000181c4	1.38387e-40
109	0xbd81b6a0	-0.06333661
110	0x3da50f9b	0.08059617
111	0xbcd52e32	-0.026023004
112	0x3c517bde	0.01278588
113	0x3d45f639	0.04833052
114	0xbdaf166e	-0.085492
115	0x3d60f77b	0.054923516
116	0x3e019d22	0.12657598
117	0x3d59a296	0.05313357
118	0xbd492de4	-0.04911603
119	0xbd8e45e5	-0.06946925
120	0x3d6096eb	0.054831427
121	0xbd134d60	-0.035962462
122	0x3d8aff60	0.0678699
123	0xbd784f50	-0.060622513
124	0x3d32ec1b	0.0436822
125	0xbd23936d	-0.039935518
126	0x007909fc	1.1115677e-38
127	0xbd92c1f4	-0.071659
128	0x3d73c6c6	0.059515737
129	0x3b3ff543	0.0029290474
130	0x3a0f0460	0.0005455669
131	0x3e029a8b	0.12754266
132	0xbc3a112b	-0.011356632
133	0xbc112636	-0.008859208
134	0xbe094553	-0.13405351
135	0x3dca3f0e	0.09875308
136	0xbac52bba	-0.0015042939
137	0x3deddeea	0.11614783
138	0xbc1ef172	-0.00970112
139	0x80062684	-5.6483e-40
140	0x3d9c8d16	0.076440975
141	0xbcb554f8	-0.022135243
142	0x3dd9d884	0.10637
143	0x3d49e739	0.049292777
144	0x3d818d75	0.06325809
145	0x3d619f30	0.055083454
146	0x3d563500	0.05229664
147	0x3d45c716	0.048285566
148	0xbd0a2a3f	-0.033731695
149	0x3d105a36	0.03524228
150	0x3dfcadf6	0.12337868
151	0x3d049ae8	0.032374293
152	0x3d6f0784	0.058356777
153	0xbd831592	-0.064005986
154	0x3d173d1e	0.03692352
155	0xbd7e4b86	-0.062083744
156	0x3e052ab6	0.13004574
157	0xbe560ad8	-0.20902574
158	0x3d7d099c	0.061776742
159	0x3d7e6922	0.06211198
160	0x3da698b5	0.08134595
161	0xbdb24224	-0.087040216
162	0xbc72b718	-0.014814161
163	0x3ddcf72f	0.10789334
164	0xbe154588	-0.14577305
165	0x3d9e0f87	0.07717805
166	0x3d6f51aa	0.05842749
167	0xbd40f575	-0.047109086
168	0x3d560576	0.0522513
169	0x3bf43390	0.007452436
170	0x3e265e15	0.16246827
171	0x3e05a466	0.13050994
172	0x3d1f0265	0.038820643
173	0x3d81a99d	0.06331179
174	0xbd8b4cd3	-0.068017624
175	0x3d357099	0.044296835
176	0xbda02e84	-0.07821372
177	0x3d577954	0.052605942
178	0x3d323f19	0.043517206
179	0x3d57d1a8	0.05269018
180	0x3d9d4df0	0.07680881
181	0x3da1904d	0.07888851
182	0x3d51684f	0.051124867
183	0xb91f04e9	-0.00015165251
184	0xbd2f89ea	-0.042856134
185	0xbda06569	-0.078318425
186	0x3dad082b	0.084488235
187	0x3b9d4640	0.004799634
188	0xbd146d55	-0.03623708
189	0x3dbe620a	0.09296043
190	0x3e0b9f3f	0.13634966
191	0x00003a50	2.0919e-41
192	0x07b02b9a	2.6507163e-34
193	0x3dac9d10	0.08428395
194	0xbd33bde7	-0.043882277
195	0x80188964	-2.253338e-39
196	0x3dd03b45	0.10167555
197	0x3d826140	0.06366205
198	0x3e040447	0.12892257
199	0x3e08b357	0.13349663
200	0x3dcecc06	0.10097508
201	0x13d76fe2	5.4383955e-27
202	0x3947e050	0.00019061682
203	0x3d6a5ae1	0.057215575
204	0x3da31b97	0.07964247
205	0x3d78c23a	0.060732104
206	0x3e0b49d4	0.13602382
207	0x3df11a81	0.11772633
208	0x3d4b6e1a	0.049665548
209	0x3db613b4	0.08890477
210	0xbd9de8a6	-0.0771039
211	0x3e016a97	0.12638317
212	0xbae97259	-0.0017810568
213	0x3d8002e1	0.06250549
214	0x80039e68	-3.32332e-40
215	0x3dbfd540	0.09366846
216	0x3d14ce1d	0.036329377
217	0xbb98e16a	-0.0046655433
218	0xbdc1600c	-0.094421476
219	0x3da6db37	0.08147281
220	0xbc0857e3	-0.008321735
221	0x3dd2708f	0.10275375
222	0x3e039bf9	0.12852468
223	0x00001374	6.978e-42
224	0x3d6b94bd	0.057514895
225	0x3dcdbfa6	0.1004632
226	0xbe322d1b	-0.17400019
227	0x3dfdb105	0.123872794
228	0xbc391758	-0.0112970695
229	0xbc8ac268	-0.016938403
230	0xbc842d67	-0.01613493
231	0x3de48a7c	0.11159226
232	0x3c42360c	0.011853706
233	0x3e20f77d	0.1571941
234	0x3d99a89a	0.07502861
235	0xbcb079ef	-0.021542517
236	0x8001d8a4	-1.69552e-40
237	0x3dcad612	0.09904112
238	0xbd8b0d19	-0.067896076
239	0x3d2c2251	0.042024914
240	0x3b97d2b7	0.0046332735
241	0xbb3fb6f9	-0.0029253347
242	0x3dcfbd5b	0.101435386
243	0xbd569c58	-0.052395195
244	0xbe1a5d37	-0.15074621
245	0xbd2d89b7	-0.042367663
246	0x3da01142	0.07815792
247	0x3dae0f8c	0.08499059
248	0xbcc30732	-0.023807142
249	0x3d6814e4	0.056660548
250	0xbd3ad1bb	-0.04561017
251	0x3d9aeb5d	0.07564423
252	0xbcd619d3	-0.02613536
253	0x3d3a1a04	0.045434967
254	0x8185477e	-4.895907e-38
255	0x3dbaeb36	0.09126894

bias f4 [128]
0	0xbdf4b96a	-0.119494274
1	0x3d60ff10	0.054930747
2	0x3df7ce87	0.12099939
3	0xbdcc58b2	-0.09977855
4	0x3dcc3c43	0.099724315
5	0xbdde4413	-0.10852828
6	0x3db2d629	0.08732254
7	0xbd45f22e	-0.048326664
8	0xbde19ccb	-0.11016234
9	0xbd74b779	-0.059745286
10	0xbdd843e2	-0.105598226
11	0xbd35e8fb	-0.04441164
12	0xbdf7f1f1	-0.121066935
13	0x3deb24f5	0.11481658
14	0x3e092cfc	0.13396066
15	0xbe182520	-0.14857912
16	0x3dfe45b5	0.12415639
17	0x3e19f2a4	0.15033966
18	0x3deba7df	0.11506628
19	0x3d30131a	0.042986967
20	0x3da26636	0.079296514
21	0x3df63247	0.120213084
22	0xbdc6089f	-0.09669613
23	0xbdf51aed	-0.11968026
24	0xbdccc7eb	-0.09999069
25	0x3d9a46da	0.07533045
26	0xbdd6ff48	-0.1049791
27	0xbda8b086	-0.08236794
28	0x3e0b1c11	0.13584925
29	0xbe2549dc	-0.16141456
30	0x3ce5a20d	0.028031373
31	0xbe0ce03e	-0.13757417
32	0xbd3b78f3	-0.045769643
33	0xbb017c60	-0.0019757971
34	0x3dda8386	0.10669617
35	0x3de28ea4	0.11062363
36	0xbdf4843e	-0.11939286
37	0x3de98870	0.114029765
38	0xbde19326	-0.110143945
39	0xbdd74b2c	-0.10512385
40	0x3d7b3ad8	0.061335415
41	0x3de3ec92	0.111291066
42	0x3aed0bdf	0.0018085203
43	0x3dd0de2b	0.10198625
44	0xbe09a677	-0.13442408
45	0xbddf0583	-0.10889723
46	0x3dfbeafb	0.12300678
47	0xbd583ff6	-0.052795373
48	0x3d7b181f	0.0613023
49	0xbd43fb81	-0.047847275
50	0x3e17a4c8	0.14808953
51	0xbdd54240	-0.10413027
52	0xbdaf1cbe	-0.08550404
53	0xbdd39cc7	-0.10332637
54	0x3d5ce20b	0.05392651
55	0xbdf56ae7	-0.11983281
56	0x3df8a53f	0.12140893
57	0xbdfddb37	-0.123953275
58	0x3e0dac32	0.13835219
59	0xbdf04f49	-0.117338724
60	0xbd9e3656	-0.077252075
61	0xbd566b19	-0.05234823
62	0x3d71362d	0.058889557
63	0xbcbe9010	-0.023262054
64	0xbdddc9e6	-0.10829525
65	0xbde92be2	-0.11385323
66	0xbd3abae1	-0.045588378
67	0xbd73c8ad	-0.05951755
68	0x3c76a349	0.015053579
69	0xbda9b2ba	-0.082860425
70	0xbe19fe1a	-0.15038338
71	0xbd97262f	-0.0738033
72	0xbda9cb44	-0.08290723
73	0xbe008f11	-0.12554576
74	0xbd6497b2	-0.05580873
75	0x3d6a8da4	0.057263985
76	0xbe2434d1	-0.16035773
77	0xbd24edae	-0.04026573
78	0x3df07811	0.11741651
79	0xbd9959b6	-0.07487814
80	0xbd0a5d6e	-0.033780508
81	0xbdddc5e6	-0.10828762
82	0x3d87c45e	0.06629251
83	0xbce459e1	-0.027874889
84	0x3da9e02f	0.08294713
85	0xbdd50902	-0.10402109
86	0x3d949afc	0.072561234
87	0xbdab2fcb	-0.08358725
88	0x3d9fe7df	0.07807898
89	0x3de0b285	0.1097155
90	0x3ddf85ec	0.109142154
91	0xbd4892c3	-0.048968088
92	0xbd18f8b4	-0.037346557
93	0xbde58275	-0.11206523
94	0xbd93c3ea	-0.07215102
95	0xbdf4c63f	-0.11951875
96	0xbde7d9cc	-0.11320838
97	0x3dd333d9	0.103126235
98	0x3de7f0c0	0.11325216
99	0x3da35614	0.079754025
100	0x3c2fe5f1	0.010735975
101	0xbdecc154	-0.11560312
102	0x3d685320	0.0567199
103	0x3dd3aea0	0.103360415
104	0xbcd9dac0	-0.026593566
105	0xbdfbb38b	-0.122901045
106	0xbdcf5b1f	-0.10124802
107	0x3ddeae63	0.108731054
108	0xbde94e82	-0.11391927
109	0x3e454490	0.19264436
110	0x3dff0fb1	0.12454165
111	0xbde97868	-0.11399919
112	0x3d560181	0.052247528
113	0xbd2204db	-0.03955541
114	0x3d66d503	0.056355488
115	0x3d826cbb	0.06368395
116	0x3d5c8369	0.05383626
117	0x3e437468	0.19087374
118	0xbdec0ee7	-0.1152628
119	0x3dedc60d	0.11610041
120	0xbdde39b2	-0.10850848
121	0x3de0403b	0.10949751
122	0xbdb67b6c	-0.089102596
123	0xbddad347	-0.10684829
124	0x3d4ab182	0.04948569
125	0x3d4e664e	0.050390534
126	0x3df72f4b	0.12069567
127	0x3d3aef51	0.045638386

weight f4 [128, 146]
0	0xbc05c62b	-0.008164923
1	0x3be10398	0.0068668835
2	0x3c03fd3c	0.008055981
3	0xbbf880a3	-0.007583694
4	0x3bf68391	0.007523008
5	0xbbfecced	-0.007775894
6	0x3c0549a8	0.008135237
7	0xbc0f9577	-0.008763663
8	0xbbfef792	-0.0077809775
9	0xbbdb2a33	-0.00668838
10	0xbc011d3c	-0.007880505
11	0xbc175c93	-0.00923838
12	0xbc13b93f	-0.009016334
13	0x3c14c043	0.009079042
14	0x3c03ac50	0.008036688
15	0xbc06c844	-0.008226458
16	0x3c14461b	0.009049918
17	0x3c02c8ff	0.0079824915
18	0x3bfe6cb8	0.007764425
19	0x3c180246	0.009277886
20	0x3bedde01	0.007259131
21	0x3c02d8e0	0.007986277
22	0xbbf44e79	-0.0074556437
23	0xbc03fb65	-0.008055543
24	0xbc2db6c8	-0.0106026605
25	0x3c103900	0.008802652
26	0xbc1198a3	-0.008886489
27	0xbc065e2a	-0.008201161
28	0x3c116a25	0.0088754045
29	0xbbff7b09	-0.0077966494
30	0x3bf9a1b0	0.0076181516
31	0xbc1694e2	-0.00919077
32	0xbc18130e	-0.009281887
33	0xbbf36c16	-0.0074286563
34	0x3c00d484	0.007863168
35	0x3c02238b	0.007943044
36	0xbc022a4c	-0.007944655
37	0x3c03304b	0.008007119
38	0xbc1349f3	-0.008989799
39	0xbc019403	-0.007908824
40	0x3c106e67	0.0088153845
41	0x3bfe9d83	0.0077702417
42	0xbc3d49f9	-0.011553281
43	0x3bfe7065	0.0077648633
44	0xbc11b581	-0.008893372
45	0xbc0173c6	-0.007901138
46	0x3c03dfd0	0.0080489665
47	0xbbe712ac	-0.0070517864
48	0x3c2804ca	0.010255048
49	0xbbd8046d	-0.0065923245
50	0x3c039d4f	0.008033111
51	0xbbf8d0a6	-0.007593232
52	0xbc029c10	-0.0079717785
53	0xbbfae472	-0.0076566273
54	0x3bdc6c19	0.0067267534
55	0xbc01d4e0	-0.0079242885
56	0x3c04624f	0.008080079
57	0xbc046427	-0.008080519
58	0x3c15ce4e	0.009143425
59	0xbbfe3b19	-0.00775851
60	0xbc161e0d	-0.009162438
61	0xbbdcc872	-0.006737762
62	0x3c0f183c	0.008733805
63	0xbc02ad9c	-0.007975962
64	0xbbfc0c25	-0.0076918774
65	0xbbfee041	-0.007778198
66	0xbc2dfd34	-0.01061945
67	0xbc0e0c97	-0.008669994
68	0x3c124e2e	0.008929772
69	0xbc0eceec	-0.008716326
70	0xbc07d687	-0.008290893
71	0xbc158a8a	-0.009127269
72	0xbc0467d0	-0.008081391
73	0xbc15c33f	-0.009140789
74	0xbc3079dc	-0.010771241
75	0x3c0da05d	0.008644191
76	0xbbfc3d07	-0.0076977047
77	0xbbd41ca4	-0.006473141
78	0x3c01f41d	0.007931736
79	0xbc139c2b	-0.009009401
80	0xbc00cf78	-0.007861964
81	0xbbfaaf5c	-0.007650299
82	0x3c0f3443	0.0087404875
83	0xbbba4dbe	-0.005685537
84	0x3c0c0e81	0.00854838
85	0xbbf896d5	-0.00758634
86	0x3be35cf1	0.0069385697
87	0xbbf03e05	-0.007331612
88	0x3c30e951	0.0107978145
89	0x3c04de2b	0.00810961
90	0x3c15f188	0.009151824
91	0xbc1aeadf	-0.009455412
92	0xbc147e46	-0.009063309
93	0xbc02af1f	-0.007976322
94	0xbc0eb80c	-0.008710872
95	0xbc01a477	-0.007912747
96	0xbbff15e9	-0.0077845943
97	0x3c1479ba	0.009062225
98	0x3c130218	0.008972667
99	0x3c2d6c4f	0.010584905
100	0x3c4b5027	0.0124092465
101	0xbc00da3b	-0.00786453
102	0x3c21dac5	0.009878819
103	0x3bf7d7dd	0.0075635747
104	0xbc10a926	-0.008829391
105	0xbc017f98	-0.007903956
106	0xbbf7680d	-0.0075502456
107	0x3c14e1c2	0.009087028
108	0xbbfcfe7d	-0.007720767
109	0x3bf1c157	0.0073777842
110	0x3c042d08	0.008067377
111	0xbc00472e	-0.007829471
112	0x3c0b9719	0.008519911
113	0xbbf90189	-0.00759906
114	0x3c0f2cf9	0.00873875
115	0x3c1e2e59	0.009654605
116	0x3c2134a1	0.009839208
117	0x3bf64215	0.007515202
118	0xbc174c46	-0.009234494
119	0x3c142555	0.009042104
120	0xbbfe3744	-0.007758053
121	0x3bfe4055	0.007759134
122	0xbbf7d289	-0.0075629395
123	0xbbfd1a48	-0.0077240802
124	0x3c2293a1	0.009922893
125	0x3be6350a	0.0070253657
126	0x3c008574	0.007844318
127	0x3bf73fc5	0.0075454437
128	0xb94bce20	-0.00019436376
129	0x381dd8db	3.763368e-05
130	0xb883eea8	-6.29102e-05
131	0xb8bdeb76	-9.05608e-05
132	0xb9171a40	-0.00014410261
133	0x383ae606	4.456008e-05
134	0xb8c8cdbb	-9.5750635e-05
135	0xb87ab95e	-5.977728e-05
136	0xb92f5bd9	-0.00016723516
137	0xb8f776a5	-0.00011799977
138	0xb7c512c4	-2.3492968e-05
139	0x378c14c5	1.6698972e-05
140	0xb84644ae	-4.727084e-05
141	0xb8a57995	-7.8904595e-05
142	0x381d9a7c	3.757559e-05
143	0x389d7845	7.508745e-05
144	0x389a3cac	7.354593e-05
145	0xb8bb8dd0	-8.9432695e-05
146	0xbbf2cbb9	-0.0074095395
147	0x3bd4c067	0.0064926627
148	0x3bf0100f	0.007326133
149	0xbbe3591b	-0.0069381124
150	0x3be15907	0.006877068
151	0xbbe8747f	-0.0070939655
152	0x3bf58bf8	0.007493492
153	0xbc06e1a5	-0.008232509
154	0xbbe7d7ad	-0.007075271
155	0xbbceb3b2	-0.0063080424
156	0xbbeb67df	-0.0071840133
157	0xbc0ee79c	-0.008722212
158	0xbc06a351	-0.008217649
159	0x3c07ce81	0.00828898
160	0x3bed0995	0.0072338083
161	0xbbf2cf8a	-0.0074099945
162	0x3c0703f2	0.008240687
163	0x3beb96c0	0.0071896017
164	0x3be77435	0.0070634135
165	0x3c0f311c	0.008739736
166	0x3bdcbefa	0.0067366334
167	0x3bed9e0b	0.007251506
168	0xbbdf6afa	-0.0068181725
169	0xbbef96c9	-0.007311676
170	0xbc1fba59	-0.009749019
171	0x3c06212c	0.00818662
172	0xbc050945	-0.008119886
173	0xbbf8e51a	-0.0075956704
174	0x3c03cdfb	0.008044715
175	0xbbe551fd	-0.006998299
176	0x3bee0b18	0.007264506
177	0xbc08575f	-0.008321612
178	0xbc0f90fa	-0.008762592
179	0xbbec018f	-0.0072023342
180	0x3beacb2f	0.0071653347
181	0x3bed2689	0.0072372598
182	0xbbec645c	-0.007214112
183	0x3bee715e	0.007276698
184	0xbc06aa8b	-0.008219372
185	0xbbecd8ef	-0.007228009
186	0x3c07ac04	0.008280758
187	0x3be7f9f6	0.007079358
188	0xbc34bc13	-0.0110311685
189	0x3be85670	0.0070903823
190	0xbc041f6f	-0.008064135
191	0xbbebb3ea	-0.0071930783
192	0x3bef443a	0.0073018344
193	0xbbda8ef5	-0.006669874
194	0x3c1cd15e	0.009571401
195	0xbbcdd64e	-0.0062816506
196	0x3becaf97	0.0072230804
197	0xbbe368db	-0.00693999
198	0xbbf0d3b2	-0.007349455
199	0xbbe54f03	-0.0069979443
200	0x3bd08d03	0.006364466
201	0xbbebb906	-0.0071936874
202	0x3bf02ac8	0.0073293187
203	0xbbf02e78	-0.0073297583
204	0x3c07d90b	0.008291493
205	0xbbe71f9b	-0.007053328
206	0xbc0b8bc3	-0.0085172085
207	0xbbd0a77e	-0.006367623
208	0x3c063896	0.008192202
209	0xbbf89ee1	-0.007587299
210	0xbbe56ffe	-0.007001876
211	0xbbe74d85	-0.0070588016
212	0xbc23c0de	-0.009994714
213	0xbc051b24	-0.008124147
214	0x3c0b9356	0.008519014
215	0xbc03fa4b	-0.00805528
216	0xbbf4a6c8	-0.007466171
217	0xbc0b3a40	-0.008497775
218	0xbbf4971b	-0.0074643022
219	0xbc085287	-0.008320457
220	0xbc256cfd	-0.010096786
221	0x3c049a1b	0.008093382
222	0xbbe2c341	-0.0069202487
223	0xbbc9fad6	-0.006163935
224	0x3beb86c5	0.0071876966
225	0xbc09739e	-0.008389382
226	0xbbf5df32	-0.0075034136
227	0xbbe4ad50	-0.0069786683
228	0x3c05f43b	0.008175905
229	0xbbb54ad2	-0.005532601
230	0x3c01c427	0.0079203015
231	0xbbe2fec5	-0.0069273436
232	0x3bd45cf8	0.0064808093
233	0xbbdd1aac	-0.0067475643
234	0x3c23b529	0.009991922
235	0x3bf247f8	0.0073938332
236	0x3c094fac	0.008380812
237	0xbc11da82	-0.008902194
238	0xbc0c9286	-0.008579856
239	0xbbede104	-0.00725949
240	0xbc04adef	-0.00809811
241	0xbbeb69cc	-0.007184243
242	0xbbe8244e	-0.007084406
243	0x3c081ac8	0.008307166
244	0x3c066208	0.008202083
245	0x3c20c2bf	0.009812056
246	0x3c410bb8	0.011782579
247	0xbbea7682	-0.0071552405
248	0x3c17580e	0.0092373025
249	0x3be23262	0.0069029788
250	0xbc09c5b1	-0.00840895
251	0xbbea2ca0	-0.007146433
252	0xbbe1bba6	-0.0068888245
253	0x3c085b1b	0.0083225025
254	0xbbe646af	-0.007027469
255	0x3bd7e9e7	0.0065891626

bias f4 [128]
0	0x390a6075	0.00013196639
1	0x39278455	0.00015975659
2	0x37109dc4	8.6198015e-06
3	0x848185ff	-3.045081e-36
4	0x85707ebd	-1.1308024e-35
5	0x8e4a10f8	-2.4906592e-30
6	0x80185975	-2.236143e-39
7	0x802e0fb4	-4.230066e-39
8	0x8ee9311a	-5.7486218e-30
9	0x8538ab88	-8.683144e-36
10	0x8254b56a	-1.5627363e-37
11	0xb38ffb7f	-6.704703e-08
12	0xb80ce61e	-3.3592914e-05
13	0x00005a9c	3.2505e-41
14	0xb7ca0a74	-2.4085144e-05
15	0x86e62973	-8.657729e-35
16	0xa6d2ad77	-1.4618695e-15
17	0xb9cc807c	-0.0003900564
18	0xb821d131	-3.8580216e-05
19	0x81e1e16b	-8.2975405e-38
20	0x39314e8a	0.00016909293
21	0xa9396fa3	-4.117508e-14
22	0x3bd69ae9	0.0065492284
23	0x80006c58	-3.8866e-41
24	0x390a8a79	0.0001321229
25	0x3940642d	0.00018347865
26	0x000056ae	3.1095e-41
27	0x38ffe18e	0.000122013604
28	0x0000b010	6.316e-41
29	0xb8a16cfa	-7.697377e-05
30	0x00001d3b	1.0486e-41
31	0x8000b30c	-6.423e-41
32	0xb9fef95b	-0.0004863244
33	0x80016188	-1.26823e-40
34	0x92f8f180	-1.5710535e-27
35	0xb9314cbe	-0.00016908624
36	0x819e25c1	-5.809421e-38
37	0x0000afee	6.3112e-41
38	0x809dfed4	-1.4509588e-38
39	0xb655d5ee	-3.1863997e-06
40	0x38de0175	0.00010586056
41	0x391d315b	0.00014991073
42	0x82c9b1d8	-2.9636373e-37
43	0xb7ae79b3	-2.0799087e-05
44	0xb9c4ff97	-0.00037574462
45	0x802e6bbc	-4.26308e-39
46	0x39233c2b	0.00015567306
47	0xb9e0f649	-0.00042908106
48	0xb6af6b35	-5.227887e-06
49	0xbac0afcf	-0.0014700833
50	0xb79bbb00	-1.8564519e-05
51	0x390eb91f	0.00013611138
52	0xb8002c48	-3.055882e-05
53	0x390887a4	0.00013020501
54	0x8000608c	-3.4634e-41
55	0x88d95232	-1.30795365e-33
56	0x8012f6c8	-1.741567e-39
57	0x8457de2d	-2.5375147e-36
58	0x398c3ec1	0.00026749636
59	0x936b741e	-2.971842e-27
60	0x83228b73	-4.77676e-37
61	0x3924dafd	0.00015721838
62	0x00005ef4	3.4063e-41
63	0x392f3475	0.00016708842
64	0xb7d4b738	-2.5357687e-05
65	0x39309a7c	0.00016842218
66	0xb91da352	-0.00015033528
67	0x00002252	1.2312e-41
68	0x38d15c97	9.983143e-05
69	0x8000ae8d	-6.2617e-41
70	0x863c6c8c	-3.5438618e-35
71	0x81dcdae8	-8.112935e-38
72	0xba04077c	-0.00050365156
73	0xb7432695	-1.1631889e-05
74	0xb97b9361	-0.00023992128
75	0x800058b4	-3.182e-41
76	0xa20ef069	-1.937186e-18
77	0x80126b34	-1.691496e-39
78	0x390be054	0.00013339642
79	0x388b1ca6	6.633373e-05
80	0x80006847	-3.7408e-41
81	0x974dc18a	-6.6483353e-25
82	0x8000648c	-3.607e-41
83	0xba67638a	-0.0008826783
84	0xb9e7e4a3	-0.000442301
85	0x9736844f	-5.897437e-25
86	0x8057aa74	-8.050835e-39
87	0x385ca5a4	5.2606352e-05
88	0xba037836	-0.0005015166
89	0xb789554b	-1.637139e-05
90	0x38840221	6.294647e-05
91	0x94320122	-8.986927e-27
92	0xb95adca6	-0.00020872298
93	0x3942bab3	0.00018570833
94	0xb7c65719	-2.3643997e-05
95	0x38a3d8d0	7.81283e-05
96	0x38b240b2	8.499752e-05
97	0xb726daf7	-9.945353e-06
98	0xb82a4540	-4.0595653e-05
99	0x0000968e	5.4009e-41
100	0x800e70b0	-1.326122e-39
101	0x8001fbdc	-1.82186e-40
102	0x3936a8c9	0.0001741975
103	0x392c9c19	0.00016461349
104	0x3a90c4df	0.0011045
105	0x8aabaa6c	-1.6530807e-32
106	0x818e083e	-5.217439e-38
107	0xb7fb668a	-2.996928e-05
108	0xb98bf46e	-0.0002669426
109	0x80004b18	-2.6939e-41
110	0x3905fad7	0.00012777314
111	0x800032d4	-1.8234e-41
112	0xb95633a5	-0.0002042787
113	0xb9383b93	-0.000175698
114	0x9e9253e6	-1.5493051e-20
115	0x000006a8	2.388e-42
116	0x3918ada3	0.00014560534
117	0x8627d6be	-3.1566977e-35
118	0x83280283	-4.9373646e-37
119	0x81bd5c88	-6.956041e-38
120	0x83da5cd3	-1.28342e-36
121	0x3915eed0	0.00014298712
122	0x80008e7c	-5.1114e-41
123	0x800f87e8	-1.426286e-39
124	0x812f26b8	-3.2170203e-38
125	0x3c6f61b1	0.014610694
126	0xba42058a	-0.0007401338
127	0x391530a9	0.00014227875

weight f4 [19, 128]
0	0x39a04171	0.00030566336
1	0x39e4d8f9	0.00043649206
2	0x3a73cc15	0.0009300125
3	0x93d40cef	-5.3529077e-27
4	0x0393e3bb	8.692168e-37
5	0x0cd4ef2b	3.2807716e-31
6	0x8227b4fc	-1.2321162e-37
7	0x015db7a0	4.0723034e-38
8	0x178f355e	9.25463e-25
9	0x0b383a52	3.5480986e-32
10	0x00024f8d	2.12208e-40
11	0x3802cd44	3.1185584e-05
12	0x38104280	3.439421e-05
13	0x00c054df	1.7662861e-38
14	0x37d04d1b	2.4831437e-05
15	0x89662b4c	-2.7705601e-33
16	0x2e8605f6	6.0946734e-11
17	0x3a15890b	0.000570432
18	0x378d3866	1.6834772e-05
19	0x83d78f3d	-1.266945e-36
20	0x39b1a410	0.00033882307
21	0xb7cec556	-2.4649005e-05
22	0xb852cf5f	-5.026103e-05
23	0x055f1d07	1.0490741e-35
24	0x3a181b31	0.00058023917
25	0x39cb4734	0.00038772228
26	0x000a4dce	9.46266e-40
27	0x392ffad1	0.00016782737
28	0x0004aaa4	4.28556e-40
29	0x37d02d82	2.4816723e-05
30	0x87d57d2a	-3.2122243e-34
31	0x80009554	-5.3569e-41
32	0x3a0e6729	0.0005432242
33	0x80002d7c	-1.6317e-41
34	0x92229573	-5.1302397e-28
35	0x3a1626b3	0.00057278125
36	0x8a909b8a	-1.3925203e-32
37	0xa8eaee1a	-2.6082479e-14
38	0x803a21e4	-5.338616e-39
39	0x37eb4248	2.8045048e-05
40	0x39282160	0.00016034162
41	0x39bd0a83	0.0003605672
42	0x8006d0f8	-6.25977e-40
43	0x38033c69	3.1289095e-05
44	0x3a04eb45	0.0005070458
45	0x2d9c01d0	1.7735952e-11
46	0x39698151	0.00022268786
47	0x39ff9eaa	0.00048755604
48	0xb79f1646	-1.8964649e-05
49	0xbb08f730	-0.0020899288
50	0x331efed0	3.7018992e-08
51	0x3924b28b	0.00015706771
52	0x39200ce0	0.00015263585
53	0x3a10737c	0.00055103726
54	0x80005930	-3.1994e-41
55	0x8e12060a	-1.7998797e-30
56	0x80139f9c	-1.802131e-39
57	0x0ccbd87a	3.140739e-31
58	0x3a01aa19	0.0004946306
59	0x9910f1d8	-7.4934655e-24
60	0x00cdfb7c	1.8916492e-38
61	0x39614782	0.00021484311
62	0x358ba350	1.0403837e-06
63	0x39892e47	0.00026165156
64	0xb7af87b1	-2.0924812e-05
65	0x39a462bd	0.00031354083
66	0x39099bf4	0.00013123435
67	0x9287cb36	-8.569793e-28
68	0x3a281ad3	0.00064126885
69	0x1d273485	2.2129418e-21
70	0x0b0b7b3c	2.6863137e-32
71	0x0023a0f8	3.271987e-39
72	0x39bd98c1	0.000361627
73	0x37e4cbd0	2.7274626e-05
74	0xbbc5a2d1	-0.006031372
75	0x0086766c	1.2348438e-38
76	0xa3ff8c9f	-2.770671e-17
77	0x82593b0c	-1.5959588e-37
78	0x395c091a	0.00020984226
79	0x3a38e451	0.0007053065
80	0x0000d433	7.6123e-41
81	0x1f05da64	2.8344494e-20
82	0x00009fd8	5.7341e-41
83	0xb80ad312	-3.309834e-05
84	0x378fc36d	1.713793e-05
85	0x2dc8c556	2.2825002e-11
86	0x02956bbb	2.1955417e-37
87	0x387d56ea	6.0400846e-05
88	0x39dfb53b	0.00042668902
89	0xb7ee27da	-2.8390368e-05
90	0x3a462a69	0.000755942
91	0xb73ba697	-1.1184856e-05
92	0x394d39ae	0.00019571811
93	0x39972e99	0.00028835682
94	0x380dedb7	3.383841e-05
95	0x3a17f8c3	0.0005797261
96	0x3a146daa	0.0005662093
97	0xb7ea933f	-2.796354e-05
98	0xb844718d	-4.6835794e-05
99	0x00078010	6.88789e-40
100	0x84bbc442	-4.4143723e-36
101	0x80224154	-3.145842e-39
102	0x39c32518	0.00037220935
103	0x39c0e4a4	0.00036791444
104	0x3b1cdbe1	0.002393477
105	0x0c14962f	1.14467e-31
106	0x000b8cec	1.060744e-39
107	0x37efc142	2.8581013e-05
108	0x3a220059	0.00061798614
109	0x000edcc9	1.3649e-39
110	0x3924f0ab	0.00015729915
111	0x82332217	-1.3160626e-37
112	0xbbaa0e1c	-0.0051896702
113	0x3903ba5e	0.00012562561
114	0xb456dc51	-2.0010454e-07
115	0x800037ad	-1.9973e-41
116	0x3a07cd28	0.0005180412
117	0x07110bbe	1.0912038e-34
118	0x845f0535	-2.6215915e-36
119	0x0453da78	2.4903247e-36
120	0x8cc28445	-2.997004e-31
121	0x3a036cdd	0.00050134753
122	0x823b57a7	-1.3763745e-37
123	0x83a80702	-9.8757615e-37
124	0x0395d056	8.8052645e-37
125	0xb8b96599	-8.8404115e-05
126	0x38a370c3	7.793449e-05
127	0x3a161233	0.0005724758
128	0x3884629e	6.3126194e-05
129	0xb8a12d5f	-7.685529e-05
130	0x39c2f5a5	0.00037185583
131	0x8c4a2626	-1.5572994e-31
132	0x003070fe	4.448638e-39
133	0x086cf8ea	7.1311264e-34
134	0x800185e9	-1.39873e-40
135	0x8007ee1c	-7.28266e-40
136	0x14bf2657	1.9301194e-26
137	0x88497843	-6.0627604e-34
138	0x80004bc4	-2.718e-41
139	0xb7992792	-1.8257448e-05
140	0x37d79991	2.5701507e-05
141	0x800009b7	-3.485e-42
142	0x379a95de	1.8428018e-05
143	0x8724cd69	-1.2398353e-34
144	0xab4e2668	-7.32392e-13
145	0xb981eb6f	-0.0002478021
146	0xb89ec6f8	-7.571088e-05
147	0x015a0556	4.0044105e-38
148	0xb8da94c0	-0.00010422757
149	0x3600c4ec	1.918811e-06
150	0x39b68604	0.00034813595
151	0x811a1bbc	-2.830523e-38
152	0x398119a2	0.00024623895
153	0x3792eaa3	1.7513818e-05
154	0x000065d4	3.6529e-41
155	0x3982514d	0.00024856106
156	0x00002474	1.3077e-41
157	0xb9e45603	-0.00043551633
158	0x80008275	-4.6799e-41
159	0x800082dc	-4.6943e-41
160	0xba1c8192	-0.0005970235
161	0x8000a970	-6.0783e-41
162	0x1009ab6a	2.715054e-29
163	0xb9ab7589	-0.00032703232
164	0x0842a955	5.85788e-34
165	0x00001c99	1.0259e-41
166	0x80005f3c	-3.4164e-41
167	0x3691b094	4.341893e-06
168	0xb82929d7	-4.0331706e-05
169	0x39cca01d	0.00039029206
170	0x00004758	2.5593e-41
171	0x380d5f15	3.370557e-05
172	0xb95a342d	-0.00020809537
173	0x8d4180ae	-5.962761e-31
174	0x38dd8194	0.00010562237
175	0xba03c0ef	-0.0005026003
176	0xb7cb327c	-2.4222994e-05
177	0x391bb07c	0.00014847697
178	0x1f128e73	3.1034534e-20
179	0xb8531255	-5.0323393e-05
180	0x392d0160	0.00016499078
181	0xb90be770	-0.0001334229
182	0x80009f1c	-5.7078e-41
183	0x8a3fd46a	-9.236266e-33
184	0x00005b34	3.2718e-41
185	0x89b5f596	-4.3805113e-33
186	0xba016715	-0.000493632
187	0x968b8d02	-2.254565e-25
188	0x000832e0	7.52934e-40
189	0xb99073d3	-0.00027552116
190	0x1c04813d	4.3842173e-22
191	0xb9cec7b3	-0.0003944017
192	0x38161152	3.5778918e-05
193	0xb87242d3	-5.775953e-05
194	0x39a44d0b	0.0003133792
195	0x80000279	-8.87e-43
196	0xb84fa77e	-4.9508635e-05
197	0x000092dc	5.2683e-41
198	0x8714a8c3	-1.1183877e-34
199	0x00010ae8	9.5748e-41
200	0x3733bd75	1.0713343e-05
201	0x383419ba	4.2939304e-05
202	0xb960c016	-0.00021433862
203	0x000b8b38	1.060133e-39
204	0xa15b0a3e	-7.421364e-19
205	0x8055f9e1	-7.895657e-39
206	0x38e69c91	0.000109964174
207	0x38a1a38a	7.70754e-05
208	0x00000171	5.17e-43
209	0x1cdc4a22	1.4577542e-21
210	0x000067b0	3.7196e-41
211	0xba136a83	-0.00056234765
212	0x3917d36e	0.00014479246
213	0x9e79e6b6	-1.322966e-20
214	0x000802fc	7.35755e-40
215	0xb6f828d0	-7.395727e-06
216	0xb93e73cd	-0.00018162951
217	0x380d2980	3.365567e-05
218	0xb9b72749	-0.0003493375
219	0x24774ce0	5.3624703e-17
220	0xb89dae08	-7.518759e-05
221	0xb9673e8c	-0.00022053177
222	0x384b0777	4.8405924e-05
223	0x39f61279	0.0004693454
224	0x3902ab0d	0.00012461487
225	0xb7ea37f6	-2.7921033e-05
226	0xb7c73d5b	-2.375122e-05
227	0x000004d0	1.726e-42
228	0x82b9c949	-2.7298839e-37
229	0x80000ec8	-5.303e-42
230	0x377d82c4	1.5110421e-05
231	0xb9244902	-0.00015667456
232	0xb8e56423	-0.00010938223
233	0x09a77147	4.0310313e-33
234	0x00002fe8	1.7186e-41
235	0xb80d187c	-3.3639823e-05
236	0xb94cf66e	-0.00019546758
237	0x00006c24	3.8794e-41
238	0xb8a59608	-7.8957586e-05
239	0x00494f5c	6.73246e-39
240	0x39d283f8	0.00040152646
241	0x33c380ea	9.1038444e-08
242	0x07353268	1.363174e-34
243	0x8000468a	-2.5305e-41
244	0x38ed7069	0.00011321979
245	0x0457838c	2.5333532e-36
246	0x8149b220	-3.7045668e-38
247	0x00d057d9	1.9133297e-38
248	0x8aab2d0d	-1.6483647e-32
249	0xb92032e9	-0.00015277755
250	0x006574fc	9.317351e-39
251	0x80957744	-1.3726273e-38
252	0x800645ae	-5.7601e-40
253	0xb9081803	-0.00012978916
254	0xba81d149	-0.0009904291
255	0x37978f5a	1.8067356e-05

bias f4 [19]
0	0x3ead641f	0.3386545
1	0x38ec3a40	0.00011264207
2	0xb95ed1c0	-0.00021249708
3	0x392756c7	0.00015958688
4	0x3ead324f	0.33827445
5	0x3927d89b	0.00016007053
6	0x394fc187	0.00019813153
7	0xb8f568b7	-0.00011702015
8	0x3ead45b4	0.33842242
9	0x3ea6a451	0.32547238
10	0xb89e798c	-7.556667e-05
11	0xb83d0ad0	-4.507118e-05
12	0x3788904d	1.6279659e-05
13	0x3ea698f6	0.32538575
14	0xb7d42dfd	-2.5293784e-05
15	0x37464873	1.1818588e-05
16	0xb7ffa506	-3.0475214e-05
17	0x3ea6986c	0.32538164
18	0xc04917de	-3.1420817
