models/data_aug/C/model4.pt (torch, 353039 bytes, 8 tensors)

weight f4 [128, 384]
00000000: 8167 0f3d 925c 083d 9c81 7c3d 3def 853c
00000010: 7f2f 443b 0dd7 1aba f3e7 7fbd f681 bfbc
00000020: ecef db3b 614a 153c 9b94 2f3d 7498 9a3b
00000030: 7f1c 393d e1c4 a53d 97eb 69bd 4e31 39be
00000040: ed66 58be 7232 803c 587a 553d 75f7 d43c
00000050: ad6b 85bd bffd dfbc 0baa 22bc 3751 353b
00000060: ec04 94bc 9d07 943d 9649 9bba eb4a f23c
00000070: 2daa 253c 6839 ae3c 93de 6e3d 0cc4 813d
00000080: 21a5 2cbe ced0 1cbd 96b4 0ebd 9a5c 233c
00000090: 0e64 b23c fd71 d23c 7ef1 60bc 6bdb 213d
000000a0: 8fda bdbc aea4 9fbd 5f90 1bbc dbc3 99bd
000000b0: 3930 1dbe 743a b43c b969 193e 7dad 053e
000000c0: 2240 49be 58e3 00bd 5dca e83b 5dc2 a2bc
000000d0: 7682 1abd d6cf 083c f121 93bc 376e 18bd
000000e0: c5c0 d4ba 07ad 39bd 136d febc c8a5 a6bd
000000f0: 71b8 f33c 53ee 6b3d d566 d43c d1c2 76bc
00000100: d262 34bd 9631 55bd 25f4 093b b90a 073d
00000110: 0ae5 963c a9a2 50bc 75e8 67bc 951d 993d
00000120: 76e5 04bb 4ec2 2fbd c432 693d 7fc6 9b3c
00000130: 9f73 51bc 87f4 bd3b 1449 6b3c 7216 b4bc
00000140: 010a 37be c11f cd3d 01d7 f93d 5261 783d
00000150: 7089 863c 73be 313d b9f5 b8bc 5588 2abe
00000160: 436b babd 750d 45bd 0a7f 87bd d9bc 49be
00000170: 830b 44be f674 8abd 4460 ad3d b1e1 273e
00000180: 4e55 46bb 9a27 31be b86b 48be 9971 d1bd
00000190: bb28 80bc 7301 81bc e3c9 b43c 0570 843d
000001a0: 584c 48bc 58f7 f7bd ed02 1cbd 0756 093d
000001b0: 1683 cabc aea0 c23b 6f43 1bbd 7043 13be
000001c0: 1bed cf3d 3e7c 3cbd bcb0 7bbd 2281 0abd
000001d0: 7635 d9bd d115 d13c 7193 0ebe f79c 37be
000001e0: 50ef 9f3b 33b6 94bb baa8 d53c 2694 2cbe
000001f0: bea6 3dbe 30c3 3b3d 34e7 753b de71 87bc
00000200: 7d28 bfbc 983d 44be d1d1 55be af63 42be
00000210: 323f 94bb c738 fd3b c5e5 4ebd e483 b3bc
00000220: f6ca 0dbe c5ec 823b 0a27 503e 7f20 01bd
00000230: 0348 9cbd 1a64 1dbc 8050 b33c 2455 e43c
00000240: cf5e 62be 71ba 69be 471d 1bbe 973d fdbd
00000250: 06dd 9cbd 11ca 3a3d 0a82 1b3d 9f2a ec3d
00000260: 9ac4 1dbe 4faa 4abe 740d 28be 538d e33d
00000270: 538b ba3d 8ac1 cc3d 7537 8e3d fa8d 33bd
00000280: 8a42 02bd 6395 41be aeff 58be 5edd 37be
00000290: f6db 98bd 77f9 a5bc ec8d 38bc 24dd ec3b
000002a0: 78ba aaba 4a18 753d 9d40 983d f009 d43c
000002b0: 21ad 8a3c b115 a63a 1ab3 73bd 241d 0abb
000002c0: a510 103e 2a98 113e 4876 47be 9d67 b7ba
000002d0: 4626 32bd 1e4f 723d 0862 7e3d a02f c63c
000002e0: 3d62 b4bd 5b4e a3be 62df a1bd fd5f df3d
000002f0: 69f7 053e f3c8 583d 70e5 383d 73bd 943c
00000300: 6ad9 9f3b 5c91 923d a156 b43e c09e ff3d
00000310: 204f 1dbc 4cd8 aabb 18c3 e53d 14be c93c
00000320: 8366 72bd 2b9e 1abc 58ec 733e 44a3 10be
00000330: 5439 94be fdf8 91be 406f 633d 147a c33d
00000340: 6a76 ab3c 9c33 13bd 2b54 28be 2515 83be
00000350: 6c71 b0be 94a5 9bbe 5e44 d6bd 4c14 4c3e
00000360: 6995 8c3b 7b38 ff3b 84fb 73bd 6b7d 93bd
00000370: de85 3cbb 1688 403b e699 653c ac75 70b9
00000380: a048 75bb ed1e ae3c c1be 743e fdcf a23d
00000390: 1a51 773c f240 8ebc 4b2c b2bc e4b3 b3bc
000003a0: 7657 6bbc dce9 7a3d 9337 8dbc 3bd4 20bd
000003b0: 04b1 11bd fc40 b03c 24fe 7fbb bac3 06bd
000003c0: 2583 61be 4c97 f8bd 76bf 36bd ffbb 5c3b
000003d0: 224f eb3c 2ea0 483d 9470 81bd a0ca 05bc
000003e0: bcaf 2a3e 1963 943e 20ba e7bd 3897 1d3d
000003f0: ca7a 973d 5b62 5a3d 5883 c7bb 5f2e bfba
0.03501082 0.033291407 0.061647043 0.01634943 0.0029935536 -0.0005906679 -0.062477063 -0.0233774
0.0067119505 0.009111972 0.04286633 0.004717881 0.04519319 0.08094192 -0.05710944 -0.18085214
-0.21133013 0.015649054 0.05211863 0.025996903 -0.06514678 -0.027342675 -0.009928237 0.0027666816
-0.018068753 0.072280146 -0.0011847492 0.02957674 0.010111374 0.021267608 0.058317732 0.06336221
-0.16859867 -0.03828507 -0.03484019 0.009970808 0.021776225 0.02568912 -0.013729451 0.039515894
-0.023175506 -0.07795082 -0.00949487 -0.075080596 -0.15350427 0.022000529 0.14981736 0.13054462
-0.19653371 -0.031466812 0.0071042017 -0.01986807 -0.037722073 0.008350333 -0.01796052 -0.037214484
-0.0016231766 -0.045331027 -0.03105787 -0.08137089 0.029751034 0.05760033 0.02592794 -0.015061096
-0.044039555 -0.052049242 0.0021050062 0.03296921 0.018419761 -0.012734094 -0.014154543 0.074763454
-0.002027837 -0.042909913 0.05693318 0.019015549 -0.012783914 0.005796972 0.014360685 -0.021983359
-0.1787491 0.10015822 0.12199212 0.060639687 0.016422957 0.043394517 -0.022578107 -0.16653569
-0.0910249 -0.048108537 -0.06616028 -0.19700946 -0.19145016 -0.0676059 0.08465627 0.16394688
-0.0030263248 -0.17300263 -0.19572341 -0.10226745 -0.015644422 -0.015747761 0.022068923 0.064666785
-0.012225233 -0.12107724 -0.038088728 0.033529308 -0.02472071 0.0059395647 -0.037906107 -0.14381194
0.10152646 -0.046016924 -0.061447844 -0.033814557 -0.106059 0.025523098 -0.13923432 -0.17930971
0.004880823 -0.0045383214 0.026081432 -0.16853389 -0.18520638 0.045840442 0.003752184 -0.016533788
-0.023334736 -0.19164121 -0.2088082 -0.18983339 -0.004524135 0.0077277157 -0.050512094 -0.021913476
-0.13846955 0.0039955103 0.20327392 -0.03152513 -0.07630923 -0.009606386 0.021888971 0.02787263
-0.22106479 -0.22825028 -0.15147887 -0.12365263 -0.076593444 0.04560286 0.03796581 0.11531567
-0.15407029 -0.1979153 -0.16411382 0.1111094 0.09108605 0.09997852 0.06944171 -0.04383657
-0.031801738 -0.18904643 -0.21191284 -0.17955539 -0.07463829 -0.020260556 -0.011264306 0.0072285105
-0.0013025543 0.059837617 0.07434199 0.025883645 0.016928257 0.001267126 -0.059496976 -0.0021074498
0.1406885 0.14218202 -0.19478714 -0.0013992671 -0.04349353 0.059157483 0.06210521 0.024192631
-0.088078 -0.31895718 -0.07903935 0.1090698 0.1308266 0.052926015 0.045140684 0.018156743
0.0048782127 0.07156631 0.35222343 0.12481451 -0.009601384 -0.005213773 0.11218852 0.02462677
-0.059179794 -0.009437124 0.23820627 -0.14124781 -0.28949988 -0.28510275 0.05552602 0.09544769
0.020930488 -0.03593789 -0.16438358 -0.2560207 -0.34461534 -0.30399764 -0.10462259 0.19929618
0.004290272 0.0077887154 -0.059566036 -0.07201656 -0.0028766314 0.0029377989 0.014013743 -0.0002293202
-0.003742732 0.021254981 0.23900892 0.07949827 0.01509502 -0.017364953 -0.021749636 -0.021936364
-0.014364114 0.061258182 -0.017238414 -0.0392649 -0.035569206 0.021515362 -0.0039061392 -0.032901503
-0.22022684 -0.121382326 -0.044616185 0.003368139 0.028724257 0.048980884 -0.06320301 -0.008165985
0.166686 0.28981856 -0.113147974 0.03847429 0.07396467 0.053316455 -0.0060886554 -0.0014585963

bias f4 [128]
00000000: e818 183d 35b1 a7bb bbb8 5c3a 697c 913c
00000010: 10b7 a53c c4b5 913e 3e4f 73bb 3011 03ba
00000020: c726 c3bb efcf 93be 964b 1c3c 3f13 aa3c
00000030: d3b1 afbd d79f fabd a667 b3bd acb0 15be
00000040: 0b16 a83b da88 aabc 2bb1 70bb a066 b3bc
00000050: 28e7 333d 3ea1 623c a9b8 c0bb b9b2 f33c
00000060: 0ca0 423d 1d4d ec3c 352b 093f 45a4 df3d
00000070: c1f9 013f 1d0f 023c f41d 1abc ff78 a33d
00000080: 0856 bfbb b49e 91bc 1b43 47bb 8015 bf3d
00000090: 68f6 abbc 28db b1bb 9251 663c 3b4e fa3b
000000a0: b128 81bc 27c9 b3bd 46db cd3b 5e4f 4d3e
000000b0: b3fa 4bbc bfc1 94bc b838 a4ba 0820 193f
000000c0: 160f 1a39 8247 e93c e436 84bb f69b 10bc
000000d0: 54b4 81bb 2393 633c 1322 3ebc f60f 05bc
000000e0: 771b 00bb 39d4 9ebc cc9b fabd 5d8b 20bc
000000f0: 9aff b03a a55e 20bc b24b 3cbd 3deb eb3e
00000100: f267 863c 4f66 96b9 90ed 343f d299 3fbb
00000110: f6db a4be 50c6 b7bb d573 56bb 6172 373d
00000120: edd7 5cbd 3375 3c3e eb23 54bd 028a 50bc
00000130: e1ed 1bbc cf3e 573e d114 693d aafa 833c
00000140: 923f 0b3b c3c8 903e 8f59 1ebc 875a e3bb
00000150: a5c6 613c e9cf d33c da27 ca3c 6b88 0dbc
00000160: ab33 5f3e 4a6b c1bc c9ee 453d 33d9 1b3d
00000170: 8fcf 823b 0973 eebb bb6b 563e bffd de3c
00000180: ebb1 1d3d 4b6d 2abb 192a e73c f217 003d
00000190: 8b37 a83c 8886 9e3c 4502 6b3d d4d5 4d3d
000001a0: 7951 cfbc ba11 abbe ca21 803d 3686 28bd
000001b0: 59b9 423c 6ec0 3b3d a1bc 8fba 5383 9abd
000001c0: f8ef d9bc 9ecd 1f3f fbf9 063f 770b 2f3d
000001d0: 201c 9639 3041 f5bc 4f85 0b3d a849 69bc
000001e0: 4f28 343c 0f58 27be 4eb5 7d3c 57dd 48bb
000001f0: 68c6 203d c444 13ba 4509 423e 36b7 923c
0.037133127 -0.0051175603 0.0008419861 0.017759519 0.020228893 0.2845899 -0.003712609 -0.00049998146
-0.0059555504 -0.28869578 0.0095395055 0.02076113 -0.08578839 -0.12237518 -0.08760004 -0.14618176
0.005129581 -0.020817209 -0.0036726694 -0.021899521 0.04392162 0.013832388 -0.005881388 0.029748308
0.047515914 0.028845364 0.53581554 0.10920004 0.5077172 0.007938174 -0.009406555 0.079820625
-0.005839113 -0.01777587 -0.0030404988 0.09330273 -0.02099152 -0.005427737 0.014057534 0.0076387203
-0.015766473 -0.08778601 0.006282243 0.20049807 -0.012449908 -0.018158792 -0.001252911 0.598145
0.00014692204 0.02847648 -0.004034864 -0.0088262465 -0.0039582644 0.013890061 -0.011604804 -0.008121481
-0.001954762 -0.019388305 -0.12236747 -0.009798852 0.001350391 -0.00978819 -0.045970626 0.4607791
0.016406987 -0.00028686455 0.7067499 -0.002923597 -0.32199067 -0.0056083575 -0.003272285 0.044786815
-0.05391686 0.18404083 -0.051792067 -0.012728216 -0.009517164 0.21020053 0.056904618 0.016110737
0.0021247608 0.2827817 -0.009664907 -0.006938282 0.013780271 0.025855975 0.024677206 -0.008638482
0.21797054 -0.02361073 0.048323426 0.038048934 0.003992028 -0.007276897 0.20939533 0.027220605
0.038499754 -0.0026005085 0.028218316 0.031272836 0.020534297 0.019351259 0.05737521 0.05025275
-0.025307404 -0.33411962 0.06256445 -0.04114362 0.011885011 0.045837812 -0.001096625 -0.07544579
-0.026603684 0.6242312 0.5272519 0.042735543 0.00028631184 -0.02993831 0.03406268 -0.014238752
0.010995938 -0.16342185 0.015485121 -0.0030649507 0.039251715 -0.0005617852 0.18948849 0.017909627

weight f4 [128, 128]
00000000: e345 a9bc 9d8b 5b3d 7260 813c bfee 9cbd
00000010: 9ecc 69be f413 a93e d539 a43d 5b33 48bc
00000020: 2d6d 65b9 78e8 15bc 8125 553e 1295 35be
00000030: da07 e33d 28ef ae3d bd29 0e3e 3b0c 1a3e
00000040: 2d74 6e3b e700 21bd 3dcf 8f3d 270f 453e
00000050: 9d88 cc3b 11ed 3fbe 71ec 0dbc 3f50 66be
00000060: c264 75be 35dc 9bbe 9a2f c73d 5a61 55be
00000070: d508 bdbd 7aba 883e 5afc 30bc f47d d53d
00000080: 039a 193c 0ef5 153e 74ca 883d 83ed 9dbd
00000090: 64ed 24bd a3ac 81ba 3355 0e3c c80f 0e3e
000000a0: 8c28 613c a125 c73c 3c24 55be 024f ff3d
000000b0: 2c8a dd3c 5cb9 a13d 8581 3dbc 845a 253c
000000c0: 0a53 f1bc f5f6 9abd 258c 5abe 4f19 26bc
000000d0: 96ac e0bc ab1d 38be 710f bb3e aba4 bbbc
000000e0: 71dc 993c a950 363c 45b8 5fbd 22dd 49bc
000000f0: 238b 813e 0347 e4ba f2e4 a7be 9072 a1be
00000100: 3b2d fdbd 5b73 7b3c 8c5d a2bd ce21 7dbe
00000110: 4556 98be 38af 7e3c 34ba 253c 3c7f 21bc
00000120: 4f21 a3bd f21b d3bd 5b25 03bd a050 ad3a
00000130: 8a92 9abe fbdb 03be 104d 0d3e 3af1 55be
00000140: a0c4 453b dc2a f7bd d8c0 843d b906 37be
00000150: 2a42 303e 268c 95bd 2c7d ab3b 6b8e 373d
00000160: 5afa 21be 29f8 113e 725a 663e df97 4e3d
00000170: 47f4 77be aff6 353e f5d9 f9bd fd6c cbbc
00000180: 355f 053c 8ede f6bc db00 85bd 9425 d9bd
00000190: 16cd 30be e81b cbbd 92ae 95bb b167 24bd
000001a0: 38b6 bb3c 0488 303d d028 71be 5d22 03bc
000001b0: 1665 0ebe 03e2 41bd 8f99 22bc cf20 083d
000001c0: 2e7f b03c d6ed d63d cdf9 273e ddac 993b
000001d0: 03f4 fbbc 01e6 d63c 7e3f 0ebd 57d5 773e
000001e0: 0b89 8cbe 854f 4a3e badd 98be b7cd 7a3e
000001f0: d1f2 1abe 5abe 463d 3d8d 30be e034 dabd
00000200: c8f7 323e 9398 4ebd 55c4 54bc 6bc9 a43d
00000210: fbfe 4d3e 6975 193f 7164 c5bd a147 f8bd
00000220: 0626 dfbd 6c7d 01be 2525 82be 56f8 3e3e
00000230: 5ec8 dabe e527 e2bd e914 eabe 7945 1cbe
00000240: 43db 01be e815 85bc 7286 95bd d035 58be
00000250: e23f f0bd dc7a 5c3e 53a9 d4bd efcd 5a3e
00000260: d37a 8d3e f562 a43e 7efd a3bc 39a8 e83c
00000270: c2ca 043e 28f5 97be 687e f8bd 885f 16be
00000280: 14e4 f1bd c33e 1abe ab16 8ebd 54dc 503d
00000290: 363f b53d 2200 d3bd 9363 393d 2b8a 19be
000002a0: b037 24be 3bb3 9b3e aa09 743e 65f8 b23c
000002b0: e816 9bbd e30b 9ebd 579e c7bd d0c5 483d
000002c0: 1b42 d9bd 6f94 813e 92ea 8b3e 48d8 e0bd
000002d0: e6ef b8bd 66d7 283e fa46 bcbe 1324 cabd
000002e0: 30da 1cbe 5dc3 fcbd ee9f 24bc 3374 d0bd
000002f0: 095b 93be 6b4b ddbd 83af be3e beb7 1b3f
00000300: 5e90 0b3e ba56 80bc 443b 0f3d 7076 883e
00000310: 417f 933e 0f6a eebc 60f8 07be 379f 283e
00000320: 9739 c93e b9f1 a43d 17d7 f8bd 8610 fbbd
00000330: 663e a33e 1714 e23d 0cf4 48be 7695 6b3e
00000340: 4db5 f1bd d84c 2f3e c431 86bd cdbd 5d3e
00000350: 7b53 41be 74c5 5f3c ce63 05be a96d 3cbd
00000360: 70d8 0c3e 8409 0cbe 8b40 95be b5ca e8be
00000370: 44f3 7e3e 2241 3dbe b0ec d73d d09a 82bd
00000380: 47a8 dbbd 2f1c 50bb 054f 683e 8d3b d53d
00000390: aaf4 433e 0a40 783d fa65 163c 70d5 443e
000003a0: ce76 fcbc ed32 94bd 9162 ae3e 8e9f d0bd
000003b0: 0be0 8cbe 7593 583e 0aa9 d2bd 97f1 31bd
000003c0: 6e8a 07be 407a f23b 76f9 0c3f e398 373e
000003d0: 262f dabd 7bc7 01be 0421 6f3e 1fb1 c4bd
000003e0: a10c 953e 5bef acbe ca04 a83e a28a c3be
000003f0: 5d44 023e 1bac 4cbd 3c4b 183e 3701 f43d
-0.020663207 0.053599942 0.015793059 -0.07662725 -0.22831962 0.33023036 0.08018843 -0.012219275
-0.00021879813 -0.009149663 0.20815088 -0.17732647 0.11085482 0.08541709 0.1388311 0.15043728
0.0036385164 -0.0393075 0.070219494 0.19244061 0.0062418715 -0.18742777 -0.008662329 -0.22491549
-0.23964217 -0.30441442 0.09725876 -0.20837918 -0.092302 0.2670477 -0.010802353 0.10424414
0.009375098 0.14644262 0.0667924 -0.077113174 -0.040265456 -0.0009893369 0.008687305 0.13873208
0.013742577 0.024309935 -0.20814604 0.124662414 0.027043425 0.078966826 -0.011566524 0.010092381
-0.029458541 -0.075666346 -0.21342523 -0.01013787 -0.027426045 -0.17980067 0.36535218 -0.022905668
0.018781872 0.011127629 -0.054619092 -0.012320789 0.25301465 -0.0017416183 -0.3279186 -0.31532717
-0.12362143 0.015347327 -0.07927999 -0.24719927 -0.29753318 0.015544705 0.010115195 -0.009856995
-0.079653375 -0.103080645 -0.032018047 0.0013222881 -0.30189925 -0.12876885 0.13798928 -0.20892802
0.0030177012 -0.12068722 0.064820945 -0.17873658 0.1721274 -0.07302122 0.0052334275 0.044813555
-0.15818158 0.14254822 0.2249544 0.050437804 -0.24214278 0.17769884 -0.12199775 -0.024832243
0.008140375 -0.03013542 -0.06494304 -0.106028706 -0.17265734 -0.09917432 -0.0045679295 -0.04013795
0.022914037 0.043098465 -0.23550725 -0.008003798 -0.13905749 -0.047334682 -0.0099243065 0.033234414
0.021545019 0.10494582 0.16403885 0.0046897964 -0.030756002 0.026232721 -0.03472852 0.24202476
-0.27448305 0.19756897 -0.29856664 0.24492536 -0.1513169 0.048521377 -0.17241378 -0.10654616
0.17477334 -0.050438475 -0.012986262 0.0804623 0.20116799 0.5994478 -0.09638298 -0.12123037
-0.10895924 -0.12645501 -0.25418964 0.1864942 -0.42730993 -0.110427655 -0.45719078 -0.15260877
-0.12681298 -0.016245797 -0.07301034 -0.21114278 -0.11730935 0.21531242 -0.103838585 0.2136762
0.2763277 0.32106748 -0.020018335 0.028400527 0.12967971 -0.29679227 -0.12133485 -0.1468488
-0.118110806 -0.15063004 -0.06937917 0.05099137 0.08849947 -0.1030276 0.045260977 -0.14994113
-0.16036868 0.3041018 0.23831812 0.02184696 -0.075727284 -0.07717111 -0.09746998 0.049016774
-0.10608312 0.25308558 0.273274 -0.109787524 -0.09030132 0.16488418 -0.367729 -0.09870162
-0.15317607 -0.1234195 -0.010047896 -0.10178413 -0.28780392 -0.108054005 0.3724328 0.60827243
0.1362929 -0.015666354 0.03496863 0.2665286 0.28808025 -0.029103307 -0.13278341 0.16466986
0.3930175 0.080539174 -0.121504 -0.12259011 0.31883544 0.11038988 -0.19624346 0.23006234
-0.118021585 0.17119157 -0.06552461 0.21654435 -0.18879502 0.013657916 -0.13026354 -0.046003018
0.1375444 -0.13675505 -0.29150805 -0.45467153 0.24897486 -0.18481877 0.105431914 -0.063771844
-0.10725456 -0.003175508 0.22686394 0.10411749 0.191363 0.060607947 0.009179587 0.19222045
-0.03081837 -0.07236276 0.34059575 -0.10186683 -0.2751468 0.2115 -0.10286148 -0.04344329
-0.132364 0.0073998272 0.5506815 0.17929415 -0.10653524 -0.12673752 0.23352438 -0.09604096
0.29111198 -0.33776364 0.32816154 -0.38191706 0.12721391 -0.04996882 0.1487245 0.11914294

bias f4 [128]
00000000: 786d 7c40 9399 0ec0 37d8 68c0 67cc 6740
00000010: ce9a 65c0 ae34 56c0 68ae 7240 6d7c 33c0
00000020: 2f64 5840 a9a1 68c0 e403 82c0 4dce 6240
00000030: 221f 5d40 2096 6cc0 5e62 6d40 b914 75c0
00000040: 8afd 28c0 c9de 7d40 350d 6ec0 a009 66c0
00000050: 1d36 84c0 db3a 6940 a8a3 86c0 6ee6 6940
00000060: a475 5e40 d11a 5bc0 374c 4640 db83 5ec0
00000070: 9f10 6e40 777c 77c0 1ffa 6a40 078a 6e40
00000080: 836b 6f40 3c8d 6740 63d9 5b40 84b1 6dc0
00000090: b76c 0dc0 bac6 7540 6240 8740 b6bd 7f40
000000a0: 87cd 8440 ce35 6a40 e885 4740 72af 1ac0
000000b0: f01e 3740 f902 cdbf b3f1 7940 19b4 8540
000000c0: 0145 81c0 2915 67c0 8b9e 7ec0 5a67 6540
000000d0: e107 5440 9da5 6c40 1dc6 7a40 37ca 0d3d
000000e0: 6887 6d40 f311 6cc0 8a62 65c0 5ecd 6ac0
000000f0: e9f9 37c0 72b6 83c0 40c0 6840 1d5a 6bc0
00000100: d2e0 8740 c047 5d40 3186 66c0 75bb 80c0
00000110: 9fd7 6d40 a74d 68c0 6361 6ac0 6082 67c0
00000120: 3053 8140 9b5f 6240 464e 8b40 73a3 59c0
00000130: e5bf 6840 ffa5 18c0 0386 74c0 312b 5c40
00000140: f9ba 7440 914f 6a40 b51c 6fc0 2d73 8340
00000150: cd6b 54c0 824c 3ec0 50f7 403f afe8 8840
00000160: 4a8f 8240 8a06 7040 ffef 7240 4203 5d40
00000170: 911e 7040 2bff 80c0 7f6b 8b40 c321 7b40
00000180: d257 6bc0 e77b 3fc0 4af7 5ec0 67c7 6340
00000190: 8aac 7b40 da28 6740 8773 6ec0 49ae 8040
000001a0: 8d76 82c0 4d6e 5f40 3464 7740 8691 5c40
000001b0: ccd4 8040 aa92 81c0 20b8 5c40 e9de 6640
000001c0: 1e1d 8540 441d 66c0 3045 58c0 e08f 63c0
000001d0: 5f48 8540 7003 86c0 1b70 64c0 f6fb 6ec0
000001e0: 32e2 7340 f673 6d40 0309 61c0 5efe 8040
000001f0: 17ef 65c0 21ed 6dc0 3aa4 7040 b09e 7140
3.9441814 -2.2281234 -3.6381967 3.6218507 -3.5875735 -3.3469653 3.791895 -2.8044693
3.3811147 -3.634867 -4.062975 3.5438416 3.4550252 -3.696663 3.7091289 -3.8293898
-2.6404748 3.9667227 -3.719556 -3.5943375 -4.1316056 3.6442173 -4.2074776 3.6546893
3.4759302 -3.4235117 3.0984018 -3.4767978 3.7197645 -3.8669717 3.6715162 3.7271745
3.740937 3.6179953 3.4351432 -3.7139597 -2.2097604 3.8402543 4.226609 3.995954
4.150089 3.659534 3.117548 -2.4169583 2.8612633 -1.6016532 3.9053771 4.1782346
-4.0396733 -3.6106665 -3.9784267 3.584433 3.312981 3.6976082 3.9183419 0.034616675
3.7113895 -3.6885955 -3.5841393 -3.6687846 -2.8746283 -4.116021 3.636734 -3.677375
4.246194 3.4575043 -3.6019404 -4.022883 3.7162855 -3.6297395 -3.662194 -3.6173325
4.0414047 3.5370853 4.353305 -3.4006011 3.6367123 -2.3851316 -3.8206794 3.4401362
3.823912 3.6611063 -3.7361271 4.1078095 -3.3190796 -2.9734197 0.7537737 4.2784038
4.0799913 3.750399 3.7958982 3.4533238 3.7518656 -4.0311484 4.356872 3.9239357
-3.6772351 -2.9919374 -3.4838433 3.5590456 3.932406 3.6118684 -3.7258012 4.021275
-4.0769715 3.4911072 3.865491 3.446382 4.025976 -4.0491533 3.448738 3.6073554
4.1598043 -3.5955362 -3.3792229 -3.5556564 4.1650844 -4.1879196 -3.5693424 -3.7341285
3.8106809 3.7102027 -3.516175 4.0310507 -3.592718 -3.7175982 3.7600236 3.7753105

weight f4 [128, 146]
00000000: 63e1 b683 28ac d202 e513 4f03 9f3d c883
00000010: 8dd2 0804 16b9 8982 32fa 1384 7924 8c81
00000020: 5e4b 2982 a24c 0f04 57a3 1104 631f a002
00000030: c197 9e82 eb5b 6702 28cd c683 72da 8503
00000040: 7e89 4582 6680 1e84 1316 9203 bb3c a603
00000050: e179 a903 b9c3 9683 4083 d902 ac04 9083
00000060: 7816 7101 098a 9a81 e63a 8d82 871f e481
00000070: b957 3582 7b47 6f03 bd52 6b83 99f4 9583
00000080: 64d2 db80 9fc3 0584 2cc6 d181 ba14 2301
00000090: 3ff4 2f82 b3c6 d183 40de e283 6485 8b83
000000a0: ce55 0384 063c 0484 3fae 9f81 499d d802
000000b0: 08ed c382 bb97 5a83 7d61 4383 4874 d683
000000c0: 1c43 0a04 cf42 f103 3ccd 4603 e151 f483
000000d0: ebcc b502 cc25 4083 5d2e 7083 3728 fb03
000000e0: 6b2c 1b84 c0c5 da03 69a8 2903 9e82 b703
000000f0: 823e ea82 45b4 2d04 30fd 2384 3af9 ad03
00000100: 6e07 ba83 f24c 7683 ae6a d103 3dbc d503
00000110: 7a16 1284 1a76 b303 8eda fd03 9620 3903
00000120: 974e 3983 ee62 2984 6310 ae83 b4a9 e280
00000130: 4049 c482 597f 7403 7ac0 b102 78e5 3881
00000140: a4f4 0201 7ca4 c483 5f8c bc02 8bb7 f983
00000150: ae87 be01 1d99 3783 dbca 7a82 517e 0584
00000160: 4766 8e83 ed05 c383 4349 2a84 de8b 8083
00000170: 8de0 d083 a45b ce03 19f0 f583 a91b bb83
00000180: 729b a503 cf71 2302 4ac9 bf03 f79e 4f82
00000190: 12a9 a083 9499 8c83 66cf b403 87a3 cd83
000001a0: 44ee 2004 9bf6 ae83 652b e083 f8d8 5b82
000001b0: b7b1 ae83 a085 0b03 bb9d 9383 5483 d983
000001c0: f9cd ac83 723c fc03 bf17 0904 4abb d502
000001d0: 7276 0883 fbce 1204 006c e101 3510 0303
000001e0: e151 f483 a11f 6d83 a5a0 1203 4ac9 bf83
000001f0: 6bb5 6003 3701 bc81 73b8 7083 1ccb d883
00000200: c696 3887 b15b 4e04 9b2d 4e04 82fc 9203
00000210: 4d81 4087 8995 0585 b6cf 0904 b7b4 3e85
00000220: 3a62 4387 36de 6207 e3e7 e705 3283 1d06
00000230: 2074 9a05 b1c6 1507 f832 cc86 4cee dc05
00000240: cb4e e486 068f 9006 5f72 a4bb 8325 a93b
00000250: 6ad3 493b a75b d73b 9189 f4ba 3a10 cc3a
00000260: 1834 ecba 185d 753b 0101 c8ba 4ebb b33b
00000270: 9827 073b 2cf0 013a 0216 653b ec16 09bb
00000280: 4be1 d63b 23ab afbb defd c13b b43a 60bb
00000290: 4589 853b c871 26bc 501a fab9 1916 26bc
000002a0: 5d56 2cba c3d4 0cbc 0823 fb3a 8158 4dbb
000002b0: 930f 9f3b f29c 2cbb 1f27 4f3b 4183 653b
000002c0: e072 84bb 04d8 e7bb fcb8 553b 0631 84bb
000002d0: 9082 d03a ead3 e6ba 8a67 f4ba 3eca fc3b
000002e0: 439d cfbb 2fb1 c83b 323c f4ba 953d c4ba
000002f0: c22b bfbb 9ceb a6bb 9a12 a83a 9b2d f138
00000300: d2b2 be3b 19d3 dfbb 5f78 ac3a 3de2 f93b
00000310: e300 43bb 18e2 7cbb f907 093b 51d6 5b3c
00000320: cb5e f83b 5375 c23a a95c a4bb edc0 e0bb
00000330: f6b8 ba3b cbb3 f03b 776b 91bb 88e5 723b
00000340: a78e 99bb 6af0 9b3a 6a40 f7bb 7581 71bb
00000350: b27c de3b 3a56 96bb 7083 92bb a912 e43b
00000360: af4a bb3b a3bc b1bb 1697 29ba fe51 583a
00000370: b077 8bbb 430f 84ba 4829 1c3b 040c dcbb
00000380: d975 55ba 4811 a23a 35e9 a53a a547 b33b
00000390: 9ee8 aaba e87e 68bb 1275 26bb 196a 81bb
000003a0: c3fa aa3b 7d7a 8d3b e5da 03bc 8eee ee3b
000003b0: 51b7 a2bb d4b5 9bb9 658a d03b ad39 953b
000003c0: 2dd0 27bb 00db a3b6 79c2 f03b 5483 24bc
000003d0: db87 063c 6188 84ba 8625 623b 1cd6 bbbb
000003e0: 6229 a73b d3b7 2a3c 51d7 783b 3710 1a3b
000003f0: ad30 dc3b ea81 4c3b 4b9d d439 4259 33bb
-1.0748745e-36 3.095554e-37 6.085467e-37 -1.1769091e-36 1.6083403e-36 -2.0236575e-37 -1.7394651e-36 -5.1480214e-38
-1.2437788e-37 1.6844757e-36 1.711967e-36 2.3527902e-37 -2.3303116e-37 1.6997579e-37 -1.1684496e-36 7.86719e-37
-1.4512733e-37 -1.8631768e-36 8.586177e-37 9.770546e-37 9.960909e-37 -8.861143e-37 3.1960618e-37 -8.464632e-37
4.428083e-38 -5.6768736e-38 -2.0751894e-37 -8.379921e-38 -1.3322955e-37 7.0317843e-37 -6.915527e-37 -8.81359e-37
-2.0187448e-38 -1.57239e-36 -7.705884e-38 2.9953242e-38 -1.2927065e-37 -1.2329535e-36 -1.3334112e-36 -8.200311e-37
-1.5438376e-36 -1.5544087e-36 -5.8657406e-38 3.1828625e-37 -2.8788724e-37 -6.423862e-37 -5.741726e-37 -1.2604486e-36
1.6252637e-36 1.4180045e-36 5.842257e-37 -1.435983e-36 2.6713177e-37 -5.6467118e-37 -7.0582883e-37 1.4761687e-36
-1.8240558e-36 1.285829e-36 4.985796e-37 1.07857615e-36 -3.4419087e-37 2.0418828e-36 -1.9276816e-36 1.0225246e-36
-1.0933803e-36 -7.238123e-37 1.2308408e-36 1.2562232e-36 -1.7172538e-36 1.0547789e-36 1.4920181e-36 5.440402e-37
-5.445683e-37 -1.991128e-36 -1.0230563e-36 -2.08157e-38 -2.8841655e-37 7.1851343e-37 2.6118289e-37 -3.3960098e-38
2.405275e-38 -1.1557608e-36 2.7704686e-37 -1.4677044e-36 6.998967e-38 -5.395463e-37 -1.8425316e-37 -1.5692077e-36
-8.369492e-37 -1.146243e-36 -2.0017044e-36 -7.555276e-37 -1.2276696e-36 1.21286315e-36 -1.44549295e-36 -1.0997223e-36
9.733517e-37 1.200801e-37 1.1272185e-36 -1.5253579e-37 -9.442771e-37 -8.26372e-37 1.06270655e-36 -1.2086361e-36
1.8917316e-36 -1.0283419e-36 -1.31755e-36 -1.6151846e-37 -1.0267602e-36 4.1001823e-37 -8.676097e-37 -1.2784265e-36
-1.015654e-36 1.4825106e-36 1.6115176e-36 3.1405036e-37 -4.0102776e-37 1.7257258e-36 8.280692e-38 3.8516045e-37
-1.435983e-36 -6.968435e-37 4.3089955e-37 -1.1272185e-36 6.603594e-37 -6.9062036e-38 -7.07414e-37 -1.2741971e-36
-1.388693e-34 2.4257286e-36 2.4236125e-36 8.639082e-37 -1.4482473e-34 -6.281095e-36 1.6199649e-36 -8.966949e-36
-1.4699036e-34 1.7067652e-34 2.1808317e-35 2.9624805e-35 1.4524748e-35 1.1267904e-34 -7.6811163e-35 2.0776237e-35
-8.5879844e-35 5.4376934e-35 -0.005018517 0.0051619424 0.0030796179 0.006572205 -0.0018656721 0.0015568801
-0.0018020896 0.0037439521 -0.0015259088 0.005484975 0.0020622965 0.0004956748 0.0034955745 -0.0020918204
0.0065576187 -0.0053609773 0.005920156 -0.0034214677 0.0040752017 -0.0101589635 -0.0004770332 -0.010137104
-0.00065741484 -0.008595648 0.001916022 -0.003133327 0.0048541515 -0.0026338664 0.0031609011 0.003502086
-0.0040420145 -0.0070753116 0.003261148 -0.0040341644 0.0015908051 -0.0017610763 -0.001864658 0.007714539
-0.0063358857 0.0061246376 -0.0018633662 -0.0014971966 -0.0058340738 -0.005094005 0.0012822927 0.0001150027
0.005819657 -0.0068305847 0.0013158432 0.0076258467 -0.0029755167 -0.003858691 0.0020909293 0.013417796
0.0075796596 0.0014835991 -0.0050159288 -0.006858936 0.0056983186 0.0073456517 -0.0044378596 0.003706308
-0.004686195 0.001189721 -0.0075455206 -0.0036850844 0.006789767 -0.0045879157 -0.004471235 0.0069602323
0.00571569 -0.0054240986 -0.0006469352 0.0008251964 -0.004256211 -0.0010075349 0.0023828316 -0.0067152996
-0.0008142866 0.0012364769 0.0012658002 0.005471187 -0.0013039296 -0.0035476033 -0.002539937 -0.0039494154
0.0052178814 0.0043175803 -0.008047794 0.0072916215 -0.0049657007 -0.00029699376 0.006364154 0.0045539946
-0.002560626 -4.8832735e-06 0.0073474017 -0.010041077 0.008211101 -0.0010111445 0.003450723 -0.005732311
0.0051013688 0.010419804 0.0037970135 0.00235082 0.00671967 0.0031205365 0.00040552983 -0.0027366434

bias f4 [128]
00000000: 412a 3883 ae08 b83a 8b75 533a e796 af39
00000010: 5339 11ba 6316 0286 cfad 993a 2361 c839
00000020: cc87 a7b8 ee82 c53a 3d5f 8e90 5acc b639
00000030: 8abc 33ba 8853 cfb7 8c34 0080 e3da 05bb
00000040: 84fc 0239 f601 b5b8 7c9c 0000 9c43 0000
00000050: 0499 1983 d31f 86ba dfff 2f3a 0338 2e86
00000060: 7666 14b8 9d80 2db7 5d95 bcba 3574 16bb
00000070: a8d8 b987 3e5f 7dba e8e5 67ba e99c 863a
00000080: de21 c7b9 a44b 0080 fa85 a13a 83b0 42ba
00000090: 9ca9 9e82 4c47 89b7 7413 d1b8 7e8a 9eba
000000a0: abcc ae88 4aa8 2b3a a5a4 9139 54b1 db3a
000000b0: 2192 2293 425d 8f3a 23ea cfba c336 7c3a
000000c0: e15c a2a6 8264 71b8 15df b0b7 6f21 1480
000000d0: d484 0bb9 5f8a a9ba 731f 2eb6 12f8 0cba
000000e0: 004c 0000 3cf3 0480 56ad 1f39 9f42 2e87
000000f0: b923 56b9 6739 b4ba 24a4 a83a 5efc a7ba
00000100: 878b c7ba 903e 0080 64da 7980 d21d b83a
00000110: 60f6 0280 7b78 bfba efdc 79ba 62dc 34bc
00000120: 45e0 c33a 2c32 fa38 3239 71b7 1a18 dd39
00000130: e311 0000 4a1f 4739 f802 0080 640c 0080
00000140: be89 a13a 5b1e 8bb8 09cd 5fba d522 583a
00000150: dd3d de87 b81b 0080 c607 b5ba b1aa 93bb
00000160: e496 25bb 8329 bab8 1ebe d5b9 dfc8 d8b7
00000170: 32d1 ed9c 7f87 e6ba 89a9 ffb9 5604 55bb
00000180: 2bed caba d920 2787 73e7 3cb8 77ee 478e
00000190: 99bd caba 9b11 e0ba e820 a6ba 9a4b 4db9
000001a0: 72c2 e884 653a 31bb 8e6d 33b9 1f4e a83a
000001b0: d7e8 a3b7 15a4 939a 1514 0080 7ed1 3b3a
000001c0: 3262 07b9 c940 be8f aef0 86b8 b8c0 67b7
000001d0: 961b dd39 fbc4 2539 2523 ae3a 14bf 97ba
000001e0: ca66 d539 f805 0000 39e9 923a fcf1 0490
000001f0: ae91 86ba 5b5f 0080 5387 e8ba 4a9f 58ba
-5.4121245e-37 0.0014040673 0.00080665265 0.00033491032 -0.0005539853 -2.446673e-35 0.0011724773 0.00038219345
-7.988475e-05 0.0015068927 -5.615586e-29 0.00034866 -0.00068564026 -2.471522e-05 -1.885e-41 -0.0020424656
0.00012491836 -8.631118e-05 5.6136e-41 2.4254e-41 -4.513831e-37 -0.0010232873 0.0006713848 -3.2766914e-35
-3.5381374e-05 -1.0341549e-05 -0.0014387775 -0.0022957448 -2.7963045e-34 -0.0009665376 -0.00088462094 0.0010270152
-0.0003798147 -2.7135e-41 0.0012323253 -0.0007426815 -2.3313364e-37 -1.6364873e-05 -9.96952e-05 -0.0012095717
-1.0520361e-33 0.00065482093 0.00027779225 0.0016761222 -2.0519322e-27 0.0010937827 -0.0015862625 0.0009621197
-1.1266183e-15 -5.7552483e-05 -2.1084716e-05 -1.848704e-39 -0.00013305555 -0.0012934915 -2.5946326e-06 -0.00053775415
2.7264e-41 -4.54598e-40 0.00015227994 -1.3109883e-34 -0.00020421938 -0.0013750017 0.00128663 -0.00128163
-0.0015224078 -2.2443e-41 -1.1190439e-38 0.0014046973 -2.72054e-40 -0.001460805 -0.0009531518 -0.0110388715
0.0014944157 0.00011930274 -1.4378036e-05 0.00042170362 6.417e-42 0.00018989775 -1.065e-42 -4.445e-42
0.0012324376 -6.633691e-05 -0.00085373275 0.00082449365 -3.3439207e-34 -9.944e-42 -0.0013811521 -0.004506432
-0.002526694 -8.876903e-05 -0.00040768174 -2.5842744e-05 -1.573742e-21 -0.0017587988 -0.00048763704 -0.0032503805
-0.0015482059 -1.2573337e-34 -4.5038247e-05 -2.464346e-30 -0.0015467881 -0.0017095091 -0.0012674602 -0.00019578487
-5.4721508e-36 -0.0027042862 -0.00017111583 0.0012840665 -1.9539539e-05 -6.1062864e-23 -7.204e-42 0.00071647007
-0.00012911184 -1.8760401e-29 -6.434448e-05 -1.3813544e-05 0.00042172958 0.00015809007 0.001328562 -0.0011577331
0.0004070311 2.141e-42 0.0011208422 -2.6218828e-29 -0.0010266805 -3.4207e-41 -0.0017740525 -0.0008263482

weight f4 [19, 128]
00000000: 102b 1a80 0fb7 4eb9 c394 083a 8b67 cb39
00000010: 9ded 27ba 359a 010b 90a3 2b39 cc6c 4b3a
00000020: 5cee c5bb 9cd2 fdb6 8b71 2e98 1184 44ba
00000030: 65e8 8c39 65b6 efb7 7c51 0080 a9a3 9139
00000040: 3bd1 f039 5bec 1f38 b8cd f711 9f94 f883
00000050: 20d2 f404 c9c2 12b9 63fd 843a 0016 0080
00000060: c3ee e2b7 296f 9438 fc97 a5ba 4b54 073c
00000070: 44f0 1c8a 37c8 0bba be98 fab9 24ec 1a3a
00000080: 145a e5b9 5382 0080 2d24 da39 acad 41ba
00000090: ef09 8888 d16f 9337 513c 92b8 97b9 a6b9
000000a0: fd6b a08e 7506 2db7 a688 9239 0f84 6839
000000b0: e6d8 0d15 334b 7a39 345c 90ba fc63 c639
000000c0: 57bc c1b7 ff54 97b7 1f9a 0339 77a2 25b6
000000d0: 3de4 cd39 8400 5dba 797d 123a 23ab 13ba
000000e0: 948b b700 2b43 588a 3b4d 0a3a 1bcf 1985
000000f0: ad8f 3f39 a5f6 143c c105 6ab8 5451 3fba
00000100: 1128 893b 440a 0000 9c63 9a00 99eb 8f39
00000110: 12c0 a603 b0f0 03ba 59e9 47b9 f13b 33b9
00000120: 857a 6f39 3a4c 5a3a 4cba 96b7 7150 bf3a
00000130: 1e52 cf11 34e2 063a 790b 0584 f15e a181
00000140: a6b5 3e39 138c 5c39 0f1d 42ba 6251 133a
00000150: b869 640e dc19 0480 2076 4fba 45b4 bd3c
00000160: 60f3 d039 c671 bbb8 462e 1d39 c990 9335
00000170: 3b2b 3a9e 9673 a6ba 4730 1aba d111 9639
00000180: a315 b4b9 863f 3e07 b9d7 08b8 11b8 a594
00000190: 10a6 2bba 34bc 9639 05c4 813a 8eea 0cb9
000001a0: 098e 310b ea22 833c 9a76 7f39 e354 e239
000001b0: d528 eeb7 e4f3 50a0 4944 0080 e96e d739
000001c0: d519 383a 5303 ae95 c245 1bb8 49d8 9b39
000001d0: 188d c639 8618 8939 945f 1db6 b5fd 38ba
000001e0: 3a4e 4339 f83b 0080 dcd1 233a 0b50 6d89
000001f0: 0c94 13ba 0039 a209 8e31 77ba b109 2e3a
00000200: d918 0000 2c5a d338 97b3 fd39 686b eb38
00000210: 830b 88b9 1524 2688 90ac 303a 3851 da39
00000220: 29a4 5a3a f9cc 7139 611d 0b15 f352 6139
00000230: 83aa 9eb9 78ba a1b7 3848 0000 3cbd 023a
00000240: e342 97b9 4269 f7b9 9964 0000 d004 0000
00000250: 881c a301 6baf 1cba 3d73 20b9 8051 0080
00000260: 140d a537 e9ea 1439 d066 8fba c8cc 27bb
00000270: 2a69 c907 51e8 2dbb a514 95b8 7cb6 4cba
00000280: 43a0 8ab9 36af 0080 f9ef 4a39 237c 8937
00000290: d085 be06 2076 d834 35ab 043a 895e 22b9
000002a0: 1108 028b f265 63ba e1d6 01b9 8bf9 b9b9
000002b0: 75cc bc12 458a 3aba 58ea 9a38 e722 ac37
000002c0: ee9a 9a34 e84a f537 94a5 48b9 a436 8c9c
000002d0: 5899 763a f98c 28ba 8553 1fb9 6be8 6eb9
000002e0: 3431 0900 9b1d 8987 fb94 63ba 6d45 a581
000002f0: 088d 1339 4d7b aa39 80bb 863a 6c0c b4b9
00000300: c5ea 04b9 e040 0080 acfa 0900 7066 2b3a
00000310: 1c45 3b00 1e68 17b8 caf4 d737 7d93 303a
00000320: 1d7b 9c3a 25b2 eeb8 bf86 26b7 525f 453a
00000330: 9d50 0000 674e 9939 2ce9 8201 7cf7 1c80
00000340: fa54 0aba 4448 5cb9 4a41 0439 4286 563a
00000350: d57d e58b 38a3 0080 70a0 51b9 f66b 4ebc
00000360: d1b3 1a3a b7f1 eab8 2ffd 8aba d341 ad38
00000370: 7e9d 1b9b 324a 24ba 48fb d238 4e64 4eba
00000380: e011 dbb8 abc2 ce04 69c1 1938 4e10 4b92
00000390: 4f1f 1938 0976 96b9 9859 bcb8 68a9 0c3b
000003a0: 5e27 7e88 9ded 1d3b e763 2aba 69e8 823a
000003b0: 885f 31b7 5c78 829e 1f58 0000 cffd ce39
000003c0: fe9b 6c39 199b f011 0462 bd3a eaaa 5f39
000003d0: 6594 c3b8 7305 d138 2944 f1b9 1c97 1eba
000003e0: 4596 433a 7cb3 0080 4c98 b1b9 2942 0180
000003f0: cf61 91ba 2466 0080 6a9d 6839 d3a1 343b
-2.403171e-39 -0.00019713886 0.00052101555 0.00038796323 -0.00064059516 2.496051e-32 0.00016368763 0.00077600474
-0.0060403775 -7.5645057e-06 -2.2546297e-24 -0.0007496486 0.00026876028 -2.8575954e-05 -2.9231e-41 0.00027778491
0.00045932256 3.8128677e-05 3.9096513e-28 -1.4610252e-36 5.7557094e-36 -0.00013996208 0.0010146316 -7.892e-42
-2.7052482e-05 7.077895e-05 -0.0012633796 0.008259843 -7.556316e-33 -0.00053322635 -0.00047797518 0.00059098215
-0.00043745397 -4.6752e-41 0.00041607153 -0.0007388245 -8.187538e-34 1.7575834e-05 -6.973057e-05 -0.00031800263
-3.9547034e-30 -1.0313107e-05 0.000279491 0.0002217444 2.8645826e-26 0.00023869872 -0.0011013807 0.00037839997
-2.3095095e-05 -1.8040182e-05 0.00012550548 -2.4681483e-06 0.00039270698 -0.0008430558 0.0005588155 -0.00056331063
1.6855967e-38 -1.04126546e-32 0.00052757905 -7.232065e-36 0.00018268703 0.009092008 -5.5795306e-05 -0.00072981906
0.0041856845 3.683e-42 1.41784e-38 0.0002745062 9.8007e-37 -0.00050331187 -0.00019065048 -0.000170931
0.00022838458 0.00083273987 -1.7968145e-05 0.0014596117 3.270945e-28 0.0005145401 -1.5639343e-36 -5.9278294e-38
0.00018187481 0.00021033017 -0.0007404843 0.0005619732 2.8154071e-30 -3.76619e-40 -0.00079140253 0.023157248
0.0003985418 -8.938047e-05 0.00014989925 1.0994492e-06 -9.855698e-21 -0.0012699242 -0.00058818277 0.00028623504
-0.00034348396 1.4312679e-34 -3.2625834e-05 -1.6733344e-26 -0.00065478776 0.00028750452 0.0009900337 -0.00013438819
3.4195815e-32 0.01600786 0.00024362878 0.00043169325 -2.8390825e-05 -1.7698982e-19 -2.4496e-41 0.0004109063
0.0007022892 -7.0283285e-26 -3.7019847e-05 0.0002972505 0.00037870626 0.00026148948 -2.3450457e-06 -0.0007056848
0.00018625791 -2.1513e-41 0.0006249228 -2.8565473e-33 -0.00056296657 3.9053684e-33 -0.00094296865 0.00066390174
8.914e-42 0.0001007806 0.00048389725 0.00011225679 -0.00025948518 -4.999622e-34 0.0006739581 0.00041640713
0.0008340502 0.0002305991 2.8094002e-26 0.00021488573 -0.0003026315 -1.9279527e-05 2.5907e-41 0.00049873046
-0.000288508 -0.00047189934 3.6088e-41 1.726e-42 5.9917684e-38 -0.0005977067 -0.00015301719 -2.9237e-41
1.9675623e-05 0.00014201891 -0.0010940675 -0.0025604237 3.0304929e-34 -0.0026536176 -7.108719e-05 -0.0007809175
-0.00026440815 -6.2854e-41 0.00019353618 1.6389478e-05 7.1666676e-35 4.0319082e-07 0.0005060912 -0.00015484741
-2.5043158e-32 -0.0008674554 -0.00012382447 -0.00035471874 1.1914871e-27 -0.00071159407 7.386942e-05 2.052025e-05
2.8797461e-07 2.9241157e-05 -0.00019135169 -9.278547e-22 0.0009407005 -0.0006429698 -0.00015194535 -0.00022784031
8.4417e-40 -2.063087e-34 -0.00086815626 -6.071105e-38 0.0001407155 0.00032516793 0.0010279268 -0.0003434153
-0.0001267596 -2.3273e-41 9.16444e-40 0.00065383967 5.443086e-39 -3.6098172e-05 2.5743986e-05 0.00067358447
0.0011938546 -0.000113819064 -9.925744e-06 0.00075291574 2.8919e-41 0.00029240848 4.8089043e-38 -2.660175e-39
-0.0005276945 -0.00021007756 0.00012612823 0.0008183458 -8.839692e-32 -5.8552e-41 -0.00019991561 -0.012598982
0.00059014285 -0.000112030124 -0.0010604019 8.2615436e-05 -1.2872188e-22 -0.00062671595 0.00010060385 -0.0007873223
-0.00010446063 4.860914e-36 3.665817e-05 -6.4075603e-28 3.65072e-05 -0.00028698173 -8.981227e-05 0.0021463279
-7.648162e-34 0.0024097927 -0.0006499872 0.0009987477 -1.0572265e-05 -1.3814065e-20 3.1612e-41 0.00039480484
0.00022564825 3.796091e-28 0.0014448767 0.00021330608 -9.325965e-05 9.9669116e-05 -0.00046017885 -0.0006049739
0.00074610516 -6.4387e-41 -0.0003387354 -1.15569e-40 -0.0011091771 -3.6641e-41 0.00022183885 0.0027562275

bias f4 [19]
00000000: 763d ae3e 8cb0 893a 0292 09b9 54b4 98ba
00000010: b4b5 ac3e f439 86b7 ff99 b339 8810 bd39
00000020: f3db ac3e f055 a53e e285 cbb8 8750 82b8
00000030: 1274 7437 3150 a53e 3597 0e38 d53b dbb8
00000040: d842 7b37 4148 a53e 0cb7 04c0
0.34031266 0.0010504886 -0.0001311973 -0.0011650422 0.33732378 -1.6001031e-05 0.00034256277 0.00036061206
0.33761558 0.32292128 -9.704732e-05 -6.2138824e-05 1.4570558e-05 0.32287744 3.399626e-05 -0.00010453878
1.4976329e-05 0.32281688 -2.0736723
