models/H/model1.pt (torch, 310479 bytes, 8 tensors)

weight f4 [128, 384]
00000000: 47d9 c3bc fdbc 23bd 4af5 7cbd c0c3 c0bc
00000010: 261e b03b 41d0 e3bb 0eea 813b 558c df3b
00000020: 39e8 10bd d1a1 b3bb 7c71 273c 2a25 6fbd
00000030: 27fc e63c 2b64 22bd c752 03be 76f7 28bd
00000040: dbe4 fabc a77a cd3c 6ea9 9b39 b703 90bc
00000050: e49f c93a 6dc4 2cbd 7290 8e3c 5950 eabb
00000060: ce39 fc3b 264e 14bd fea6 fa3c 6e75 b4bb
00000070: b233 173d 1cee dc3d 7ae0 083d 076b 613a
00000080: 491a 7f3b cd6b 0fbc 0f85 28bb bc51 dfbc
00000090: dac3 81bc 2cb9 f6bc 5560 ea3b 19be b83c
000000a0: 8fab 11bd 7ecd 90bb 9cc3 48bc e366 06bc
000000b0: ad0b 8f3c bd11 4f3d 9f42 953c 0eb0 6a3b
000000c0: 9749 113c daa5 8ebc bef8 a8bc 3f2b a2bc
000000d0: c522 9ebd e688 a43c 4865 eebc 3a75 023d
000000e0: 0bda efbc ad2d 123d edff abbc 1c90 d1bd
000000f0: ea14 de3c 6d87 b1bc 4148 23bd c6e5 20bc
00000100: e453 abb7 ed3a fc38 ee57 a8b9 5341 44ba
00000110: 64b9 52b9 2acb 2b38 d5b8 7f39 68ec 03b7
00000120: 6b2f 9e39 9e8d 203b e3a7 b73c e483 2d3c
00000130: 38e2 f93b 2eaf 583c 531a 8a3b 10f8 84bb
00000140: 742c 0a3d 48bb 41bd 49db afbb 2ae6 e9bc
00000150: 84ca 85bc f368 5ebd 6866 8bbc 393b 97bc
00000160: 1957 5f3b 4299 e1bc b672 babd 5ab7 64bd
00000170: 0c7c d339 e3d1 9dbc e2a3 073c 2b6a f53b
00000180: 6ff6 8ebb 4cec 43bd 48f0 6bbd 6565 043b
00000190: 93c0 803b 947c ac39 d39c 133a 7ec9 8bba
000001a0: f199 993d 31ea 57bd ade6 9f3c 0c5f 3d3c
000001b0: 63c5 0fbc 179f 463d 87e9 953b bf6f debb
000001c0: 928f ca3c 4223 fd3b 8c68 cebc 6f58 0c3b
000001d0: d152 3ebd 4d85 03bd 7de1 1abc 8b29 ed39
000001e0: dc96 963b 4b03 88bc 721f 45bd 9489 2d3d
000001f0: 0b0a 9c3c f3b8 fe3b fb54 153c 5dd6 223b
00000200: c88f 6a3b ea13 e63c ad3a c53c 2b9f 003c
00000210: 4f59 213c fea6 9b3b a14b 943a 6c2b 0839
00000220: 46d7 13bd a741 15bc 1a29 04bd b2fa 5f3c
00000230: 0825 503d a59a 623c 4221 2e3a 468b caba
00000240: 86b3 083d d4b7 c4bb 8e5f 43bd 8fcb 953c
00000250: 0e44 d03c 21e4 0e3c c833 fd3c 6748 e43c
00000260: 49ec e939 0660 673c 5d56 443c 5447 2dbc
00000270: c373 a33c a66a b33c a06d 313c 15d5 8f3b
00000280: 7269 efbb 0343 48bc 9124 15bc 66f8 f1bc
00000290: ddc9 293d 0c1c 473d ed1d 923c a0e1 73bb
000002a0: d633 dbbc f7a4 c4ba fdb3 e5bc 6f77 9f3d
000002b0: 7b2f e8bc cf78 a63c 7c3f 423c ac95 5cbc
000002c0: 3475 9cbc fc55 5f3d bbda 83bc 2784 0cbd
000002d0: ca56 1dbd 15da 1a3d 0052 003c cc8d a6bb
000002e0: df3d e3bb ccf3 91bc 1227 443c fec2 bcbc
000002f0: a9d0 cabb db3f 103c 3981 eab8 a7c1 7fba
00000300: c7e9 96bb d68f 53bc 04dc cebb c2af 1b3a
00000310: 71ab c639 b3f9 a6b9 53de b4b9 96d4 82b7
00000320: 31fb 35bd 4a2f 933c 6446 82bd de8f d7ba
00000330: 748f 80bd d28e 18bd aa95 ecbb f1d3 d0ba
00000340: 4696 b13c 3a13 4bbd 0164 a9bc 5c10 db3a
00000350: 05c0 0ebc f3c1 b1bb 31dc 86bc 1faf fcbb
00000360: b25e 253c 8b31 e83c 75b7 bb3c 1633 25bc
00000370: 12af e9bb dde6 a23a 3723 8dba 6118 30b9
00000380: eb2f b83b b184 24bb 950b d3ba f63b dbbb
00000390: a1e8 46bc 2474 d9ba dbc3 46ba 3ec7 5bb9
000003a0: 5c3d eb3b edbd 8e3b bb0e 07bd 60e7 173d
000003b0: af59 963b 0be3 b0bb dd5b 35bc 82be edba
000003c0: 5fc1 0cbd de76 c93b aec8 5c3b f92c 3ebc
000003d0: 5773 f93c d349 173d 2cc4 543c bd80 c4ba
000003e0: f7d3 82bc 82aa 21bd f56a 953b 139f 9b3c
000003f0: 5480 593b 1ea7 4e3b c72d 693b 0af3 a339
-0.023907317 -0.039975155 -0.061757363 -0.02353084 0.0053746877 -0.006952316 0.003964669 0.006822149
-0.035377715 -0.0054819365 0.010219928 -0.05838505 0.028196407 -0.03964631 -0.12824546 -0.041251622
-0.030626705 0.0250829 0.0002969014 -0.017579896 0.0015382734 -0.042179514 0.017402861 -0.0071506915
0.0076973205 -0.03620734 0.030597206 -0.005507163 0.036914535 0.10787603 0.033417203 0.0008599017
0.003892558 -0.008753729 -0.0025714075 -0.027260654 -0.01584046 -0.030117594 0.007152597 0.022551583
-0.035564 -0.004419028 -0.012253668 -0.008203241 0.017461622 0.050554026 0.018220244 0.0035810503
0.008867643 -0.017413069 -0.020626422 -0.019796012 -0.077214755 0.02008481 -0.029101029 0.031850077
-0.029278776 0.03568809 -0.020996058 -0.10232565 0.027109582 -0.021671021 -0.03986383 -0.009820407
-2.0423853e-05 0.00012027272 -0.0003210897 -0.00074865407 -0.00020096224 4.095879e-05 0.0002438755 -7.863251e-06
0.00030171438 0.0024498473 0.022418922 0.010590527 0.0076258443 0.01322536 0.004214564 -0.0040578917
0.0337338 -0.047297746 -0.005366717 -0.028552134 -0.016331919 -0.054299306 -0.017016605 -0.018460857
0.0034079014 -0.0275389 -0.091039106 -0.05583892 0.00040337478 -0.01926512 0.008278819 0.007489463
-0.0043628733 -0.047832772 -0.057602197 0.0020202037 0.0039292066 0.00032899214 0.00056309736 -0.0010664908
0.07500065 -0.052713577 0.019519174 0.0115583055 -0.008775088 0.048491564 0.004574958 -0.0067882235
0.024726663 0.0077251503 -0.025196336 0.0021415015 -0.0464657 -0.032109547 -0.009453175 0.00045235115
0.0045956206 -0.016603133 -0.04812569 0.042367533 0.019047758 0.0077735125 0.009114499 0.0024847009
0.0035791267 0.028085668 0.02407583 0.007850449 0.009847953 0.0047501316 0.0011314043 0.00012986147
-0.036093973 -0.009109891 -0.03226576 0.01367061 0.050816566 0.013830815 0.0006642529 -0.0015452884
0.033374332 -0.0060033593 -0.04769855 0.01828554 0.025423076 0.008721382 0.03090848 0.027866555
0.0004461727 0.014122015 0.011983481 -0.010576088 0.01995266 0.02190144 0.010829359 0.004389415
-0.007306271 -0.012223008 -0.009102956 -0.02953739 0.041452277 0.048610732 0.017836535 -0.003721334
-0.026758116 -0.0015002777 -0.028039927 0.07786452 -0.028342953 0.020321278 0.011855956 -0.013463419
-0.019098856 0.05452536 -0.01609551 -0.034305718 -0.038412847 0.037805635 0.00783205 -0.0050828215
-0.006934866 -0.017816447 0.011972206 -0.023042198 -0.006189425 0.008804287 -0.00011182059 -0.00097563345
-0.004605505 -0.012912711 -0.006312849 0.0005938971 0.00037893237 -0.00031848028 -0.0003449792 -1.55962e-05
-0.044429008 0.017966885 -0.06361082 -0.0016446074 -0.062773615 -0.03724558 -0.00721999 -0.0015932304
0.021678101 -0.049578883 -0.020677568 0.001671325 -0.008712773 -0.005424732 -0.016462417 -0.0077113057
0.010093378 0.028343936 0.022914628 -0.010082981 -0.0071314657 0.0012428422 -0.0010767941 -0.0001679375
0.0056209466 -0.0025103504 -0.0016101474 -0.0066904975 -0.012140424 -0.0016590399 -0.00075822853 -0.00020959691
0.0071789455 0.004356137 -0.032973032 0.03708589 0.004588328 -0.0053981594 -0.011069265 -0.0018138441
-0.0343641 0.0061482033 0.003368895 -0.011607402 0.030450506 0.03693564 0.012986224 -0.001499198
-0.015970213 -0.03946925 0.0045598694 0.018996751 0.0033188062 0.0031532715 0.0035580264 0.0003127086

bias f4 [128]
00000000: 257d 233d 8e52 e238 e715 8abc 474a 703c
00000010: a6f7 f1bc dbc7 223d 6dfd 753b 708e 3d3b
00000020: fd09 703b acd9 363d 4525 4eb9 03d6 b2bc
00000030: f66f af8a f4c3 b78a 8eb9 5bbd d1a5 10bc
00000040: 3b9d 333d 7d57 42bd 9cca 2ebc 6366 a8bc
00000050: 4557 8dbc 972e debc edb9 d83c bc2b 573d
00000060: 4740 8bb9 d9e6 1ebd e3c2 a73c 054a 5bbc
00000070: e5e3 1fbd 38da ae3c 3053 253d 02d7 1b82
00000080: 36c0 34bd 7aa2 8b39 0dc6 28bc 35f6 41bd
00000090: bcc3 df3a 07a8 d83c 91f9 3a3c 0fee a93b
000000a0: 70a3 e63b 2552 59b5 ec0b 2f3b 3587 3cbd
000000b0: ce17 76bc 2922 89bb c9fb af3a b4a4 02bd
000000c0: c3f7 9ebd f63d 0880 3859 8b3c b530 febc
000000d0: 3457 173a cec7 54bb 0777 91bd e2d8 013b
000000e0: 0e0c a4bb 2582 14bb eb8a e9bb 82aa 4d3b
000000f0: 7994 113d 712b 273d 9289 dabc 97bb 90bd
00000100: bcc5 38b8 9576 3e3c 13bd f0bc 6dfc ba3c
00000110: 5a38 96ba 0877 5d3c 146f 0a3d b32f 1aba
00000120: d7e8 7dbd 7c63 213c 5fe3 0ebd ee83 31b9
00000130: 708d 8bbc 7066 803b 6e3e 21bd a24d 9fa3
00000140: 97a9 f2b9 6d5d 0185 22f4 3b3b 23d3 b0bd
00000150: 68d3 81bd 02a1 59bd a42c 3080 f501 bf3c
00000160: 38a0 163d 41c4 953a 017f 25bd 9382 9539
00000170: df41 a9bd a7f3 04b2 931f 08bd 52d2 1bbd
00000180: 0bdf fcbc 766b 12bb 8b3f 083d 032a 18bd
00000190: 869d e13c d0fc 813d 2aef 953d d4cd 56b9
000001a0: 05c9 0fbd 8ef1 b7bc 7a31 8e3b 8d4b 87bb
000001b0: 0bef 5c80 d7cf 1abd 1d52 0cbd 8b0e c8b9
000001c0: 66ec 283c 89fc 163c 6f54 9883 7e45 a73b
000001d0: 49b5 0e80 685f 4abc 271a 5fbd d35e 593c
000001e0: ee07 dfbc d037 889b ece2 3bbd f573 0b80
000001f0: 8301 2d3a 2289 0c3d fe56 15b7 949e 9c3c
0.03991427 0.00010791897 -0.016856147 0.014666147 -0.029537033 0.03974138 0.0037535087 0.002892401
0.0036627047 0.04464118 -0.00019659575 -0.021830564 -1.6894002e-32 -1.7695968e-32 -0.053643756 -0.008828596
0.04385112 -0.047446717 -0.010668423 -0.020556634 -0.017253527 -0.027121825 0.026455844 0.052531943
-0.00026560036 -0.038794372 0.020478671 -0.013384347 -0.039035697 0.02134429 0.040362537 -1.1449306e-37
-0.04412862 0.000266332 -0.010301125 -0.047353942 0.0017071883 0.02644731 0.01141204 0.0051858495
0.0070385262 -8.0958336e-07 0.0026709987 -0.04602738 -0.015020324 -0.0041849804 0.0013426478 -0.031895354
-0.077621005 -7.56911e-40 0.017010316 -0.031029085 0.0005773187 -0.0032467726 -0.07102781 0.001981311
-0.00500632 -0.002266058 -0.007127156 0.0031382148 0.035541985 0.040812913 -0.026676927 -0.0706703
-4.4053173e-05 0.011624952 -0.029387033 0.022825444 -0.0011460886 0.013517149 0.03379734 -0.00058817415
-0.06198963 0.009850379 -0.034884807 -0.00016929183 -0.017035216 0.0039184615 -0.03936618 -1.7271693e-17
-0.0004628419 -6.0827105e-36 0.002867945 -0.08634021 -0.06339151 -0.053132065 -4.424118e-39 0.023316363
0.03677389 0.0011426286 -0.040404323 0.0002851678 -0.08264517 -7.738811e-09 -0.033233237 -0.038042374
-0.030868074 -0.0022341884 0.033263724 -0.03714944 0.027540933 0.06347048 0.073210075 -0.00020485307
-0.035103817 -0.02245405 0.004339394 -0.0041288794 -8.534618e-39 -0.037795868 -0.034257997 -0.00038157808
0.010310268 0.0092154825 -8.953142e-37 0.0051047197 -1.35073e-39 -0.012351848 -0.0544683 0.013267237
-0.02722546 -2.253538e-22 -0.045870706 -1.051788e-39 0.00065996515 0.034310468 -8.9013465e-06 0.019118585

weight f4 [128, 128]
00000000: 7dd8 e93b a068 1d3c b11e 693c 2ed2 0cbc
00000010: 4740 ed3c fc85 33bb a319 0dbc 6a76 4e3c
00000020: 71f6 26bd dc25 863c 3a5e 1abc a4d4 cc3c
00000030: 7f4b 1b89 0e46 0000 b337 fc3c e2a4 66bb
00000040: 0584 51ba 281b b53c 092e ce3c aff6 d33c
00000050: 4abd 313d 884f 7b3c 7908 3dbb 1d0d 523c
00000060: 8bce 6a28 a56a 1a3d 9cbe e7ba 12fd f4ba
00000070: fa89 df3c 45fb 8dbb 7942 70bc 3750 6380
00000080: 29ee 983a 4b8d 013d 9118 043c 7958 4aba
00000090: c44b 4f3b 86b6 6c3c c302 ebbc 98af afbc
000000a0: 8bc4 a6bb de4e 0000 4690 f1bb d021 043d
000000b0: a49b d93c 7be7 243b a276 b2bc 298a e23c
000000c0: d379 393c f959 0000 b1f0 e63b 850e ae3c
000000d0: 6923 ba3c 1509 4cbc 4328 d53c bdb7 85bb
000000e0: 48ac bd3b b2bc 06bb 2a20 863c 23a0 613c
000000f0: 815b c03c 3da7 03bd 7a28 e13c 57f6 d13c
00000100: e04c b794 a986 0e3c ae92 673c 591b 9fbb
00000110: a018 c4bb 4299 7639 0817 8b3b 9c5b 953c
00000120: b9af fa3c 4880 813b 9f1c 013d cedb d634
00000130: e0ea b03c f872 acbc 60ad 1a3d db64 0180
00000140: 9b91 2b3c cce7 1884 0ec7 fe3a 6240 003d
00000150: 4ea2 d73c f01a 0b3d 8ca8 0400 0c19 8f3c
00000160: b82b 513c 15e2 a63a 9c32 143d bf44 123b
00000170: 0fe4 103d 1da5 3d89 c6a9 323c 73e7 ce3c
00000180: 5403 023d f697 5f3b bec3 033c 0b54 803c
00000190: dab8 853b fdeb d6bc 50d9 783b cc47 9e3c
000001a0: ba56 6c3c f9b5 593c d487 f53b d7ca 6f3c
000001b0: 89e9 0180 98d6 dc3c a573 9e3c 0946 603a
000001c0: 7613 f0bc 45fe 6b3a 83ce 8180 2c54 5f3c
000001d0: 784b 0100 bfc0 0a3d b3ad fc3c 380d f0bb
000001e0: 99b1 a83c 6d87 8599 4a06 ff3c b85d 0000
000001f0: e55b 1cbb 49f0 b23b 68a7 1580 9482 dabd
00000200: bf7e a13b c053 06bc a5fc 93bc 671b 853c
00000210: 38b7 cebc 99fe 3b3c 9b10 903c 64a2 98bc
00000220: 9dd2 393d 94ed a7bb ca5e a23c e1b7 9cbc
00000230: d823 4009 b74d 0100 6860 cdbc 7819 5f3c
00000240: 1425 263c f996 c0bc 5fe4 5abc 93f3 d1bc
00000250: eb1c 00bd 8fc4 99bc 93a4 303c a6fc 40bb
00000260: 8580 0fae 6729 03bd b85b 1f3c 82b1 3fbc
00000270: 7698 afbc 0bea 463c dde2 903c 4778 5100
00000280: 34a5 0dbc dce4 a0bc 2a10 8e3b e7a1 13bc
00000290: 01dd bebb d31e a4bb 632d ba3c a5bc 723c
000002a0: 230a 3e3c 78c1 0100 23f3 103c da97 ecbc
000002b0: ad55 cdbc d6ad e53b 0f82 bd3c f1b8 cfbc
000002c0: 8480 65bc f639 0080 918e 513b e98e b6bc
000002d0: e4b6 c0bc 90b5 883c ce51 afbc 42f2 38bb
000002e0: 249a a13b 5b0b 4cbb efc3 a6bc f0b0 d9bb
000002f0: b935 6abc f2d8 133d 7eb4 cbbc 0ac1 b9bc
00000300: ce71 b518 1657 a93a e549 a7bc d1a1 693c
00000310: 0d0a 553c 35fe 0c3c 1dfc ca3b 7d62 4bbc
00000320: 9664 debc fcc7 df3b 3e68 d2bc eb52 59b5
00000330: a522 bfbc e6fa c73c 83c2 fdbc 5572 0000
00000340: f696 2abc 7a20 2904 72bf f43b 0bc2 f4bc
00000350: aa50 ccbc 9bc8 ffbc f637 0580 2d36 01bc
00000360: 43c3 5abb caa0 a2bb 70bf fcbc 01db 79ba
00000370: adc0 f5bc 5d96 f90a 00da 31bc e438 aabc
00000380: 358b d8bc 1598 9f3b f351 2d3a db7c a0bc
00000390: f50f ba3b 0bb0 ef3c a51d 0c3c 0210 92bc
000003a0: 5cc0 b4bc 9644 86bc 7200 c73b 405c e2bb
000003b0: 3e39 0180 a1f7 b2bc 3849 97bc 02b7 1e3c
000003c0: c2a9 9e3c 67ac 193c 89c6 7380 ba47 00bb
000003d0: 87eb 0100 a950 11bd e360 eebc 0360 7b3c
000003e0: f8ba 84bc 5ac8 cc18 9560 d1bc 7432 0080
000003f0: 5c74 2dbc db34 b13b 59be 849e 3b44 db3d
0.007136403 0.009607464 0.014228509 -0.008595033 0.028961314 -0.0027393093 -0.008612069 0.012601474
-0.04076237 0.016375475 -0.009421879 0.025003739 -1.8692944e-33 2.5131e-41 0.030788278 -0.0035193493
-0.000799239 0.022107676 0.025168436 0.025874464 0.04339341 0.015338786 -0.0028844161 0.012820509
1.3034396e-14 0.03769936 -0.0017680707 -0.0018691143 0.027287472 -0.004332932 -0.014664286 -9.12049e-39
0.0011667657 0.031628888 0.008062498 -0.0007718872 0.0031630853 0.014447814 -0.02868784 -0.021446034
-0.0050893477 2.8292e-41 -0.007371935 0.03225881 0.026563473 0.0025162387 -0.021785084 0.02765377
0.011320549 3.2276e-41 0.0070477356 0.021247158 0.022721963 -0.012453337 0.026020175 -0.004080741
0.00578836 -0.0020559249 0.016372759 0.01377109 0.023481132 -0.032141913 0.027485121 0.02563016
-1.85086e-26 0.008699098 0.014134092 -0.004855555 -0.005984381 0.00023517481 0.004244689 0.01823216
0.03060137 0.00395206 0.031521436 4.0020535e-07 0.021596372 -0.021050915 0.037763 -1.28016e-40
0.010471727 -1.797395e-36 0.0019437985 0.0313114 0.02632251 0.033961236 4.27805e-40 0.017467998
0.012766771 0.0012732173 0.036181077 0.0022318808 0.035373744 -2.2827683e-33 0.010904735 0.025256848
0.031741455 0.0034117675 0.008042274 0.015665075 0.004080874 -0.026235575 0.0037971325 0.019321345
0.014424974 0.013288015 0.0074929986 0.014635763 -1.75612e-40 0.026957795 0.019342253 0.0008555358
-0.029306155 0.00090024277 -1.1920861e-38 0.013630908 1.18909e-40 0.033875223 0.030844545 -0.0073257945
0.020592498 -1.3806576e-23 0.031130929 3.362e-41 -0.0023858484 0.005460773 -1.9886e-39 -0.10669437
0.0049284394 -0.0081986785 -0.018064806 0.016248418 -0.02523385 0.011474275 0.017586043 -0.018632121
0.045366872 -0.005124757 0.01982059 -0.019130649 2.3128013e-33 1.19714e-40 -0.025070384 0.013616912
0.010140676 -0.02350949 -0.013360112 -0.02562884 -0.03127758 -0.018770484 0.010781425 -0.0029447465
-3.2628584e-11 -0.032021906 0.009726457 -0.011700036 -0.021435004 0.012140761 0.017686302 7.481823e-39
-0.0086453445 -0.019640379 0.004335423 -0.0090107685 -0.0058246856 -0.0050085573 0.02272672 0.014815484
0.0115990965 1.61239e-40 0.008847031 -0.028881002 -0.025065267 0.0070092482 0.023133306 -0.025356742
-0.014007691 -2.0792e-41 0.0031975845 -0.022284942 -0.023524709 0.016688138 -0.021401312 -0.0028220569
0.004931705 -0.0031134698 -0.0203571 -0.006643407 -0.014295035 0.036095567 -0.024866339 -0.022675056
4.6902317e-24 0.001291963 -0.020420978 0.014259771 0.013002885 0.00860553 0.006194605 -0.012413618
-0.027147572 0.00682926 -0.025684472 -8.095946e-07 -0.02333195 0.02441163 -0.03097654 4.1015e-41
-0.010411968 1.9880767e-36 0.007469111 -0.029877683 -0.024940807 -0.031223586 -4.79252e-40 -0.007886452
-0.0033380545 -0.004963015 -0.030853003 -0.00095312303 -0.029999102 2.4034388e-32 -0.010855198 -0.02077908
-0.026433567 0.0048704245 0.00066116377 -0.019590786 0.0056781718 0.029258749 0.00855199 -0.017829899
-0.02206438 -0.016390126 0.006073051 -0.0069079697 -1.1237e-40 -0.021846594 -0.01846753 0.009687187
0.019368056 0.009379483 -1.0632303e-38 -0.0019574002 1.76327e-40 -0.035477314 -0.029098934 0.015342715
-0.016202435 5.2935067e-24 -0.02555875 -1.8099e-41 -0.010586824 0.005407912 -1.405477e-20 0.10706373

bias f4 [128]
00000000: 33a5 0abc 588e e83b 8b64 be3b 6456 18bc
00000010: f08c fc3b f303 e6bb 9128 0fbc b221 003c
00000020: e513 f33b b3dd 13bc 9019 d4bb 0254 cb3b
00000030: 5a12 e63b bb6d fbbb 09a3 003c 4463 31ba
00000040: 0954 0a3c cd77 9039 25e3 203c 84ad 62b9
00000050: 5b2e a33b 4484 1ebc 5e7e cabb e8b8 8dbb
00000060: 6866 0e3c b1ad 293b a4f0 a837 f939 ddbb
00000070: f899 2bbb c8c7 a83b 0659 9dbb f77c 03bc
00000080: e45f 063c 5b56 1abc 7a14 f7bb fa4e 0bbc
00000090: 47f0 c8ba 1d93 cc3b 28a4 903b be48 a63b
000000a0: 1fb8 713b ee32 05bc 291d 0d3c 7e8d 0b3b
000000b0: 0816 d93b fe6b a7bb 97c9 efbb 0884 d53b
000000c0: d4a7 003b 0be2 e53b c386 b33b 8166 6bb9
000000d0: 9d9c e83b e6c5 023c 592a 443b d160 f93b
000000e0: c210 0b3c 5b5e d6bb 934e 103c 564a 1fbc
000000f0: 0eb3 05bc 7ec1 853b 1e34 8639 cd05 10bc
00000100: c1bc 83ba d86e 2a3b 3a83 b63b 007f cdba
00000110: eb04 d73b 2128 fc3b b586 d9ba b04b 00bc
00000120: 0aab 1eba 9ba0 fc3b 63d5 d7bb 217c 6abb
00000130: c1cd 75ba 8626 f5bb 6ec4 09bc 4ab7 e8bb
00000140: e6a9 94bb 4616 173c f9ab 99bb c2d8 dd3b
00000150: 1d8f 14bc b1b2 bb3b 4bef 89ba bde6 613b
00000160: c70b 133c 9fc7 13bc c177 05bc 7322 e63b
00000170: a043 cd3b b2a0 8ebb 4551 1e3c f445 cf3b
00000180: bde8 8aba e896 213c 5c2a 01bc 3f4c 08bc
00000190: b7c9 a5bb ff05 f6bb a1f3 fc3b faeb 0f3c
000001a0: c91b 0bbc bbe4 ee3b c306 a13b fc0b e7bb
000001b0: 44f5 cb3b cb25 743b d189 073c 3e65 bc3b
000001c0: 04bc 1f3c efff 64ba 627f a1bb 3dae d43b
000001d0: 297c f6bb efca f53b 50cf 133c 13bc d03b
000001e0: 5cf7 67ba dbe3 8a3b e4a1 10bc 1757 e53b
000001f0: 9a30 b5ba 2904 4a3a 4c23 25bb 8234 14bc
-0.008462238 0.007097047 0.0058103255 -0.009297941 0.0077072307 -0.0070195138 -0.008737699 0.007820534
0.007418143 -0.009025025 -0.006472774 0.006205083 0.0070212306 -0.007672993 0.007851371 -0.0006766806
0.008442887 0.0002755508 0.0098197805 -0.00021617679 0.0049798912 -0.009675089 -0.006179615 -0.004325021
0.008691408 0.0025890882 2.0139218e-05 -0.0067512956 -0.0026184302 0.005150769 -0.004801872 -0.008025399
0.008201573 -0.009420003 -0.007540283 -0.008502716 -0.0015330397 0.006243123 0.0044141 0.0050745895
0.0036883426 -0.008129818 0.008612909 0.0021294053 0.006624941 -0.005109309 -0.0073177326 0.0065159835
0.0019631283 0.007015472 0.0054787113 -0.00022449532 0.007098748 0.007981753 0.0029932468 0.0076104184
0.008487882 -0.0065420098 0.008807796 -0.009722313 -0.008160366 0.004081904 0.00025597302 -0.0087904455
-0.001005076 0.002600601 0.0055698426 -0.0015678108 0.0065618656 0.0076952134 -0.0016595932 -0.007830545
-0.00060527085 0.0077095754 -0.006586717 -0.0035779553 -0.0009376668 -0.007481399 -0.008408649 -0.007101928
-0.004536855 0.009221619 -0.00468969 0.0067702243 -0.009067324 0.005728089 -0.0010523585 0.0034469806
0.008974976 -0.009019761 -0.008146227 0.0070231496 0.006264165 -0.0043526525 0.009662931 0.0063254777
-0.0010597926 0.009862639 -0.007883634 -0.00831896 -0.0050594467 -0.007508039 0.0077194725 0.008784289
-0.008490511 0.0072904504 0.004914136 -0.007050989 0.0062243063 0.0037253972 0.008272604 0.0057493737
0.009749416 -0.0008735647 -0.0049285153 0.0064904974 -0.0075221253 0.007500998 0.009021595 0.0063700764
-0.000884881 0.0042385883 -0.00882766 0.0069989073 -0.0013823688 0.00077063084 -0.002519804 -0.009045722

weight f4 [64, 146]
00000000: e126 68b9 f106 bf39 163d f639 a80f 63b9
00000010: 36de 6a39 6e98 c6b9 d33f 88b9 bf57 5f39
00000020: 7a62 7739 11de 56b9 68a1 36b9 3508 3039
00000030: b072 c439 2ee0 afb9 82b5 4539 f711 673a
00000040: 756d 4d39 7ea6 5fba f916 4b39 3f46 5e3a
00000050: 5206 083a bb82 3ab9 1bf8 d8b8 b212 0fba
00000060: 775c 6339 f5ac 4639 9bec 593a 70c3 00b9
00000070: 4b26 883a e6b5 063a 3187 0aba 5c06 78b9
00000080: 0f52 8439 26a3 69b9 cddf 6fb9 27db 64b9
00000090: a046 40ba a7f6 4139 cf08 133a 300c 083a
000000a0: fab0 94ba d105 53b9 b5be 8939 1a69 363a
000000b0: dcd2 f938 5d68 07ba 0ebe 42b9 98f2 4239
000000c0: 5623 4139 6a93 f838 e5d8 ff39 1432 55ba
000000d0: 8cb0 7239 8b11 9d39 a28a 4139 a077 4039
000000e0: 786e 7039 d6d5 42b9 d92b 8039 80ca 43b9
000000f0: ae93 9ab9 b60f 1f39 601b 80b9 1301 83b9
00000100: 7802 48ba ffb0 86ba 5042 df38 b8ab 7a3a
00000110: 3a28 4739 8b19 af39 6095 3dba eb8a a0b9
00000120: f765 653a a924 5639 4bcf 1eb9 d8db 1eba
00000130: 7263 6b3a 618a 13b9 e2e6 93b9 911d 6eb9
00000140: 71b3 0fba cd47 5539 8cf9 0cba f516 5d39
00000150: 2032 46b9 b433 f939 79d5 47ba 2805 1f3a
00000160: f8f8 6f39 649c 76b9 63b2 62b9 cabe 6a39
00000170: db1d e139 fb2e a83a 6c0e 4039 c80d 1c39
00000180: c9f5 703a 8b19 3c39 d1b0 3eb9 5e56 90b9
00000190: 3b49 07ba 0a95 4db9 51d9 3a39 a5ce 7a39
000001a0: dcfe 65b9 8151 1e39 131c e639 9861 94b8
000001b0: 5cc2 0839 a63b 1c3a 6311 7e39 1491 2539
000001c0: edef 4139 a26d 73b9 432e 09ba 6caf e838
000001d0: ecdb 31b9 6aa4 6d39 fa4e 5139 31d2 5139
000001e0: b2c5 4aba 8607 143a ff1e 42b9 53e3 2e39
000001f0: 2393 42ba ca76 84b9 74e2 2dba 056b 60b9
00000200: 444d 96bb 136b 58bc d381 f83b 3bf4 1abc
00000210: 5f53 0fbb 9e45 a0ba 25fa a039 9d56 2f3c
00000220: efcd eabb 4682 1cbb 7c16 a839 67a0 c9bb
00000230: 2673 a9bb 6a00 5cbb ea28 92bb d39d 0c3b
00000240: d40c 20bc c198 ad3b 2106 ff16 2ed4 d098
00000250: 1c26 279a e190 3318 ea47 9196 b263 3519
00000260: a648 a118 669b 8196 081e b796 f7f7 6417
00000270: ed11 fb19 5db7 af9a b8dd 0c99 759d 1819
00000280: 2550 7896 34e0 199e b2e0 7396 6ffc bf1d
00000290: 125a 8b98 a23b a59d 9a6b 4b9a 13c1 b617
000002a0: 748e 4c1c 8317 091a 49f8 2a97 6474 d99d
000002b0: 8042 799d 2733 a01a 06d9 2da0 ccb1 8d9a
000002c0: 1e95 4c1a 8591 cf16 8654 5b97 6aa6 0b19
000002d0: 0ff1 a216 8e29 fa16 1d11 5f1c 927b 2b9a
000002e0: b191 f59a f494 969a 05a6 4121 fae4 5a16
000002f0: 0d2d 6e98 8a56 fa9b f016 0a9b 1ff5 8f1a
00000300: 6d74 8117 242f 8c99 4bda 0d9e deac 129a
00000310: 9509 209a 1cd8 111d 728c 2697 9492 6098
00000320: ae3b c99d c9ea d996 84da 2e97 7f37 8219
00000330: 1bab 2698 355a 1718 6795 9b18 9c76 c09d
00000340: 198e 0d1d 4587 5118 5c7c 891c 9903 c31f
00000350: 9752 2b9d 06bc 4f9f 18dd 5499 6276 1899
00000360: 7d5d 221c a99a 4818 0a70 009e 0392 8c96
00000370: d5a8 3f1a 41b2 0a1b 7094 339e 68e2 1318
00000380: 14ff bd18 9c8b 3617 75dc 981a 0ecb a997
00000390: 58f2 811a c454 4698 de09 0a17 c6b3 349a
000003a0: 3c95 9a1c 1329 bc9a 6e77 0298 8440 4818
000003b0: 771b 9116 ca91 6c97 fabb 8199 83e5 24a4
000003c0: ff65 dc97 9669 ee9a 7451 f89e 1bc2 1d98
000003d0: c786 7516 1239 3418 f8f9 601a 3954 e316
000003e0: 375a b796 f98c f997 9858 fb16 8238 6398
000003f0: 1721 2f98 f61e 441b 5615 949b 6b45 e99a
-0.00022139728 0.0003643553 0.0004696629 -0.0002165424 0.00022398759 -0.00037879072 -0.00025987494 0.00021299625
0.00023592441 -0.00020491357 -0.00017417001 0.00016787725 0.00037469482 -0.00033545628 0.00018855001 0.00088146277
0.000195911 -0.0008531584 0.00019368147 0.00084790954 0.000518893 -0.00017787043 -0.00010345896 -0.0005457803
0.00021682853 0.00018947183 0.000831315 -0.00012279837 0.0010387389 0.00051387993 -0.00052844273 -0.00023653492
0.0002523814 -0.00022281389 -0.00022876188 -0.00021825415 -0.00073347427 0.000184978 0.00056089176 0.00051898044
-0.0011344247 -0.00020124695 0.00026272764 0.00069584104 0.00011912521 -0.00051653926 -0.00018572083 0.00018591655
0.00018419078 0.000118530195 0.0004879899 -0.00081327674 0.00023144687 0.00029958444 0.00018457559 0.0001835511
0.00022929336 -0.00018580942 0.00024446732 -0.00018672086 -0.000294832 0.00015169274 -0.00024434458 -0.00024987067
-0.00076297624 -0.0010276138 0.0001064582 0.0009562331 0.00018993104 0.00033397632 -0.00072320364 -0.0003062108
0.00087508507 0.00020422287 -0.00015145277 -0.0006059981 0.0008979357 -0.00014070563 -0.00028210046 -0.00022708463
-0.0005481756 0.00020340011 -0.00053777616 0.00021084755 -0.00018901424 0.00047531503 -0.00076230575 0.0006066137
0.00022885564 -0.00023518648 -0.00021619494 0.00022387053 0.00042937588 0.0012831384 0.0001831592 0.00014882453
0.0009191898 0.00017938593 -0.00018185681 -0.0002753017 -0.00051607535 -0.00019605845 0.00017819299 0.00023918839
-0.00021934084 0.00015098417 0.00043889935 -7.075368e-05 0.00013042375 0.0005959816 0.00024229805 0.00015789672
0.00018495294 -0.00023215127 -0.0005233029 0.00011095297 -0.00016961963 0.0002266333 0.00019961214 0.00020010096
-0.00077351474 0.0005646873 -0.00018512829 0.00016678618 -0.0007422438 -0.00025265507 -0.00066331704 -0.00021402173
-0.0045868475 -0.013209122 0.0075838356 -0.009457643 -0.0021869761 -0.0012227779 0.0003070395 0.010701803
-0.0071656625 -0.002388136 0.0003206021 -0.0061531547 -0.0051711975 -0.0033569583 -0.0044604437 0.0021456375
-0.009768683 0.0052977507 4.120134e-25 -5.3980987e-24 -3.4565575e-23 2.3208353e-24 -2.3471398e-25 9.377614e-24
4.169088e-24 -2.0939144e-25 -2.9584197e-25 7.398375e-25 2.5960032e-23 -7.267454e-23 -7.282606e-24 7.890014e-24
-2.005857e-25 -8.146117e-21 -1.9700285e-25 5.081829e-21 -3.6021606e-24 -4.3736795e-21 -4.2066336e-23 1.1810213e-24
6.7682054e-22 2.834993e-23 -5.5243342e-25 -5.7559767e-21 -3.2989255e-21 6.625709e-23 -1.4725477e-19 -5.860348e-23
4.2306667e-23 3.353449e-25 -7.08694e-25 7.219739e-24 2.632464e-25 4.0415903e-25 7.380663e-22 -3.546179e-23
-1.01565e-22 -6.227919e-23 6.561067e-19 1.7682152e-25 -3.0783524e-24 -4.1414955e-22 -1.1422504e-22 5.953943e-23
8.36582e-25 -1.44947e-23 -7.50962e-21 -3.0331733e-23 -3.3094965e-23 1.9302316e-21 -5.381476e-25 -2.9025324e-24
-5.3265964e-21 -3.520641e-25 -5.649824e-25 1.34641e-23 -2.1541383e-24 1.9561835e-24 4.021742e-24 -5.0944616e-21
1.8734657e-21 2.708091e-24 9.098046e-22 8.2591664e-20 -2.267436e-21 -4.3989484e-20 -1.1004793e-23 -7.882123e-24
5.3722134e-22 2.5927478e-24 -6.799433e-21 -2.2710366e-25 3.9634256e-23 1.147269e-22 -9.506877e-21 1.911361e-24
4.9112918e-24 5.8983583e-25 6.3221894e-23 -1.0972627e-24 5.374468e-23 -2.5633696e-24 4.460266e-25 -3.7368347e-23
1.0229441e-21 -7.7821337e-23 -1.6862403e-24 2.5881966e-24 2.3443346e-25 -7.6439724e-25 -1.341421e-23 -3.5756235e-17
-1.4242914e-24 -9.8605076e-23 -2.629171e-20 -2.0389773e-24 1.9833471e-25 2.3293268e-24 4.6524037e-23 3.672698e-25
-2.9622178e-25 -1.6126834e-24 4.0607148e-25 -2.9367592e-24 -2.2634926e-24 1.6222744e-22 -2.4498334e-22 -9.647869e-23

bias f4 [64]
00000000: 59fe eebb 4873 8eb9 5e37 fe3c b9e9 b085
00000010: fb04 f73c 25c2 8980 e5a4 3480 6f3a 54ba
00000020: 2247 be8e 2650 0200 56a3 a0b3 ea55 0200
00000030: 2b14 989f e212 353b cffe 42bb 8931 0200
00000040: 2d0c 0200 1124 0080 a4d8 0000 4fec 91b4
00000050: 91a2 0100 3255 fc3a 5248 123c d848 833c
00000060: 6f8e c83b 21f4 333b bf79 a739 6d9e 433b
00000070: 69c4 0380 1295 5c89 1db2 0000 312f 583d
00000080: 50e5 0100 5c43 c283 8335 7c3b 52b1 d289
00000090: 9885 7ab8 7f23 0280 4d6c c196 9165 503b
000000a0: 2926 0200 3fed 003a be35 25bb 1736 6386
000000b0: 18cf 0100 1ab0 0180 2444 c2b5 4c39 f2b8
000000c0: b417 78ba 67fa 363c 3a89 f53b 6c6d 273c
000000d0: f9f6 c83b cde4 c23c 0365 93b9 5795 0580
000000e0: a39b eeb3 4c96 b63c 7e6e a63a eac9 953c
000000f0: 8457 0280 93e7 1480 a6b0 10bb ec60 5d9d
-0.007293504 -0.00027170242 0.03103226 -1.6636817e-35 0.030153742 -1.2651109e-38 -4.834599e-39 -0.00080958655
-4.6907115e-30 2.12423e-40 -7.480291e-08 2.14491e-40 -6.440787e-20 0.0027629663 -0.0029753929 2.01441e-40
1.88039e-40 -1.2938e-41 7.7716e-41 -2.7180292e-07 1.50153e-40 0.0019251464 0.008928375 0.016025946
0.006120495 0.0027458745 0.0003194343 0.0029849068 -3.45965e-40 -2.655163e-33 6.3895e-41 0.05277938
1.74097e-40 -1.141776e-36 0.0038484044 -5.0722412e-33 -5.9729064e-05 -1.96405e-40 -3.124918e-25 0.003179882
1.9736e-40 0.0004918165 -0.0025209035 -4.2733694e-35 1.66127e-40 -1.55009e-40 -1.4473958e-06 -0.000115501316
-0.0009463981 0.011168099 0.0074931653 0.010218959 0.006132957 0.023790741 -0.00028113284 -5.1275e-40
-1.1111049e-07 0.022288464 0.0012697724 0.018284757 -2.15066e-40 -1.919783e-39 -0.0022077947 -2.9299214e-21

weight f4 [19, 64]
00000000: 7e2d 1e3b b310 ae39 8a0e e3bc e41b 0208
00000010: 1fdc edbc a89d b384 eddf 3f80 b0d6 f0ba
00000020: 01a0 9992 344e 0100 c54b 4a31 e259 1d30
00000030: 8855 8cb8 b4dc bcbb 649b 343a 1920 0000
00000040: f28c 10b5 c31f 6bad d962 efa4 97a0 2e38
00000050: 4aed 4295 fa90 2d3c 2ead 373b 93c6 383c
00000060: 07f6 5b3c e065 70bc f05f 513b 7949 86bc
00000070: 25ec 9881 bf26 140d 1360 24b3 e50e a73c
00000080: 8cdd e2a1 5b1d 9bb5 cde7 593c f9a8 020b
00000090: 848f 82b9 05c4 4600 16f6 60b7 bd40 273c
000000a0: 4062 0100 ccc2 2b3c a2ea 8e3a 3369 2087
000000b0: 9967 c2a0 96dd 0180 b2d8 1eb9 df82 813b
000000c0: ea9c 29ba ea82 8dbc 2146 f4bb fa37 4e3c
000000d0: 7e84 443c 6c5b cf3b 9018 8f3a 1e22 f502
000000e0: 3571 bcb7 6901 efbc 4dde 113c 50e4 583c
000000f0: 3140 201c 5c2b 3993 13fe 8fba ce58 06b8
00000100: 134f 44bc c852 34b9 0a1c 8bbc d854 2606
00000110: 950c 55bc 038a bb81 1645 0180 2e85 05bb
00000120: f126 9c10 a283 0100 a864 0d8d 03b3 1d89
00000130: 8da0 20aa 200c c0bb c8b1 82bc 1264 0000
00000140: e30b c61b 04d8 0000 a6fd c485 b7b8 86b4
00000150: 36ac 0000 eefc e73c bc95 213c 3528 6ebc
00000160: 0eac 7ebb b782 73ba 66b1 983a fc5b 6aba
00000170: 267d 3d80 ecef e88a 3a75 a89d ac71 9b39
00000180: 44e8 0000 6573 861f 385c 23ba b336 1f88
00000190: b269 0f36 a346 0600 b088 6c32 ba53 b1ba
000001a0: c45f 0180 2599 b73b 2392 a73b ef3e 2a06
000001b0: 3288 0180 216d 0080 725b fe34 1591 173b
000001c0: 3b37 7c37 2fde 55bc 7c19 38bb 56f5 24bc
000001d0: 947e 65bb 06ee 333c cdf2 93b9 05b6 4c80
000001e0: e441 f435 6c5d 0abc 7bd9 9cba 0d9a 17bc
000001f0: 245e 0280 9d45 0280 17a0 3ebc db55 f331
00000200: d225 393c 01c2 06b9 2d90 183c 1318 7b86
00000210: 64df 263c 9e54 b382 2e21 0080 410d 913a
00000220: 0671 e890 2025 0200 56d3 0000 4cb6 0080
00000230: d2f9 6631 d36d 8abc 3ba9 443b 0495 0100
00000240: 7340 0a17 5c5b 0200 174c 9c88 70b3 a62e
00000250: d331 0280 2cae 0c3d 63fc e33c 235a 373a
00000260: f6bf aeb9 1c6b 25bb a206 0fba b33f 12bb
00000270: 1996 2500 85cd e70b 9710 5693 a2de 01bc
00000280: 4e45 1181 5cc0 6f9a f52a 2abb 8125 1206
00000290: 3c45 a337 99be 2480 4c86 d1a7 0226 563b
000002a0: 9219 0000 ac26 bdbb e4d5 f9ba efd1 1e85
000002b0: 4b00 0100 ca08 0280 c7fe 12a6 7133 48b9
000002c0: 4859 82ba 767f 9b3b b28a c53b 7725 82bb
000002d0: 52b0 8a3a a01a 8d3c b66a d7ba 6712 0680
000002e0: 9564 42b4 cd74 2f3c 64db 75bb 9073 b8ba
000002f0: e450 0000 e881 0180 37d1 143c 9b65 2f2e
00000300: e561 edbb 9bda 12b9 2c94 c53c 8b28 cc03
00000310: 31d8 c53c d0f7 e981 10fd 0700 f05c bc3b
00000320: e9cd eb8f 49cd 0100 5ecf 0c93 b5b1 8988
00000330: 40f2 1eb5 f51e 6bbc 74bc adbc 0fad 0100
00000340: 226b 3ba5 27b8 0180 3f6f 2a07 86ce a336
00000350: e110 0180 cb14 cdbc 60f8 77bc c1e2 cb3a
00000360: 6de4 813a 29c4 263b 8607 443a 14f3 503b
00000370: cf5a 2180 5857 838c 8ca8 ce9b fa22 813c
00000380: fde9 0180 6964 f821 5688 643b 62ad 0988
00000390: 7918 8a38 96a9 0000 5ef1 15af e9f0 d73b
000003a0: 8194 0180 50f5 ec3b 4fc9 893b 0ddb 0406
000003b0: 8903 0080 df66 0080 44df 3535 ee13 303b
000003c0: ab60 e939 b63a d5b9 8f2e ddbb 3442 d23b
000003d0: 9067 863b ca0d 383c c11d 89b7 2fc9 4780
000003e0: 686d 0438 c375 a53c 1cab ba3a 9a81 c03b
000003f0: ec71 0080 eb2d 8613 d585 bbbb 7bde 34b1
0.0024136002 0.00033200308 -0.027716894 3.9153237e-34 -0.029035626 -4.2227482e-36 -5.865966e-39 -0.0018374529
-9.6951015e-28 1.1989e-40 2.9437939e-09 5.7244e-10 -6.691652e-05 -0.0057636146 0.000688961 1.1514e-41
-5.384928e-07 -1.3365256e-11 -1.0381718e-16 4.1634394e-05 -3.9365176e-26 0.010593647 0.0028026807 0.0112778125
0.013425357 -0.014672726 0.0031948052 -0.016392456 -5.617483e-38 4.565266e-31 -3.8271605e-08 0.020392844
-1.5372999e-18 -1.1556943e-06 0.0132998945 2.516421e-32 -0.0002490246 6.498803e-39 -1.3408737e-05 0.010208306
1.27081e-40 0.010483455 0.0010903666 -1.2067977e-34 -3.2933434e-19 -1.71326e-40 -0.0001514878 0.0039523686
-0.00064702204 -0.017274339 -0.007454649 0.012586588 0.011994479 0.006328037 0.0010917354 3.6019097e-37
-2.2464063e-05 -0.029175477 0.008903098 0.013238028 5.3022525e-22 -2.337166e-27 -0.0010985754 -3.2030795e-05
-0.011981743 -0.00017196976 -0.016981144 3.1283463e-35 -0.013003488 -6.889099e-38 -1.16619e-40 -0.002037357
6.159115e-29 1.39056e-40 -4.357014e-31 -1.8982358e-33 -1.4266557e-13 -0.0058608204 -0.015953913 3.5898e-41
3.2764034e-22 7.7492e-41 -1.8524927e-35 -2.5093843e-07 6.1778e-41 0.028318848 0.00986236 -0.014535953
-0.0038859877 -0.00092891924 0.0011649549 -0.00089400983 -5.64686e-39 -2.2431036e-32 -4.459044e-21 0.00029648596
8.3321e-41 5.694211e-20 -0.0006231698 -4.791162e-34 2.1370183e-06 5.76353e-40 1.3768087e-08 -0.0013528981
-1.2619e-40 0.005602973 0.0051138564 3.2019683e-35 -1.40693e-40 -3.9148e-41 4.7377722e-07 0.0023127247
1.503323e-05 -0.013053461 -0.0028091362 -0.010068258 -0.0035018073 0.010982042 -0.00028218926 -7.044794e-39
1.8198593e-06 -0.008445125 -0.001196667 -0.009253037 -2.17442e-40 -2.08644e-40 -0.011634848 7.0819914e-09
0.011300521 -0.00012851508 0.009311718 -4.722554e-35 0.010185096 -2.6350254e-37 -1.1903e-41 0.0011066572
-9.1682005e-29 1.96989e-40 7.5813e-41 -6.5396e-41 3.3611411e-09 -0.016898071 0.0030008096 1.45292e-40
4.467155e-25 2.16445e-40 -9.406797e-34 7.5806805e-11 -2.01545e-40 0.03434579 0.027830308 0.00069943274
-0.00033330888 -0.0025240844 -0.00054560055 -0.00223158 3.451758e-39 8.9287195e-32 -2.7018777e-27 -0.007926615
-2.6682018e-38 -4.9579428e-23 -0.0025965546 2.7487102e-35 1.9463354e-05 -3.374451e-39 -5.815476e-15 0.0032676463
9.173e-42 -0.0057724323 -0.0019060937 -7.467683e-36 9.194e-41 -1.86824e-40 -5.0999213e-16 -0.0001909265
-0.0009944821 0.004745419 0.0060284967 -0.0039717513 0.0010581112 0.01722461 -0.0016435 -5.57614e-40
-1.810425e-07 0.010709 -0.00375148 -0.0014072526 2.9018e-41 -1.38437e-40 0.009083084 3.9880637e-11
-0.007244336 -0.00014005082 0.024118505 1.1999351e-36 0.02415094 -8.5946276e-38 7.3363e-40 0.0057483837
-2.3252103e-29 1.65478e-40 -1.7772724e-27 -8.287166e-34 -5.9212107e-07 -0.014350642 -0.021208026 1.53917e-40
-1.6255963e-16 -1.57897e-40 1.2822071e-34 4.881821e-06 -9.789e-41 -0.025034329 -0.015134901 0.0015555249
0.0009909995 0.002544651 0.0007477928 0.0031883167 -3.063147e-39 -2.0236314e-31 -3.4188762e-22 0.015763748
-1.75775e-40 1.6831712e-18 0.0034871302 -4.143075e-34 6.584911e-05 6.0836e-41 -1.3637222e-10 0.006589998
-1.45109e-40 0.007231392 0.004204906 2.4987374e-35 -1.268e-42 -3.6903e-41 6.775265e-07 0.0026867348
0.00044513246 -0.0004067027 -0.006749935 0.0064165834 0.004101701 0.011233756 -1.6345528e-05 -6.592491e-39
3.1573145e-05 0.020197755 0.0014241668 0.0058748247 -4.0867e-41 3.3871634e-27 -0.005722741 -2.6319913e-09

bias f4 [19]
00000000: f362 a73e b6eb 8f3a 9d42 4539 fdb2 ccb9
00000010: 17f8 a63e ff27 6eba f6f1 943a 4ef9 bc3a
00000020: 6c6c ad3e 4477 a63e c8bb 7d39 4e29 bd3a
00000030: 7c9d 043b 746c a83e f81d 57ba 1780 a63a
00000040: 93c5 393a 3a23 b13e afed dcbd
0.3269268 0.0010980282 0.000188122 -0.0003904327 0.32611153 -0.00090849394 0.0011363614 0.001441756
0.33871782 0.32512867 0.00024197914 0.0014431865 0.002023547 0.32895243 -0.0008206065 0.0012702969
0.0007086631 0.34597188 -0.10787522
