models/H/model2.pt (torch, 310479 bytes, 8 tensors)

weight f4 [128, 384]
000000 59 df 6e bd 8c 82 74 bd 5a 7a c7 bc 31 de 9b bb
       -0.05831847 -0.05969481 -0.024350334 -0.004756712
000010 44 0d d2 bb 22 75 69 3b 9c ed 95 3b 96 72 ec 3a
       -0.006410273 0.0035622795 0.0045754444 0.001803952
000020 a4 d3 8b bc 18 a6 c9 bc 5e a0 55 bb a2 8a 0a bd
       -0.017068692 -0.024615332 -0.0032596807 -0.033823617
000030 36 50 0c 3d 4a 5d 45 bd db 7e 82 bd 21 26 ba bc
       0.034256183 -0.04818467 -0.06371852 -0.02272326
000040 8a 5c 8a bd 60 7c 0e bd 81 96 97 bd 60 9e be 3c
       -0.06755932 -0.034786582 -0.07401753 0.023268878
000050 3c b9 78 3b b4 97 2f 3c d7 a1 f8 3c 67 d6 08 3c
       0.0037952205 0.010717321 0.030350609 0.008351899
000060 ec c5 67 3c c0 96 d7 bc a0 85 b1 3c 9d 55 6f bc
       0.014146309 -0.026317 0.021670163 -0.014607814
000070 20 f9 a4 3d a0 2a c7 3c 5c df e8 bb 36 b9 14 3c
       0.08055329 0.024312317 -0.0071067046 0.009077361
000080 19 0d b7 bb 84 41 1a bd d8 dd b8 bd 9d 02 d7 bc
       -0.005586278 -0.037660137 -0.09026688 -0.026246363
000090 14 5a cc 3c b5 49 f5 bb b1 bf 96 bb ca 39 81 bd
       0.024945296 -0.007485593 -0.004600488 -0.063098505
0000a0 6e e8 e3 bc 88 e3 a9 bb 7a a9 7b bc be b1 03 bd
       -0.027820792 -0.0051845945 -0.015360231 -0.03215193
0000b0 9d 44 89 bc a4 00 33 bc 76 2a 9c bc 65 b8 12 bc
       -0.01675635 -0.010925446 -0.019063216 -0.008955096
0000c0 a3 29 85 bc ed a9 0f bd af 3b 4e bd 7a 92 e4 bc
       -0.016255205 -0.035074163 -0.050349887 -0.027901877
0000d0 ae b2 13 3d 7a a7 c6 3b 69 e2 5c bb 62 e5 59 3b
       0.036059074 0.006062445 -0.0033704287 0.0033248295
0000e0 0e e5 79 bd 4d 3f 87 bc 7a 78 12 bd 70 80 9e bc
       -0.06100946 -0.016509676 -0.035759427 -0.019348353
0000f0 f1 5a 5a bc f0 d1 d0 bc 07 97 e1 3c 92 21 2a 3c
       -0.013327346 -0.025490731 0.027537836 0.01038398
000100 fa 00 ca 38 a6 c6 41 3b c0 6f d1 3b 04 bf 5d 3c
       9.6322925e-05 0.0029567867 0.0063914955 0.013534311
000110 ff ed 89 b8 cd c1 37 ba e1 53 95 39 b6 2f 35 b9
       -6.576999e-05 -0.00070097746 0.0002848199 -0.00017279279
000120 9c 99 ac 38 30 89 06 bd c5 b6 0b be 09 ae 91 3c
       8.230211e-05 -0.032845676 -0.1364394 0.017783182
000130 37 ea 05 bd ad 28 67 3c 03 29 7b bc 97 ba 0e bd
       -0.032694068 0.014108819 -0.015329602 -0.034845915
000140 ea 60 56 bc 71 2f 46 bd 96 8e 5f bd 74 1e 23 bd
       -0.01308463 -0.048385087 -0.05457934 -0.039823964
000150 a7 d0 65 3c 25 f3 f3 bc 5b 41 8b 3b bb 66 a8 bc
       0.014026797 -0.029779026 0.0042497343 -0.020556798
000160 e8 bb ac 3a 79 93 55 bd 1a 5c 37 bd 21 2d 32 bd
       0.0013178559 -0.052142594 -0.04476557 -0.04350007
000170 2d 42 15 3d 75 df ae 3c e3 e3 d1 bc 35 23 26 bc
       0.036440063 0.021346787 -0.02562136 -0.01014023
000180 0b 22 ba bc 32 e5 3c 3d 7b 31 0b bc 1f 6a 7c 3b
       -0.022721311 0.046117015 -0.008495684 0.0038515402
000190 ef 56 38 3c dc d7 6f bc f0 d4 5a bc 32 68 8b ba
       0.011251195 -0.014638867 -0.013356432 -0.0010635911
0001a0 79 4b 6a 3d d3 fe 9d 3c ea 0d 9b bb 6e a8 9d 3d
       0.057200883 0.019286549 -0.0047318833 0.07698141
0001b0 8c bc 18 bc e0 98 84 3d 26 fc bd bc e3 69 2f b9
       -0.009322297 0.06474471 -0.023191523 -0.00016728746
0001c0 32 e1 2f 3d e0 75 6b bd a2 d0 da bc fa 0a ec 3c
       0.042939372 -0.05748546 -0.026710812 0.028813828
0001d0 7a 91 84 bb e1 2a c6 3c 72 71 29 bd 15 18 a3 3c
       -0.0040456625 0.024190368 -0.041367956 0.019908944
0001e0 d2 28 56 3c d9 c0 6e 3d eb e1 a5 3a e0 67 82 bd
       0.013071256 0.058289383 0.001265583 -0.06367469
0001f0 94 4f 2a 3d e8 99 28 bd db 17 ee bc 00 3a bb bb
       0.041579798 -0.0411624 -0.02906411 -0.0057137012
000200 0d de 5c b9 c7 a5 3b ba 17 96 13 b8 3b f3 bf ba
       -0.00021063555 -0.00071581866 -3.5187313e-05 -0.0014644632
000210 a4 a8 2d bb 31 0d e2 3b 09 8e 17 3b 82 7a 34 b9
       -0.0026498223 0.006898545 0.002312543 -0.00017211775
000220 0c 7e c3 bc bc 14 ec bd 05 ee 2d bc af 1f 85 3d
       -0.023863815 -0.11527392 -0.01061583 0.06500184
000230 19 08 11 3d f0 a7 20 3d 45 27 d7 bb a6 a7 7d bb
       0.035408113 0.039222658 -0.0065659606 -0.0038704663
000240 35 ed 7d bc a3 5f 8b bd 52 76 ce 3b 2d 11 27 3d
       -0.015498449 -0.06805351 0.006300726 0.040787864
000250 c2 d1 00 bd 80 c7 9c 3b af d5 29 bc ba 19 75 3b
       -0.03145004 0.0047845244 -0.010365888 0.0037399367
000260 21 84 1d 3c a0 10 9b 3c 74 05 52 bc ab bf 78 bc
       0.0096140215 0.018928826 -0.012818683 -0.015182416
000270 18 ac b4 3c bc 98 f8 3c c9 5d 96 3c 39 b5 86 3b
       0.022054717 0.030346267 0.018355267 0.004110959
000280 7d a6 f8 3b 9a b2 f9 bc 7c 05 fc bc fe c0 ff 3c
       0.0075882063 -0.030480672 -0.030764334 0.031219956
000290 63 e9 4f 3d 32 d7 fa 3a ec 4c 8e bb 74 da 1a bc
       0.050759684 0.001913762 -0.004342666 -0.009451497
0002a0 32 e8 54 3d 22 9e 30 bd 5f 83 2f 3d 77 e6 07 3c
       0.05197925 -0.043119557 0.042849895 0.008294693
0002b0 e7 9a c8 3c 3d 6e 64 3d ce d2 0a bd 91 97 0d bc
       0.024487926 0.055769194 -0.033892445 -0.008642093
0002c0 5c 7b eb 3b eb 24 bc bd 0a 89 69 bc 78 4a 18 3d
       0.0071863364 -0.09186729 -0.014253864 0.037180394
0002d0 af 57 82 bc e8 1c 6a bb 51 f4 c2 bc f0 51 84 bc
       -0.015910951 -0.0035722796 -0.02379814 -0.016152352
0002e0 1b 04 05 3c 74 cf 9f 3c 6d e8 af bc ac 71 ab bb
       0.008118655 0.019508101 -0.021473134 -0.0052320566
0002f0 96 59 db 3c 04 b4 ad 3c 6f e1 f1 3b 71 ee fe ba
       0.026776116 0.021204002 0.00738161 -0.0019449723
000300 3b 4d 19 3c 2e 98 bf bc 75 f4 47 bd 79 f8 64 3b
       0.009356792 -0.023387995 -0.048817117 0.003493814
000310 82 b6 94 3b 1d fc 21 39 69 ca f0 b9 39 94 d7 b7
       0.004538358 0.00015448076 -0.00045927175 -2.5699019e-05
000320 5f a1 0d 3c 81 3a 40 3d 54 12 7e bd 99 34 34 3b
       0.008644431 0.046930794 -0.062029198 0.002749717
000330 ec 97 9a bc 52 d3 f3 bc 8a c7 a7 ba 14 23 92 38
       -0.01887127 -0.029763851 -0.0012800556 6.968356e-05
000340 63 fd 86 3d 7e b0 06 3c 7c 05 08 be 8c 29 94 3b
       0.065912984 0.00822079 -0.13283342 0.0045215543
000350 5e a1 e6 3c c2 73 1e bd 60 78 8e bb 3a ea 65 ba
       0.028153118 -0.038684614 -0.004347846 -0.0008770559
000360 08 61 89 3b de 25 4b 3a 8d f0 bd bc f6 64 5e 3b
       0.004192475 0.0007749478 -0.023185993 0.003393469
000370 60 f8 1f bb bd a8 aa bb f7 81 70 3a 46 3c 83 ba
       -0.0024409518 -0.0052081035 0.00091746397 -0.001001247
000380 49 3f 3c bc 79 3f b8 bc f2 50 1f bb 7a 10 32 3c
       -0.011489698 -0.022491204 -0.0024309722 0.010868186
000390 8e 85 ed bb ea 38 92 bb ec 84 b5 39 57 f4 2e 34
       -0.007248587 -0.004462351 0.00034622045 1.6293903e-07
0003a0 e2 3c 1a bd 3d 49 90 3c 31 b1 01 be 97 0d 2f bb
       -0.03765572 0.017613048 -0.1266525 -0.002671098
0003b0 d3 84 8b 3d 23 dc 0a bc 38 ea 58 bb 29 e1 1d b9
       0.068124436 -0.008475336 -0.003309859 -0.00015056565
0003c0 a5 9c ca bc 5d 48 18 3d 9c a9 2c bd 23 84 0f 3d
       -0.024732897 0.037178386 -0.04215394 0.035038125
0003d0 81 91 83 3d 25 af 1a 3c dd 6c d6 3c 7c 16 72 3b
       0.06424237 0.009441172 0.026174957 0.0036939671
0003e0 1f 9c b8 bc c4 4c 60 bc 10 36 bc 3b 74 4a d3 3c
       -0.022535382 -0.013690177 0.0057437494 0.025792338
0003f0 79 1a 6a 3c c2 f6 dd 3b 87 13 f1 3b d7 8b 62 3b
       0.014288538 0.0067738006 0.007357064 0.0034568214

bias f4 [128]
000000 57 ec 87 3d 58 7d 44 bd 52 3e 80 3d 3a 38 69 bd
       0.06636875 -0.0479711 0.06261887 -0.056938387
000010 2d b7 4f b1 66 d1 d9 bc 1c d9 36 3d 36 99 11 b9
       -3.0226588e-09 -0.026589107 0.044640645 -0.00013885353
000020 45 e4 af 3d e8 bb 87 bb a3 78 65 3c 46 6e c1 b9
       0.08588461 -0.004142273 0.014005813 -0.0003689399
000030 29 a1 05 bd d9 4e ad 3c b9 4e df 3a 2e c2 1a 3d
       -0.032624397 0.021155762 0.0017037011 0.03778284
000040 3c 21 7f bd c8 c9 97 b9 cb 8d 8b bd bf 29 d8 b9
       -0.062287554 -0.00028951303 -0.06814154 -0.00041229834
000050 36 12 a5 bd c1 e6 02 3c 3b 0c 31 3b 93 00 05 3d
       -0.08060114 0.007989586 0.0027015347 0.03247125
000060 3e d7 70 3d 19 37 ed bd ff 91 39 bc df 16 12 3c
       0.05879902 -0.11582775 -0.011326312 0.008916586
000070 d6 ca 33 3d 0b a3 25 3a 55 6a 50 bc c1 3b d3 bc
       0.04389461 0.0006318546 -0.012720664 -0.025785329
000080 c7 a1 c1 3c ca 0f df 3a ed 89 40 bc 51 75 b9 bd
       0.023636712 0.0017018255 -0.011751634 -0.090555795
000090 85 2f 81 83 96 32 f3 a4 5e 03 c3 aa 0d 9b ee bb
       -7.5928485e-37 -1.0547015e-16 -3.4641295e-13 -0.007281667
0000a0 61 61 8a b8 d9 18 9a bd 40 48 0c bd f7 98 0e 3c
       -6.598491e-05 -0.075242706 -0.03424859 0.008703462
0000b0 2f 18 db b3 51 42 b7 bb a6 4d 00 b1 75 46 d4 b1
       -1.0202381e-07 -0.0055926223 -1.867059e-09 -6.178022e-09
0000c0 5e f1 76 3d 08 c6 cb ab 8c 92 d0 3b d3 5b 98 3b
       0.06028878 -1.4478982e-12 0.006365126 0.004649618
0000d0 4e 34 03 bc ae 5d 02 bd 57 e3 e2 b7 25 59 63 3d
       -0.008008076 -0.03182762 -2.7047163e-05 0.055504937
0000e0 da d0 00 b9 3d ca b9 bc ba a5 71 3c c8 2c 88 bd
       -0.00012284835 -0.022679443 0.014748985 -0.06649166
0000f0 0a 21 0a ba 63 88 4c bd f9 f1 d2 3b 43 34 7b bd
       -0.00052692054 -0.049934756 0.006437537 -0.061329138
000100 e5 f6 64 bd 36 5c d6 ba 23 6d 1c bd b7 f1 c3 3c
       -0.05589952 -0.0016354385 -0.03819002 0.02391897
000110 8f 5a 35 8e aa c1 9e b9 e3 04 40 8f aa 90 9f 3b
       -2.2353575e-30 -0.000302804 -9.467272e-30 0.00486954
000120 a3 4b 9c bd e2 d0 d8 bd f6 a4 44 bd 2e 11 bb bc
       -0.07631614 -0.10586716 -0.04800888 -0.02283534
000130 c4 5a 92 bd c5 b7 94 3b 9e 7e 69 bd 71 d9 ff 3c
       -0.071462184 0.0045385086 -0.057005517 0.031231614
000140 67 a8 89 3b e8 99 b8 ba 16 bb d0 bb 8f bb 29 bc
       0.0042009833 -0.0014083954 -0.0063699586 -0.010359659
000150 32 9d 95 bc 1e 2f 0f bc f5 fb 3e bd 18 42 02 3e
       -0.018263433 -0.008739261 -0.046627004 0.12720525
000160 42 d8 e3 bc 34 9a 5e 3a df 45 63 3c d4 fe c2 bc
       -0.02781308 0.0008491606 0.013871639 -0.023803152
000170 31 11 3f 3d 19 69 62 bd 9f e1 8c bd 9a 42 a6 bd
       0.046647254 -0.05527601 -0.06878971 -0.08118172
000180 5c 62 9e 3b a4 c6 1e bd 7d 07 57 3b b1 8a a9 3b
       0.0048335027 -0.038763657 0.003281086 0.005174004
000190 57 35 9a b5 6f 22 ac b9 b5 ec 28 ba af 4c 75 bb
       -1.1489418e-06 -0.00032832052 -0.00064439635 -0.003742974
0001a0 ed 53 95 b7 e0 da b5 3c f8 21 79 bd 66 53 3c bd
       -1.7801265e-05 0.022199094 -0.06082341 -0.045977972
0001b0 9f 9f 3f bd 6d 5e ab 3c cc 15 c6 bc ef e4 23 3d
       -0.046783086 0.02091905 -0.024180315 0.04001325
0001c0 1f ca bf bd 3c 28 dd bd 14 d8 87 bc 91 2e 8f 3d
       -0.093647234 -0.1079869 -0.016582526 0.06991304
0001d0 f2 6a 01 bb b3 1c b9 bd ec 06 84 3b d0 e0 15 3d
       -0.0019747582 -0.09038677 0.0040291455 0.03659135
0001e0 c5 47 8e bd 31 56 f5 39 44 1c 86 bd 4f e0 6b 3d
       -0.06947283 0.0004679426 -0.0654836 0.057586964
0001f0 03 e8 b1 b9 1a ec a7 bc e7 0f 80 bd 71 e1 2b bd
       -0.00033932933 -0.020498324 -0.06253033 -0.041963045

weight f4 [128, 128]
000000 c4 1f 45 ba 8d 22 b2 3c 37 3c 68 3a 05 7e 92 3c
       -0.0007519687 0.02174499 0.00088590704 0.017882356
000010 a3 3d 01 00 1e 7a d9 3c 25 70 5e 3c a4 3f 57 0f
       1.13947e-40 0.026547488 0.013576542 1.0612575e-29
000020 d6 f1 87 ba e5 6a 69 3c 6e 33 50 bc d0 f2 6a b6
       -0.0010371755 0.014246677 -0.012707574 -3.5010053e-06
000030 b1 c3 bc 3b 7f e8 7e ba 10 c1 1f bb 9e 20 08 3c
       0.005760633 -0.00097239757 -0.0024376549 0.008308558
000040 bf 42 bc 3b 52 6a cd 36 20 2c e6 3b 4b b5 f2 b0
       0.0057452614 6.1218534e-06 0.007024303 -1.7659344e-09
000050 b4 ac 2c 3c 7e 46 a1 3b 5d 85 c0 bb a3 77 cb 3b
       0.0105392225 0.0049217334 -0.005875273 0.00620933
000060 72 7d d8 3b 7f fa e4 3c 55 af e8 3c b0 29 2d bc
       0.006606751 0.027951477 0.028403917 -0.010569021
000070 79 e6 6a 3c d2 79 d0 3b 03 b3 09 3d ce c5 c6 3a
       0.0143371755 0.0063621784 0.033617985 0.0015165152
000080 d5 1f 02 3b 34 dd c9 ba 27 92 10 3d 5b c9 2b 3c
       0.00198554 -0.0015401007 0.03529563 0.010485019
000090 99 35 00 80 b1 33 02 00 cc fe 01 80 7e 4e 3f 3c
       -1.9227e-41 2.02214e-40 -1.8324e-40 0.011676429
0000a0 c8 05 09 36 67 6e 08 3d 5c 65 09 3c c0 2c 9e bc
       2.0417956e-06 0.033308413 0.008385982 -0.019308448
0000b0 0d de 00 00 10 6d 2b 3c 98 4c 00 80 09 d8 5e 9a
       7.9657e-41 0.010463014 -2.7477e-41 -4.6083036e-23
0000c0 de 75 e0 bc c7 8f 00 80 20 fa 3a 3b bd af 4e bc
       -0.027399953 -5.1578e-41 0.0028530434 -0.012615141
0000d0 0d 22 c4 3c 30 14 cc 3c bd 95 72 97 55 6b 03 3c
       0.023942018 0.02491197 -7.8383414e-25 0.008021195
0000e0 aa 77 bd bb 00 cf 89 3c d6 a5 b2 bb 46 d7 be 3c
       -0.0057820873 0.016822338 -0.005451898 0.02329601
0000f0 6b f0 cf 38 93 7e b0 ba 8d 76 ff bb f5 be a1 3c
       9.9153105e-05 -0.0013465456 -0.007796115 0.019744376
000100 9c 91 e3 3c 32 64 d2 3c 6a 29 9d 3b 7e f7 1e 3c
       0.027779393 0.025682542 0.0047961967 0.009702561
000110 2d ed 3c 0a 09 1c d5 38 c1 ba 00 00 97 f6 a2 bc
       9.0964785e-33 0.000101618534 6.6995e-41 -0.019892974
000120 68 1b e0 3c 9e 84 77 3c 03 6f d8 3c 26 4c 0c 3c
       0.027356818 0.015107302 0.026420122 0.008563077
000130 5d dc f2 3b e6 2b 8b bb 75 88 e7 3c d8 29 92 3a
       0.0074115233 -0.0042471765 0.02826331 0.0011151386
000140 4e 3c af bb 9e 62 ca bb 39 87 f1 3c de 07 8b 3c
       -0.005347765 -0.006176307 0.029483424 0.016971525
000150 25 5a 8e bb e2 ec b8 bc ff a2 fd 3c b9 3d 36 3c
       -0.004344242 -0.022573892 0.030961512 0.011123114
000160 b9 5b 65 bd 5f 9d 2c bb 8b 33 ae 3c 5f 43 b8 3c
       -0.055995677 -0.0026338918 0.021264812 0.022493063
000170 42 53 a1 ba ef 80 cd 3c f1 45 d9 3c 49 42 02 3d
       -0.0012308138 0.025085894 0.026522608 0.031801496
000180 b1 60 f7 bb 41 56 f7 3b 0f e2 9f bb 9f 73 99 bb
       -0.0075493683 0.007548124 -0.004879243 -0.0046829726
000190 50 be 00 00 ff 42 dc bb 3a b4 ae bc 3e bc 29 3c
       6.8271e-41 -0.0067218537 -0.021326173 0.010359822
0001a0 20 5d 02 80 b8 b8 be bc ab 0b a8 3c 65 41 d3 3c
       -2.17078e-40 -0.02328144 0.020513376 0.025788018
0001b0 9f af fc 3c ee 39 21 3a 67 d1 d1 3c 09 82 12 bc
       0.030845461 0.0006150295 0.025612546 -0.008942136
0001c0 c0 8f a8 3c de 2c 10 3c d0 6c f8 3c 78 04 9a 3a
       0.020576358 0.00879976 0.030325323 0.0011750599
0001d0 6b 55 27 3c f4 22 cd 3c 58 d4 48 bc d7 5e 7e 3b
       0.010213236 0.025041081 -0.012257658 0.0038813853
0001e0 0b 0f 13 3c 3f 50 da bb 4b ca ba 3c 0f 61 36 bb
       0.0089757545 -0.006662398 0.022801539 -0.0027828848
0001f0 3e a0 d4 31 b3 fe ee 3c 34 71 d1 3c 9b 6e e5 3c
       6.1882295e-09 0.029174184 0.025566675 0.028006842
000200 f6 5c 3c 3b 56 8d a9 3c 4e 6e 9a 3b f5 4c 79 3c
       0.0028741932 0.020697277 0.0047128564 0.015216102
000210 fd 41 00 80 09 53 d9 3c 8a 09 9d 3c 6c b0 ec 17
       -2.3672e-41 0.026528852 0.019169588 1.5295678e-24
000220 ed f6 75 3b 27 c5 37 3c b5 79 10 bc 27 69 c9 b5
       0.0037531212 0.011216438 -0.00881808 -1.500627e-06
000230 20 b6 bb 3b 03 00 96 3b ea 2e 16 bb 9e 1e 53 3c
       0.005728498 0.004577638 -0.0022916147 0.012885718
000240 19 e8 95 3a ea 75 84 37 6e 99 a2 3b 84 b7 25 ab
       0.0011436968 1.5790534e-05 0.004962138 -5.8874455e-13
000250 74 2a 02 3c a0 aa ff 3b 79 1e 19 bc 07 4c 5d 3c
       0.007944692 0.0078023225 -0.009345644 0.013506896
000260 7b 10 65 3c 6e 45 f3 3c 42 26 12 3d 3f 07 f9 bb
       0.01398098 0.029696193 0.035681017 -0.0075997408
000270 b5 a3 a3 3c 3b be 60 3a 63 ca 24 3d 4e 5f 9c b9
       0.019975523 0.00085732684 0.040232074 -0.00029825646
000280 6e fc f1 3b 09 df 15 bb 9c b7 20 3d ae 25 fc 3b
       0.0073848283 -0.0022868535 0.039237604 0.0076949215
000290 02 17 00 80 b2 67 01 00 26 2f 01 00 68 f8 73 3c
       -8.254e-42 1.29034e-40 1.08749e-40 0.014890768
0002a0 8b f0 32 35 fb e1 10 3d ae 4b 53 3c 53 2d bb bc
       6.6660203e-07 0.03537176 0.012896461 -0.02284876
0002b0 6b d9 01 80 5b a7 65 3c a3 ff 00 00 e3 44 e7 14
       -1.6983e-40 0.014016951 9.1705e-41 2.335221e-26
0002c0 bd 42 e0 bc 53 0f 01 80 07 5b 10 3c 97 c1 83 bc
       -0.027375573 -9.7333e-41 0.008810765 -0.016083522
0002d0 fe a6 bb 3c 4f 8b fc 3c 9b 94 b3 0f e2 f4 75 3c
       0.022906777 0.030828146 1.7708003e-29 0.015011998
0002e0 21 b8 c6 bb b4 1a 7e 3c 13 c0 4a ba 7f 1e af 3c
       -0.0060644303 0.015509296 -0.000773431 0.021376846
0002f0 8f 37 1e 39 5e f7 bc bb 3e b4 3f bb d9 bb 90 3c
       0.00015088751 -0.005766793 -0.002925172 0.017667698
000300 86 f2 db 3c ef c1 f1 3c 6d 83 04 3b 4a c8 7c 3c
       0.026849043 0.02951142 0.0020219937 0.015428612
000310 4b c7 b2 0a 8d 00 00 39 ac e5 00 00 82 a2 b5 bc
       1.7215742e-32 0.00012207236 8.2391e-41 -0.022172216
000320 da ad df 3c 24 3e 3c 3c 6d 3d c9 3c d0 a5 b0 3b
       0.027304579 0.011489425 0.024565423 0.00539086
000330 13 0a 84 3b ea b7 d2 ba a8 32 ee 3c 3c 59 35 bb
       0.0040295213 -0.0016076539 0.02907689 -0.0027671596
000340 50 b0 82 bb ed 0f b8 bb 31 ea e3 3c f9 0f ad 3c
       -0.0039883032 -0.005617133 0.027821632 0.02112578
000350 c8 6e b2 3a 64 fb d8 bc 19 e0 07 3d e7 b8 8f 3c
       0.0013613338 -0.02648706 0.0331727 0.017544223
000360 d9 ba 69 bd 4d 87 bf bb 15 8f a8 3c ab 7e b4 3c
       -0.057062957 -0.0058449865 0.02057604 0.022033056
000370 74 3f 16 3b e3 48 d0 3c ac d5 e1 3c c7 11 f7 3c
       0.0022926005 0.02542538 0.027567707 0.030159844
000380 a4 4d 4e bc 80 a3 4b 3b 78 2c be ba cc ff 73 bb
       -0.012591753 0.0031072795 -0.0014509102 -0.0037231324
000390 52 53 02 00 ed 39 e4 bb d4 02 d5 bc f9 0b f0 3b
       2.1356e-40 -0.006964913 -0.026002325 0.007325646
0003a0 eb a6 01 80 b7 11 d5 bc 0b ca 97 3c a2 14 c6 3c
       -1.51714e-40 -0.026009424 0.018528959 0.02417976
0003b0 1a 3b 03 3d 98 82 aa 3b 16 b7 d5 3c 55 04 dd bb
       0.032038786 0.0052035563 0.026088279 -0.006744901
0003c0 c4 36 a1 3c 34 31 b2 3b 9e 0e 0a 3d 58 86 cc 3b
       0.019679435 0.0054379944 0.033705346 0.006241601
0003d0 41 1b 80 3c 7b 41 cb 3c cf 7b 82 bc 11 68 d3 3b
       0.015637996 0.024811497 -0.015928177 0.0064516147
0003e0 0b 10 94 3b 04 84 fc bb f8 0c b0 3c 68 1e 2b 3a
       0.004518514 -0.007706167 0.021490559 0.0006527663
0003f0 6c 20 97 30 e3 d0 f4 3c e1 9e d2 3c 94 4c eb 3c
       1.0995911e-09 0.029884761 0.025710525 0.028723039

bias f4 [128]
000000 71 6e 54 bc 21 c2 60 bc 7f 71 62 bc 13 dc 5d 3c
       -0.012965784 -0.013718159 -0.013821005 0.013541239
000010 8c 48 ba bb c8 f8 55 bc 78 bb 43 bc e5 6f 4f bc
       -0.005684918 -0.013059802 -0.0119465515 -0.012660955
000020 78 97 50 3c a1 db d8 bb ad eb 53 3c 14 7e 59 bc
       0.012731425 -0.0066179787 0.012934607 -0.013274688
000030 79 7d 66 bc e5 f6 5f bc 7f c2 62 3c c4 74 0a 3c
       -0.014068001 -0.013669704 0.013840317 0.008450691
000040 8a 0c 3a 3c cf 20 61 3c e2 6c 4b bc 01 ea 14 3c
       0.011355529 0.013740732 -0.012416096 0.009088994
000050 04 79 5a bc 31 c1 52 3c 41 ea 49 bc f4 e1 dc bc
       -0.013334516 0.012863443 -0.012323917 -0.026963212
000060 17 7b 3d bc e1 93 e4 bb 0d 5b 53 3c 90 bf 51 3c
       -0.011564991 -0.0069756364 0.012900126 0.01280202
000070 7d be 61 bc 9e 0b 4a 3c af 44 4b bc 74 93 5c bc
       -0.013778326 0.012331871 -0.012406512 -0.01346289
000080 01 a5 48 3c c9 7f 48 bc 3f 82 52 3c be d7 4d 3c
       0.012246371 -0.012237498 0.012848436 0.012563644
000090 a1 1e 48 bc c3 44 68 3c 2d cc 17 3c 5a d3 52 3c
       -0.012214334 0.01417655 0.009264988 0.012867773
0000a0 02 e9 5a 3c 63 f3 4b bc df d9 a0 bd 9f 7b 4d 3c
       0.013361217 -0.012448165 -0.078540556 0.012541681
0000b0 cc da 15 3a fc 44 55 bc 8e 67 57 3c 9f 13 5d 3c
       0.0005716502 -0.013016935 0.013147248 0.013493448
0000c0 e1 c1 60 3c 73 a0 61 3c 64 26 40 bc 35 13 51 3c
       0.013718099 0.013771164 -0.011727903 0.012760927
0000d0 12 90 54 bc bb b7 65 3c 72 0a f0 3c 4c 74 56 3c
       -0.012973802 0.014020856 0.029301856 0.013089251
0000e0 8f 0f 4f 3c 8a 09 62 bc ed a9 3f 3c 71 e9 fe 3b
       0.012637987 -0.01379622 0.011698228 0.007779293
0000f0 c7 b2 61 3c 2e f3 43 3c ae 01 60 3c 47 c3 39 3c
       0.013775534 0.011959834 0.0136722755 0.011338062
000100 f3 26 28 bc c6 cf 64 3b d1 b8 25 bc 94 04 48 bc
       -0.0102631925 0.0034913882 -0.010114864 -0.012208123
000110 ca dd aa bb 70 0d 5d bc e3 ac 67 bc 03 be 5a 3c
       -0.0052144276 -0.013491973 -0.0141403405 0.013350966
000120 6a f4 f2 bb 44 1c 61 3c 0f 8a 0c 3c bd a5 64 3c
       -0.0074143903 0.013739649 0.008577838 0.013955531
000130 ff 9b 5a 3c d9 da 45 bc 6f 79 3b 3c 14 dc 52 bc
       0.013342856 -0.012076103 0.011442526 -0.0128698535
000140 4b cb 42 3c d4 dc 60 3c 0b 45 60 bc 14 ab 59 bc
       0.011889289 0.0137245245 -0.013688336 -0.013285417
000150 99 60 30 3c b3 5b 54 bc d0 d8 37 bc 9a 58 50 bc
       0.010765218 -0.012961316 -0.011221126 -0.012716437
000160 f9 ae 47 bc 88 61 54 3c 11 92 4b bc e4 7e 0a bc
       -0.012187713 0.012962706 -0.012424962 -0.008453105
000170 65 b9 54 bc e9 4e 58 bc a0 66 4a bc a3 62 67 bc
       -0.012983655 -0.013202407 -0.012353569 -0.014122638
000180 34 bc 3a 3c f8 f8 5a 3c 26 a0 51 bc 5d 08 60 bc
       0.01139741 0.013365023 -0.01279453 -0.013673869
000190 ff 95 2e bc 78 95 08 3c 9d cc 5c 3c 20 bf 56 bc
       -0.010655879 0.008336417 0.013476518 -0.013107091
0001a0 aa 92 51 3c 7c 7c 5b bc 7f 57 50 3c 2b 7a 4f bc
       0.012791315 -0.013396379 0.012716173 -0.012663404
0001b0 e6 ab 5b 3c 91 93 53 bc 41 87 34 bc 51 4a 41 bc
       0.013407683 -0.012913601 -0.011018575 -0.011797504
0001c0 d0 88 27 3c d5 ab b9 bb 79 4f 4d bc 66 9a ce 3b
       0.01022549 -0.005666236 -0.012531155 0.006305027
0001d0 0e 0b 5f 3c 1c ea 47 3c 85 77 40 bc 06 58 4d 3c
       0.0136134755 0.012201812 -0.011747246 0.012533193
0001e0 96 c0 4d 3c 13 84 15 3c 13 24 57 bc 74 13 5f 3c
       0.012558123 0.009125727 -0.013131159 0.013615478
0001f0 c8 13 61 bc f7 3a 63 3c f7 92 5f 3c 9c 45 59 bc
       -0.013737626 0.013869039 0.013645879 -0.013261225

weight f4 [64, 146]
000000 ec e6 1f bd 0c cf 0b bd 8d 8b 08 bd c1 f8 11 3d
       -0.039038584 -0.034133002 -0.03333621 0.03563762
000010 0b ad 9d bd af ee 20 bd 70 f7 4a bd 82 62 31 bd
       -0.07699021 -0.039290126 -0.04955238 -0.043306835
000020 d2 2e 2e 3d 64 eb 97 bd 87 26 23 3d 0b d9 1b bd
       0.04252512 -0.07417944 0.039831664 -0.038048785
000030 99 bb 03 bd df 45 0d bd f6 80 07 3d bb 43 8b 3d
       -0.03216133 -0.034490462 0.03308197 0.06800028
000040 c7 fd 5c 3d c6 95 0a 3d 81 82 3a bd 90 3d 86 3d
       0.05395296 0.03383424 -0.045534614 0.06554711
000050 ac ca 18 bd 04 10 27 3d fb a6 3e bd 63 cf 04 3e
       -0.037302658 0.040786758 -0.046545964 0.12969737
000060 f8 5f 58 bd 54 99 95 bd 1c 45 23 3d c6 c7 2c 3d
       -0.052825898 -0.07304636 0.03986083 0.042182706
000070 dd 2b 0a bd d1 42 3e 3d 30 00 38 bd 22 05 15 bd
       -0.033733238 0.04645044 -0.044922054 -0.03638185
000080 6d f7 3f 3d 3f 1b 3f bd 5b 5c 26 3d 06 c9 34 3d
       0.046866823 -0.046656843 0.04061542 0.044137023
000090 b2 ec 41 bd 66 85 00 3d 7c d6 84 3d e2 cd 24 3d
       -0.04734487 0.03137722 0.06486222 0.040235408
0000a0 86 16 18 3d c1 ac 37 bd 1b 7a 47 bd 0b df 32 3d
       0.037130855 -0.044842485 -0.048700433 0.04366974
0000b0 30 d0 b5 3d 07 71 1f bd d7 e6 1e 3d 65 21 13 3d
       0.08877599 -0.03892615 0.038794365 0.03592052
0000c0 d7 ee 0b 3d e1 94 07 3d ce 4b 53 bd 73 5a 28 3d
       0.034163322 0.033100966 -0.051585965 0.041101884
0000d0 28 7f 25 bd f7 6a 03 3d ab 21 90 3d 64 c5 1b 3d
       -0.04040447 0.03208443 0.07037672 0.038030043
0000e0 61 f2 30 3d e1 9a 08 bd 3f b7 54 3d 5c 1a 90 3d
       0.0431999 -0.03335083 0.05193257 0.07036278
0000f0 7b 24 0a 3d e3 d4 4b 3d d4 6b 0e 3d f5 b7 5e 3d
       0.033726197 0.04976357 0.0347708 0.054374654
000100 b5 7e 77 bd ac 82 a9 3d b1 0e 7a bd 8b 8e 41 bd
       -0.06042357 0.08276877 -0.061049167 -0.04725508
000110 6a ba 05 3e a3 6f 13 bd 84 be fe bc 42 20 1a 3d
       0.13059393 -0.035995137 -0.031096704 0.03762842
000120 c6 b7 92 bd b0 4e 0a 3d 84 5b 8a 3d e9 5b 04 3d
       -0.07163958 0.03376645 0.067557365 0.032314215
000130 16 a7 18 3d b5 7f 48 bd 27 4b 5c 3d ef a7 27 bd
       0.03726872 -0.048949916 0.05378261 -0.04093164
000140 84 ce 4e 3d 31 b8 0c 3d 0e 72 0d bd 30 26 16 bd
       0.050489917 0.034355346 -0.0345326 -0.036657512
000150 87 0b 6c 3d ea 84 20 bd 33 d8 60 bd 6b e3 2e bd
       0.05762818 -0.039189257 -0.054893684 -0.04269735
000160 91 ab 43 bd 1b 7d 21 3d 9a ab 38 bd 98 38 8b bd
       -0.04777104 0.03942595 -0.045085527 -0.06797904
000170 60 98 25 bd c4 99 1d bd f6 78 3d bd 50 89 02 bd
       -0.04042852 -0.03847672 -0.046257935 -0.031869233
000180 4b b3 5b 3d 45 d1 12 3d 30 32 2a bd 0f 66 0e bd
       0.053637784 0.035844106 -0.04155177 -0.0347653
000190 2d 2d 70 bd a6 28 8c 3d d8 44 14 3d 10 1c 21 bd
       -0.058636833 0.068436906 0.036198467 -0.039333403
0001a0 9c a2 28 3d f3 dc 15 bd 8c 28 2f 3d 12 2e 31 bd
       0.0411707 -0.036587667 0.042763278 -0.043256827
0001b0 91 86 16 3d ea 78 23 bd 08 4c 68 bd 35 44 51 bd
       0.036749426 -0.039910235 -0.056713134 -0.051090438
0001c0 90 bd 77 3d 24 3c 00 3e 3f 33 36 bd 08 d5 99 3d
       0.060483515 0.12522942 -0.044482466 0.075113356
0001d0 c8 b0 0e 3d f5 a4 40 3d b9 31 53 bd 77 5f 35 3d
       0.03483656 0.047032315 -0.05156109 0.044280495
0001e0 0f 06 31 3d db ee 85 3d be 48 1a bd 09 b0 0e 3d
       0.04321867 0.06539699 -0.03766703 0.03483585
0001f0 ce 71 0c bd 53 1a 07 3d 63 a0 0d 3d 40 a4 1a bd
       -0.03428822 0.03298409 0.034576785 -0.037754297
000200 ac 0c 08 ba d9 58 e4 b9 16 99 b6 b8 f1 21 73 b8
       -0.00051898765 -0.00043553745 -8.706951e-05 -5.7967325e-05
000210 1e a3 57 b9 f7 c0 8b b9 33 4f 61 b9 10 79 32 3a
       -0.00020564764 -0.00026655916 -0.00021487176 0.0006808201
000220 b6 04 bb ba 7e 62 c3 b9 64 c6 d6 38 28 a2 20 b9
       -0.0014268372 -0.0003726668 0.00010241268 -0.00015319197
000230 7e ed 30 39 b2 a8 c9 b9 3a 66 4a 39 5e 69 c0 38
       0.0001687314 -0.00038463395 0.00019302304 9.1748996e-05
000240 cd 0c e9 39 45 e0 1f bb 03 46 06 80 3d 8f 06 80
       0.0004445076 -0.002439515 -5.76128e-40 -6.02397e-40
000250 78 3f 07 80 f4 0e 07 00 41 71 02 80 63 37 06 80
       -6.65617e-40 6.48213e-40 -2.24299e-40 -5.70882e-40
000260 b4 f1 05 80 9a 14 06 80 7d 2b 06 00 25 c4 01 80
       -5.45884e-40 -5.58403e-40 5.66614e-40 -1.62199e-40
000270 2f 32 06 00 1e ba 06 80 06 64 07 80 87 f7 06 80
       5.69015e-40 -6.17779e-40 -6.7873e-40 -6.39809e-40
000280 8d 23 07 00 a9 cc 02 00 d0 6d 06 00 cb b7 06 00
       6.55602e-40 2.57089e-40 5.90406e-40 6.16945e-40
000290 98 0b 06 80 66 94 03 00 8d b4 06 80 a6 11 06 00
       -5.55172e-40 3.28742e-40 -6.15782e-40 5.57344e-40
0002a0 e0 1d 06 80 4a 51 24 80 59 20 06 80 53 a4 01 80
       -5.6173e-40 -3.335239e-39 -5.62617e-40 -1.50784e-40
0002b0 c1 2e 06 00 b5 4f 06 00 e0 15 07 80 ae 23 06 00
       5.67785e-40 5.79606e-40 -6.50696e-40 5.63812e-40
0002c0 70 09 06 80 65 d4 06 80 88 36 06 00 43 22 06 80
       -5.54399e-40 -6.27206e-40 5.70575e-40 -5.63304e-40
0002d0 dc 6c 06 00 25 28 06 00 cc 1b 06 80 32 c9 07 00
       5.90064e-40 5.65414e-40 -5.60985e-40 7.15024e-40
0002e0 a1 f2 03 00 b0 31 06 00 be cf 06 00 3b 20 06 80
       3.62545e-40 5.68837e-40 6.25537e-40 -5.62575e-40
0002f0 96 d1 4d 80 e2 21 06 00 42 5e 02 80 f8 2b 06 80
       -7.146518e-39 5.63168e-40 -2.17484e-40 -5.66786e-40
000300 ba 9d 06 00 0a 0c 07 00 d6 b2 06 00 5d 36 07 00
       6.07595e-40 6.47167e-40 6.15167e-40 6.6235e-40
000310 3f 2b 06 80 9f 3a 06 00 0e 50 06 80 de 95 07 00
       -5.66527e-40 5.72042e-40 -5.79731e-40 6.9661e-40
000320 e2 b3 1a 00 f2 35 06 00 cf 1a 06 00 e1 05 07 80
       2.452253e-39 5.70365e-40 5.6063e-40 -6.44957e-40
000330 3b 53 06 00 a1 33 02 00 28 1d 07 00 71 dc 05 00
       5.8087e-40 2.02192e-40 6.53308e-40 5.38257e-40
000340 ca c1 06 00 04 02 06 00 da 80 04 80 c8 6b 02 80
       6.20531e-40 5.51736e-40 -4.13565e-40 -2.22336e-40
000350 87 70 04 80 a6 0c 06 80 a7 9c 0c 80 53 f4 06 80
       -4.07709e-40 -5.5555e-40 -1.158222e-39 -6.3866e-40
000360 94 ed 07 80 99 ae 06 00 17 e6 01 80 11 c4 06 00
       -7.28075e-40 6.13647e-40 -1.74376e-40 6.21348e-40
000370 8a 2c 03 00 58 52 07 00 91 cc 06 00 b8 0e 06 80
       2.91484e-40 6.72388e-40 6.24398e-40 -5.56293e-40
000380 28 57 06 00 8d ff 05 80 1d 54 06 00 8e b7 06 00
       5.82279e-40 -5.50852e-40 5.81187e-40 6.1686e-40
000390 9f fb 06 80 c3 d5 06 80 a2 ac 05 00 38 38 06 80
       -6.41278e-40 -6.27696e-40 5.21106e-40 -5.7118e-40
0003a0 da bf 05 80 dd 0f 06 80 9f 26 06 80 a3 17 06 00
       -5.28001e-40 -5.56704e-40 -5.64868e-40 5.59492e-40
0003b0 ee 2f 06 80 cc ca 02 80 28 4d 06 80 0b 7c 06 80
       -5.68207e-40 -2.56421e-40 -5.78691e-40 -5.95511e-40
0003c0 54 2b 06 80 8b 83 07 80 7c 56 06 00 a7 e0 06 00
       -5.66556e-40 -6.90037e-40 5.82038e-40 6.31603e-40
0003d0 e2 27 06 80 9d 0b 07 80 b8 62 05 80 67 d1 02 00
       -5.6532e-40 -6.47015e-40 -4.94591e-40 2.5879e-40
0003e0 96 0a 07 00 a5 3e 06 80 54 17 06 00 a8 df 06 80
       6.46646e-40 -5.73486e-40 5.59382e-40 -6.31246e-40
0003f0 74 17 06 00 60 04 06 80 4d e1 06 00 61 2a 06 80
       5.59426e-40 -5.52582e-40 6.31836e-40 -5.66216e-40

bias f4 [64]
000000 50 98 b4 3b bc 32 fc 01 2f 44 02 00 7b 3b 59 b5
       0.005511321 9.264298e-38 2.0813e-40 -8.0925355e-07
000010 7e e3 92 ba 7d 05 01 00 42 87 79 3d 43 34 7f 3b
       -0.0011206714 9.3804e-41 0.060920008 0.0038941063
000020 57 2f 00 80 4b 75 87 b9 21 b8 14 3c ae 12 f9 3a
       -1.6982e-41 -0.00025836597 0.009077103 0.0019002759
000030 aa 06 01 80 4b d0 01 80 21 75 bc bb 6e ab b0 a9
       -9.4226e-41 -1.66557e-40 -0.0057512675 -7.8457084e-14
000040 d0 97 00 80 a0 a5 a8 3c ab b3 3e ba 48 61 61 af
       -5.446e-41 0.020586789 -0.00072746974 -2.0498192e-10
000050 30 14 02 80 09 e0 c2 3a 27 4a e2 b9 50 0e 8c ba
       -1.90913e-40 0.0014867793 -0.00043161327 -0.0010685418
000060 2d 8c be b9 65 2b b0 ba d5 3d 86 ba b7 c7 23 89
       -0.00036344063 -0.0013440667 -0.0010241816 -1.9714317e-33
000070 e3 91 98 b9 c1 cb 9f 3b 1e b8 01 00 69 9f 90 3c
       -0.00029100393 0.0048765843 1.57884e-40 0.017654138
000080 30 32 10 95 56 ed 5b 3d 01 2d 00 80 2b 88 01 80
       -2.912016e-26 0.053693138 -1.6144e-41 -1.40683e-40
000090 7c a7 25 3c 99 25 06 b1 29 2a 2b bc 16 3b b4 bb
       0.010110732 -1.9520938e-09 -0.0104470635 -0.0055002077
0000a0 9c da 70 bb db 5b bc 3a 3e 14 5d 3b b5 76 eb 39
       -0.0036751395 0.0014370637 0.003373399 0.00044911137
0000b0 a2 1c 50 bb b2 60 0f 3b 8c 88 00 00 41 6a a8 b3
       -0.0031755348 0.0021877703 4.8984e-41 -7.842437e-08
0000c0 56 ac 80 3c d7 cd 75 3b d7 a7 40 b8 c2 4c 85 3a
       0.015707176 0.0037506723 -4.593268e-05 0.001016997
0000d0 27 88 a3 3a 2e f0 8a 3c 2e 28 4d 3b af 87 62 89
       0.001247649 0.01696023 0.0031304467 -2.7267559e-33
0000e0 9a bc b1 3b f1 3e 7d a0 f7 7f 21 3b 5e 5b 02 80
       0.0054240944 -2.1450759e-19 0.0024642923 -2.16447e-40
0000f0 08 4a 2b 3c b9 b5 92 85 01 33 0d ba 0d 37 ed 3b
       0.010454662 -1.3796528e-35 -0.00053863233 0.0072392286

weight f4 [19, 64]
000000 ee 29 40 3c 81 f0 03 02 79 8e 20 37 ba a5 8f b4
       0.011728747 9.693381e-38 9.569915e-06 -2.6756408e-07
000010 bf 8b e6 b9 cf 92 be ac 8c fb 94 bc 97 36 29 3c
       -0.00043973138 -5.416424e-12 -0.018186353 0.010327957
000020 24 d4 1f 0d f2 9f b0 39 23 5c 32 bc 07 f7 0b 3c
       4.9251013e-31 0.00033688504 -0.010886225 0.008542783
000030 c9 5b 3f 18 02 70 1a b2 00 70 49 3c f3 d6 9d b9
       2.4732511e-24 -8.989447e-09 0.012294769 -0.00030105523
000040 e9 a5 0c 0d c2 36 04 3c de 26 20 3a e1 50 66 39
       4.334054e-31 0.008069696 0.0006109307 0.00021964639
000050 e2 aa 03 32 14 14 59 3c 94 55 8f b7 e4 b9 4e 3a
       7.664058e-09 0.013249416 -1.7086779e-05 0.0007885976
000060 88 18 58 ba 13 70 e2 ba fc ec c2 39 b9 9a 83 b6
       -0.00082434015 -0.0017275832 0.0003717913 -3.9221163e-06
000070 2b 5d 9c b9 e2 95 36 bc 62 fd f0 af 6a cb 5f bc
       -0.00029824054 -0.011144133 -4.3835785e-10 -0.013659338
000080 5b e6 72 b8 eb ab 93 bc 4b b4 79 0e 1b 68 26 b3
       -5.791183e-05 -0.018026313 3.0778428e-30 -3.874457e-08
000090 d7 e7 5d bc 1b 49 7e b8 41 2a 87 3b 2a 8a 8e ba
       -0.013544044 -6.0626404e-05 0.00412491 -0.0010874916
0000a0 8b 6c c3 3a 1d f3 9d 3c c5 36 16 3c 88 d1 49 3c
       0.0014909668 0.019280965 0.0091683315 0.012318023
0000b0 10 3d b8 3b d4 60 e2 bb 33 83 62 35 2f fe a1 39
       0.0056225136 -0.0069085155 8.438248e-07 0.00030897695
0000c0 e7 d1 86 bc 5f a6 25 bc 1b 9f 3c bb 27 ce 58 3b
       -0.016457511 -0.010110467 -0.0028781358 0.003308186
0000d0 df eb 25 bb 46 66 ca 3b 15 ad eb 3b 10 7a 81 8a
       -0.0025317592 0.0061767427 0.007192264 -1.2468163e-32
0000e0 32 9c 3c bc 90 4e 75 21 d1 9b 29 3c 53 d0 9c 37
       -0.011511849 8.3113205e-19 0.010352091 1.8693658e-05
0000f0 62 fc 37 bb 78 5b 16 07 ec c6 84 ba 7b a8 66 bc
       -0.0028074016 1.1311626e-34 -0.0010130084 -0.014078255
000100 5d ba 1b bb 92 0e 57 00 25 b6 d3 2a 5d 97 87 28
       -0.0023762204 7.994915e-39 3.7607517e-13 1.5053654e-14
000110 61 f9 8d ba da 59 01 00 f0 e8 a1 bc c3 64 bf 3a
       -0.0010831767 1.24068e-40 -0.019764394 0.0014602173
000120 02 3f 01 00 43 bf 8a 39 ca 23 d9 bb bc 1b 2e 3b
       1.14438e-40 0.00026463912 -0.006626581 0.0026566824
000130 1e 16 01 80 bd e3 c7 0c c0 9e d3 bb cc b5 66 38
       -9.977e-41 3.079787e-31 -0.0064581335 5.5005585e-05
000140 aa af 01 80 3f 63 91 bc c3 1a 76 ba fa fe 54 b8
       -1.54852e-40 -0.01774752 -0.0009388143 -5.0782204e-05
000150 1b 6e 70 18 7a b3 16 bb 72 a6 58 b9 f0 0d 58 3b
       3.1074862e-24 -0.002299516 -0.00020661371 0.0032967292
000160 eb df 80 b8 a2 9b 0d 3a 40 30 6d b9 6f 0c 97 a7
       -6.1452236e-05 0.0005401914 -0.00022620056 -4.19244e-15
000170 d9 f9 0d 39 d7 71 a7 ba b5 a6 00 00 c0 4f 06 3d
       0.00013539883 -0.0012775016 5.9803e-41 0.0327909
000180 81 9f f2 2d cb c0 74 bc 9a f1 00 00 b7 2a 00 8c
       2.7583049e-11 -0.014938544 8.667e-41 -9.873615e-32
000190 c4 d0 19 bc e7 8e 6c 31 b7 e1 5a 3c 59 81 9c bc
       -0.0093881525 3.442375e-09 0.013359479 -0.019104647
0001a0 48 62 ed 3b 39 2c 01 bc 4a 36 75 3b 7b dd 28 bb
       0.007244382 -0.007884079 0.0037416392 -0.0025766778
0001b0 ef 97 3f 3c ee f5 1e 3c e3 99 01 80 04 a0 e5 b8
       0.011693939 0.009702189 -1.4704e-40 -0.00010949376
0001c0 3b 12 3b bc fd 9b cc bb ab 82 1d 3b 7c c9 54 bb
       -0.011417921 -0.006244181 0.0024034183 -0.0032468727
0001d0 b8 84 51 bb 6c 17 9d 3b 12 f6 af bb da c8 fd 87
       -0.0031969976 0.004794052 -0.00536991 -3.818526e-34
0001e0 88 3a 31 bb 14 1a 02 1f 48 ce cb 3a 33 cf af aa
       -0.0027042944 2.7550142e-20 0.0015549148 -3.1230018e-13
0001f0 b9 ba 20 bc 18 e3 00 86 e8 c5 4f 39 3d 36 96 bb
       -0.009810143 -2.4240966e-35 0.00019814784 -0.0045841024
000200 78 04 d1 3a 14 9b 17 80 e7 7d ba a8 e5 7b 02 00
       0.0015946766 -2.167848e-39 -2.070475e-14 2.28116e-40
000210 47 a0 fa 39 da 09 00 80 10 90 d4 3b d1 91 f3 ba
       0.00047803132 -3.534e-42 0.0064869 -0.0018582885
000220 f6 28 02 80 81 3b 32 b9 2b 69 b3 3a 67 a1 98 3b
       -1.98365e-40 -0.0001699757 0.0013687959 0.0046579125
000230 b0 23 01 80 3b 17 e4 07 8c 66 c1 ba fa 14 a0 2d
       -1.04638e-40 3.431928e-34 -0.0014755293 1.819921e-11
000240 5e a4 01 00 95 5b 87 3b 78 32 84 39 b5 1f 05 b6
       1.508e-40 0.0041307905 0.00025214604 -1.9837e-06
000250 33 e6 63 8f c5 d5 02 3c 98 82 cf b8 92 d7 b8 bb
       -1.1236299e-29 0.007985537 -9.894854e-05 -0.0056409324
000260 03 8f 6e 39 2f b2 a8 ba 5f 67 42 b9 29 c6 8b 23
       0.00022750725 -0.0012870486 -0.0001853979 1.5154334e-17
000270 10 79 84 b9 e9 55 40 3a 98 6e 02 80 7d 7b ca 3c
       -0.000252672 0.00073370204 -2.23345e-40 0.024717087
000280 e5 0e d2 a4 3e 09 9b 3b 10 2d 00 00 58 ef b7 10
       -9.1098215e-17 0.0047313264 1.6165e-41 7.254954e-29
000290 61 e0 07 3a ac 53 c2 b2 09 c7 10 3c 57 ec 4d bb
       0.00051832764 -2.2622622e-08 0.008836516 -0.0031421387
0002a0 38 b7 3f bc 99 64 78 3c 04 9e 02 3b 75 8f 08 3c
       -0.011701398 0.015160703 0.001993061 0.008334984
0002b0 fd b0 76 ba 88 a7 98 bb 22 71 51 00 3d 57 49 b9
       -0.00094105286 -0.004658643 7.47926e-39 -0.00019201353
0002c0 47 77 b4 ba 99 51 3e ba 28 ee f8 bb 39 f2 a8 bb
       -0.0013768458 -0.0007260084 -0.00759675 -0.0051558283
0002d0 20 e6 77 3c 16 2c 6b 3c 4d 59 56 3b d6 74 7d 06
       0.01513055 0.014353773 0.0032707036 4.766985e-35
0002e0 5b fd 83 b8 e9 e8 32 9e c7 6e a3 bb e3 21 f1 a5
       -6.293758e-05 -9.471406e-21 -0.004987571 -4.1829798e-16
0002f0 cc e8 0c 3d 93 14 11 86 f3 28 1c 3a 77 7a 06 ba
       0.0344017 -2.7286584e-35 0.00059570296 -0.0005129943
000300 42 34 c2 3a 70 c2 46 00 28 57 cd 30 7c 1b aa 22
       0.00148166 6.498236e-39 1.4940484e-09 4.6107693e-18
000310 22 71 aa ba 3c 60 01 80 1c 6c c1 3c 14 07 0e 3c
       -0.0013003687 -1.26358e-40 0.02361112 0.00866868
000320 4f 84 01 80 a8 95 56 38 9c 7b c9 3b 29 76 68 3b
       -1.39299e-40 5.1160954e-05 0.0061487686 0.003547082
000330 13 9b 01 00 d1 b0 8f 18 69 0f 63 bb 2d 96 4f 38
       1.47466e-40 3.7143173e-24 -0.0034646636 4.9492508e-05
000340 7a 57 02 00 18 34 d3 3b d8 08 08 ba 7f cb 4a b8
       2.15052e-40 0.006445419 -0.0005189306 -4.8350073e-05
000350 c1 8c 07 21 cc 26 0e 3c 93 b9 cd b9 d1 17 0f 39
       4.5926065e-19 0.008676242 -0.0003923891 0.00013646415
000360 bc 9c d8 b8 54 65 49 39 11 19 88 b9 4c 5e af 28
       -0.00010328877 0.00019206601 -0.00025958617 1.9469798e-14
000370 09 74 9a b8 5c 3d 8d 3b 45 a0 01 00 6f f4 d8 3c
       -7.3649055e-05 0.004310293 1.4933e-40 0.026483743
000380 47 28 9c 2a a8 50 f3 3c 31 9a 00 00 fc f1 89 95
       2.7739115e-13 0.029701546 5.5313e-41 -5.5715643e-26
000390 0f a1 23 3c c4 89 0b 37 74 32 35 ba ca 7e 48 bc
       0.00998713 8.317122e-06 -0.000691212 -0.01223726
0003a0 fd c7 d2 3b c8 df 8c 3c fd 9b 0e 3b d6 1f f8 3b
       0.006432532 0.017196551 0.0021760457 0.0075721545
0003b0 d0 11 bc 3b e2 10 bf bc 55 e9 00 80 f7 84 fa b8
       0.005739428 -0.02332348 -8.3704e-41 -0.000119456956
0003c0 de 25 3e 3c cc 98 d0 3b 94 bf 08 bb e9 43 90 bb
       0.011605708 0.006365871 -0.0020866143 -0.004402627
0003d0 dc 40 f7 ba 68 af 0b 3d 44 a0 75 bb 25 de 9f 87
       -0.0018863934 0.034102827 -0.003747956 -2.4054226e-34
0003e0 5f db 4e 3b 5c 0a 7a 1f e9 6f 3a 3a 87 8c b6 ae
       0.003156386 5.2948128e-20 0.0007112013 -8.3013645e-11
0003f0 0f b4 9c 3c 3c 4a b2 85 33 2d 1f 3a db a6 cb 3b
       0.019128827 -1.6766309e-35 0.0006072104 0.006214959

bias f4 [19]
000000 cf 52 a8 3e 50 77 f0 b9 2b 27 bc b8 eb ff ee 3a
       0.32875678 -0.00045865262 -8.971834e-05 0.0018234228
000010 91 c2 a6 3e 79 2f c9 b7 d5 da ed 39 c7 9e 48 ba
       0.32570317 -2.3983173e-05 0.00045367205 -0.0007653054
000020 a7 65 ad 3e cf 25 a6 3e ba 3e e8 39 cd 52 c9 b8
       0.33866617 0.3245072 0.00044297223 -9.59985e-05
000030 87 f3 07 3b c7 3f a7 3e 2f 8c 23 ba 3e df 14 b9
       0.002074452 0.32665846 -0.00062388455 -0.00014197544
000040 49 a3 78 ba 9c e9 af 3e a1 27 d7 bd
       -0.00094847806 0.34357917 -0.105056055
