models/TEV/N/model2.pt (torch, 422913 bytes, 12 tensors)

weight f4 [128, 384]
0.052459177 -0.029507354 -0.29980308 0.059578996 0.110042386 0.0031245167 -0.078381635 0.10479438
-0.0125493165 0.124767244 0.069935694 -0.14382388 -0.12673178 -0.019737387 -0.07321887 -0.4194636
-0.06441301 -0.07339575 -0.057598736 0.026098236 -0.01654026 0.10564169 0.1981049 0.07527961
-0.24783166 0.090516955 0.2656687 -0.14494589 -0.07807354 0.06951863 0.13101727 0.022823885
0.0010422126 0.09042677 0.085276395 -0.02533896 -0.19750667 0.17345431 0.23877423 -0.34809113
-0.095849045 -0.15687725 -0.0823484 -0.4431884 -0.48602158 -0.5703709 0.02951414 0.09418227
0.2522074 0.042711273 0.030571183 -0.16861178 -0.1684118 -0.12194339 -0.22722103 -0.691065
-0.14651793 -0.057836782 -0.13464285 0.46927562 0.25352612 0.1780371 -0.11639545 -0.14028864
-0.010233713 -0.2087554 0.052898765 0.1454865 -0.18834502 0.08330347 -0.2294526 -0.3970695
-0.23440719 -0.019279731 0.032784354 -0.0057976684 0.05855607 -0.12047409 0.05582082 0.055526398
-0.29369852 -0.058822557 -0.07112601 -0.0645118 0.05085672 0.04957718 -0.004062015 0.1277405
0.10761778 0.0844483 0.084299706 -0.10049903 -0.10710906 -0.2100096 0.04682365 -0.013640236
-0.04505728 -0.071316525 -0.12567376 -0.25206423 -0.088220604 0.20414881 -0.17377038 -0.21432985
-0.2502494 0.038148936 0.15907256 0.029473271 0.07134398 -0.0061051566 -0.10846421 -0.08080856
-0.14667031 0.024082579 0.14001429 0.1267794 0.0148990555 -0.08961178 -0.23095033 -0.04852136
-0.11810706 0.16342655 -0.1543882 -0.10773412 -0.11492278 0.43158406 0.054826047 0.33011228
0.015608265 0.062216304 0.09897324 0.083419144 -0.18570702 -0.05832442 0.022365436 -0.044429034
0.14703365 0.04080661 0.07212412 0.038431432 -0.07321626 0.12956074 -0.032758124 0.050723188
-0.084466904 0.047703106 0.062161654 -0.0059378557 -0.27597016 -0.289356 -0.039133377 0.16604681
0.08532753 -0.10423463 -0.61159486 -0.38607132 -0.29038697 -0.3835954 -0.096251935 0.034903046
-0.01978343 0.07146772 -0.07398092 -0.013767575 -0.028083973 0.113537356 0.036964703 0.19342814
0.16900355 0.011353326 -0.33683366 -0.02607161 0.079882905 0.018456904 0.19805524 0.21435776
0.08190685 -0.12119938 0.36035928 0.13595375 -0.14720789 -0.30584103 -0.24057415 -0.19873971
-0.3825249 -0.2820233 -0.18577328 -0.11500722 -0.2935031 -0.22968777 -0.13623458 -0.016588962
0.011664046 -0.100524865 -0.5222173 -0.37150297 -0.17712544 -0.29491934 -0.14719002 0.00083294924
-0.038083926 0.09022793 -0.0881324 -0.13674296 0.123044245 -0.03823469 0.13410528 -0.1069872
0.022954402 0.057247538 -0.11488871 0.073940285 0.4533132 0.22731927 0.2134732 0.32937688
-0.10253029 -0.26207507 -0.004699852 0.13324472 0.24925478 0.10937513 0.24630424 0.17858085
0.0039476254 0.0033999134 -0.00435701 -0.08484072 -0.04744335 0.13632856 -0.037498627 0.18269606
0.24664958 -0.01487203 -0.07583277 -0.034704134 -0.045534417 -0.028224666 0.0248098 0.25544116
0.09066167 -0.075347066 -0.17773297 -0.05760184 0.17816168 -0.18154047 -0.14664602 0.20976992
0.0964565 -0.20533355 -0.21136826 0.17907904 0.11209399 0.12383215 0.044436093 -0.019326197
00000000: 6fdf 563d 68b9 f1bc ca7f 99be 1b09 743d
00000010: e75d e13d b1c4 4c3b 8d86 a0bd 709e d63d
00000020: a69b 4dbc f885 ff3d 723a 8f3d 9146 13be
00000030: fac5 01be 4db0 a1bc c6f3 95bd efc3 d6be
00000040: f8ea 83bd 8350 96bd a7ec 6bbd f8cb d53c
00000050: 707f 87bc ac5a d83d 03dc 4a3e 322c 9a3d
00000060: 95c7 7dbe f460 b93d ba05 883e b26c 14be
00000070: 05e5 9fbd c95f 8e3d 6429 063e 28f9 ba3c
00000080: da9a 883a ac31 b93d 64a5 ae3d a793 cfbc
00000090: 303f 4abe 029e 313e 3b81 743e 0039 b2be
000000a0: 814c c4bd 6ea4 20be 47a6 a8bd 97e9 e2be
000000b0: d2d7 f8be d403 12bf a3c7 f13c a2e2 c03d
000000c0: 5421 813e 04f2 2e3d 6b70 fa3c 91a8 2cbe
000000d0: 2574 2cbe 75bd f9bd a1ac 68be a3e9 30bf
000000e0: cc08 16be 43e6 6cbd d1df 09be e544 f03e
000000f0: 2dce 813e 5c4f 363e bd60 eebd d3a7 0fbe
00000100: 4eab 27bc fac3 55be 60ac 583d 6afa 143e
00000110: 84dd 40be 029b aa3d 9ff5 6abe b24c cbbe
00000120: 7008 70be 87f0 9dbc e348 063d 5efa bdbb
00000130: 7dd8 6f3d 1fbb f6bd 5fa4 643d a66f 633d
00000140: a75f 96be ecef 70bd 83aa 91bd c31e 84bd
00000150: 234f 503d 7111 4b3d a71a 85bb 68ce 023e
00000160: b666 dc3d 3bf3 ac3d 53a5 ac3d 6fd2 cdbd
00000170: ff5b dbbd c20c 57be 28ca 3f3d 4c7b 5fbc
00000180: fc8d 38bd 660e 92bd 9fb0 00be 900e 81be
00000190: 01ad b4bd 630c 513e ddf0 31be 4979 5bbe
000001a0: b020 80be 0f42 1c3d ebe3 223e ee71 f13c
000001b0: cb1c 923d c40d c8bb 7c22 debd f57e a5bd
000001c0: be30 16be d448 c53c e85f 0f3e 76d2 013e
000001d0: 2b1b 743c 6286 b7bd 3e7e 6cbe 55be 46bd
000001e0: 1de2 f1bd 4a59 273e f117 1ebe b5a3 dcbd
000001f0: a25c ebbd 96f8 dc3e 4791 603d 7a04 a93e
00000200: cfb9 7f3c 86d6 7e3d 7bb2 ca3d a8d7 aa3d
00000210: fb29 3ebe 96e5 6ebd b837 b73c 38fb 35bd
00000220: fd8f 163e d524 273d d0b5 933d 476a 1d3d
00000230: 68f2 95bd 92ab 043e 622d 06bd 1ec3 4f3d
00000240: fcfc acbd 5564 433d 389d 7e3d 5892 c2bb
00000250: f64b 8dbe 7826 94be 524a 20bd 2d08 2a3e
00000260: 33c0 ae3d f778 d5bd 7b91 1cbf 24ab c5be
00000270: 9aad 94be 9e66 c4be bc1f c5bd 7ff6 0e3d
00000280: dc10 a2bc ab5d 923d 4f83 97bd 6591 61bc
00000290: 5c10 e6bc 4686 e83d 4d68 173d 0712 463e
000002a0: 440f 2d3e 4d03 3a3c 7675 acbe 2194 d5bc
000002b0: a699 a33d ef32 973c fece 4a3e 9a80 5b3e
000002c0: c7be a73d 6137 f8bd 0381 b83e 7637 0b3e
000002d0: aabd 16be 3297 9cbe 1259 76be 6c82 4bbe
000002e0: 4eda c3be 5c65 90be 5a3b 3ebe e888 ebbd
000002f0: 0a46 96be 4533 6bbe 1481 0bbe 93e5 87bc
00000300: 8e1a 3f3c fbdf cdbd 08b0 05bf a335 bebe
00000310: 5f60 35be abff 96be fbb8 16be 475a 5a3a
00000320: e4fd 1bbd 6cc9 b83d c27e b4bd 5906 0cbe
00000330: 9ffe fb3d fa9b 1cbd e552 093e 1b1c dbbd
00000340: df0a bc3c 657c 6a3d c64a ebbd 016e 973d
00000350: ab18 e83e 62c6 683e b898 5a3e 16a4 a83e
00000360: 67fb d1bd b42e 86be 3701 9abb 4e71 083e
00000370: a53c 7f3e 1100 e03d 2e37 7c3e e6dd 363e
00000380: 155b 813b 15d1 5e3b 40c5 8ebb f9c0 adbd
00000390: f553 42bd b799 0b3e 2998 19bd ad14 3b3e
000003a0: b591 7c3e d1a9 73bc 364e 9bbd ec25 0ebd
000003b0: 4c82 3abd 6a37 e7bc ec3d cb3c 2fc9 823e
000003c0: d3ac b93d 904f 9abd a2ff 35be e8ef 6bbd
000003d0: 0470 363e bfe5 39be 602a 16be edcd 563e
000003e0: fc8a c53d f542 52be ec70 58be 7f60 373e
000003f0: 8991 e53d b69b fd3d 9f02 363d f951 9ebc

bias f4 [128]
-0.03325001 0.037686687 -0.00060196663 -0.016022658 -0.003619395 0.012824216 0.045192003 -0.038135346
0.009804551 -0.061034627 -0.08002756 -0.047642082 -0.050032023 -0.098114945 -0.005777298 -0.044112667
0.048753846 0.07871056 -0.011442319 -0.00441902 -0.07486494 0.06320857 -0.011491005 0.083076425
-0.11112547 0.0050864746 -0.010607963 -0.012191198 -0.024948083 0.09927256 -0.05623774 -0.07618526
-0.011940361 -0.06736397 0.043348134 0.0051636295 -0.04084746 -0.034506798 -0.014003185 -0.059935845
-0.06928921 0.02675717 -0.07164882 0.048065856 -0.0024151988 -0.036684543 -0.01578187 -0.007016977
-0.103682965 -0.004561269 -0.014176873 -0.011497502 -0.0090398295 -0.002659141 -0.033580855 0.004084534
-0.009047243 0.011136567 0.034977417 0.008582186 -0.050504882 0.010683392 -0.0074056666 -0.01321974
-0.013652504 -0.008666247 -0.041877065 0.017842015 -0.056867447 0.10083395 -0.086443596 -0.10543543
-0.0153341675 -0.060104728 0.04375586 0.071187176 -0.08871987 -3.8710831e-13 0.06710865 -0.013540129
0.08933584 -0.006020066 0.0031358837 -0.020490551 0.0679343 -0.017562214 -0.032527983 -0.048645917
-0.049685292 -0.092563905 -0.059395567 0.0039482675 -0.0035116852 0.12345177 -0.05505626 -0.064004034
-0.07112055 -0.040061057 0.0024843388 -0.06442563 -0.04202604 -0.07793407 0.03582911 0.00272315
-0.053269178 0.06048032 0.014008407 -0.0068185315 -0.056556247 -0.08891843 -0.013664165 0.028071005
-0.046309266 -0.058667768 -0.027051942 -0.026140776 0.042562913 -0.03450198 -1.3222924e-11 0.07861662
-0.06252959 0.01535269 -0.07215395 0.024857024 0.015384523 0.04139427 1.3989123e-05 -0.026822804
00000000: 2a31 08bd 5b5d 1a3d 4ccd 1dba f341 83bc
00000010: 5f33 6dbb a91c 523c 401b 393d cf33 1cbd
00000020: 44a3 203c 72ff 79bd 7de5 a3bd 5824 43bd
00000030: 61ee 4cbd 7df0 c8bd 7d4f bdbb 7caf 34bd
00000040: 1db2 473d 0133 a13d 9078 3bbc 6dcd 90bb
00000050: ca52 99bd 7f73 813d c544 3cbc f923 aa3d
00000060: c095 e3bd 71ac a63b 06cd 2dbc 97bd 47bc
00000070: ec5f ccbc 694f cb3d 8b59 66bd 0507 9cbd
00000080: 81a1 43bc 1ff6 89bd d08d 313d aa33 a93b
00000090: ab4f 27bd 0057 0dbd 9d6d 65bc 4a7f 75bd
000000a0: 80e7 8dbd da31 db3c 9ebc 92bd b4e0 443d
000000b0: 5048 1ebb 8842 16bd fb48 81bc abee e5bb
000000c0: bc57 d4bd b376 95bb 1d46 68bc 0560 3cbc
000000d0: cb1b 14bc fc44 2ebb 148c 09bd 8ed7 853b
000000e0: e33a 14bc 2676 363c 7b44 0f3d 4c9c 0c3c
000000f0: 35de 4ebd 6509 2f3c 3cab f2bb 9c97 58bc
00000100: c1ae 5fbc e0fc 0dbc 4987 2bbd 6b29 923c
00000110: d7ed 68bd 0882 ce3d 5709 b1bd 88ee d7bd
00000120: 293c 7bbc 6030 76bd 5839 333d 95ca 913d
00000130: c3b2 b5bd 30ec d9aa 4370 893d 6bd7 5dbc
00000140: b5f5 b63d f943 c5bb 6683 4d3b cddb a7bc
00000150: 2321 8b3d a2de 8fbc 103c 05bd f140 47bd
00000160: ce82 4bbd 2592 bdbd c448 73bd 7860 813b
00000170: 4d24 66bb 48d4 fc3d ac82 61bd 8c14 83bd
00000180: a7a7 91bd 1017 24bd 4ad0 223b 96f1 83bd
00000190: 7f23 2cbd e69b 9fbd 8bc1 123d e076 323b
000001a0: c830 5abd 36ba 773d 8483 653c fd6d dfbb
000001b0: 86a7 67bd de1a b6bd a9df 5fbc 2af5 e53c
000001c0: c9ae 3dbd 9d4d 70bd 099c ddbc 2e25 d6bc
000001d0: 7356 2e3d f351 0dbd c19e 68ad c001 a13d
000001e0: 840f 80bd d989 7b3c 73c5 93bd f5a0 cb3c
000001f0: 5e0f 7c3c 0a8d 293d d3b2 6a37 7fbb dbbc

weight f4 [128, 128]
-0.10268743 -0.072893105 0.04499563 -0.033876237 0.12445227 0.18360066 0.118142985 -0.029158566
-0.008701128 -0.05232552 -0.026424088 0.04543452 0.119711675 0.14032967 -0.060083285 0.1249104
-0.09997125 -0.015518946 0.3341672 0.020526411 -0.1411668 -0.055591013 -0.252629 -0.45027646
-0.14462344 -0.27526358 0.17805614 -0.058278 0.16791265 -0.1689451 -0.1337717 -0.24773687
-0.09354118 -0.045825474 -0.08016701 0.024903055 -0.10426864 0.14296673 -0.041568913 -0.029766673
-0.06203427 -0.073696665 -0.15264384 -0.038709216 0.0504175 -0.061846763 0.0017409606 -0.13171738
-0.109637775 -0.046634853 0.013873851 0.015817106 0.020888349 0.0063840053 -0.26861644 -0.10097775
-0.104047894 0.01185286 0.2281734 0.15164852 -0.19351658 0.08363004 -0.056316163 -0.17473233
0.06833718 0.12029383 0.0072646146 -0.07603635 -0.20938346 0.04387712 -0.26313117 -0.01392005
-0.17422768 0.024292162 -0.21642345 -0.09547697 0.061084326 9.2926e-41 -0.12177912 -0.054443322
-0.07623038 -0.17719935 -0.0058183847 -0.051678102 -0.005543116 -0.15876605 0.11205155 -0.083584175
-0.111041725 -0.051485717 -0.16392945 0.025763288 -0.13963549 -0.008756457 -0.0734016 -0.15614821
-0.15877108 0.0962289 -0.15552536 0.019251352 0.032917485 0.045409825 -0.09282652 0.15888926
-0.32219884 -0.030761026 -0.23832 -0.080739334 -0.1438417 -0.02112042 -0.036640413 -0.14670634
-0.017745161 -0.021516705 0.021306563 0.07298301 -0.0927804 0.0832481 7.2642e-41 0.10683042
-0.20163529 -0.05374413 -0.1314864 -0.039787114 0.23017593 -0.10941562 -0.095097825 -0.019975692
-0.18734095 -0.09395805 0.19649386 0.05091491 0.048152193 0.3048245 0.090962164 0.044459045
0.13675395 0.034527358 -0.013192397 -0.24668682 -0.07046937 -0.36133975 -0.28336456 -0.19253297
0.106905535 -0.013692432 0.29367894 -0.11478407 -0.21196799 0.047512807 -0.28367528 -0.06828954
-0.06840161 -0.14367636 -0.1558628 0.121532544 0.1584851 0.16894168 -0.18505633 -0.27073246
-0.03113705 -0.08228299 0.058275484 0.20863742 0.0011571865 0.102485985 0.049241006 0.029680718
0.036830824 0.120865434 -0.064945914 -0.13853991 0.08217408 -0.13052396 -0.3079526 0.11033581
0.013535302 0.04740894 0.06670452 0.11763817 0.0017714084 -0.07241686 -0.050465684 -0.11852075
0.04386603 0.099541724 0.073990874 0.09252408 0.0647919 0.06639006 -0.08026283 -0.004183386
-0.10000923 0.1105254 -0.020498933 0.28363594 -0.00029759863 -0.040929075 0.019808313 -0.065009795
-0.061767906 -0.11699323 -0.036662504 0.045423903 -0.012183435 1.93591e-40 -0.039987966 0.09194411
0.025987476 0.009714956 0.18901137 0.0042033163 -0.025384484 -0.297416 0.016180478 -0.17771998
-0.0457623 -0.29905635 -0.20444842 0.13431762 0.36776972 -0.024371417 -0.00048142986 -0.1307963
-0.28782487 -0.22165617 -0.10145807 -0.07123441 0.024841415 0.024002694 -0.036142606 0.026504533
-0.22695988 0.23389222 0.06733445 0.07320529 -0.09837095 -0.13062394 0.08252213 0.06382954
-0.03622183 -0.21804045 0.025012968 0.015732521 0.16910791 -0.010229213 9.328001e-26 0.10173152
-0.21608572 0.024236199 -0.09623001 0.04072024 0.40403047 0.016539792 -0.035828646 -0.125298
00000000: ca4d d2bd fb48 95bd 564d 383d cfc1 0abd
00000010: d5e0 fe3d d001 3c3e f3f4 f13d f2dd eebc
00000020: 2d8f 0ebc 4953 56bd 5477 d8bc 8c19 3a3d
00000030: 652b f53d 95b2 0f3e e419 76bd 06d1 ff3d
00000040: babd ccbd 2d43 7ebc f717 ab3e 0127 a83c
00000050: 088e 10be 67b3 63bd 9758 81be a38a e6be
00000060: 2b18 14be 59ef 8cbe 5954 363e eab4 6ebd
00000070: 4bf1 2b3e f2ff 2cbe 73fb 08be bcae 7dbe
00000080: 8592 bfbd 7eb3 3bbd 9a2e a4bd 7e01 cc3c
00000090: cc8a d5bd df65 123e 2a44 2abd 3dd9 f3bc
000000a0: a617 7ebd 47ee 96bd ab4e 1cbe 8e8d 1ebd
000000b0: 9582 4e3d 0853 7dbd f230 e43a ece0 06be
000000c0: c589 e0bd 3004 3fbd 264f 633c e092 813c
000000d0: 0b1e ab3c eb30 d13b 1888 89be 6ccd cebd
000000e0: 1017 d5bd 8032 423c 4aa6 693e c049 1b3e
000000f0: 3629 46be 3a46 ab3d c7ab 66bd 08ed 32be
00000100: 5df4 8b3d 9d5c f63d 010c ee3b f2b8 9bbd
00000110: 9e68 56be 7fb8 333d 21b9 86be ec10 64bc
00000120: be68 32be 5b00 c73c 1c9e 5dbe 6e89 c3bd
00000130: 8f33 7a3d 0a03 0100 5567 f9bd f6ff 5ebd
00000140: ac1e 9cbd bf73 35be 26a8 bebb 6bac 53bd
00000150: 07a3 b5bb 9193 22be 487b e53d 2e2e abbd
00000160: d869 e3bd b0e2 52bd 1fdd 27be 880d d33c
00000170: 9bfc 0ebe 3e77 0fbc 9453 96bd 51e5 1fbe
00000180: e394 22be a813 c53d 0a42 1fbe 03b5 9d3c
00000190: 7cd4 063d a7ff 393d d51b bebd deb3 223e
000001a0: 3ff7 a4be 8cfe fbbc 280a 74be aa5a a5bd
000001b0: 3d4b 13be bb04 adbc 4214 16bd 303a 16be
000001c0: 4d5e 91bc cd43 b0bc 1a8b ae3c 1e78 953d
000001d0: a603 bebd fb7d aa3d 7fca 0000 e8c9 da3d
000001e0: 7b79 4ebe ce22 5cbd 5fa4 06be d0f7 22bd
000001f0: 3db3 6b3e 4c15 e0bd a6c2 c2bd 10a4 a3bc
00000200: 4ed6 3fbe 146d c0bd b035 493e 278c 503d
00000210: 3c3b 453d f511 9c3e 5f4a ba3d b01a 363d
00000220: 3a09 0c3e 8f6c 0d3d ec24 58bc 789b 7cbe
00000230: 3f52 90bd 8601 b9be 2915 91be 5d27 45be
00000240: 4af1 da3d 3956 60bc 165d 963e e913 ebbd
00000250: 230e 59be ca9c 423d e33d 91be 63db 8bbd
00000260: 2516 8cbd e51f 13be 7f9a 1fbe 0ee6 f83d
00000270: eb49 223e 0cff 2c3e 687f 3dbe 729d 8abe
00000280: 2013 ffbc fc83 a8bd 46b2 6e3d 0ca5 553e
00000290: bcac 973a 2ce4 d13d f0b0 493d fa24 f33c
000002a0: ebdb 163d 4c88 f73d 5d02 85bd 68dd 0dbe
000002b0: e24a a83d 13a8 05be f7ab 9dbe bef7 e13d
000002c0: 2cc3 5d3c e02f 423d 619c 883d 48ec f03d
000002d0: 9a2e e83a 4a4f 94bd 1bb5 4ebd 02bb f2bd
000002e0: deac 333d 88dc cb3d 8788 973d 447d bd3d
000002f0: 9eb1 843d 83f7 873d d760 a4bd c914 89bb
00000300: a4d1 ccbd 245b e23d 61ed a7bc bb38 913e
00000310: 0307 9cb9 3fa5 27bd 0b45 a23c db23 85bd
00000320: 5800 7dbd 269a efbd 6c2b 16bd 6a0e 3a3d
00000330: 089d 47bc a71b 0200 6cca 23bd 324d bc3d
00000340: b0e3 d43c 7b2b 1f3c 328c 413e f9bb 893b
00000350: 1ff3 cfbc e946 98be ec8c 843c 3afc 35be
00000360: 4071 3bbd ea1d 99be ed5a 51be 8f8a 093e
00000370: 504c bc3e 91a6 c7bc 6c68 fcb9 77ef 05be
00000380: c85d 93be d6f9 62be 40c9 cfbd 59e3 91bd
00000390: 3980 cb3c 4ca1 c43c 450a 14bd 0920 d93c
000003a0: 2c68 68be 7181 6f3e a5e6 893d a8ec 953d
000003b0: b576 c9bd 48c2 05be 5d01 a93d 10b9 823d
000003c0: 575d 14bd ff45 5fbe ffe7 cc3c 7de1 803c
000003d0: a02a 2d3e 6e98 27bc 3bf3 e615 9d58 d03d
000003e0: 9345 5dbe fe8a c63c 3d14 c5bd 44ca 263d
000003f0: 15dd ce3e 757e 873c 0fc1 12bd 1e4e 00be

bias f4 [128]
0.09556631 0.06676008 -0.046383448 -0.05456826 0.014018432 0.11375812 -0.09111133 0.07858846
0.05465811 -0.054446623 0.067586586 0.014085021 0.062202558 0.06077767 0.019104574 -0.09641984
0.03186529 0.005567911 -0.023797698 -0.030719062 0.06598847 -0.07397762 0.038664266 0.00065907114
-0.026354048 0.06296751 0.037370216 -0.015252569 -0.030861273 0.06843315 -0.069861636 0.06106261
-0.058419477 -0.061012078 -0.0058284644 -0.06457764 -0.031522702 -0.0848155 0.026399788 -0.047665842
0.03367896 0.049181487 -0.021809986 -0.01623743 -0.05808891 0.053420577 0.033749603 -0.0453544
-0.0021387474 0.023243336 -0.044873063 0.015168944 0.05607851 -0.05494147 -0.0036198106 -0.040036324
0.050961208 -0.015180987 -0.039756235 0.0772515 -0.011086031 0.0010141921 -0.0067359395 -0.013918295
0.030895974 0.028621783 -0.020661218 -0.08028334 0.06345684 0.08491133 -0.009656936 0.010863691
-0.0061693117 0.022250554 -0.06944036 0.0154529195 -0.06582819 0.0803135 0.087702386 0.072433926
-0.010305474 0.03444254 -0.05503809 -0.08906316 0.032225035 0.012940028 -0.06350701 0.089985065
-0.051907655 -0.014646931 -0.10298289 0.101390384 -0.050225362 -0.04502418 -0.034585435 0.07148774
0.029394593 -0.048481226 0.032331225 -0.069324866 -0.019906659 -0.026818907 -0.016163498 0.0789128
-0.015469579 -0.09344461 -0.038103018 -0.08214353 -0.074076444 0.0118880635 -0.025842851 0.05809641
-0.02396849 -0.023211146 -0.028209243 0.059152033 0.097050816 -0.04219483 -0.044835664 0.018543962
-0.006891841 -0.041854795 0.003451356 -0.037132192 -0.022461364 -0.00416686 0.007598593 0.04305457
00000000: 45b8 c33d 82b9 883d 92fc 3dbd f882 5fbd
00000010: 91ad 653c 04fa e83d 9498 babd fdf2 a03d
00000020: 2fe1 5f3d 6c03 5fbd d66a 8a3d dcc4 663c
00000030: 1cc8 7e3d 02f2 783d 3281 9c3c c477 c5bd
00000040: 2e85 023d 0673 b63b 64f3 c2bc 8ba6 fbbc
00000050: f724 873d 9481 97bd 6c5e 1e3d 84c5 2c3a
00000060: 72e4 d7bc 1cf5 803d 8311 193d e9e5 79bc
00000070: c8d0 fcbc ae26 8c3d 9e13 8fbd ca1c 7a3d
00000080: 4349 6fbd cde7 79bd b4fc bebb 4841 84bd
00000090: f31d 01bd c0b3 adbd 5e44 d83c 423d 43bd
000000a0: f3f2 093d 8772 493d dbaa b2bc 5c04 85bc
000000b0: a3ee 6dbd 89cf 5a3d 063d 0a3d 89c5 39bd
000000c0: 3a2a 0cbb cf68 be3c d1cc 37bd 2a87 783c
000000d0: 94b2 653d 4f0a 61bd 583a 6dbb 21fd 23bd
000000e0: b3bc 503d adb9 78bc 6fd7 22bd 0936 9e3d
000000f0: 2fa2 35bc a4ee 843a 28b9 dcbb 8f09 64bc
00000100: 8e19 fd3c 3b78 ea3c b741 a9bc 976b a4bd
00000110: a9f5 813d fee5 ad3d 2038 1ebc 9ffd 313c
00000120: f027 cabb cb46 b63c bf36 8ebd 3e2e 7d3c
00000130: eed0 86bd 677b a43d 4f9d b33d 3d58 943d
00000140: 4ad8 28bc 9f13 0d3d 9f6f 61bd bf66 b6bd
00000150: 66fe 033d 6902 543c f70f 82bd 174a b83d
00000160: 1f9d 54bd aef9 6fbc b2e8 d2bd c3a5 cf3d
00000170: 1cb9 4dbd 466b 38bd 75a9 0dbd 2a68 923d
00000180: eecc f03c 4094 46bd bf6d 043d 32fa 8dbd
00000190: 4a13 a3bc 53b3 dbbc 5069 84bc 099d a13d
000001a0: 1e74 7dbc e35f bfbd e911 1cbd de3a a8bd
000001b0: 64b5 97bd 27c6 423c 63b4 d3bc 80f6 6d3d
000001c0: 9159 c4bc 4d25 bebc 1217 e7bc 6749 723d
000001d0: 94c2 c63d 7cd4 2cbd 9aa5 37bd 82e9 973c
000001e0: f4d4 e1bb ef6f 2bbd 2530 623b ed17 18bd
000001f0: e500 b8bc 288a 88bb 9efd f83b fd59 303d

weight f4 [128, 224]
0.03465132 0.14830124 -0.20394616 -0.042255256 -0.08268999 -0.07893722 -0.13743201 -0.027360307
0.0031611186 0.053118877 0.10913738 -0.16072357 -0.11519212 0.07398372 0.043091133 0.08475322
0.07422632 -0.20017204 -0.2419484 -0.050264325 0.02660901 0.0132022835 -0.09634888 -0.017291939
0.19963115 -0.071652204 -0.105995685 -0.021401336 -0.071110986 0.04948753 0.07318528 0.049699713
-0.1392921 0.030395245 0.017942699 0.00095084944 0.1526342 -0.26061505 0.0903031 0.03627506
0.043090373 -0.07087402 0.196439 0.029199816 -0.034199376 0.18683392 0.014716303 0.034415103
0.09159983 -0.09809335 0.114683144 0.016715305 0.10264246 0.16050959 -0.2912456 0.0010244023
0.006484861 -0.013464504 -0.11461886 -0.057471447 -0.009173374 0.062440276 0.040938806 -0.10722585
-0.091155104 0.09430552 -0.061137676 -0.30834392 -0.020102844 -0.06972898 -0.0083841365 0.01005964
0.072235286 0.03102809 -0.0070574353 -0.1472567 -0.057717036 -0.18665189 0.018796269 -0.071983635
-0.13507815 0.022980008 0.042758368 -0.117213905 0.08101294 -0.09005137 -0.12781684 0.06695681
0.024827646 0.09394669 0.023792686 0.023383724 -0.04388191 -0.00961892 0.06027075 0.08900059
-0.17607708 -0.042628553 0.0774864 0.037498787 -0.014899711 0.14019471 -0.11109808 -0.11116374
-0.08423522 0.0651241 -0.017963238 -0.032508712 0.085390024 -0.04297335 0.05497427 0.0022513624
0.045310784 -0.1040781 0.044120878 0.04879118 -0.0016310386 -0.07649557 -0.028127508 -0.0009030738
0.12904593 -0.010874855 -0.0021149267 0.12491357 -0.065352 -0.11782292 0.08372081 0.12810059
-2.8923751e-33 -5.779264e-27 -9.6480964e-23 5.062976e-08 0.002925564 -0.0018477762 0.003958797 0.025924535
0.026760789 0.016614407 -0.0038221646 0.010105713 0.067980446 0.100722834 0.004086076 -0.08756818
-0.052849587 -0.054277338 -0.06260917 -0.15236884 -0.010508297 0.037092905 0.009944944 0.09589176
-0.16741142 0.094987534 0.11162303 -0.052789405 0.07171974 0.38023937 0.26628843 0.05349438
0.007848416 0.18617016 0.19861549 -0.11722294 -0.16637534 -0.20162356 -0.040656853 0.0059760544
-0.07847399 0.028514214 0.2089876 0.26444006 -0.0006448796 -0.0032099725 -0.00023445845 -2.614769e-06
0.0015385924 0.0039237654 0.010777058 0.011299674 -0.0071989694 -0.0077790576 -0.06849151 -0.06623865
-0.17886302 -0.07417439 -0.019498993 -0.052656855 0.053877104 0.17438857 0.12792306 0.1934435
-0.081536666 0.03145593 -0.027056081 0.010267307 -0.08346453 -0.090657555 0.021898303 0.19092976
-0.09287707 0.06310856 -0.09364835 -0.06660014 0.02612117 0.1019312 -0.0009186071 -0.03425657
0.026038727 -0.09219918 -0.05411108 0.0053001866 0.031144701 -0.035606682 -0.103229225 -0.068489
0.16216014 0.06721474 0.050610043 0.0137744695 -0.05307859 -0.040460203 0.06862152 -0.0053493655
0.03249271 -0.012477409 -0.03901246 -0.055240907 -0.0023629218 -0.036596537 0.004942728 0.014357523
-0.07538028 -0.072750136 -0.029181063 0.15845664 0.03170079 0.10518864 0.07872194 -3.1392872e-05
0.034937263 0.13812669 -0.022673558 0.016879583 -0.036011644 0.027205221 0.017910626 0.08176526
-0.03741777 -0.12523042 -0.099074095 -0.06521758 -0.054591496 -0.03630591 -0.06478672 -0.03967709
00000000: 8bee 0d3d 48dc 173e 43d7 50be d913 2dbd
00000010: 5f59 a9bd d6a9 a1bd faba 0cbe b922 e0bc
00000020: c52a 4f3b 2e93 593d 6b83 df3d b894 24be
00000030: d9e9 ebbd c784 973d 5480 303d 1993 ad3d
00000040: f803 983d e6f9 4cbe 52c1 77be f7e1 4dbd
00000050: 23fb d93c 644e 583c 9052 c5bd d3a7 8dbc
00000060: 1c6c 4c3e 64be 92bd 4414 d9bd db51 afbc
00000070: a3a2 91bd 70b3 4a3d 2ae2 953d ed91 4b3d
00000080: 97a2 0ebe 73ff f83c 91fc 923c 6d42 793a
00000090: 244c 1c3e 566f 85be d5f0 b83d 2895 143d
000000a0: 887f 303d 6626 91bd 4e27 493e 7434 ef3c
000000b0: a514 0cbd 6451 3f3e a61c 713c daf6 0c3d
000000c0: b198 bb3d 2be5 c8bd ffde ea3d 89ee 883c
000000d0: 3636 d23d a05c 243e 251e 95be 3d45 863a
000000e0: f57e d43b 399a 5cbc 4bbd eabd 2e67 6bbd
000000f0: eb4b 16bc 60c1 7f3d 73af 273d 3a99 dbbd
00000100: 87af babd 4123 c13d 806b 7abd 41df 9dbe
00000110: b8ae a4bc 11ce 8ebd 9e5d 09bc 30d1 243c
00000120: 18f0 933d 9f2e fe3c 0f42 e7bb 76ca 16be
00000130: b368 6cbd ac21 3fbe a2fa 993c 286c 93bd
00000140: ed51 0abe 9240 bc3c 6623 2f3d d80d f0bd
00000150: 1dea a53d da6c b8bd 6be2 02be a720 893d
00000160: 5963 cb3c 1f67 c03d e1e8 c23c 398f bf3c
00000170: 85bd 33bd ad98 1dbc 76de 763d f145 b63d
00000180: 8d4d 34be 479b 2ebd 31b1 9e3d 5498 193d
00000190: eb1d 74bc 348f 0f3e 6487 e3bd d1a9 e3bd
000001a0: 8483 acbd c95f 853d a427 93bc db27 05bd
000001b0: f7e0 ae3d d304 30bd b32c 613d 988b 133b
000001c0: cd97 393d e626 d5bd 18b8 343d 43d9 473d
000001d0: 93c8 d5ba b6a9 9cbd a96b e6bc 42bc 6cba
000001e0: 9e24 043e 732c 32bc 959a 0abb b0d2 ff3d
000001f0: 45d7 85bd 254d f1bd d175 ab3d cd2c 033e
00000200: 044a 7089 b3f0 e493 d346 e99a 0374 5933
00000210: d2ba 3f3b 1531 f2ba ccb8 813b b15f d43c
00000220: 7139 db3c f01a 883c 487d 7abb 6f92 253c
00000230: 5539 8b3d c647 ce3d 7de4 853b f256 b3bd
00000240: cf78 58bd ea51 5ebd 3d39 80bd 9406 1cbe
00000250: fe2a 2cbc bbee 173d 1ef0 223c e662 c43d
00000260: e66d 2bbe d388 c23d 9d9a e43d b439 58bd
00000270: cde1 923d bcae c23e f556 883e ec1c 5b3d
00000280: a596 003c 64a3 3e3e dc61 4b3e 9512 f0bd
00000290: 4c5e 2abe 6876 4ebe cd87 26bd c7d2 c33b
000002a0: f9b6 a0bd a496 e93c d800 563e b064 873e
000002b0: 230d 29ba 675e 52bb f6d8 75b9 6479 2fb6
000002c0: 98aa c93a ee92 803b 4292 303c 4522 393c
000002d0: 55e5 ebbb 77e7 febb 4745 8cbd 21a8 87bd
000002e0: de27 37be bee8 97bd 5abc 9fbc b7ae 57bd
000002f0: 3dae 5c3d eb92 323e 43fe 023e 0e16 463e
00000300: b2fc a6bd efd7 003d b7a4 ddbc 3538 283c
00000310: 74ef aabd abaa b9bd 1264 b33c 1783 433e
00000320: 5536 bebd 103f 813d b5ca bfbd a765 88bd
00000330: 10fc d53c 4ec1 d03d aece 70ba 9e50 0cbd
00000340: 2b4f d53c ecd2 bcbd 94a3 5dbd 30ad ad3b
00000350: 2c23 ff3c 50d8 11bd d869 d3bd f643 8cbd
00000360: 4f0d 263e e2a7 893d 7a4c 4f3d 50ae 613c
00000370: f068 59bd 99b9 25bd 7189 8c3d bb49 afbb
00000380: 1317 053d 0c6e 4cbc 87cb 1fbd 4a44 62bd
00000390: 40db 1abb 40e6 15bd 9cf6 a13b d13b 6b3c
000003a0: fa60 9abd 06fe 94bd 200d efbc 7542 223e
000003b0: b0d8 013d 246d d73d f838 a13d d7ab 03b8
000003c0: 601a 0f3d 1571 0d3e e6bd b9bc 0d47 8a3c
000003d0: f280 13bd 7cdd de3c 4eb9 923c 8b74 a73d
000003e0: 6043 19bd 673c 00be 5ce7 cabd cb90 85bd
000003f0: 559b 5fbd 82b5 14bd e6ae 84bd 7284 22bd

bias f4 [128]
-0.1053757 -0.09223784 -0.09189236 0.002671156 -0.08269086 -0.004726583 -0.09362067 -0.019240484
-0.12181964 -0.0005492866 -0.028251387 0.08878621 -0.11215396 -0.08417572 -0.019503614 -0.0064547295
-0.055545736 -0.035285447 -0.00642537 -0.021013288 -0.07821626 -0.08758177 -0.031137563 -0.041776568
-0.000506578 -7.373226e-08 -0.06519973 -0.0955802 -0.1549988 -0.004970545 -0.054702275 -0.123475395
-0.068435185 0.006704945 0.053257667 0.076181374 -0.0072034867 0.021256918 -0.0033038696 -0.07951519
0.047782294 -0.053725176 -0.09882853 -7.841307e-30 -0.048641045 -0.034344066 0.053181306 -0.046857696
-0.09327265 -0.05462644 -0.022863701 0.035673473 0.025068086 0.033020116 0.07098763 -0.018242795
-0.062920585 -0.109654374 -0.005205313 -0.09347585 -0.015239768 -0.048482753 -0.009960818 -0.05838449
-0.0005444698 -0.013424231 -0.03509468 -1.8633255e-12 0.013485124 -0.017886663 -0.11909004 -0.06457736
-0.0148100965 -0.09504145 -0.0003628866 -0.02012805 -0.011064864 -0.0018964723 -0.015115902 -0.056427527
-0.002659316 -0.06916747 0.021926938 -0.04470012 -0.0038816673 -0.011650329 0.005459131 -0.08700882
-0.013313187 -0.08795572 -0.0067633963 -0.08921913 0.09867492 0.03525156 -0.0073088887 -0.06251588
-0.14400414 -0.005588304 -0.037741706 -0.105822995 0.004849686 -0.07083437 -0.11178093 0.028013261
-0.09606475 -0.035504274 -0.12537444 -0.050813608 -0.014249149 0.03737749 -0.01737285 -0.023830244
0.0077025015 -0.13086067 -0.007617309 0.027028393 -0.040748402 0.0019251859 -0.08643029 -0.014083812
-3.733076e-16 -0.074006796 -0.14720015 -0.08288282 0.0026157997 -0.09983799 0.016890261 0.07254542
00000000: 37cf d7bd 31e7 bcbd 1032 bcbd 900e 2f3b
00000010: d359 a9bd 74e1 9abb 32bc bfbd 389e 9dbc
00000020: 937c f9bd 00fe 0fba 746f e7bc 8bd5 b53d
00000030: fab0 e5bd 5264 acbd 0bc6 9fbc 3282 d3bb
00000040: ed83 63bd 7987 10bd e98b d2bb 0f24 acbc
00000050: d92f a0bd 125e b3bd 3414 ffbc e81d 2bbd
00000060: e0cb 04ba bd56 9eb3 7087 85bd 8dbf c3bd
00000070: 01b8 1ebe f4df a2bb 7e0f 60bd abe0 fcbd
00000080: bf27 8cbd 28b5 db3b b624 5a3d fb04 9c3d
00000090: 3a0b ecbb fd22 ae3c bc85 58bb dcd8 a2bd
000000a0: 5eb7 433d ee0e 5cbd 9d66 cabd 650a 1f8f
000000b0: d53b 47bd 5dac 0cbd a4d4 593d dbed 3fbd
000000c0: bb05 bfbd f9bf 5fbd a84c bbbc 591e 123d
000000d0: 965b cd3c 1a40 073d f661 913d ea71 95bc
000000e0: 82dc 80bd 7992 e0bd 5591 aabb 4470 bfbd
000000f0: 38b0 79bc da95 46bd b332 23bc 9324 6fbd
00000100: c0ba 0eba 4ef1 5bbc 70bf 0fbd b01e 03ac
00000110: b6f0 5c3c 0d87 92bc 7be5 f3bd 2341 84bd
00000120: 0ca6 72bc 17a5 c2bd d141 beb9 95e3 a4bc
00000130: 6749 35bc 0d93 f8ba b0a8 77bc 8d20 67bd
00000140: eb47 2ebb ada7 8dbd 1fa0 b33c 7917 37bd
00000150: 9263 7ebb 06e1 3ebc 83e2 b23b ae31 b2bd
00000160: 8e1f 5abc 2122 b4bd 7b9f ddbb 85b8 b6bd
00000170: 1416 ca3d f163 103d 677f efbb 5308 80bd
00000180: d275 13be 171e b7bb 0c97 1abd bab9 d8bd
00000190: 1dea 9e3b 9c11 91bd 66ed e4bd 117c e53c
000001a0: 98bd c4bd ee6c 11bd 2862 00be ee21 50bd
000001b0: 4375 69bc 2419 193d 8251 8ebc a537 c3bc
000001c0: 4465 fc3b 5700 06be 9f9a f9bb a66a dd3c
000001d0: cce7 26bd 8556 fc3a 5d02 b1bd cabf 66bc
000001e0: 7a32 d7a5 e090 97bd a3bb 16be 78be a9bd
000001f0: d66d 2b3b dc77 ccbd 725d 8a3c b192 943d

weight f4 [64, 128]
-6.338e-42 -0.001665253 -4.522047e-05 -0.0034415277 -0.001760435 3.0464042e-05 -0.0003276365 -0.0004653323
-0.0010602903 -0.001691499 0.0056593474 -0.0003756585 0.005594809 -3.037274e-05 -0.0020439073 2.04501e-40
-2.3823515e-05 0.006642824 -1.77784e-40 0.00083292194 -0.0109416125 0.00016878996 2.4564817e-05 -0.0060200472
2.28494e-40 1.32298e-40 -0.00070254377 -0.0006805978 -0.002532397 3.2634e-40 0.00014406367 4.3632e-41
-0.0040514595 -1.1503084e-14 -0.0023205515 -0.012143012 -0.00092233974 0.0052141543 0.00066425605 0.0058681946
0.0007856635 -0.0002673351 -0.0005747414 -1.42911e-40 -0.00929523 -0.003590455 -0.008786074 -7.480482e-05
-0.005152535 0.00020148182 -0.0005788129 -0.005609469 -8.0223e-41 0.0010003478 -0.0014014214 0.00014092107
-9.58389e-06 -0.00010906407 0.00035942925 -3.012924e-06 -0.0013989436 -0.00010699841 -9.2473606e-08 -0.0012316309
3.39181e-40 -1.69996e-40 -0.0012286837 -2.32241e-40 -0.003898997 0.000563855 -0.00057812553 -4.3868906e-05
-0.00051440176 -0.0017100115 -1.02865e-40 2.30896e-40 -0.008339452 -6.7308036e-05 -0.0022877695 4.0780979e-10
-0.0005791382 -0.0043388414 -9.560232e-06 -0.004547053 0.008672164 -1.5496154e-06 -0.0011775449 -0.005558804
-4.15716e-06 -0.0035774214 0.0055846605 -7.6988166e-05 -0.005586188 -0.0013574384 -0.00018982377 -0.0035056984
-0.0011129285 -0.00078180665 0.0016264122 1.9057e-40 -0.00091831136 0.0023248123 -0.0039035017 -0.0015428102
-0.008116432 -0.0052297045 -2.7082754e-06 -0.006020936 -0.00167226 -7.774948e-05 -0.006169088 8.535167e-07
1.6335196e-07 -0.003391815 -2.86819e-40 -2.6807212e-09 0.00027798951 2.20144e-40 -0.008882868 1.6157324e-17
6.2321e-41 -5.5498315e-08 2.28091e-40 2.5015362e-07 -7.9098e-41 -0.0043531843 -0.004635006 2.6602478e-13
-0.14316869 0.13348053 0.09671412 -0.21437152 -0.0055857673 -0.09063989 0.104399145 0.013497731
-0.004841902 -0.023713067 2.29056e-40 0.00066099473 2.1356824e-21 -0.30655128 -0.0068907025 0.0001820275
-0.1473893 -0.03529427 0.0048088916 0.045320462 -0.0470282 -0.100317076 -0.08963744 -0.29812497
0.003700584 4.2137726e-05 -0.09426253 0.02270483 -0.5265116 -0.00018652262 0.034565188 0.04466185
-0.019000303 0.19028983 0.13366655 -0.23198912 -0.05866453 -0.20457001 -0.028408797 -0.00029754877
0.12037846 -0.064682364 0.16191274 -3.2182e-40 -0.46172082 -0.029829135 -0.45035034 0.097628154
0.02617497 -0.092428856 0.021214342 0.03936726 -0.015306501 -0.017500043 -0.08522783 -0.28818625
-0.02561973 0.048171803 -0.12044899 0.0021492965 -0.21251036 -0.110531084 0.0009983288 0.1390687
-1.6548437e-14 1.4238495e-29 0.055708386 4.3927e-41 0.02831996 0.006145549 -0.048331633 -0.078869075
-0.18345682 -0.057533868 0.0033233892 -1.3161241e-14 0.10842616 0.024284068 0.05521931 0.120437
0.008971719 -0.07746753 -0.13156521 0.02013479 0.0061168936 -0.045888845 -0.008440839 -0.029926255
-0.07375289 -0.03821243 -0.054886103 0.0047513484 -0.03208982 -0.007450642 -0.0013108824 -0.1121918
-0.11365249 0.25356713 0.007566134 -0.11415057 0.027805815 0.018141052 -0.018784162 0.2359099
-0.2334073 -0.009499832 0.3257252 -0.06302321 0.013861104 -0.24845421 -0.17759572 0.09759254
0.015194748 -0.17294015 -0.00318922 -0.14686283 -0.23493378 -0.001848403 -0.25708658 -0.16417469
-2.0122e-40 -0.13081686 -0.071976304 0.06164807 0.0053881453 -0.01071967 -0.41025898 -0.04374496
00000000: ab11 0080 9e44 daba 1cab 3db8 418b 61bb
00000010: 66be e6ba 088d ff37 a0c6 abb9 d8f7 f3b9
00000020: 70f9 8aba 4ab5 ddba 0c72 b93b 08f4 c4b9
00000030: a954 b73b f6c8 feb7 13f3 05bb 113a 0200
00000040: 9cd8 c7b7 0cac d93b 97ef 0180 7258 5a3a
00000050: 7344 33bc 36fd 3039 8b10 ce37 d143 c5bb
00000060: f37c 0200 cb70 0100 ea2a 38ba 256a 32ba
00000070: 92f6 25bb b48d 0300 cc0f 1739 a179 0000
00000080: 1bc2 84bb 9d38 4fa8 6514 18bb 7cf3 46bc
00000090: 2cc9 71ba 7fdb aa3b 7821 2e3a fc49 c03b
000000a0: fcf4 4d3a 1c29 8cb9 3eaa 16ba 618e 0180
000000b0: 054b 18bc d74d 6bbb 77f3 0fbc 88e0 9cb8
000000c0: 99d6 a8bb dd44 5339 7abb 17ba a3cf b7bb
000000d0: a1df 0080 1a1e 833a e6af b7ba 36c4 1339
000000e0: 7eca 20b7 54b9 e4b8 c771 bc39 a431 4ab6
000000f0: c25c b7ba 5564 e0b8 e795 c6b3 ad6e a1ba
00000100: 80b1 0300 e1d9 0180 c90b a1ba 6587 0280
00000110: 5186 7fbb abcf 133a 598d 17ba e1ff 37b8
00000120: ebd8 06ba 7722 e0ba bf1e 0180 a583 0200
00000130: 32a2 08bc ba27 8db8 67ee 15bb 2032 e02f
00000140: 4fd1 17ba d72c 8ebb e264 20b7 72ff 94bb
00000150: b115 0e3c 61fc cfb5 da57 9aba a126 b6bb
00000160: bc7d 8bb6 2c73 6abb 87ff b63b b574 a1b8
00000170: 570c b7bb 13ec b1ba 6e0b 47b9 dcbf 65bb
00000180: afdf 91ba 28f2 4cba 562d d53a 3b13 0200
00000190: d5ba 70ba e15b 183b e4d1 7fbb 1f38 caba
000001a0: c9fa 04bc f15d abbb d1bf 35b6 464b c5bb
000001b0: bc2f dbba 6f0d a3b8 1026 cabb 391d 6535
000001c0: d865 2f34 3649 5ebb 891f 0380 bf37 38b1
000001d0: 1fbf 9139 ac65 0200 7389 11bc 6706 9523
000001e0: baad 0000 0b5d 6eb3 d37b 0200 da4c 8634
000001f0: 7edc 0080 28a5 8ebb 40e1 97bb 36c2 952a
00000200: d09a 12be 1faf 083e 0d12 c63d 3584 5bbe
00000210: d008 b7bb 68a1 b9bd 38cf d53d 9625 5d3c
00000220: d1a8 9ebb e841 c2bc 847e 0200 9b46 2d3a
00000230: 1b5e 211d 4af4 9cbe 67cb e1bb a3de 3e39
00000240: 38ed 16be b990 10bd e893 9d3b f3a1 393d
00000250: a4a0 40bd 0a73 cdbd d693 b7bd d6a3 98be
00000260: 7f85 723b 0abd 3038 b70c c1bd 7bff b93c
00000270: 77c9 06bf 4995 43b9 3a94 0d3d 58ef 363d
00000280: 86a6 9bbc 56db 423e e2df 083e 8e8e 6dbe
00000290: 384a 70bd cd7a 51be 91b9 e8bc 5200 9cb9
000002a0: fb88 f63d 3078 84bd 74cc 253e 1a81 0380
000002b0: ac66 ecbe 3b5c f4bc 5294 e6be 45f1 c73d
000002c0: e46c d63c 574b bdbd b3c9 ad3c 903f 213d
000002d0: 1ec8 7abc 405c 8fbc ee8b aebd 268d 93be
000002e0: 78e0 d1bc cc4f 453d f6ad f6bd 36db 0c3b
000002f0: 519c 59be 1f5e e2bd 5bda 823a 0668 0e3e
00000300: 190e 95a8 3f65 900f 7a2e 643d 737a 0000
00000310: 43ff e73c 9a60 c93b 64f7 45bd 1c86 a1bd
00000320: 1bdc 3bbe a2a8 6bbd 38cd 593b 8317 6da8
00000330: 890e de3d 62ef c63c a52d 623d ada7 f63d
00000340: 1efe 123c 4ca7 9ebd 08b9 06be b7f1 a43c
00000350: 3970 c83b f1f5 3bbd 724b 0abc e827 f5bc
00000360: c10b 97bd a384 1cbd 40d0 60bd 33b1 9b3b
00000370: 9d70 03bd 8424 f4bb ead1 abba d0c4 e5bd
00000380: a3c2 e8bd 8dd3 813e 55ed f73b c6c7 e9bd
00000390: 05c9 e33c 8b9c 943c 3ee1 99bc 5d92 713e
000003a0: 5302 6fbe 2fa5 1bbc 74c5 a63e 5012 81bd
000003b0: af19 633c c86a 7ebe a7db 35be 99de c73d
000003c0: 64f3 783c 3917 31be 3c02 51bb 3663 16be
000003d0: 7b92 70be 1d46 f2ba daa0 83be 691d 28be
000003e0: eb30 0280 dbf4 05be 5068 93bd b082 7c3d
000003f0: 0a8f b03b 8ea1 2fbc 770d d2be ea2d 33bd

bias f4 [64]
-0.009621762 0.031497266 0.15375638 0.18060297 0.050117645 0.09251199 0.06337808 -0.021929137
0.10947584 0.20235297 0.10632945 0.1890812 0.06955144 0.15009111 0.13961056 0.1077358
0.057526104 0.036748838 0.10052617 0.10555154 -0.011652171 0.027529052 0.25743845 0.18707027
0.10846265 0.14356063 -0.07827707 0.15219109 0.1287079 0.1618684 0.049782243 0.057495303
0.054409623 0.07791308 0.14076926 -0.040572565 0.12595959 -0.1025786 0.21202782 0.14288436
0.105498016 0.1835729 0.2423058 -0.010021584 0.22664687 -0.086323656 0.000663333 -2.0636538e-05
0.05194102 0.23652619 0.16666666 0.14777316 0.014837022 -0.011949133 0.12073806 -0.08330599
0.23843195 -0.07561686 0.03969134 0.22250113 0.114456795 0.17594282 0.11311161 -0.06697332
00000000: 98a4 1dbc 4703 013d 5072 1d3e fcef 383e
00000010: 2948 4d3d ed76 bd3d 5ecc 813d bca4 b3bc
00000020: df34 e03d 9e35 4f3e 41c3 d93d 819e 413e
00000030: fc70 8e3d 7cb1 193e 12f6 0e3e 96a4 dc3d
00000040: 7ea0 6b3d f385 163d aae0 cd3d 682b d83d
00000050: bfe8 3ebc 9b84 e13c f9ce 833e 598f 3f3e
00000060: aa21 de3d 8f01 133e ba4f a0bd fbd7 1b3e
00000070: 01cc 033e d4c0 253e 77e8 4b3d 3280 6b3d
00000080: a0dc 5e3d e590 9f3d d125 103e 6b2f 26bd
00000090: 8dfb 003e bb14 d2bd d21d 593e 4750 123e
000000a0: 580f d83d 89fa 3b3e 031f 783e 9231 24bc
000000b0: 1e16 683e 75ca b0bd 86e3 2d3a a11c adb7
000000c0: 1bc0 543d ec33 723e aaaa 2a3e d951 173e
000000d0: fb16 733c 4cc6 43bc 8445 f73d 559c aabd
000000e0: 8127 743e 03dd 9abd 6393 223d 56d7 633e
000000f0: 5368 ea3d 5b2a 343e 0fa7 e73d 4f29 89bd

weight f4 [16, 64]
0.0021269387 -0.30734554 -0.04091255 -0.0084340945 0.065179385 0.044291332 0.019152232 -0.0012920975
-0.103838556 -0.02320357 -0.056864996 0.029009912 0.02888709 -0.014407923 -0.04788878 0.035457794
0.03499349 -0.025199458 -0.065952815 -0.023452546 0.023910992 -0.18989456 0.03454347 -0.020411167
0.04486825 -0.013017923 0.067246385 -0.018790469 -0.09236077 -0.023241434 -0.10174686 0.118944675
0.058852255 -0.0018914635 -0.067901805 0.0007204858 -0.09122105 0.0391567 -0.13386844 0.031426415
-0.0133125 -0.057761215 0.020829367 -0.21217991 -0.061782874 -0.0009767588 -0.02126482 3.21588e-40
0.030999176 0.03403204 0.00069921516 -0.008830493 0.035535477 -0.07083278 -0.03940444 -0.046726745
0.019411806 -0.16998136 -0.031201903 -0.008253749 -0.0012473094 -0.0055201678 -0.0028992947 0.0018240991
0.0023701137 -0.14026561 -0.05677049 0.035122924 -0.19588469 0.03479042 0.05704553 -0.23605447
-0.022207566 0.0025377572 -0.07193508 -0.21558292 -0.005903434 -0.014016551 0.018130934 0.08120408
0.03507392 0.10381936 -0.012083399 -0.00903724 0.09754763 -0.1731558 -0.014294357 0.10026619
-0.010525009 0.0014783244 -0.0047709956 -0.023467012 0.15003633 -0.01806301 -0.16570401 0.019976387
-0.26419777 0.13636857 0.034523856 0.003965828 0.005263878 -0.45161623 -0.029833868 0.08343404
0.019948887 -0.085644126 -0.0022453556 -0.13029493 -0.019295046 -0.12518623 -0.023547668 2.74296e-40
0.0040178024 0.058351815 -0.017029205 0.0041427156 -0.0041699964 -0.33712634 -0.004136245 0.056220703
0.083492495 0.021307226 -0.47203773 0.02692217 0.009568077 0.050097972 0.0028964279 0.026623638
0.0001636682 -0.099703684 -0.060210068 -0.02754501 -0.09004666 0.104906514 0.0154374065 -0.10830761
0.031642303 0.037614644 0.07307614 -0.010164061 0.00065443513 -0.027971309 0.04428841 0.03285372
0.041636243 0.03158247 -0.014122774 0.0022556738 0.024302378 -0.14740442 -0.053574212 0.027267396
0.033074804 -0.03155441 0.032584067 0.004186077 0.012756253 -0.023227425 0.07518836 -0.019521426
-0.14755836 -0.018164676 -0.026206166 0.003531153 -0.042037893 -0.13697717 -0.10595721 0.059055705
-0.0007388511 -0.051616035 0.028629301 -0.15277834 0.08842388 0.0083366195 0.018013643 1.65359e-40
0.024079941 -0.09415233 0.06285309 0.029209837 0.030911162 -0.008265563 -0.034199275 0.029456733
-0.11907127 0.03435578 -0.21764857 0.0072035794 0.019267805 0.018899892 0.037742596 0.025105914
0.0045059104 -0.32351768 -0.030452142 0.020072054 0.04774002 0.05085358 0.017107699 0.004389609
-0.1552566 -0.020723537 -0.11138116 0.054159287 0.042474177 -0.0075291577 -0.023815978 -0.02012171
-0.00417409 0.005782278 -0.07807178 -0.02518451 0.008049142 -0.3844892 -0.10384994 -0.0066690645
0.029691352 -0.021609565 0.017520946 -0.02065568 0.032229953 -0.02072607 -0.0685968 0.017791191
0.06588185 0.09298735 -0.16120125 0.003321324 0.016790204 0.0009281556 -0.12720816 0.010336598
-0.035935093 -0.075666934 0.019044865 -0.21098584 -0.18382165 -8.690081e-05 0.038495205 -1.64096e-40
0.04688161 -0.027135905 -0.051560912 -0.006887605 0.0154145425 -0.113186724 -0.009909462 -0.049287636
0.016763687 -0.099872254 -0.019404048 -0.010821269 -0.005616246 -0.0070362645 0.012036828 -0.003955171
00000000: 1c64 0b3b 655c 9dbe eb93 27bd 282f 0abc
00000010: c57c 853d d46a 353d 24e5 9c3c 995b a9ba
00000020: 4fa9 d4bd 6a15 bebc 45eb 68bd 32a6 ed3c
00000030: 9ea4 ec3c 360f 6cbc 0627 44bd 313c 113d
00000040: 5555 0f3d 186f cebc 4512 87bd 8e1f c0bc
00000050: fce0 c33c b873 42be 747d 0d3d 5235 a7bc
00000060: c5c7 373d 2049 55bc 79b8 893d 78ee 99bc
00000070: a527 bdbd d264 bebc a860 d0bd 4499 f33d
00000080: 100f 713d fcea f7ba 1a10 8bbd fcde 3c3a
00000090: 1ad2 babd c762 203d cf14 09be fcb8 003d
000000a0: ac1c 5abc 0697 6cbd 59a2 aa3c b145 59be
000000b0: 0a10 7dbd 9606 80ba 8f33 aebc 7580 0300
000000c0: fcf1 fd3c 2e65 0b3d 894b 373a c6ad 10bc
000000d0: a68d 113d c710 91bd 8d66 21bd 8b64 3fbd
000000e0: 8205 9f3c 980f 2ebe 229b ffbc bc3a 07bc
000000f0: c27c a3ba 86e2 b4bb 1802 3ebb 9c16 ef3a
00000100: e953 1b3b caa1 0fbe 2c88 68bd 0edd 0f3d
00000110: ff95 48be 6680 0e3d 93a8 693d 43b8 71be
00000120: a4ec b5bc 8050 263b b352 93bd c5c1 5cbe
00000130: 9871 c1bb ada5 65bc 5387 943c 534e a63d
00000140: aca9 0f3d 3f9f d43d 73f9 45bc ef10 14bc
00000150: 0dc7 c73d c14f 31be e132 6abc 5c58 cd3d
00000160: 1671 2cbc 56c4 c13a 0356 9cbb e43d c0bc
00000170: 20a3 193e e1f8 93bc 50ae 29be 85a5 a33c
00000180: ee44 87be 34a4 0b3e e368 0d3d c7f3 813b
00000190: 9c7c ac3b 3e3a e7be 2866 f4bc 77df aa3d
000001a0: d96b a33c 3066 afbd d126 13bb 096c 05be
000001b0: a510 9ebc d230 00be 0ae7 c0bc a0fc 0200
000001c0: c5a7 833b 5002 6f3d d580 8bbc 9ebf 873b
000001d0: 77a4 88bb d39b acbe 5789 87bb ae47 663d
000001e0: 1dfe aa3d 7e8c ae3c eeae f1be e28b dc3c
000001f0: 6cc3 1c3c 8833 4d3d ffd1 3d3b d119 da3c
00000200: 599e 2b39 7231 ccbd d59e 76bd 13a6 e1bc
00000210: 626a b8bd 3ad9 d63d 2ded 7c3c 61d0 ddbd
00000220: 5c9b 013d d011 1a3d f1a8 953d 2987 26bc
00000230: 668e 2b3a 1624 e5bc c467 353d 9f91 063d
00000240: c48a 2a3d 9f5c 013d 3563 67bc edd3 133b
00000250: c815 c73c 2ff1 16be a270 5bbd e05f df3c
00000260: 7279 073d 323f 01bd df76 053d 5c2b 893b
00000270: 9aff 503c 7147 bebc 5bfc 993d 66eb 9fbc
00000280: 8a19 17be 16ce 94bc 50ae d6bc eb6a 673b
00000290: ed2f 2cbd be43 0cbe 1800 d9bd 65e4 713d
000002a0: 75af 41ba 566b 53bd ff87 ea3c ed71 1cbe
000002b0: 9417 b53d 5196 083c 5991 933c f4cc 0100
000002c0: 4c43 c53c f0d2 c0bd 1fb9 803d 7849 ef3c
000002d0: 6839 fd3c 496c 07bc 8a14 0cbd 3f4f f13c
000002e0: a3db f3bd a5b8 0c3d 44df 5ebe 010c ec3b
000002f0: 84d7 9d3c f2d3 9a3c fb97 1a3d ebaa cd3c
00000300: 51a6 933b 1ca4 a5be c576 f9bc 266e a43c
00000310: 0a8b 433d d84b 503d 7225 8c3c b6d6 8f3b
00000320: 96fb 1ebe 68c4 a9bc ce1b e4bd 21d6 5d3d
00000330: 67f9 2d3d 27b7 f6bb ba19 c3bc 49d6 a4bc
00000340: cec6 88bb 4379 bd3b 19e4 9fbd bf4f cebc
00000350: 8ce0 033c c5db c4be 47af d4bd 2b88 dabb
00000360: 473b f33c 8b06 b1bc 1688 8f3c 1a36 a9bc
00000370: 8e03 043d b8c9 a9bc 7b7c 8cbd d5be 913c
00000380: 10ed 863d 2770 be3d f111 25be 92aa 593b
00000390: 9c8b 893c 784f 733a db42 02be d65a 293c
000003a0: ad30 13bd 44f7 9abd fa03 9c3c ac0c 58be
000003b0: be3b 3cbe 843e b6b8 26ad 1d3d 6fc9 0180
000003c0: ee06 403d 1e4c debc 8931 53bd 6bb1 e1bb
000003d0: 478d 7c3c 71ce e7bd 4c5b 22bc d5e1 49bd
000003e0: 0054 893c d389 ccbd 3df5 9ebc b14b 31bc
000003f0: 7c08 b8bb 7790 e6bb 1e36 453c 619a 81bb

bias f4 [16]
0.07081656 0.039148726 0.012685875 0.060756322 -0.015984192 0.38994476 0.094696 0.16398276
0.12465046 -0.012741342 0.06598133 0.21806718 0.049283497 0.034238864 0.08755636 0.070459925
00000000: 4608 913d 6a5a 203d 6bd8 4f3c 9fdb 783d
00000010: 48f1 82bc d7a6 c73e faef c13d 19eb 273e
00000020: be48 ff3d 10c1 50bc 3821 873d 014d 5f3e
00000030: 7edd 493d 0d3e 0c3d c050 b33d 4b4d 903d

weight f4 [3, 16]
0.030528562 -0.054447297 -0.014603819 0.033262048 0.11745723 0.008454322 0.028284343 0.018306736
-0.06755367 -0.055483375 -0.040590305 0.09468115 0.07593174 0.034335006 0.005706564 -0.063745745
0.059236705 -0.024546118 0.007228935 0.06432954 0.0042636404 -0.1334881 0.053731546 -0.103443936
-0.028467916 -0.05790894 -0.013664619 -0.061116084 -0.049572766 -0.04265818 -0.06430947 -0.029451793
-0.16010204 -0.15883605 0.03699349 -0.32254708 0.038754806 -0.09256666 -0.25651237 -0.010519009
0.31202266 0.26206756 0.29793638 0.19428143 0.2043196 0.030619398 0.02434407 0.20714071
00000000: 0917 fa3c 2104 5fbd db44 6fbc c93d 083d
00000010: 6b8d f03d ff83 0a3c 91b4 e73c 02f8 953c
00000020: 9459 8abd 8942 63bd 0542 26bd 31e8 c13d
00000030: 1a82 9b3d dda2 0c3d 21fe ba3b 218d 82bd
00000040: 30a2 723d f114 c9bc b4e0 ec3b 35bf 833d
00000050: 02b6 8b3b 1bb1 08be 9c15 5c3d 6ada d3bd
00000060: 8c35 e9bc ed31 6dbd 91e1 5fbc dc54 7abd
00000070: d00c 4bbd 58ba 2ebd afb4 83bd e344 f1bc
00000080: caf1 23be eba5 22be 7c86 173d e424 a5be
00000090: 5cbd 1e3d 9793 bdbd 9755 83be ec57 2cbc
000000a0: 6fc1 9f3e b82d 863e 1e8b 983e b6f1 463e
000000b0: 2839 513e 88d5 fa3c 376d c73c b21c 543e

bias f4 [3]
0.98289937 0.9201971 1.0080082
00000000: 4b9f 7b3f 0a92 6b3f 6a06 813f
