models/original/H/model0.pt (torch, 310479 bytes, 8 tensors)

weight f4 [128, 384]
000000 e3 66 49 bd 8f e8 a4 3c 62 03 8e bb d3 6d f3 3b
       -0.049170386 0.020130424 -0.0043338994 0.0074288636
000010 c3 9c 1c 3b 4e f7 10 ba 9c 50 54 3b 22 98 b5 3b
       0.0023897148 -0.00055300153 0.003239668 0.0055418173
000020 9f 9b c6 3a 03 9d a7 ba 38 d6 4c 3c cc 1d 2b bc
       0.001515258 -0.0012787882 0.012502246 -0.010444116
000030 2c cb 0d 3d ff 24 f9 bc 72 7e b7 3c 68 c1 96 3c
       0.034617588 -0.030413149 0.022399161 0.01840277
000040 64 6f fd ba 46 e1 3f 3c 12 9e e4 3a 89 0c 92 bd
       -0.0019335565 0.011711424 0.0017442128 -0.07131297
000050 0a 62 1d 3d 68 fc 83 b8 e6 fb b6 3b a5 2e 98 3c
       0.038423575 -6.293581e-05 0.005584228 0.01857693
000060 92 9d 46 3b 28 57 96 bb 89 ea d0 3c eb 4c 3b 3b
       0.0030306322 -0.0045880266 0.02550246 0.0028579782
000070 cb 4d 71 bc ad 7f 3d 3d 99 e7 2f bc fd 25 7c bb
       -0.01472802 0.04626434 -0.0107363695 -0.0038474791
000080 06 70 55 bc b8 8c 15 3d b6 cb 12 3c 65 2d 20 bd
       -0.013027197 0.036511153 0.008959701 -0.03910579
000090 da c7 e9 bb ae ee 85 3b 6e ec a4 bc 25 27 1a bc
       -0.00713442 0.0040872907 -0.02013227 -0.009408747
0000a0 a8 67 16 bd a1 0a 97 3c 87 5b b3 ba 80 67 2c bd
       -0.036719948 0.018437685 -0.0013683893 -0.042090893
0000b0 8d e7 8c bd f7 a4 ae bc 5e fe 27 3c a6 0c 4d bc
       -0.06880102 -0.021318896 0.010253517 -0.012515223
0000c0 02 20 50 3c bb 26 b9 3c 45 eb 90 bb 41 59 14 3b
       0.012702944 0.022601476 -0.0044225776 0.0022636207
0000d0 35 10 8c 3c 6e ae 81 3c 28 21 68 bc cf e1 86 3c
       0.017097572 0.015830245 -0.014168061 0.016465096
0000e0 29 47 4a bc 1c 66 17 3a 8e 39 20 3d 55 fb 15 bd
       -0.0123460675 0.00057754084 0.03911739 -0.036616642
0000f0 bf 1a 9d bb ee 9b 1f 3d 03 e3 d0 3c 67 e4 4a 3b
       -0.004794448 0.038967066 0.025498873 0.0030958892
000100 aa e1 a7 b9 40 33 50 bc fd c9 04 bd 7b 78 06 bb
       -0.00032020855 -0.012707531 -0.032419194 -0.002051859
000110 c4 dc 37 bc da dd ca bb 2a 94 57 b9 20 5b 80 37
       -0.011222068 -0.0061909975 -0.00020559193 1.5301222e-05
000120 e9 63 85 3b e2 13 02 bb 8b aa 19 bc 9a 62 ee ba
       0.004070748 -0.0019848277 -0.0093790395 -0.0018187345
000130 f2 20 1d bd 79 95 82 bc 5b 0a b8 3c 34 0c 9f 3c
       -0.038361497 -0.015940415 0.022465875 0.019414999
000140 37 98 cb bc 69 33 51 bd 60 fc 07 bc de b9 f8 bc
       -0.024852855 -0.05107442 -0.008299917 -0.030362066
000150 94 f4 aa 3b db 32 6c bc 0a 73 1e bd cd 71 01 bd
       0.0052171443 -0.014416422 -0.03868393 -0.03160267
000160 b2 ec b3 bc c2 1f fb 3c 0e 17 ee bc 66 fe 0f bd
       -0.021963451 0.030654792 -0.029063728 -0.035154723
000170 23 8d e8 bc cc 67 84 bc e5 ce 9f bb 01 be 24 3c
       -0.028387612 -0.016162775 -0.0048769587 0.010055066
000180 df 0d b1 3c 89 a3 07 bb 2a 67 5f 3c 4f a7 64 3c
       0.02161306 -0.002069684 0.013635436 0.013955905
000190 ee 23 c7 3c 07 d4 ed ba 96 40 05 3c fe 29 e4 39
       0.024309125 -0.0018144854 0.008133074 0.00043518835
0001a0 64 6d c9 3c 46 e5 c9 bc 64 8d 3b 3c 96 7b 8a 3c
       0.024588294 -0.024645459 0.011447284 0.016904633
0001b0 83 05 35 bc 9c 8d b5 38 87 7f 17 3d f3 24 e7 b8
       -0.011048677 8.6571294e-05 0.036986854 -0.00011021821
0001c0 ac 71 09 3d 78 86 e5 bc 43 e0 e5 b9 d2 56 d0 3c
       0.03355567 -0.028018221 -0.00043845372 0.025432024
0001d0 a9 0c 14 bc 88 b2 4a 3c 04 06 0f 3d a0 2f 5b 3c
       -0.009036222 0.012371667 0.034917846 0.013378054
0001e0 cf 5f d1 3c 65 57 1b 3c ec 97 f1 bd ed dd ad bd
       0.02555838 0.009481286 -0.11796555 -0.084895946
0001f0 a1 72 b1 3c 3d 4e 29 3c 54 5b 09 3d 0a 0f ed 3b
       0.021661105 0.010333595 0.033534363 0.007234459
000200 64 1f 41 bb da 3f 1e bc 21 87 07 bc d1 b5 d5 3b
       -0.0029468173 -0.009658778 -0.008271963 0.0065219183
000210 d4 37 8a 3c f1 a3 29 3c 12 05 6e 3b 9d 08 2b 3a
       0.016872324 0.010354028 0.003631894 0.0006524416
000220 0a dc 3b bc d4 b3 29 3d 4a 97 f6 3c 66 8f 15 bd
       -0.011466036 0.041431263 0.030101437 -0.03651371
000230 56 0b 23 3c 2d 7a 96 3c f5 33 d5 3b 66 eb 7b bb
       0.009951433 0.018368805 0.006506438 -0.003843987
000240 55 00 8b bd a0 c2 a2 bd d3 0c 03 3d 7a e5 e3 bb
       -0.06787173 -0.07947278 0.031994652 -0.006954846
000250 27 80 9d 3c d1 de 74 3c 46 56 b0 3c 08 31 67 3c
       0.019226147 0.014945702 0.021525513 0.014110811
000260 23 82 84 bd 89 84 4f bd 6b 78 61 3d 67 f5 4a 3d
       -0.06470134 -0.050663505 0.05504648 0.04955044
000270 4e e3 62 bb b8 7e 25 bc 23 5a 90 bb 1f 6a 24 bb
       -0.0034620347 -0.010101013 -0.0044052764 -0.0025087667
000280 93 30 26 bb fb 35 3e 3c ad 4c f4 ba 00 29 1c bd
       -0.0025358542 0.01160955 -0.0018638574 -0.03812504
000290 1f e7 54 3c 68 2d 9f 3c 85 e3 05 3b 39 65 ad 3a
       0.012994557 0.019430831 0.0020429802 0.0013229019
0002a0 6c 46 14 3d 06 dd ef 3b 7a 03 0b bc d5 b4 79 3c
       0.036199972 0.007320049 -0.008484716 0.015240868
0002b0 18 53 3d bd f4 19 b7 3b 29 ac d9 bb d6 99 31 bc
       -0.046221823 0.0055878107 -0.0066428375 -0.0108399
0002c0 54 48 0d bd e8 b9 f5 3b 69 08 c1 3c 2a 43 2f 3d
       -0.034492806 0.0074989684 0.02356358 0.042788662
0002d0 d4 68 26 bc c7 b9 5a bd fb 46 aa 3c c9 57 ff 3b
       -0.010156829 -0.053399827 0.0207858 0.007792447
0002e0 40 5c ab bd f5 76 90 bd 63 42 80 3d 85 cc e1 3d
       -0.08367205 -0.07053939 0.06262662 0.11025337
0002f0 8f 2f 17 bb 6e 06 e1 bb f0 f4 f4 3b 81 c7 de 3b
       -0.0023069119 -0.0068672216 0.007475488 0.006798685
000300 b9 06 20 bc 5e e4 4d 3c b4 52 2d 3b 1d ce 33 bb
       -0.009767228 0.012566654 0.0026447 -0.0027436086
000310 52 98 ac 38 73 7c 96 39 43 2f 03 b8 e6 95 9d 37
       8.229971e-05 0.0002870295 -3.127685e-05 1.878566e-05
000320 0f b9 71 3c b0 76 3e bc f0 88 d3 bc 17 36 59 3a
       0.014753594 -0.011624977 -0.025822133 0.0008285953
000330 79 98 4f 3c a7 72 c6 bc bd b0 05 bc f5 a8 6b ba
       0.01267063 -0.024224592 -0.0081598135 -0.0008989715
000340 a7 c5 e6 3c aa 4d 98 3d 86 8e 8c bd af 5b 1d 3b
       0.02817042 0.07436688 -0.06863122 0.0024010947
000350 d4 da 0d 3d d8 ca 59 3b 2a 32 20 bc b7 8c ac bb
       0.03463252 0.0033232477 -0.009777585 -0.005265798
000360 ff 04 80 bd e2 ef ae bd d2 d4 04 bc dc 50 98 3d
       -0.06250953 -0.08541848 -0.008107381 0.07437298
000370 d0 6f 3e 3d 95 f1 ac 3b 5c de 2b 3b b9 8b 48 3a
       0.04649335 0.0052778223 0.0026225066 0.0007650215
000380 d7 ac b0 3b 67 8d e1 3c 61 4a 8a 3b 80 90 b2 3c
       0.005391698 0.027533246 0.0042202924 0.021797419
000390 a4 0e 9e 3b 1f 33 03 3b bd 6d 6c 3a e1 62 92 b8
       0.0048235226 0.0020019484 0.0009019038 -6.98024e-05
0003a0 66 76 fe 3c 9d f1 cc 3b 33 89 23 3d 1a a7 81 bb
       0.031062316 0.0062543885 0.039925765 -0.0039566876
0003b0 4e 7d 0f bc 3a b6 59 bc b3 63 18 3c fe fe 5f 3a
       -0.008757902 -0.013288075 0.009301114 0.00085447717
0003c0 63 46 40 3d f1 7c 80 bd 38 9e 5d 3d 25 20 a0 3c
       0.046942126 -0.06273831 0.054105967 0.019546578
0003d0 e0 9c 94 bd 7b 4f 3a bd 56 c3 47 3b 63 6c 3f ba
       -0.07256484 -0.045485955 0.003048142 -0.00073022227
0003e0 f7 5f 8d 3d b4 00 3e 3d 08 a9 5e bc 68 fb 14 bd
       0.069030695 0.04638739 -0.013590105 -0.036372572
0003f0 cc 50 33 bc af cc fe 3a dc ca c0 ba 6f d7 01 3b
       -0.010944556 0.0019439663 -0.0014708894 0.0019812246

bias f4 [128]
000000 3b fa ff bc cd 0c 1c bd c7 13 ba bc cd 44 83 ba
       -0.031247249 -0.038098145 -0.022714509 -0.0010015011
000010 94 e6 7d 3b af 38 15 bd a0 1c 3b 85 62 e1 1a 3b
       0.0038742172 -0.03643101 -8.797955e-36 0.0023632874
000020 ec 78 f9 bc 4c 30 a3 3c 73 b7 ab bc 14 04 8a 3c
       -0.030453168 0.01992049 -0.020961499 0.016847648
000030 cf 4a 12 80 60 1e 95 3a 6d d6 d5 3c 84 72 50 bd
       -1.679875e-39 0.001137685 0.026103223 -0.05089046
000040 97 4b 05 bd 0f b9 ef 3c 89 8d b8 3c c5 aa 59 bb
       -0.03254279 0.029263048 0.022528427 -0.003321336
000050 dc 28 5d 3a 13 66 19 bd 8a 5e 81 bd 71 3b 96 3c
       0.00084365695 -0.03745086 -0.0631686 0.01833889
000060 7b 66 84 bc dd 47 5e bd f2 05 03 8a 9b 76 0a 89
       -0.016162148 -0.054267753 -6.308539e-33 -1.6666914e-33
000070 2c e2 97 38 99 d9 25 bd a7 46 06 bd 52 7c 04 bc
       7.242369e-05 -0.04049072 -0.032782223 -0.008086281
000080 40 d2 44 3b 39 38 6f bc a1 b4 bd 91 e8 8b 18 80
       0.0030032545 -0.014600807 -2.9930263e-28 -2.254241e-39
000090 fa b2 10 3b c1 92 a7 85 99 e6 81 bd aa a4 e8 3a
       0.0022079335 -1.5758513e-35 -0.06342811 0.0017749269
0000a0 7d e9 11 3b f4 3e e3 b9 af 73 10 bd 05 44 6e bd
       0.0022264414 -0.00043343718 -0.035266574 -0.058170337
0000b0 7e cb bb bc eb 5f 01 bd bc 3e fe 86 19 27 9e 3c
       -0.022924181 -0.031585615 -9.563636e-35 0.019305753
0000c0 1d 17 0e bd 62 ff 27 bd 44 ba 0d bd 91 91 d3 3c
       -0.03469001 -0.041015036 -0.034601465 0.025826247
0000d0 8f 4b 29 bc 5b 5d bd bd 1a 22 8e bd a3 5b 05 bc
       -0.010332956 -0.09246322 -0.06940098 -0.008139524
0000e0 44 4b 0e bd 10 39 6a bd ff ba 39 bd f8 45 15 bd
       -0.034739748 -0.057183325 -0.04534435 -0.03644368
0000f0 7e 47 7b 3c 3a 0e 94 bb c7 54 7d 3d 99 98 82 bc
       0.015336869 -0.0045182975 0.061848428 -0.015941905
000100 4e cb 0e 3d 05 04 99 3c d8 0f 0f 3d 3d 86 2f bd
       0.034861855 0.018678674 0.03492722 -0.04285263
000110 32 3e e3 3c ff 1f 27 bd 93 9b 28 3c 59 43 28 83
       0.027739618 -0.040802 0.010290998 -4.9448074e-37
000120 74 85 68 3c 9f f9 48 bc 1a ba 4c bc 4f 57 69 bb
       0.014191974 -0.012266546 -0.012495542 -0.0035605018
000130 c4 5d a1 bc 91 88 08 80 eb 0e ef 3b e7 2e b9 8d
       -0.019698031 -7.83675e-40 0.0072954795 -1.1412797e-30
000140 ac ed 16 bd b7 14 6d 3a 72 5f 84 83 e3 da 24 bc
       -0.036847755 0.0009043919 -7.780176e-37 -0.010061952
000150 87 3e 95 bd e7 a6 ca bc 8d ec 20 bc 7e 35 ca bc
       -0.07287317 -0.024737788 -0.009822023 -0.02468371
000160 06 01 12 bc 71 d3 a3 3c 86 3b 97 bd 73 e9 b7 bc
       -0.008911377 0.019998284 -0.073844 -0.022450184
000170 d6 53 ad ba 55 c7 29 3d 33 3d 8f 3b a2 c5 08 80
       -0.0013223838 0.041449863 0.004371309 -8.05581e-40
000180 7b 0a 59 bc fe 37 5d 3d e9 61 81 bc 70 45 91 3b
       -0.013247128 0.054008476 -0.015793758 0.0044333264
000190 87 57 13 3b fd 8b 19 80 99 1c d1 3c 70 90 44 bc
       0.002248259 -2.346106e-39 0.025526332 -0.011997327
0001a0 1f 66 b6 84 f0 1c 6a bd 74 d3 d6 bc be 4a 02 3d
       -4.2881778e-36 -0.057156503 -0.026223876 0.03180956
0001b0 de bc 5b bd 40 e9 8e bc f9 4f 37 80 4f 37 ee 3c
       -0.053646915 -0.017445207 -5.079641e-39 0.029079108
0001c0 d1 8e 8a bd 21 09 34 3d 49 cb 6e 3b 7c 39 c4 3c
       -0.06765521 0.04395402 0.0036437085 0.023953192
0001d0 03 87 e0 3c e1 b7 c4 3b 8a f3 72 bc 1a 82 98 3a
       0.027408129 0.0060033654 -0.014828572 0.0011635453
0001e0 a7 4a bf 3a 52 e8 f8 bc f2 ba 80 bd 45 b2 9c 3c
       0.0014594392 -0.030384216 -0.06285657 0.019127974
0001f0 c6 3c c2 bb ae db 3c bd 71 e7 56 3d 63 44 3c 83
       -0.005927655 -0.04610794 0.052466813 -5.532674e-37

weight f4 [128, 128]
000000 5f 35 d8 bb c6 38 da 3c 3c 2e db bc ce 96 2d 3d
       -0.006598159 0.0266384 -0.026755445 0.042380147
000010 f6 eb ac bb 0c 3f d0 bb f6 33 71 03 0a 34 f8 bb
       -0.005277152 -0.006355172 7.0883183e-37 -0.007574563
000020 ee 48 aa bc 09 54 04 3d 4d 3f b4 3c b2 d0 f4 3c
       -0.020786729 0.032306705 0.02200284 0.02988467
000030 aa 6f 00 00 70 97 f0 3c 6f 00 0a 3d 72 d1 e5 bb
       4.0058e-41 0.029369086 0.03369182 -0.007013493
000040 57 83 87 bc 36 fe 10 3d 41 94 05 3d 13 7b 0d 3d
       -0.01654212 0.035398684 0.03261209 0.0345412
000050 98 77 d0 bb 07 b7 dc bc c9 53 84 bc 79 9d fd 3c
       -0.006361913 -0.026942743 -0.016153233 0.030958878
000060 df 2f 5d bc 60 fc 13 bc 76 c8 84 87 cf 12 3a 88
       -0.013500183 -0.009032339 -1.9978973e-34 -5.599445e-34
000070 24 a4 71 bd f1 d1 82 bb 5a 2c b8 bc 49 3b 01 3d
       -0.058994427 -0.003992312 -0.022482086 0.03155068
000080 2c 1d 72 bb b5 8f 16 3d d6 ff 2f 91 ac 0b 01 00
       -0.0036943657 0.036758143 -1.3883901e-28 9.6023e-41
000090 d8 1b cb 3c 18 fa aa 84 f9 15 1c bc 7c f0 18 3d
       0.02479355 -4.0196483e-36 -0.009526723 0.03733872
0000a0 81 84 6e bb 02 5a 3e ba 21 bb 89 bb c4 ca 70 bc
       -0.0036394896 -0.0007261337 -0.0042032157 -0.014696781
0000b0 4b ef bc bb 65 b0 90 bc 3b 41 6d 84 bd 3e 23 bd
       -0.0057658306 -0.017662236 -2.7889168e-36 -0.039854754
0000c0 ea a7 01 bc 0b 22 0d bd 20 97 f0 bc 97 3e 00 3d
       -0.007913569 -0.034456294 -0.029368937 0.03130969
0000d0 5d f9 64 bd 5f 82 cf bc 70 26 70 bb 90 1d 9b bc
       -0.055901874 -0.02533072 -0.0036644004 -0.018934995
0000e0 d8 49 63 bc 6c b4 63 bb 60 1d db bc 4e 17 0e bd
       -0.013872586 -0.003474499 -0.026747406 -0.034690194
0000f0 74 62 f3 3c d8 13 ea bb 9a 1f 06 3d d1 22 da bc
       0.029710032 -0.007143479 0.03274498 -0.02662793
000100 28 1e fa 3c 78 ff ef 3c 09 7a 06 3d 70 ae 5a bb
       0.030531958 0.029296622 0.032831226 -0.0033368133
000110 91 4d 06 3d f5 8e 4c bc 51 41 fb 3c b7 13 59 81
       0.032788817 -0.0124852555 0.030670794 -3.987075e-38
000120 1a c4 f3 3c 41 cf 37 bc f9 63 77 3c c0 4e 88 bc
       0.029756594 -0.011218847 0.015099519 -0.016639113
000130 ca 0b 93 bc 59 05 00 00 7a 0f 0c 3d b5 e3 bc 0c
       -0.017949957 1.918e-42 0.034194447 2.9103033e-31
000140 ae c4 b5 bc e2 00 85 3b 62 7f 05 82 d9 de 9f bc
       -0.02218851 0.004058943 -9.807854e-38 -0.019515442
000150 f6 17 c8 bc 8d e9 4f bd 53 5c 8b bb c5 96 a5 bb
       -0.024425488 -0.05075984 -0.0042529493 -0.0050533735
000160 a2 c4 2b bb 2d 39 e1 3c 5d 99 9b bb ac ae 9c bc
       -0.0026209732 0.027493084 -0.004748507 -0.019126259
000170 da 67 4c bc 04 85 06 3d 2d 50 0a 3d f7 51 06 00
       -0.012475932 0.032841697 0.033767868 5.80416e-40
000180 ff 27 5c bc 69 bd 26 3d 94 99 a5 bc b0 bf 33 3c
       -0.01343727 0.04070798 -0.020214833 0.010970995
000190 96 96 0c 3d 1a 22 02 00 42 3a e5 3c a1 78 0f 3d
       0.034323297 1.95904e-40 0.027981881 0.03502715
0001a0 1f 30 b7 83 a9 cf b6 bb bb b6 08 bc bd 91 fb 3c
       -1.0766821e-36 -0.0055789542 -0.008344348 0.030709142
0001b0 6b 10 9e bc 6a 7f 19 3d af 37 00 80 8c 81 ed 3c
       -0.019294938 0.037475027 -1.9976e-41 0.028992437
0001c0 81 d3 ac bc de a6 ec 3c e1 00 d6 3b bd 8e 19 3d
       -0.021096947 0.028888162 0.0065308665 0.03748964
0001d0 02 a6 12 3d 38 21 16 b8 a3 c1 82 bb e3 d2 b6 3b
       0.03580285 -3.5793724e-05 -0.0039903685 0.005579339
0001e0 bd 5d bf 3c b6 c2 35 bb 9c f6 14 bc c6 8d 03 3d
       0.023360128 -0.0027734465 -0.009091999 0.032117628
0001f0 b9 0d dd bc f7 b3 9f bc 43 44 05 3d 66 68 15 01
       -0.026984083 -0.019494994 0.032535803 2.744188e-38
000200 38 76 90 bc e3 52 a3 3c 75 0a c4 bc 47 65 e5 3c
       -0.017634496 0.019936984 -0.023930768 0.028002394
000210 47 eb 9f bb cf 24 60 bc 02 84 4e 03 df e3 cc bb
       -0.004880342 -0.013680651 6.0689497e-37 -0.0062527503
000220 94 8c b7 bc b5 56 a1 3c 6b ae 38 3b 02 8d a1 3c
       -0.0224059 0.019694665 0.0028180133 0.019720558
000230 dc 77 01 00 fd d9 be 3c 39 d2 c1 3c d2 0f a7 bc
       1.34833e-40 0.023297304 0.023659812 -0.020393286
000240 62 b4 b6 bc 27 b8 d9 3c 3c c9 cd 3c f7 81 de 3c
       -0.02230281 0.026577068 0.02512037 0.027161581
000250 45 c4 1d bc db f8 df bc 36 ef 9a bc cb e1 d9 3c
       -0.009629314 -0.027340343 -0.018912893 0.026596924
000260 bc 63 51 bc ca 21 84 bc c7 63 09 88 5f 9e 1f 88
       -0.012780126 -0.016129393 -4.1344226e-34 -4.8033486e-34
000270 47 f1 1f bd 4b 7b 39 bc ae cf cf bc 7e bd 7e 3c
       -0.03904846 -0.011320899 -0.025367584 0.015548108
000280 67 84 a2 bb eb ef cf 3c 9e 67 11 91 27 41 00 00
       -0.0049596312 0.025382956 -1.1470413e-28 2.3372e-41
000290 42 7a 88 3c 31 69 3b 84 0a 0c 89 bc da 6b d1 3c
       0.01665986 -2.2030046e-36 -0.016729373 0.025564123
0002a0 6c 33 6e bb 24 19 10 ba 16 f7 88 bc 1e 42 a6 bc
       -0.0036346568 -0.00054969103 -0.016719382 -0.020295199
0002b0 e8 50 6c bc 2a 53 c8 bc f5 a1 fa 02 53 2b ea bc
       -0.014423586 -0.024453718 3.6827157e-37 -0.028585112
0002c0 7a 2a 88 bc c3 c1 c1 bc 68 54 b1 bc 1d 28 b4 3c
       -0.016621817 -0.023651963 -0.021646693 0.021991784
0002d0 7e 5e 17 bd 59 01 b6 bc 97 64 64 bc f8 9c 69 bb
       -0.03695535 -0.02221744 -0.013939998 -0.003564654
0002e0 e9 b3 47 bc 32 fa 7c bc ec ae d7 bc 4b df d3 bc
       -0.01218889 -0.015440511 -0.026328526 -0.02586331
0002f0 98 3c c9 3c aa 40 47 3b af 3b bf 3c 00 17 bc bc
       0.024565026 0.0030403533 0.023343889 -0.022960186
000300 1e 10 7f 3c ad 43 d3 3c 46 8e 99 3c fb db 44 bc
       0.0155678075 0.025789106 0.0187446 -0.012015338
000310 87 9a e1 3c 6f b7 87 bc 7d f2 7b 3c f4 71 88 81
       0.027539505 -0.01656696 0.015377638 -5.0122025e-38
000320 17 04 95 3c 3b 39 c8 ba 0a c1 45 3b da 04 9a bc
       0.018190427 -0.0015275845 0.0030174875 -0.018801142
000330 0a d5 a4 bc 14 ef 01 80 54 46 c0 3c 90 76 75 0c
       -0.020121116 -1.776e-40 0.023471035 1.8909792e-31
000340 c9 03 ca bc e1 ad 85 3b 6c 4d 81 81 c1 d7 9c bc
       -0.024660008 0.004079566 -4.749821e-38 -0.019145848
000350 67 d5 99 bc e1 3b 0b bd 39 4c 69 bc c5 f5 41 bc
       -0.018778516 -0.03399265 -0.014239364 -0.011838381
000360 e4 97 10 3c a3 2e 3f 3c 85 db 56 bc 69 22 cb bc
       0.008825276 0.011668834 -0.013113861 -0.024796681
000370 e0 f5 22 bc 1e 16 b7 3c ce 2a ac 3c 66 df 03 00
       -0.0099463165 0.022349413 0.021016505 3.55647e-40
000380 0b f6 d9 bb 08 27 f0 3c 51 c3 b8 bc 29 2a 4d 3b
       -0.006651645 0.029315487 -0.022554072 0.0031305647
000390 00 f2 e1 3c f5 ef 01 00 16 5a 39 3c d7 05 cd 3c
       0.027581215 1.77916e-40 0.011312982 0.025027199
0003a0 88 6a 99 83 c8 09 68 bc 8e 65 3b bc 12 60 a7 3c
       -9.01699e-37 -0.014162488 -0.011437787 0.020431552
0003b0 78 4a 9e bc f5 50 f8 3c 27 17 00 00 18 36 01 3d
       -0.019322619 0.03031204 8.305e-42 0.03154573
0003c0 70 1a a8 bc 67 ee ca 3c 03 af 3e 3b cb ad 05 3d
       -0.020520419 0.024771882 0.0029096014 0.032636445
0003d0 72 ae cb 3c e0 51 0b 3c 59 f7 64 bc a7 df dc b9
       0.024863455 0.008503407 -0.013974988 -0.00042128304
0003e0 9d 92 74 3c 46 b8 2d bc db d3 62 bc a9 6b cd 3c
       0.014927533 -0.010603016 -0.013844456 0.02507575
0003f0 d2 22 aa bc 69 23 9e bc 62 10 c8 3c bf 02 1d 01
       -0.020768557 -0.019303994 0.024421874 2.8838316e-38

bias f4 [128]
000000 f7 06 0f 3b c3 c1 ac 3b 47 99 d5 bb 88 7f 87 bc
       0.002182422 0.0052721216 -0.006518516 -0.016540304
000010 9e aa 7e 3c 73 c1 aa bb c9 bc 18 3c 63 14 58 3c
       0.015543608 -0.005211049 0.009322354 0.013188454
000020 10 60 d6 bb 4d 4c 88 3b 8b a8 93 3b df 3a 67 3c
       -0.0065422133 0.0041594864 0.004506176 0.014113157
000030 3c 45 e4 bb 4d 3b 03 bb fe 48 c6 bb 6e 5a dc 3b
       -0.006966261 -0.002002436 -0.006051182 0.0067246472
000040 1a a0 d3 ba 2c bd 57 3c bd af 8f 3b 6a 86 0c bb
       -0.0016145736 0.013167661 0.0043849633 -0.0021442422
000050 3a f6 89 bb 4b 2b b9 3b b0 65 92 bb c3 e7 55 3c
       -0.0042102607 0.005650913 -0.0044676885 0.013055745
000060 b4 85 9d 3b 9c 94 90 bb eb e3 87 3b 95 55 05 3c
       0.0048071984 -0.004412247 0.004147043 0.00813808
000070 69 1e d4 3b 1b 30 8d 3b 41 29 9b bb e1 02 14 bb
       0.0064733517 0.004308713 -0.0047351425 -0.0022584724
000080 8d f8 87 bc cb 94 7d bc aa 4c 3e ba 04 b1 3c 3b
       -0.01659801 -0.01547737 -0.00072593486 0.0028792033
000090 e3 ee 08 3c 5a 4c 88 3b cc 43 b2 3b d5 f3 3d bc
       0.008357736 0.0041594924 0.005440211 -0.011593779
0000a0 ad f6 84 3b 03 e7 3e 3c d5 81 e4 3a a1 3e 40 3c
       0.0040577264 0.011651757 0.0017433712 0.011733682
0000b0 e4 78 90 3c 3c d7 87 3b 39 50 fa bb bd fe 73 bc
       0.01763577 0.004145531 -0.007638958 -0.014892277
0000c0 ae 43 a0 3b 79 98 ca b9 e6 60 b9 bb 67 9e 44 3c
       0.0048908805 -0.00038642043 -0.005657303 0.012000657
0000d0 3c 0e 33 3c c8 46 a7 bb eb 73 09 bc 38 af b9 3b
       0.010928687 -0.0051048733 -0.008389453 0.0056666397
0000e0 55 d9 87 bb 3b 02 a3 3c 17 45 a1 3b 75 ca b3 3b
       -0.004145781 0.019898525 0.004921566 0.0054867812
0000f0 42 c2 bd bb 52 20 2d 3b 8c a4 98 3a b8 fb 58 3c
       -0.0057909796 0.002641697 0.0011645718 0.013243608
000100 f3 fe 0d 3c 80 07 f3 bb 2e 10 a5 3b 20 50 75 bc
       0.008666742 -0.0074166656 0.005037329 -0.014972717
000110 34 bb b9 3c 1b 8c 8c bb e3 4f ac 3a 5d 13 80 3c
       0.022672273 -0.004289163 0.0013146367 0.015634233
000120 53 dc 87 bb 0d b6 9b bb f2 13 a3 3b 02 8b 0b 3c
       -0.0041461377 -0.0047519268 0.004976743 0.008517029
000130 24 52 ee ba 71 16 8a bb 37 0f e9 3b 7d df 8a bb
       -0.0018182439 -0.004214101 0.0071124095 -0.0042380677
000140 94 41 c1 3b f3 3e 88 3b 75 05 b0 3b de 33 6a bc
       0.00589771 0.0041578948 0.0053717443 -0.014294593
000150 4f 58 24 bc 4b 7c 36 3c 6c d2 17 3c 59 30 45 3c
       -0.01003082 0.011138032 0.009266477 0.012035453
000160 bd b7 de 3b 95 66 55 3c 79 ba 09 bb 73 c4 22 3c
       0.0067968057 0.013024946 -0.0021015687 0.009934532
000170 11 e7 2a 3c af 69 fe 3a 04 19 8d 3b 53 d2 1f 3b
       0.010431067 0.0019410158 0.0043059606 0.0024386838
000180 cf 4e b3 3c 9b f0 1e bc cd ed 7a bc 59 81 33 ba
       0.021888165 -0.0097009195 -0.015315485 -0.00068475824
000190 9b bb 7a 3a de a8 b3 bb 8a 8b ee 3b 47 aa 86 38
       0.00095646986 -0.005482777 0.007279818 6.4213345e-05
0001a0 48 7f f8 bb 45 46 88 bb 78 dd 32 3b bc a8 9a bb
       -0.0075835325 -0.0041587674 0.002729265 -0.0047198217
0001b0 86 33 06 3c 4d f7 9d 3b 37 4d 98 3b e9 b1 98 bb
       0.008190995 0.0048207403 0.0046478766 -0.0046598804
0001c0 19 61 40 bb 98 d4 7a 3c a7 a2 65 3b c7 6c a5 3b
       -0.002935475 0.015309475 0.0035039575 0.0050483677
0001d0 4f d7 a9 bc 88 49 14 ba c9 57 ed bb 3d 2a 3b 3c
       -0.02073255 -0.0005656709 -0.007243131 0.011423645
0001e0 e0 e9 da bb 78 f2 a5 3b 51 2f a1 3b 50 20 80 3c
       -0.006680712 0.005064305 0.0049189706 0.015640408
0001f0 27 57 b3 3b f3 84 44 3c 52 2c d1 3b 1a 77 66 3c
       0.005473036 0.011994588 0.006383457 0.014066482

weight f4 [64, 146]
000000 71 e5 4d bd 52 1e 2d bd 6b f0 23 3d 64 9e 03 3d
       -0.05026764 -0.042265244 0.040024202 0.032133475
000010 2e 9a 04 bd 8a 80 37 3d 8f b5 14 bd 00 0a 08 bd
       -0.0323736 0.04480032 -0.03630596 -0.03321266
000020 b2 86 1f 3d 5d 85 36 bd 7e 40 34 bd 5d cd 06 bd
       0.038946815 -0.04456078 -0.044006817 -0.032910693
000030 d4 f0 20 3d 6d 89 5a bd f1 e0 27 3d 35 49 2e 3d
       0.03929217 -0.053353716 0.040986005 0.042550284
000040 a7 3e 51 3d b2 cb 07 bd 90 8c 34 bd 65 43 5c bd
       0.05108514 -0.033153243 -0.044079363 -0.05377521
000050 ed 2e 36 3d 5e 7c 2a bd dc 19 32 3d 93 9d 07 bd
       0.044478346 -0.041622512 0.043481693 -0.03310926
000060 22 60 31 bd d6 ee 34 3d 73 99 36 bd 86 9f 0f 3d
       -0.04330457 0.044173084 -0.044579934 0.035064243
000070 b3 08 25 bd 03 f0 35 bd 3c d5 2f 3d 26 68 4d 3d
       -0.0402915 -0.044418346 0.042927966 0.05014815
000080 5e 54 03 3d 8c eb 04 3d 7f 8f 5a bd 42 67 49 bd
       0.03206288 0.032451198 -0.053359505 -0.04917074
000090 5d ef 16 bd 7e 85 36 bd fb d2 2c bd 8b 07 82 bc
       -0.03684937 -0.0445609 -0.042193394 -0.015872737
0000a0 ae b7 37 bd 77 26 0b bd ff 5f 50 bd 14 e6 0a bd
       -0.044852905 -0.03397223 -0.0508728 -0.033910826
0000b0 c5 57 01 bd 1e c2 36 bd bb 80 1b 3d ca 81 05 3d
       -0.031577844 -0.04461872 0.037964564 0.03259448
0000c0 c0 74 31 bd 0d 01 57 3d db be 40 bd d3 3b 09 bd
       -0.043324232 0.052491236 -0.047057014 -0.03350432
0000d0 43 29 0d bd 2b d1 32 3d b4 41 12 3d e1 02 2a bd
       -0.03446318 0.04365651 0.03570719 -0.04150665
0000e0 12 c1 36 3d 95 af fa bc 09 e4 39 bd 9a 8c 2c bd
       0.04461772 -0.030601302 -0.045383487 -0.042126276
0000f0 26 a0 2a 3d 0e 1c 4b bd 06 ab 5b 3d 35 75 07 bd
       0.041656636 -0.049587302 0.053629898 -0.03307076
000100 e8 1f 15 bd f0 31 1f bd 0e 26 2d bd ba 5b 05 3d
       -0.03640738 -0.038865983 -0.04227262 0.03255818
000110 4b 3a f0 bc fc f5 35 3d 8c e6 5b 3d 27 b1 04 bd
       -0.029324671 0.044424042 0.053686664 -0.03239551
000120 10 95 36 3d 2f 2e 31 3d 61 a6 30 bd 70 7d 11 bd
       0.04457575 0.043256935 -0.04312742 -0.035520017
000130 f5 fe 4f 3d 53 75 35 3d a1 f5 25 3d 40 5c 36 3d
       0.050780255 0.044301342 0.040517453 0.04452157
000140 de 76 31 bd b2 ba 36 bd f8 ea 2a bd 25 51 06 3d
       -0.04332625 -0.04461164 -0.04172799 0.03279223
000150 fc 0e 11 3d 82 ca 08 bd 54 18 0e bd 0d 46 5c 3c
       0.03541468 -0.03339625 -0.03469117 0.013444436
000160 62 6a 29 bd 86 34 08 bd 61 29 4c 3d 6d a1 0b bd
       -0.04136122 -0.033253215 0.04984415 -0.034089494
000170 83 25 0d bd d5 54 4f bd 34 cd 35 bd 98 bc 5b 3d
       -0.034459602 -0.05061801 -0.04438515 0.053646654
000180 1d 30 f3 bc 3a e9 0e 3d bd 0d 05 3d b0 af 55 3d
       -0.029686028 0.03489039 0.032483805 0.0521695
000190 2a 64 54 bd 58 99 2c 3d 68 53 19 bd 78 e2 56 3d
       -0.051853336 0.042138427 -0.037433058 0.05246207
0001a0 a0 a0 1c 3d 65 a7 36 3d 98 62 59 3d 70 6a 2f 3d
       0.03823912 0.044593234 0.053072542 0.042826116
0001b0 d5 b6 1d bd 71 94 31 bd a4 1a 30 bd db 07 33 3d
       -0.03850444 -0.043354455 -0.042994156 0.043708663
0001c0 72 66 5a bd 1d 75 05 bd 71 a7 56 3d 11 09 2d bd
       -0.053320356 -0.03258239 0.05240578 -0.042244975
0001d0 89 82 f7 3c 24 48 58 bd cb 2c 23 bd 07 45 08 bd
       0.030213611 -0.052803174 -0.03983764 -0.033268955
0001e0 2b ae 23 3d 43 b2 2f bd 21 89 2e bd 0f 74 04 bd
       0.03996102 -0.042894613 -0.042611245 -0.032337245
0001f0 06 b3 28 bd bc e9 5e 3c d5 68 33 3d d4 3c c3 3b
       -0.041186355 0.013605531 0.043801147 0.005958179
000200 fd e4 05 39 06 9a ac b9 f1 7c 9a 37 a1 1d 3a 3a
       0.00012769173 -0.00032921153 1.8416411e-05 0.0007099752
000210 e4 8c 77 b9 83 06 33 39 ff 5c 34 39 f8 58 2b b9
       -0.00023608241 0.00017073196 0.00017200781 -0.00016340974
000220 0d 6c 6c 3a 0e b2 42 38 e7 4f 98 b8 24 87 21 b9
       0.00090187864 4.641903e-05 -7.262808e-05 -0.000154045
000230 3c a0 29 3a a6 32 e2 38 16 fe 09 3a 88 5d 14 b8
       0.0006470715 0.00010785954 0.0005263997 -3.5373057e-05
000240 dd 5b d8 b9 c0 65 cd 3a a8 7c 55 09 e6 15 cd 87
       -0.00041267174 0.0015670583 2.5697555e-33 -3.0857843e-34
000250 4a 2f b9 08 55 22 3a 0a ce 67 26 8a 5f ec 1b 07
       1.11454e-33 8.9620314e-33 -8.012133e-33 1.1730367e-34
000260 74 5a 66 89 a9 bb df 89 a1 3d d5 08 ee 81 24 08
       -2.7727774e-33 -5.3861772e-33 1.283396e-33 4.9504686e-34
000270 88 a1 b7 07 a8 fa 02 8a 26 3d e3 08 51 41 e4 09
       2.762972e-34 -6.3064155e-33 1.36764415e-33 5.4950427e-33
000280 3b ec 82 08 85 4e 4c 8a c4 f5 7c 89 75 a1 db 89
       7.879628e-34 -9.8370106e-33 -3.0448955e-33 -5.2874166e-33
000290 f6 af c7 07 e5 39 ee 09 26 57 16 88 70 ab 33 88
       3.0045613e-34 5.735086e-33 -4.5241426e-34 -5.4067377e-34
0002a0 fc bd 62 87 7c 38 cd 89 bd ee 74 05 25 04 de 87
       -1.7058182e-34 -4.9405072e-33 1.1516674e-35 -3.3405283e-34
0002b0 7c 12 24 08 51 66 69 8a 84 c2 ad 88 71 1b 04 08
       4.9373683e-34 -1.12377855e-32 -1.0457789e-33 3.9754562e-34
0002c0 eb 8c 29 06 63 39 50 89 6d aa 3f 0a 7c 4a 1d 0a
       3.1888897e-35 -2.5064072e-33 9.228369e-33 7.573284e-33
0002d0 bd ab c7 09 de 67 23 09 dd 98 35 89 e3 4a 24 08
       4.806901e-33 1.966925e-33 -2.1858958e-33 4.9439984e-34
0002e0 b2 99 fe 87 47 70 a0 0a 74 0e 3f 08 02 0c a9 89
       -3.8308006e-34 1.5449674e-32 5.749396e-34 -4.0696562e-33
0002f0 eb 16 75 09 b3 7d ac 89 87 2c 64 8a 8d d8 29 08
       2.9501578e-33 -4.15257e-33 -1.0986175e-32 5.111114e-34
000300 da f2 10 09 58 ac 16 0a 30 79 e2 04 60 b8 a7 89
       1.7447558e-33 7.2546515e-33 5.3243638e-36 -4.0377173e-33
000310 82 2c 36 0a ca 28 ac 89 01 22 97 89 8c a2 7f 87
       8.771352e-33 -4.144585e-33 -3.6383905e-33 -1.9231836e-34
000320 d3 4f 42 09 f0 7b 44 88 31 c0 21 88 ec 97 94 8a
       2.3389434e-33 -5.9127292e-34 -4.8675095e-34 -1.4309028e-32
000330 a8 0e 42 07 7f c6 06 88 fa 61 45 08 f9 83 33 09
       1.4599245e-34 -4.055749e-34 5.93977e-34 2.1608394e-33
000340 32 c7 d2 89 25 f1 d5 89 24 29 45 89 79 37 59 0a
       -5.0742983e-33 -5.1504656e-33 -2.3732357e-33 1.0458603e-32
000350 48 21 aa 87 a4 db 18 0a 41 15 bd 8a e0 45 0b 88
       -2.5598318e-34 7.3598436e-33 -1.8208033e-32 -4.191093e-34
000360 f0 31 d7 89 cc f4 25 8a 7f 64 26 88 ab 67 51 86
       -5.180633e-33 -7.990502e-33 -5.007194e-34 -3.9384694e-35
000370 c7 6c 86 86 c5 7f 46 89 74 6a 70 89 af c8 02 88
       -5.056503e-35 -2.389346e-33 -2.8939003e-33 -3.9356354e-34
000380 c4 9f 53 8a 83 a4 10 88 24 24 5f 88 ea 56 1e 08
       -1.0189329e-32 -4.3526806e-34 -6.7149105e-34 4.7648562e-34
000390 1f e2 13 88 69 6d 01 0a fe 26 83 09 3f c7 91 89
       -4.4502007e-34 6.231702e-33 3.157377e-33 -3.509485e-33
0003a0 e7 82 60 89 42 d2 a7 8a aa d7 d7 88 d1 da d7 89
       -2.702457e-33 -1.6160605e-32 -1.2990544e-33 -5.196514e-33
0003b0 b2 62 63 89 04 01 77 89 7d ab 85 89 ba 0a 66 09
       -2.7370537e-33 -2.9732021e-33 -3.2179852e-33 2.7690287e-33
0003c0 d6 3d 09 08 1b 0f f7 89 f2 b7 b1 8a 52 15 66 09
       4.1299626e-34 -5.9477292e-33 -1.7113673e-32 2.7695268e-33
0003d0 d8 72 1b 0a 9a 50 9e 89 82 51 95 09 96 85 0b 08
       7.484578e-33 -3.8112914e-33 3.5947095e-33 4.198582e-34
0003e0 71 e9 13 89 01 c9 b9 89 4f ea 0f 09 db 0c 23 88
       -1.7804245e-33 -4.4726153e-33 1.732317e-33 -4.906614e-34
0003f0 b6 eb f8 89 a7 dd 28 85 4f 52 33 89 de 80 bd 05
       -5.992549e-33 -7.940033e-36 -2.1585043e-33 1.7820813e-35

bias f4 [64]
000000 5a 19 b8 3b 41 10 50 8e 14 7e a0 ba 06 19 a4 8d
       0.0056182565 -2.5645805e-30 -0.0012244605 -1.01133045e-30
000010 fb 00 5a 88 48 5a 0c 3a bc 1e bd ba 49 df d2 8f
       -6.560314e-34 0.0005354029 -0.0014428715 -2.0793605e-29
000020 05 ac ad ba 30 d6 47 3a c4 f9 03 3c 86 74 04 80
       -0.0013250118 0.0007623164 0.008055154 -4.09143e-40
000030 59 52 65 84 4f 0d 3f 3b 77 08 00 80 2c 77 47 3c
       -2.6956633e-36 0.002915222 -3.037e-42 0.012174409
000040 9a a3 53 3b ea ca c2 3c 4f e3 5a 87 61 d9 01 00
       0.003229356 0.023778398 -1.6467297e-34 1.69816e-40
000050 b5 6d 05 3c 41 af 45 80 e9 35 3c b9 a9 14 64 86
       0.008143832 -6.399518e-39 -0.0001794916 -4.2897213e-35
000060 bc 7f 11 80 5c 62 77 3c 77 de ea 3b 1e a8 37 80
       -1.607026e-39 0.015099134 0.007167633 -5.111261e-39
000070 f2 dd 59 3a 00 5a 8c b9 b8 c2 54 3c 98 7a ca 80
       0.00083109655 -0.00026769936 0.012985878 -1.8594749e-38
000080 3e 3e b8 3c 2d b3 3b 3a a6 01 6a 87 e7 2e 08 3b
       0.022490617 0.0007160183 -1.7604688e-34 0.002077991
000090 0b 87 08 89 8b 0e 02 00 68 b8 da 83 c9 a1 ce 39
       -1.6433901e-33 1.88888e-40 -1.2855226e-36 0.0003941192
0000a0 a8 01 80 3b f8 e9 b0 83 ce 07 00 80 b8 d7 48 3b
       0.0039064474 -1.0398067e-36 -2.8e-42 0.0030646157
0000b0 f2 ae 81 80 97 69 2a bb e7 ea 1e 3a 13 5c 2f 3c
       -1.1909538e-38 -0.0026002878 0.0006062225 0.010703105
0000c0 1e 48 01 00 bc c3 4a 3c d6 45 3e a4 77 44 01 00
       1.17706e-40 0.012375768 -4.1258836e-17 1.16396e-40
0000d0 a9 4d 39 80 af 58 4d 3c 6f 51 cc 3a 77 13 09 3b
       -5.262482e-39 0.012533351 0.0015588234 0.0020916143
0000e0 43 63 9b ba cf e1 01 80 30 fe 00 00 4f ff d2 89
       -0.0011855144 -1.7284e-40 9.1185e-41 -5.0795752e-33
0000f0 25 01 0a 3d b2 9e a3 3c 47 54 f0 88 57 5c 32 ba
       0.033692498 0.019973133 -1.4464288e-33 -0.0006803921

weight f4 [19, 64]
000000 38 b6 41 bc cf 58 75 0d dd 38 f5 3a 97 83 b0 13
       -0.0118232295 7.5603353e-31 0.0018708963 4.4558404e-27
000010 b9 37 6f 08 dd 52 29 3b fd ec 13 3b 8f 72 40 15
       7.198695e-34 0.0025836744 0.0022571676 3.8864462e-26
000020 cb ec 20 3c a6 07 1b 3c 65 88 a1 bc b4 6e e9 01
       0.009822081 0.009462273 -0.019718358 8.5749534e-38
000030 cc bb cd 0b c7 ff 85 bc bb 73 01 00 7a 8f 8e bc
       7.9245693e-32 -0.016357316 1.33352e-40 -0.0174024
000040 84 90 97 bb 3c fe e2 bc b9 ab 09 8a 70 96 00 00
       -0.004625382 -0.027709119 -6.6286075e-33 5.3967e-41
000050 c5 fd 2b 3c 5d a1 73 80 7f b3 93 37 8a 5c 94 8b
       0.010497515 -1.0618968e-38 1.760735e-05 -5.7146764e-32
000060 35 4e 10 84 9f 70 c2 bc 1b af 31 3c be 78 00 80
       -1.696303e-36 -0.023735343 0.010844971 -4.3314e-41
000070 34 45 21 3c b5 2e bd b9 ab c2 30 3c 70 09 ad 85
       0.0098431595 -0.0003608369 0.0107886 -1.6272309e-35
000080 d8 f4 d2 bc d8 8d 04 3c a5 ba 0a 09 eb cf 36 3c
       -0.025751516 0.008090459 1.6698906e-33 0.01115797
000090 ad e9 fb 08 f8 06 01 80 51 b4 dc 83 55 0f 0f ba
       1.516145e-33 -9.4335e-41 -1.29718365e-36 -0.0005457302
0000a0 2b a8 34 3c 85 4c c6 84 bc 06 00 80 1c f4 8a bc
       0.0110264225 -4.661985e-36 -2.416e-42 -0.016962104
0000b0 a4 28 85 87 23 5b 37 3b d6 be e2 3b 9b d7 55 bc
       -2.0035502e-34 0.0027977906 0.006919722 -0.013051893
0000c0 39 96 01 00 9b 9c 31 3c 37 ec 08 38 1c f0 ae 01
       1.45725e-40 0.01084056 3.264492e-05 6.4262045e-38
0000d0 79 2d dd 04 fd 64 4d 39 15 ea 30 3c 78 83 39 3c
       5.199861e-36 0.00019587945 0.010797997 0.0113228485
0000e0 87 ba b1 ba 1a cd 00 80 90 ed 01 80 d2 fb a6 8c
       -0.0013559618 -7.3577e-41 -1.77057e-40 -2.5727908e-31
0000f0 23 f7 e3 3b 11 b8 34 3c 8c 53 d7 0a ae 5e 9e 39
       0.006956951 0.011030213 2.0735174e-32 0.0003020665
000100 4e 0a 80 bb 95 79 20 8c d4 78 32 3b 97 e3 d2 90
       -0.0039074784 -1.2362539e-31 0.0027232664 -8.318105e-29
000110 70 a5 f7 05 4f 4e 0f bb 84 aa 23 3b 5e 3b 78 13
       2.328854e-35 -0.0021866744 0.0024973461 3.1331271e-27
000120 2e 77 e2 3a dc d1 07 3b 71 fe 43 bc 29 74 10 00
       0.001727795 0.0020724451 -0.011962519 1.511038e-39
000130 c8 73 1d 0a ba 13 d0 ba 6c 85 00 00 92 e9 de bb
       7.581051e-33 -0.001587502 4.7863e-41 -0.006802746
000140 96 03 45 3b 3f 49 d7 bc fc 2b a8 07 e7 e1 00 80
       0.0030061952 -0.026280044 2.5303682e-34 -8.1038e-41
000150 95 5c 01 3b cf b3 13 00 56 1c 89 b7 0c a9 1a 8a
       0.001973902 1.809378e-39 -1.6344868e-05 -7.4466245e-33
000160 df 21 52 03 fa 0a 64 bc 82 09 4e 3b 88 69 00 80
       6.1752336e-37 -0.013918633 0.0031438773 -3.7857e-41
000170 fc 8e 82 3b 23 80 7a 37 c2 aa 0f 3c 0c d8 71 84
       0.00398433 1.4930995e-05 0.008768739 -2.8428618e-36
000180 d4 65 d1 bc 70 4b e6 3a 6d be 7e 07 16 e4 d2 3a
       -0.02556125 0.001757009 1.9164797e-34 0.0016089703
000190 2c 2e a0 07 ee da 01 00 16 31 2d 81 98 2f 78 3b
       2.4101262e-34 1.70373e-40 -3.18103e-38 0.0037870165
0001a0 98 af 3c 37 d2 f2 c7 02 fb dc 00 00 02 e2 f4 b9
       1.1246557e-05 2.9379794e-37 7.9273e-41 -0.00046707696
0001b0 d2 27 fd 81 45 7d 2f 3c f0 88 ce ba da 24 7b 3a
       -9.299466e-38 0.010711019 -0.0015757363 0.00095803814
0001c0 cd 8e 00 80 d4 09 bd 3b 5c 5b 35 b0 63 4e 01 00
       -5.1227e-41 0.005768994 -6.5977246e-10 1.19955e-40
0001d0 d9 07 d5 01 6b 73 c1 3b 4e 61 a1 3a 40 df d3 3a
       7.8255104e-38 0.0059036515 0.0012312324 0.0016164556
0001e0 6d 48 0d 3c 25 13 02 80 72 74 01 00 f4 a7 8e 8b
       0.008623225 -1.90539e-40 1.33608e-40 -5.494912e-32
0001f0 65 f3 2b 3c 57 7f d0 3b 9b 71 8b 09 c0 ec fe 3a
       0.0104950415 0.0063628363 3.3569867e-33 0.0019449219
000200 7f e0 97 3b f4 d3 cc 0b c0 97 5e bb 82 b4 19 90
       0.0046349163 7.8896853e-32 -0.0033964962 -3.0312988e-29
000210 3b 19 a3 07 1a 4c 0c ba 18 0c a9 bb d2 90 c0 13
       2.4540343e-34 -0.0005351916 -0.0051589124 4.8610418e-27
000220 99 21 a3 ba fb 2e 12 bb 8e 20 17 3a b5 84 56 00
       -0.0012445926 -0.0022305835 0.0005765044 7.945459e-39
000230 8f 28 1a 8a 56 f3 05 3b b7 bd 01 00 a5 a6 6c 3d
       -7.4224585e-33 0.002043923 1.59892e-40 0.057776112
000240 89 95 e0 ba 6d 4a 54 3b 18 fa 82 88 eb 6f 00 00
       -0.0017134409 0.0032392994 -7.882887e-34 4.0149e-41
000250 38 03 04 bb a8 c0 1c 80 aa 1f 28 b9 11 d7 77 89
       -0.002014352 -2.640506e-39 -0.00016033524 -2.9832667e-33
000260 38 0e 8f 02 2b 3b 87 3b ed 19 2b bb 07 af 01 00
       2.1020123e-37 0.0041269264 -0.0026107982 1.54623e-40
000270 ba 29 b4 3a 81 74 1b 37 e1 2b 3f bb 2f e6 bd 04
       0.0013745346 9.265846e-06 -0.002917044 4.4645077e-36
000280 fa d9 ba 3b 30 9f 7d 39 42 74 c5 06 31 59 c4 ba
       0.0057022544 0.00024187262 7.427399e-35 -0.0014980194
000290 b5 55 ba 87 08 91 01 00 2e d6 67 80 ab 62 3d 3b
       -2.8036544e-34 1.43863e-40 -9.535889e-39 0.0028897922
0002a0 67 fc 61 3a d7 25 b2 82 7d ae 01 80 5d b4 05 3b
       0.000862068 -2.6176468e-37 -1.5443e-40 0.0020401694
0002b0 0d db 1c 03 56 8e 9a bb ac 39 14 bb 40 a8 eb 39
       4.6095738e-37 -0.004716675 -0.0022617383 0.0004494805
0002c0 39 65 00 80 52 d7 b0 b9 d1 4a cc af 2f 9f 0c 00
       -3.6312e-41 -0.00033729762 -3.7160544e-10 1.15913e-39
0002d0 db dc d5 84 89 c1 78 3b da d2 87 39 bd 60 60 39
       -5.0278883e-36 0.0037957153 0.00025906303 0.00021398343
0002e0 ba 90 09 3c 17 5a 02 80 8a 2d 02 80 ed 21 aa 8b
       0.008396322 -2.15989e-40 -2.00007e-40 -6.5532664e-32
0002f0 c5 cc 3d bc ff 8a a4 bb 56 60 93 88 6c 95 49 3b
       -0.011584465 -0.0050214524 -8.869889e-34 0.0030759228
000300 23 2b 00 bb 92 a7 f6 0b c4 21 08 bc 8c 93 6d 91
       -0.0019556961 9.5007885e-32 -0.008308832 -1.874147e-28
000310 1a 12 6b 06 d2 e6 b9 ba 42 b1 00 ba d7 d3 8e 13
       4.4211887e-35 -0.001418317 -0.0004909226 3.605473e-27
000320 08 e3 f8 3b 1d f4 c0 ba 63 7d 99 3b 7a a0 10 00
       0.0075954236 -0.0014721189 0.0046841367 1.526936e-39
000330 65 e5 86 0a 2a 8f cb 3a bf 1e 01 80 60 ed ee 3c
       1.2990019e-32 0.0015530337 -1.02865e-40 0.029165924
000340 44 68 1b ba 99 0f b0 3c b3 42 d8 06 9e 67 01 80
       -0.00059283176 0.021491813 8.1348175e-35 -1.29006e-40
000350 f1 7c 68 b9 13 09 19 00 57 dd 92 b9 43 ba 1e 07
       -0.00022171788 2.299143e-39 -0.000280122 1.1941336e-34
000360 bb 88 48 03 77 b0 99 3c 32 48 04 3a d5 6e 00 00
       5.8931676e-37 0.018760903 0.00050461583 3.9759e-41
000370 5b 22 26 3b 07 29 a2 b9 08 b0 13 3b 00 9f 86 84
       0.0025350067 -0.00030929616 0.0022535343 -3.1649267e-36
000380 f0 60 b2 3c c3 bf d9 3a 03 d5 a6 07 64 2e 1f 3b
       0.021774739 0.0016612936 2.51021e-34 0.0024289126
000390 96 d2 fa 07 6d 56 02 00 73 53 6c 81 5c 4c 58 3b
       3.773959e-34 2.14675e-40 -4.3406226e-38 0.0033004498
0003a0 89 54 54 b9 9d 20 93 02 f4 4f 02 00 0e 20 40 3b
       -0.00020249387 2.1618428e-37 2.12353e-40 0.002931598
0003b0 1f 44 8e 82 b6 20 2f 3b ab 26 95 38 d8 3b 22 39
       -2.0904124e-37 0.0026722378 7.112076e-05 0.00015471817
0003c0 a1 49 00 80 cb 5e 0a b9 df 14 18 b1 68 e0 09 80
       -2.6413e-41 -0.00013196019 -2.2130775e-09 -9.07021e-40
0003d0 ac 4f 10 02 b3 b2 43 bc 3d 91 49 3a f7 80 cf 3a
       1.0602314e-37 -0.011944461 0.00076891837 0.0015831281
0003e0 46 ba c8 3b 3c ad 01 80 1a 87 00 00 4e 9b de 8b
       0.006125721 -1.5398e-40 4.8465e-41 -8.5744966e-32
0003f0 3c 08 49 bc 8a 75 7b bb 07 a3 8f 09 5d b6 8b 3a
       -0.01227003 -0.003836962 3.4579308e-33 0.0010659207

bias f4 [19]
000000 e8 e1 a7 3e 3e 3c d5 ba ae c5 ef b9 3b a2 53 3b
       0.3278954 -0.0016268564 -0.00045732915 0.0032292742
000010 b8 01 a7 3e 4d 11 10 b9 92 d4 3c 3a 3e fe 68 ba
       0.326185 -0.00013739355 0.00072033063 -0.00088879827
000020 72 3b ae 3e d4 75 a6 3e e4 d9 11 ba 94 e8 14 39
       0.34029728 0.3251177 -0.0005563779 0.00014201022
000030 95 b7 3b 3b f8 5c a8 3e ef c5 f9 ba 3a c4 1f 3a
       0.002864336 0.3288343 -0.0019056181 0.00060946087
000040 ae c3 7a ba b0 ec b1 3e 57 63 36 be
       -0.0009565902 0.3475089 -0.17811333
