models/data_aug/N/model1.pt (torch, 353039 bytes, 8 tensors)

weight f4 [128, 384]
000000 1d 1d 58 bd a9 cb 94 3b ac 15 4d 3d 60 29 c3 3b
       -0.05276214 0.0045408797 0.050069496 0.00595586
000010 b1 5a a0 bc 87 7e fc bc 49 9c 91 bd 7f a2 5f bc
       -0.019574495 -0.030822052 -0.07109887 -0.013649582
000020 95 73 8b bc 08 49 e1 bc ec bc 09 bd 77 f1 a0 3c
       -0.017022887 -0.027500644 -0.033627436 0.01964639
000030 3d 18 61 bd 86 7c d4 bd 2b 03 98 bd d0 1a 83 bd
       -0.054954756 -0.103753135 -0.07422479 -0.064015985
000040 4a 08 3e bc 95 57 8a 3d 45 9a 3a 3d 68 0b 59 39
       -0.011598656 0.06754986 0.04555728 0.00020698982
000050 d1 2f f4 3c ab 2b 48 bc bd ac 3e bd 46 60 51 3b
       0.029807957 -0.0122174425 -0.046551455 0.0031948253
000060 61 ce 94 bc ce a8 1b 3c 90 b8 ac bd 64 2a a9 bd
       -0.018164815 0.009500695 -0.0843364 -0.082600385
000070 5e fc 9a bd 39 51 b3 bd 15 9c 8d bd ee 3e 15 bb
       -0.075676665 -0.08755726 -0.06914536 -0.0022773105
000080 2f 06 c9 ba 1f f2 0f bc 0f 51 d2 38 8d 4c ef 3c
       -0.0015336926 -0.0087857535 0.00010028679 0.029211307
000090 92 11 a1 3d 8f 8d 00 3d 93 c1 9f 3b aa 86 2d 3d
       0.078646794 0.031385 0.0048753708 0.042364754
0000a0 6a 51 67 3d 6f f0 ab 3d 91 00 1e 3e fb 5d 9b 3d
       0.056474127 0.083954684 0.15429904 0.07586285
0000b0 6b 62 b6 3c b0 1e c9 3c 75 2d af 3d b9 13 0b 3e
       0.022263726 0.024550766 0.08553592 0.13581742
0000c0 74 e5 ae bd 46 be 4d bb 7d 24 0d 3d 1e bf 0c 3d
       -0.085398585 -0.003139393 0.034458626 0.03436195
0000d0 1f e4 83 bd 4b 1a 40 3b e8 94 a1 3d 3f ea 6a 3d
       -0.06439995 0.0029312547 0.0788973 0.0573523
0000e0 bb d4 ed ba bb 9e 65 3d 9d 77 5f 3e 30 33 5a 3e
       -0.0018145064 0.05605958 0.21822973 0.21308589
0000f0 fd bb 97 3d 89 b9 0d 3d 94 d0 a5 3a f2 c2 94 3d
       0.07408903 0.03460077 0.0012650662 0.07263745
000100 64 6f 32 3b 70 92 b0 3c b6 3f e9 bc af 88 e5 3c
       0.0027227039 0.021554202 -0.028472763 0.028019277
000110 4d 6a 90 bc 41 bc cd bd 18 32 fb bd 5f aa a2 bc
       -0.017628813 -0.10045672 -0.12265414 -0.01985663
000120 52 08 f9 bd df 8e a2 bd f3 78 88 bc cd 6c 70 bd
       -0.1215979 -0.07937407 -0.016659236 -0.05869751
000130 1a 66 00 bd 70 e4 3a bd 97 80 79 bd 38 44 8a bd
       -0.03134737 -0.04562801 -0.06091365 -0.06751293
000140 02 82 01 3c 76 e1 6b 3d d3 0e 3f 3d aa 57 3b 3d
       0.007904531 0.057588063 0.046644997 0.0457379
000150 c4 a6 24 bc db e4 91 bd 2b 1a 69 bd 49 37 ab bc
       -0.010049526 -0.07123729 -0.05690972 -0.020900385
000160 2a 9b 21 be 54 e5 e6 bd 09 5f fe bd 23 73 0d be
       -0.15781847 -0.112742096 -0.1242047 -0.13813452
000170 ac ca 90 bd 3e eb a0 bd e0 e6 19 bc af 02 7f 3d
       -0.070699066 -0.07857369 -0.009393424 0.06225842
000180 8c 5d 3a bb a7 25 93 bc d4 72 ff 3c c2 af 74 3c
       -0.0028437106 -0.01796229 0.031182684 0.014934482
000190 f5 66 81 3b bf 59 c7 bc a0 2c 55 bd 54 9b 2c bc
       0.003949041 -0.024334786 -0.05204451 -0.01053508
0001a0 c8 dc 38 3d 20 dd 71 bc f8 c1 29 bb ba 5d 46 3c
       0.04513243 -0.014762193 -0.0025902968 0.012107307
0001b0 3d d8 45 bd d4 3a 7a bd 1f b7 46 bd a1 54 8f bd
       -0.048301924 -0.06109126 -0.04851448 -0.069985636
0001c0 39 10 a9 3c 49 0f 40 bd 3b 78 d0 bd 6e 1b 9e bd
       0.020637618 -0.046889577 -0.10179182 -0.077200755
0001d0 f1 d8 8b bd 9f 23 80 3d a7 41 b9 3c c2 83 85 3c
       -0.06828488 0.06256794 0.022614313 0.016298179
0001e0 b2 c1 7c bd 46 c6 c7 bd 4f ad 09 be 33 e5 66 be
       -0.06170816 -0.097546145 -0.13445018 -0.2254837
0001f0 e4 02 42 be 9d 8a e2 bc 02 dc 52 bb 93 31 43 3d
       -0.18946415 -0.027653987 -0.0032174592 0.0476547
000200 ca 66 97 bd 28 f0 3e bd 78 07 d8 3a 33 35 ae 3d
       -0.07392652 -0.04661575 0.0016481718 0.08506241
000210 77 81 b2 3d 98 fb 13 3d 96 e7 d3 3c d2 a8 c8 3c
       0.087161 0.03612861 0.025867265 0.024494562
000220 4a e3 cd 3c d7 8d 25 bb 15 60 32 3c 2b 77 65 3d
       0.025132794 -0.0025261545 0.010887166 0.05602185
000230 b1 09 84 3d 84 66 37 3d 51 52 a8 bc e4 6a f6 39
       0.06447161 0.0447755 -0.020547064 0.00047000416
000240 e2 0b 9b 3c ad 40 79 bc bf bd 40 bc 2d 28 ae 3c
       0.018926565 -0.015213174 -0.011763989 0.021259392
000250 29 b1 e6 bc a4 c8 16 bd c9 69 e4 bd 69 f8 5d bd
       -0.028160648 -0.03681244 -0.111529894 -0.05419198
000260 37 9f 2c bd fc 7e 42 3d 81 cb d7 3d d6 b4 b7 3d
       -0.042144027 0.047484383 0.10536862 0.089700386
000270 de cd 33 3c d1 33 1a be c4 82 b4 bd 46 47 d4 bc
       0.0109743755 -0.15058829 -0.08814004 -0.025912892
000280 fe d5 90 bd aa 7d 3c bd 19 ca 15 3d 33 c6 64 bc
       -0.07072066 -0.04601828 0.03656969 -0.01396327
000290 90 d9 f5 bc 2b d0 a7 3c d4 01 99 3d a1 37 b6 3b
       -0.030010968 0.020485004 0.07471052 0.0055608307
0002a0 b4 c7 83 bc f6 02 9d bc 6d 8c d5 bb 8b 86 33 3d
       -0.016086437 -0.019166451 -0.006516984 0.043829482
0002b0 47 cc ad 3c 3f d4 5f 3d 0f 7b dd 3c 55 0f 01 bd
       0.021215571 0.054645773 0.027036218 -0.031508762
0002c0 49 db 01 3d d3 2c 36 bc 12 dc ae bd 09 22 fb bb
       0.031703267 -0.011119085 -0.08538069 -0.0076639694
0002d0 ba b9 61 bc c3 71 86 bd fc 6d 04 bd d3 27 d1 bc
       -0.013777191 -0.06564667 -0.03233145 -0.025531685
0002e0 35 02 72 bc 01 99 33 bd b9 ad 72 3c b6 a4 e2 3d
       -0.014771034 -0.043847088 0.0148119265 0.11066572
0002f0 f4 05 d9 bd 9a 98 53 be 58 58 e2 bd 3c 4c a0 bd
       -0.105968386 -0.20663682 -0.110520065 -0.078270406
000300 90 92 db 3b 7a f6 55 3e da f3 91 3e fb 80 92 3d
       0.006700821 0.20894805 0.28506356 0.07153507
000310 28 5f 09 be 72 e0 e5 bc 22 8b 8c 3a a3 27 f9 3c
       -0.13415205 -0.028061125 0.0010722617 0.030414408
000320 12 af 82 bc 69 06 80 bd e2 54 31 3e b9 e8 11 3e
       -0.01595262 -0.06251223 0.17317536 0.14248933
000330 01 bd 07 bb 50 5f ad 3c d1 fc 6f 3b 8c 8e 85 bb
       -0.002071202 0.021163613 0.0036619196 -0.004075831
000340 31 f5 6b 3d fe 7c 1b be 1a 9b 3b be 1d 8c 05 be
       0.05760688 -0.151844 -0.18320885 -0.1304173
000350 db 2d 4a bd a4 d7 7f 3d 83 06 56 3d 8a 53 22 3c
       -0.049360137 0.06246151 0.052252304 0.009907613
000360 d2 0e d6 3c 25 40 8c bb 70 21 89 bd 62 b6 02 be
       0.026130114 -0.0042801076 -0.06695831 -0.12764886
000370 32 42 11 3c 0c 18 a4 3d 49 6c a8 3d 3a d9 66 3d
       0.00886588 0.08012399 0.08223779 0.056359507
000380 b5 bd e8 3d 1a 8d 4a 3e 98 a2 f3 3d 48 87 41 bd
       0.11364309 0.19780388 0.11896247 -0.047248155
000390 6d c7 79 bd 79 19 a7 bc 3a c5 ec 3c a8 94 33 3d
       -0.060981203 -0.020397888 0.028902639 0.04384294
0003a0 e4 ce 0e 3d b6 9b e8 3d 9a 39 9d 3c 79 b0 68 be
       0.034865275 0.113578245 0.019192506 -0.22723569
0003b0 36 42 a4 bd 55 50 37 bd 08 43 db 3c 8d 2a 5d 3d
       -0.08020441 -0.044754345 0.026765361 0.053995658
0003c0 fe c2 cf 3c 5d 08 9d 3d 88 92 66 3d 70 20 6e bd
       0.025361534 0.07667611 0.056292087 -0.058136404
0003d0 26 2e 0c bd ba 98 04 be ac 00 f8 bd 4c 1b 16 bd
       -0.034223698 -0.12948886 -0.12109503 -0.036647126
0003e0 27 06 29 3d 2a 77 72 3d 6e 1d 93 3d 8e 0f a7 3d
       0.041265633 0.059195675 0.07183348 0.08157264
0003f0 78 1c c3 3d 6f e1 a1 3c c3 5d 78 3d 9d f9 89 3d
       0.09526914 0.019760815 0.060636293 0.06737063

bias f4 [128]
000000 fb 02 5b 3d 03 72 16 3d 05 61 be 3b d9 e7 2d 3c
       0.05346964 0.036729824 0.0058099055 0.010614359
000010 9d d1 86 3a ee 54 a1 3b ee 3f 0d 3d ca 04 0b 3d
       0.0010285858 0.0049234545 0.034484796 0.033940114
000020 c2 af 4c 3c af 98 0b 3d 18 9d 00 3c e1 b7 c5 3b
       0.012493076 0.034081157 0.007849954 0.006033883
000030 c2 14 94 3b 5a c5 db 3a 8b 29 2b 3d 7a c0 e9 3c
       0.004519076 0.0016767189 0.041787665 0.028534163
000040 1c db fe 3b b4 32 7c 3c 4c a4 28 3c 3c 01 c0 3b
       0.0077775847 0.015392948 0.010293078 0.005859522
000050 d7 59 eb 3c 92 68 1e 3c 4a 8c 1b 3d 24 a7 04 3d
       0.028729362 0.009668486 0.037975587 0.03238596
000060 04 1a 14 3c 6b 83 33 3c dc e1 30 3c c8 20 23 3d
       0.009039406 0.010956625 0.010796037 0.039826185
000070 59 ee 1a 3d 8a af 08 3d a1 3e f8 3c 87 33 2a 39
       0.037824962 0.033370532 0.030303301 0.00016231659
000080 07 fa 11 3d d0 a8 1d 3c 67 1b 61 3c 5a 83 23 3d
       0.035638835 0.009622768 0.013739443 0.03992019
000090 34 ec 90 3b ef 66 6c ba 44 e4 48 3c 2a d7 fa 3c
       0.004422689 -0.0009018024 0.012261454 0.030620176
0000a0 9b 68 0b 3c d3 7e 1a 3d 58 5f 48 3c a1 4a 11 3d
       0.008508827 0.037718605 0.012229763 0.035471562
0000b0 87 2b e9 3a be e8 73 3d 2c 2d 68 3c 8c f6 5a 3c
       0.0017789461 0.059548132 0.014170926 0.013364445
0000c0 f8 41 b0 3b 20 24 f2 3c db 6f 2a 3c d1 1c 90 3b
       0.005378958 0.029558241 0.010402645 0.0043979664
0000d0 ea 22 0a 3d ba 97 5a 3c 79 bf 51 bc cb ee 10 3d
       0.033724703 0.0133418385 -0.012801998 0.03538398
0000e0 b1 79 09 3c 93 3a e0 3b ea 9e 18 3c 3c 51 b8 3b
       0.00839083 0.00684292 0.009315232 0.0056249183
0000f0 74 83 f3 3c 76 0e 10 3c 2f 94 a8 3c 4a 19 d7 3b
       0.029725768 0.00879251 0.020578472 0.006564294
000100 78 67 17 3d 52 94 e8 3c 39 30 0e 3d c9 73 ef 3b
       0.03696391 0.028391037 0.034713957 0.007307504
000110 fe 47 17 3d b5 a4 95 3e 2a 33 2f 3d e9 e2 a2 3b
       0.03693389 0.29227224 0.042773403 0.0049708975
000120 cb 61 1f 3d aa fe 07 3c 77 85 fb 3b 03 44 68 3c
       0.038911622 0.008300463 0.0076758224 0.0141763715
000130 4b ab 09 3c d8 49 03 3d 8d 91 7d 3c b2 a8 45 3b
       0.008402656 0.032052845 0.015476597 0.0030160365
000140 97 7b 25 3c 8f df 36 3c 86 56 1b b8 6c 8a 91 bc
       0.010100267 0.011161699 -3.703546e-05 -0.0177662
000150 ac a3 02 3d 83 90 c7 ba 65 56 17 3d 91 35 19 3d
       0.03189437 -0.0015225563 0.036947627 0.0374046
000160 ea 31 4e 3c 9a 52 03 3c 8b 9c c9 3c 6c e8 e3 3c
       0.012585143 0.008015299 0.024610778 0.027820788
000170 f3 f1 c5 3c 58 56 af 3b e3 70 20 3d 66 28 bd 3b
       0.024163222 0.005350869 0.039170157 0.005772638
000180 3b 59 a2 ba 27 9d e2 3b cb 1b 18 3c a8 a2 0e 3d
       -0.0012386212 0.0069157067 0.00928397 0.03482309
000190 99 53 18 3d 1a f0 8a 3c 1b 40 0e 3c 32 86 d7 39
       0.0371891 0.016960192 0.008682276 0.0004110798
0001a0 a3 04 8b 3c 92 42 00 3d 2f 7a 73 bc 8e 45 f4 3b
       0.016969984 0.031313486 -0.014860674 0.0074545806
0001b0 37 4e 04 3d dc 9e 1e 3c da 99 0c 3d 3b 53 3f 3c
       0.032301154 0.00968143 0.03432641 0.0116775585
0001c0 94 f4 1c 3d e4 e0 9f 3b 1c db 00 3d f4 39 f2 3a
       0.038319185 0.004879104 0.03145896 0.0018480406
0001d0 bd c6 ec 3a 8d 33 20 3d 49 3f 0c 3d b6 08 29 3d
       0.00180646 0.039111663 0.03424004 0.041268073
0001e0 c6 c8 1a 3d 44 44 04 3d 90 74 03 3d 93 4b 1e 3d
       0.03778913 0.032291666 0.032093585 0.038646292
0001f0 a7 da be 3b e8 75 af 3e a6 fc 70 3c 22 3e fb 3b
       0.0058244052 0.34269643 0.014708674 0.007667319

weight f4 [128, 128]
000000 5e c6 a8 be e0 1b b8 bd 2c ed 49 3c 48 44 1a 3e
       -0.32963842 -0.08989692 0.012324613 0.1506511
000010 07 87 20 be f7 f8 8b 3d b3 37 c0 bd 2f a0 7b be
       -0.15676509 0.06834596 -0.09385624 -0.24572824
000020 9a bf 1f 3e a1 3d ba bd 9b 45 61 3d 4d e0 50 3d
       0.15600434 -0.09093786 0.05499802 0.05099516
000030 13 ee 7f 3d 8e e1 02 3d 38 b7 9f bd 36 0c 0f be
       0.062482905 0.031953387 -0.07798618 -0.13969502
000040 29 c8 ee 3d d5 e0 1f 3e ce 09 24 3e b5 95 06 3e
       0.11659271 0.1561311 0.16019365 0.13143046
000050 64 5e 06 be d4 e4 ec 3d 0e be 2d be e3 6d 24 be
       -0.13121945 0.11567083 -0.16967031 -0.16057543
000060 f6 17 7f 3d 6f 22 7f bd 95 b2 1c 3e b2 88 a0 bd
       0.06227871 -0.062288698 0.15302499 -0.078385726
000070 f2 7d 90 bd a6 21 4c be 59 f8 cf bd 60 a6 95 bd
       -0.07055272 -0.19934711 -0.101547904 -0.07307124
000080 4c 3f 9e bd f6 74 f1 3d 42 bc 41 3e 79 03 9b bd
       -0.07726917 0.11789887 0.18919471 -0.07569022
000090 61 bf 74 3d 73 04 14 bd 69 06 22 3e f5 5a af bd
       0.059752826 -0.036137056 0.15822758 -0.085622706
0000a0 ba 4e fd 3d 5d 9a 93 bd 73 0e f7 3d 91 e8 9f bd
       0.123685315 -0.07207177 0.12063303 -0.078080304
0000b0 f6 6e 86 3c 76 ef 0c 3e c1 b7 5c 3d 96 17 00 be
       0.016410332 0.13763222 0.05388618 -0.12508997
0000c0 4d 26 68 3d 09 5b 0e be c6 50 59 3d 70 ab d9 3d
       0.05667715 -0.13901915 0.053055547 0.10628402
0000d0 c4 47 3c be 3c 19 57 be 28 50 bf be 75 52 b7 bd
       -0.18386751 -0.2100572 -0.37365842 -0.08951274
0000e0 46 78 02 3e 10 88 36 3d 43 53 68 3d 98 bd db 3c
       0.12741193 0.044563353 0.05672003 0.026823804
0000f0 29 d9 69 be 44 6b 13 3e 05 1d 84 be 5c f0 d5 3c
       -0.22836746 0.14396387 -0.2580339 0.026115589
000100 81 7d a5 bd 92 78 11 be 27 1e 97 bd 56 8c 59 3e
       -0.080805786 -0.1420615 -0.07378798 0.2124494
000110 a7 e4 af bd 92 a0 9f bd 8c 11 b4 bd 44 04 03 3e
       -0.08588534 -0.07794298 -0.08792409 0.12794596
000120 f4 ae 9c bd a7 d8 b3 bd b5 4d 53 3d e9 e8 6e be
       -0.07650557 -0.087815575 0.05158778 -0.23331036
000130 af 3d 4f 3d 41 90 11 be 24 f2 09 3e f7 9c a7 3c
       0.050595935 -0.14215185 0.13471276 0.020460589
000140 2f e8 60 3d 3c a4 20 3e bc e7 0c 3e 99 22 62 3d
       0.054908928 0.1568765 0.13760275 0.055208776
000150 a2 95 11 be 83 bf 06 bd 96 90 9a bd 81 39 c3 bd
       -0.14217237 -0.032897484 -0.07547109 -0.095324524
000160 2f cc 09 be 9f 34 f2 bd c4 70 1e be 83 0d a2 bd
       -0.13456796 -0.11826443 -0.15472704 -0.079127334
000170 b4 69 7c be 4e f8 18 3e 06 01 c8 bd 76 d3 81 3d
       -0.24649698 0.1493847 -0.0976582 0.06339161
000180 fd 25 56 3e f2 b6 4a 3d a1 a6 07 3d 10 27 a3 bd
       0.20912929 0.049490876 0.033117894 -0.07966435
000190 9d cb 94 bd 8f 7f 14 3e e7 8f aa 3c 66 8e b7 bc
       -0.07265399 0.14501785 0.020820571 -0.022406768
0001a0 50 8c 90 3d 80 e9 f0 bd 38 4e 96 be 1c 19 38 3e
       0.070580125 -0.117632866 -0.2935655 0.17978328
0001b0 54 1c 99 bd bc 18 8a 3d f6 96 97 bd ea 5b be 3d
       -0.07476106 0.06742999 -0.074018404 0.09294875
0001c0 18 37 a6 bd 2e 70 70 bd 36 95 44 be d2 24 a6 3c
       -0.08115977 -0.058700733 -0.19197544 0.02028123
0001d0 89 36 01 3d ed f8 b5 bd 29 86 ac bd c3 a6 b1 bd
       0.03154615 -0.088853694 -0.084240265 -0.086743854
0001e0 e0 72 98 bd 63 e8 92 3d 12 61 b4 bd 85 68 a3 bd
       -0.07443786 0.071732305 -0.08807577 -0.0797892
0001f0 d9 49 79 3d 0b 33 56 be c9 0e 05 3e b2 81 78 3d
       0.060861442 -0.20917909 0.12993921 0.060670562
000200 9b c3 ad be 0c 13 e2 bd a0 3e 46 3c 45 26 17 3e
       -0.33938298 -0.11038789 0.012099892 0.14760692
000210 8c cc 2a be 61 ae a0 3d e2 40 f2 bd b5 4a 84 be
       -0.16679591 0.0784576 -0.11828782 -0.25838247
000220 81 98 19 3e 3d 4a cd bd 01 77 77 3d 33 26 61 3d
       0.14999582 -0.100239255 0.060416225 0.05496807
000230 1d 42 7f 3d 7b 70 06 3d 21 ad b8 bd 5d da 1a be
       0.06231891 0.032822113 -0.09017397 -0.15122361
000240 4f ee e8 3d 8a f6 1e 3e d6 03 1f 3e b0 62 05 3e
       0.11373579 0.15523735 0.15528807 0.13025928
000250 e8 ca 15 be 45 7b cf 3d 9c f0 4c be f4 37 38 be
       -0.14628184 0.10130934 -0.2001366 -0.17990094
000260 b8 00 61 3d a8 67 80 bd a8 c4 20 3e d9 5c c6 bd
       0.054932326 -0.06269771 0.15700018 -0.09685678
000270 9e 66 c3 bd 38 3b 53 be d2 14 d8 bd 13 95 99 bd
       -0.09541057 -0.20628059 -0.10550846 -0.07499137
000280 7c a4 c7 bd a3 7d d8 3d 61 81 3d 3e de b0 ca bd
       -0.0974817 0.10570838 0.18506385 -0.09897016
000290 70 eb 7c 3d 4d 4f 15 bd 4f c3 1a 3e f4 ca cf bd
       0.06174797 -0.03645258 0.15113567 -0.10146132
0002a0 10 c8 e3 3d 15 ec c4 bd 7b c6 ea 3d 7e f6 c6 bd
       0.11122143 -0.096153416 0.114636384 -0.097149834
0002b0 42 89 7e 3c f6 af e1 bc a0 62 53 3d dd cf 07 be
       0.0155356545 -0.027549725 0.051607728 -0.13262887
0002c0 08 f8 7b 3d d4 ea 1c be 72 ca 69 3d de 13 dd 3d
       0.061515838 -0.15323955 0.057077833 0.10794805
0002d0 2c 8d 48 be 6c ed 69 be 6c 67 c6 be e4 dd e7 bd
       -0.19585103 -0.22844476 -0.3875078 -0.11321619
0002e0 ce 2f 01 3e 7c 1b 31 3d 40 07 72 3d 96 41 de 3c
       0.12615892 0.0432391 0.059088945 0.027130883
0002f0 17 b8 76 be ff 22 0b 3e 29 ff 8c be 6e 20 d8 3c
       -0.24093662 0.13587569 -0.27538422 0.026382651
000300 1c db ce bd 85 da 1d be be 4e c6 bd 7c f6 55 3e
       -0.101003855 -0.1541539 -0.09682988 0.20894808
000310 c1 34 cc bd 67 7a 98 bb e4 1f e7 bd de ee 03 3e
       -0.099709995 -0.0046532634 -0.112853795 0.1288409
000320 48 7c d3 bd be c7 b7 bd fc 0f 4d 3d 0b 20 78 be
       -0.10326439 -0.08973645 0.050064072 -0.24230973
000330 1d 59 71 3d bb 7d 2f be d9 69 02 3e f1 6a ab 3c
       0.058922876 -0.17137806 0.1273569 0.020925017
000340 ae 31 6e 3d 83 9a 16 3e d9 01 0d 3e 58 64 63 3d
       0.058152847 0.14707379 0.13770236 0.055515617
000350 99 8b 1b be 60 4c 0d bd 24 ea c9 bd a9 1c d9 bd
       -0.15189971 -0.034496665 -0.09859112 -0.106011696
000360 9e 66 11 be e8 d1 f5 bd 99 4d 29 be f0 42 d2 bd
       -0.14199302 -0.12002927 -0.16533507 -0.102666736
000370 c4 43 82 be 21 cb 16 3e 6a 27 dc bd e1 53 87 3d
       -0.25442326 0.14725925 -0.10749705 0.066077955
000380 00 42 58 3e 83 21 79 3d d8 7f 0b 3d 4a 2d c7 bd
       0.21118927 0.060822975 0.03405747 -0.09725435
000390 ee b4 ca bd ad 89 0c 3e c2 9f a6 3c c4 b2 c3 bc
       -0.09897791 0.13724394 0.02033985 -0.023888953
0003a0 47 db 7d 3d 03 44 1c be 49 f5 9c be 9b 0b 34 3e
       0.061976697 -0.1526032 -0.30655888 0.17582552
0003b0 26 03 bc bd 8f cf 7a 3d 9f 5a ca bd 75 d7 b2 3d
       -0.09180288 0.0612331 -0.09880566 0.087325014
0003c0 0e 4a b7 bd c8 03 77 bd 1c 69 4d be 6e 71 a9 3c
       -0.08949672 -0.06030634 -0.20059627 0.02068397
0003d0 49 d9 06 3d e1 b6 e4 bd 38 86 ca bd 4f 28 de bd
       0.032922063 -0.11167694 -0.098888814 -0.10847532
0003e0 22 81 b7 bd 74 77 cc bd 0f c0 e0 bd 09 a6 c9 bd
       -0.08960177 -0.099837214 -0.10974132 -0.09846122
0003f0 2d 74 6c 3d 25 87 92 3e c3 ff fa 3d 17 a7 72 3d
       0.05772798 0.28618732 0.12255814 0.05924138

bias f4 [128]
000000 b6 e1 2d be 84 ce 8e be 39 29 2d bd 72 cf 8a 3e
       -0.16980633 -0.27891934 -0.04227564 0.27111393
000010 db 86 a2 bc b2 00 54 bd b3 09 91 bd b0 30 96 be
       -0.019839695 -0.051758476 -0.07081928 -0.2933402
000020 84 3a 06 be 11 2b 9a 3e 5e ce 50 be b6 95 5e 3e
       -0.1310826 0.30110982 -0.20391223 0.21736798
000030 9d d2 84 be ea 03 fa 3e a3 84 33 3f 32 51 fd be
       -0.25941935 0.4883111 0.7012426 -0.4947601
000040 14 79 4c 3e 53 a3 37 3e 6f 53 d8 be 9a b8 bf 3d
       0.19968063 0.17933397 -0.42251155 0.09361382
000050 f0 93 5d 3d c5 8c d7 3e 30 1c be 3e 5f dd ae 3d
       0.054096162 0.42099586 0.3713088 0.08538317
000060 e3 83 80 be 4f 9a ff 3e b1 78 36 3e 13 9d d4 bc
       -0.25100622 0.49922416 0.17819478 -0.025953805
000070 bb 35 53 3f 36 7c 03 bf 7d 1c c5 bd 1a 69 b9 be
       0.8250386 -0.51361406 -0.09624574 -0.36213
000080 b2 ff c2 bf ce 44 b8 be a9 80 dd be d3 9d d3 3e
       -1.5234282 -0.35989994 -0.43262222 0.41331348
000090 29 ac 42 3e 46 61 a9 be 73 32 af be 24 2e aa be
       0.19010986 -0.33082026 -0.34218177 -0.33238328
0000a0 d0 ad aa be ee 97 1c 3f 31 1d ba 3d 00 92 85 3e
       -0.33335733 0.61169326 0.09087599 0.26087952
0000b0 1e b6 9c 3c 6d 11 f2 3e 09 52 01 be 5b b9 ff 3d
       0.019129809 0.4727892 -0.1262895 0.124865256
0000c0 72 b4 c8 3e a4 f6 31 3e ec 56 58 3e 9f b2 2e 3d
       0.3920017 0.17379242 0.21126908 0.042650815
0000d0 67 56 5d 3d 46 2a ac 3e 54 f6 90 3e 10 cd a3 bd
       0.054037478 0.33626002 0.28312933 -0.07998097
0000e0 4e ee 86 3e 67 63 85 3e 60 70 b2 3e 2b 05 65 3e
       0.26353687 0.260524 0.3485136 0.22365253
0000f0 21 87 b4 3e 30 2e 6e be f2 70 c4 3e a6 a7 4b be
       0.35259345 -0.23259807 0.3836742 -0.19888172
000100 3e 8b 89 3c 9f 7d 39 3e 06 fc 89 be 74 b9 e4 3c
       0.016790029 0.18114327 -0.2695009 0.027920462
000110 f1 19 1e be 1b fc 27 be 9d 3d b4 bd 52 fb 9e 3d
       -0.15439583 -0.16404764 -0.08800814 0.07762779
000120 dd b3 9e 3e 71 2e 8c 3e 05 d8 c9 bd 33 f6 b5 be
       0.309966 0.27379182 -0.098556556 -0.35539398
000130 18 56 8f 3e 58 f6 1e 3f 30 93 93 3e 62 f7 59 be
       0.27995372 0.6209464 0.28823233 -0.21285775
000140 19 98 bc be 0a 4b 0d 3e 21 51 16 bf 41 d5 56 3e
       -0.3683479 0.13798156 -0.5871754 0.20979787
000150 88 3d 24 3d a6 b7 20 be ee 0e 35 3e 2d b0 8e bb
       0.040097743 -0.15695056 0.17681476 -0.004354498
000160 86 ec 39 be 47 6a c2 3e 89 19 32 be 44 c5 c0 3e
       -0.18156633 0.37971708 -0.17392553 0.37650502
000170 91 d2 e8 3d 9f 60 48 3e 34 f4 c8 be e6 d1 c4 3e
       0.11368287 0.19568108 -0.39248812 0.3844139
000180 ba a9 2a bc e0 d6 fa bd b5 48 98 3e 64 43 bd be
       -0.0104164425 -0.122480154 0.2974297 -0.36965477
000190 bb 5a ae 3e ae 1e c6 3d ff ef a7 be 1e 0f 5c bc
       0.34053597 0.096738204 -0.3280029 -0.013431339
0001a0 9e 72 a3 be 89 3f 8b 3d d5 e3 9d 3e 99 64 26 be
       -0.31923383 0.06799228 0.30837885 -0.16249312
0001b0 7d af ce bc c3 2a 8e 3e 54 c1 03 be 03 9a f3 bd
       -0.025230164 0.27767 -0.12866718 -0.1189461
0001c0 30 43 cb be 16 7d bf 3e 53 7b 70 3e 5c 48 02 be
       -0.39699697 0.3740012 0.23484544 -0.12722915
0001d0 40 7b 72 3e 18 c3 a7 3e 62 5e fd bd 90 47 cc bd
       0.23679829 0.32766032 -0.12371518 -0.09974587
0001e0 29 7b e4 bd 72 d4 3e 3f 2c 2a 3f 3e 32 6f 82 3e
       -0.111563034 0.74542916 0.18668431 0.2547546
0001f0 53 a8 80 be 46 58 86 be 3b a7 6e be e8 43 30 3e
       -0.2512842 -0.26239222 -0.23305981 0.17213404

weight f4 [128, 146]
000000 67 43 39 13 57 27 23 1b 61 c5 35 10 a3 9a b3 95
       2.3383515e-27 1.3495755e-22 3.584801e-29 -7.25415e-26
000010 84 bf ca 8f 3c f0 92 90 a8 49 1a 07 bf cf b6 1b
       -1.9992507e-29 -5.7956986e-29 1.1607318e-34 3.0243627e-22
000020 f0 68 c8 15 33 86 d3 96 2b f6 ec 91 af 99 c3 93
       8.094492e-26 -3.417358e-25 -3.7385947e-28 -4.9376464e-27
000030 4f 64 c4 17 35 cf d3 98 5c 17 1e a1 8f 2b 4a 09
       1.2691525e-24 -5.4751447e-24 -5.35634e-19 2.4335347e-33
000040 c0 80 9b 93 9b 5f 00 00 57 ea e3 18 3e 11 b6 8e
       -3.925446e-27 3.4297e-41 5.8914747e-24 -4.4883068e-30
000050 cc 92 8d 98 56 a2 50 9a a0 5c d3 95 6e f9 03 00
       -3.6595873e-24 -4.3144526e-23 -8.536836e-26 3.64985e-40
000060 77 d2 55 13 92 ff 7d 9e 76 a1 00 00 10 d8 04 03
       2.6988147e-27 -1.3446559e-20 5.7921e-41 3.903934e-37
000070 40 ef 08 a1 27 43 f8 1c 97 a3 08 94 6c 29 ad 1c
       -4.6395237e-19 1.6428622e-21 -6.898508e-27 1.1458887e-21
000080 c9 af 96 23 1a 36 bd 19 f1 19 13 14 76 57 23 9b
       1.633748e-17 1.9563993e-23 7.4267194e-27 -1.3511304e-22
000090 00 81 84 98 22 44 00 18 46 80 26 1a 1e 2e 83 88
       -3.4251457e-24 1.657801e-24 3.4431614e-23 -7.895118e-34
0000a0 ab 8a 00 80 14 ad 00 80 16 93 20 15 b8 2e 5e 01
       -4.9745e-41 -6.2089e-41 3.2427773e-26 4.080848e-38
0000b0 1e c7 c0 16 56 20 5b 98 fd 67 11 14 e4 25 20 94
       3.1144934e-25 -2.8321412e-24 7.341137e-27 -8.085408e-27
0000c0 11 2a a4 97 81 c5 bc 12 b1 ab 39 97 af ba c5 91
       -1.0608871e-24 1.19131565e-27 -5.999343e-25 -3.1196172e-28
0000d0 45 72 88 93 46 7c 1f 98 28 e0 2f 94 d3 b1 d0 93
       -3.4443905e-27 -2.061301e-24 -8.879449e-27 -5.268193e-27
0000e0 38 55 cd 98 9c ed e5 99 b4 60 00 00 4a bd 57 9c
       -5.3077307e-24 -2.3774015e-23 3.469e-41 -7.1382183e-22
0000f0 75 2e 16 98 35 0c 40 17 43 bf a1 9a 4d 72 e6 19
       -1.94105e-24 6.2053953e-25 -6.689704e-23 2.3827608e-23
000100 9d 32 9b 0e ac fa 24 95 d8 a8 2c 19 82 e5 c2 0b
       3.825919e-30 -3.331728e-26 8.926289e-24 7.5071407e-32
000110 f2 c5 7b 92 46 43 00 00 ec a1 00 80 a7 b0 cc 15
       -7.944562e-28 2.4133e-41 -5.8087e-41 8.267365e-26
000120 52 11 04 80 14 c9 24 a0 46 41 ba 91 75 bd 41 1a
       -3.73555e-40 -1.3957872e-19 -2.9385854e-28 4.0064507e-23
000130 26 76 2e 95 cc f8 cc 9f 88 5b 52 9b 6c 56 d2 1a
       -3.5232223e-26 -8.680896e-20 -1.7400368e-22 8.6993586e-23
000140 c7 7e 2a 89 80 53 b9 92 2c 5b 4c 1f 87 1f d8 92
       -2.0522616e-33 -1.1695726e-27 4.3274096e-20 -1.3639289e-27
000150 ba 13 8e 0c be c3 29 93 f2 5a 61 08 ec 5f 8c 10
       2.1890437e-31 -2.1427307e-27 6.781538e-34 5.5368054e-29
000160 3c 35 20 12 0c 1b 04 97 55 84 cb 16 80 04 00 80
       5.0552714e-28 -4.268564e-25 3.2879932e-25 -1.614e-42
000170 cf 2c a0 93 af 7a 29 9a 49 b8 18 18 94 91 14 92
       -4.0433863e-27 -3.5047484e-23 1.973858e-24 -4.6880004e-28
000180 3f a0 0a 0a 84 a2 9a 94 07 6d 3c 9b 2d ff a9 18
       6.674597e-33 -1.5614127e-26 -1.5586224e-22 4.3943138e-24
000190 21 3b ae 0a 15 a4 8d 06 2f 35 2c 8c 6d 3a 65 17
       1.6777832e-32 5.32794e-35 -1.3266402e-31 7.4067634e-25
0001a0 06 49 44 15 a8 fa ab 94 81 ea 4a 9b 35 fd 64 8b
       3.963949e-26 -1.7365454e-26 -1.6784821e-22 -4.4101695e-32
0001b0 16 8c cb 14 b6 fa 7c 98 9c 73 9d 92 52 01 bf 8c
       2.0553016e-26 -3.2696813e-24 -9.936593e-28 -2.9429004e-31
0001c0 ef b3 20 1b e3 07 0d 9b 8b db ba 91 14 22 82 11
       1.329303e-22 -1.1665795e-22 -2.948093e-28 2.0531386e-28
0001d0 b1 f6 c8 93 03 ee c5 94 1c 00 04 19 7f 08 88 17
       -5.0730354e-27 -1.9985796e-26 6.824262e-24 8.790939e-25
0001e0 8d 1a 46 15 9e 71 27 a0 4c ec c3 93 b2 03 ae 92
       4.0006726e-26 -1.4183043e-19 -4.9457927e-27 -1.0981855e-27
0001f0 e2 5f 1f 1a 02 b0 1e 12 6f a5 b6 13 c0 d5 3a 95
       3.2957883e-23 5.0072956e-28 4.610639e-27 -3.773102e-26
000200 60 a5 c4 b7 97 e5 d0 a0 e0 db 09 ab 61 86 df ae
       -2.344203e-05 -3.53885e-19 -4.8977315e-13 -1.01647364e-10
000210 19 64 c7 b7 1c a3 56 ab 9a 2d 8b 2d f8 2f 60 b2
       -2.376926e-05 -7.625443e-13 1.5822722e-11 -1.3049423e-08
000220 dc d4 c6 b7 ca 83 8f 37 69 6d 4f b7 a2 cc 0a 36
       -2.370256e-05 1.7108297e-05 -1.23636355e-05 2.0682714e-06
000230 d0 ca 3f b7 48 81 c0 37 c4 60 82 36 54 29 82 37
       -1.1431708e-05 2.2948385e-05 3.885567e-06 1.5516453e-05
000240 12 84 2e 37 37 81 f5 37 4a 0c 19 bc bb 90 4c bc
       1.0401958e-05 2.9266446e-05 -0.009341309 -0.012485678
000250 23 9f 28 bc 9f 4f 71 3c 2b 31 e6 3b 88 08 3f 3c
       -0.010291847 0.014728456 0.0070249042 0.011659749
000260 25 94 8e bc f0 76 07 bc 5f bd 42 bb 05 ac 16 3c
       -0.017404625 -0.008268103 -0.0029714925 0.009196286
000270 98 7b 56 3b 3e 70 72 3c 7e 7a b1 bb 59 d2 73 3a
       0.0032727476 0.014797268 -0.0054162135 0.00093010586
000280 5a 34 85 3a 31 24 dc b9 cc e6 23 3c b5 f7 34 bb
       0.0010162697 -0.00041988635 0.010003757 -0.0027613465
000290 c3 97 b8 bb 21 e9 99 3c a8 85 be 3c 79 0a ff 3a
       -0.005633326 0.018787922 0.023257092 0.0019458077
0002a0 dc 73 66 3b b7 1d 3a bb de fb 51 bc 5d 3f e6 3a
       0.0035164272 -0.002839906 -0.0128163975 0.0017566491
0002b0 b8 0c 3f bc 5d 66 a1 3b 66 25 2f 3a cb d5 0d bb
       -0.011660747 0.0049255327 0.0006681293 -0.0021642323
0002c0 7e 32 a1 3c fe ea 03 bb cd 87 8d b9 1b 1e 64 bc
       0.019677397 -0.002012908 -0.00026994795 -0.013923193
0002d0 8d c7 64 3c 1d 52 3b 3c ef ac 83 3b 8c b8 05 bc
       0.013963592 0.011433152 0.004018418 -0.008161675
0002e0 72 01 3f bb 8e 3a 7b 3a e2 9e e9 b9 6c d5 fd b9
       -0.0029145149 0.00095836155 -0.000445596 -0.00048414932
0002f0 4e 24 22 bc 4b e3 9f bc 9a e0 24 bc ed de c6 3a
       -0.009896351 -0.019517561 -0.010063315 0.0015172638
000300 11 58 ed bb 2c 00 44 3b 23 b5 ef 3b f5 04 06 bb
       -0.0072431643 0.002990733 0.0073152944 -0.0020449732
000310 72 44 d0 3a 01 ee a5 3c 30 f8 df 3b 06 2b 72 3b
       0.0015889539 0.02025509 0.006835006 0.0036951913
000320 bd cd 46 3c f2 2f d4 3a 8b a1 5a 3b 22 32 26 3b
       0.012134013 0.0016188605 0.0033360447 0.0025359471
000330 ea fe c4 3a eb 13 db ba f8 85 b1 3b af 1f ab bc
       0.0015029584 -0.001671431 0.0054175816 -0.020889131
000340 2a f1 3b 3b 67 78 45 bb ef a9 0b bc aa 03 9c 3c
       0.002867768 -0.003013158 -0.008524402 0.019044716
000350 79 26 61 bb 61 85 78 bc 79 bd 3d 3b c1 29 b4 ba
       -0.0034355207 -0.015168519 0.0028952046 -0.0013745354
000360 7f d4 06 3c b3 c8 e8 bc 97 78 98 bc 35 a7 0f ba
       0.008229374 -0.028416013 -0.01861219 -0.0005479933
000370 26 65 3d 3b 31 0e 66 bb d7 4c 06 3c 4a 92 fe 3a
       0.00288994 -0.0035103674 0.008197031 0.001942226
000380 b3 b5 59 3c 11 a1 42 3a f1 3c 1e 3b 70 1b 34 3c
       0.013287949 0.00074245135 0.002414521 0.01099287
000390 59 11 49 ba a6 b4 37 3c 99 b8 28 bc 6c 4a c9 3b
       -0.00076701265 0.011212504 -0.010297918 0.006142905
0003a0 51 d9 a2 bc 2b 5f 06 bc e6 b8 92 bc 2d 9a ed bb
       -0.019879015 -0.008201401 -0.017910432 -0.007251045
0003b0 05 71 05 bb 27 29 0d bb 95 1f c8 3b 1c 4a 07 3c
       -0.0020361554 -0.0021539421 0.0061072805 0.008257415
0003c0 85 32 d3 bb e1 bf 04 bc b6 bb 8d bc 3a ef a7 3c
       -0.0064452314 -0.008102388 -0.017301422 0.020499814
0003d0 9b f6 30 3c a5 4d fc 3b c0 db 38 bb 03 2d 6d bc
       0.010800983 0.0076996856 -0.0028207153 -0.014476064
0003e0 fc a6 8b 3b c3 83 fb bc 77 89 ad bb f3 04 67 3b
       0.0042618494 -0.030702477 -0.005295928 0.0035250753
0003f0 0d 22 51 3b 79 87 a7 3c cc ea 3f bb ee d9 86 3b
       0.0031911165 0.02045034 -0.0029284237 0.0041153347

bias f4 [128]
000000 54 ed fb 9d 2b 24 15 b9 b4 ac 00 00 5d 3b 36 3a
       -6.668454e-21 -0.00014223221 6.1954e-41 0.0006951595
000010 0a 93 3c 95 39 91 ca 8c 75 28 32 ba 0e 25 b8 b8
       -3.808229e-26 -3.121043e-31 -0.00067961897 -8.780706e-05
000020 50 fc bb b8 c7 80 4a 36 21 83 95 b9 65 16 bb b7
       -8.963852e-05 3.0175304e-06 -0.00028517193 -2.2302565e-05
000030 59 3d 76 b9 7a 13 b5 b6 e7 d5 4e b7 ef 80 59 b9
       -0.00023483242 -5.3964877e-06 -1.232836e-05 -0.00020742764
000040 0a c7 04 b9 d1 c2 91 b8 99 5a 23 9c 44 2e a6 b6
       -0.00012662649 -6.950426e-05 -5.404927e-22 -4.9525715e-06
000050 aa e6 77 b8 66 b3 2d aa 93 38 90 38 d9 5c 8b 38
       -5.910421e-05 -1.5427728e-13 6.876993e-05 6.645331e-05
000060 15 5e 80 38 77 d0 e6 38 68 11 7a ba fe 5f c6 b8
       6.12104e-05 0.00011006084 -0.0009539337 -9.459256e-05
000070 61 60 06 ba 08 7c 70 b8 ab e3 01 a8 8e 2f 7d b9
       -0.0005126056 -5.7335972e-05 -7.210306e-15 -0.00024145676
000080 0d 64 2f b7 5f 5a 06 b8 d2 ab 97 88 aa 66 1b b5
       -1.0454108e-05 -3.2032254e-05 -9.128377e-34 -5.7891395e-07
000090 4c 1c 74 b9 ff 35 d9 9e 2f 5c 08 38 f3 e5 05 39
       -0.00023280195 -2.2998101e-20 3.251078e-05 0.00012769531
0000a0 74 3a fb b7 dc b9 33 3a 8c aa dc 38 be 15 78 37
       -2.9948751e-05 0.00068560033 0.00010522184 1.4787014e-05
0000b0 5e ad bf b9 da 13 8b b9 28 bc b2 ba f8 5b ab b9
       -0.00036559528 -0.00026526937 -0.0013636397 -0.00032684184
0000c0 f6 19 fa b9 96 e5 12 3a f8 1f c1 38 61 92 c8 37
       -0.00047703058 0.0005603669 9.208912e-05 2.391002e-05
0000d0 08 4e 02 b7 d7 9a ae b9 fd 0c 43 bb d7 11 00 00
       -7.766772e-06 -0.0003330323 -0.002976238 6.4e-42
0000e0 dc 35 88 b8 4e 7a 4c 82 c7 12 d5 38 12 54 e0 38
       -6.4950174e-05 -1.5022653e-37 0.00010160129 0.00010696812
0000f0 39 35 44 b7 ae 38 0f b8 fc 5b 5c b8 09 fb dc b7
       -1.1694902e-05 -3.4146644e-05 -5.2537755e-05 -2.6342941e-05
000100 94 e8 d2 b9 18 67 00 00 2d c6 d3 b7 f6 aa b4 b8
       -0.00040227605 3.6983e-41 -2.5245443e-05 -8.614913e-05
000110 89 54 97 b7 64 8a 00 80 70 19 f1 82 43 56 39 b7
       -1.8039967e-05 -4.9645e-41 -3.5426368e-37 -1.1046944e-05
000120 b0 11 8f b4 5b 12 94 b8 90 4f 37 b9 91 ff 91 b9
       -2.6648695e-07 -7.060609e-05 -0.0001748188 -0.00027846967
000130 91 41 5e b7 b1 10 e4 b6 fe 4a a0 b8 69 04 2a b0
       -1.3247497e-05 -6.7968726e-06 -7.643363e-05 -6.1851907e-10
000140 a2 bc 94 37 f8 e9 c1 b7 d7 8e 91 37 95 ab 42 38
       1.7730814e-05 -2.3116343e-05 1.7351862e-05 4.6413003e-05
000150 d0 55 ed b7 28 5a a8 b8 d3 d5 b0 b8 c7 7a 0f ba
       -2.8292561e-05 -8.027657e-05 -8.432162e-05 -0.00054733123
000160 ca 61 6c 37 45 2f 0f ba 4c 29 99 b8 b3 60 b1 38
       1.40894645e-05 -0.0005462061 -7.303301e-05 8.458029e-05
000170 24 5a d4 b9 05 d6 87 b8 b0 e2 8f b7 52 c5 25 b8
       -0.0004050295 -6.477166e-05 -1.7152488e-05 -3.9522834e-05
000180 85 14 e0 3a aa d8 3a b8 94 02 dc b7 ed f2 fc 39
       0.0017095959 -4.454764e-05 -2.6227244e-05 0.0004824618
000190 e8 29 c3 39 a8 c0 a2 b6 18 05 95 ba d1 92 48 b8
       0.0003722452 -4.8504044e-06 -0.0011369316 -4.782045e-05
0001a0 68 62 11 ba 4e 87 0e 86 01 33 39 b9 80 56 ce b8
       -0.0005545975 -2.6806638e-35 -0.00017661975 -9.838957e-05
0001b0 ce 9d fd 38 0d 56 81 b9 9c 72 18 b8 11 91 00 00
       0.000120933735 -0.0002466891 -3.6346362e-05 5.204e-41
0001c0 9a aa df b7 f9 67 31 b9 ed a1 47 39 13 a2 de b8
       -2.6663114e-05 -0.00016918768 0.00019038441 -0.000106159736
0001d0 65 4a 14 b8 70 20 27 3b 26 35 74 ae 69 1c 86 3a
       -3.5355235e-05 0.0025501512 -5.5526382e-11 0.0010231856
0001e0 be a2 48 b8 12 34 3f b8 b4 f8 08 b9 d6 9d a2 b8
       -4.783528e-05 -4.5586443e-05 -0.0001306262 -7.754161e-05
0001f0 99 d8 8f b7 c4 4a 1e b8 73 9f ac 37 a4 35 00 80
       -1.714779e-05 -3.7739766e-05 2.0578247e-05 -1.9243e-41

weight f4 [19, 128]
000000 f2 74 3d b6 1b 4a 47 3a 4c 89 01 00 ea 31 12 39
       -2.8231266e-06 0.000760229 1.41088e-40 0.0001394224
000010 22 10 c3 b6 2d 5f 45 35 27 ab 49 b9 fe 11 e3 b7
       -5.813331e-06 7.352672e-07 -0.00019232613 -2.7068887e-05
000020 c3 18 4a 3b 1f 5b 87 b7 de ae 7a b9 5d 66 5e b8
       0.0030837513 -1.6135686e-05 -0.00023907001 -5.3024258e-05
000030 c0 49 00 ba e2 03 4e b8 7b 2f 08 b8 90 26 21 b9
       -0.0004893802 -4.9117843e-05 -3.2469146e-05 -0.00015368522
000040 bf 0c ae 3a 1a 0f 51 b8 ad cf e3 33 43 8d ee 37
       0.0013278945 -4.9843547e-05 1.0608287e-07 2.8437591e-05
000050 9d 13 9d b7 83 9a 7d b5 7d 9d a8 3a fe ea 06 3a
       -1.8724992e-05 -9.447469e-07 0.0012864318 0.0005146711
000060 af 44 ca 3a bb 96 78 3a aa a8 fd 3b a1 7b ac b7
       0.0015431846 0.000948291 0.0077410536 -2.0561567e-05
000070 e9 dd 04 ba 60 2f e1 39 6e 50 95 b4 31 c4 11 3a
       -0.00050684676 0.0004295064 -2.7811933e-07 0.0005560546
000080 17 3e be 34 0c 26 59 37 18 12 08 8a 79 8f 8e 37
       3.5435434e-07 1.2943066e-05 -6.551565e-33 1.6994529e-05
000090 94 12 30 b8 7a ef f4 b7 82 6d a3 ba c0 11 c9 39
       -4.1978972e-05 -2.9198582e-05 -0.0012468549 0.00038350932
0000a0 dd 21 f1 37 13 5c 09 bb 56 c3 08 3a c3 ae e8 ba
       2.8745208e-05 -0.0020959422 0.00052170956 -0.0017752278
0000b0 11 d0 b8 38 94 49 83 b8 de 6d 19 3c 91 9e 67 b9
       8.812559e-05 -6.260272e-05 0.009364573 -0.00022088947
0000c0 cb 6d 19 3a 2b 43 1d bb 56 e0 9a 39 4a d5 6b 3a
       0.0005852847 -0.0023996334 0.00029540312 0.0008996321
0000d0 e3 39 e5 b7 c8 b7 7e b9 bc b2 8f 3c 3c 82 f5 31
       -2.7325883e-05 -0.00024291791 0.017541282 7.1452444e-09
0000e0 27 cd 8f b8 de db c6 85 9f d2 d2 3a f6 03 a3 39
       -6.856984e-05 -1.8700597e-35 0.0016084498 0.00031092734
0000f0 b4 0f 20 38 f6 0e c3 ba 98 d3 f7 b7 7e 7a db 37
       3.8161597e-05 -0.0014881778 -2.9543226e-05 2.6163874e-05
000100 8a 5b 61 3b 1a 16 e3 aa d6 46 10 36 12 2a ca b9
       0.0034386837 -4.0338636e-13 2.1498904e-06 -0.00038559787
000110 f0 dc 9f 37 43 6c 48 05 5f d5 86 36 6f 6b 7d b7
       1.9057159e-05 9.423839e-36 4.018351e-06 -1.5104989e-05
000120 8e b8 8d b7 cd 2c b5 b8 0d ee d0 37 6b 01 56 ba
       -1.689445e-05 -8.639097e-05 2.4906383e-05 -0.00081636634
000130 f2 1f 41 39 66 d5 64 36 5c 91 33 38 91 eb 74 37
       0.00018417815 3.4098862e-06 4.2812302e-05 1.459838e-05
000140 16 ae b8 37 90 0d ec b5 cc e9 bd ba 6c 6d 5b 3a
       2.2015574e-05 -1.7587317e-06 -0.0014489233 0.0008370492
000150 95 aa 15 39 24 59 66 38 49 17 1c 39 ed 30 72 39
       0.00014273294 5.4919292e-05 0.00014885994 0.00023097145
000160 d0 6d 7a 38 09 61 c9 b8 41 ce a7 38 de 50 16 3a
       5.9706916e-05 -9.602501e-05 8.001598e-05 0.0005734096
000170 2d 60 f4 b9 fe f3 41 b7 39 53 7c 36 de c9 5c 36
       -0.00046610963 -1.1560505e-05 3.7599368e-06 3.2900057e-06
000180 07 31 67 3a 7a ea 21 39 2b 0c 3c 35 1a 3f 99 ba
       0.00088192563 0.00015441506 7.0053164e-07 -0.0011691779
000190 cc d9 81 3a d0 52 6c 37 93 08 44 3c 95 6f af 37
       0.0009906827 1.4085977e-05 0.011964935 2.0913585e-05
0001a0 32 07 83 ba 13 34 6f b3 52 0f 86 ba 7e 06 68 38
       -0.0009996651 -5.5693885e-08 -0.0010227954 5.5319157e-05
0001b0 0d b7 69 3a f4 07 9e b9 43 ff 1f 36 82 6e 00 00
       0.00089155213 -0.00030142034 2.3841428e-06 3.9643e-41
0001c0 d1 9d 03 37 b5 c3 23 b6 90 23 8f 3a 38 05 bc 38
       7.844953e-06 -2.440281e-06 0.0010920633 8.965511e-05
0001d0 42 62 00 38 af d4 2a b9 09 39 05 38 a8 70 fa b8
       3.0609088e-05 -0.00016291694 3.176279e-05 -0.00011941913
0001e0 0f bf 4a 38 c0 ac 93 36 11 0d 5c b9 44 35 8e 37
       4.833849e-05 4.401052e-06 -0.00020985703 1.6952523e-05
0001f0 b3 91 83 39 aa d1 2d b6 87 71 c7 38 ec d1 5d 81
       0.00025094821 -2.590105e-06 9.5102056e-05 -4.07419e-38
000200 dd 47 72 a7 17 7b a1 3a 5c 8f 00 00 2c 3d b3 3a
       -3.3623204e-15 0.0012320009 5.1428e-41 0.0013674847
000210 d5 08 7c 20 89 56 00 00 42 9b a1 ba bb fa 0a b9
       2.1348153e-19 3.1043e-41 -0.0012329596 -0.0001325411
000220 bb 23 16 3a 58 48 c7 b7 95 44 2f b9 ea 71 04 38
       0.000572737 -2.3756336e-05 -0.0001671485 3.1577343e-05
000230 ad 75 cd ba 60 e4 6e 38 33 bc ff 37 b1 b8 6c 39
       -0.0015675329 5.6956313e-05 3.0486006e-05 0.00022575517
000240 07 e0 bf 3a 24 fe ad b8 7c 11 82 1d ea 44 8c 37
       0.0014638909 -8.29662e-05 3.442879e-21 1.6721391e-05
000250 39 9f 80 38 94 61 1f af 60 88 bd 39 97 13 ba ba
       6.133173e-05 -1.4495632e-10 0.00036150496 -0.0014196512
000260 4d 68 5e 39 cc 7d 1c ba f2 6e 48 3a bf 5b 53 b8
       0.00021210425 -0.0005969673 0.00076459267 -5.0391765e-05
000270 0f a5 f4 b9 6e 25 20 39 f7 fb bd 21 0a f7 bc 3a
       -0.00046662285 0.00015272733 1.2873833e-18 0.0014416885
000280 35 c0 6e 36 d4 bb 81 38 29 f7 4a 07 73 33 91 b2
       3.5576643e-06 6.186185e-05 1.5269425e-34 -1.6903618e-08
000290 eb dc 24 39 eb 6f 0d b5 83 3b 0b b8 19 d8 4d 3a
       0.00015722557 -5.2689455e-07 -3.3195607e-05 0.00078523305
0002a0 e4 8b fa 37 6a 88 75 3a 82 1b e9 b9 f5 3a f8 38
       2.9867464e-05 0.00093663356 -0.00044461718 0.00011836543
0002b0 db c1 0c b9 12 eb 35 39 fc 79 8b ba bd 43 82 39
       -0.00013423657 0.00017349076 -0.0010641213 0.00024846
0002c0 45 e7 12 3b 29 ad b6 ba d5 6b c5 39 ca a3 58 b8
       0.002241568 -0.0013937104 0.0003765511 -5.1650954e-05
0002d0 a5 ed 41 36 76 7b f8 39 7c a7 5d 3a 5b 54 cd 84
       2.8897568e-06 0.00047394232 0.0008455438 -4.8272737e-36
0002e0 f8 1f 36 38 94 38 b2 02 d7 4a be 39 5f 80 53 ba
       4.3421955e-05 2.6187224e-37 0.00036295384 -0.000806814
0002f0 ee ba 9e b7 fa 5d 4b b8 f8 99 a6 36 8c 74 06 38
       -1.8922114e-05 -4.8486494e-05 4.96511e-06 3.2056632e-05
000300 00 3c ea 3a 60 ff c1 82 35 07 51 37 a0 92 06 bb
       0.0017870665 -2.850538e-37 1.2459049e-05 -0.0020534173
000310 c0 28 f1 b7 0a 6a 00 80 f0 be 8e 1e 19 f0 c6 b6
       -2.8748414e-05 -3.804e-41 1.5113805e-20 -5.928811e-06
000320 fe 92 ea 33 67 03 17 39 93 e4 63 b8 7c a7 a2 39
       1.0923212e-07 0.0001440175 -5.4333894e-05 0.00031023833
000330 c7 27 f9 39 bb b2 1a b8 d6 38 26 38 ce da eb b7
       0.00047522617 -3.6882917e-05 3.9630417e-05 -2.8116072e-05
000340 35 58 df b5 c3 0a a7 37 c9 30 15 ba 61 a7 95 3a
       -1.6640466e-06 1.9912963e-05 -0.00056911685 0.0011417681
000350 1e 62 ea b9 2e 2b 9b 38 b0 ec 7b ba e4 3b e4 b9
       -0.0004470506 7.399019e-05 -0.00096101593 -0.0004353217
000360 0e fa dd b8 b9 8b e9 39 a4 b8 fb 39 3f 51 c6 39
       -0.000105846775 0.00044545325 0.0004801202 0.00037826036
000370 ce 55 1c 3a 67 28 83 38 97 f7 bb 38 4e d4 2b 36
       0.00059637136 6.254092e-05 8.962972e-05 2.5604563e-06
000380 13 ca 01 ba 07 c1 2e b9 83 0b e7 b7 a6 89 b5 3a
       -0.0004951071 -0.00016665841 -2.7542706e-05 0.0013850227
000390 c1 9d 59 3a a3 c8 f2 b4 73 8a 3c 3b d0 48 16 b9
       0.00083014 -4.5221995e-07 0.0028769046 -0.0001433224
0003a0 14 03 47 bb 11 57 49 9b 8a 79 1c bb bc a0 09 39
       -0.0030366825 -1.6654463e-22 -0.0023876154 0.00013125216
0003b0 6d 44 b4 ba f1 44 a1 35 43 34 55 b8 9c 61 00 00
       -0.0013753303 1.2015499e-06 -5.083183e-05 3.5016e-41
0003c0 16 4b 3a b8 ab f7 9e 39 5f 3c 7b b8 6c 6d 0a 39
       -4.4415785e-05 0.00030320635 -5.989929e-05 0.00013201468
0003d0 ef 37 05 b8 72 24 b6 b9 53 b3 01 38 e5 9d ca 3a
       -3.1761763e-05 -0.000347409 3.0923005e-05 0.0015458433
0003e0 6f e9 c6 38 11 f7 b1 37 32 16 be b8 87 53 aa b9
       9.484856e-05 2.1215094e-05 -9.06404e-05 -0.0003248716
0003f0 66 0a 6c b9 e2 37 3d b8 f9 b9 6f b9 a6 4c 00 00
       -0.00022510588 -4.5113156e-05 -0.00022862096 2.7496e-41

bias f4 [19]
000000 fe 57 ab 3e e9 49 b6 ba f4 5c 7c 3a 0c 88 93 3a
       0.3346557 -0.0013907525 0.0009626888 0.0011255755
000010 9c 9b a8 3e 8d 2d 76 3b 5e 6c 60 ba ad 2e 1c bb
       0.3293122 0.0037563771 -0.000856107 -0.0023831532
000020 96 76 a8 3e bb aa a0 3e fd 0b f0 b9 ac 6f 9b 38
       0.32902974 0.31380257 -0.000457853 7.4117765e-05
000030 6b 2e 32 ba d3 c8 9f 3e 07 a5 d8 b9 38 2b 04 ba
       -0.0006797078 0.31207904 -0.00041321685 -0.00050418405
000040 25 18 38 ba 4f 0c a0 3e 21 e2 29 3f
       -0.0007022641 0.3125939 0.6636067
