models/original/N/model4.pt (torch, 310479 bytes, 8 tensors)

weight f4 [128, 384]
000000 4b a3 cd 3d 67 b3 94 bd 52 0a 26 be db 54 ba 3d
       0.10040911 -0.07260781 -0.16214874 0.09098216
000010 a2 39 15 bd 4c 1b 86 3d 74 e4 a0 39 a0 02 97 3d
       -0.036431916 0.06548175 0.0003068779 0.073735476
000020 fb 28 9c 3c ef f6 68 3d d8 0e 78 3d a2 72 79 bd
       0.01906251 0.05687612 0.06056103 -0.060900338
000030 58 63 f3 bc e0 49 d6 bc 4d cd f8 3c 59 2a 6f 3d
       -0.029710457 -0.026158273 0.030371333 0.058389995
000040 7a cc 63 3e 1d 6b dd 3c 0c 2f 08 be 1e c8 e1 3d
       0.2224597 0.027028615 -0.13299197 0.110244974
000050 0c 8d 00 3e 4a b0 64 3d f3 f2 94 3d 51 ac 18 3c
       0.12553805 0.055832185 0.072729014 0.009318427
000060 55 18 cf 3d 0c 1a 1e bd 33 d9 e9 3a eb f6 80 3c
       0.10112063 -0.03859906 0.001784122 0.01574274
000070 8c 38 fc 3c 54 d3 ad bb 33 58 ef bc 29 ca 30 3c
       0.030788682 -0.0053047333 -0.029216861 0.010790386
000080 78 5a 69 3c 0c 7a 24 bd 1b 6b 09 3d 4f c7 2a 3e
       0.014242761 -0.040155455 0.03354941 0.16677593
000090 b8 11 42 3d 9a c7 48 3d 78 8b 17 3d da dd 71 bd
       0.04738018 0.04901848 0.036998242 -0.059049465
0000a0 a1 0c dd 3c 7b e2 eb bc cf 09 8b bd 4d 8c 3b bc
       0.026983561 -0.028794518 -0.0678898 -0.0114470245
0000b0 8e 98 ef bc b5 97 4f 3d 71 1c 2f 3d 2d dc 66 3d
       -0.029247548 0.05068179 0.042751733 0.05636232
0000c0 fa 1b c4 bc 0c 19 cf bd 97 e5 5f 3c 82 fb ae 3d
       -0.023939122 -0.10112199 0.013665578 0.08544065
0000d0 39 fe 0c 3e bd 67 57 3d 03 06 89 bc e5 e6 1b 3d
       0.13768853 0.052589167 -0.0167265 0.038061995
0000e0 46 99 ac 3c 91 78 d9 bc 77 d8 21 bb 65 c4 05 3d
       0.02106918 -0.026546748 -0.0024695673 0.032658
0000f0 21 08 8e 3d 30 80 67 3d 4f c1 00 3d ca 0a 06 3d
       0.06935144 0.056518734 0.031434353 0.032725133
000100 fe 7d a0 bd 72 b4 98 bd 83 73 87 bd 44 f8 2c be
       -0.07836531 -0.07456292 -0.06613829 -0.16891581
000110 b6 b3 11 be 7c ae 05 be c4 2c a3 bc 2f 00 42 3b
       -0.1422871 -0.13054842 -0.019918807 0.002960216
000120 00 25 07 3d d9 e8 95 3c 5a 54 07 bc 3a b6 98 3c
       0.03299427 0.018299507 -0.008259857 0.01864158
000130 a3 5d bc 3d be 21 84 3d da c1 b2 3d 06 2e 7f 3d
       0.09197547 0.06451748 0.087283805 0.06229975
000140 2c 6a 93 bd 06 7c 8b bd 5c f2 8f bd fa 50 13 bc
       -0.07197985 -0.06810765 -0.07028648 -0.008991474
000150 b1 7b 7b bd 42 ba ff 3c ca 56 be 3d 07 b2 2a 3d
       -0.06139726 0.031216744 0.092938974 0.041673686
000160 2f 93 0c bd 75 19 13 3d 50 6d d1 3d 08 a7 fd 3d
       -0.034320053 0.03591295 0.10225928 0.12385374
000170 d6 70 8e 3c 77 a8 15 3d 8c 84 6f 3c 04 81 9d bc
       0.017387789 0.036537614 0.014619004 -0.019226559
000180 3f be 01 3e 79 eb b6 3d 21 5b 04 3e d5 a6 a0 3b
       0.1267023 0.089316316 0.12925388 0.0049027004
000190 4e dd ba 3d 08 8f 97 bc da 2d 8a bc d7 b4 b1 bd
       0.09124242 -0.01850082 -0.016867567 -0.086770706
0001a0 eb 57 f8 bd f7 4b 46 bd 65 cc 93 3b 0b ac 88 3d
       -0.12126144 -0.04841229 0.0045104497 0.066734396
0001b0 1e b2 2a 3d c5 b7 cf 3d 9d 7b 5d 3d 61 00 39 3d
       0.041673772 0.10142473 0.054072965 0.045166377
0001c0 fd 6a 84 bd b1 95 90 3c 7a 54 a3 3b e4 4f 7d bd
       -0.06465719 0.017649503 0.0049844356 -0.061843768
0001d0 2c f0 4a 3d d7 30 b6 bd 20 09 ff bd ce c5 2e bd
       0.049545452 -0.08896034 -0.12452912 -0.04266911
0001e0 b5 18 3e 3b 7f ee 0e 3c d0 db 37 3c 96 4f 0d bd
       0.0029006426 0.008723854 0.011221841 -0.034499727
0001f0 6d d5 85 bd 27 f8 06 bc 1b d3 86 3c 93 e8 e0 bb
       -0.06534848 -0.008237875 0.016458085 -0.0068636625
000200 1c fe 65 3d 7c a0 8b 3d c5 01 96 3d a2 cb 79 bc
       0.05615054 0.06817719 0.07324556 -0.015246304
000210 96 0e 8d 3d 3a 22 2f 3e 4d 51 1c 3e eb 5e 28 bd
       0.06887548 0.171029 0.15265389 -0.041106146
000220 df 00 d9 bc 9b 7f 10 3d b7 86 e4 bc de be 31 3d
       -0.026489673 0.035277944 -0.027896268 0.043394916
000230 f6 79 ba bc 3d f4 4d 3d 95 54 54 3d f2 64 f1 bc
       -0.022763234 0.050281752 0.051838476 -0.02946708
000240 35 51 3d 3d 61 5c 2b 3d 5a 02 86 3d 54 39 5f 3c
       0.046220023 0.041836146 0.06543417 0.013624508
000250 44 2d 09 bd 7f 27 5d 3d 1b 8b 05 3e a8 09 d8 3d
       -0.033490434 0.053992745 0.13041346 0.10548717
000260 b1 72 ab bc e9 a3 95 bd 52 0f e2 bd af 69 1e be
       -0.020928713 -0.07306654 -0.11038078 -0.15470003
000270 74 34 43 3d 62 f3 73 3e 8d 9d 65 3e b3 4d 3e 3e
       0.047657445 0.23823312 0.22423382 0.18584327
000280 97 0c 59 bd d2 a7 ef bc 2e a6 37 bd 52 dc 76 bd
       -0.052990522 -0.029254828 -0.044836216 -0.060268708
000290 c7 30 29 bc f0 ee 68 3d 42 e2 1b 3d 68 58 15 3c
       -0.010326571 0.056868494 0.038057573 0.009115316
0002a0 30 d6 2c be 7b dd d6 3c 98 e7 97 bc 99 0e 57 bc
       -0.16878581 0.026228657 -0.01854305 -0.013126039
0002b0 19 0c a6 3d f5 24 77 3d 1b c3 b4 bd ec 36 59 bd
       0.08107776 0.06033798 -0.08826276 -0.053030893
0002c0 6b af 6c bd aa 37 69 bc 0e 82 0b 3e a6 5a ce 3b
       -0.05778448 -0.014234463 0.1362383 0.006297427
0002d0 45 90 76 3c 0f 4d 05 3d f4 6d 0b be 28 9d 02 bd
       0.015049045 0.032544192 -0.13616163 -0.031888157
0002e0 c1 7a 04 3e 22 90 a3 3d 0d ad 2c bd e3 db 85 bc
       0.12937452 0.079864755 -0.04215722 -0.016340202
0002f0 53 47 f7 3d fa 69 ef 3d 60 5a f5 3d c7 aa eb 3d
       0.12074151 0.11690135 0.11980128 0.115071826
000300 6d bc b7 3d ee 17 68 be 9c ee b5 be 3e 3a 83 3c
       0.08971486 -0.22665378 -0.35533607 0.016018983
000310 7c c1 71 3e ac b9 da 3d 6a fc b0 3d 45 a2 9c 3d
       0.23608965 0.10679945 0.08641894 0.07648138
000320 f5 6d 2d 3b e8 ab cd 3c ed 2e 76 be c6 7f a2 3d
       0.0026463245 0.025106385 -0.24041338 0.07934527
000330 9c ee 68 3e e5 7d a8 3d 8d ee b3 3d 43 4c 4a 3d
       0.22747272 0.082271375 0.08785734 0.049389135
000340 44 aa 1f 3c da c9 36 bd bf c2 b7 3d 4f c7 be 3c
       0.009745184 -0.044626094 0.08972692 0.023288397
000350 24 eb cd 3d b9 1b 82 3d 36 58 2f 3d 2c 5b ce 3c
       0.10054615 0.06352944 0.042808734 0.025189959
000360 6b 70 a6 bd 21 83 ab bd 37 9f 86 bd 7c 48 92 bd
       -0.08126911 -0.0837462 -0.065733366 -0.071427315
000370 60 b6 02 bd 79 bd b6 bd 1b b8 32 bd b8 fe 54 bb
       -0.031912208 -0.08922858 -0.043632608 -0.0032500457
000380 0b 96 aa bc e2 0d 98 bb 54 56 87 3d 3a 0a 27 3e
       -0.0208235 -0.004640327 0.06608263 0.16312495
000390 36 87 01 3e e4 06 6c 3d 2f 52 43 bd ab d4 a5 bd
       0.12649235 0.05762376 -0.0476858 -0.08097204
0003a0 bb 25 07 3e 4f ad 36 3e 54 96 14 3e ac 49 35 3e
       0.13197987 0.1783955 0.1451047 0.17703885
0003b0 0c c3 11 3e fa 3c f0 3d 6e 77 91 3c 94 4b cd bb
       0.1423456 0.1173038 0.017757144 -0.006265113
0003c0 6a b1 b8 3d 7e 03 e9 3d 18 1d 07 3c c6 bd a7 3d
       0.09018214 0.11377619 0.008246683 0.08190493
0003d0 34 29 01 3e 39 dd cf 3d a6 7a 57 3d fe fa 41 3d
       0.12613374 0.10149617 0.0526072 0.047358505
0003e0 0d 69 95 bd ca a9 f7 bd 41 ef e9 bd 94 bd 4f bc
       -0.072954275 -0.120929316 -0.11422587 -0.012679476
0003f0 ff 31 4c 3d 2c 43 00 3e 6d 06 9d 3d df 3d a2 3d
       0.049852367 0.12525624 0.07667241 0.07921957

bias f4 [128]
000000 21 b1 83 3c 5e c7 52 3e a8 9a da 3e 2d 24 62 3e
       0.016075673 0.20583865 0.42696118 0.22084112
000010 b6 a3 81 3e 2c 28 c5 3e 0b 3a 60 3d b8 14 13 3e
       0.25320214 0.3850721 0.054742854 0.14363372
000020 7d d3 4b 3e 91 90 8a 3e 38 f6 98 3e 47 d8 f5 3d
       0.19904895 0.2706342 0.2987535 0.12004142
000030 38 11 12 3e cb b3 c6 3e d0 f7 c8 3d bd bf 65 3e
       0.14264381 0.38809046 0.098128915 0.22436424
000040 29 11 7b 3c 24 4e c9 3e 6c 97 7b 3c 2c 9c 1c 3e
       0.0153239155 0.3931743 0.015355926 0.1529395
000050 2f 24 11 3e 37 13 b4 3d e1 d6 b8 3e 2d 02 4f 3e
       0.14173959 0.087927274 0.3610144 0.20215674
000060 71 0d a2 3c 7e 2f 96 3e 0f 0e ff 3c a6 fc 69 3d
       0.0197818 0.2933311 0.031134633 0.05712571
000070 e1 26 af 3e 87 ca 93 3e b4 ad d4 3c 61 54 40 3e
       0.3420935 0.28865454 0.025961734 0.18782188
000080 64 a4 bb 3e 50 29 90 3e 7f f3 bb 3d cb 25 22 3e
       0.36648858 0.2815652 0.091773026 0.1583473
000090 c2 2f 98 3e 67 00 c2 3e 44 5c c9 3d b8 d6 27 3e
       0.29723936 0.37890932 0.098320514 0.16390502
0000a0 12 0e f5 3d 09 6d e9 3d c4 40 ae 3e 49 a9 b0 3e
       0.11965574 0.1139775 0.34033787 0.34504154
0000b0 cb 98 8e 3e 02 da fb 3e aa 68 b7 3d d2 b1 b7 3e
       0.27850947 0.49189764 0.0895551 0.35877854
0000c0 df 92 a7 3e da e8 40 bc a9 9d 72 3c bb f7 c6 3e
       0.3272924 -0.011774266 0.014808097 0.38860878
0000d0 73 0e b4 3e 06 6d a3 3c c3 46 72 3d a3 c6 96 3e
       0.35167274 0.019949447 0.059149515 0.29448423
0000e0 e6 0b a6 3d 38 07 ba 3e 8d 44 d5 3e 73 69 29 3e
       0.08107738 0.36333632 0.41653863 0.16544132
0000f0 72 5f ed 3c 0e cf 90 3d a3 79 48 3e 2d 41 02 3c
       0.028976176 0.070707425 0.1957765 0.007950109
000100 1a 67 88 bb da 5c 78 3e 9e 5e ea 3d 87 b0 c8 3e
       -0.0041626813 0.2425417 0.11443828 0.3919718
000110 1b 2d d7 3e 9d 75 c0 3c ef e9 00 3f 9b 04 10 3e
       0.420266 0.023493582 0.50356954 0.14064257
000120 81 04 bc 3d c5 10 b4 3c 3a fb c7 3d 04 45 ce 3e
       0.091805466 0.021980653 0.097647145 0.4028703
000130 63 21 82 3d 06 bd a0 3d ab de af 3c 80 23 c6 3e
       0.06354024 0.07848553 0.021468481 0.3869896
000140 9b bc bc 3d 4d 22 ab 3e 9a 5b 4e 3e cc 46 f2 3e
       0.09215661 0.33424607 0.2015213 0.4731964
000150 63 5a c0 3e aa ff e2 3d 11 ca 95 3d 2d 74 69 3e
       0.3756896 0.1108392 0.07313932 0.22798224
000160 bd 82 ca 3c 54 b0 9c 3c e2 a4 91 3c 28 97 39 3d
       0.024720544 0.019127049 0.017778818 0.04531017
000170 49 94 dd 3e 9c 0f e5 3c be bd cf 3e 9f a3 3f 3d
       0.43277195 0.027961545 0.4057445 0.0467869
000180 5c 55 8c 3d 6c ce 62 3e 9a 77 82 3d 10 b3 bf 3e
       0.068522185 0.22149056 0.063704684 0.374413
000190 18 11 6d 3e 6b e8 23 3e bc a4 0f 3d 00 25 98 3e
       0.23151052 0.16006629 0.035069212 0.2971573
0001a0 4f 7b 45 3e 7d a3 2a 3e 2c 07 28 3e 66 a8 bd 3e
       0.1928532 0.16663928 0.16408986 0.3704254
0001b0 ca 1c 1b 3e 96 f9 b3 3c 27 a1 65 3e 3b 17 b9 3d
       0.15147701 0.021969598 0.22424756 0.09037634
0001c0 a5 92 85 3d e9 30 a5 3e d9 82 9d 3e 58 4e b2 3e
       0.06522111 0.32263878 0.3076389 0.34825397
0001d0 ec d6 9e 3e d3 ff 1a 3e 83 b0 96 3d c9 2d 49 3d
       0.31023347 0.15136652 0.07357886 0.04911593
0001e0 cf d4 24 3e 84 8d da 3e d5 ea 34 3e f1 f6 28 3c
       0.16096805 0.42686093 0.17667706 0.010312782
0001f0 f3 47 9c 3d 5a b0 92 3e 52 0a 91 3d 54 a1 b6 3e
       0.07630911 0.2865017 0.070820466 0.3566996

weight f4 [128, 128]
000000 d0 aa 26 3d e5 8c 3c 3e 53 bf 01 3e 1d 89 1b 3e
       0.040690243 0.18413122 0.1267064 0.15189023
000010 4c 0a 15 3e f6 0d 1e 3e 0a 30 4d 3d b6 09 58 3b
       0.14554709 0.15435013 0.05009464 0.0032964773
000020 e2 d5 d5 3d 78 28 6d 3d 78 ea d8 3c e8 fe f5 3c
       0.104411855 0.057899922 0.02647899 0.030028775
000030 9c 14 d0 3d 30 7a 6e 3e 70 f9 47 3d 86 0d 81 3c
       0.10160181 0.23288798 0.048821867 0.015753519
000040 97 11 84 3d a3 c0 04 3e 3a ba db 3d da 97 cd 3d
       0.064486675 0.1296411 0.10728879 0.10038729
000050 5c b5 7e 3d d3 6a 60 3d b3 2d 09 3e 54 15 5f 3b
       0.062184677 0.054789376 0.13396339 0.0034039812
000060 71 74 6f 3d e2 77 45 3d 3c 84 e1 3d c0 a2 5c bc
       0.058460657 0.048210032 0.1101155 -0.013466537
000070 0e 86 9a 3d 65 cd 03 3e 75 f5 1b 3d 5d dd 3d 3d
       0.075451 0.1287132 0.038075883 0.046353687
000080 14 f7 97 3d e8 bf 8c 3c 00 09 83 3e f6 f1 c0 3c
       0.07420173 0.017181352 0.25592804 0.023552876
000090 94 e0 6c 3e 3a 11 aa 3d 11 5f 81 3c b7 0b eb bc
       0.23132545 0.08304067 0.015792402 -0.02869211
0000a0 71 07 09 3e 42 f0 5d bc 7b 66 4c 3e 1c a9 b9 3d
       0.13381745 -0.013546051 0.19960968 0.09065458
0000b0 95 81 0b 3e ed eb 90 3e 24 71 00 3e 87 3b 62 3d
       0.1362365 0.28304997 0.1254316 0.05523255
0000c0 3f ca 07 3e 93 05 0f 3e cf 52 a0 3d 9e 4e 90 3e
       0.13260745 0.1396697 0.078282945 0.2818498
0000d0 83 14 1d 3e d3 72 d3 bd d4 1d a9 3d 80 a1 0a 3d
       0.15339856 -0.10324635 0.082576424 0.033845425
0000e0 6b 5a 12 3e d6 c2 54 3e 86 b9 fd 3d 83 24 ce 3e
       0.14292304 0.20777449 0.123889014 0.4026223
0000f0 6c d0 23 3d be ac 8e 3d 89 44 71 3d 6c f5 f3 3d
       0.03999369 0.06966542 0.05890325 0.11912045
000100 c5 9a da 3d 73 39 84 bb 89 3b a3 3b 24 38 61 3e
       0.10674051 -0.004035169 0.0049814624 0.21994072
000110 fb 4b 6c 3d b4 96 c2 3d 2e 10 7d 3e cc c4 f6 3d
       0.057689648 0.095014006 0.24713203 0.12049255
000120 84 57 00 3e a8 c6 08 3e 4a cc b6 3d 86 62 5b 3e
       0.12533385 0.13357031 0.08925684 0.21424302
000130 7b f1 a1 3d 9b 61 14 3e 61 0c aa 3d 2f 70 34 3e
       0.07907387 0.14490359 0.08303142 0.1762092
000140 e1 9e da 3d a0 0f 47 3e 62 a4 87 be 0e 44 8d 3d
       0.10674835 0.19439554 -0.26492602 0.06897746
000150 b9 01 35 3e 91 d0 27 bd 0d 23 ae bc 24 b6 5a 3d
       0.17676438 -0.04097039 -0.021256948 0.05339636
000160 21 1c 85 3c 77 04 d6 3d 50 3f 8e 3d 74 24 01 3e
       0.016248764 0.1045007 0.0694567 0.12611562
000170 5f 01 5d 3e f9 6f 72 3d a9 84 0f be b0 1e 14 3e
       0.21582554 0.059188817 -0.1401545 0.14464831
000180 cc 7c c7 bb f9 f7 73 3d bf b9 ae 3d d8 56 0d 3e
       -0.006087875 0.059562657 0.08531522 0.1380266
000190 26 6d 76 bb 36 3c 9e bb bc e3 07 3e dc 17 e4 3d
       -0.0037601679 -0.004828955 0.13270468 0.11137363
0001a0 a5 0c 99 3d da b5 f0 3d b2 f2 3a 3c b2 37 3c 3e
       0.07473115 0.117534354 0.011410402 0.18380621
0001b0 62 5a 3c 3d c7 27 99 bc e5 55 6d 3d 2f b4 29 3b
       0.045984633 -0.018695725 0.057943244 0.0025894751
0001c0 f2 e5 2b 3d 24 77 a9 3d 9e 34 23 3e 37 3d 0d 3e
       0.04196734 0.082746774 0.1593804 0.13792883
0001d0 49 c9 56 3e 35 69 96 3d 33 df 01 3d eb 09 6f 3d
       0.20975222 0.073442854 0.031707 0.058359068
0001e0 28 a1 03 bd 2f 07 2d 3e 8b 6e 04 3e 1d 85 66 3d
       -0.032136112 0.16897272 0.12932794 0.05627929
0001f0 e7 68 bd 3d 4c 67 f2 3c 1c 15 08 bc c0 79 18 3e
       0.09248524 0.029590271 -0.008305814 0.14890194
000200 3c 5e 6a be 07 ec 10 be 9a 21 18 bc c4 57 82 bd
       -0.2288751 -0.14152537 -0.009285355 -0.06364396
000210 25 dd c8 bd 3f 20 4d bd 34 2c be bd 0c 8e 25 3d
       -0.09807805 -0.05007958 -0.09285775 0.04041867
000220 8a 9f 2a bd 58 65 e6 3d 5d 9c 67 3d 5b f2 80 3d
       -0.041656055 0.112497985 0.056545604 0.06296226
000230 98 26 3c bd bf e6 a3 3d 45 42 4a bb b5 29 28 3d
       -0.045935243 0.08002996 -0.0030862254 0.0410554
000240 68 2b 27 be e0 56 49 3d 5b 2c 39 be c9 a3 0d be
       -0.16325152 0.049155116 -0.18083327 -0.1383201
000250 a7 2c 09 3d db dc a9 3d 01 19 22 bc 64 69 9c 3d
       0.03348985 0.08294078 -0.009893657 0.07637289
000260 ed 59 29 be ce 9a 89 bd 66 5f 82 be 00 ad 47 be
       -0.1653821 -0.0671898 -0.25463408 -0.19499588
000270 e6 bb 87 bc a3 4b a3 3d 98 68 fe bd 7a 90 a9 3d
       -0.01656909 0.07973411 -0.124222934 0.0827951
000280 60 2e 51 3d 9b b7 a5 3d 84 c1 6f be 36 55 42 3a
       0.051069617 0.080916606 -0.23413664 0.000741321
000290 82 06 e0 bd e2 87 4e 3d 22 e7 eb bc 1e 00 bd bc
       -0.10938741 0.050422557 -0.028796736 -0.023071345
0002a0 41 4b 36 bd c4 54 cf bd aa 8c 9f 3d 4c d1 72 3c
       -0.04450536 -0.1012359 0.077905014 0.014820408
0002b0 05 ed 49 3d 57 6a 47 bd b2 52 3d 39 3b 11 b2 bb
       0.049298305 -0.048685398 0.00018055251 -0.005434183
0002c0 ba 32 cd 3d 69 31 0e be f9 c8 3e be 0b 13 e9 bc
       0.10019441 -0.13886036 -0.18631352 -0.028451463
0002d0 70 56 fe 3b 33 d0 9b 3e df d3 9b bc 3c a0 ab 3c
       0.007761769 0.3043228 -0.019021926 0.02095043
0002e0 16 e8 6b bc 49 11 4b 3c 72 58 79 3d de c3 92 be
       -0.014398595 0.012394258 0.060875364 -0.2866506
0002f0 61 bb 50 be 1f e0 41 be 91 3f 75 3d 0a 9e 86 be
       -0.2038398 -0.18933152 0.059875075 -0.2629245
000300 30 a0 67 be 31 2c 66 3d 63 be c1 bd 18 09 79 3c
       -0.226197 0.056194488 -0.094601415 0.015199922
000310 10 35 99 bd 22 37 20 be 84 af f1 3a c2 8b 8c bc
       -0.07480824 -0.15646031 0.0018439149 -0.017156485
000320 64 bf d3 bd 9b 92 28 be 5d 19 02 bc ec 2c 4e bd
       -0.10339239 -0.16462176 -0.007940617 -0.05033581
000330 1c f3 e2 bd 7f f8 e0 bd a1 1d 80 be 98 1c 32 bd
       -0.11081526 -0.10984897 -0.25022605 -0.0434843
000340 a6 e4 b3 bd 26 d2 43 bd 39 de dd 3d cb 26 ad 3c
       -0.087838456 -0.047807835 0.10833401 0.021136662
000350 6f ec 58 bd 44 15 96 3d e3 38 be bd 0a dd 50 3d
       -0.052959856 0.07328275 -0.09288194 0.05099205
000360 52 93 0c be fd 98 8b be d4 00 32 be c8 fc 10 be
       -0.13728073 -0.27265158 -0.17383128 -0.14158928
000370 60 b0 e1 bc b2 45 19 be b3 e4 e5 3d af cd 6d be
       -0.027549922 -0.14967993 0.112252615 -0.23222993
000380 cb ae a1 3c 0e c0 11 3d 98 72 8e 3d ef 5f 36 3d
       0.019736668 0.03558355 0.06955451 0.044525083
000390 bc 89 ef bc 12 a0 cb 3c 89 68 b4 bd 2b ea 4f bd
       -0.029240482 0.0248566 -0.08809001 -0.05076043
0003a0 70 19 7e 3d 48 7b 19 3d 71 4c d1 bc b8 e8 00 bd
       0.062035978 0.037471086 -0.025549145 -0.031471938
0003b0 d4 0a 44 bc 0a 9f 53 be 43 fb 98 3d a7 0e e3 3d
       -0.011965472 -0.20666137 0.07469799 0.11086779
0003c0 5d 3e 95 bd bd 63 67 bd 9a 16 29 3d 1e 94 64 bd
       -0.072872855 -0.056491602 0.04128132 -0.055805318
0003d0 03 e1 2a 3c b1 e3 c3 bd e0 bd 08 bd e4 13 a6 bd
       0.010429624 -0.09564913 -0.033384204 -0.081092626
0003e0 93 e8 af 3d b0 08 c6 3b f0 fe 91 bd d0 c1 48 be
       0.08589282 0.006043516 -0.071287036 -0.19605184
0003f0 e9 82 0b be c6 99 c2 3c 55 8d 2e 3c c3 80 f6 bb
       -0.13624157 0.023754966 0.010653813 -0.007522674

bias f4 [128]
000000 ae 82 ba 3d 10 86 3d bd c5 1d db 3d 96 9c f5 bd
       0.091069564 -0.04627043 0.106990375 -0.11992757
000010 e5 ad 57 3d 67 ab 6d 3c 83 81 a7 bd c9 2d c9 bb
       0.052656073 0.014506198 -0.08178999 -0.006139491
000020 92 3e 02 3c 31 20 27 bd dd 30 3c bd b5 d8 9f bd
       0.007949488 -0.040802184 -0.045945037 -0.078050055
000030 ca 0c 11 bd 30 ac 72 3d 32 1c 05 3e 6d 73 89 bd
       -0.035412587 0.059246242 0.12999037 -0.06711469
000040 52 b7 c5 bd 14 b5 2c bd 56 c1 56 3d 68 8e 4a 3d
       -0.09654106 -0.042164877 0.052430473 0.049452215
000050 60 8c 44 bc 50 be 64 bd f4 15 26 3d 87 07 34 be
       -0.011996359 -0.05584556 0.04054828 -0.17580996
000060 09 d3 26 3e d4 c7 b7 bc 1b 15 d2 bd a8 c4 84 bc
       0.16291441 -0.022434153 -0.10257932 -0.016207054
000070 e2 c7 ec 3d 22 3a 05 be 9b 1f 7a bc ee bb 82 3d
       0.11561562 -0.13010457 -0.015266324 0.06383501
000080 a6 8f 49 bd 93 fd 9b bd 51 c0 bd ba 5e 2b f3 bd
       -0.04920926 -0.07616725 -0.001447687 -0.11873506
000090 70 be d3 3d 4d 39 11 bd 84 7d 4d 3c 5b a2 a6 bc
       0.103390574 -0.035455037 0.012542132 -0.020341089
0000a0 b3 3b a9 3d 0f 9a 5a 3d b1 39 66 3c 8b 17 9f 3b
       0.0826334 0.053369578 0.014051841 0.0048551015
0000b0 7a 88 b1 3d 63 0a 02 be 59 55 fa bd b0 47 b3 3d
       0.08668609 -0.12699275 -0.1222331 0.08753908
0000c0 30 fd f3 bd 5e 10 b5 3d cb 5a cb bd f1 6f 32 bc
       -0.11913526 0.088410124 -0.09929427 -0.010890947
0000d0 5d b8 8c bc e6 f2 a6 bd 35 2e cc bd be cb 47 be
       -0.017177755 -0.08151798 -0.09969751 -0.19511315
0000e0 f2 fd 94 3d db dd 27 bd 52 c7 57 bd 58 fd 15 3d
       0.07274999 -0.040983062 -0.05268032 0.03661856
0000f0 07 ce cd 3d 21 81 28 3c c7 95 24 3d 34 da 60 3e
       0.10049062 0.010284693 0.0401819 0.21958238
000100 dd db dd bd e9 47 ff 3d 5a bf 2c 3d 95 0c 89 bb
       -0.10832951 0.12464888 0.042174675 -0.004182408
000110 c5 b6 66 3c 3e 38 ce bc 5a a7 e6 bd 14 de b1 bd
       0.014081662 -0.025173303 -0.112623885 -0.08684936
000120 6d 64 09 be ef 3d 79 3d 6f 77 f3 bc 5b bb bd bd
       -0.13417216 0.06085008 -0.029720036 -0.09264251
000130 d6 c7 d4 bb ed d5 0c bb 4f 25 be 3d 43 4c 42 bd
       -0.006493549 -0.0021489814 0.0928446 -0.04743601
000140 1f 1f 04 3e 3f ef 18 3d 82 a9 ff 3c cd 89 25 3e
       0.12902497 0.037337538 0.031208757 0.16165848
000150 a5 16 3c 3b 0b 09 62 3d f8 88 0f bd c8 9e 8b 3d
       0.002870002 0.055184405 -0.035042733 0.068173945
000160 ee 9d c2 3c f4 8b b1 bd 58 4f 01 3d 68 cc 8a 3d
       0.023756947 -0.08669272 0.03156981 0.06777269
000170 e5 d4 4a bc e8 cd 15 be 5d 56 8a 3d 08 4a f5 bc
       -0.01237986 -0.14629328 0.06754754 -0.029942527
000180 fd d5 ac bd 09 53 b7 3c 61 d9 2f 3d 1b ac 32 3c
       -0.084392525 0.022378461 0.042931918 0.010905291
000190 5a 34 d3 3c 51 21 b2 bd 2f 5c 30 bd 1f a5 50 bc
       0.0257818 -0.08697761 -0.043056663 -0.01273468
0001a0 e8 ca f1 3c 7e bc a7 bd 3e 71 51 be be 88 c7 bd
       0.029515699 -0.08190249 -0.20453355 -0.097428784
0001b0 51 86 0e bd bc f1 d9 3d b8 6c 46 bd 51 48 2a be
       -0.034796063 0.1064181 -0.048443526 -0.16629149
0001c0 78 27 3d bd dd 1b 75 bd 07 36 6a 3d 7b 31 3c 3d
       -0.04618022 -0.059841026 0.05718043 0.045945626
0001d0 ce ca b6 3c f2 7f 08 be 28 60 e2 3d 7b 22 ee 3d
       0.022313502 -0.13330057 0.110534966 0.116276704
0001e0 38 06 25 bd a2 93 87 bc a5 54 9e bc 17 a2 c4 bd
       -0.040289134 -0.016549889 -0.019327471 -0.09601229
0001f0 26 05 2d 3c 36 ba a5 3c fd 9f 22 bb c1 dc c1 3d
       0.0105603095 0.020230394 -0.0024814599 0.094659336

weight f4 [64, 146]
000000 04 3a 66 8d 75 96 52 0b 88 cf ea 8c b0 06 ae 0d
       -7.0944056e-31 4.055772e-32 -3.6178312e-31 1.0725188e-30
000010 65 39 90 8d 29 5a 3c 8c d4 2a 94 0d 2f cf d2 8c
       -8.888502e-31 -1.4510125e-31 9.131515e-31 -3.2480317e-31
000020 12 02 da 8d 40 8e e5 0d ba a7 09 0c 2e d8 cf 0d
       -1.3435786e-30 1.414746e-30 1.060457e-31 1.2809403e-30
000030 25 81 c3 0c 80 02 9f 8c 8c a2 ae 8d 91 8e a1 0d
       3.0122233e-31 -2.4499334e-31 -1.076271e-30 9.956713e-31
000040 4b 4e dc 0d 1e fe bc 0d e4 05 80 8d 63 cc ba 0c
       1.3577395e-30 1.1647571e-30 -7.890027e-31 2.8780848e-31
000050 3d 02 e4 0d 11 a4 c7 0d e7 f0 97 0d da 9b e3 0d
       1.4052124e-30 1.2303819e-30 9.364089e-31 1.4027475e-30
000060 68 60 03 8e 0f 14 b8 0d fc aa 9e 0d 03 05 31 8d
       -1.6193415e-30 1.1344704e-30 9.778665e-31 -5.454837e-31
000070 60 f4 6b 8d 1b 79 e7 0d 25 0e 14 8d 74 80 01 8d
       -7.270912e-31 1.4265629e-30 -4.5623047e-31 -3.9905814e-31
000080 ce e6 8f 0d 01 5f db 0d d8 f6 5d 8d 31 e6 df 0d
       8.86862e-31 1.3519788e-30 -6.839801e-31 1.3798853e-30
000090 74 a7 b4 8d 97 b8 a2 0d cd 3d 82 0d 87 b1 00 0d
       -1.1133669e-30 1.0028459e-30 8.026747e-31 3.9656736e-31
0000a0 9f b2 e9 8d d8 5e 52 8d 86 54 2c 0d bb 45 b7 8d
       -1.4402735e-30 -6.482541e-31 5.3103333e-31 -1.1295033e-30
0000b0 ae e2 ec 8d 97 72 9c 0d 1d d1 8a 0d 50 e8 c0 8d
       -1.4599194e-30 9.641829e-31 8.555249e-31 -1.1888841e-30
0000c0 42 32 0c 0e 38 dd 00 8e f3 2b 0a 0d f2 b0 85 0d
       1.728053e-30 -1.5883731e-30 4.2577435e-31 8.239356e-31
0000d0 7e 20 24 0d 18 03 b5 0a 9f 32 a5 0c e3 07 0f 0e
       5.0575513e-31 1.743083e-32 2.5452742e-31 1.7629908e-30
0000e0 e9 bd 88 0c 0b 70 86 0d 01 5c e8 0d e7 89 a2 8d
       2.1068416e-31 8.285361e-31 1.4320253e-30 -1.001722e-30
0000f0 56 04 8d 8d 14 22 60 8d 8a aa 49 8d 4d 6c 1c 8e
       -8.69084e-31 -6.906635e-31 -6.2143186e-31 -1.928063e-30
000100 9e e0 5e 0d 97 b3 8f 8d d6 a7 0b 8e 42 1a e9 0c
       6.8679405e-31 -8.85629e-31 -1.7213883e-30 3.5915138e-31
000110 f4 e9 96 8d 00 3c c3 0d ee 73 4b 0d 9a bf e9 0d
       -9.300786e-31 1.2032247e-30 6.269375e-31 1.440586e-30
000120 97 62 af 0d 16 4d df 8d 54 47 49 0d 66 f2 13 0d
       1.0808942e-30 -1.3761994e-30 6.2023765e-31 4.558965e-31
000130 65 62 31 0a 90 14 3a 0d 81 84 5e 8d f7 f4 27 0c
       8.540746e-33 5.7340426e-31 -6.8568527e-31 1.2938928e-31
000140 b6 7d 11 8e c9 cd 59 0d bf 00 9d 8d 58 23 f1 8d
       -1.7933157e-30 6.7115993e-31 -9.676052e-31 -1.486128e-30
000150 1b f9 a7 0d 5f ca 89 0c 69 a1 8c 8d a8 10 c0 8d
       1.035214e-30 2.122999e-31 -8.667024e-31 -1.1836923e-30
000160 93 3d 6a 0d 30 19 c1 0d 35 03 05 8d 40 84 fe 8d
       7.2180934e-31 1.1900607e-30 -4.098765e-31 -1.5685797e-30
000170 12 bb c3 0d 75 fa b4 0d ed 29 a5 8a 7b 1f b9 8d
       1.2062838e-30 1.1153652e-30 -1.5904693e-32 -1.1409084e-30
000180 e4 42 9e 0d 94 84 98 8d 4a e4 cd 8d de 24 c7 8d
       9.753605e-31 -9.39964e-31 -1.2689059e-30 -1.2273197e-30
000190 57 5d b9 8c 26 51 e8 0d bc 1f 60 8d a0 50 86 0c
       -2.855994e-31 1.431764e-30 -6.906353e-31 2.0694493e-31
0001a0 a3 c4 81 0d df b8 a9 0d 2c 45 e4 0d df f1 ac 0d
       7.997577e-31 1.0459935e-30 1.4068237e-30 1.0658547e-30
0001b0 3f 2b 73 0d 35 46 55 8d ee 14 de 0d 2e 55 ee 0d
       7.493221e-31 -6.57202e-31 1.3686845e-30 1.4688389e-30
0001c0 95 5e c6 0c db 45 b6 0d 56 27 07 8e 00 f2 24 0d
       3.0563655e-31 1.1233433e-30 -1.6658974e-30 5.08277e-31
0001d0 9b 3d bc 8d 93 f2 ec 0d 60 22 d6 8d 32 29 b8 8d
       -1.16012255e-30 1.4603021e-30 -1.3197044e-30 -1.1349793e-30
0001e0 29 74 a6 0d 6a d9 e5 0d b3 08 55 0d 36 0e ce 0d
       1.0258504e-30 1.4165555e-30 6.5646164e-31 1.2699151e-30
0001f0 ee 3b 86 0d 42 7a 5c 8d 57 c0 86 8d ab e7 db 8d
       8.272815e-31 -6.7939897e-31 -8.304692e-31 -1.3552689e-30
000200 a7 04 ac 8f 6d 00 fe 0c 42 a4 94 8c ee 8e 9b 0c
       -1.6962301e-29 3.9135153e-31 -2.290187e-31 2.3967554e-31
000210 93 c8 aa 8f b3 73 b9 8c a0 38 a9 8c 10 b4 f0 8c
       -1.6840553e-29 -2.8573397e-31 -2.6072653e-31 -3.7086226e-31
000220 3f de 9b 8f 3f 20 24 10 f3 d8 f8 8e 13 48 93 8c
       -1.5369786e-29 3.236814e-29 -6.1345635e-30 -2.2692314e-31
000230 7c 61 66 8e e2 b3 a0 0f af 86 3a 8e 4d b9 34 0e
       -2.8396626e-30 1.5846506e-29 -2.2991118e-30 2.2275932e-30
000240 a8 4e 0e 8e 23 eb a7 0f 5b 8a 08 3c de 74 22 b8
       -1.7540723e-30 1.6558043e-29 0.008333768 -3.873265e-05
000250 4b 88 9b ba d7 7c e1 3b 6b 0b 65 3c 10 56 07 b9
       -0.001186618 0.006881337 0.013979773 -0.00012906664
000260 4e 1f ae 3b 0c a7 b7 ba fe bb 53 3c b3 82 ca 3c
       0.0053137904 -0.0014011576 0.012923239 0.024720525
000270 14 3c ef 38 40 d4 82 3c ae 62 d0 39 fe cd 28 b9
       0.000114075985 0.01597035 0.00039746374 -0.00016098467
000280 23 20 08 3b 70 d7 92 3c be 07 34 3d 2e 2f 23 3d
       0.0020771108 0.017924994 0.043952696 0.039839916
000290 c7 d4 aa bb 20 3e cf ba 4a 3c 40 bc 47 5f 41 bc
       -0.0052133533 -0.0015811361 -0.011733124 -0.011802501
0002a0 9e 3d 19 bc a2 b7 1d 39 1f be ef bc 3d 6e 3b 3c
       -0.00935307 0.00015041095 -0.029265461 0.011439857
0002b0 93 67 1a 3b 60 5a dc 3b 52 59 2d bb 4d 27 08 3c
       0.002356027 0.0067246407 -0.0026450944 0.008310151
0002c0 ae 9b 22 bb 8f 02 3a 3a ee de 10 3c 70 29 1b 3d
       -0.002481203 0.0007095718 0.008842213 0.037881315
0002d0 f3 4d 4c 3c 28 e1 19 3d 65 d3 4e 3c 82 7a 72 3a
       0.012469756 0.03756824 0.012623643 0.00092498225
0002e0 af fe 77 3c c4 ec 69 ba c0 b8 12 bd 57 37 b7 bb
       0.015136405 -0.00089235255 -0.035820723 -0.005591314
0002f0 86 28 b5 bb 79 c0 f4 bc 88 ec 14 3c 8c 44 21 3c
       -0.0055285124 -0.029876934 0.009089597 0.009843003
000300 4e 26 f4 3b f9 39 cd bb fc e0 b9 39 22 1d 46 bd
       0.0074508553 -0.0062630144 0.00035453576 -0.048367627
000310 6a fa 6a 39 f1 9e c0 3c a1 61 20 bb 55 1e 13 38
       0.00022409266 0.02351329 -0.0024472254 3.507578e-05
000320 13 ef 28 b9 78 13 b4 bc 0a 82 f1 38 45 85 1f 3c
       -0.0001611079 -0.02198194 0.00011515997 0.009736364
000330 9d 68 97 bc 6c 0f e1 bb 23 b8 00 bd 30 6a ac bb
       -0.0184825 -0.0068682935 -0.031425606 -0.005261682
000340 eb 5e 13 3b 4f 3d 94 bc 67 5f 75 3b 46 b5 a2 bc
       0.0022486995 -0.01809564 0.0037440897 -0.019861829
000350 4e bb 95 bc a9 94 2c 3b 53 0f 8b bb b1 fc 9d 3c
       -0.01827779 0.0026333726 -0.00424377 0.019285532
000360 81 04 7f 3c 91 2c 41 3c 4e 61 d5 3c 8d 6d e8 bb
       0.015565039 0.011790411 0.026047375 -0.0070931376
000370 95 ad 0d 3c 32 83 7b 3b 71 37 33 38 14 db ff 3b
       0.008647342 0.003837776 4.272856e-05 0.0078080986
000380 5d eb 21 3c ae 64 85 39 61 14 aa ba b2 bd 0f 39
       0.009882775 0.0002544275 -0.0012976044 0.0001370821
000390 62 17 12 3c b5 c9 30 bc 84 ee 16 b9 b7 6d 03 39
       0.008916708 -0.010790278 -0.00014393969 0.00012534006
0003a0 8e 7c 96 3c fc f9 48 3c b5 1c 0a 3c 5d 49 56 39
       0.01836994 0.012266632 0.008429696 0.0002043596
0003b0 56 59 7b bb 9a 83 fa 39 e8 33 c2 3c 15 4c 6a 3c
       -0.003835281 0.00047781767 0.023706391 0.014300366
0003c0 bb 5a 66 38 81 eb b8 bc b1 29 2d 3b c0 65 f5 bc
       5.4920773e-05 -0.022573235 0.0026422555 -0.029955745
0003d0 da 1b 2a bd 2e 0a 19 3b 9d b0 40 b9 59 a3 51 3d
       -0.041530468 0.0023352015 -0.0001837634 0.05118117
0003e0 2a f5 82 bc b7 25 ff 39 41 60 1b bb 52 18 62 3b
       -0.015986044 0.0004866549 -0.0023708495 0.003449936
0003f0 fe 20 4c bc b4 59 d2 3b fa c4 90 3b 4b c9 f3 39
       -0.012459038 0.006419385 0.0044180127 0.00046498547

bias f4 [64]
000000 5f 6b 82 8b 36 6e 61 b8 22 46 7b bc c8 04 44 3b
       -5.023573e-32 -5.3746822e-05 -0.015336545 0.0029910076
000010 6e a9 54 ba 00 0c f4 3b cd 6c 01 b9 9c 11 d6 b9
       -0.0008112405 0.0074477196 -0.0001234293 -0.0004083038
000020 0e 8c fd b8 9a 27 4e 3a 52 b5 d1 bb 0b 15 18 b8
       -0.00012090067 0.00078641775 -0.006399789 -3.625922e-05
000030 54 2f c9 b9 37 52 26 ba f2 e5 78 ba 2b ec ca 3c
       -0.0003837297 -0.00063446484 -0.0009494714 0.024770817
000040 c9 90 fa 93 fb 77 08 3a d7 c3 62 bc c0 a8 c9 85
       -6.325164e-27 0.0005205867 -0.013840637 -1.8963938e-35
000050 44 33 9d 3c a4 5c 82 3a 37 d9 e6 3a 36 ed b1 ba
       0.019189484 0.0009945822 0.0017612342 -0.0013574723
000060 fd 3c 12 b9 78 93 1c 3c 7b 7d 99 8b ee fd 68 bb
       -0.00013946365 0.009556644 -5.912226e-32 -0.0035551745
000070 e5 0a 73 97 07 52 0b b4 f9 bf a4 37 50 7f a4 bb
       -7.8531286e-25 -1.2975225e-07 1.9639718e-05 -0.0050200596
000080 33 50 d2 bb b1 75 b6 3a fe 44 97 b7 5a db 44 3d
       -0.006418252 0.0013920573 -1.803273e-05 0.048060752
000090 f4 23 24 80 02 8c dd b8 fb 41 23 ba d6 94 dd b9
       -3.318975e-39 -0.0001056418 -0.00062277884 -0.00042263296
0000a0 f5 28 8b 3c 5e c1 1d 3a a6 af 9c b9 64 77 52 39
       0.016987303 0.00060178887 -0.00029885507 0.00020071637
0000b0 91 a4 37 b9 ee 07 1d 3c cc 50 3d 3b 40 4d 25 bd
       -0.00017513546 0.00958441 0.002888727 -0.040356874
0000c0 45 9f 4d 38 10 62 2f 39 4f a4 a8 b9 8d a1 45 39
       4.902414e-05 0.00016725832 -0.00032165876 0.00018847566
0000d0 c0 3f 21 3b 7a c6 cb bc dd 4a bc 39 b3 8e a0 b9
       0.0024604648 -0.024874914 0.00035913932 -0.00030623897
0000e0 1f 41 9b 3a 68 76 f5 3c 59 09 60 af 10 f7 df b9
       0.0011844969 0.029963687 -2.0376002e-10 -0.0004271795
0000f0 92 9e 0f bb 64 a7 63 3b be a3 b5 bc f3 5d 31 b9
       -0.0021914584 0.0034737224 -0.022172805 -0.00016915034

weight f4 [19, 64]
000000 c1 42 8c 0c aa 76 e3 bc 46 f9 48 3c a6 35 91 bd
       2.1610591e-31 -0.027766544 0.012266463 -0.07090311
000010 43 53 e1 ba ad fa 04 3d d6 11 d2 bc 66 2d 93 bc
       -0.0017190952 0.032465626 -0.02564327 -0.017965984
000020 0c c9 51 ba 1c a5 25 3a 90 56 bd bc 10 42 83 b7
       -0.00080026756 0.00063188537 -0.023112565 -1.564718e-05
000030 9f 29 81 bd 6b fa a0 3d d1 a8 d1 b8 1e fd 07 3b
       -0.06306767 0.078602634 -9.997341e-05 0.0020750235
000040 a2 23 15 21 fc 7e 95 bd 10 3d b0 bc 22 17 61 8c
       5.0530323e-19 -0.07299611 -0.021513492 -1.7340331e-31
000050 56 e7 38 bd 86 0f f7 bb e3 9c f3 bb 59 ef 85 bc
       -0.045142494 -0.0075396923 -0.007434474 -0.016349481
000060 ff d8 d3 3c bd eb 5a bd 69 a5 92 91 ac 73 9c bd
       0.025860308 -0.053447474 -2.313668e-28 -0.0763925
000070 1c 8c fe 1e 89 38 76 b8 74 0b 30 3d e1 f6 3e 3d
       2.6951244e-20 -5.8703623e-05 0.042979673 0.04662216
000080 fa 84 0d 3b 40 31 90 3d 36 40 76 36 9f 8f 21 bc
       0.0021594153 0.07040644 3.6694232e-06 -0.009860902
000090 40 5b 66 01 1a 6b 26 ba f4 ee 85 3d a5 af 4f 3d
       4.2309797e-38 -0.0006348357 0.06539717 0.050704617
0000a0 67 52 f9 3a 58 94 6e 3d 60 4d 0a ba 1a 05 96 3d
       0.001902175 0.05824694 -0.0005275812 0.07325192
0000b0 20 04 b3 3a 86 d1 c8 3b 73 b1 9a 3d ea 24 e8 3b
       0.0013657846 0.0061284928 0.07553377 0.0070844786
0000c0 2c a1 d8 3a e8 f5 20 bd 48 2d 83 bc 59 03 c7 3c
       0.0016527525 -0.039297014 -0.016012803 0.024293588
0000d0 14 03 f5 39 b0 46 f4 bd 8f 41 c8 3a cc 21 09 bd
       0.00046732335 -0.11927545 0.0015278327 -0.033479497
0000e0 11 8d 0e 3d 63 5b ca 3a 8e e4 04 38 0b ea 74 3d
       0.0348025 0.0015438612 3.168411e-05 0.059793513
0000f0 37 29 62 3d f8 dc 77 bc ee ae 20 bd 5e b8 ca 3b
       0.055215087 -0.015128367 -0.039229326 0.006186529
000100 80 7c e7 89 38 19 c9 b7 ce e6 00 80 ef 06 69 b9
       -5.5728306e-33 -2.397281e-05 -8.2797e-41 -0.00022223195
000110 f3 bf 7a 39 8d e9 03 ba 1f 35 01 39 67 23 01 00
       0.00023913365 -0.0005032055 0.00012322188 1.04535e-40
000120 67 9e 0b b9 28 1e 3d bb fe 92 97 38 d2 2a 39 b8
       -0.00013315082 -0.0028857086 7.2276205e-05 -4.4147317e-05
000130 62 05 b9 b9 37 6f 18 b7 5a a1 1a 39 29 9a 01 00
       -0.0003528996 -9.0858e-06 0.00014746693 1.47138e-40
000140 de 06 e7 8f 2a 75 01 80 0b 74 00 80 53 8c 9f 89
       -2.2781004e-29 -1.33866e-40 -4.1628e-41 -3.8409818e-33
000150 cc 17 92 3d 00 bb 03 3a cf ec 07 ba 54 a5 bd ba
       0.07133445 0.00050251186 -0.00051851285 -0.0014468827
000160 09 28 80 b8 fd 26 05 b8 9c 87 00 00 77 70 18 b8
       -6.110973e-05 -3.174598e-05 4.8647e-41 -3.6344365e-05
000170 1d 2a 48 8c 70 0c 3a 32 bb d9 df b9 bc 7a e7 35
       -1.5420113e-31 1.0829453e-08 -0.00042696096 1.7246562e-06
000180 19 b5 0e b9 a2 28 61 3b 54 42 5c b6 34 f7 00 00
       -0.0001360964 0.0034356494 -3.2821163e-06 8.868e-41
000190 f4 1a 03 00 f3 44 97 38 3e 5b c7 38 c1 8e e0 39
       2.85175e-40 7.213084e-05 9.5060546e-05 0.0004283097
0001a0 bc 4a 45 3b f3 47 9e b9 c9 df ab 3a 2c 13 7a 39
       0.003010436 -0.00030189715 0.0013112958 0.00023849
0001b0 75 8d 16 ba eb 7a 73 bd 73 a6 42 39 30 6b 01 00
       -0.00057431246 -0.059443396 0.00018563289 1.30287e-40
0001c0 6a 84 9e 3a 29 c6 76 b7 41 be 9d 39 10 c7 f0 38
       0.0012093906 -1.470888e-05 0.00030087124 0.0001148117
0001d0 3f 70 f3 3a 13 21 c4 b8 89 89 25 3c 1f a7 c2 b9
       0.0018572881 -9.352169e-05 0.010103592 -0.00037127078
0001e0 d3 23 01 80 72 4b 04 38 3a e3 01 38 58 9c 56 b7
       -1.04687e-40 3.1541516e-05 3.0967618e-05 -1.2791796e-05
0001f0 62 5b 00 80 53 ab 3d 39 68 cd e9 bc c1 ad 97 36
       -3.2782e-41 0.00018088268 -0.028540328 4.5203783e-06
000200 78 b8 79 09 cb b8 4d b7 52 09 01 80 73 6d 34 39
       3.0059022e-33 -1.2261978e-05 -9.5179e-41 0.0001720691
000210 53 4e 68 39 4c 3c 70 39 a5 34 01 b9 9f e1 01 00
       0.00022154422 0.00022910646 -0.0001232201 1.72773e-40
000220 3f a0 0b 39 b9 30 41 bb 2f 3a 97 38 8d da 1f b8
       0.0001331577 -0.0029478504 7.2110786e-05 -3.8112095e-05
000230 a4 b3 f8 39 2e 3c 84 38 c2 6f 01 b9 42 9f 00 80
       0.0004743609 6.30546e-05 -0.00012344032 -5.7131e-41
000240 13 df 82 0f 54 43 00 00 c9 08 01 00 96 2c d2 89
       1.2904915e-29 2.4153e-41 9.4987e-41 -5.059759e-33
000250 33 65 19 3d 87 cb d7 b9 18 2e 3f bb fc b1 42 bc
       0.037450027 -0.00041159635 -0.002917176 -0.011883255
000260 08 d9 33 b8 b6 82 fc b8 b8 c2 1e 80 7c 64 65 b8
       -4.287905e-05 -0.00012040643 -2.824917e-39 -5.4691438e-05
000270 cd 0b b9 0b 4f 64 5f 33 07 10 3d 37 73 94 5f 34
       7.1277164e-32 5.2012464e-08 1.12690095e-05 2.0822499e-07
000280 fc c9 bc 37 56 0d 20 3a 0d d8 c7 b6 49 3d 01 80
       2.2505403e-05 0.0006105503 -5.955814e-06 -1.1382e-40
000290 d8 e0 06 00 91 06 9f b8 e9 57 89 38 88 b0 d0 39
       6.31672e-40 -7.582934e-05 6.5490436e-05 0.00039804378
0002a0 53 ce d7 bb d6 58 a4 b9 ca f0 d8 3b d5 ea 61 3a
       -0.006585875 -0.00031346706 0.006620501 0.00086180615
0002b0 0c e4 a6 bb 0c f7 3d 3d 13 c4 b9 39 7c cb 01 80
       -0.0050931033 0.04637818 0.00035432036 -1.64832e-40
0002c0 08 06 59 3b 5d ec 6d 37 8c bf 9d 39 8d d5 d9 38
       0.0033115167 1.4181333e-05 0.00030088087 0.00010387143
0002d0 e9 2a 8e 38 49 82 d2 b8 16 30 e3 bc 3e 24 1d 38
       6.77908e-05 -0.00010037848 -0.02773289 3.746547e-05
0002e0 b9 7c 01 80 e6 2d 51 bc 6c d2 01 b8 4e 8b 84 b7
       -1.36578e-40 -0.012767291 -3.0951967e-05 -1.5800495e-05
0002f0 aa 4c 00 80 7c 1d 3b b9 6e 32 4d bd 5e 99 47 32
       -2.7502e-41 -0.00017844694 -0.05009692 1.1618196e-08
000300 10 7f 8e 89 62 66 c9 b7 30 82 00 80 c2 99 67 b9
       -3.4304746e-33 -2.4008743e-05 -4.6702e-41 -0.00022087156
000310 d4 3b 76 39 47 e3 00 ba dc 34 01 b9 d2 9d 00 80
       0.00023482676 -0.00049166795 -0.0001232209 -5.6615e-41
000320 40 9f 0b b9 99 a5 9d 3b 79 32 95 b8 b8 b4 45 38
       -0.00013315398 0.0048110005 -7.114275e-05 4.7136768e-05
000330 02 26 b9 39 86 99 16 ba 07 b9 1a 39 56 fa 00 00
       0.00035314268 -0.00057449227 0.00014755513 8.9804e-41
000340 fc 9d 91 0b c8 4b 02 80 f4 8f 01 80 9c 0f 3e 89
       5.6089677e-32 -2.10856e-40 -1.43476e-40 -2.2877758e-33
000350 cf 86 90 bc 6f 4d 06 3a bb 32 01 ba 85 8d 01 3d
       -0.017642407 0.0005123233 -0.0004928519 0.031629104
000360 18 12 7f b8 fe 1c 81 b8 40 92 01 00 02 b3 02 b8
       -6.081359e-05 -6.1565996e-05 1.443e-40 -3.116113e-05
000370 d5 62 62 05 ed a8 e9 ac 8e 17 a3 b9 67 78 ea 35
       1.06446215e-35 -6.641013e-12 -0.00031107332 1.74694e-06
000380 61 8d 07 b9 a7 d7 a3 3a 1c 90 32 b7 7f 0e 00 80
       -0.00012927271 0.0012500182 -1.064318e-05 -5.2e-42
000390 30 17 11 80 e9 90 83 38 a8 49 b5 38 96 83 e0 39
       -1.569522e-39 6.2735584e-05 8.644472e-05 0.00042822649
0003a0 41 c3 7b 3b b7 ec a0 b9 69 0f 36 3c 69 54 95 3a
       0.003841594 -0.00030693944 0.0111120725 0.0011392954
0003b0 f7 60 3a bb 8e e7 92 bd c1 83 51 39 7d 57 00 00
       -0.0028439143 -0.07173072 0.00019980875 3.1385e-41
0003c0 09 fc eb ba b7 32 50 b7 d6 bd 9d 39 43 ac f0 38
       -0.001800419 -1.2409574e-05 0.00030086812 0.00011476178
0003d0 ff 85 8e b9 0f 61 7b bc c4 86 6e bc 20 7a 26 b8
       -0.00027184185 -0.015342965 -0.014558498 -3.9691222e-05
0003e0 5b 60 00 00 99 f2 0d 38 1b 55 fb b7 34 f9 b5 b7
       3.4566e-41 3.3842956e-05 -2.9961162e-05 -2.1692926e-05
0003f0 59 3b 01 80 fa ab 3d 39 73 5e ca 3b fd 98 e8 36
       -1.13125e-40 0.00018088511 0.00617581 6.931949e-06

bias f4 [19]
000000 e2 eb a1 3e 0f 02 82 bc b1 9c 4b 3d 92 5c e7 ba
       0.31625277 -0.015870122 0.04970998 -0.001765149
000010 89 7f a1 3e 32 d2 cc 3c 52 46 c8 bc 72 46 a5 bc
       0.31542614 0.025002573 -0.024447594 -0.020175193
000020 ed d4 b3 3e 08 15 a1 3e 5f 9b d0 bb 27 fd 33 bc
       0.35123387 0.31461358 -0.006366178 -0.010985649
000030 3f e6 77 3b 56 02 99 3e ef 76 de bb 6c a5 f8 bb
       0.0037826446 0.29884595 -0.0067890803 -0.007588079
000040 8b f9 35 bc af 3d 9d 3e 7a a9 1e 3f
       -0.011106859 0.30711123 0.6197735
